ppo_algorithm/data/CartpoleSwingShort-v0_2019-03-13_08-32-44/best_policy/save_file.pt (torch_old, 40013 bytes, 24 tensors)

net.0.weight f4 [32, 5]
0	0xbfaa7b58	-1.3318892
1	0xbed6fdf9	-0.4199064
2	0xbf140a8e	-0.57828605
3	0x3e945f1d	0.28978816
4	0x3daaf2f6	0.08347122
5	0x3f1ebec9	0.62009865
6	0x3f0a0d5f	0.5392665
7	0x3f413abf	0.75480264
8	0x3f2e9e18	0.6820998
9	0x3e526711	0.20547129
10	0xbebd7f46	-0.37011164
11	0xbed3c1f0	-0.413589
12	0x3f8ee523	1.1163677
13	0xbe1c522a	-0.15265718
14	0x3e168b61	0.14701606
15	0x3fc83e08	1.564393
16	0xbe8a0229	-0.26954773
17	0x3d9d73ab	0.076880775
18	0x3d50f5bd	0.051015604
19	0xbce16244	-0.027512677
20	0xbfc9f125	-1.5776716
21	0xbedb735c	-0.4286145
22	0x3eb457d7	0.35223266
23	0x3f65e6a0	0.8980503
24	0x3e8d78b7	0.2763116
25	0xc01bac99	-2.4324095
26	0xbd4d0f1c	-0.050063238
27	0xbe3c1dc0	-0.18370724
28	0x3d61985d	0.055076946
29	0xbdbddc66	-0.09270553
30	0x3f4ba28e	0.79544914
31	0x3f43fb21	0.7655507
32	0xbcf00a37	-0.029301746
33	0x3e94d46a	0.2906831
34	0xbd42cd46	-0.047559045
35	0x40224b14	2.5358324
36	0xbf17dffa	-0.59326136
37	0xbefc7599	-0.4930847
38	0xbefcfe41	-0.4941273
39	0x3d8e8fea	0.06961043
40	0xbf43502d	-0.76294214
41	0xbf739aed	-0.95158273
42	0x3ebfff82	0.37499624
43	0x3bab2acb	0.005223607
44	0xbe210b4e	-0.15726969
45	0x3fcafe7c	1.5858912
46	0xbee505a4	-0.44730866
47	0x3f191bcb	0.59808034
48	0xbf07ce40	-0.5304909
49	0xbd8e674e	-0.069532976
50	0x3d99acbd	0.0750365
51	0xbf6e7471	-0.93146425
52	0x3f003379	0.5007854
53	0xbec59d93	-0.38596782
54	0xbdd12841	-0.10212756
55	0x3f94ae01	1.1615602
56	0x3e9e0a39	0.30867174
57	0x3f45ed72	0.7731544
58	0x3dd32772	0.10310258
59	0x3e01ede5	0.12688406
60	0x400f1cee	2.2361407
61	0x3f548566	0.8301605
62	0xbd909495	-0.0705959
63	0xbe6a0759	-0.22854365
64	0xbdd74d5b	-0.10512801
65	0xbf9e3b6d	-1.2361885
66	0xbf65ae92	-0.897195
67	0x3f00628c	0.5015037
68	0x3e002192	0.12512806
69	0xbda19b59	-0.07890958
70	0xbfd5c879	-1.6701804
71	0x3e30aafd	0.17252727
72	0x3d227362	0.03966082
73	0x3c2f0c20	0.010684043
74	0x3ca3e641	0.020007255
75	0x3f140660	0.5782223
76	0x3de19c0d	0.110160924
77	0x3fca507d	1.5805813
78	0xbef69b06	-0.48165148
79	0x3d7f43a8	0.06232038
80	0x3efbb163	0.49158773
81	0x3e26aa76	0.16275963
82	0xbecb7483	-0.3973733
83	0x3f208492	0.62702286
84	0xbdebd0fc	-0.1151447
85	0x3fb6946d	1.4264046
86	0x3f61c038	0.8818393
87	0xbda1cd9f	-0.07900547
88	0x3eb7a10e	0.35865062
89	0xbd88f454	-0.06687227
90	0x3fb4a444	1.411263
91	0xbeee5c93	-0.46555004
92	0x3ee40ab3	0.44539413
93	0xbe538a55	-0.20658238
94	0x3e1eb7a5	0.15499742
95	0x3e47271d	0.19448514
96	0x3f5e8f22	0.86937153
97	0x3f4b472c	0.79405475
98	0x3e655188	0.22394383
99	0x3dfa92aa	0.12235005
100	0x3f01f029	0.5075708
101	0x3e96fc05	0.2948915
102	0xbd45f664	-0.04833068
103	0x3e827d80	0.25486374
104	0xbd3b4d81	-0.04572821
105	0xbf770813	-0.96496695
106	0xbebb33f6	-0.3656308
107	0x3e07e1b1	0.13269688
108	0xbd500c12	-0.05079276
109	0x3d0704e2	0.03296364
110	0xbe5e6ad4	-0.21720439
111	0x3ed5aa93	0.417317
112	0xbf1094f9	-0.56477314
113	0x3c67e20a	0.014153013
114	0xbf25fc62	-0.6483823
115	0x3dfea1ea	0.124332264
116	0xbdd20f8b	-0.10256871
117	0xbf89d3c0	-1.0767746
118	0xbf017b7a	-0.50579035
119	0xbe814aed	-0.25252476
120	0xbe8a9793	-0.27068767
121	0x3ec86c55	0.3914515
122	0xbfd57fdb	-1.6679643
123	0x3f80c323	1.0059551
124	0x3e1d7f57	0.15380608
125	0xbe364b20	-0.17802095
126	0x3ef788fe	0.48346704
127	0x3fcd816a	1.6055119
128	0x3efea8a6	0.49738044
129	0xbdba58b5	-0.09098951
130	0xbdf1ed9c	-0.118128985
131	0x3f7161e0	0.9428997
132	0x3f27e14f	0.6557817
133	0xbef000be	-0.46875566
134	0xbe354d42	-0.17705253
135	0xbf81f34f	-1.0152377
136	0xbf1adc3e	-0.6049231
137	0xbe4b6f09	-0.19866575
138	0xbef61e6e	-0.4807009
139	0x3c83b0fa	0.0160756
140	0x3f400b2a	0.75017035
141	0xbf276f4b	-0.65404195
142	0xbf331961	-0.699606
143	0xbd07aa98	-0.033121675
144	0x3db97cf2	0.090570346
145	0xbe906f3e	-0.2820987
146	0x3f6dd63d	0.92905027
147	0x3ddbe2d3	0.10736623
148	0xbf0c1f32	-0.547351
149	0xbe489bb9	-0.19590653
150	0xbe722146	-0.23645505
151	0xbca72fc2	-0.020408515
152	0xbf2580a3	-0.6464941
153	0x3d5f2670	0.054480016
154	0x3e98fbb0	0.29879522
155	0xbeadcb86	-0.3394434
156	0xbe1793c9	-0.1480247
157	0x3f832489	1.0245525
158	0xbe8e2c29	-0.27768067
159	0xbe65038f	-0.22364639

net.0.bias f4 [32]
0	0x3eb26a1a	0.34846574
1	0x3e698c23	0.22807364
2	0x3f0e0dfe	0.554901
3	0x3f870a44	1.0550008
4	0x3f14df10	0.58152866
5	0x3efbd32a	0.49184543
6	0x3f278f17	0.6545271
7	0x3f11ed58	0.5700278
8	0x3f1a995d	0.60390264
9	0x3f96af8a	1.177232
10	0x3f4d5379	0.80205494
11	0x3f3bad2e	0.73311126
12	0xbeed9a87	-0.46406958
13	0x3f901352	1.1255896
14	0xbf6674b5	-0.9002183
15	0x3f8e6bdc	1.1126666
16	0x3efdac0f	0.49545333
17	0xbf298972	-0.6622535
18	0xbe469972	-0.19394472
19	0x3eeeec14	0.46664488
20	0x3f2a9961	0.6664029
21	0xbf330e8e	-0.69944084
22	0x3e38a14b	0.18030278
23	0xbf6772ae	-0.9040936
24	0xbf44a95d	-0.7682093
25	0x3f2cd787	0.6751637
26	0x3e89c113	0.26905116
27	0x3e09d2a9	0.13459267
28	0xbf3f2bae	-0.74676025
29	0x3f094867	0.536261
30	0xbf0f779d	-0.5604189
31	0x3f433f48	0.76268435

net.2.weight f4 [32, 32]
0	0xbee7bc69	-0.45260933
1	0x3d74cb10	0.059763968
2	0x3ef74f0c	0.48302495
3	0x3e5660af	0.2093532
4	0x3eb18417	0.3467109
5	0xbe7f2f23	-0.24920325
6	0xbe98fb76	-0.2987935
7	0xbf83668c	-1.026567
8	0x3f4342e1	0.76273924
9	0x3e39f377	0.1815928
10	0x3f0bdd1f	0.5463428
11	0x3f94ef59	1.1635543
12	0xbf0e74cc	-0.5564697
13	0x3fa0ea84	1.2571568
14	0x3e40a27d	0.18811984
15	0x3e5a405c	0.21313614
16	0x3e7eb1c4	0.248725
17	0x3f14e24c	0.581578
18	0x3efb736e	0.49111503
19	0x3f7d22cc	0.9888122
20	0x3c74bdac	0.014937799
21	0x3e5e9ab1	0.21738698
22	0xbd21a17c	-0.039460644
23	0xbf90c2a8	-1.1309404
24	0xbfa03b94	-1.2518182
25	0x3f3d69c9	0.7398954
26	0xbea33ddc	-0.31883132
27	0xbe33a8d7	-0.17544876
28	0xbdb086bc	-0.086194485
29	0x3f421a47	0.75821346
30	0xbf1baa3f	-0.6080665
31	0x3f0c5cb9	0.54828984
32	0x3fb93084	1.4467931
33	0xbe494f8e	-0.19659254
34	0x3f69108f	0.9104089
35	0xbeece421	-0.462678
36	0x3fb979f6	1.4490345
37	0x40502fb0	3.2529106
38	0x3ec1bf0c	0.3784107
39	0x3ec15248	0.37758088
40	0x3e7dbf68	0.24780047
41	0x3f54548c	0.8294151
42	0x3e19541e	0.14973494
43	0xbdc01cfe	-0.0938053
44	0xc01a8170	-2.4141502
45	0x3e854ac0	0.26033592
46	0xbedf765a	-0.43644983
47	0x3e35b31a	0.17744103
48	0x3d3daed1	0.046309296
49	0xc00d68cb	-2.209521
50	0xbfc053c4	-1.5025563
51	0x3ed79cfe	0.42111963
52	0x3effdec0	0.49974632
53	0xbece14e3	-0.4025031
54	0xbe4b57f3	-0.19857769
55	0xbee6dd45	-0.4509069
56	0xbdb24a57	-0.087055854
57	0x3e30767d	0.172327
58	0x3e4cb2e8	0.19990122
59	0x3f92d2e8	1.1470613
60	0xbf1c06f2	-0.609481
61	0x3ee3d19c	0.44495857
62	0xbdd83586	-0.10557084
63	0xbd87fa50	-0.0663954
64	0xbe20b864	-0.1569534
65	0x3c2e73be	0.010647712
66	0x3e1747c0	0.14773464
67	0xbf9b8ffd	-1.2153317
68	0xbe8c61b9	-0.27418306
69	0x3b965fcf	0.004589058
70	0xbf498afe	-0.7872771
71	0xbf90d4dd	-1.1314961
72	0x3d539ce9	0.051663313
73	0xbf6c06a5	-0.9219764
74	0xbc57e296	-0.013176581
75	0xbdc8b6f3	-0.0980052
76	0x3e84e315	0.259545
77	0x3f163eb6	0.5868944
78	0x3f5522a4	0.8325598
79	0xbf88cc05	-1.0687262
80	0xbea342ff	-0.3188705
81	0x3ee2603a	0.4421404
82	0x3ec7d006	0.39025897
83	0xbf0c009b	-0.54688424
84	0xbf849672	-1.0358412
85	0x3f366c79	0.71259266
86	0xbd654e64	-0.055982962
87	0x3e9e45b2	0.30912548
88	0xbbbbffb8	-0.005737271
89	0xbf19a7ef	-0.6002187
90	0xbf26e4f9	-0.65193135
91	0x3f085205	0.5325015
92	0x3ee4de39	0.44700792
93	0x3ec0e3c7	0.3767378
94	0xbd947c7e	-0.072503075
95	0x3e66ad03	0.22526936
96	0x3f771569	0.96517044
97	0xbe79bd54	-0.24388629
98	0x3f16195c	0.58632445
99	0x3e939686	0.28825778
100	0x3f99c064	1.2011838
101	0x403647d8	2.848135
102	0x3e969e36	0.2941758
103	0x3e827011	0.25476125
104	0x3cc51c87	0.024061454
105	0x3f21333a	0.6296879
106	0x3e29a41a	0.16566506
107	0x3ca7170d	0.020396734
108	0xc009bbc7	-2.152086
109	0xbbcde9aa	-0.0062839584
110	0xbe82bdc5	-0.25535408
111	0x3f232f4d	0.6374405
112	0x3f1f2ae4	0.6217482
113	0xbfdaca47	-1.709298
114	0xbf92f322	-1.1480448
115	0x3dac0a17	0.08400362
116	0x3f5d6837	0.86487144
117	0xbee6a595	-0.45048204
118	0xbc904cf7	-0.017614825
119	0xbf2a05c5	-0.66415054
120	0xbe235dd8	-0.15953767
121	0x3e0f0c43	0.13969521
122	0x3ed1aa7a	0.40950376
123	0x3f1dbbc1	0.61614615
124	0xbfa9cb9e	-1.3265264
125	0x3f16fa88	0.5897603
126	0x3e86ff92	0.2636686
127	0x3de845db	0.11341449
128	0xbeb54969	-0.3540757
129	0x3f0815a4	0.5315802
130	0x3e710fd9	0.23541202
131	0xbf1ffdb4	-0.62496495
132	0x3ec2fd1c	0.38083732
133	0x3ea79b92	0.32735878
134	0xbe9a6176	-0.30152482
135	0xbf94c759	-1.1623336
136	0x3eea0800	0.4570923
137	0xbf165dca	-0.5873686
138	0x3ec1e5ad	0.3787054
139	0x3eb737dd	0.35784808
140	0x3e000e50	0.1250546
141	0x3e7c3b65	0.24632032
142	0x3f3601f4	0.7109673
143	0xbea4a93d	-0.3216037
144	0xbe48afa9	-0.19598259
145	0x3ed8ae67	0.42320558
146	0x3e3c17e8	0.18368495
147	0x3f752d9e	0.9577273
148	0xbe7f095b	-0.24905913
149	0x3f6722ef	0.9028768
150	0x3e144e5b	0.14483015
151	0xbe1566da	-0.14590016
152	0xbe72afd9	-0.23699893
153	0x3f075351	0.52861506
154	0x3e8b26ee	0.27178138
155	0x3d90f9d0	0.07078898
156	0xbe70e95b	-0.23526518
157	0x3efadd34	0.4899689
158	0xbe36bf43	-0.17846398
159	0x3f3146cb	0.69248646
160	0x3ef353c2	0.4752484
161	0xbefc43ee	-0.49270576
162	0xbf17086f	-0.58997244
163	0xbed20490	-0.41019106
164	0xbea90554	-0.33011878
165	0x3e7e1cc4	0.2481566
166	0x3ede6400	0.4343567
167	0xbec14731	-0.37749627
168	0xbf2e5a4d	-0.6810654
169	0x3d561bea	0.052272715
170	0xbf5eefc3	-0.870846
171	0xbf841217	-1.031802
172	0x3e9a6b83	0.3016015
173	0xbf6c4bff	-0.9230346
174	0x3db3efdc	0.08785984
175	0xbdb71481	-0.08939458
176	0x3e090493	0.13380651
177	0xbb5b9c66	-0.0033509969
178	0xbf7f5ecc	-0.99754024
179	0xbf02df08	-0.5112157
180	0x3ebff635	0.3749253
181	0xbf34fc81	-0.7069779
182	0x3e538b58	0.20658624
183	0x3f88bd11	1.0682698
184	0x3f9742eb	1.1817297
185	0xbf2f9ea4	-0.6860144
186	0x3e39b93c	0.18137068
187	0xbb942005	-0.0045204186
188	0xbf00739e	-0.5017642
189	0xbe34ea1e	-0.17667434
190	0x3f54d209	0.8313299
191	0xbf5d250a	-0.8638464
192	0xbeba611b	-0.3640221
193	0x3ea0d0e8	0.31409383
194	0xbec285a6	-0.3799259
195	0x400d8108	2.2110004
196	0x3d5c5f6a	0.05380193
197	0xbf3a57ad	-0.7279003
198	0x3f899387	1.0748147
199	0x4013d0da	2.3096223
200	0x3e26970c	0.16268557
201	0x3fb4c629	1.4122974
202	0x3e11118b	0.14166848
203	0xbd9779d8	-0.07396287
204	0x3f237f7f	0.6386642
205	0xbf0fac94	-0.5612271
206	0xc081005e	-4.031295
207	0x3f2aad0b	0.6667029
208	0x3f706a04	0.93911767
209	0x3e56c891	0.20974948
210	0x3e8c1b24	0.27364457
211	0x3d9342ad	0.07190452
212	0x3fb452be	1.4087751
213	0xbfd5b7d1	-1.6696721
214	0x3c06fc75	0.008238901
215	0xbeb5bdb2	-0.3549629
216	0xbc8e2f87	-0.017356647
217	0xbe31a36e	-0.173475
218	0xbed6f47d	-0.41983405
219	0xbeeb2243	-0.45924577
220	0xbe5298a1	-0.20566036
221	0xbf141ea5	-0.5785926
222	0xbeae3834	-0.34027255
223	0xbe6cd5f8	-0.23128498
224	0xbf16e81e	-0.5894793
225	0xbbf36cd0	-0.007428743
226	0x3ee936d7	0.45549652
227	0x3bbc5bfd	0.0057482705
228	0x3d5a65ba	0.05331967
229	0x3f3472a6	0.7048744
230	0xbf251271	-0.64481264
231	0xbf8b3e8f	-1.0878466
232	0x3ea18fef	0.31555125
233	0xbe0caff4	-0.13738996
234	0x3f5d8af1	0.8654013
235	0x3dd0ace9	0.1018923
236	0xbe8e581c	-0.27801597
237	0x3e84eaf1	0.25960496
238	0x3e732983	0.23746304
239	0xbe8f0240	-0.27931404
240	0xbf14be67	-0.5810303
241	0xbec6a7a0	-0.38799763
242	0x3ea72849	0.32647923
243	0x3e7262dd	0.23670526
244	0xbf16e88c	-0.5894859
245	0x3f17ace3	0.5924818
246	0x3e0dcee7	0.13848458
247	0xbf1b924c	-0.60770106
248	0xbe34875f	-0.17629765
249	0x3df0dc15	0.11760727
250	0x3e6cc3ef	0.23121618
251	0x3ec78bbb	0.38973793
252	0x3e48e6ea	0.19619337
253	0x3f2eef09	0.6833349
254	0x3dbed185	0.093173064
255	0x3ed09cd0	0.40744638

net.2.bias f4 [32]
0	0xbbc2e05e	-0.005947157
1	0x3f31e575	0.6949075
2	0xbf1332da	-0.5749947
3	0x3f188bb0	0.59588146
4	0xbeda4b2b	-0.42635474
5	0x3d94824d	0.072514154
6	0x3edfbf0d	0.43700448
7	0xbedbf0c3	-0.42957124
8	0xbf098af7	-0.5372767
9	0xbe5fc4a8	-0.21852362
10	0x3f39ac85	0.7252887
11	0x3d6f119c	0.058366403
12	0xbefff831	-0.49994043
13	0x3dfee6fe	0.12446402
14	0xbe2e7116	-0.17035326
15	0x3e82a95d	0.2551984
16	0xbeab21b0	-0.3342414
17	0xbcb8631e	-0.0225082
18	0x3e4fca38	0.20291984
19	0x3f0bcc10	0.5460825
20	0x3f0ec957	0.5577597
21	0x3f02ad28	0.51045465
22	0x3e7f4ba3	0.24931197
23	0x3ef3c0c5	0.4760801
24	0xbe57eb67	-0.21085893
25	0xbd94c5dc	-0.07264301
26	0x3ea8bbb9	0.3295572
27	0xbe93f530	-0.28898
28	0x3e2b0c6e	0.1670396
29	0x3db96df0	0.09054172
30	0x3edbc4bb	0.4292353
31	0xbeae5579	-0.34049585

out_mean.weight f4 [1, 32]
0	0x3ebf1b98	0.3732574
1	0xbcffbc33	-0.03121767
2	0x3ed7488a	0.4204753
3	0x3eaaf8a6	0.3339283
4	0x3e67eabe	0.22648141
5	0x3da82bb4	0.08211461
6	0x3e0f5da7	0.1400057
7	0x3ea8fd9f	0.33005998
8	0x3eb7502c	0.35803354
9	0x3e90e383	0.28298578
10	0xbef3e596	-0.47636098
11	0x3f40f271	0.75369936
12	0xc03cc76b	-2.9496715
13	0x4012fb30	2.2965813
14	0xbfded713	-1.7409385
15	0xbfb2ec88	-1.3978434
16	0x3e801b7c	0.2502097
17	0x3f060c08	0.5236211
18	0xbf0fd9f3	-0.5619194
19	0xbdd2cc70	-0.102928996
20	0x3eb63fce	0.35595554
21	0x3f8d5e9a	1.1044495
22	0x3d3ebb86	0.046565555
23	0x3f42f015	0.76147586
24	0x3fca00c7	1.5781487
25	0x3f2347ee	0.6378163
26	0xbf2049b3	-0.62612456
27	0x3b2a898b	0.0026021923
28	0x3f8d6c29	1.1048633
29	0x3fbd30f1	1.4780561
30	0xbfac18fc	-1.3445125
31	0x3f0a6fa1	0.5407658

out_value.weight f4 [1, 32]
0	0xc0276ed4	-2.6161394
1	0x40841645	4.1277184
2	0xc0403c26	-3.0036712
3	0x4063da7e	3.5602107
4	0xc0896e05	-4.29468
5	0x4023383e	2.5503078
6	0x406dbebc	3.7147665
7	0xc088a24f	-4.269813
8	0xc07e0033	-3.9687622
9	0xc05c3c90	-3.4411964
10	0x408524ce	4.1607428
11	0x404ba055	3.181661
12	0x3f8aa1a6	1.0830581
13	0xbff911c7	-1.945855
14	0xc018129b	-2.3761356
15	0x403ee746	2.9828658
16	0xc0578bd6	-3.36791
17	0xc057671c	-3.3656683
18	0x405674d9	3.3508818
19	0x406dea52	3.7174268
20	0x405d709f	3.4599988
21	0x403b675b	2.9281833
22	0x4082bcfa	4.0855684
23	0x4081bdf9	4.05444
24	0xc032657f	-2.7874448
25	0xc0269420	-2.6027908
26	0x404bda4b	3.1851985
27	0xc04e47cf	-3.2231328
28	0x405bb2b2	3.4327817
29	0x40477621	3.116585
30	0x4056247f	3.3459775
31	0xc03f4dbd	-2.9891198

weight f4 [32, 5]
0	0xbfaa7b58	-1.3318892
1	0xbed6fdf9	-0.4199064
2	0xbf140a8e	-0.57828605
3	0x3e945f1d	0.28978816
4	0x3daaf2f6	0.08347122
5	0x3f1ebec9	0.62009865
6	0x3f0a0d5f	0.5392665
7	0x3f413abf	0.75480264
8	0x3f2e9e18	0.6820998
9	0x3e526711	0.20547129
10	0xbebd7f46	-0.37011164
11	0xbed3c1f0	-0.413589
12	0x3f8ee523	1.1163677
13	0xbe1c522a	-0.15265718
14	0x3e168b61	0.14701606
15	0x3fc83e08	1.564393
16	0xbe8a0229	-0.26954773
17	0x3d9d73ab	0.076880775
18	0x3d50f5bd	0.051015604
19	0xbce16244	-0.027512677
20	0xbfc9f125	-1.5776716
21	0xbedb735c	-0.4286145
22	0x3eb457d7	0.35223266
23	0x3f65e6a0	0.8980503
24	0x3e8d78b7	0.2763116
25	0xc01bac99	-2.4324095
26	0xbd4d0f1c	-0.050063238
27	0xbe3c1dc0	-0.18370724
28	0x3d61985d	0.055076946
29	0xbdbddc66	-0.09270553
30	0x3f4ba28e	0.79544914
31	0x3f43fb21	0.7655507
32	0xbcf00a37	-0.029301746
33	0x3e94d46a	0.2906831
34	0xbd42cd46	-0.047559045
35	0x40224b14	2.5358324
36	0xbf17dffa	-0.59326136
37	0xbefc7599	-0.4930847
38	0xbefcfe41	-0.4941273
39	0x3d8e8fea	0.06961043
40	0xbf43502d	-0.76294214
41	0xbf739aed	-0.95158273
42	0x3ebfff82	0.37499624
43	0x3bab2acb	0.005223607
44	0xbe210b4e	-0.15726969
45	0x3fcafe7c	1.5858912
46	0xbee505a4	-0.44730866
47	0x3f191bcb	0.59808034
48	0xbf07ce40	-0.5304909
49	0xbd8e674e	-0.069532976
50	0x3d99acbd	0.0750365
51	0xbf6e7471	-0.93146425
52	0x3f003379	0.5007854
53	0xbec59d93	-0.38596782
54	0xbdd12841	-0.10212756
55	0x3f94ae01	1.1615602
56	0x3e9e0a39	0.30867174
57	0x3f45ed72	0.7731544
58	0x3dd32772	0.10310258
59	0x3e01ede5	0.12688406
60	0x400f1cee	2.2361407
61	0x3f548566	0.8301605
62	0xbd909495	-0.0705959
63	0xbe6a0759	-0.22854365
64	0xbdd74d5b	-0.10512801
65	0xbf9e3b6d	-1.2361885
66	0xbf65ae92	-0.897195
67	0x3f00628c	0.5015037
68	0x3e002192	0.12512806
69	0xbda19b59	-0.07890958
70	0xbfd5c879	-1.6701804
71	0x3e30aafd	0.17252727
72	0x3d227362	0.03966082
73	0x3c2f0c20	0.010684043
74	0x3ca3e641	0.020007255
75	0x3f140660	0.5782223
76	0x3de19c0d	0.110160924
77	0x3fca507d	1.5805813
78	0xbef69b06	-0.48165148
79	0x3d7f43a8	0.06232038
80	0x3efbb163	0.49158773
81	0x3e26aa76	0.16275963
82	0xbecb7483	-0.3973733
83	0x3f208492	0.62702286
84	0xbdebd0fc	-0.1151447
85	0x3fb6946d	1.4264046
86	0x3f61c038	0.8818393
87	0xbda1cd9f	-0.07900547
88	0x3eb7a10e	0.35865062
89	0xbd88f454	-0.06687227
90	0x3fb4a444	1.411263
91	0xbeee5c93	-0.46555004
92	0x3ee40ab3	0.44539413
93	0xbe538a55	-0.20658238
94	0x3e1eb7a5	0.15499742
95	0x3e47271d	0.19448514
96	0x3f5e8f22	0.86937153
97	0x3f4b472c	0.79405475
98	0x3e655188	0.22394383
99	0x3dfa92aa	0.12235005
100	0x3f01f029	0.5075708
101	0x3e96fc05	0.2948915
102	0xbd45f664	-0.04833068
103	0x3e827d80	0.25486374
104	0xbd3b4d81	-0.04572821
105	0xbf770813	-0.96496695
106	0xbebb33f6	-0.3656308
107	0x3e07e1b1	0.13269688
108	0xbd500c12	-0.05079276
109	0x3d0704e2	0.03296364
110	0xbe5e6ad4	-0.21720439
111	0x3ed5aa93	0.417317
112	0xbf1094f9	-0.56477314
113	0x3c67e20a	0.014153013
114	0xbf25fc62	-0.6483823
115	0x3dfea1ea	0.124332264
116	0xbdd20f8b	-0.10256871
117	0xbf89d3c0	-1.0767746
118	0xbf017b7a	-0.50579035
119	0xbe814aed	-0.25252476
120	0xbe8a9793	-0.27068767
121	0x3ec86c55	0.3914515
122	0xbfd57fdb	-1.6679643
123	0x3f80c323	1.0059551
124	0x3e1d7f57	0.15380608
125	0xbe364b20	-0.17802095
126	0x3ef788fe	0.48346704
127	0x3fcd816a	1.6055119
128	0x3efea8a6	0.49738044
129	0xbdba58b5	-0.09098951
130	0xbdf1ed9c	-0.118128985
131	0x3f7161e0	0.9428997
132	0x3f27e14f	0.6557817
133	0xbef000be	-0.46875566
134	0xbe354d42	-0.17705253
135	0xbf81f34f	-1.0152377
136	0xbf1adc3e	-0.6049231
137	0xbe4b6f09	-0.19866575
138	0xbef61e6e	-0.4807009
139	0x3c83b0fa	0.0160756
140	0x3f400b2a	0.75017035
141	0xbf276f4b	-0.65404195
142	0xbf331961	-0.699606
143	0xbd07aa98	-0.033121675
144	0x3db97cf2	0.090570346
145	0xbe906f3e	-0.2820987
146	0x3f6dd63d	0.92905027
147	0x3ddbe2d3	0.10736623
148	0xbf0c1f32	-0.547351
149	0xbe489bb9	-0.19590653
150	0xbe722146	-0.23645505
151	0xbca72fc2	-0.020408515
152	0xbf2580a3	-0.6464941
153	0x3d5f2670	0.054480016
154	0x3e98fbb0	0.29879522
155	0xbeadcb86	-0.3394434
156	0xbe1793c9	-0.1480247
157	0x3f832489	1.0245525
158	0xbe8e2c29	-0.27768067
159	0xbe65038f	-0.22364639

bias f4 [32]
0	0x3eb26a1a	0.34846574
1	0x3e698c23	0.22807364
2	0x3f0e0dfe	0.554901
3	0x3f870a44	1.0550008
4	0x3f14df10	0.58152866
5	0x3efbd32a	0.49184543
6	0x3f278f17	0.6545271
7	0x3f11ed58	0.5700278
8	0x3f1a995d	0.60390264
9	0x3f96af8a	1.177232
10	0x3f4d5379	0.80205494
11	0x3f3bad2e	0.73311126
12	0xbeed9a87	-0.46406958
13	0x3f901352	1.1255896
14	0xbf6674b5	-0.9002183
15	0x3f8e6bdc	1.1126666
16	0x3efdac0f	0.49545333
17	0xbf298972	-0.6622535
18	0xbe469972	-0.19394472
19	0x3eeeec14	0.46664488
20	0x3f2a9961	0.6664029
21	0xbf330e8e	-0.69944084
22	0x3e38a14b	0.18030278
23	0xbf6772ae	-0.9040936
24	0xbf44a95d	-0.7682093
25	0x3f2cd787	0.6751637
26	0x3e89c113	0.26905116
27	0x3e09d2a9	0.13459267
28	0xbf3f2bae	-0.74676025
29	0x3f094867	0.536261
30	0xbf0f779d	-0.5604189
31	0x3f433f48	0.76268435

weight f4 [32, 32]
0	0xbee7bc69	-0.45260933
1	0x3d74cb10	0.059763968
2	0x3ef74f0c	0.48302495
3	0x3e5660af	0.2093532
4	0x3eb18417	0.3467109
5	0xbe7f2f23	-0.24920325
6	0xbe98fb76	-0.2987935
7	0xbf83668c	-1.026567
8	0x3f4342e1	0.76273924
9	0x3e39f377	0.1815928
10	0x3f0bdd1f	0.5463428
11	0x3f94ef59	1.1635543
12	0xbf0e74cc	-0.5564697
13	0x3fa0ea84	1.2571568
14	0x3e40a27d	0.18811984
15	0x3e5a405c	0.21313614
16	0x3e7eb1c4	0.248725
17	0x3f14e24c	0.581578
18	0x3efb736e	0.49111503
19	0x3f7d22cc	0.9888122
20	0x3c74bdac	0.014937799
21	0x3e5e9ab1	0.21738698
22	0xbd21a17c	-0.039460644
23	0xbf90c2a8	-1.1309404
24	0xbfa03b94	-1.2518182
25	0x3f3d69c9	0.7398954
26	0xbea33ddc	-0.31883132
27	0xbe33a8d7	-0.17544876
28	0xbdb086bc	-0.086194485
29	0x3f421a47	0.75821346
30	0xbf1baa3f	-0.6080665
31	0x3f0c5cb9	0.54828984
32	0x3fb93084	1.4467931
33	0xbe494f8e	-0.19659254
34	0x3f69108f	0.9104089
35	0xbeece421	-0.462678
36	0x3fb979f6	1.4490345
37	0x40502fb0	3.2529106
38	0x3ec1bf0c	0.3784107
39	0x3ec15248	0.37758088
40	0x3e7dbf68	0.24780047
41	0x3f54548c	0.8294151
42	0x3e19541e	0.14973494
43	0xbdc01cfe	-0.0938053
44	0xc01a8170	-2.4141502
45	0x3e854ac0	0.26033592
46	0xbedf765a	-0.43644983
47	0x3e35b31a	0.17744103
48	0x3d3daed1	0.046309296
49	0xc00d68cb	-2.209521
50	0xbfc053c4	-1.5025563
51	0x3ed79cfe	0.42111963
52	0x3effdec0	0.49974632
53	0xbece14e3	-0.4025031
54	0xbe4b57f3	-0.19857769
55	0xbee6dd45	-0.4509069
56	0xbdb24a57	-0.087055854
57	0x3e30767d	0.172327
58	0x3e4cb2e8	0.19990122
59	0x3f92d2e8	1.1470613
60	0xbf1c06f2	-0.609481
61	0x3ee3d19c	0.44495857
62	0xbdd83586	-0.10557084
63	0xbd87fa50	-0.0663954
64	0xbe20b864	-0.1569534
65	0x3c2e73be	0.010647712
66	0x3e1747c0	0.14773464
67	0xbf9b8ffd	-1.2153317
68	0xbe8c61b9	-0.27418306
69	0x3b965fcf	0.004589058
70	0xbf498afe	-0.7872771
71	0xbf90d4dd	-1.1314961
72	0x3d539ce9	0.051663313
73	0xbf6c06a5	-0.9219764
74	0xbc57e296	-0.013176581
75	0xbdc8b6f3	-0.0980052
76	0x3e84e315	0.259545
77	0x3f163eb6	0.5868944
78	0x3f5522a4	0.8325598
79	0xbf88cc05	-1.0687262
80	0xbea342ff	-0.3188705
81	0x3ee2603a	0.4421404
82	0x3ec7d006	0.39025897
83	0xbf0c009b	-0.54688424
84	0xbf849672	-1.0358412
85	0x3f366c79	0.71259266
86	0xbd654e64	-0.055982962
87	0x3e9e45b2	0.30912548
88	0xbbbbffb8	-0.005737271
89	0xbf19a7ef	-0.6002187
90	0xbf26e4f9	-0.65193135
91	0x3f085205	0.5325015
92	0x3ee4de39	0.44700792
93	0x3ec0e3c7	0.3767378
94	0xbd947c7e	-0.072503075
95	0x3e66ad03	0.22526936
96	0x3f771569	0.96517044
97	0xbe79bd54	-0.24388629
98	0x3f16195c	0.58632445
99	0x3e939686	0.28825778
100	0x3f99c064	1.2011838
101	0x403647d8	2.848135
102	0x3e969e36	0.2941758
103	0x3e827011	0.25476125
104	0x3cc51c87	0.024061454
105	0x3f21333a	0.6296879
106	0x3e29a41a	0.16566506
107	0x3ca7170d	0.020396734
108	0xc009bbc7	-2.152086
109	0xbbcde9aa	-0.0062839584
110	0xbe82bdc5	-0.25535408
111	0x3f232f4d	0.6374405
112	0x3f1f2ae4	0.6217482
113	0xbfdaca47	-1.709298
114	0xbf92f322	-1.1480448
115	0x3dac0a17	0.08400362
116	0x3f5d6837	0.86487144
117	0xbee6a595	-0.45048204
118	0xbc904cf7	-0.017614825
119	0xbf2a05c5	-0.66415054
120	0xbe235dd8	-0.15953767
121	0x3e0f0c43	0.13969521
122	0x3ed1aa7a	0.40950376
123	0x3f1dbbc1	0.61614615
124	0xbfa9cb9e	-1.3265264
125	0x3f16fa88	0.5897603
126	0x3e86ff92	0.2636686
127	0x3de845db	0.11341449
128	0xbeb54969	-0.3540757
129	0x3f0815a4	0.5315802
130	0x3e710fd9	0.23541202
131	0xbf1ffdb4	-0.62496495
132	0x3ec2fd1c	0.38083732
133	0x3ea79b92	0.32735878
134	0xbe9a6176	-0.30152482
135	0xbf94c759	-1.1623336
136	0x3eea0800	0.4570923
137	0xbf165dca	-0.5873686
138	0x3ec1e5ad	0.3787054
139	0x3eb737dd	0.35784808
140	0x3e000e50	0.1250546
141	0x3e7c3b65	0.24632032
142	0x3f3601f4	0.7109673
143	0xbea4a93d	-0.3216037
144	0xbe48afa9	-0.19598259
145	0x3ed8ae67	0.42320558
146	0x3e3c17e8	0.18368495
147	0x3f752d9e	0.9577273
148	0xbe7f095b	-0.24905913
149	0x3f6722ef	0.9028768
150	0x3e144e5b	0.14483015
151	0xbe1566da	-0.14590016
152	0xbe72afd9	-0.23699893
153	0x3f075351	0.52861506
154	0x3e8b26ee	0.27178138
155	0x3d90f9d0	0.07078898
156	0xbe70e95b	-0.23526518
157	0x3efadd34	0.4899689
158	0xbe36bf43	-0.17846398
159	0x3f3146cb	0.69248646
160	0x3ef353c2	0.4752484
161	0xbefc43ee	-0.49270576
162	0xbf17086f	-0.58997244
163	0xbed20490	-0.41019106
164	0xbea90554	-0.33011878
165	0x3e7e1cc4	0.2481566
166	0x3ede6400	0.4343567
167	0xbec14731	-0.37749627
168	0xbf2e5a4d	-0.6810654
169	0x3d561bea	0.052272715
170	0xbf5eefc3	-0.870846
171	0xbf841217	-1.031802
172	0x3e9a6b83	0.3016015
173	0xbf6c4bff	-0.9230346
174	0x3db3efdc	0.08785984
175	0xbdb71481	-0.08939458
176	0x3e090493	0.13380651
177	0xbb5b9c66	-0.0033509969
178	0xbf7f5ecc	-0.99754024
179	0xbf02df08	-0.5112157
180	0x3ebff635	0.3749253
181	0xbf34fc81	-0.7069779
182	0x3e538b58	0.20658624
183	0x3f88bd11	1.0682698
184	0x3f9742eb	1.1817297
185	0xbf2f9ea4	-0.6860144
186	0x3e39b93c	0.18137068
187	0xbb942005	-0.0045204186
188	0xbf00739e	-0.5017642
189	0xbe34ea1e	-0.17667434
190	0x3f54d209	0.8313299
191	0xbf5d250a	-0.8638464
192	0xbeba611b	-0.3640221
193	0x3ea0d0e8	0.31409383
194	0xbec285a6	-0.3799259
195	0x400d8108	2.2110004
196	0x3d5c5f6a	0.05380193
197	0xbf3a57ad	-0.7279003
198	0x3f899387	1.0748147
199	0x4013d0da	2.3096223
200	0x3e26970c	0.16268557
201	0x3fb4c629	1.4122974
202	0x3e11118b	0.14166848
203	0xbd9779d8	-0.07396287
204	0x3f237f7f	0.6386642
205	0xbf0fac94	-0.5612271
206	0xc081005e	-4.031295
207	0x3f2aad0b	0.6667029
208	0x3f706a04	0.93911767
209	0x3e56c891	0.20974948
210	0x3e8c1b24	0.27364457
211	0x3d9342ad	0.07190452
212	0x3fb452be	1.4087751
213	0xbfd5b7d1	-1.6696721
214	0x3c06fc75	0.008238901
215	0xbeb5bdb2	-0.3549629
216	0xbc8e2f87	-0.017356647
217	0xbe31a36e	-0.173475
218	0xbed6f47d	-0.41983405
219	0xbeeb2243	-0.45924577
220	0xbe5298a1	-0.20566036
221	0xbf141ea5	-0.5785926
222	0xbeae3834	-0.34027255
223	0xbe6cd5f8	-0.23128498
224	0xbf16e81e	-0.5894793
225	0xbbf36cd0	-0.007428743
226	0x3ee936d7	0.45549652
227	0x3bbc5bfd	0.0057482705
228	0x3d5a65ba	0.05331967
229	0x3f3472a6	0.7048744
230	0xbf251271	-0.64481264
231	0xbf8b3e8f	-1.0878466
232	0x3ea18fef	0.31555125
233	0xbe0caff4	-0.13738996
234	0x3f5d8af1	0.8654013
235	0x3dd0ace9	0.1018923
236	0xbe8e581c	-0.27801597
237	0x3e84eaf1	0.25960496
238	0x3e732983	0.23746304
239	0xbe8f0240	-0.27931404
240	0xbf14be67	-0.5810303
241	0xbec6a7a0	-0.38799763
242	0x3ea72849	0.32647923
243	0x3e7262dd	0.23670526
244	0xbf16e88c	-0.5894859
245	0x3f17ace3	0.5924818
246	0x3e0dcee7	0.13848458
247	0xbf1b924c	-0.60770106
248	0xbe34875f	-0.17629765
249	0x3df0dc15	0.11760727
250	0x3e6cc3ef	0.23121618
251	0x3ec78bbb	0.38973793
252	0x3e48e6ea	0.19619337
253	0x3f2eef09	0.6833349
254	0x3dbed185	0.093173064
255	0x3ed09cd0	0.40744638

bias f4 [32]
0	0xbbc2e05e	-0.005947157
1	0x3f31e575	0.6949075
2	0xbf1332da	-0.5749947
3	0x3f188bb0	0.59588146
4	0xbeda4b2b	-0.42635474
5	0x3d94824d	0.072514154
6	0x3edfbf0d	0.43700448
7	0xbedbf0c3	-0.42957124
8	0xbf098af7	-0.5372767
9	0xbe5fc4a8	-0.21852362
10	0x3f39ac85	0.7252887
11	0x3d6f119c	0.058366403
12	0xbefff831	-0.49994043
13	0x3dfee6fe	0.12446402
14	0xbe2e7116	-0.17035326
15	0x3e82a95d	0.2551984
16	0xbeab21b0	-0.3342414
17	0xbcb8631e	-0.0225082
18	0x3e4fca38	0.20291984
19	0x3f0bcc10	0.5460825
20	0x3f0ec957	0.5577597
21	0x3f02ad28	0.51045465
22	0x3e7f4ba3	0.24931197
23	0x3ef3c0c5	0.4760801
24	0xbe57eb67	-0.21085893
25	0xbd94c5dc	-0.07264301
26	0x3ea8bbb9	0.3295572
27	0xbe93f530	-0.28898
28	0x3e2b0c6e	0.1670396
29	0x3db96df0	0.09054172
30	0x3edbc4bb	0.4292353
31	0xbeae5579	-0.34049585

weight f4 [1, 32]
0	0x3ebf1b98	0.3732574
1	0xbcffbc33	-0.03121767
2	0x3ed7488a	0.4204753
3	0x3eaaf8a6	0.3339283
4	0x3e67eabe	0.22648141
5	0x3da82bb4	0.08211461
6	0x3e0f5da7	0.1400057
7	0x3ea8fd9f	0.33005998
8	0x3eb7502c	0.35803354
9	0x3e90e383	0.28298578
10	0xbef3e596	-0.47636098
11	0x3f40f271	0.75369936
12	0xc03cc76b	-2.9496715
13	0x4012fb30	2.2965813
14	0xbfded713	-1.7409385
15	0xbfb2ec88	-1.3978434
16	0x3e801b7c	0.2502097
17	0x3f060c08	0.5236211
18	0xbf0fd9f3	-0.5619194
19	0xbdd2cc70	-0.102928996
20	0x3eb63fce	0.35595554
21	0x3f8d5e9a	1.1044495
22	0x3d3ebb86	0.046565555
23	0x3f42f015	0.76147586
24	0x3fca00c7	1.5781487
25	0x3f2347ee	0.6378163
26	0xbf2049b3	-0.62612456
27	0x3b2a898b	0.0026021923
28	0x3f8d6c29	1.1048633
29	0x3fbd30f1	1.4780561
30	0xbfac18fc	-1.3445125
31	0x3f0a6fa1	0.5407658

weight f4 [1, 32]
0	0xc0276ed4	-2.6161394
1	0x40841645	4.1277184
2	0xc0403c26	-3.0036712
3	0x4063da7e	3.5602107
4	0xc0896e05	-4.29468
5	0x4023383e	2.5503078
6	0x406dbebc	3.7147665
7	0xc088a24f	-4.269813
8	0xc07e0033	-3.9687622
9	0xc05c3c90	-3.4411964
10	0x408524ce	4.1607428
11	0x404ba055	3.181661
12	0x3f8aa1a6	1.0830581
13	0xbff911c7	-1.945855
14	0xc018129b	-2.3761356
15	0x403ee746	2.9828658
16	0xc0578bd6	-3.36791
17	0xc057671c	-3.3656683
18	0x405674d9	3.3508818
19	0x406dea52	3.7174268
20	0x405d709f	3.4599988
21	0x403b675b	2.9281833
22	0x4082bcfa	4.0855684
23	0x4081bdf9	4.05444
24	0xc032657f	-2.7874448
25	0xc0269420	-2.6027908
26	0x404bda4b	3.1851985
27	0xc04e47cf	-3.2231328
28	0x405bb2b2	3.4327817
29	0x40477621	3.116585
30	0x4056247f	3.3459775
31	0xc03f4dbd	-2.9891198

exp_avg f4 [32, 5]
0	0xb8d42c29	-0.00010117173
1	0x3a6ced66	0.00090380607
2	0x392093b8	0.00015313819
3	0xba9c1c74	-0.0011910335
4	0x3b7233bd	0.0036957108
5	0xb79bde8e	-1.8581075e-05
6	0x378d71f8	1.686158e-05
7	0xb929c902	-0.00016191977
8	0xb8e4f9ba	-0.000109184024
9	0xbb1a4605	-0.002354027
10	0xb902be51	-0.00012468664
11	0x3a089ed7	0.0005211657
12	0x3970a681	0.00022950211
13	0xba0779ca	-0.00051679893
14	0x3b462aac	0.0030237837
15	0xb9b045f6	-0.0003362146
16	0x3805f98e	3.1942087e-05
17	0xbb136984	-0.0022493312
18	0x3a870c3b	0.0010303328
19	0xbbcc2c5d	-0.0062308745
20	0xb82c0acd	-4.1018055e-05
21	0x3967b967	0.00022098944
22	0x39401976	0.00018320032
23	0xb98eaa70	-0.00027211336
24	0x3b314db9	0.0027054383
25	0xba20f6f3	-0.0006140314
26	0x3a5f551a	0.0008519456
27	0x3b592fbc	0.0033140024
28	0xbb5c4d2b	-0.0033615332
29	0x3d064b8c	0.03278689
30	0xb95f18e1	-0.00021276205
31	0xb9f2304c	-0.0004619382
32	0xbb00331e	-0.0019561718
33	0xb8c383d6	-9.322881e-05
34	0x3a9c9da3	0.0011948835
35	0xb9c0e744	-0.000367934
36	0x3ac59de1	0.0015076959
37	0xbb7491d7	-0.0037318373
38	0x3ae38272	0.0017357601
39	0x379fb005	1.9036243e-05
40	0x389f5d3c	7.599077e-05
41	0x3b013f73	0.0019721657
42	0x390ebe33	0.0001361303
43	0x39a470e5	0.0003136463
44	0xbc34b94e	-0.011030508
45	0xb908fdbd	-0.00013064496
46	0x384b7cea	4.8515307e-05
47	0xbaf4534c	-0.0018640547
48	0xb9aa2fdd	-0.00032460588
49	0xba8bc740	-0.001066424
50	0xb9374903	-0.00017479439
51	0xba26bad1	-0.0006360235
52	0x3b7b298b	0.0038324322
53	0xb9eda1d9	-0.00045324748
54	0x3d130b15	0.03589924
55	0xb9335370	-0.00017101853
56	0x3a12e484	0.00056035095
57	0x39436549	0.00018634381
58	0xbac46823	-0.0014984648
59	0x3bd42fa0	0.006475404
60	0x3733fc1b	1.0727929e-05
61	0xb96f8680	-0.00022842921
62	0xb9fcbcda	-0.0004820589
63	0x3a7e556b	0.00097020593
64	0xbc09a74a	-0.008401701
65	0x3a42bbfb	0.0007428524
66	0xbb0ebc2e	-0.0021779644
67	0x3b233e66	0.0024909019
68	0x3a8588c1	0.001018785
69	0xbb1deef3	-0.0024098724
70	0x3a115799	0.0005544364
71	0x3a64ad71	0.00087233545
72	0x3b813e98	0.0039442293
73	0x39a7b905	0.00031990572
74	0xbbbb978a	-0.005724852
75	0xb7e5da2f	-2.7400527e-05
76	0xba4f2105	-0.00079013436
77	0xb9f1048e	-0.00045970496
78	0x39e4957a	0.00043598918
79	0x3a87af1a	0.0010351867
80	0xb8ce01ff	-9.823217e-05
81	0xba117912	-0.0005549352
82	0x373ee5fb	1.1378429e-05
83	0x3a124603	0.00055798906
84	0x3ba38d2b	0.004991194
85	0x375d3a65	1.31862225e-05
86	0xb81bb4d4	-3.712329e-05
87	0xb8620feb	-5.3897424e-05
88	0x39c0daee	0.0003678421
89	0xbb2c3434	-0.0026276233
90	0x383aa52a	4.4499677e-05
91	0x39332753	0.0001708542
92	0xb9b38c68	-0.0003424615
93	0x39859281	0.0002547689
94	0x3b36540d	0.0027821094
95	0xb7bc2901	-2.243044e-05
96	0x39ebb98e	0.00044960942
97	0xba19e646	-0.00058708
98	0xba0f4b45	-0.0005466233
99	0xbb5b6f94	-0.0033483254
100	0xb94bf743	-0.00019451701
101	0xbac2692c	-0.0014832369
102	0xbb011015	-0.0019693424
103	0x39bdb1fb	0.00036181495
104	0x388f27b9	6.82617e-05
105	0x38283da0	4.0111714e-05
106	0x3b1fc263	0.0024377338
107	0x3b55d760	0.0032629594
108	0xba379f37	-0.0007004621
109	0x3c132afe	0.008982418
110	0x37545ca0	1.2657751e-05
111	0xb72802f9	-1.0014272e-05
112	0x3830ce8a	4.2154024e-05
113	0x387421e7	5.8205707e-05
114	0x3806edc5	3.216953e-05
115	0x38eda9a5	0.000113326394
116	0xb8efcedc	-0.00011434939
117	0x3963a4c0	0.00021709781
118	0x3ac52ee5	0.0015043883
119	0xbbf873f7	-0.0075821835
120	0xb9042624	-0.0001260271
121	0x3aa3fb8a	0.0012510878
122	0x3a7963ca	0.0009513466
123	0xb9f79aad	-0.00047226754
124	0x3c430790	0.0119036585
125	0x3908fe04	0.00013064599
126	0x38c65787	9.457679e-05
127	0x3a85d04e	0.0010209174
128	0x3a64884b	0.0008717819
129	0xbb80ee3c	-0.0039346498
130	0xb83102eb	-4.2202806e-05
131	0x393a3ef3	0.00017761793
132	0x39c23225	0.00037039924
133	0xba7a888a	-0.0009557089
134	0x3bf229ea	0.0073902505
135	0xb9022213	-0.0001241046
136	0x397ae486	0.0002392699
137	0x3a62e648	0.00086555304
138	0xba2cfb41	-0.0006598719
139	0x3bf5bb55	0.0074991384
140	0x3834093b	4.292394e-05
141	0x38bd4e6c	9.0268295e-05
142	0xb9af0751	-0.00033384052
143	0x3a6226e4	0.0008627011
144	0xbbb70ac2	-0.005585999
145	0xb7bddc88	-2.2633249e-05
146	0x38a30dd8	7.775024e-05
147	0x3a1ab13c	0.0005901044
148	0xbac70635	-0.0015184345
149	0x3bd305b0	0.006439887
150	0xb8054094	-3.1769814e-05
151	0x3971453c	0.00023009343
152	0xb91ff530	-0.00015254761
153	0x39ad98c0	0.0003311094
154	0xba8ca8ed	-0.0010731496
155	0x39832f6b	0.00025021596
156	0xb85bda8d	-5.241721e-05
157	0xba9119e3	-0.0011070337
158	0x3ab2091b	0.0013583036
159	0xbc6fc117	-0.014633439

exp_avg_sq f4 [32, 5]
0	0x3688779f	4.0670416e-06
1	0x37dc3cfa	2.6254438e-05
2	0x385699fb	5.116498e-05
3	0x38260d06	3.9589613e-05
4	0x3b8d0c26	0.0043044267
5	0x36282b66	2.5059212e-06
6	0x3744c370	1.1728014e-05
7	0x38163990	3.5816396e-05
8	0x3751fec9	1.2516693e-05
9	0x3a7e6d67	0.0009705633
10	0x360ff00d	2.1448388e-06
11	0x37af07ff	2.086535e-05
12	0x380653c4	3.2026102e-05
13	0x3792a5c8	1.7481754e-05
14	0x3af8eb23	0.0018990975
15	0x3715f04e	8.937042e-06
16	0x383f23bd	4.5571232e-05
17	0x3819a7cf	3.6634327e-05
18	0x37cc4972	2.4352896e-05
19	0x3c02a519	0.007973933
20	0x36186efa	2.2714362e-06
21	0x372fbb0c	1.0474363e-05
22	0x37c60033	2.3603532e-05
23	0x374bf533	1.2156833e-05
24	0x3a0551be	0.0005085728
25	0x3848405d	4.774366e-05
26	0x3903b872	0.00012561845
27	0x3a02e38b	0.0004993013
28	0x38ac14dc	8.2054845e-05
29	0x3c94ccc8	0.018164054
30	0x3789212f	1.6347125e-05
31	0x38ea0d39	0.000111604524
32	0x3921a0f2	0.00015414113
33	0x388905c6	6.5337445e-05
34	0x3cb8c542	0.022554997
35	0x3719bc22	9.163314e-06
36	0x389653cf	7.168168e-05
37	0x38454693	4.7034187e-05
38	0x38b2a511	8.5184474e-05
39	0x3c275328	0.010212697
40	0x371b22e9	9.246848e-06
41	0x3834dafc	4.311929e-05
42	0x38aec012	8.3327424e-05
43	0x37ac75f4	2.0558924e-05
44	0x3bf0a6a2	0.007344083
45	0x36905a61	4.302056e-06
46	0x37bc4f20	2.2448192e-05
47	0x379e7cc1	1.889316e-05
48	0x36f2dd54	7.237928e-06
49	0x3b97e858	0.004635852
50	0x374747ae	1.18780135e-05
51	0x385bcc70	5.2404066e-05
52	0x38e66137	0.00010985362
53	0x37ff3851	3.0424593e-05
54	0x3c64f172	0.013973581
55	0x36abc848	5.119513e-06
56	0x3842bd02	4.642923e-05
57	0x389cffaa	7.486281e-05
58	0x383bc4e8	4.4767658e-05
59	0x3bacd423	0.005274312
60	0x3795f752	1.7877352e-05
61	0x37bd665e	2.2578224e-05
62	0x394d2f95	0.00019568049
63	0x37ff3298	3.0421928e-05
64	0x3ab8336c	0.0014053411
65	0x37985142	1.815765e-05
66	0x38b58f1c	8.657409e-05
67	0x39076ea6	0.00012915823
68	0x384cb917	4.880977e-05
69	0x3cf979c3	0.030453568
70	0x379844d4	1.8151863e-05
71	0x38c80fca	9.539684e-05
72	0x38a30652	7.773623e-05
73	0x38330fee	4.269176e-05
74	0x3c97de05	0.018538484
75	0x36828340	3.8895814e-06
76	0x377ff8cb	1.5257111e-05
77	0x3806db37	3.215225e-05
78	0x37069e1d	8.023836e-06
79	0x3ac29bd3	0.0014847465
80	0x36c3e6f1	5.838338e-06
81	0x380588b3	3.1836982e-05
82	0x3841affb	4.617868e-05
83	0x373f2b4d	1.1394569e-05
84	0x3b6258bf	0.003453776
85	0x370e86de	8.495261e-06
86	0x374dddd0	1.2270597e-05
87	0x38db640f	0.00010461371
88	0x37785675	1.4802082e-05
89	0x3af815d7	0.0018927407
90	0x379ff22a	1.9067043e-05
91	0x387c2f41	6.012549e-05
92	0x396ffe50	0.00022887555
93	0x37e758af	2.7578642e-05
94	0x3bc5b470	0.0060334727
95	0x3635fb60	2.7117421e-06
96	0x37f4fdcf	2.9205255e-05
97	0x37e0d768	2.6803187e-05
98	0x3792e4f8	1.7511178e-05
99	0x3b5dec01	0.0033862593
100	0x37671ee2	1.3775863e-05
101	0x38c89d87	9.566085e-05
102	0x38be2193	9.06616e-05
103	0x3827edb9	4.00373e-05
104	0x3c8f7439	0.017511474
105	0x37c49ae7	2.3437153e-05
106	0x391f73a7	0.00015206505
107	0x39295e71	0.00016152278
108	0x38aaadd2	8.138608e-05
109	0x3cf56942	0.029957417
110	0x35110d77	5.4036303e-07
111	0x359efa60	1.1844786e-06
112	0x36ff3286	7.605474e-06
113	0x3526e4d1	6.217279e-07
114	0x3772231f	1.4432501e-05
115	0x357568ec	9.1422294e-07
116	0x37d5cd3f	2.5487154e-05
117	0x37c2bd7b	2.3214836e-05
118	0x3802b121	3.115938e-05
119	0x3ae1c16b	0.0017223781
120	0x358adfa0	1.0346885e-06
121	0x379511c0	1.777045e-05
122	0x37807554	1.5313424e-05
123	0x36b87779	5.4975358e-06
124	0x3ab853f1	0.0014063102
125	0x36b77db9	5.468461e-06
126	0x385f4c72	5.323854e-05
127	0x3783cee6	1.5712762e-05
128	0x37809700	1.5329104e-05
129	0x3c2ff381	0.010739208
130	0x34a774a1	3.1191033e-07
131	0x35e85021	1.7308668e-06
132	0x365b798e	3.2704297e-06
133	0x364c1284	3.0409146e-06
134	0x3977b2b0	0.00023622322
135	0x36a9f382	5.0649405e-06
136	0x378f0bf1	1.7052489e-05
137	0x38805949	6.120146e-05
138	0x379ff6fe	1.9069292e-05
139	0x3b4895d9	0.0030606894
140	0x370250f4	7.767452e-06
141	0x37adcdb2	2.0718991e-05
142	0x38c06ab2	9.175147e-05
143	0x37514f47	1.2475829e-05
144	0x3b413771	0.0029482509
145	0x360bf498	2.0854986e-06
146	0x37ce9edc	2.4631088e-05
147	0x37bc4b76	2.2446486e-05
148	0x37c3eca4	2.3356006e-05
149	0x3b08fcc4	0.0020902613
150	0x357b2da0	9.357118e-07
151	0x36a122da	4.802231e-06
152	0x37814328	1.540927e-05
153	0x368737a7	4.0297923e-06
154	0x38c6db23	9.482193e-05
155	0x362fc444	2.6191274e-06
156	0x3807ff4e	3.242428e-05
157	0x381c5989	3.7276684e-05
158	0x37c4a119	2.3440038e-05
159	0x3b094b2b	0.0020949345

exp_avg f4 [32]
0	0x3a63b1e9	0.00086858735
1	0xb7c4dedb	-2.3468796e-05
2	0xb907004a	-0.00012874711
3	0xb9d491aa	-0.0004054432
4	0xb9c0e56d	-0.0003679203
5	0x3b508458	0.0031817164
6	0x3a191994	0.0005840298
7	0x3794586c	1.768415e-05
8	0xbaa1e82e	-0.001235252
9	0x3898b56b	7.2817165e-05
10	0x3ae118a2	0.0017173479
11	0xb961015c	-0.00021458179
12	0xb9ccd50f	-0.00039068653
13	0xb9986e56	-0.00029073906
14	0xb992e2f0	-0.00028016372
15	0x3a52bb2a	0.0008038754
16	0x36fa44ae	7.458576e-06
17	0xb90c480f	-0.00013378284
18	0xba797b18	-0.00095169386
19	0xba109bd4	-0.0005516384
20	0x39dba899	0.0004189655
21	0xb96b5d33	-0.00022446066
22	0xb872d4dd	-5.789554e-05
23	0xb90e185e	-0.00013551253
24	0x3a0235ef	0.0004967143
25	0xbab03542	-0.0013443606
26	0x3a2386cb	0.0006238042
27	0x3a9abc20	0.0011805333
28	0xba594bea	-0.0008289205
29	0x39d49ea1	0.0004055398
30	0xba036a91	-0.0005013133
31	0xbab5605e	-0.0013837924

exp_avg_sq f4 [32]
0	0x38951ede	7.110623e-05
1	0x384287aa	4.637955e-05
2	0x387f4a58	6.0865976e-05
3	0x38846d98	6.314664e-05
4	0x382061ad	3.823794e-05
5	0x3a1b4b80	0.0005924031
6	0x398eb9e5	0.00027222853
7	0x38f14f7e	0.00011506582
8	0x390ad582	0.00013240243
9	0x380d5bcc	3.3702512e-05
10	0x3924d159	0.00015718247
11	0x38fc4e36	0.00012030864
12	0x395bba61	0.00020954899
13	0x396323a8	0.0002166169
14	0x39102534	0.0001374677
15	0x3847473a	4.7511632e-05
16	0x38af44e4	8.357482e-05
17	0x38ca27b6	9.639507e-05
18	0x399d9583	0.00030056768
19	0x38795586	5.9445876e-05
20	0x393f64a0	0.00018252665
21	0x39a6197d	0.00031680978
22	0x370ef055	8.519816e-06
23	0x386cd1e2	5.6462253e-05
24	0x380a4e6f	3.297481e-05
25	0x389087a3	6.8917194e-05
26	0x36be1c54	5.665739e-06
27	0x389430ad	7.0662565e-05
28	0x38ea7605	0.00011179972
29	0x384fc419	4.9535276e-05
30	0x37a97cfe	2.0204574e-05
31	0x389d3631	7.496437e-05

exp_avg f4 [32, 32]
0	0xb8c6e22f	-9.483506e-05
1	0xb9353c9f	-0.00017284088
2	0xb8ec345c	-0.000112631096
3	0x3937c29d	0.00017524739
4	0xb8d5e373	-0.00010198997
5	0x39939f29	0.00028156608
6	0xb9392f5c	-0.00017660618
7	0xb77e88f5	-1.5171468e-05
8	0x399f424d	0.0003037624
9	0x38d63b66	0.00010215379
10	0x3a02fa1e	0.0004996377
11	0xb92686a6	-0.00015881154
12	0x390804ad	0.00012971713
13	0x39e071f8	0.00042809523
14	0xb90d34e2	-0.00013466508
15	0xb926d1ee	-0.00015909199
16	0x38e9fa9e	0.00011156987
17	0x3915c8da	0.0001428457
18	0xb8e72c2e	-0.000110231675
19	0xb97df141	-0.00024217834
20	0x373fb6e0	1.1427066e-05
21	0x38c17d46	9.226291e-05
22	0x388bad3a	6.6603025e-05
23	0x38e72b42	0.00011022996
24	0x366142ff	3.356661e-06
25	0xb97e8471	-0.00024272666
26	0x388fd857	6.859068e-05
27	0x37a0dec5	1.9177221e-05
28	0x39b16644	0.00033836265
29	0x38c8f593	9.582485e-05
30	0xb89a95ae	-7.371172e-05
31	0x38e3702c	0.00010845097
32	0x33251140	3.8432745e-08
33	0x3344980b	4.577309e-08
34	0x335974dc	5.0630533e-08
35	0xb229eee4	-9.891412e-09
36	0x333abc37	4.347768e-08
37	0xb2f28389	-2.8232323e-08
38	0x31ef522f	6.9651587e-09
39	0x330205cb	3.0273252e-08
40	0xb32cd019	-4.0236134e-08
41	0x317ff625	3.72473e-09
42	0xb36a3c5a	-5.453726e-08
43	0x334ab679	4.7197748e-08
44	0xb363045f	-5.285653e-08
45	0xb3740536	-5.6815416e-08
46	0x30f24fed	1.7630534e-09
47	0x33854dfe	6.207482e-08
48	0xb32efc65	-4.0742083e-08
49	0xb34c8886	-4.762162e-08
50	0x332d093f	4.028811e-08
51	0x335658a1	4.9906365e-08
52	0xb2826246	-1.5178681e-08
53	0xb263e390	-1.3264881e-08
54	0xb32e2ba8	-4.0552237e-08
55	0xb351effd	-4.8879873e-08
56	0x3335565a	4.2220883e-08
57	0xb34b04c7	-4.7268966e-08
58	0xb2ef4183	-2.7853053e-08
59	0x32dbbd56	2.5581055e-08
60	0xb24d2266	-1.1940392e-08
61	0xb30a4717	-3.2195285e-08
62	0x332ad6a9	3.977644e-08
63	0xb32e70e9	-4.0615223e-08
64	0xb93bbe87	-0.00017904687
65	0xb9341338	-0.00017173297
66	0xb9355480	-0.00017292984
67	0xb7de614a	-2.6509766e-05
68	0xb93f6b46	-0.00018255142
69	0xb6363161	-2.7148856e-06
70	0x38f6a044	0.00011760046
71	0xb92d6899	-0.00016537531
72	0x39271000	0.00015932322
73	0x37aa4630	2.0298263e-05
74	0x382842a1	4.0116374e-05
75	0xb926948e	-0.00015886335
76	0x393db616	0.00018092277
77	0xb8929976	-6.990407e-05
78	0x37960c53	1.7887132e-05
79	0xb8cd2819	-9.7826305e-05
80	0x392689a9	0.00015882276
81	0x393cb26d	0.00017995546
82	0xb9273e6e	-0.00015949618
83	0xb9268f74	-0.00015884434
84	0x38a20794	7.7261735e-05
85	0xb84a13ec	-4.8179107e-05
86	0x393f5725	0.00018247643
87	0x393ebb1e	0.00018189519
88	0xb8dd85df	-0.000105630366
89	0x393ad17c	0.00017816381
90	0x393cccd3	0.0001800538
91	0xb929b8d9	-0.00016185957
92	0xb913ff64	-0.00014114153
93	0x393b7339	0.00017876634
94	0xb93fd5ca	-0.00018294822
95	0x393dd7a1	0.00018104773
96	0x35d8e1df	1.6158991e-06
97	0x3601a589	1.9318852e-06
98	0x3602f14c	1.9511963e-06
99	0xb504e28c	-4.95035e-07
100	0x3602052b	1.9374518e-06
101	0xb5d2ad59	-1.569667e-06
102	0xb4a39d9e	-3.0475798e-07
103	0x35f14196	1.7974987e-06
104	0xb5f63d32	-1.8346238e-06
105	0x346be4b3	2.1969281e-07
106	0xb6058923	-1.9898368e-06
107	0x3601fb6f	1.9368852e-06
108	0xb5f56924	-1.8284522e-06
109	0xb6141c99	-2.2070365e-06
110	0x34295564	1.5770416e-07
111	0x36054b76	1.9862468e-06
112	0xb60346ed	-1.9561805e-06
113	0xb5fbf3e0	-1.8771934e-06
114	0x36039f1f	1.9613142e-06
115	0x36008eeb	1.9156676e-06
116	0xb58bd7a2	-1.0419064e-06
117	0xb4088754	-1.2715219e-07
118	0xb6020a91	-1.937766e-06
119	0xb6020d98	-1.9379422e-06
120	0x35d95d73	1.6194957e-06
121	0xb61acbaa	-2.3066336e-06
122	0xb5c86658	-1.4930947e-06
123	0x35b1ae96	1.3238339e-06
124	0x33e35a6e	1.058696e-07
125	0xb5deb627	-1.6593302e-06
126	0x3601f685	1.9365991e-06
127	0xb603feea	-1.96689e-06
128	0x3985540b	0.00025430354
129	0x392dfca7	0.00016592686
130	0x38c360bb	9.316342e-05
131	0x392f01a9	0.00016689919
132	0x395c98d5	0.0002103777
133	0xb9a7ff2a	-0.00032042834
134	0xb9bbb2f1	-0.0003580074
135	0x39418623	0.00018455884
136	0x385a8443	5.209843e-05
137	0x38d8f6c5	0.00010345647
138	0x39354bc1	0.00017289726
139	0x38cb553f	9.6956726e-05
140	0xb98874be	-0.0002602692
141	0x3a13d098	0.0005638688
142	0xb8868cab	-6.4158194e-05
143	0xb7baeff7	-2.228467e-05
144	0xb8bf464a	-9.120682e-05
145	0xb937f25b	-0.00017542524
146	0x395ff59e	0.00021358437
147	0x38c4c937	9.3834875e-05
148	0xb9146b89	-0.0001415444
149	0x398d2e8f	0.00026928305
150	0xb9273c69	-0.00015948866
151	0xb8eceed8	-0.00011297845
152	0xb90ec67e	-0.0001361612
153	0x39da2284	0.00041605916
154	0xba058872	-0.00050938793
155	0x38b04b8a	8.406404e-05
156	0x3902b79e	0.00012466169
157	0xba1d9bbe	-0.0006012282
158	0xb909c813	-0.00013139872
159	0xb81bf0ec	-3.7179256e-05
160	0xb9a70635	-0.00031857347
161	0xb996a725	-0.00028734762
162	0xb9912466	-0.00027683674
163	0xb7cc6482	-2.4365498e-05
164	0xb99197c7	-0.00027769638
165	0xb88b2529	-6.634958e-05
166	0xb916527d	-0.00014335844
167	0xb92c8776	-0.00016453661
168	0x399b2bb0	0.00029596454
169	0x39913e4e	0.00027702976
170	0x399aa6a4	0.00029497326
171	0xb992bbc7	-0.00027987195
172	0x39b2f27b	0.00034131468
173	0x39744a3b	0.00023297306
174	0x389924fd	7.302498e-05
175	0xb9943ad8	-0.00028272602
176	0x397aeffe	0.00023931262
177	0x399a8062	0.00029468822
178	0xb95b1ed8	-0.00020896958
179	0xb99991d4	-0.00029291085
180	0xb88ff3e8	-6.8642024e-05
181	0x3929c39d	0.00016189968
182	0x399b8350	0.0002966174
183	0x39949d38	0.00028345897
184	0xb9bf2245	-0.00036455892
185	0x39a1e54a	0.00030879147
186	0x396831c2	0.0002214378
187	0xb923be9d	-0.000156159
188	0xb9074e3c	-0.00012903748
189	0x39528e5d	0.00020080195
190	0xb999a6da	-0.00029306748
191	0x3997adc4	0.0002893043
192	0x39816cd0	0.0002468587
193	0x39705ca1	0.0002292269
194	0x3976ce14	0.00023537158
195	0x38f4e6bb	0.000116778036
196	0x397cf61a	0.00024124273
197	0x387953cc	5.9444268e-05
198	0xb98d01a0	-0.00026894826
199	0x399ac684	0.00029521075
200	0xb8a49000	-7.8469515e-05
201	0x38e172dd	0.00010750231
202	0x3968b2e2	0.00022191883
203	0x39648f83	0.00021797237
204	0xb97de963	-0.00024214904
205	0x398256ee	0.000248603
206	0xb8b26622	-8.506725e-05
207	0x393c4edf	0.00017958459
208	0xb9684811	-0.00022152091
209	0xb97f3f7a	-0.00024342342
210	0x396dbc65	0.00022672264
211	0x3955d31c	0.00020391907
212	0xb9327695	-0.00017019578
213	0x391f7ac1	0.00015209151
214	0xb97b424d	-0.00023961924
215	0xb97c2595	-0.00024046593
216	0x393342d0	0.0001709566
217	0xba0dbf89	-0.0005407264
218	0xb9812a6a	-0.00024636398
219	0x39913b00	0.00027700514
220	0x39c770e2	0.00038040342
221	0xb97fd58f	-0.00024398252
222	0x397c8f90	0.00024086074
223	0xb97934af	-0.00023766117
224	0x3a2058a2	0.0006116723
225	0x39c22ea8	0.00037037325
226	0x3a7ac088	0.00095654326
227	0x3a03806f	0.00050163915
228	0x3a5e82aa	0.00084880984
229	0xba7e811a	-0.00097085687
230	0xb9c0da34	-0.00036783668
231	0x3a1e58bb	0.00060404435
232	0xba9e159f	-0.0012060887
233	0x3ab22986	0.0013592697
234	0x3954129a	0.00020224825
235	0x3a61ab2b	0.0008608575
236	0xba8834ee	-0.0010391751
237	0x3a236798	0.0006233393
238	0xb9932c15	-0.0002807087
239	0x3aac6b50	0.001315454
240	0xba6bce58	-0.0008995286
241	0xba850b01	-0.0010150374
242	0x3a663523	0.00087817217
243	0x3a3d6eff	0.00072263175
244	0xb9ec01c4	-0.00045014743
245	0x392722d6	0.00015939338
246	0xba8349ca	-0.0010016498
247	0xba5c48be	-0.00084031734
248	0xbadc2357	-0.00167952
249	0x3aaed95b	0.0013339923
250	0xba188ebd	-0.00058196095
251	0x3a09b6f2	0.0005253396
252	0xba54d15c	-0.0008118355
253	0xba2b09c4	-0.00065245875
254	0x3a491284	0.00076703005
255	0xba40b1a4	-0.0007350689
