data/best_cartpole/checkpoint/save_file.pt (torch_old, 190944 bytes, 24 tensors)

net.0.weight f4 [64, 5]
0	0xbdaea75c	-0.08528015
1	0xbff50cd1	-1.9144536
2	0x3d9dfca6	0.077142045
3	0xbe38792e	-0.18014976
4	0x3b266b18	0.0025393423
5	0x3eb0d3fd	0.34536734
6	0x400ae1fb	2.1700428
7	0x3e0f1399	0.1397232
8	0x3e841c37	0.25802776
9	0xbcb129d1	-0.021626385
10	0xbffb3274	-1.9624772
11	0x3fec5922	1.8464701
12	0xbe8cef9c	-0.27526557
13	0x3ed11952	0.4083963
14	0xbe8cfed1	-0.2753816
15	0xbf5304fe	-0.8242949
16	0x3f33c81e	0.7022723
17	0x3f261dde	0.64889324
18	0x3f1f0731	0.6212035
19	0x3d6cc8a1	0.057808522
20	0xbe8071c1	-0.25086787
21	0x3fb1b1c0	1.388237
22	0x3fd37153	1.6518959
23	0xbddb7e7f	-0.107174866
24	0x3d826bd5	0.063682236
25	0x3f6bed1d	0.9215868
26	0xc014cf0e	-2.3251376
27	0xbf8897a6	-1.067128
28	0x3e9980be	0.29981035
29	0x3c83086a	0.015995223
30	0x402c6de6	2.6942077
31	0x3fc94959	1.5725509
32	0x3db8ee67	0.09029847
33	0xbdaebc06	-0.085319564
34	0xbe2518aa	-0.1612269
35	0xbf9d4e78	-1.2289572
36	0xbf8c210b	-1.0947584
37	0xbfd30093	-1.648455
38	0xbea7c681	-0.32768634
39	0xbdc666ea	-0.09687598
40	0x3ef266ee	0.47344154
41	0xbfcc5b73	-1.5965408
42	0x3fb6b4a5	1.4273878
43	0x3c148cba	0.009066755
44	0x3d808eae	0.06277214
45	0xbfc73b4f	-1.5564975
46	0xbfcf31ed	-1.6187111
47	0xbf76ad06	-0.9635776
48	0x3b4b0bec	0.0030982448
49	0x3d71c7ff	0.05902862
50	0xc02aeeac	-2.6708174
51	0x3f8ae90e	1.0852373
52	0x3f352df7	0.7077326
53	0xbe4cb32c	-0.19990224
54	0xbdd8755b	-0.10569259
55	0x3ee969bd	0.45588484
56	0x3ff266dc	1.893764
57	0xbfe094ef	-1.7545451
58	0x3f4609e1	0.77358824
59	0xbce7f55a	-0.028315235
60	0xc00ed4fb	-2.2317493
61	0xc0775d94	-3.8650866
62	0xbff64c9f	-1.9242133
63	0xbf0c9f38	-0.5493045
64	0x3dc5204e	0.09625302
65	0xbfd309bf	-1.6487349
66	0xc00005a6	-2.0003448
67	0x3f747e56	0.95505273
68	0xbdf67401	-0.12033845
69	0xbb51907b	-0.0031976986
70	0x401ee6bb	2.4828327
71	0x3fc96292	1.5733206
72	0xbe5062ed	-0.20350237
73	0x3e62f1f0	0.22162604
74	0xbd90df9d	-0.07073901
75	0xc010ffd1	-2.2656138
76	0x3f62f038	0.88647795
77	0x3ddcb9eb	0.107776485
78	0xbd1f6450	-0.038914025
79	0x3c5402a9	0.012940087
80	0xc0028c71	-2.0398219
81	0x408e1898	4.440502
82	0xbf229f62	-0.6352445
83	0x3f7b0803	0.980591
84	0xbe18b79f	-0.14913796
85	0xbf94bb11	-1.1619588
86	0x3f139873	0.57654494
87	0x3f40c7e4	0.7530501
88	0xbe483ca3	-0.19554381
89	0xbe19ddb3	-0.15025978
90	0xc04968dd	-3.1470253
91	0x3ffe700b	1.9877943
92	0x3f4b7fa4	0.7949164
93	0x3f03c229	0.5146814
94	0x3d34b091	0.0441137
95	0x3e937f80	0.28808212
96	0xc0235c42	-2.552506
97	0xbf8cb368	-1.099225
98	0xbe3f454d	-0.1867878
99	0x3e549373	0.20759372
100	0x3e9cb4c3	0.3060666
101	0xbfa025ce	-1.2511537
102	0x3f7bb3ba	0.98321116
103	0xbdf41819	-0.11918659
104	0xbd078187	-0.03308251
105	0xbfe42282	-1.7823031
106	0xbfb9424c	-1.4473357
107	0x3f21006d	0.62891275
108	0xbf3691fb	-0.713165
109	0xbd97dd43	-0.07415249
110	0xc0756663	-3.8343742
111	0xbfc430a5	-1.5327345
112	0x3fd4dcfe	1.6629941
113	0xbf140479	-0.57819325
114	0x3d826166	0.063662335
115	0xbff4cb90	-1.9124622
116	0x40027961	2.0386584
117	0xbf71e185	-0.9448474
118	0x3f2505b5	0.64461833
119	0xbd0bd0f7	-0.03413483
120	0x3f4dd229	0.80398804
121	0xc0481ec2	-3.1268773
122	0x40222d99	2.534033
123	0xbeee3942	-0.4652806
124	0x3d9bf877	0.0761575
125	0xbea2610a	-0.3171466
126	0x4031ef9e	2.78025
127	0xbed81950	-0.42206812
128	0x3f048265	0.51761466
129	0xbd8feaff	-0.07027244
130	0x3f1de6fc	0.6168058
131	0xbdc0b176	-0.09408848
132	0xbf3ba4fd	-0.7329863
133	0xbf2c5769	-0.6732088
134	0xbdaadf81	-0.08343411
135	0x40d04ab8	6.509121
136	0x3fc5746d	1.5426155
137	0x3fc49444	1.5357747
138	0x3f847db1	1.0350858
139	0xbe80889a	-0.2510422
140	0xbd1e2ee9	-0.038618956
141	0x3f21cb06	0.63200414
142	0xc033eef5	-2.8114598
143	0x3e8b6572	0.27225834
144	0xbdd42689	-0.103589125
145	0xbfa3666f	-1.2765635
146	0xbfa5610e	-1.2920244
147	0x3f7222bd	0.94584256
148	0x3f0ef45f	0.5584163
149	0xbf0c8f55	-0.5490621
150	0x408afa21	4.3430333
151	0xc00787e4	-2.117669
152	0x3eabe3bb	0.33572182
153	0xbe3f5dfa	-0.18688193
154	0x3d9947e8	0.07484418
155	0xbfd0f1ab	-1.6323751
156	0xbec59b50	-0.38595057
157	0xc0147972	-2.3199124
158	0x3ec6442d	0.3872389
159	0x3ca23f58	0.019805595
160	0xc093dafd	-4.620482
161	0x3f2f2938	0.6842227
162	0x3f4e07d2	0.8048068
163	0xbe10def9	-0.14147557
164	0xbd45101c	-0.048111066
165	0x40ca561b	6.323011
166	0x3e267c56	0.16258368
167	0xbe6b37d2	-0.22970513
168	0xbd0652ce	-0.032793812
169	0x3c85f3e4	0.016351648
170	0xbf5fdc39	-0.8744541
171	0xc008596d	-2.130458
172	0x3e821cc0	0.2541256
173	0xbeda1a1b	-0.42598042
174	0x3da5c2fe	0.080938324
175	0xbfd8ef6b	-1.6948065
176	0xbfe214d2	-1.7662604
177	0x3f1376d2	0.5760318
178	0x3d40383e	0.046928637
179	0x3db927f1	0.09040821
180	0xbfa74708	-1.3068552
181	0x3cac9830	0.021068662
182	0xbf18f3cf	-0.5974702
183	0x3e16c2f2	0.14722803
184	0x3e1a8a2b	0.1509177
185	0x401e001f	2.4687574
186	0xc0482dce	-3.1277957
187	0x3f8da523	1.1066021
188	0x3e0dd540	0.1385088
189	0x3e130367	0.14356767
190	0x3e50be0c	0.20384997
191	0x3eebc2e1	0.46047118
192	0xbfd90dfd	-1.6957394
193	0x3e8ec7d7	0.2788684
194	0x3ddb45d5	0.10706679
195	0xbf127eed	-0.57224923
196	0x3f4a6e63	0.79074687
197	0xbfac96ab	-1.348348
198	0xbf8124df	-1.0089377
199	0xbe06fe91	-0.13183047
200	0x3f6db99a	0.9286133
201	0xc01d584c	-2.4585142
202	0xbfd07814	-1.6286645
203	0xbedc5c0e	-0.43038982
204	0x3d40dae6	0.047083758
205	0x40688135	3.6328862
206	0x40527e77	3.2889688
207	0xbee6cf02	-0.4507981
208	0x3f1ed872	0.6204902
209	0xbdab180f	-0.08354198
210	0xc038dab5	-2.8883488
211	0x3fee35b5	1.861014
212	0xbed96434	-0.4245926
213	0xbc237e81	-0.009978891
214	0xbe8315ed	-0.25602666
215	0x4008f82b	2.140147
216	0x3e31d883	0.17367749
217	0x402f04e6	2.734674
218	0x3eb7ff37	0.359369
219	0x3c5e60fa	0.013572926
220	0xbff4cb0c	-1.9124465
221	0xc012dbd0	-2.2946663
222	0x40060046	2.0937667
223	0xbea40eae	-0.3204245
224	0x3e32efff	0.17474364
225	0x3fa17db6	1.2616489
226	0x3d7a19fc	0.061059937
227	0x3fd2ce51	1.6469213
228	0x3c203b1b	0.009779717
229	0x3e17ba59	0.1481718
230	0xbf238761	-0.63878447
231	0xbfa601e1	-1.2969323
232	0xbe8bcf9a	-0.27306825
233	0xbeaa80e9	-0.33301476
234	0xbd35a5d4	-0.0443476
235	0x4018f4ac	2.3899336
236	0xbff65d8f	-1.9247302
237	0x3f499e70	0.7875738
238	0xbf39c5f4	-0.7256768
239	0xbe1b9c5c	-0.15196365
240	0x40897b10	4.2962723
241	0x4058222d	3.377086
242	0x3f867b37	1.0506352
243	0x3f497707	0.78697246
244	0xbdef424a	-0.116825655
245	0x40171663	2.3607414
246	0x3fd356a1	1.6510812
247	0xbeac56a4	-0.33659852
248	0x3f11cf69	0.5695711
249	0x3da628ac	0.08113226
250	0x3fb12cd9	1.3841811
251	0xbfb493fc	-1.4107661
252	0x3fb671ac	1.425344
253	0x3dec6e94	0.115445286
254	0x3dbaa84a	0.0911413
255	0x3ebddac8	0.3708098

net.0.bias f4 [64]
0	0xbe4683b6	-0.19386181
1	0x3ecfdf7a	0.40600187
2	0x3eb73728	0.35784268
3	0xbe9392f1	-0.28823045
4	0x3f9664cf	1.1749514
5	0x3fbf202f	1.4931697
6	0x3f9f516f	1.2446727
7	0xbf808fef	-1.0043925
8	0x3f935930	1.1511593
9	0xc0050014	-2.0781298
10	0xc0005209	-2.005007
11	0x4018d68e	2.3880954
12	0x3e6fb7b6	0.23409924
13	0xbf2715f7	-0.6526789
14	0x3fc4cbf2	1.5374739
15	0xc0356b16	-2.834661
16	0xbf2d1113	-0.6760418
17	0x402df15b	2.7178562
18	0xbe809605	-0.25114456
19	0xbf4710cf	-0.7776002
20	0x3f268576	0.65047395
21	0xbf9b8d90	-1.2152576
22	0xbec952f9	-0.39321116
23	0xbf365aa8	-0.7123208
24	0xbfb1edd8	-1.3900709
25	0x3f35e8aa	0.7105814
26	0xbe2d915f	-0.16949986
27	0xbf91f3c0	-1.1402512
28	0x3f7e1c25	0.99261695
29	0x3f8308cf	1.0237063
30	0xbfb5b4cc	-1.41958
31	0x40551da5	3.3299344
32	0xbff2e5be	-1.8976362
33	0xc043d36b	-3.059779
34	0x3ff739aa	1.9314473
35	0x3ffa4238	1.9551458
36	0x3f54c375	0.83110744
37	0x3f56126f	0.8362188
38	0x404d2f8a	3.2060266
39	0xbfaccd05	-1.3500067
40	0x3e914296	0.28371114
41	0x3f834ce7	1.0257844
42	0x3f14dda8	0.5815072
43	0x4008168d	2.1263764
44	0x3fe5d156	1.7954509
45	0x3f26f8bb	0.6522328
46	0x3f5fe10d	0.87452775
47	0x3e8cbdd6	0.27488583
48	0xbf576bc1	-0.84148794
49	0x402e0b3f	2.7194364
50	0x3f6e5104	0.9309237
51	0xbf92be51	-1.146433
52	0xbf23c25e	-0.63968456
53	0x3fa2279d	1.2668339
54	0x4067569b	3.614661
55	0x3f856ada	1.0423234
56	0xbd297656	-0.04137262
57	0x3e48abc5	0.19596775
58	0x3bdf2fb0	0.0068111047
59	0x404e04cb	3.2190425
60	0x403bc3ef	2.9338338
61	0xc03e3e0c	-2.972537
62	0x3ff6d4c1	1.9283677
63	0xbed80e49	-0.421984

net.2.weight f4 [64, 64]
0	0xbd4585c6	-0.04822328
1	0xbd81228a	-0.06305416
2	0xbf38c896	-0.7218107
3	0x3f1abe73	0.6044685
4	0xbf1652fa	-0.5872036
5	0x3f32d476	0.6985544
6	0x3f2f5cf5	0.68501216
7	0x3f4b117a	0.7932354
8	0xbf1b00a4	-0.6054785
9	0xbe67820f	-0.22608207
10	0x3dbcd34b	0.092199884
11	0xbd09ab52	-0.03361065
12	0x3ee8809e	0.45410627
13	0x3f5ab887	0.85437816
14	0xbc4bd842	-0.012441697
15	0x3e8a1a1e	0.2697305
16	0xbfa0df02	-1.2568057
17	0x3ed50b69	0.41610268
18	0x3da5c8c8	0.080949366
19	0x3f2f11b3	0.6838638
20	0x3e9df4b0	0.30850744
21	0x3df49611	0.119426854
22	0x3f0f65d6	0.56014764
23	0x3da6f2d3	0.08151784
24	0x3fd1ca16	1.6389797
25	0xbdc04d43	-0.093897365
26	0xbc52142b	-0.012822191
27	0xc02053e2	-2.5051198
28	0xbf582f08	-0.84446764
29	0x3f27c680	0.6553726
30	0xbf298f2a	-0.66234076
31	0xc00b989f	-2.1811903
32	0xbf824431	-1.017706
33	0xbfb5b7d0	-1.419672
34	0x3efc3350	0.49257898
35	0x3ec63e4a	0.38719398
36	0x3c4ee9a1	0.012628944
37	0x3f080c89	0.5314413
38	0x3ec45133	0.383432
39	0x3e2dd8b1	0.16977192
40	0x3f739028	0.9514184
41	0x3e935913	0.28778896
42	0xbd99071a	-0.07472058
43	0xc07a2998	-3.9087887
44	0x3f26eda1	0.6520634
45	0x3f456e5d	0.77121526
46	0x3d373ea5	0.044737477
47	0xbf2098fe	-0.6273345
48	0xbf6bca94	-0.92105985
49	0xbfb49d8a	-1.4110577
50	0xbf1f4c2d	-0.6222561
51	0x3e7e8270	0.24854445
52	0xbf10dc61	-0.5658627
53	0x3ec0a25f	0.3762388
54	0x3f792859	0.9732719
55	0x3f38abef	0.7213735
56	0x3faca305	1.348725
57	0x3e1f5f98	0.1556381
58	0xbef28ea5	-0.47374454
59	0x3f4a6796	0.7906431
60	0x3f6421e6	0.89114225
61	0xbf022379	-0.50835377
62	0x3f3c6c98	0.736032
63	0x3ee16bfc	0.44027698
64	0x3e8f1fd5	0.27953973
65	0x3f0580d0	0.5214968
66	0xbf0c1ac9	-0.5472837
67	0xbf2e0600	-0.67977905
68	0x3d9c77e9	0.076400585
69	0x3e062b88	0.13102543
70	0x3f6c1c83	0.92231005
71	0xbf9d87d6	-1.2307079
72	0x3f1dc6e9	0.6163164
73	0x3d3d5a29	0.04622856
74	0x3f56f5a3	0.8396856
75	0x3eb39cb6	0.35080498
76	0x3ed540c7	0.41650984
77	0xbfd8ddae	-1.6942651
78	0x3f285d0f	0.65766996
79	0x3d4fe4c8	0.050755292
80	0xbed13fdf	-0.40869042
81	0x3f8c2b64	1.0950742
82	0xbeb56aef	-0.35433146
83	0xbcac7bdc	-0.021055155
84	0xbcc5d80c	-0.02415087
85	0x3f05a8c9	0.5221067
86	0xbedf48f5	-0.4361035
87	0xbe509915	-0.20370896
88	0xbeaef848	-0.341738
89	0xbef6e83a	-0.4822405
90	0x3e7ac43e	0.24488923
91	0x4082c40c	4.0864315
92	0x3f989f53	1.1923622
93	0xbe9cb624	-0.30607712
94	0x407616d1	3.8451426
95	0xbe352649	-0.17690386
96	0x3ec711a8	0.38880658
97	0x40eef0e1	7.466904
98	0xbed3e7ec	-0.4138788
99	0xbf307437	-0.6892733
100	0xbfd13e4f	-1.634714
101	0x3f8d2aca	1.1028683
102	0xbed991b0	-0.42493963
103	0x3f37dbb5	0.7181962
104	0x3f7ef7af	0.99596685
105	0x3e14b2c2	0.14521316
106	0xbf87712c	-1.0581412
107	0xbf3332b4	-0.6999924
108	0xbedb6194	-0.42847884
109	0xbf37f740	-0.7186165
110	0x3f09e294	0.53861356
111	0x3f969456	1.1764019
112	0x4043a773	3.0570953
113	0xbd03ed0e	-0.032208495
114	0x3f1d5bb6	0.61468065
115	0x3dac2ea4	0.084073335
116	0xbf05d6d4	-0.52280927
117	0x3f319de8	0.6938157
118	0xbe02e155	-0.1278127
119	0x3fe07c3d	1.7537915
120	0xc00c811a	-2.1953797
121	0x3f4af9b6	0.7928728
122	0xbf512adf	-0.8170604
123	0xbfd72247	-1.6807336
124	0xc0855c66	-4.167529
125	0x3f6d04a4	0.92585206
126	0xc0292dc0	-2.6434174
127	0x3f3a1d21	0.727007
128	0xbfa37a65	-1.2771727
129	0xbf2dd99c	-0.6791017
130	0x3e85c2f7	0.2612531
131	0xbf6bba71	-0.9208136
132	0x3f25127c	0.6448133
133	0xbcae5732	-0.021281812
134	0xbfa3c18d	-1.2793442
135	0xbf1afc96	-0.60541666
136	0xbe9053a0	-0.281888
137	0xbe0b295c	-0.13589996
138	0x3f5020fe	0.8130034
139	0xbed5814c	-0.41700208
140	0xbfeda1d3	-1.856501
141	0x3f43c851	0.76477534
142	0xbf1087de	-0.56457317
143	0x3e8bab44	0.27279103
144	0x3fc1f716	1.515353
145	0x3f3e31c3	0.7429468
146	0x3fa12f7a	1.2592614
147	0x3f157e83	0.58396167
148	0xbf994174	-1.19731
149	0x3f2903c9	0.660214
150	0x3dfabc11	0.12242902
151	0x3fe281ef	1.7695903
152	0x3f989bd8	1.192256
153	0xbf58eaef	-0.8473348
154	0x3e170da5	0.14751299
155	0x3db74bce	0.089500055
156	0x3d7895ce	0.06068974
157	0x3f40bc68	0.75287485
158	0xbf1a9e5a	-0.60397875
159	0xbf9259ab	-1.1433614
160	0x3f36c790	0.7139826
161	0x3f6ae48a	0.9175497
162	0xbf590969	-0.84779984
163	0xbf76c781	-0.9639817
164	0x3f4b68dc	0.7945688
165	0xbf64c18c	-0.8935783
166	0xbe49a2a2	-0.19690946
167	0xbd2e76a9	-0.042593632
168	0xbfae76cf	-1.3630008
169	0xbf8ef17a	-1.1167443
170	0x3dd9c076	0.10632412
171	0x4037bbdb	2.8708408
172	0xbec8c318	-0.39211345
173	0xbeefff19	-0.46874312
174	0x3f578a90	0.84195805
175	0x3e8428ab	0.25812277
176	0x3fd79d95	1.6844965
177	0x3f725315	0.94658023
178	0xbcd5e36b	-0.026109418
179	0xbfb98363	-1.4493221
180	0xbd9f1f2e	-0.07769619
181	0x3f1cbdff	0.6122741
182	0xbe930099	-0.28711393
183	0x3ed09342	0.4073735
184	0x3e1e3653	0.1545041
185	0xbe5826d0	-0.21108556
186	0xbf527215	-0.82205325
187	0x3cbea8ec	0.023273908
188	0xbed6b3b9	-0.41933993
189	0x3fa510c0	1.2895737
190	0x3edcc1fb	0.43116745
191	0x3e31ded3	0.17370157
192	0x3f1ed401	0.6204224
193	0x3f0f6438	0.56012297
194	0xbfbc9fe7	-1.4736298
195	0xbefbd986	-0.49189395
196	0xbe315fca	-0.17321697
197	0xbf963356	-1.1734416
198	0x3f9f6057	1.2451276
199	0xbf88dce0	-1.0692406
200	0x3f9f4808	1.2443857
201	0xbe55ec6d	-0.2089097
202	0xbe28d79a	-0.16488495
203	0xbfe887ec	-1.816648
204	0x3f654b18	0.8956771
205	0xbe655eb7	-0.22399412
206	0xbf53e3b3	-0.82769316
207	0xbf534f9c	-0.8254335
208	0xbfd5c5b4	-1.6700959
209	0xbe6446fb	-0.22292702
210	0x3e363c60	0.17796469
211	0xbe6f42d1	-0.23365332
212	0x3f1a16b7	0.6019091
213	0x3e6fa7d2	0.23403862
214	0x3f34ad7c	0.70577216
215	0xbea1e2e2	-0.3161841
216	0x3eccbd40	0.39988136
217	0xbe9585c5	-0.2920362
218	0x3f120f7f	0.57054895
219	0x3fe7275c	1.8058887
220	0xbe2073cc	-0.15669173
221	0xbf7fc1d8	-0.9990516
222	0x400e2e05	2.2215588
223	0xbfa6e395	-1.3038203
224	0x3d064288	0.032778293
225	0x40b50136	5.656398
226	0xbf6ba671	-0.92050844
227	0xbf5dc403	-0.86627215
228	0xbf6cd766	-0.9251617
229	0x3f9d051c	1.2267184
230	0x3e0c3064	0.13690335
231	0x3f91f12f	1.1401728
232	0x3f884d24	1.0648541
233	0xbe63a94a	-0.22232547
234	0xbf5eea39	-0.87076145
235	0x3e942e12	0.289414
236	0xbf5b8523	-0.85750026
237	0xbc936805	-0.017993936
238	0xbd9d9910	-0.0769521
239	0x3fd44d0b	1.6586012
240	0x400473d2	2.069569
241	0xbf6b1fa3	-0.9184515
242	0x3e5019f8	0.20322406
243	0x3ea16e5e	0.31529516
244	0xbf638fc7	-0.8889126
245	0x3dca7448	0.0988546
246	0xbfa23fd3	-1.2675728
247	0x3fc5662a	1.5421803
248	0xbf6dcd12	-0.9289104
249	0x3f102e30	0.56320477
250	0x3f14e765	0.5816558
251	0xbf14bc7b	-0.581001
252	0xc0c1db99	-6.0580564
253	0x3e78b643	0.24288277
254	0xc090617e	-4.511901
255	0x400bae4d	2.1825135

net.2.bias f4 [64]
0	0x3dd812dc	0.10550472
1	0xbfb0601f	-1.3779334
2	0xbf4aaa51	-0.7916613
3	0xbfbc5743	-1.471413
4	0x3f764f95	0.9621518
5	0x3e83709e	0.25671858
6	0xbb4a69fc	-0.0030885926
7	0x3f222c18	0.6334853
8	0x3f9865bb	1.1906046
9	0xbdb717b8	-0.08940071
10	0xbebc0716	-0.36724156
11	0xbf47765f	-0.77914995
12	0x3f68ad14	0.90889096
13	0x3fb8f017	1.444827
14	0x3fcb076c	1.586164
15	0x3fd9b54b	1.7008451
16	0xbdac75bb	-0.08420893
17	0xbf5baa21	-0.8580647
18	0x3f5facc8	0.8737302
19	0xbfa2973c	-1.2702403
20	0x3f0a9cda	0.54145586
21	0xbecabff9	-0.3959959
22	0x3ee38964	0.44440758
23	0xbeeb503a	-0.45959646
24	0xbfbca44c	-1.473764
25	0xbf865db1	-1.0497342
26	0xbfa7269f	-1.3058661
27	0x3fda67e5	1.7062956
28	0x3e7d33e4	0.24726826
29	0xbff01242	-1.8755572
30	0xbf994d9d	-1.1976811
31	0xbf8ff505	-1.1246649
32	0xbf5d6077	-0.8647532
33	0x3f570ec6	0.8400692
34	0xbf6e546a	-0.93097556
35	0xbe83ff79	-0.25780848
36	0xbfad2ec6	-1.3529899
37	0xbf65ef01	-0.89817816
38	0xbf63829b	-0.88871163
39	0xbfeebd25	-1.8651472
40	0x3ee3ef81	0.44518664
41	0xbee45b3c	-0.44600856
42	0xbde476fa	-0.111555055
43	0x3f28720b	0.65799016
44	0x3f125470	0.5716009
45	0xbf40f71c	-0.7537706
46	0x3f0e07eb	0.5548083
47	0x3fb549ec	1.4163184
48	0xbf46f788	-0.7772145
49	0x3fc20fdb	1.5161089
50	0x3f4b1cec	0.79341006
51	0x3f0fac08	0.56121874
52	0x402cfc1f	2.7028883
53	0xbfb0f0a1	-1.3823434
54	0x3f9cc112	1.224642
55	0xbec42abf	-0.38313863
56	0x3ea8dc1f	0.3298044
57	0x3fb3b4a4	1.4039502
58	0xbf09e033	-0.53857726
59	0x3ec0d3b3	0.37661514
60	0xbf687d4c	-0.9081619
61	0xbf846bad	-1.034536
62	0x3f580dcd	0.8439606
63	0x3f5dac0f	0.86590666

out_mean.weight f4 [1, 64]
0	0xc035714a	-2.8350396
1	0xc0212192	-2.517674
2	0x401ded36	2.4676032
3	0xc005d597	-2.0911615
4	0xc0208150	-2.5078926
5	0xc0ae6d42	-5.450837
6	0xc0c10cab	-6.0327964
7	0xc11b0c6c	-9.690533
8	0xbe5d945f	-0.2163863
9	0xc0c1864a	-6.0476427
10	0xc025a3d7	-2.588125
11	0x40791aa8	3.892252
12	0xc11b0907	-9.689704
13	0x40d39075	6.611384
14	0x3fe1ed07	1.765046
15	0xc050ba85	-3.2613842
16	0xc0689103	-3.6338508
17	0x3e9d3a4a	0.30708534
18	0xc12ebdfe	-10.921385
19	0xc24d8970	-51.384216
20	0xbf19a2e3	-0.6001417
21	0x3da380fd	0.07983587
22	0xbfbf7f3a	-1.4960701
23	0x400ce5f8	2.2015362
24	0xc03fa4fa	-2.9944444
25	0xc11b7f1b	-9.718532
26	0xbf3f12ae	-0.7463788
27	0x3fa76194	1.3076653
28	0x40cdbfdb	6.42967
29	0xbfca089a	-1.5783875
30	0xbf2b9dac	-0.67037463
31	0xc0615796	-3.5209708
32	0xbfe1bef7	-1.7636403
33	0xbe9f986d	-0.3117098
34	0x4065ac19	3.588629
35	0xc11bc434	-9.735401
36	0xbf92adea	-1.1459324
37	0xbef5b60a	-0.47990447
38	0x4097b746	4.7411222
39	0xc103bda7	-8.233802
40	0xbe42a9af	-0.19010042
41	0xc1040522	-8.251253
42	0xc07a6edb	-3.913016
43	0xbfda39f3	-1.7048935
44	0xbfa9747a	-1.3238671
45	0xc116bb9f	-9.420806
46	0xc0f08e73	-7.517389
47	0x40920ed2	4.564309
48	0x4046b37a	3.1047044
49	0xc034d019	-2.8252013
50	0xc00045a8	-2.0042515
51	0x3fe921e8	1.8213472
52	0x4108a9c9	8.541451
53	0xc0125564	-2.2864618
54	0x40e6512e	7.1974096
55	0x413d7d74	11.843128
56	0x4047e830	3.1235466
57	0x3d9ac8b1	0.0755781
58	0xc01075a6	-2.2571807
59	0xc09195f0	-4.549553
60	0x3fcfe4a1	1.6241647
61	0xbfdac5c8	-1.7091608
62	0xc093c3c4	-4.617647
63	0xbedd5e1a	-0.43235856

out_value.weight f4 [1, 64]
0	0x3f9f138a	1.2427838
1	0xc050b7c6	-3.2612166
2	0xbf92c3dd	-1.1466023
3	0xc017ed48	-2.3738575
4	0xc0268cc5	-2.602342
5	0x3f944324	1.158299
6	0xbfe5ac73	-1.7943252
7	0x3fb0cc5c	1.3812366
8	0x40a97e50	5.296669
9	0x3f8ca395	1.0987421
10	0xbfe1523e	-1.7603223
11	0xc030405f	-2.753929
12	0xbfcfeaf3	-1.6243576
13	0x404032eb	3.0031078
14	0x40b4a8b1	5.645592
15	0xbf9e4b48	-1.2366724
16	0x3f6cb496	0.9246305
17	0xbf87ddb1	-1.061453
18	0x3fd75d8d	1.6825424
19	0x3d52bc86	0.05144932
20	0x3f70ab74	0.94011617
21	0xbf77c25e	-0.96780956
22	0xbf1af8c4	-0.60535836
23	0xbf8c8ba6	-1.0980117
24	0xbf9b1062	-1.2114375
25	0x3fca5c86	1.5809486
26	0xbfb1417e	-1.3848112
27	0x3fa95d0d	1.3231522
28	0x3f53c594	0.82723355
29	0xbfcaf6d5	-1.5856577
30	0xbf6d6eda	-0.9274727
31	0xbf6f474c	-0.93468165
32	0xbfc70871	-1.5549451
33	0xbfdab903	-1.7087711
34	0xc087a8eb	-4.23937
35	0xbfb94c03	-1.4476322
36	0x408936b7	4.287929
37	0x3f2ac967	0.66713566
38	0x3f679db4	0.9047501
39	0x401fee5b	2.498923
40	0xbfb02495	-1.3761164
41	0x3fe3f70b	1.7809767
42	0xbf85260a	-1.0402234
43	0x3fa74503	1.3067936
44	0xbfb0c2a5	-1.3809401
45	0xc0160d6f	-2.34457
46	0x3fa505ee	1.2892435
47	0xbfa02231	-1.2510434
48	0xbfde3c00	-1.736206
49	0xc0062815	-2.0961964
50	0xc0292915	-2.6431324
51	0x3f450760	0.7696438
52	0xc067f2fa	-3.624205
53	0xc095d514	-4.6822605
54	0x3fee4e1d	1.8617588
55	0x3fa68b8d	1.3011338
56	0xbf7b0107	-0.9804844
57	0x3f4c23b9	0.7974201
58	0xbf8c6ae8	-1.0970125
59	0x3fe023dc	1.7510943
60	0xbf9a21bb	-1.2041544
61	0x3fc170ea	1.5112584
62	0x3f7bbc1e	0.9833392
63	0x409c088b	4.876043

weight f4 [64, 5]
0	0xbdaea75c	-0.08528015
1	0xbff50cd1	-1.9144536
2	0x3d9dfca6	0.077142045
3	0xbe38792e	-0.18014976
4	0x3b266b18	0.0025393423
5	0x3eb0d3fd	0.34536734
6	0x400ae1fb	2.1700428
7	0x3e0f1399	0.1397232
8	0x3e841c37	0.25802776
9	0xbcb129d1	-0.021626385
10	0xbffb3274	-1.9624772
11	0x3fec5922	1.8464701
12	0xbe8cef9c	-0.27526557
13	0x3ed11952	0.4083963
14	0xbe8cfed1	-0.2753816
15	0xbf5304fe	-0.8242949
16	0x3f33c81e	0.7022723
17	0x3f261dde	0.64889324
18	0x3f1f0731	0.6212035
19	0x3d6cc8a1	0.057808522
20	0xbe8071c1	-0.25086787
21	0x3fb1b1c0	1.388237
22	0x3fd37153	1.6518959
23	0xbddb7e7f	-0.107174866
24	0x3d826bd5	0.063682236
25	0x3f6bed1d	0.9215868
26	0xc014cf0e	-2.3251376
27	0xbf8897a6	-1.067128
28	0x3e9980be	0.29981035
29	0x3c83086a	0.015995223
30	0x402c6de6	2.6942077
31	0x3fc94959	1.5725509
32	0x3db8ee67	0.09029847
33	0xbdaebc06	-0.085319564
34	0xbe2518aa	-0.1612269
35	0xbf9d4e78	-1.2289572
36	0xbf8c210b	-1.0947584
37	0xbfd30093	-1.648455
38	0xbea7c681	-0.32768634
39	0xbdc666ea	-0.09687598
40	0x3ef266ee	0.47344154
41	0xbfcc5b73	-1.5965408
42	0x3fb6b4a5	1.4273878
43	0x3c148cba	0.009066755
44	0x3d808eae	0.06277214
45	0xbfc73b4f	-1.5564975
46	0xbfcf31ed	-1.6187111
47	0xbf76ad06	-0.9635776
48	0x3b4b0bec	0.0030982448
49	0x3d71c7ff	0.05902862
50	0xc02aeeac	-2.6708174
51	0x3f8ae90e	1.0852373
52	0x3f352df7	0.7077326
53	0xbe4cb32c	-0.19990224
54	0xbdd8755b	-0.10569259
55	0x3ee969bd	0.45588484
56	0x3ff266dc	1.893764
57	0xbfe094ef	-1.7545451
58	0x3f4609e1	0.77358824
59	0xbce7f55a	-0.028315235
60	0xc00ed4fb	-2.2317493
61	0xc0775d94	-3.8650866
62	0xbff64c9f	-1.9242133
63	0xbf0c9f38	-0.5493045
64	0x3dc5204e	0.09625302
65	0xbfd309bf	-1.6487349
66	0xc00005a6	-2.0003448
67	0x3f747e56	0.95505273
68	0xbdf67401	-0.12033845
69	0xbb51907b	-0.0031976986
70	0x401ee6bb	2.4828327
71	0x3fc96292	1.5733206
72	0xbe5062ed	-0.20350237
73	0x3e62f1f0	0.22162604
74	0xbd90df9d	-0.07073901
75	0xc010ffd1	-2.2656138
76	0x3f62f038	0.88647795
77	0x3ddcb9eb	0.107776485
78	0xbd1f6450	-0.038914025
79	0x3c5402a9	0.012940087
80	0xc0028c71	-2.0398219
81	0x408e1898	4.440502
82	0xbf229f62	-0.6352445
83	0x3f7b0803	0.980591
84	0xbe18b79f	-0.14913796
85	0xbf94bb11	-1.1619588
86	0x3f139873	0.57654494
87	0x3f40c7e4	0.7530501
88	0xbe483ca3	-0.19554381
89	0xbe19ddb3	-0.15025978
90	0xc04968dd	-3.1470253
91	0x3ffe700b	1.9877943
92	0x3f4b7fa4	0.7949164
93	0x3f03c229	0.5146814
94	0x3d34b091	0.0441137
95	0x3e937f80	0.28808212
96	0xc0235c42	-2.552506
97	0xbf8cb368	-1.099225
98	0xbe3f454d	-0.1867878
99	0x3e549373	0.20759372
100	0x3e9cb4c3	0.3060666
101	0xbfa025ce	-1.2511537
102	0x3f7bb3ba	0.98321116
103	0xbdf41819	-0.11918659
104	0xbd078187	-0.03308251
105	0xbfe42282	-1.7823031
106	0xbfb9424c	-1.4473357
107	0x3f21006d	0.62891275
108	0xbf3691fb	-0.713165
109	0xbd97dd43	-0.07415249
110	0xc0756663	-3.8343742
111	0xbfc430a5	-1.5327345
112	0x3fd4dcfe	1.6629941
113	0xbf140479	-0.57819325
114	0x3d826166	0.063662335
115	0xbff4cb90	-1.9124622
116	0x40027961	2.0386584
117	0xbf71e185	-0.9448474
118	0x3f2505b5	0.64461833
119	0xbd0bd0f7	-0.03413483
120	0x3f4dd229	0.80398804
121	0xc0481ec2	-3.1268773
122	0x40222d99	2.534033
123	0xbeee3942	-0.4652806
124	0x3d9bf877	0.0761575
125	0xbea2610a	-0.3171466
126	0x4031ef9e	2.78025
127	0xbed81950	-0.42206812
128	0x3f048265	0.51761466
129	0xbd8feaff	-0.07027244
130	0x3f1de6fc	0.6168058
131	0xbdc0b176	-0.09408848
132	0xbf3ba4fd	-0.7329863
133	0xbf2c5769	-0.6732088
134	0xbdaadf81	-0.08343411
135	0x40d04ab8	6.509121
136	0x3fc5746d	1.5426155
137	0x3fc49444	1.5357747
138	0x3f847db1	1.0350858
139	0xbe80889a	-0.2510422
140	0xbd1e2ee9	-0.038618956
141	0x3f21cb06	0.63200414
142	0xc033eef5	-2.8114598
143	0x3e8b6572	0.27225834
144	0xbdd42689	-0.103589125
145	0xbfa3666f	-1.2765635
146	0xbfa5610e	-1.2920244
147	0x3f7222bd	0.94584256
148	0x3f0ef45f	0.5584163
149	0xbf0c8f55	-0.5490621
150	0x408afa21	4.3430333
151	0xc00787e4	-2.117669
152	0x3eabe3bb	0.33572182
153	0xbe3f5dfa	-0.18688193
154	0x3d9947e8	0.07484418
155	0xbfd0f1ab	-1.6323751
156	0xbec59b50	-0.38595057
157	0xc0147972	-2.3199124
158	0x3ec6442d	0.3872389
159	0x3ca23f58	0.019805595
160	0xc093dafd	-4.620482
161	0x3f2f2938	0.6842227
162	0x3f4e07d2	0.8048068
163	0xbe10def9	-0.14147557
164	0xbd45101c	-0.048111066
165	0x40ca561b	6.323011
166	0x3e267c56	0.16258368
167	0xbe6b37d2	-0.22970513
168	0xbd0652ce	-0.032793812
169	0x3c85f3e4	0.016351648
170	0xbf5fdc39	-0.8744541
171	0xc008596d	-2.130458
172	0x3e821cc0	0.2541256
173	0xbeda1a1b	-0.42598042
174	0x3da5c2fe	0.080938324
175	0xbfd8ef6b	-1.6948065
176	0xbfe214d2	-1.7662604
177	0x3f1376d2	0.5760318
178	0x3d40383e	0.046928637
179	0x3db927f1	0.09040821
180	0xbfa74708	-1.3068552
181	0x3cac9830	0.021068662
182	0xbf18f3cf	-0.5974702
183	0x3e16c2f2	0.14722803
184	0x3e1a8a2b	0.1509177
185	0x401e001f	2.4687574
186	0xc0482dce	-3.1277957
187	0x3f8da523	1.1066021
188	0x3e0dd540	0.1385088
189	0x3e130367	0.14356767
190	0x3e50be0c	0.20384997
191	0x3eebc2e1	0.46047118
192	0xbfd90dfd	-1.6957394
193	0x3e8ec7d7	0.2788684
194	0x3ddb45d5	0.10706679
195	0xbf127eed	-0.57224923
196	0x3f4a6e63	0.79074687
197	0xbfac96ab	-1.348348
198	0xbf8124df	-1.0089377
199	0xbe06fe91	-0.13183047
200	0x3f6db99a	0.9286133
201	0xc01d584c	-2.4585142
202	0xbfd07814	-1.6286645
203	0xbedc5c0e	-0.43038982
204	0x3d40dae6	0.047083758
205	0x40688135	3.6328862
206	0x40527e77	3.2889688
207	0xbee6cf02	-0.4507981
208	0x3f1ed872	0.6204902
209	0xbdab180f	-0.08354198
210	0xc038dab5	-2.8883488
211	0x3fee35b5	1.861014
212	0xbed96434	-0.4245926
213	0xbc237e81	-0.009978891
214	0xbe8315ed	-0.25602666
215	0x4008f82b	2.140147
216	0x3e31d883	0.17367749
217	0x402f04e6	2.734674
218	0x3eb7ff37	0.359369
219	0x3c5e60fa	0.013572926
220	0xbff4cb0c	-1.9124465
221	0xc012dbd0	-2.2946663
222	0x40060046	2.0937667
223	0xbea40eae	-0.3204245
224	0x3e32efff	0.17474364
225	0x3fa17db6	1.2616489
226	0x3d7a19fc	0.061059937
227	0x3fd2ce51	1.6469213
228	0x3c203b1b	0.009779717
229	0x3e17ba59	0.1481718
230	0xbf238761	-0.63878447
231	0xbfa601e1	-1.2969323
232	0xbe8bcf9a	-0.27306825
233	0xbeaa80e9	-0.33301476
234	0xbd35a5d4	-0.0443476
235	0x4018f4ac	2.3899336
236	0xbff65d8f	-1.9247302
237	0x3f499e70	0.7875738
238	0xbf39c5f4	-0.7256768
239	0xbe1b9c5c	-0.15196365
240	0x40897b10	4.2962723
241	0x4058222d	3.377086
242	0x3f867b37	1.0506352
243	0x3f497707	0.78697246
244	0xbdef424a	-0.116825655
245	0x40171663	2.3607414
246	0x3fd356a1	1.6510812
247	0xbeac56a4	-0.33659852
248	0x3f11cf69	0.5695711
249	0x3da628ac	0.08113226
250	0x3fb12cd9	1.3841811
251	0xbfb493fc	-1.4107661
252	0x3fb671ac	1.425344
253	0x3dec6e94	0.115445286
254	0x3dbaa84a	0.0911413
255	0x3ebddac8	0.3708098

bias f4 [64]
0	0xbe4683b6	-0.19386181
1	0x3ecfdf7a	0.40600187
2	0x3eb73728	0.35784268
3	0xbe9392f1	-0.28823045
4	0x3f9664cf	1.1749514
5	0x3fbf202f	1.4931697
6	0x3f9f516f	1.2446727
7	0xbf808fef	-1.0043925
8	0x3f935930	1.1511593
9	0xc0050014	-2.0781298
10	0xc0005209	-2.005007
11	0x4018d68e	2.3880954
12	0x3e6fb7b6	0.23409924
13	0xbf2715f7	-0.6526789
14	0x3fc4cbf2	1.5374739
15	0xc0356b16	-2.834661
16	0xbf2d1113	-0.6760418
17	0x402df15b	2.7178562
18	0xbe809605	-0.25114456
19	0xbf4710cf	-0.7776002
20	0x3f268576	0.65047395
21	0xbf9b8d90	-1.2152576
22	0xbec952f9	-0.39321116
23	0xbf365aa8	-0.7123208
24	0xbfb1edd8	-1.3900709
25	0x3f35e8aa	0.7105814
26	0xbe2d915f	-0.16949986
27	0xbf91f3c0	-1.1402512
28	0x3f7e1c25	0.99261695
29	0x3f8308cf	1.0237063
30	0xbfb5b4cc	-1.41958
31	0x40551da5	3.3299344
32	0xbff2e5be	-1.8976362
33	0xc043d36b	-3.059779
34	0x3ff739aa	1.9314473
35	0x3ffa4238	1.9551458
36	0x3f54c375	0.83110744
37	0x3f56126f	0.8362188
38	0x404d2f8a	3.2060266
39	0xbfaccd05	-1.3500067
40	0x3e914296	0.28371114
41	0x3f834ce7	1.0257844
42	0x3f14dda8	0.5815072
43	0x4008168d	2.1263764
44	0x3fe5d156	1.7954509
45	0x3f26f8bb	0.6522328
46	0x3f5fe10d	0.87452775
47	0x3e8cbdd6	0.27488583
48	0xbf576bc1	-0.84148794
49	0x402e0b3f	2.7194364
50	0x3f6e5104	0.9309237
51	0xbf92be51	-1.146433
52	0xbf23c25e	-0.63968456
53	0x3fa2279d	1.2668339
54	0x4067569b	3.614661
55	0x3f856ada	1.0423234
56	0xbd297656	-0.04137262
57	0x3e48abc5	0.19596775
58	0x3bdf2fb0	0.0068111047
59	0x404e04cb	3.2190425
60	0x403bc3ef	2.9338338
61	0xc03e3e0c	-2.972537
62	0x3ff6d4c1	1.9283677
63	0xbed80e49	-0.421984

weight f4 [64, 64]
0	0xbd4585c6	-0.04822328
1	0xbd81228a	-0.06305416
2	0xbf38c896	-0.7218107
3	0x3f1abe73	0.6044685
4	0xbf1652fa	-0.5872036
5	0x3f32d476	0.6985544
6	0x3f2f5cf5	0.68501216
7	0x3f4b117a	0.7932354
8	0xbf1b00a4	-0.6054785
9	0xbe67820f	-0.22608207
10	0x3dbcd34b	0.092199884
11	0xbd09ab52	-0.03361065
12	0x3ee8809e	0.45410627
13	0x3f5ab887	0.85437816
14	0xbc4bd842	-0.012441697
15	0x3e8a1a1e	0.2697305
16	0xbfa0df02	-1.2568057
17	0x3ed50b69	0.41610268
18	0x3da5c8c8	0.080949366
19	0x3f2f11b3	0.6838638
20	0x3e9df4b0	0.30850744
21	0x3df49611	0.119426854
22	0x3f0f65d6	0.56014764
23	0x3da6f2d3	0.08151784
24	0x3fd1ca16	1.6389797
25	0xbdc04d43	-0.093897365
26	0xbc52142b	-0.012822191
27	0xc02053e2	-2.5051198
28	0xbf582f08	-0.84446764
29	0x3f27c680	0.6553726
30	0xbf298f2a	-0.66234076
31	0xc00b989f	-2.1811903
32	0xbf824431	-1.017706
33	0xbfb5b7d0	-1.419672
34	0x3efc3350	0.49257898
35	0x3ec63e4a	0.38719398
36	0x3c4ee9a1	0.012628944
37	0x3f080c89	0.5314413
38	0x3ec45133	0.383432
39	0x3e2dd8b1	0.16977192
40	0x3f739028	0.9514184
41	0x3e935913	0.28778896
42	0xbd99071a	-0.07472058
43	0xc07a2998	-3.9087887
44	0x3f26eda1	0.6520634
45	0x3f456e5d	0.77121526
46	0x3d373ea5	0.044737477
47	0xbf2098fe	-0.6273345
48	0xbf6bca94	-0.92105985
49	0xbfb49d8a	-1.4110577
50	0xbf1f4c2d	-0.6222561
51	0x3e7e8270	0.24854445
52	0xbf10dc61	-0.5658627
53	0x3ec0a25f	0.3762388
54	0x3f792859	0.9732719
55	0x3f38abef	0.7213735
56	0x3faca305	1.348725
57	0x3e1f5f98	0.1556381
58	0xbef28ea5	-0.47374454
59	0x3f4a6796	0.7906431
60	0x3f6421e6	0.89114225
61	0xbf022379	-0.50835377
62	0x3f3c6c98	0.736032
63	0x3ee16bfc	0.44027698
64	0x3e8f1fd5	0.27953973
65	0x3f0580d0	0.5214968
66	0xbf0c1ac9	-0.5472837
67	0xbf2e0600	-0.67977905
68	0x3d9c77e9	0.076400585
69	0x3e062b88	0.13102543
70	0x3f6c1c83	0.92231005
71	0xbf9d87d6	-1.2307079
72	0x3f1dc6e9	0.6163164
73	0x3d3d5a29	0.04622856
74	0x3f56f5a3	0.8396856
75	0x3eb39cb6	0.35080498
76	0x3ed540c7	0.41650984
77	0xbfd8ddae	-1.6942651
78	0x3f285d0f	0.65766996
79	0x3d4fe4c8	0.050755292
80	0xbed13fdf	-0.40869042
81	0x3f8c2b64	1.0950742
82	0xbeb56aef	-0.35433146
83	0xbcac7bdc	-0.021055155
84	0xbcc5d80c	-0.02415087
85	0x3f05a8c9	0.5221067
86	0xbedf48f5	-0.4361035
87	0xbe509915	-0.20370896
88	0xbeaef848	-0.341738
89	0xbef6e83a	-0.4822405
90	0x3e7ac43e	0.24488923
91	0x4082c40c	4.0864315
92	0x3f989f53	1.1923622
93	0xbe9cb624	-0.30607712
94	0x407616d1	3.8451426
95	0xbe352649	-0.17690386
96	0x3ec711a8	0.38880658
97	0x40eef0e1	7.466904
98	0xbed3e7ec	-0.4138788
99	0xbf307437	-0.6892733
100	0xbfd13e4f	-1.634714
101	0x3f8d2aca	1.1028683
102	0xbed991b0	-0.42493963
103	0x3f37dbb5	0.7181962
104	0x3f7ef7af	0.99596685
105	0x3e14b2c2	0.14521316
106	0xbf87712c	-1.0581412
107	0xbf3332b4	-0.6999924
108	0xbedb6194	-0.42847884
109	0xbf37f740	-0.7186165
110	0x3f09e294	0.53861356
111	0x3f969456	1.1764019
112	0x4043a773	3.0570953
113	0xbd03ed0e	-0.032208495
114	0x3f1d5bb6	0.61468065
115	0x3dac2ea4	0.084073335
116	0xbf05d6d4	-0.52280927
117	0x3f319de8	0.6938157
118	0xbe02e155	-0.1278127
119	0x3fe07c3d	1.7537915
120	0xc00c811a	-2.1953797
121	0x3f4af9b6	0.7928728
122	0xbf512adf	-0.8170604
123	0xbfd72247	-1.6807336
124	0xc0855c66	-4.167529
125	0x3f6d04a4	0.92585206
126	0xc0292dc0	-2.6434174
127	0x3f3a1d21	0.727007
128	0xbfa37a65	-1.2771727
129	0xbf2dd99c	-0.6791017
130	0x3e85c2f7	0.2612531
131	0xbf6bba71	-0.9208136
132	0x3f25127c	0.6448133
133	0xbcae5732	-0.021281812
134	0xbfa3c18d	-1.2793442
135	0xbf1afc96	-0.60541666
136	0xbe9053a0	-0.281888
137	0xbe0b295c	-0.13589996
138	0x3f5020fe	0.8130034
139	0xbed5814c	-0.41700208
140	0xbfeda1d3	-1.856501
141	0x3f43c851	0.76477534
142	0xbf1087de	-0.56457317
143	0x3e8bab44	0.27279103
144	0x3fc1f716	1.515353
145	0x3f3e31c3	0.7429468
146	0x3fa12f7a	1.2592614
147	0x3f157e83	0.58396167
148	0xbf994174	-1.19731
149	0x3f2903c9	0.660214
150	0x3dfabc11	0.12242902
151	0x3fe281ef	1.7695903
152	0x3f989bd8	1.192256
153	0xbf58eaef	-0.8473348
154	0x3e170da5	0.14751299
155	0x3db74bce	0.089500055
156	0x3d7895ce	0.06068974
157	0x3f40bc68	0.75287485
158	0xbf1a9e5a	-0.60397875
159	0xbf9259ab	-1.1433614
160	0x3f36c790	0.7139826
161	0x3f6ae48a	0.9175497
162	0xbf590969	-0.84779984
163	0xbf76c781	-0.9639817
164	0x3f4b68dc	0.7945688
165	0xbf64c18c	-0.8935783
166	0xbe49a2a2	-0.19690946
167	0xbd2e76a9	-0.042593632
168	0xbfae76cf	-1.3630008
169	0xbf8ef17a	-1.1167443
170	0x3dd9c076	0.10632412
171	0x4037bbdb	2.8708408
172	0xbec8c318	-0.39211345
173	0xbeefff19	-0.46874312
174	0x3f578a90	0.84195805
175	0x3e8428ab	0.25812277
176	0x3fd79d95	1.6844965
177	0x3f725315	0.94658023
178	0xbcd5e36b	-0.026109418
179	0xbfb98363	-1.4493221
180	0xbd9f1f2e	-0.07769619
181	0x3f1cbdff	0.6122741
182	0xbe930099	-0.28711393
183	0x3ed09342	0.4073735
184	0x3e1e3653	0.1545041
185	0xbe5826d0	-0.21108556
186	0xbf527215	-0.82205325
187	0x3cbea8ec	0.023273908
188	0xbed6b3b9	-0.41933993
189	0x3fa510c0	1.2895737
190	0x3edcc1fb	0.43116745
191	0x3e31ded3	0.17370157
192	0x3f1ed401	0.6204224
193	0x3f0f6438	0.56012297
194	0xbfbc9fe7	-1.4736298
195	0xbefbd986	-0.49189395
196	0xbe315fca	-0.17321697
197	0xbf963356	-1.1734416
198	0x3f9f6057	1.2451276
199	0xbf88dce0	-1.0692406
200	0x3f9f4808	1.2443857
201	0xbe55ec6d	-0.2089097
202	0xbe28d79a	-0.16488495
203	0xbfe887ec	-1.816648
204	0x3f654b18	0.8956771
205	0xbe655eb7	-0.22399412
206	0xbf53e3b3	-0.82769316
207	0xbf534f9c	-0.8254335
208	0xbfd5c5b4	-1.6700959
209	0xbe6446fb	-0.22292702
210	0x3e363c60	0.17796469
211	0xbe6f42d1	-0.23365332
212	0x3f1a16b7	0.6019091
213	0x3e6fa7d2	0.23403862
214	0x3f34ad7c	0.70577216
215	0xbea1e2e2	-0.3161841
216	0x3eccbd40	0.39988136
217	0xbe9585c5	-0.2920362
218	0x3f120f7f	0.57054895
219	0x3fe7275c	1.8058887
220	0xbe2073cc	-0.15669173
221	0xbf7fc1d8	-0.9990516
222	0x400e2e05	2.2215588
223	0xbfa6e395	-1.3038203
224	0x3d064288	0.032778293
225	0x40b50136	5.656398
226	0xbf6ba671	-0.92050844
227	0xbf5dc403	-0.86627215
228	0xbf6cd766	-0.9251617
229	0x3f9d051c	1.2267184
230	0x3e0c3064	0.13690335
231	0x3f91f12f	1.1401728
232	0x3f884d24	1.0648541
233	0xbe63a94a	-0.22232547
234	0xbf5eea39	-0.87076145
235	0x3e942e12	0.289414
236	0xbf5b8523	-0.85750026
237	0xbc936805	-0.017993936
238	0xbd9d9910	-0.0769521
239	0x3fd44d0b	1.6586012
240	0x400473d2	2.069569
241	0xbf6b1fa3	-0.9184515
242	0x3e5019f8	0.20322406
243	0x3ea16e5e	0.31529516
244	0xbf638fc7	-0.8889126
245	0x3dca7448	0.0988546
246	0xbfa23fd3	-1.2675728
247	0x3fc5662a	1.5421803
248	0xbf6dcd12	-0.9289104
249	0x3f102e30	0.56320477
250	0x3f14e765	0.5816558
251	0xbf14bc7b	-0.581001
252	0xc0c1db99	-6.0580564
253	0x3e78b643	0.24288277
254	0xc090617e	-4.511901
255	0x400bae4d	2.1825135

bias f4 [64]
0	0x3dd812dc	0.10550472
1	0xbfb0601f	-1.3779334
2	0xbf4aaa51	-0.7916613
3	0xbfbc5743	-1.471413
4	0x3f764f95	0.9621518
5	0x3e83709e	0.25671858
6	0xbb4a69fc	-0.0030885926
7	0x3f222c18	0.6334853
8	0x3f9865bb	1.1906046
9	0xbdb717b8	-0.08940071
10	0xbebc0716	-0.36724156
11	0xbf47765f	-0.77914995
12	0x3f68ad14	0.90889096
13	0x3fb8f017	1.444827
14	0x3fcb076c	1.586164
15	0x3fd9b54b	1.7008451
16	0xbdac75bb	-0.08420893
17	0xbf5baa21	-0.8580647
18	0x3f5facc8	0.8737302
19	0xbfa2973c	-1.2702403
20	0x3f0a9cda	0.54145586
21	0xbecabff9	-0.3959959
22	0x3ee38964	0.44440758
23	0xbeeb503a	-0.45959646
24	0xbfbca44c	-1.473764
25	0xbf865db1	-1.0497342
26	0xbfa7269f	-1.3058661
27	0x3fda67e5	1.7062956
28	0x3e7d33e4	0.24726826
29	0xbff01242	-1.8755572
30	0xbf994d9d	-1.1976811
31	0xbf8ff505	-1.1246649
32	0xbf5d6077	-0.8647532
33	0x3f570ec6	0.8400692
34	0xbf6e546a	-0.93097556
35	0xbe83ff79	-0.25780848
36	0xbfad2ec6	-1.3529899
37	0xbf65ef01	-0.89817816
38	0xbf63829b	-0.88871163
39	0xbfeebd25	-1.8651472
40	0x3ee3ef81	0.44518664
41	0xbee45b3c	-0.44600856
42	0xbde476fa	-0.111555055
43	0x3f28720b	0.65799016
44	0x3f125470	0.5716009
45	0xbf40f71c	-0.7537706
46	0x3f0e07eb	0.5548083
47	0x3fb549ec	1.4163184
48	0xbf46f788	-0.7772145
49	0x3fc20fdb	1.5161089
50	0x3f4b1cec	0.79341006
51	0x3f0fac08	0.56121874
52	0x402cfc1f	2.7028883
53	0xbfb0f0a1	-1.3823434
54	0x3f9cc112	1.224642
55	0xbec42abf	-0.38313863
56	0x3ea8dc1f	0.3298044
57	0x3fb3b4a4	1.4039502
58	0xbf09e033	-0.53857726
59	0x3ec0d3b3	0.37661514
60	0xbf687d4c	-0.9081619
61	0xbf846bad	-1.034536
62	0x3f580dcd	0.8439606
63	0x3f5dac0f	0.86590666

weight f4 [1, 64]
0	0xc035714a	-2.8350396
1	0xc0212192	-2.517674
2	0x401ded36	2.4676032
3	0xc005d597	-2.0911615
4	0xc0208150	-2.5078926
5	0xc0ae6d42	-5.450837
6	0xc0c10cab	-6.0327964
7	0xc11b0c6c	-9.690533
8	0xbe5d945f	-0.2163863
9	0xc0c1864a	-6.0476427
10	0xc025a3d7	-2.588125
11	0x40791aa8	3.892252
12	0xc11b0907	-9.689704
13	0x40d39075	6.611384
14	0x3fe1ed07	1.765046
15	0xc050ba85	-3.2613842
16	0xc0689103	-3.6338508
17	0x3e9d3a4a	0.30708534
18	0xc12ebdfe	-10.921385
19	0xc24d8970	-51.384216
20	0xbf19a2e3	-0.6001417
21	0x3da380fd	0.07983587
22	0xbfbf7f3a	-1.4960701
23	0x400ce5f8	2.2015362
24	0xc03fa4fa	-2.9944444
25	0xc11b7f1b	-9.718532
26	0xbf3f12ae	-0.7463788
27	0x3fa76194	1.3076653
28	0x40cdbfdb	6.42967
29	0xbfca089a	-1.5783875
30	0xbf2b9dac	-0.67037463
31	0xc0615796	-3.5209708
32	0xbfe1bef7	-1.7636403
33	0xbe9f986d	-0.3117098
34	0x4065ac19	3.588629
35	0xc11bc434	-9.735401
36	0xbf92adea	-1.1459324
37	0xbef5b60a	-0.47990447
38	0x4097b746	4.7411222
39	0xc103bda7	-8.233802
40	0xbe42a9af	-0.19010042
41	0xc1040522	-8.251253
42	0xc07a6edb	-3.913016
43	0xbfda39f3	-1.7048935
44	0xbfa9747a	-1.3238671
45	0xc116bb9f	-9.420806
46	0xc0f08e73	-7.517389
47	0x40920ed2	4.564309
48	0x4046b37a	3.1047044
49	0xc034d019	-2.8252013
50	0xc00045a8	-2.0042515
51	0x3fe921e8	1.8213472
52	0x4108a9c9	8.541451
53	0xc0125564	-2.2864618
54	0x40e6512e	7.1974096
55	0x413d7d74	11.843128
56	0x4047e830	3.1235466
57	0x3d9ac8b1	0.0755781
58	0xc01075a6	-2.2571807
59	0xc09195f0	-4.549553
60	0x3fcfe4a1	1.6241647
61	0xbfdac5c8	-1.7091608
62	0xc093c3c4	-4.617647
63	0xbedd5e1a	-0.43235856

weight f4 [1, 64]
0	0x3f9f138a	1.2427838
1	0xc050b7c6	-3.2612166
2	0xbf92c3dd	-1.1466023
3	0xc017ed48	-2.3738575
4	0xc0268cc5	-2.602342
5	0x3f944324	1.158299
6	0xbfe5ac73	-1.7943252
7	0x3fb0cc5c	1.3812366
8	0x40a97e50	5.296669
9	0x3f8ca395	1.0987421
10	0xbfe1523e	-1.7603223
11	0xc030405f	-2.753929
12	0xbfcfeaf3	-1.6243576
13	0x404032eb	3.0031078
14	0x40b4a8b1	5.645592
15	0xbf9e4b48	-1.2366724
16	0x3f6cb496	0.9246305
17	0xbf87ddb1	-1.061453
18	0x3fd75d8d	1.6825424
19	0x3d52bc86	0.05144932
20	0x3f70ab74	0.94011617
21	0xbf77c25e	-0.96780956
22	0xbf1af8c4	-0.60535836
23	0xbf8c8ba6	-1.0980117
24	0xbf9b1062	-1.2114375
25	0x3fca5c86	1.5809486
26	0xbfb1417e	-1.3848112
27	0x3fa95d0d	1.3231522
28	0x3f53c594	0.82723355
29	0xbfcaf6d5	-1.5856577
30	0xbf6d6eda	-0.9274727
31	0xbf6f474c	-0.93468165
32	0xbfc70871	-1.5549451
33	0xbfdab903	-1.7087711
34	0xc087a8eb	-4.23937
35	0xbfb94c03	-1.4476322
36	0x408936b7	4.287929
37	0x3f2ac967	0.66713566
38	0x3f679db4	0.9047501
39	0x401fee5b	2.498923
40	0xbfb02495	-1.3761164
41	0x3fe3f70b	1.7809767
42	0xbf85260a	-1.0402234
43	0x3fa74503	1.3067936
44	0xbfb0c2a5	-1.3809401
45	0xc0160d6f	-2.34457
46	0x3fa505ee	1.2892435
47	0xbfa02231	-1.2510434
48	0xbfde3c00	-1.736206
49	0xc0062815	-2.0961964
50	0xc0292915	-2.6431324
51	0x3f450760	0.7696438
52	0xc067f2fa	-3.624205
53	0xc095d514	-4.6822605
54	0x3fee4e1d	1.8617588
55	0x3fa68b8d	1.3011338
56	0xbf7b0107	-0.9804844
57	0x3f4c23b9	0.7974201
58	0xbf8c6ae8	-1.0970125
59	0x3fe023dc	1.7510943
60	0xbf9a21bb	-1.2041544
61	0x3fc170ea	1.5112584
62	0x3f7bbc1e	0.9833392
63	0x409c088b	4.876043

exp_avg f4 [64, 5]
0	0xb7ed36c3	-2.8278102e-05
1	0xb7df733f	-2.6637337e-05
2	0x3a724b60	0.0009242799
3	0xba9bb90d	-0.0011880711
4	0xbcca2b91	-0.024678977
5	0xb91aa6fb	-0.0001474879
6	0x39a5113d	0.00031484096
7	0x3a309ebe	0.00067375216
8	0xba969167	-0.0011487425
9	0x3d0fcf0d	0.03510957
10	0x381aa0d1	3.6866233e-05
11	0xb886dae0	-6.4303866e-05
12	0xb93cb4d5	-0.00017996442
13	0x393efa6e	0.00018213104
14	0xba51636c	-0.00079875323
15	0xb937664c	-0.00017490349
16	0x38a71449	7.966959e-05
17	0x39f348e8	0.0004640289
18	0xba90ab17	-0.0011037317
19	0x3b8bf399	0.0042709825
20	0x39b019d0	0.00033588568
21	0x3a19b45f	0.0005863364
22	0xba60cdf9	-0.0008575614
23	0xb836b27f	-4.355842e-05
24	0x3b804f52	0.0039157057
25	0xb90a0b44	-0.00013164902
26	0xb7a69674	-1.9858802e-05
27	0x3a06ebed	0.000514685
28	0xb9e0517c	-0.0004278532
29	0x3b9b27dd	0.0047349767
30	0xb86e5e57	-5.6831483e-05
31	0x392965bb	0.00016154994
32	0x39755dca	0.0002339996
33	0xbad50f92	-0.0016255251
34	0x3b2dec84	0.002653868
35	0xb9749593	-0.00023325374
36	0xba023d70	-0.00049682613
37	0x3a8b4548	0.0010625506
38	0xb9a63d80	-0.00031707808
39	0xb8dbe1ac	-0.000104847684
40	0x39109347	0.00013787775
41	0x3855250c	5.081766e-05
42	0xb9bce441	-0.00036028217
43	0x3a33da35	0.00068608235
44	0x3b9980c3	0.004684539
45	0x3988d24c	0.00026096625
46	0xbaa6e1db	-0.0012732105
47	0xb97f83b1	-0.00024367754
48	0x3b6530c7	0.00349717
49	0xbd026f19	-0.031844232
50	0x38ee17ac	0.000113531336
51	0x396a7cc2	0.00022362455
52	0xb9ee59c3	-0.00045461775
53	0x391a9194	0.00014740817
54	0xbaef4e1f	-0.0018257535
55	0x381febe7	3.8128255e-05
56	0xb9ce1b2e	-0.00039311632
57	0xba654ce7	-0.0008747116
58	0x396ecd96	0.00022774035
59	0xbbb43730	-0.005499743
60	0xb9987aee	-0.0002908329
61	0xb9652c2c	-0.00021855597
62	0x3a47e93d	0.0007626003
63	0xbadec2da	-0.0016995326
64	0xbbc912e7	-0.0061362865
65	0x39a0facb	0.00030704433
66	0xb9d26420	-0.0004012892
67	0xb96bf82a	-0.00022503795
68	0x3a861f8e	0.0010232793
69	0xbccbf098	-0.024894997
70	0x38d00882	9.9197976e-05
71	0x3700edb5	7.68474e-06
72	0xba21e41c	-0.00061756535
73	0x3aa00398	0.0012208102
74	0xbafa1c45	-0.0019081911
75	0xb8a6f84a	-7.961744e-05
76	0x391d3bce	0.00014994966
77	0x3996318a	0.0002864714
78	0xba4bacd3	-0.0007769588
79	0x3c1334d3	0.008984762
80	0x3872b560	5.7866215e-05
81	0x38b2b1f5	8.5208485e-05
82	0xb8099509	-3.2802145e-05
83	0xb90886a5	-0.0001302013
84	0x3a08027d	0.0005188359
85	0xb80e217c	-3.3886623e-05
86	0xb982bc09	-0.0002493563
87	0x3a18a04c	0.0005822226
88	0x3acdaa59	0.0015691026
89	0x3c2880ca	0.010284612
90	0x391a0f0c	0.0001469219
91	0x39eacf18	0.00044786255
92	0xba0df6ec	-0.00054155174
93	0x3966d41f	0.0002201353
94	0xbbbc90d5	-0.00575457
95	0xb7dbe3d0	-2.6212918e-05
96	0xb7d4bf3f	-2.5361425e-05
97	0x381b5dc4	3.7042206e-05
98	0x39267731	0.00015875396
99	0xb8cfb492	-9.904163e-05
100	0xb96dd8d6	-0.00022682859
101	0xb95fda0c	-0.00021348166
102	0x3a10f890	0.0005530203
103	0xb92664a9	-0.00015868492
104	0xbaf6a2a4	-0.0018816781
105	0x38a61799	7.919892e-05
106	0xb8ab6455	-8.172604e-05
107	0xb915f051	-0.00014299272
108	0x39f2c15d	0.00046301904
109	0xbb1e9677	-0.002419857
110	0x388d9a4d	6.752145e-05
111	0xb9069985	-0.00012836426
112	0x3993412c	0.00028086582
113	0xba3bd2a8	-0.0007164874
114	0xbc029dda	-0.007972205
115	0x39029990	0.00012454973
116	0x38dc0b8f	0.000104925704
117	0xb9d90e6f	-0.0004140022
118	0xb84abef7	-4.8338403e-05
119	0xbad268d9	-0.0016052976
120	0x372553c6	9.854271e-06
121	0xb908a378	-0.00013030868
122	0x39149250	0.00014168886
123	0xba31ff12	-0.00067900226
124	0xbb9fa5cc	-0.0048720594
125	0xb921fd75	-0.00015448577
126	0x39980b4e	0.00029000122
127	0x38c3d422	9.3378374e-05
128	0xba8b3b92	-0.0010622612
129	0x3c5d2a5c	0.013498869
130	0xb8d2700a	-0.00010034449
131	0x3982e1c8	0.00024963752
132	0x398759da	0.0002581615
133	0xba46c746	-0.00075827946
134	0x3ba831e9	0.005132903
135	0x391f8158	0.00015211606
136	0x38b2c182	8.523745e-05
137	0xb9c35ec4	-0.00037263904
138	0x39e155ad	0.00042979178
139	0xba889f67	-0.0010423482
140	0x383523a6	4.3186963e-05
141	0x3906ca52	0.00012854606
142	0xb8c507b0	-9.395124e-05
143	0xb9fa6bb3	-0.00047763958
144	0x39db920d	0.0004187975
145	0xb80056b4	-3.0598327e-05
146	0xb79b9ec3	-1.8551369e-05
147	0x38277239	3.992228e-05
148	0xb902bcb2	-0.0001246806
149	0xb82ea843	-4.164154e-05
150	0x38d0a5cc	9.949095e-05
151	0x390b76d0	0.00013300334
152	0xb8001036	-3.0532676e-05
153	0x395814f4	0.00020607171
154	0xbb765ce0	-0.003759198
155	0xb7d5b718	-2.5476838e-05
156	0x387c3fba	6.0140832e-05
157	0x39836c75	0.00025067074
158	0xba484cbc	-0.0007640829
159	0xbb0edf32	-0.0021800515
160	0x389e361d	7.5441065e-05
161	0xb9686e15	-0.00022166253
162	0x382fdd5c	4.192941e-05
163	0xb8c4ce35	-9.384417e-05
164	0xbbb68620	-0.005570188
165	0x392a23f5	0.00016225858
166	0x394574a0	0.0001883083
167	0xb9ec7427	-0.00045099968
168	0x3912589a	0.00013956652
169	0xbb137491	-0.00224999
170	0xb72e2f60	-1.03822385e-05
171	0xb979dcd5	-0.00023828757
172	0x394a4e44	0.00019293377
173	0xbae7eb40	-0.0017694011
174	0xbba5dc4e	-0.0050616628
175	0xb8cca1b5	-9.757598e-05
176	0xb63666d6	-2.7179972e-06
177	0x39d93d79	0.00041435266
178	0xba2164a3	-0.00061566586
179	0xbb8e6cd5	-0.00434647
180	0xb8e0b9dc	-0.00010715771
181	0x387f227a	6.0828846e-05
182	0x3936dee5	0.00017439907
183	0xb9afae5a	-0.00033508503
184	0x39352d3b	0.00017278355
185	0x37744eef	1.45619115e-05
186	0xb8a0050c	-7.6303346e-05
187	0xba19f887	-0.000587352
188	0xb9a9dcac	-0.00032398605
189	0x3b97ff62	0.0046385983
190	0x37240470	9.776195e-06
191	0xb866061f	-5.4841974e-05
192	0xb81d697d	-3.752996e-05
193	0x3a27c354	0.00063996506
194	0x3b68c290	0.003551636
195	0x3884059d	6.295296e-05
196	0x389fa3c2	7.612213e-05
197	0x39a81ec4	0.0003206638
198	0xb9b35d81	-0.00034211206
199	0xbb9ce95b	-0.0047885603
200	0xba18d459	-0.0005829982
201	0x3adebac8	0.0016992921
202	0x3a3198b2	0.00067747675
203	0xbba5db6a	-0.0050615566
204	0x3da667bd	0.08125255
205	0x378da742	1.6886395e-05
206	0xb91900d8	-0.00014591531
207	0xb9a98c72	-0.00032338832
208	0x39347fac	0.00017213699
209	0xbb9746b7	-0.004616584
210	0xb81c01b9	-3.7194903e-05
211	0x36fa60d8	7.4618547e-06
212	0x387b99b5	5.9986214e-05
213	0xb9d62f8e	-0.00040852692
214	0x39bdc432	0.00036195066
215	0x3967ec13	0.00022117821
216	0x399e3d36	0.00030181714
217	0xba49d1df	-0.0007698815
218	0xba2c8c36	-0.00065821724
219	0x3c8af8e8	0.01696439
220	0xb887fe75	-6.484698e-05
221	0xb981b407	-0.00024738928
222	0x3948df75	0.0001915673
223	0xba96bc37	-0.0011500184
224	0xbc033847	-0.008009023
225	0xb7db3406	-2.613106e-05
226	0xb86f1983	-5.70058e-05
227	0xb894ad40	-7.08946e-05
228	0x39145b8d	0.00014148485
229	0x3aaa3af0	0.0012987535
230	0x39070064	0.00012874749
231	0x39811581	0.0002462082
232	0x397348bf	0.00023201386
233	0x3a94d26c	0.0011354215
234	0xbb14aa26	-0.0022684424
235	0x3856550b	5.110078e-05
236	0xb8194852	-3.6545396e-05
237	0xb8df7485	-0.00010655172
238	0x398b245e	0.00026539242
239	0xba01fa87	-0.0004958291
240	0x393e3986	0.00018141241
241	0x39c6e12f	0.00037933278
242	0xb97d4f05	-0.00024157397
243	0x3a55f93d	0.00081624446
244	0x3bd55085	0.006509843
245	0x384f671a	4.9448667e-05
246	0xb8bd7080	-9.033177e-05
247	0xb9f43871	-0.0004658136
248	0x3a945aae	0.0011318529
249	0x3bb31c9c	0.005466057
250	0x3895f1f0	7.149938e-05
251	0x38b9ff1f	8.8690074e-05
252	0xba33b6dd	-0.0006855557
253	0x38066a13	3.204688e-05
254	0x3c478e76	0.012179961
255	0xb90b8a49	-0.00013307588
