ppo_algorithm/data/good_qube_policy/ppo_network_state_dict.pt (torch_old, 74727 bytes, 10 tensors)

net.0.weight f4 [128, 6]
0	0xbfab116a	-1.3364689
1	0x401e8243	2.4767005
2	0xbf9c102d	-1.2192436
3	0x40e93c61	7.2886205
4	0x3f4edcbc	0.80805564
5	0xbf01ba3b	-0.5067479
6	0xbea85ecd	-0.32884827
7	0x4041bf31	3.0272944
8	0x3e61c2eb	0.22047012
9	0x4107550b	8.458262
10	0x3f47c0d2	0.78028595
11	0xbec6968f	-0.38786742
12	0x3e942177	0.28931782
13	0x402f845b	2.7424533
14	0x3f504921	0.81361586
15	0x4103e00e	8.242201
16	0x3f4465cc	0.7671783
17	0xbebbbdf7	-0.3666837
18	0xbfb7b848	-1.4353113
19	0x409b8209	4.8596234
20	0xbffb5430	-1.9635067
21	0x40989515	4.7681985
22	0x3f501aaf	0.81290716
23	0xbf29c03f	-0.6630897
24	0xbf82b0f0	-1.0210247
25	0x408ee6f3	4.465692
26	0x40159c55	2.3376667
27	0x40d70904	6.7198505
28	0x3efeee08	0.49790978
29	0xbe712a65	-0.23551328
30	0x40069340	2.1027374
31	0x3fa0f262	1.2573969
32	0x4029cd02	2.6531377
33	0xc16837e0	-14.513641
34	0x3e786674	0.24257833
35	0x3f43a1bf	0.7641868
36	0xbed96acc	-0.42464292
37	0xbf2c4f60	-0.67308617
38	0x3e9a48f9	0.301338
39	0xc1a0f10d	-20.1177
40	0xbeae2c55	-0.34018198
41	0x3f7eefed	0.9958485
42	0xbf9f97e3	-1.2468227
43	0x40b79c1e	5.7378073
44	0xbe301084	-0.171938
45	0xc0a51dc2	-5.1598825
46	0x3ea9fea6	0.33202094
47	0xbf34980b	-0.705445
48	0x3fe16321	1.7608377
49	0xbe4d9807	-0.20077525
50	0xc107d5e7	-8.489722
51	0x3f95864d	1.168161
52	0xc0437c7a	-3.0544724
53	0x3e633f4c	0.22192115
54	0xbf1ef3c4	-0.62090707
55	0x40ac1483	5.377504
56	0x3fd9141a	1.695926
57	0x4119a1ee	9.602034
58	0x3f88ffba	1.0703042
59	0xbe106cb1	-0.14103962
60	0xbf9a586d	-1.2058235
61	0x40956ef9	4.6697965
62	0xc05692d4	-3.3527117
63	0x40b1d15a	5.5568056
64	0x3f910bca	1.1331723
65	0xbf6740b8	-0.9033313
66	0xc0231612	-2.548222
67	0xc05f8b49	-3.4928763
68	0x40a6ae5c	5.208784
69	0xc12f3757	-10.951011
70	0xbfbc227a	-1.4698021
71	0xbfbad8be	-1.4597394
72	0xbf21acde	-0.631544
73	0x4090602b	4.5117393
74	0xc090c84d	-4.524451
75	0x40c928be	6.2862234
76	0x3fb6a5e4	1.4269376
77	0xbf86f847	-1.0544518
78	0xbf9c02d4	-1.2188363
79	0x40348396	2.8205314
80	0x3f35b0ba	0.7097279
81	0x40bd1095	5.908274
82	0x3f389bfa	0.72113
83	0xbeb71e9d	-0.35765544
84	0xbfc7329a	-1.5562317
85	0x4098b9ff	4.7727046
86	0xc007d2a2	-2.122231
87	0x40917119	4.545056
88	0x3f4d9fde	0.8032206
89	0xbf31b56e	-0.69417465
90	0xbf1fcc89	-0.6242147
91	0x3f8545cc	1.0411925
92	0x3f497fdc	0.7871072
93	0x4107440f	8.454116
94	0x3f26c256	0.65140283
95	0xbecb6027	-0.39721796
96	0x3f9178c0	1.1364975
97	0x3f406126	0.75148237
98	0x400b65ed	2.178096
99	0xc16955f6	-14.583487
100	0x3eaa3852	0.33246094
101	0x3fa0b032	1.255377
102	0xbfe27c56	-1.7694194
103	0x40a20973	5.0636535
104	0xbfec74ba	-1.8473122
105	0x409b7160	4.8575897
106	0x3f48af3d	0.7839239
107	0xbf1c2f60	-0.6100979
108	0xbfffe204	-1.999085
109	0x3ff34376	1.9004962
110	0x3fa55274	1.2915788
111	0x40cf6933	6.4815917
112	0x3ec7ff7e	0.39062113
113	0xbe96a24e	-0.29420704
114	0xbf031f6f	-0.5121984
115	0x40a033e5	5.006335
116	0xc09b697f	-4.856628
117	0x40ace8f0	5.4034348
118	0x3fb63b5c	1.4236865
119	0xbf92ea76	-1.1477802
120	0xbffe9e89	-1.9892131
121	0x4089eafc	4.3099346
122	0xbf42526c	-0.75907016
123	0x408c63b5	4.3871713
124	0x3f27da2f	0.65567297
125	0xbf0b05c2	-0.5430566
126	0xbf16e1bf	-0.5893821
127	0x40942446	4.629428
128	0xc08b6253	-4.3557525
129	0x40a99a96	5.3001204
130	0x3faf54a7	1.3697709
131	0xbf8b8dcd	-1.0902649
132	0xbffd860d	-1.9806534
133	0x40827565	4.0768304
134	0x3e984a01	0.2974396
135	0x40b2f08f	5.591865
136	0x3f1703ac	0.5898998
137	0xbede434a	-0.43410712
138	0x3f801086	1.0005043
139	0x3f28a5b8	0.65877867
140	0x400b0fef	2.1728475
141	0x415a85f0	13.6577
142	0xbf469c01	-0.77581793
143	0x40393538	2.8938732
144	0x3eccd584	0.4000665
145	0x402c1b56	2.6891685
146	0x40503303	3.2531135
147	0x40f415f8	7.6276817
148	0xbf8ccc45	-1.0999838
149	0x406a64f9	3.662413
150	0xbf71353b	-0.9422185
151	0x40794b24	3.8952112
152	0xbf7e9a1b	-0.99453896
153	0x40e96073	7.2930236
154	0x3f48a732	0.7838012
155	0xbefb6f39	-0.49108294
156	0xbff7c8f5	-1.9358202
157	0x408da366	4.426196
158	0xbf931306	-1.149018
159	0x409bc217	4.8674426
160	0x3f2d9ae2	0.6781446
161	0xbf0dbf5d	-0.5537012
162	0xbfab8b5d	-1.3401905
163	0xbf0a0a6d	-0.5392216
164	0x3e669360	0.22517157
165	0x40bcb5f5	5.8972116
166	0x3ee85cfd	0.45383444
167	0xbf5ab0c6	-0.85425985
168	0xbeebaf09	-0.4603198
169	0x402aa875	2.6665318
170	0x4040f590	3.014988
171	0x40cec2d6	6.4612837
172	0x3ee8ab8d	0.45443383
173	0xbe5e77a4	-0.21725327
174	0xbfab2c98	-1.3372984
175	0x40326d5b	2.7879245
176	0xc012c8e4	-2.2935114
177	0x4100d360	8.051605
178	0x3f7b739d	0.98223287
179	0xbf123522	-0.57112324
180	0xbf9f0069	-1.2422
181	0x40766cc6	3.850389
182	0x407c47bd	3.9418786
183	0x40abea90	5.372383
184	0x3e5228cf	0.2052338
185	0xbe4c425c	-0.19947189
186	0xbf8717de	-1.0554159
187	0x3f953f41	1.1659929
188	0xbf18dfca	-0.59716475
189	0x4124ef4b	10.308421
190	0x3f751bf7	0.95745796
191	0xbeb76b38	-0.3582399
192	0xbfe71211	-1.8052388
193	0x409e2736	4.9422865
194	0xbfd4fc48	-1.663949
195	0x408c5ae9	4.3860974
196	0x3f4d0947	0.8009228
197	0xbf162bba	-0.5866047
198	0xbfe5c30b	-1.7950147
199	0x40a24f86	5.0722075
200	0xbf81e0d4	-1.0146737
201	0x404f5480	3.2395325
202	0x3f1dc5b5	0.616298
203	0xbf1f46e8	-0.6221757
204	0xbf39145f	-0.7229671
205	0x3f50c435	0.8154939
206	0x3fdb6cb3	1.7142547
207	0x40da63f7	6.8247027
208	0x3f05b0b7	0.5222277
209	0xbec98973	-0.39362678
210	0x3ecfe20e	0.40602154
211	0xbf043e8c	-0.5165794
212	0xbfcb25b9	-1.5870887
213	0x41a2a0e1	20.328554
214	0xbfc74a42	-1.5569537
215	0x3f1a7df5	0.60348445
216	0xbfa6ed37	-1.3041142
217	0x403ce845	2.9516766
218	0x3ed34897	0.4126632
219	0x40c01f3a	6.003812
220	0x3f312e01	0.6921082
221	0xbece11b7	-0.4024789
222	0xbf8bfc0e	-1.0936296
223	0x401c63b8	2.4435863
224	0xbf3c48d9	-0.73548657
225	0x40f5a420	7.676285
226	0x3f49d023	0.78833216
227	0xbee86e80	-0.45396805
228	0xbfc766c6	-1.5578239
229	0x409a54ca	4.82285
230	0xbfbb0dbf	-1.461357
231	0x407fbe07	3.9959733
232	0x3f4aacb9	0.79169804
233	0xbf19a89e	-0.60022914
234	0xbf8921bf	-1.0713423
235	0xc07f8b02	-3.9928594
236	0xbfb1f106	-1.390168
237	0x416841c0	14.516052
238	0xbe85e8d7	-0.26154205
239	0xbf9eef35	-1.241675
240	0xbf939089	-1.1528484
241	0x407f38b8	3.9878368
242	0x401d2d22	2.4558797
243	0x40e8fbb1	7.280724
244	0x3edc3087	0.43005773
245	0xbe78eebb	-0.24309818
246	0xbff66d54	-1.9252114
247	0x4026130a	2.594912
248	0xc012ecc9	-2.2957022
249	0xbfd894cc	-1.6920409
250	0x3f35bcff	0.7099151
251	0xbf82af6f	-1.0209788
252	0xbff15333	-1.8853515
253	0x4093846c	4.609915
254	0xbfc5e40a	-1.5460217
255	0x40876b78	4.2318687

net.0.bias f4 [128]
0	0xbf6c4fec	-0.9230945
1	0xbf84a2c2	-1.036217
2	0xbf8f61c0	-1.1201706
3	0xbf9185d6	-1.1368968
4	0xbf5f77fa	-0.87292445
5	0x3f42b3d1	0.7605563
6	0xbefda22b	-0.49537787
7	0xbf97f456	-1.187144
8	0x3f082c3e	0.5319251
9	0xbef9093f	-0.48639867
10	0xbf01af11	-0.50657755
11	0x3e0729b7	0.13199507
12	0xbdbb94d5	-0.09159247
13	0xbf9315a0	-1.1490974
14	0xbf8c14ab	-1.0943807
15	0xbf451b9f	-0.7699527
16	0x3f530e66	0.82443845
17	0xbfaab0c7	-1.3335198
18	0xbff36a0d	-1.9016739
19	0x3ca98d87	0.020697368
20	0xbfb84afb	-1.4397882
21	0xbdb135ba	-0.08652826
22	0xbfe22362	-1.7667048
23	0x3f4ccf48	0.80003786
24	0x3f5983d8	0.849668
25	0xbf928a66	-1.1448486
26	0xbf921620	-1.1413002
27	0xbf7e83de	-0.99419963
28	0xbf8048b4	-1.0022187
29	0xbf859ce2	-1.0438502
30	0xbf8d05d2	-1.1017401
31	0xbf735d08	-0.9506383
32	0xbfa4f9c8	-1.2888727
33	0xbf9836e4	-1.1891751
34	0xbf458e98	-0.77170706
35	0xbef97235	-0.48719946
36	0xbfa09165	-1.2544371
37	0xbfc14447	-1.5098962
38	0xbfa8b834	-1.3181214
39	0xbea7c56b	-0.32767805
40	0xbf9adf90	-1.2099476
41	0xbfa6a39c	-1.301868
42	0xbfb11f92	-1.383776
43	0x3fc49864	1.5359006
44	0xbf2b81d4	-0.66994977
45	0x3fd0c47e	1.6309965
46	0xbf58a25d	-0.84622747
47	0xc001e6a3	-2.029702
48	0xbe1ec811	-0.15506007
49	0xbf10b546	-0.565266
50	0xbf727fd5	-0.94726306
51	0xbc176092	-0.009239333
52	0xbea50ec3	-0.32237825
53	0xbf8a3e3b	-1.0800241
54	0xbf844d15	-1.0336024
55	0xbfa02ed2	-1.2514288
56	0xbe0442e4	-0.12916142
57	0xbf22c135	-0.6357606
58	0xbf5051af	-0.8137464
59	0xbff34b28	-1.9007311
60	0xc041969a	-3.024817
61	0xbf839c26	-1.0282028
62	0xbfa5c4e2	-1.2950709
63	0xbf9bf369	-1.2183658
64	0xbfb8093d	-1.4377819
65	0x401d4d6c	2.4578505
66	0xbf8d3aa3	-1.103352
67	0xbf5a5c84	-0.8529742
68	0xbf881c7a	-1.063369
69	0x3f2bc810	0.67102146
70	0x3f0c4769	0.54796463
71	0xbfa7f494	-1.3121514
72	0xbf7c60f9	-0.9858547
73	0x3f4495b0	0.76790905
74	0xbf84ac40	-1.0365067
75	0x3fa60f77	1.297347
76	0xbfaa41b1	-1.3301297
77	0x3dfb72d1	0.12277759
78	0xbf90b043	-1.1303791
79	0xbf066b8f	-0.5250787
80	0xbf99bdf9	-1.20111
81	0xbf43be67	-0.76462406
82	0xbf834ac5	-1.0257193
83	0xbf805bf7	-1.0028065
84	0xbf4c174a	-0.79723036
85	0xbf9862a3	-1.1905102
86	0x3e717d1f	0.23582886
87	0xbf505487	-0.8137898
88	0xbeecc9ea	-0.46247798
89	0xbf8ed82d	-1.1159722
90	0xbebb6d1f	-0.3660669
91	0xbf9f9b86	-1.2469337
92	0xbf9b6bde	-1.2142293
93	0xbf503ce7	-0.8134293
94	0xbf16fb10	-0.5897684
95	0xbf9f67c4	-1.2453542
96	0xbef84536	-0.48490304
97	0xc052a05d	-3.2910378
98	0xbfef7156	-1.8706462
99	0xbfbc03a7	-1.4688615
100	0xbf302085	-0.6879962
101	0xbf8c1008	-1.0942392
102	0xbf75d644	-0.9603007
103	0xbf3ef5f0	-0.7459402
104	0xbfe94c50	-1.8226414
105	0xbf2845a5	-0.6573127
106	0xbcb3dac1	-0.021954896
107	0xbf8b3036	-1.0874088
108	0xbfbe2585	-1.48552
109	0xbf8dbf20	-1.1073952
110	0xbf94d15f	-1.1626395
111	0xbf689477	-0.9085154
112	0x3ecb5005	0.39709488
113	0x3fe9fdcb	1.8280576
114	0xbfbe00c5	-1.4843985
115	0xbfbc7239	-1.4722358
116	0xbf60c023	-0.8779318
117	0xc04a6267	-3.162256
118	0xbf8b527c	-1.0884547
119	0xbf1151c3	-0.56765383
120	0xbf642d60	-0.89131737
121	0x3ea93efc	0.33055866
122	0x409360be	4.6055593
123	0xbf884931	-1.0647336
124	0xbf9cf7e7	-1.2263154
125	0xbf8fac49	-1.1224452
126	0xbe9db842	-0.3080464
127	0xbfa88ca5	-1.3167921

net.1.weight f4 [128]
0	0x3c46fb28	0.012144841
1	0x3c3c003b	0.011474664
2	0x3ca280b5	0.019836763
3	0x393d5d2c	0.00018059154
4	0xbb875576	-0.004130061
5	0x4079524f	3.8956487
6	0x40df9d51	6.9879537
7	0x3b42be1c	0.0029715365
8	0x40a94049	5.2890973
9	0x3c94cffe	0.018165585
10	0xba98b506	-0.0011650629
11	0x411161ed	9.086408
12	0xb89cebd5	-7.482587e-05
13	0xbb5bde14	-0.0033549117
14	0xbc29205f	-0.010322659
15	0x3c0569df	0.008142917
16	0x407bfb4c	3.937213
17	0xbb1ebc5e	-0.0024221162
18	0x3ad6da28	0.001639192
19	0x3b9d02cd	0.0047915936
20	0xbc1f0fa1	-0.009708316
21	0x3b02cdf4	0.0019959183
22	0x393826f8	0.00017562124
23	0x40886ce7	4.2632937
24	0x407aa1bb	3.9161212
25	0xbc2d3aeb	-0.010573129
26	0xbb39a74e	-0.002832848
27	0x3b244211	0.0025063793
28	0x3b35499b	0.002766228
29	0x3b906468	0.0044065006
30	0xb98955d4	-0.00026194623
31	0xbcd6129c	-0.02613192
32	0x3ab51d5e	0.0013817956
33	0xbba05581	-0.0048930054
34	0x3aa45694	0.0012538009
35	0x4113834a	9.219553
36	0x3b891bd6	0.0041842265
37	0xbc8800cb	-0.01660194
38	0x3afb318f	0.001916455
39	0x40b880d2	5.765725
40	0xba05a919	-0.0005098745
41	0xbb629d1f	-0.0034578515
42	0xbaa76f17	-0.0012774196
43	0x4097d9ae	4.745322
44	0xbc3b2000	-0.011421204
45	0x40972b5e	4.724044
46	0x3bc0c947	0.005883369
47	0xba15db1b	-0.0005716548
48	0x40f51297	7.6585193
49	0x3f8bcc3d	1.0921704
50	0x3ca8bc2c	0.02059754
51	0x3a9fa34c	0.0012179404
52	0x40d9a118	6.800915
53	0xbad611be	-0.0016332192
54	0x3b904411	0.0044026454
55	0x3c27dc3d	0.01024538
56	0xb886a414	-6.42018e-05
57	0x3bdbf47f	0.006712496
58	0xbb3ad613	-0.0028508946
59	0x3b28918d	0.002572152
60	0x409a497e	4.821471
61	0x3b853138	0.004064705
62	0x3b1f5bc1	0.0024316164
63	0xbb2460d7	-0.0025082135
64	0x4094828a	4.640935
65	0x40b59897	5.6748767
66	0xbce65e8d	-0.028121257
67	0x3c9d4b9d	0.019201094
68	0x3ca00e03	0.019537931
69	0x406f083e	3.734878
70	0x40c0d3be	6.0258474
71	0xbbaeffa0	-0.0053405315
72	0xbbb338ca	-0.0054694163
73	0x40d56bbd	6.6694016
74	0x3b98e39f	0.0046658064
75	0x40d3a2b4	6.613611
76	0xbc9f0762	-0.0194127
77	0x410727a2	8.447176
78	0xbc03a07c	-0.008033868
79	0x3f585d48	0.84517336
80	0xbbae400d	-0.005317694
81	0x3c3b64ee	0.011437638
82	0x3c1063fc	0.008812901
83	0x3aeb0b1d	0.0017932389
84	0x3bb04164	0.005378889
85	0xbbe2d95d	-0.0069228844
86	0x40bcc5d2	5.899148
87	0x3c771571	0.015080796
88	0xbb662841	-0.0035119208
89	0x3ac90694	0.0015337043
90	0x3f5de506	0.8667759
91	0x3b60b918	0.0034290012
92	0x3adf6448	0.0017043436
93	0xbbbb6a46	-0.005719456
94	0xbb2d3320	-0.0026428178
95	0x39ab1958	0.00032634544
96	0xbc0ac52f	-0.008469864
97	0x4098dfe8	4.7773323
98	0xbb9edf62	-0.0048484067
99	0x3ba06f1e	0.0048960587
100	0x401698b1	2.3530695
101	0xbc114a57	-0.008867822
102	0xb98253b0	-0.00024857884
103	0xbaa019ef	-0.001221476
104	0x3b89b90b	0.004202967
105	0x3b475231	0.003041398
106	0x40f3d36e	7.6195593
107	0xbb9402b2	-0.004516923
108	0xbbbaebeb	-0.005704393
109	0x3acb2eb7	0.0015501593
110	0xbc3565ae	-0.011071606
111	0x3bd8f777	0.006621297
112	0x409fccd3	4.993753
113	0x40cb3619	6.3503537
114	0xbbe9a792	-0.0071305716
115	0xbcc1a117	-0.023636384
116	0x3b164894	0.0022931444
117	0x40a811e1	5.2521825
118	0xb88cf6e2	-6.721706e-05
119	0x3a2cb172	0.00065877207
120	0x3ab39d29	0.0013703454
121	0x41181e4a	9.507395
122	0x4088b435	4.271998
123	0xbad9629e	-0.0016585176
124	0x3bd6be1e	0.0065534255
125	0x3bb2fcf1	0.005462282
126	0x40ba17e5	5.815417
127	0xba14f77b	-0.00056826294

net.1.bias f4 [128]
0	0xbaa054a8	-0.0012232261
1	0x3b370d32	0.002793145
2	0x3a4ea482	0.000788279
3	0x3ac2bf9f	0.0014858133
4	0xbac94b3f	-0.0015357508
5	0x3fb6303d	1.4233471
6	0x3d0f3213	0.034959864
7	0xbb1dd230	-0.002408158
8	0x3f1a6dda	0.6032387
9	0x3bd2557b	0.0064188815
10	0x3b22780c	0.0024790792
11	0x3ef2aeea	0.47399074
12	0xba9df1cc	-0.001205021
13	0xb8fb8f15	-0.00011995264
14	0x3b75bc27	0.003749618
15	0x3af826ce	0.0018932463
16	0x3f7bd9f8	0.9837947
17	0xbab094ed	-0.0013472118
18	0x3ab11a74	0.0013511912
19	0xbb28a0b5	-0.0025730554
20	0x3b35e15e	0.0027752738
21	0xbb4ec6cc	-0.0031551598
22	0xba7b1071	-0.000957734
23	0x3f1128af	0.56702703
24	0x3f207a96	0.6268705
25	0x3b5fa938	0.0034127962
26	0xba3bcb1d	-0.000716375
27	0x3b687f9f	0.0035476459
28	0x3acb4321	0.0015507677
29	0xba2b2283	-0.0006528275
30	0xb8f466b6	-0.00011653958
31	0xbb2c3b5f	-0.0026280505
32	0xbaf038c4	-0.0018327464
33	0x3a040e89	0.00050375663
34	0x39a38a13	0.00031192656
35	0xbe463880	-0.1935749
36	0xba0633d2	-0.0005119416
37	0xbab743bb	-0.0013981977
38	0x39e79662	0.00044171797
39	0xbca18c77	-0.0197203
40	0xba285bb4	-0.0006422356
41	0x3a9af025	0.0011820836
42	0xb93776ed	-0.00017496543
43	0x3f84906b	1.0356573
44	0xbb339a7e	-0.0027405317
45	0x3fd32338	1.6495123
46	0x3b4a1637	0.0030835995
47	0xb991da97	-0.00027819417
48	0xbea44964	-0.32087243
49	0x3d4f4c47	0.050609853
50	0x3aa2adc2	0.0012411403
51	0xba8773a3	-0.0010334145
52	0xbec15dff	-0.37767026
53	0x3a9234f6	0.00111547
54	0xbb2ce877	-0.0026383677
55	0x3a1de843	0.00060236844
56	0xba873b3e	-0.0010317338
57	0x3a55c01d	0.0008153932
58	0xba2f4a5c	-0.00066868006
59	0x3ae5aee5	0.0017523436
60	0xbffb36e2	-1.9626124
61	0xbb97a3d8	-0.004627686
62	0xba80962a	-0.0009810377
63	0x38738724	5.8061574e-05
64	0xbf95134e	-1.1646516
65	0x401c4b43	2.4420936
66	0xba41b8ce	-0.0007389904
67	0x3910edb1	0.00013821457
68	0xb7f9b862	-2.9768973e-05
69	0x3f997b4f	1.1990756
70	0x3f1549d8	0.583158
71	0xb955f66c	-0.00020405062
72	0x395fd2c8	0.0002134546
73	0x3eb4ea14	0.35334837
74	0xbac43827	-0.0014970348
75	0x3fe67b18	1.8006315
76	0x3b0a1cc2	0.002107427
77	0x3d855772	0.065108195
78	0xbae47889	-0.0017430942
79	0xbf4a20cc	-0.78956294
80	0x3a87a6a8	0.001034935
81	0x3b0a28a9	0.0021081364
82	0xba00ec4d	-0.0004918024
83	0xbb523060	-0.003207229
84	0x3b06cef2	0.0020570126
85	0xb9057f94	-0.00012731395
86	0x3d58c518	0.05292234
87	0x3af183d6	0.0018426131
88	0x380b9624	3.3280012e-05
89	0x39c394cd	0.00037304164
90	0x3ea716fa	0.32634717
91	0xb9cbcd0a	-0.00038871943
92	0xbaaf4235	-0.0013371172
93	0xbadfe1a1	-0.0017080792
94	0xbafd9e2b	-0.0019349506
95	0xba05a6eb	-0.000509842
96	0xbb76039d	-0.0037538775
97	0xc014ec3b	-2.3269184
98	0xbb69e6f2	-0.0035690633
99	0x3a8b912e	0.0010648125
100	0xbf172eb7	-0.59055656
101	0xbaaf389d	-0.0013368313
102	0xba27f6f2	-0.0006407342
103	0x39ef8f18	0.00045692245
104	0x3b83c8c4	0.004021736
105	0xba6e932c	-0.000910091
106	0x3e24fa5b	0.16111128
107	0x3b47de27	0.0030497403
108	0xb9dd0007	-0.00042152425
109	0x3a942d93	0.0011305086
110	0x3abc6cb6	0.001437566
111	0x3acd5b62	0.0015667493
112	0x3f3fbce0	0.74897575
113	0x4024e384	2.5763865
114	0xbb3ecfda	-0.0029115588
115	0x3b305cea	0.002691085
116	0x3907eaad	0.00012962027
117	0xc0425534	-3.0364504
118	0x3890d3e4	6.905923e-05
119	0x3a9bf2ad	0.0011897885
120	0xbb011d43	-0.001970128
121	0x3f0d044c	0.5508468
122	0x402e45c2	2.7230077
123	0x38f7b768	0.0001181204
124	0xbaabd46c	-0.0013109571
125	0xb79ad7ea	-1.8458773e-05
126	0x3da34b62	0.079733625
127	0x3a5b8503	0.00083740073

net.3.weight f4 [128, 128]
0	0xbc9044b1	-0.01761088
1	0x3d20e3bb	0.03927968
2	0xbd3e0692	-0.046392985
3	0x3d8af0bb	0.06784197
4	0x3d94c35f	0.072638266
5	0x3f0bd2f2	0.5461875
6	0x4091a5c5	4.5514855
7	0xbd26a92a	-0.04068867
8	0xbf33c160	-0.7021694
9	0x3dea6dd2	0.11446728
10	0x3bb2baec	0.0054544117
11	0x3fb13e7f	1.3847197
12	0x3e1b8bed	0.15190096
13	0xbe689588	-0.22713292
14	0xbcedf26f	-0.029046265
15	0x3e431ded	0.19054385
16	0x3f5e49e5	0.86831504
17	0x3e7e8cbe	0.24858376
18	0xbe1d03c7	-0.15333472
19	0x3e3ed517	0.18635975
20	0xbe3a292d	-0.1817977
21	0x3d1a1040	0.037613153
22	0x3d558756	0.05213102
23	0xbf585bad	-0.84514886
24	0xbf18428b	-0.59476537
25	0x3e18835c	0.1489386
26	0xbb860929	-0.0040904474
27	0xbd3b17d1	-0.04567701
28	0x3d0c490e	0.034249358
29	0xbdee4294	-0.116337925
30	0xbddc76fd	-0.10764883
31	0x3e103cd0	0.14085698
32	0x3b803648	0.003912721
33	0x3e69efaf	0.22845338
34	0x3cbdd11b	0.023170998
35	0xbfe33fd9	-1.775386
36	0xbd649137	-0.05580255
37	0x3e1a0cb9	0.15043916
38	0x3ccffb5f	0.025388418
39	0x3e69166b	0.22762458
40	0xbec6b91c	-0.38813102
41	0x3e8ee1f9	0.27906778
42	0x3ce2b651	0.027674826
43	0xbf0b9f0f	-0.5453958
44	0xbe77614f	-0.24158214
45	0xbe85d99c	-0.26142585
46	0xbe6fb9a7	-0.23410664
47	0x3db4fd4f	0.08837377
48	0xc06943f2	-3.644772
49	0xbddee0bc	-0.108827084
50	0x3e169fab	0.14709346
51	0xbe929748	-0.28631043
52	0x3f915a07	1.1355599
53	0xbd546718	-0.05185613
54	0xbdb2edd0	-0.087367654
55	0x3e453a0d	0.19260426
56	0x3c4ab843	0.012373033
57	0x3b331135	0.0027323489
58	0x3cf6ab9e	0.03011113
59	0x3e5110d9	0.20416583
60	0xbe398f3e	-0.18121049
61	0xbe3ccc1a	-0.18437234
62	0xbdc5e75a	-0.096632674
63	0x3e49a510	0.19691873
64	0xbda4c33f	-0.08045053
65	0xbf53a96c	-0.8268039
66	0x3e1c178b	0.15243356
67	0xbd98f814	-0.07469192
68	0xbd1a8283	-0.037722122
69	0x3e6df5dd	0.2323832
70	0x3f630647	0.88681453
71	0x3dfc6f5b	0.12325927
72	0x3e34c8be	0.17654702
73	0x40397f7c	2.898406
74	0xbe9c3626	-0.30510062
75	0xbfde5bbb	-1.7371744
76	0xbe52ad4b	-0.20573919
77	0xc00c9513	-2.1965988
78	0x3e3ccd0d	0.18437596
79	0xbefe09dd	-0.496169
80	0x3dbfe63c	0.093700856
81	0xbdcce37e	-0.10004328
82	0x3d90c372	0.07068528
83	0x3e184ca8	0.14872992
84	0xbdee37a1	-0.11631704
85	0xbc87b579	-0.016566025
86	0x3f666d5a	0.9001061
87	0xbe30ded9	-0.1727251
88	0xbee6af8a	-0.450558
89	0xbdaf6dee	-0.08565889
90	0xbef6c58a	-0.48197585
91	0x3c834903	0.016026026
92	0xbd462dbd	-0.048383463
93	0xbd42fa13	-0.04760177
94	0xbdd79d84	-0.105280906
95	0x3e8a8ec2	0.2706204
96	0x3d6b179e	0.05739557
97	0x4027bb47	2.6208055
98	0xbd3dbe65	-0.046324152
99	0x3d1d5e24	0.038419858
100	0xbe19c0d9	-0.15014972
101	0x3db36bfa	0.08760829
102	0xbdf09a1a	-0.117481425
103	0x3d5c9bcc	0.053859517
104	0x3e193348	0.14960968
105	0xbe04e52a	-0.12978044
106	0xbfa88a82	-1.3167269
107	0x3e6df20b	0.23236863
108	0xbdfed33f	-0.12442636
109	0x3bda732b	0.006666561
110	0x3e216492	0.15761021
111	0xbd958e2e	-0.07302509
112	0x3f98e495	1.1944758
113	0x3f8fc5dc	1.1232257
114	0xbe1388a6	-0.14407596
115	0x3eb0aa19	0.34504774
116	0xbe7e51ad	-0.24835844
117	0x3f257e40	0.6464577
118	0xbe060b55	-0.1309026
119	0x3cac84d2	0.021059427
120	0x3dda930b	0.106725775
121	0xbfcc9aba	-1.5984719
122	0xbed3dd2f	-0.41379687
123	0xbb2fc20f	-0.0026818549
124	0x3ded7123	0.11593845
125	0x3e92aab6	0.28645867
126	0x3f8a2408	1.0792246
127	0xbcf6958c	-0.030100606
128	0xbe6263a4	-0.22108322
129	0x3e869454	0.2628504
130	0x3e031e26	0.1280447
131	0xbcef7650	-0.02923122
132	0x3d1d606d	0.038422037
133	0x3f1d009a	0.6132904
134	0x4097351d	4.7252336
135	0x3ce10115	0.027466336
136	0xbf07d41a	-0.53058016
137	0x3e5fa639	0.21840753
138	0xbd1111d4	-0.035417393
139	0x3fb58137	1.4180058
140	0xbe2c1ac2	-0.16807082
141	0xbc1e55ba	-0.0096639935
142	0xbd0a71f7	-0.03380009
143	0x3dbc70f6	0.09201233
144	0x3f75cde0	0.96017265
145	0x3eaf1701	0.34197238
146	0xbd859432	-0.06522407
147	0x3e379b6a	0.1793038
148	0x3de74d5b	0.11294051
149	0xbd442150	-0.04788333
150	0xbe37eb7b	-0.17960922
151	0xbf658c10	-0.89666843
152	0xbecde136	-0.40210885
153	0x3d9257ab	0.071456276
154	0xbd0f07ac	-0.034919426
155	0x3e177ebf	0.14794444
156	0x3e110b2a	0.14164415
157	0xbd1b473a	-0.037909724
158	0xbd379c3f	-0.044826742
159	0x3dc57e97	0.09643286
160	0x3d9ff0e8	0.07809621
161	0x3d1b37da	0.03789506
162	0x3c7e0ee0	0.015506476
163	0xbfe5cc60	-1.7952995
164	0xbc877b04	-0.01653815
165	0x3e73521b	0.2376179
166	0xbcd20145	-0.025635371
167	0x3e1bffa5	0.1523424
168	0xbe2ce229	-0.16883148
169	0x3dd4e6ad	0.103955604
170	0x3bb78235	0.0056002387
171	0xbf6eaea9	-0.9323526
172	0xbd0fc27b	-0.03509758
173	0xbe581832	-0.2110298
174	0xbe623f84	-0.22094542
175	0xbd8b02a9	-0.06787617
176	0xc071238b	-3.7677944
177	0xbd4df892	-0.050285883
178	0xbd23507e	-0.039871685
179	0x3bbd78ed	0.0057822377
180	0x3f1e0e25	0.6174033
181	0xbd532a5c	-0.05155407
182	0x3d0f67ea	0.03501121
183	0x3edec77b	0.43511567
184	0xbd4bd2e6	-0.049761675
185	0xbd866360	-0.06561923
186	0x3c2dccfb	0.010607953
187	0xbdc36432	-0.09540595
188	0xbea6b843	-0.32562456
189	0xbeb1552b	-0.3463529
190	0x3d54991c	0.05190383
191	0xbddc26da	-0.10749598
192	0x3d40450c	0.04694085
193	0xbf31917e	-0.6936263
194	0x3e4bb480	0.19893074
195	0x3e8df580	0.27726364
196	0xbdb4f1e8	-0.088352025
197	0x3f07a5e9	0.52987534
198	0x3f9bb85d	1.2165638
199	0x3df2ea37	0.11861079
200	0x3e7b8f82	0.24566463
201	0x402388f4	2.555234
202	0xbe54d0d9	-0.20782794
203	0xbfdc7a88	-1.7224894
204	0xbdf6906a	-0.120392635
205	0xc0048399	-2.070532
206	0x3e570a48	0.21000016
207	0xbef350cd	-0.47522584
208	0xbce57f3d	-0.028014774
209	0xbc217f5f	-0.009857028
210	0xbd83f772	-0.06443681
211	0x3e854d18	0.2603538
212	0xbe29920b	-0.16559617
213	0xbafd1103	-0.0019307438
214	0x3f5546b9	0.8331104
215	0xbcbc5584	-0.022989996
216	0xbeba9d63	-0.36448202
217	0xbe039b97	-0.12852322
218	0xbea51730	-0.32244253
219	0xbde091f3	-0.109653376
220	0xbe0daf43	-0.13836388
221	0x3e570299	0.20997085
222	0xbc37416b	-0.01118503
223	0x3e19128f	0.14948486
224	0x3d816447	0.063179545
225	0x4024ea5f	2.5768049
226	0xbe1d7048	-0.15374863
227	0xbdcafb73	-0.099112414
228	0xbed80de5	-0.421981
229	0xbea24f8e	-0.3170132
230	0x3d943b3f	0.07237863
231	0x3d631846	0.05544307
232	0xbdc5a4d9	-0.09650583
233	0x3e6a930f	0.22907661
234	0xbfcfb369	-1.6226627
235	0x3e7e9c85	0.24864395
236	0xbdd92630	-0.10602987
237	0x3cb2a4a6	0.021807026
238	0x3e947ad9	0.28999975
239	0xbdb413a6	-0.0879281
240	0x3f9ccc29	1.2249805
241	0x3f858658	1.0431623
242	0xbd2c467e	-0.042059414
243	0x3ea71110	0.32630205
244	0xbcf1d453	-0.02952019
245	0x3f26baa8	0.65128565
246	0x3df2c5cc	0.11854133
247	0xbe6cd3cb	-0.23127668
248	0x3d329d3f	0.043606993
249	0xbfcb070b	-1.5861524
250	0xbebae25d	-0.36500826
251	0x3e023237	0.12714468
252	0x3eaade5f	0.3337278
253	0x3e1f748f	0.15571807
254	0x3f926008	1.1435556
255	0xbe2b8df3	-0.16753368

net.3.bias f4 [128]
0	0x3ef0228d	0.4690136
1	0x3efda1ff	0.49537656
2	0x3eff4709	0.49858883
3	0x3f102d01	0.5631867
4	0x3f09831a	0.5371567
5	0x3ef46c2c	0.4773878
6	0x3f1123c4	0.566952
7	0x3ed0e4a4	0.4079944
8	0x3f3895ed	0.7210377
9	0x3f0c1a10	0.5472727
10	0x3ef25f60	0.4733839
11	0x3eff0055	0.4980494
12	0x3efd746e	0.4950289
13	0x3f041202	0.5158998
14	0x3efb70d7	0.49109527
15	0x3f0745db	0.52840966
16	0xc0ed0c2d	-7.4077363
17	0x3f576f5b	0.8415429
18	0x400b4158	2.1758633
19	0x3ee4ab83	0.44662103
20	0x3ee1c393	0.44094524
21	0x3efd71f1	0.49500993
22	0xbf01dfaf	-0.5073194
23	0x3f02e30f	0.51127714
24	0x3f6b0c2e	0.9181546
25	0x3f2e984c	0.68201137
26	0x3f000a2b	0.50015515
27	0x3eb0d553	0.34537753
28	0x3ef0af72	0.47008854
29	0x3effb0b0	0.4993949
30	0xc046cbb5	-3.1061833
31	0x3ee84b3d	0.45369902
32	0x3f0bb1e4	0.54568315
33	0x3ef05a62	0.46943957
34	0x3ee62ef8	0.4495771
35	0x3f8197ca	1.0124447
36	0x3f013f3f	0.5048713
37	0x3f02a419	0.51031643
38	0x3f112b74	0.5670693
39	0x3f01ff7d	0.5078047
40	0x3efe5c92	0.4968
41	0x3f737cbb	0.951122
42	0x3ed6779d	0.41888133
43	0x3eab2c3c	0.33432186
44	0x3ef108b6	0.47076958
45	0x401a71ea	2.4132028
46	0x3ef1f717	0.47258827
47	0xc0b5e9da	-5.6847963
48	0x3f1a417f	0.6025619
49	0x3f3e2a79	0.7428356
50	0x3f0ad6e2	0.54234135
51	0x3ed4e9a8	0.41584516
52	0x3efdc64a	0.49565345
53	0x3f49d78a	0.7884451
54	0x3ed4cdb5	0.41563192
55	0x3ed119e7	0.40840074
56	0x3f0826df	0.5318431
57	0x3f6cb7d1	0.9246798
58	0x3f040383	0.5156786
59	0x3f983b0c	1.189302
60	0x3f170ae5	0.59001
61	0x3ef5cf2f	0.4800963
62	0x3f1e10f4	0.6174462
63	0x3f086fc7	0.5329556
64	0x3ef7c693	0.48393688
65	0x3efd67bb	0.49493203
66	0x3f08e597	0.53475326
67	0x3edfda27	0.43721125
68	0x3f0a48f1	0.5401755
69	0x3f09ccf2	0.53828347
70	0x3f115ccb	0.56782216
71	0x3efe2276	0.49635667
72	0x3edfdbcd	0.43722382
73	0x3f002315	0.5005353
74	0x3eed3c94	0.4633528
75	0xc0d07706	-6.514529
76	0x3f177433	0.5916168
77	0xbfb9eff7	-1.4526356
78	0x3f909855	1.1296488
79	0x3ef1cfe1	0.47228912
80	0x3ed8084e	0.42193836
81	0x3f1ebcbf	0.62006754
82	0x3f01447e	0.50495136
83	0x3f07108c	0.52759624
84	0x3ef33d78	0.47507834
85	0x3f01bee4	0.506819
86	0x3ee4b91c	0.44672477
87	0x3ee65bf7	0.4499204
88	0xbe6f705f	-0.2338271
89	0x3f058710	0.52159214
90	0x3f0ab637	0.5418429
91	0x3f093b53	0.53606147
92	0x3edd4934	0.43219912
93	0x3ef81d1b	0.48459706
94	0x3f0e7e94	0.5566189
95	0x3f049012	0.51782334
96	0x3f1ff32a	0.62480414
97	0xbf8d9fe6	-1.1064422
98	0x3f0b5a7b	0.5443494
99	0x3f0d2a62	0.55142796
100	0x3efb3e94	0.4907118
101	0x3eee419d	0.46534434
102	0x3f0902c2	0.53519833
103	0x3ef91a8d	0.4865307
104	0x3f07cd11	0.5304728
105	0x3eea9a14	0.45820677
106	0x3f06eae5	0.5270217
107	0x3eebd4df	0.46060845
108	0x3f3eb3c2	0.7449304
109	0x3f45c711	0.77256876
110	0x3efc8dde	0.49326986
111	0x3ed07c17	0.40719673
112	0x3f04b2f1	0.5183554
113	0x3f0b93c0	0.54522324
114	0x3f044239	0.5166355
115	0x3f158073	0.5839912
116	0x3f170f7c	0.59008
117	0x3ee370ea	0.44422084
118	0x3f5a9135	0.8537782
119	0x3ee8c612	0.45463616
120	0xbf0a1c91	-0.5394984
121	0x3eee754a	0.4657386
122	0x3f01b7d6	0.50671136
123	0x3f03d638	0.51498747
124	0xbed86bb0	-0.4226966
125	0xbf4f9d3f	-0.81099313
126	0x3eece0db	0.462653
127	0x3f0422eb	0.5161578

net.4.weight f4 [128]
0	0x3bae085e	0.005311056
1	0xbb96bc35	-0.0046000727
2	0xbc82bf2e	-0.015960302
3	0xbc0cbed0	-0.008590415
4	0xbc3d053a	-0.011536891
5	0xbba76349	-0.0051082713
6	0x3c20dbe1	0.009818048
7	0x3b7165cc	0.0036834357
8	0x3b13bb68	0.0022542123
9	0x3b21d6a2	0.0024694582
10	0xbb081a2c	-0.0020767553
11	0xbafeae31	-0.0019430575
12	0x3beb8dfe	0.0071885576
13	0xbbff6f05	-0.007795217
14	0x3c13bd92	0.009017365
15	0x3b191dd5	0.0023363729
16	0xbb3bc205	-0.002864958
17	0xbb4a5359	-0.0030872433
18	0x3ba3b280	0.004995644
19	0x3bb6bcdb	0.0055767125
20	0x3c317a02	0.010832312
21	0x3be29e6e	0.006915859
22	0xbb1d2eb2	-0.0023984131
23	0xba97b331	-0.0011573789
24	0xbb48e190	-0.0030652024
25	0x3c1a832b	0.009430687
26	0x3c11e8a8	0.008905567
27	0x3b3221f0	0.0027180873
28	0x3b897d35	0.004195834
29	0x3b938de0	0.004502997
30	0x3e87aa78	0.26497245
31	0x3be81bbf	0.0070833857
32	0x39fd8b4c	0.00048359705
33	0x3c7b0ded	0.015323144
34	0x3c10e149	0.008842775
35	0x3afa6c14	0.0019105696
36	0x3abb60ed	0.0014295854
37	0x3c28867a	0.010285968
38	0x3b1009ea	0.0021978565
39	0x3b950556	0.0045477552
40	0x3be87529	0.0070940447
41	0x3b44403d	0.0029945516
42	0xbbec930b	-0.0072196773
43	0x3beb1d9b	0.00717516
44	0xbb609934	-0.0034271004
45	0x3f6fc7c7	0.9366421
46	0xbb64c68f	-0.003490839
47	0xba9e17ef	-0.0012061576
48	0x3ba47745	0.005019101
49	0x3b3669fb	0.0027834165
50	0xbc31cc94	-0.010851998
51	0x3c8bb2a6	0.01705296
52	0xb9d271b8	-0.00040139048
53	0xb9a0ab76	-0.00030645326
54	0xbbb9135b	-0.0056480593
55	0x3bb07d5e	0.0053860387
56	0xbb4b5f15	-0.0031032015
57	0xbb3ebd4d	-0.0029104531
58	0x3c2d5494	0.010579247
59	0x3b0cdd02	0.0021494036
60	0xbb9cd933	-0.0047866344
61	0x3c0f1af3	0.008734453
62	0x39ff3f15	0.0004868439
63	0x3b2af370	0.0026085041
64	0xbbaeed03	-0.0053383126
65	0x3acfc63b	0.0015851924
66	0x3b5cdc02	0.003370047
67	0xbbbaa64c	-0.0056960937
68	0x3b518f07	0.003197612
69	0x3939ba12	0.00017712291
70	0x3acd9b33	0.0015686512
71	0x3c0cf201	0.00860262
72	0xbbf0ca69	-0.007348348
73	0x3bd65938	0.0065413974
74	0x3bdf2305	0.0068095946
75	0xba5958a5	-0.0008291102
76	0xbb3b398c	-0.0028568236
77	0x40083ff7	2.128904
78	0x3a58ea30	0.0008274643
79	0x3b5ddc64	0.0033853287
80	0x3b1fa20f	0.002435807
81	0xbc20dda7	-0.009818471
82	0xbab387a7	-0.0013697044
83	0xbbf6c345	-0.007530602
84	0xbb98987b	-0.004656849
85	0x3b96ce80	0.0046022534
86	0x3bf820c7	0.0075722667
87	0xbbb28486	-0.005447927
88	0x3c0ec76e	0.00871454
89	0x3c125832	0.00893216
90	0xbb259e33	-0.0025271296
91	0xbbc4825b	-0.005996985
92	0x3c8ff4b8	0.017572746
93	0x39d95e3c	0.00041459675
94	0x3be47884	0.0069723744
95	0xbcb39bef	-0.02192494
96	0xbb325850	-0.0027213283
97	0x3c1ab343	0.009442153
98	0x3baba094	0.0052376483
99	0x3b724735	0.0036968712
100	0x3c0a2ed1	0.008434013
101	0xbc4a0186	-0.012329465
102	0xbc0bbe4e	-0.008529259
103	0x3c55cb8a	0.013049016
104	0xbb94d692	-0.0045421803
105	0x3bef158d	0.00729627
106	0x3af5889d	0.001873273
107	0x3b8c6a0c	0.0042851027
108	0x3b337357	0.002738198
109	0xbaffe27d	-0.0019522455
110	0x3b62bd36	0.0034597642
111	0xbc2b461b	-0.010453726
112	0x3c04392c	0.008070271
113	0xbb63b590	-0.003474567
114	0xba9c49c7	-0.0011923843
115	0x3aea2a20	0.0017865337
116	0x3babc3ba	0.0052418383
117	0x3c11e6b3	0.008905101
118	0xb9824951	-0.00024850157
119	0xbc161445	-0.009160106
120	0x3eab64fe	0.33475488
121	0x3995dbe1	0.00028583317
122	0xb7e16e62	-2.6873491e-05
123	0xbbfb1f6d	-0.0076636584
124	0x3f4e5d28	0.80610895
125	0x3f1b95ce	0.6077546
126	0x3c140675	0.009034743
127	0x3bb61118	0.005556237

net.4.bias f4 [128]
0	0x3b84883d	0.004044561
1	0x39fe368e	0.00048487302
2	0xba3a2f4c	-0.00071023847
3	0x3a4f9ec5	0.0007920082
4	0xbb9008df	-0.0043955888
5	0xb91aac48	-0.00014750764
6	0x3b84cdb8	0.004052844
7	0x3b028a76	0.0019918955
8	0x3b62024e	0.0034486237
9	0xba2f04ee	-0.0006676455
10	0xb98e601d	-0.0002715596
11	0xba2449e0	-0.0006267112
12	0x3bafadb3	0.0053612827
13	0xb9ab8be5	-0.0003271989
14	0x3b272402	0.002550364
15	0xba65c3ad	-0.00087648147
16	0x3aa98b18	0.001293513
17	0xbb3d7567	-0.0028909089
18	0xbb32937d	-0.0027248554
19	0xb8b8e5e8	-8.816627e-05
20	0x39048640	0.00012638513
21	0x3b2c716b	0.002631272
22	0x3ac5b12e	0.0015082711
23	0x39fb4c3e	0.00047931256
24	0xbaf13c20	-0.001840476
25	0x3ade3b51	0.0016954934
26	0x3b298c46	0.0025870963
27	0x372418dc	9.78095e-06
28	0xb8a34b21	-7.7864395e-05
29	0x3a8d5cc3	0.0010785091
30	0xbd7496d0	-0.05971414
31	0x3a88f2a5	0.001044829
32	0x3b1523e2	0.0022756984
33	0x3984d295	0.00025333898
34	0xbaeeee55	-0.0018228987
35	0xba9c4a20	-0.0011923946
36	0x3a33b5ed	0.0006855417
37	0x3ace2a41	0.0015729145
38	0x3a62a660	0.00086460076
39	0x3ad0df16	0.0015935625
40	0x3a16c53e	0.0005751437
41	0x3b32d821	0.0027289467
42	0xbafe115c	-0.0019383836
43	0xba7ea569	-0.0009713979
44	0xb7abf0ad	-2.0496862e-05
45	0x3f1daeec	0.61595035
46	0x3921ab71	0.00015418023
47	0xbbd8e154	-0.006618658
48	0x3b81a631	0.003956579
49	0x3aa32670	0.0012447368
50	0x3b6a1060	0.0035715327
51	0x395a549f	0.00020821624
52	0x3928d825	0.00016102249
53	0xba2f018c	-0.0006675951
54	0xb9ab56ba	-0.00032680278
55	0x3a943aed	0.0011309065
56	0xbbad1dc7	-0.0052830908
57	0xbb88c766	-0.004174161
58	0xbb835787	-0.004008237
59	0xbae45fa6	-0.0017423525
60	0xb9836215	-0.00025059344
61	0x3a838640	0.0010034516
62	0x399bce76	0.0002971773
63	0x3979f769	0.00023838658
64	0x3a2888f0	0.00064290967
65	0x3b058d38	0.0020378362
66	0x3b3e17b6	0.0029005832
67	0xbaf85bb9	-0.0018948234
68	0x3a74b1bd	0.00093343464
69	0x3a043b27	0.0005044215
70	0xbb441f93	-0.0029926046
71	0x39f01089	0.00045788687
72	0xbb233783	-0.0024904914
73	0x39e27fa0	0.00043201167
74	0x3ac75bb6	0.0015209827
75	0xbb1e7851	-0.00241806
76	0xbb289efb	-0.0025729525
77	0xbf2bf001	-0.6716309
78	0xba87c365	-0.0010357915
79	0xb98018a0	-0.0002443241
80	0x39c322c8	0.00037219212
81	0xbb22ebda	-0.0024859817
82	0xbb57ca9f	-0.0032927168
83	0xb993f6dc	-0.0002822195
84	0xb992826f	-0.0002794447
85	0x39bec996	0.00036389817
86	0x39816fec	0.00024688186
87	0xba90234c	-0.0010996847
88	0x3b7c8c82	0.0038535898
89	0x3978da24	0.00023732387
90	0x3a191de9	0.0005840944
91	0xb86af876	-5.6021345e-05
92	0xba0cae52	-0.0005366552
93	0x3a07bf00	0.00051783025
94	0x3944fee9	0.00018786978
95	0x39a387c0	0.00031190924
96	0xbba7f648	-0.0051257946
97	0x3a161e56	0.00057265663
98	0xba424222	-0.0007410367
99	0xb9ba9896	-0.0003559037
100	0x3ab58b34	0.001385069
101	0xb9383c22	-0.00017570009
102	0xbb372ddf	-0.0027950925
103	0xb9ff95fe	-0.00048749143
104	0xbae6cb52	-0.0017608202
105	0x3b40b205	0.0029402983
106	0x3af5c009	0.0018749248
107	0x39aa196c	0.00032443868
108	0x3b45ca9d	0.0030180581
109	0x39dcc2a7	0.00042106697
110	0xb633b150	-2.6776288e-06
111	0xbaa59184	-0.0012631868
112	0xb8ea6a03	-0.00011177736
113	0xb9a2b878	-0.00031036488
114	0xb78327e0	-1.5634985e-05
115	0x3b111c51	0.0022142122
116	0x3af20c51	0.0018466805
117	0xb8a69783	-7.943718e-05
118	0x3a2ce9a3	0.0006596094
119	0xbb780e82	-0.0037850444
120	0xbbae6f33	-0.0053233146
121	0xba46bb5a	-0.0007581018
122	0x3b01985c	0.001977465
123	0xbb44220f	-0.0029927527
124	0x3f2fb542	0.6863595
125	0xbc646686	-0.013940459
126	0x3b3354b4	0.002736372
127	0xba6790b0	-0.0008833511

out_mean.weight f4 [1, 128]
0	0xbc3f2866	-0.011667347
1	0x3a84cc30	0.0010131653
2	0x3baa89bb	0.005204407
3	0xbc1fc583	-0.00975168
4	0x3c35c96f	0.011095389
5	0xbc817754	-0.01580397
6	0xbc4f1163	-0.012638423
7	0xbc68addb	-0.014201607
8	0xbc4ab4f4	-0.012372244
9	0xbab0b512	-0.0013481698
10	0xbbcfb102	-0.0063382396
11	0xbb7b2b1f	-0.0038325263
12	0xbc34065a	-0.010987842
13	0xbb714646	-0.0036815568
14	0xbc6396f2	-0.013890969
15	0x3c3e0c85	0.011599665
16	0xbc276156	-0.010216078
17	0x3c09d875	0.008413424
18	0x3c462add	0.01209518
19	0x38ac2865	8.209123e-05
20	0x3b09a0e5	0.0021000442
21	0xbc042c1c	-0.008067157
22	0xbbbae886	-0.0057039885
23	0x3b66450b	0.0035136368
24	0x3c034917	0.008013031
25	0xbc517eb2	-0.012786554
26	0xbc3d8950	-0.011568382
27	0xba417204	-0.00073793554
28	0x3a09ee26	0.0005261622
29	0xbc5f2e93	-0.013621944
30	0x3c4dc7b6	0.012559822
31	0xbbd461e4	-0.006481396
32	0xbc571115	-0.013126631
33	0xbbbefe52	-0.005828657
34	0x3bc61033	0.0060444116
35	0xba2a08b5	-0.0006486283
36	0x3b99c2de	0.0046924194
37	0xbc03d884	-0.008047227
38	0xbc2f2ebe	-0.010692297
39	0xbbd33e13	-0.006446609
40	0x3a80a84f	0.0009815785
41	0xbc2861ba	-0.010277206
42	0x3c4c8a65	0.012484168
43	0x3b804684	0.003914656
44	0x39da2366	0.00041606574
45	0xc0000bce	-2.0007205
46	0x395765fc	0.0002054199
47	0xbb39f1c0	-0.0028372854
48	0xbc575a9d	-0.0131441625
49	0xbbd901d6	-0.0066225333
50	0xbc0626ec	-0.008187991
51	0x3b614c57	0.0034377777
52	0x394f9ad7	0.0001979874
53	0xbad54a5f	-0.0016272775
54	0x3c09dbef	0.008414253
55	0xbc4ee82e	-0.012628598
56	0x3c27ee1f	0.010249644
57	0x3c3dddf5	0.011588563
58	0x3b4e7740	0.0031504184
59	0xba2ddf37	-0.0006632688
60	0x3bc144cd	0.0058980943
61	0x3c8a261e	0.016863879
62	0x396799ff	0.00022087245
63	0x3b576084	0.0032863924
64	0x3b839ebe	0.0040167263
65	0xbbf2ff55	-0.007415692
66	0xbc0f65ba	-0.008752281
67	0x3bf70f1e	0.007539644
68	0xbbe20128	-0.0068971105
69	0x3a358895	0.00069249544
70	0x3c57a091	0.013160841
71	0x3b993e84	0.004676642
72	0x3c5839f6	0.013197413
73	0xbbb30f29	-0.0054644537
74	0xbc04793d	-0.008085546
75	0x3bc97588	0.006148044
76	0x3c5eeab9	0.013605767
77	0xbe6b5e4b	-0.22985189
78	0xbab4d5c7	-0.0013796621
79	0xbba44827	-0.005013484
80	0x3b1d808d	0.002403292
81	0x3c438fae	0.011936111
82	0x3c251f62	0.010078283
83	0xba57807b	-0.0008220744
84	0xbb3b9edc	-0.0028628623
85	0x3b9787a1	0.0046243225
86	0xbb5400d5	-0.0032349129
87	0x3c3e97c1	0.011632861
88	0xbc19bb5a	-0.009383047
89	0xbc0b1050	-0.008487776
90	0x3b4d1d2f	0.0031297912
91	0xbb31eb43	-0.0027148284
92	0xbb818049	-0.0039520604
93	0x3a4b96c4	0.0007766301
94	0xbbade971	-0.0053073694
95	0xbb9b5d4c	-0.0047413465
96	0x3c1eda95	0.009695669
97	0xbb14b0ce	-0.0022688392
98	0xbac79935	-0.0015228154
99	0xbb808cc6	-0.0039230315
100	0xbc3a3b04	-0.0113666095
101	0xbb53ddc6	-0.0032328232
102	0x3c6171da	0.0137600545
103	0xbb77375d	-0.0037722208
104	0x3c17b6ea	0.009259919
105	0xbc112ec6	-0.008861249
106	0xbbf6c840	-0.007531196
107	0xbb9cbf58	-0.004783552
108	0xbc43d4a9	-0.011952558
109	0xbb14c4f8	-0.002270041
110	0xbbe7c4ec	-0.0070730355
111	0x3c54c837	0.012987188
112	0xb85d8710	-5.2816293e-05
113	0x3b964d1e	0.00458683
114	0x395cec06	0.0002106876
115	0xbc5dd8c9	-0.013540455
116	0xbc129eea	-0.008949021
117	0xbad9e44b	-0.0016623823
118	0x3a7a1ead	0.0009541314
119	0x3c168c9d	0.009188798
120	0xbd92dd55	-0.07171122
121	0x3ba726f5	0.0051010796
122	0x3b6fd2e0	0.0036594197
123	0x3c0d9838	0.008642249
124	0x3fbf19bd	1.492973
125	0x40124f77	2.2861001
126	0xbc1e9377	-0.009678713
127	0xbb9e051d	-0.004822387

out_value.weight f4 [1, 128]
0	0x3b9b674d	0.004742539
1	0x398f8a26	0.00027378014
2	0xba8626a6	-0.0010234907
3	0x388abe75	6.615828e-05
4	0xbba55410	-0.0050454214
5	0xbab9fff4	-0.001419066
6	0x3b86f76e	0.0041188514
7	0x3ab4e60f	0.0013801473
8	0x3b396c95	0.002829348
9	0xba73eb19	-0.00093047466
10	0xb9be3158	-0.00036276388
11	0xba8509e2	-0.001015004
12	0x3bc892c8	0.0061210133
13	0xb9e3d822	-0.00043457845
14	0x3b0aadd7	0.0021160746
15	0xb95f2baa	-0.00021283203
16	0x3b218c48	0.0024650265
17	0xbb31069f	-0.0027012003
18	0x3ac9d598	0.0015398739
19	0x381911eb	3.649473e-05
20	0x39de714f	0.0004242756
21	0x3b2f7005	0.002676965
22	0x3adde79b	0.0016929986
23	0x3a2c9761	0.00065838365
24	0xbb030c61	-0.0019996392
25	0x3ab3970f	0.0013701635
26	0x3b0ed45f	0.0021794064
27	0x38b8b9df	8.808425e-05
28	0x3832905e	4.257296e-05
29	0x39e339ea	0.00043339963
30	0x3afdc340	0.0019360557
31	0x3aabe358	0.0013114018
32	0x3ac4559b	0.0014979126
33	0x3a097213	0.00052431336
34	0xbb060bcb	-0.0020453807
35	0xb889f85e	-6.578931e-05
36	0x3a8e9a2d	0.0010879688
37	0x3b065274	0.0020495923
38	0x3a0fdcb1	0.00054879027
39	0x3ae388c3	0.0017359484
40	0x3a6aafcf	0.0008952589
41	0x3b3b0231	0.0028535242
42	0xbad0cd99	-0.0015930414
43	0xba5a44e5	-0.0008326306
44	0xb8a97374	-8.080053e-05
45	0x3ba5d512	0.0050608004
46	0x38fb14af	0.00011972465
47	0xba257245	-0.0006311278
48	0x3b6d2a77	0.003618864
49	0x3abadc2e	0.0014256292
50	0x3b74ffd0	0.0037383921
51	0x39d1b608	0.0003999921
52	0x3979e3bf	0.00023831333
53	0xba7d8c63	-0.00096721033
54	0xb9887f7f	-0.00026034933
55	0x3a22c7e9	0.00062095985
56	0xbbc5e3b1	-0.006039106
57	0xbb6d0a6b	-0.003616954
58	0xbb1032cc	-0.0022002934
59	0xb8bd4b4e	-9.026249e-05
60	0xba5f8271	-0.0008526212
61	0x3b142a1d	0.002260811
62	0x3a03501f	0.00050091924
63	0x39e73c36	0.00044104614
64	0x3a559224	0.0008147082
65	0x3b0281b6	0.001991374
66	0x3b51dbd7	0.0032021904
67	0xbaffd0c1	-0.001951717
68	0x3a9aea19	0.0011819034
69	0x3a525bb3	0.00080245285
70	0xbb116e5d	-0.0022191026
71	0x3a0592ec	0.00050954404
72	0xbb037918	-0.0020061191
73	0x3a0bb6e3	0.00053296814
74	0x3ab3640c	0.0013686433
75	0x3a736971	0.00092854263
76	0xbb14cf3b	-0.0022706527
77	0xb9612843	-0.00021472671
78	0xba0308fb	-0.00049985916
79	0xb99a2b46	-0.0002940541
80	0x39beaa66	0.0003636658
81	0xbb475d8c	-0.0030420749
82	0xbb619543	-0.0034421242
83	0xba678c6b	-0.00088328746
84	0xb9b23441	-0.00033989738
85	0x39f59d74	0.00046847353
86	0x3999ab2f	0.00029309976
87	0xba3a567b	-0.00071082235
88	0x3b93c951	0.004510083
89	0x38f889be	0.00011851218
90	0x3a186daa	0.0005814681
91	0xb9b07d5e	-0.00033662742
92	0xba293cee	-0.00064559176
93	0x3a3479cc	0.0006884604
94	0x3a14441d	0.00056559016
95	0xba118373	-0.00055508985
96	0xbbbf5373	-0.0058388053
97	0x3b113675	0.0022157703
98	0xba4fc78e	-0.00079261593
99	0xb9b7db01	-0.0003506765
100	0x3a8a04a2	0.0010529945
101	0xb9e6bbdb	-0.00044008982
102	0xbb2b24bf	-0.0026114432
103	0xb9a2f4cd	-0.0003108144
104	0xbac345d9	-0.0014898136
105	0x3b416826	0.002951154
106	0x3b05d43f	0.0020420698
107	0x399dfbf5	0.00030133096
108	0x3b2fb147	0.0026808546
109	0xb99630a2	-0.00028646464
110	0xb90bdbb4	-0.00013337919
111	0xba63aac9	-0.0008684812
112	0x3888ec96	6.529053e-05
113	0xb97d7257	-0.00024170555
114	0xb82e3a5c	-4.1539184e-05
115	0x3ad4a2f1	0.0016222877
116	0x3b0fa21e	0.0021916698
117	0xb7f09851	-2.8681157e-05
118	0x3a25a40e	0.00063186965
119	0xbb85c45f	-0.004082247
120	0xbcce1413	-0.025156057
121	0xba3d0824	-0.0007210991
122	0x3b2f61ff	0.002676129
123	0xbb5d88f0	-0.0033803545
124	0x3b9a1b87	0.0047029885
125	0xbaa2cf89	-0.001242147
126	0x3b50ccec	0.0031860424
127	0xb8b47cc2	-8.606307e-05
