ppo_algorithm/data/Levitation-v1_2019-03-13_19-39-37/checkpoint/save_file.pt (torch_old, 469757 bytes, 24 tensors)

net.0.weight f4 [32, 4]
000000 db 4a 41 c0 eb de 8f c0 1c 11 16 c0 81 1d d4 bd
       -3.0201938 -4.4959617 -2.3447943 -0.1035719
000010 88 6a 07 40 71 6d c7 40 de 6a 1d 40 1e ae 19 bf
       2.1158772 6.2321095 2.4596477 -0.60031307
000020 08 75 a0 bf cb dd bc c0 f9 47 9f c0 0d bb 03 bf
       -1.2535715 -5.9020743 -4.9775357 -0.5145729
000030 b1 fb 31 be 5d 5b 81 c0 88 a7 aa bf 69 f3 b0 3f
       -0.17381169 -4.0424027 -1.3332376 1.3824283
000040 ae d8 a2 be fb 33 8c c0 57 53 7e bf bd 58 8f 3e
       -0.31805938 -4.3813453 -0.99345917 0.2799739
000050 2b 71 8e 3d 47 9b 6f c0 25 c8 21 40 1d 73 5f 3f
       0.06955179 -3.7438524 2.5278409 0.87285024
000060 54 20 b9 40 ec 2a 9f 40 e6 b8 6e 40 4b f1 be 3d
       5.7851963 4.9739895 3.7300353 0.09323367
000070 02 63 f9 3e 53 29 c9 c0 d0 da 7c c0 1e 5e e8 3d
       0.4870835 -6.2862945 -3.9508553 0.113460764
000080 92 d1 89 bf 97 92 9c c0 aa ec e5 bf 6d 30 f1 be
       -1.0767081 -4.8928943 -1.7962849 -0.47107258
000090 5c 7f 0c 40 9b 01 7e 40 d2 5b 2f 40 10 4b a3 bf
       2.1952734 3.968848 2.7399793 -1.2757282
0000a0 0c 3b 17 c0 5f 08 4e c0 96 a4 2c bf d9 6e c5 3e
       -2.362979 -3.219261 -0.6743864 0.38561133
0000b0 29 22 b6 be dc 2e 92 40 a3 29 dd 3f f5 84 43 bf
       -0.35572937 4.56822 1.7278332 -0.7637475
0000c0 00 a1 c9 3d 6d 0d 96 40 10 44 a0 3e 58 16 bb 3e
       0.098451614 4.689139 0.31301928 0.36540484
0000d0 c2 0b 0c 40 a4 13 68 40 f2 93 11 40 c7 52 8c bf
       2.1882176 3.6261988 2.2746549 -1.0962762
0000e0 44 d0 f4 3e f4 b1 aa c0 23 64 b1 bf b2 93 31 3f
       0.47815144 -5.334223 -1.3858684 0.6936599
0000f0 b1 19 f7 3f a3 f4 66 40 55 d3 b5 be e3 a7 4e 3f
       1.9304715 3.6086814 -0.35512796 0.80724925
000100 b1 4e 3d 3f 74 dc d5 40 a6 00 21 40 28 6c 81 3e
       0.739482 6.683161 2.5156646 0.2527783
000110 52 26 d7 be c1 9a a4 40 28 71 a4 bd d3 3e 50 bf
       -0.42021424 5.143891 -0.08029395 -0.8134586
000120 d5 02 88 be b8 a4 93 c0 48 fe 56 bf 13 d1 90 3f
       -0.2656466 -4.6138573 -0.8398175 1.1313804
000130 e1 a7 24 40 0a 9c 65 40 e1 6a eb 3f 0d b7 50 3f
       2.5727465 3.5876489 1.8391992 0.81529313
000140 81 f0 d3 bd 74 c8 c6 40 69 7e 56 40 85 0f 82 bd
       -0.10348607 6.2119694 3.3514655 -0.06350616
000150 cf 03 ba bf 49 8f 65 c0 8b 6f 2e bf b3 3c b8 3e
       -1.4532412 -3.5868704 -0.6813895 0.3598381
000160 f8 50 37 3f 10 5f c6 40 64 a5 81 40 f6 6d 03 3e
       0.71607924 6.1991043 4.0514393 0.12834916
000170 1c 34 d1 bf 9e 4f 90 c0 81 0b c9 c0 66 6e fd be
       -1.6344028 -4.509719 -6.2826543 -0.4949829
000180 67 be 19 c0 94 ed 8b c0 cf 69 2d c0 22 f1 f0 3e
       -2.4022462 -4.372751 -2.709583 0.4705897
000190 3e 07 23 c0 0e 0c 97 c0 81 a7 4c c0 7a 89 38 bf
       -2.547317 -4.7202215 -3.1977236 -0.7208477
0001a0 76 ac 04 40 18 77 61 40 c3 90 1c 40 9d ff 3c 3f
       2.0730262 3.522894 2.4463356 0.73827535
0001b0 4e 8d 18 c0 a1 ec d6 c0 1c 34 07 c0 53 f3 90 3e
       -2.3836246 -6.7163854 -2.1125555 0.28310642
0001c0 e3 43 dc be d1 6d aa c0 0c 60 b7 bf e1 d4 a0 be
       -0.43020543 -5.3259053 -1.4326186 -0.31412414
0001d0 bb 50 8c c0 07 e1 a9 c0 e7 42 c1 bf 20 26 4c 3e
       -4.384855 -5.308719 -1.5098542 0.19936419
0001e0 59 65 10 3f e2 92 7e 40 97 a9 5a 40 f1 7a 3b bf
       0.56404644 3.977715 3.416601 -0.7323447
0001f0 fd 6b b1 3e 84 83 96 c0 5d b4 4d c0 d8 10 11 3c
       0.346527 -4.703554 -3.2141335 0.0088541135

net.0.bias f4 [32]
000000 e8 47 54 c0 81 09 12 40 e8 13 90 bf 47 74 dd bd
       -3.3168888 2.28183 -1.1256075 -0.10813194
000010 43 d3 9f bd e9 2c a9 3e 2c 14 ba 40 69 49 ee 3e
       -0.07803967 0.33042076 5.8149624 0.46540383
000020 1d 21 9f bf c0 d9 f2 3f 4e 70 02 c0 61 37 43 bc
       -1.243198 1.8972702 -2.0381045 -0.011915059
000030 17 56 c1 3e 65 b0 23 40 03 14 a5 3e 25 7f f0 3f
       0.37760994 2.5576413 0.3224183 1.8788801
000040 b2 c9 4e 3f c3 59 bd bd 01 f8 35 be db 9b f6 3f
       0.8077651 -0.09245636 -0.17770387 1.9266313
000050 25 30 ae 3e bd 4f b9 bf 63 0a 4a 3f 6c 7b 9d bf
       0.34021106 -1.4477459 0.789221 -1.230329
000060 18 83 11 c0 83 40 32 c0 4b 59 d5 3f 6f 47 28 c0
       -2.2736263 -2.7851875 1.6667875 -2.62936
000070 97 8a 2d bf 5b 4e 89 c0 cb 4d 30 3f be 3e 89 3e
       -0.67789596 -4.290815 0.688687 0.2680568

net.2.weight f4 [32, 32]
000000 43 8b 26 3f 30 00 63 bf 60 bd 0b c0 bd a1 18 bf
       0.65056247 -0.8867216 -2.1834335 -0.59621793
000010 e3 1b ad 3f b6 f3 98 3f 8f 07 93 bd cb 56 3b c0
       1.3524135 1.1949375 -0.07179176 -2.9271724
000020 64 8d 50 c0 54 8b 72 bf e3 c5 1d be 10 e8 1e 3e
       -3.2586298 -0.9474385 -0.15407519 0.15518212
000030 97 29 3e 40 b3 2a 38 bf 85 33 9a 3f df ad 35 40
       2.9712884 -0.71940154 1.2046973 2.8387372
000040 f4 2d 8d be 07 64 c4 bf e1 2a 24 3f 31 87 d7 3f
       -0.27574122 -1.5343026 0.6412793 1.6838132
000050 06 b7 1d 40 05 da 48 bc fc 5d 8e 3f 24 a3 47 c0
       2.4642959 -0.012259011 1.1122432 -3.1193323
000060 49 4e 0e 3e 31 14 91 be df 13 4c 40 82 ab cc be
       0.13897051 -0.28335717 3.1887128 -0.399746
000070 8a 71 22 bf 07 ec e2 bf 2f d4 0e 3e 71 2a 2c 3f
       -0.63454497 -1.772828 0.13948129 0.6725226
000080 e9 b9 6c 3f e8 98 4e be 0e 25 4d 3f 2c e1 61 3f
       0.92471176 -0.20175517 0.80134666 0.8823421
000090 56 af f0 3f 68 e4 92 3f 1b a1 1a bf 78 4b 22 bf
       1.8803508 1.1475954 -0.6040208 -0.63396406
0000a0 55 62 a5 3e c6 a0 b6 bf 05 d2 fa 3f 6f bb 47 c0
       0.32301584 -1.4267814 1.9595343 -3.120815
0000b0 f8 54 79 bf 6c e7 d7 bf e8 fa 14 40 cb 3c 8b be
       -0.9739528 -1.6867499 2.327814 -0.2719482
0000c0 21 ae 15 c0 d4 9a 2c c0 80 d7 29 40 af fa 69 3e
       -2.338753 -2.69695 2.653778 0.22849534
0000d0 cf fe a4 bc ab e3 f1 3f 4a 04 db be df 7b 2c be
       -0.020141033 1.8897604 -0.4277671 -0.16844128
0000e0 e8 30 c6 3f 05 ff dc 3e b4 23 bd 3d ba f8 0c 3f
       1.5483675 0.43163314 0.092353255 0.55067027
0000f0 72 c5 58 3f c1 f6 a7 3f 4b 16 17 c0 f7 10 f8 be
       0.8467628 1.3122178 -2.3607357 -0.48450443
000100 c8 4b bf bf 5f 8b 9e 3f 3a 93 0e bf 5e 14 15 c0
       -1.4945002 1.2386283 -0.556934 -2.329368
000110 db 96 a1 be e6 38 7e bf 93 e6 70 3f 5f 94 80 bf
       -0.31560406 -0.9930557 0.9410183 -1.0045279
000120 7b 93 0a bf 55 91 c2 3f b1 29 5c bf 18 45 4a 3f
       -0.5413129 1.5200602 -0.86001116 0.7901168
000130 5f c3 fd 3f 48 6e 0f 3f 89 1f f6 bf 8f db 00 be
       1.9825248 0.5602765 -1.9228374 -0.12583755
000140 84 e6 b2 3f b5 c4 ab 3f 17 70 55 c0 9b b8 3c 3f
       1.3976598 1.3419405 -3.3349664 0.73719186
000150 54 c9 a9 3f 18 0d bf bd 09 d0 04 40 18 19 a9 bf
       1.3264565 -0.09328669 2.0751975 -1.3210783
000160 45 94 72 c0 d8 3b 88 bd d0 fe b6 3d a3 ee 2b c0
       -3.7902997 -0.06652039 0.089353204 -2.6864402
000170 4c de 1a c0 87 99 97 bf 31 8c 95 3f 05 ac 8d bf
       -2.419818 -1.1843728 1.1683408 -1.1068121
000180 8d ca 71 bf 39 9f 29 3f 5a 3f d2 3f da 29 76 3f
       -0.9444969 0.6625858 1.6425583 0.9615761
000190 70 b9 b2 3e 2e 3d 10 3e 0c 0a 03 3f 5a 77 2e 40
       0.34907103 0.14085838 0.51187205 2.7260346
0001a0 f9 ea 1a 40 08 a8 a6 be d3 5b ee bd d9 a2 24 bf
       2.4205916 -0.32550073 -0.11638608 -0.64310986
0001b0 1c 0c f6 bf d6 8d 69 3f 9c d7 ff 3e 97 01 59 c0
       -1.9222445 0.9123205 0.49969184 -3.390722
0001c0 b7 e8 8e be 91 fe f1 3f 14 d6 82 3f 01 51 15 bf
       -0.27911922 1.8905813 1.0221581 -0.5832673
0001d0 9d a7 00 c0 23 cf c5 3e cf cc 88 c0 46 39 08 40
       -2.0102303 0.38634595 -4.275001 2.1284957
0001e0 2c 5f 5c 3f 77 18 84 3f 7d c5 6c c0 ec 54 5c 3f
       0.8608272 1.0319966 -3.6995537 0.8606708
0001f0 e2 1f a8 be cc 85 b8 3f 8d 0b 3d 3e 24 b8 d3 3f
       -0.32836825 1.4415832 0.18461438 1.654057
000200 9f b0 86 bf 2d 77 b4 3f bd d9 d5 bf 2c 55 ed be
       -1.052265 1.409887 -1.6707073 -0.46354043
000210 3b f0 e0 bf cb 50 39 be b2 59 51 3d 6f 56 c1 3e
       -1.7573313 -0.18097226 0.05111093 0.37761256
000220 08 cd 4e bf 52 1b df 3f dd fb e8 bf 45 28 1c 40
       -0.807816 1.7430212 -1.8201863 2.4399579
000230 cd 95 c2 3f 50 ad a1 3f 2e 72 65 c0 1e 25 23 3e
       1.5201966 1.2631016 -3.585094 0.15932128
000240 53 95 f6 3f 2f 58 35 40 e6 a2 64 c0 ee 7c 94 3e
       1.926432 2.8335073 -3.5724425 0.29001564
000250 3a 8d 0a 3f 26 03 04 c0 b2 59 6b 3e dd 55 51 bd
       0.54121745 -2.0626922 0.22983435 -0.051107276
000260 92 92 93 bf 83 61 30 3e 74 6a 1d 3f f4 2b a1 bf
       -1.1529105 0.17224698 0.6149056 -1.2591538
000270 32 56 d6 bf 78 ec 4a be a2 72 9a 3f 88 2a 49 bf
       -1.6745055 -0.19816768 1.2066233 -0.7858052
000280 d6 db cc bf 7e 75 11 3f 7c 98 80 3f 6c e6 ca 3e
       -1.6004589 0.56819904 1.0046535 0.39628923
000290 79 63 2b 3f 99 58 17 3e 0b 2f 82 3f d2 4b ec 40
       0.6694866 0.14779891 1.0170606 7.3842554
0002a0 2f bf 1d 40 89 91 4b 3f 16 e1 a5 bf 8e 35 3f bf
       2.464794 0.79518944 -1.2959316 -0.7469109
0002b0 93 d3 05 bf 5f 69 b0 3e 61 33 e9 3f 60 ab 88 bf
       -0.5227596 0.34455392 1.8218805 -1.06773
0002c0 f9 2c af bc 64 1e 7f 3f b3 c8 9a 3f c4 66 3d bf
       -0.02138375 0.9965575 1.2092499 -0.7398493
0002d0 b6 77 c1 c0 3b eb c7 bf 1e e7 d3 bf 9c 1f 2e 40
       -6.045863 -1.5618662 -1.6554906 2.7206793
0002e0 1b fb 75 be 1e ad 8d bf 11 f1 f5 bc c1 50 1c 3f
       -0.2402157 -1.1068456 -0.030022176 0.6106072
0002f0 dc b6 d1 3e bd b1 01 bf 8f 49 24 be 50 44 99 3f
       0.40959823 -0.5066183 -0.16043685 1.1973972
000300 b1 c8 b9 3e c4 56 2e bf 88 f2 d4 3e 95 07 be 3f
       0.36285928 -0.68101144 0.41591287 1.4846064
000310 a7 dd d9 3f 86 e9 1b bf 51 40 ae bf 21 bd d5 be
       1.7020768 -0.60903203 -1.3613378 -0.41745856
000320 56 69 02 3f 6f d9 ab bf 53 66 db 3f e6 6d 66 bf
       0.5094198 -1.342573 1.7140602 -0.9001144
000330 69 05 02 c0 62 10 82 bf c9 9d 9e 3f 36 dd b5 bf
       -2.0315802 -1.016125 1.2391902 -1.4208133
000340 25 f6 5b bd 12 72 b6 3b 00 e0 4e 3f d1 b0 33 be
       -0.05370154 0.0055677975 0.80810547 -0.17547919
000350 c0 a2 90 be 85 ba c2 3f e6 c6 a0 bf fe 45 01 3e
       -0.28249168 1.5213171 -1.2560699 0.12624356
000360 9a f7 b9 3f 80 3c 27 40 3c 05 e4 bf 5c e0 02 40
       1.4528687 2.6130676 -1.7814097 2.0449438
000370 f7 52 05 40 bf e7 70 40 e4 c4 75 bf 6a 47 6a 3f
       2.0831888 3.7641447 -0.96003556 0.9151522
000380 8b 14 8f be 5a 4b d0 3e db 6b a7 3f 71 49 6c bf
       -0.2794536 0.4068249 1.307979 -0.9229956
000390 9d c7 60 bf 84 f1 bc bf 54 38 26 bf 9f 97 db 3f
       -0.87804586 -1.4761205 -0.649297 1.7155646
0003a0 1a 8a 33 40 39 46 45 3f 4c 4a 6e 3e f0 a7 ba 3f
       2.805304 0.77060276 0.2327053 1.45825
0003b0 ee f3 7b bf cc 7d 4e 3e d0 b1 9d bf a3 8f 97 c0
       -0.9841908 0.20165175 -1.2319889 -4.736284
0003c0 d6 fb 98 3f a9 e6 d2 3f 3d ab 5f bf 5b c6 fc bf
       1.1951854 1.6476642 -0.87370664 -1.9748033
0003d0 af 71 b3 bf e4 bd 8b 3e 78 07 ac bf 4a 1f 2e 40
       -1.4019068 0.27293313 -1.3439779 2.7206597
0003e0 92 cf a7 be 3b f2 31 40 72 e3 65 c0 be f5 59 bf
       -0.3277555 2.7804096 -3.5920072 -0.851406
0003f0 38 2d 47 3e 7c 29 fc 3e c0 2d 01 3e 60 e9 b1 be
       0.19450843 0.492504 0.12615108 -0.34748363

net.2.bias f4 [32]
000000 fc 5f 0d 3f 0e e3 22 be 5e 13 1e 3f f9 96 59 3c
       0.55224586 -0.15906927 0.617483 0.013280624
000010 13 0e 5e 3e ad 24 a4 3f 3d 68 ed bf 80 23 a2 bf
       0.21685056 1.2823693 -1.8547436 -1.2667084
000020 54 17 67 c0 c5 e9 53 be 1f fb 64 bf c9 6c 09 40
       -3.6107988 -0.20694645 -0.8944568 2.1472647
000030 27 c6 f6 3f fb ad 87 be b5 6d 3d bd b1 db 16 c0
       1.9279221 -0.26499924 -0.046247203 -2.357159
000040 39 3e b1 3f 01 84 41 3f a7 80 7a 40 e9 fd 3d bf
       1.3847114 0.75592047 3.9141023 -0.7421556
000050 c0 af da c0 09 58 cf 3d 05 64 ce c0 28 ce 45 bf
       -6.833954 0.10124213 -6.4497094 -0.77267694
000060 b6 73 8f bf 90 23 7a 3f 65 a6 a3 3e 17 c8 88 3f
       -1.1207187 0.97710514 0.31962886 1.0686063
000070 29 22 d8 3f 19 72 26 3e 60 b2 8f bf 95 22 1d 3f
       1.6885425 0.16254462 -1.1226311 0.61380893

out_mean.weight f4 [1, 32]
000000 c7 86 50 bf da 04 08 bf 9e d3 49 bf 78 88 39 bf
       -0.81455654 -0.531324 -0.7883853 -0.7247386
000010 4f ff b5 bf a1 af 33 3f f0 dc 63 3f 8b 9d 69 3f
       -1.4218539 0.70189863 0.89009 0.91256016
000020 17 59 49 bf 00 e8 1a 3f d6 b5 6a bf 51 72 cd bf
       -0.78651565 0.60510254 -0.9168371 -1.6050512
000030 bb 9d 0a bf be 8d 81 be 31 88 bd be 82 d2 90 3f
       -0.5414693 -0.25303453 -0.37017968 1.1314242
000040 5a 21 a0 3f 86 e3 75 3f e6 26 e9 be 6e 00 e3 be
       1.2510178 0.960503 -0.4553749 -0.44336265
000050 a4 b7 55 3d 0c 63 f1 bf 0b 83 0c bf 86 42 b3 bf
       0.052177086 -1.8858352 -0.54887456 -1.4004676
000060 fb 02 93 bf d6 af 7d bf 93 94 57 bf d5 a9 c8 3f
       -1.1485285 -0.9909643 -0.8421108 1.5676829
000070 94 92 90 3f 6f 4f a2 3f d8 93 da bf c6 6f 02 bf
       1.1294732 1.2680491 -1.7076368 -0.509518

out_value.weight f4 [1, 32]
000000 bb 9c d2 b8 96 ff 02 b9 58 38 fe b7 b4 a3 19 38
       -0.00010042774 -0.0001249298 -3.0305397e-05 3.6630503e-05
000010 52 29 c5 b8 88 b9 f8 37 6c d3 88 38 95 99 ef b7
       -9.4013885e-05 2.9650299e-05 6.524366e-05 -2.8562537e-05
000020 c6 b7 55 38 9e bd 01 b7 3e b0 63 39 d2 ec 71 37
       5.095431e-05 -7.733148e-06 0.00021714062 1.4419858e-05
000030 6c c0 03 39 14 4d c7 b6 f5 28 66 b8 8b bd 83 b7
       0.00012564816 -5.9396352e-06 -5.4874417e-05 -1.570468e-05
000040 81 9d 0c 38 e5 e5 83 b8 b1 ef 45 b9 91 83 87 b8
       3.3525288e-05 -6.289388e-05 -0.00018876676 -6.461808e-05
000050 03 48 26 40 6d f1 be 38 90 5e 8e 39 56 42 fe b6
       2.5981452 9.104875e-05 0.00027154805 -7.5775124e-06
000060 b4 51 09 b6 e4 93 3e b9 a8 38 b1 b8 40 24 4c 38
       -2.0462148e-06 -0.00018174906 -8.450571e-05 4.867115e-05
000070 34 9f 99 39 dc cb 82 b8 47 c6 0d b9 16 01 36 b8
       0.0002930105 -6.236855e-05 -0.00013520672 -4.3393193e-05

weight f4 [32, 4]
000000 db 4a 41 c0 eb de 8f c0 1c 11 16 c0 81 1d d4 bd
       -3.0201938 -4.4959617 -2.3447943 -0.1035719
000010 88 6a 07 40 71 6d c7 40 de 6a 1d 40 1e ae 19 bf
       2.1158772 6.2321095 2.4596477 -0.60031307
000020 08 75 a0 bf cb dd bc c0 f9 47 9f c0 0d bb 03 bf
       -1.2535715 -5.9020743 -4.9775357 -0.5145729
000030 b1 fb 31 be 5d 5b 81 c0 88 a7 aa bf 69 f3 b0 3f
       -0.17381169 -4.0424027 -1.3332376 1.3824283
000040 ae d8 a2 be fb 33 8c c0 57 53 7e bf bd 58 8f 3e
       -0.31805938 -4.3813453 -0.99345917 0.2799739
000050 2b 71 8e 3d 47 9b 6f c0 25 c8 21 40 1d 73 5f 3f
       0.06955179 -3.7438524 2.5278409 0.87285024
000060 54 20 b9 40 ec 2a 9f 40 e6 b8 6e 40 4b f1 be 3d
       5.7851963 4.9739895 3.7300353 0.09323367
000070 02 63 f9 3e 53 29 c9 c0 d0 da 7c c0 1e 5e e8 3d
       0.4870835 -6.2862945 -3.9508553 0.113460764
000080 92 d1 89 bf 97 92 9c c0 aa ec e5 bf 6d 30 f1 be
       -1.0767081 -4.8928943 -1.7962849 -0.47107258
000090 5c 7f 0c 40 9b 01 7e 40 d2 5b 2f 40 10 4b a3 bf
       2.1952734 3.968848 2.7399793 -1.2757282
0000a0 0c 3b 17 c0 5f 08 4e c0 96 a4 2c bf d9 6e c5 3e
       -2.362979 -3.219261 -0.6743864 0.38561133
0000b0 29 22 b6 be dc 2e 92 40 a3 29 dd 3f f5 84 43 bf
       -0.35572937 4.56822 1.7278332 -0.7637475
0000c0 00 a1 c9 3d 6d 0d 96 40 10 44 a0 3e 58 16 bb 3e
       0.098451614 4.689139 0.31301928 0.36540484
0000d0 c2 0b 0c 40 a4 13 68 40 f2 93 11 40 c7 52 8c bf
       2.1882176 3.6261988 2.2746549 -1.0962762
0000e0 44 d0 f4 3e f4 b1 aa c0 23 64 b1 bf b2 93 31 3f
       0.47815144 -5.334223 -1.3858684 0.6936599
0000f0 b1 19 f7 3f a3 f4 66 40 55 d3 b5 be e3 a7 4e 3f
       1.9304715 3.6086814 -0.35512796 0.80724925
000100 b1 4e 3d 3f 74 dc d5 40 a6 00 21 40 28 6c 81 3e
       0.739482 6.683161 2.5156646 0.2527783
000110 52 26 d7 be c1 9a a4 40 28 71 a4 bd d3 3e 50 bf
       -0.42021424 5.143891 -0.08029395 -0.8134586
000120 d5 02 88 be b8 a4 93 c0 48 fe 56 bf 13 d1 90 3f
       -0.2656466 -4.6138573 -0.8398175 1.1313804
000130 e1 a7 24 40 0a 9c 65 40 e1 6a eb 3f 0d b7 50 3f
       2.5727465 3.5876489 1.8391992 0.81529313
000140 81 f0 d3 bd 74 c8 c6 40 69 7e 56 40 85 0f 82 bd
       -0.10348607 6.2119694 3.3514655 -0.06350616
000150 cf 03 ba bf 49 8f 65 c0 8b 6f 2e bf b3 3c b8 3e
       -1.4532412 -3.5868704 -0.6813895 0.3598381
000160 f8 50 37 3f 10 5f c6 40 64 a5 81 40 f6 6d 03 3e
       0.71607924 6.1991043 4.0514393 0.12834916
000170 1c 34 d1 bf 9e 4f 90 c0 81 0b c9 c0 66 6e fd be
       -1.6344028 -4.509719 -6.2826543 -0.4949829
000180 67 be 19 c0 94 ed 8b c0 cf 69 2d c0 22 f1 f0 3e
       -2.4022462 -4.372751 -2.709583 0.4705897
000190 3e 07 23 c0 0e 0c 97 c0 81 a7 4c c0 7a 89 38 bf
       -2.547317 -4.7202215 -3.1977236 -0.7208477
0001a0 76 ac 04 40 18 77 61 40 c3 90 1c 40 9d ff 3c 3f
       2.0730262 3.522894 2.4463356 0.73827535
0001b0 4e 8d 18 c0 a1 ec d6 c0 1c 34 07 c0 53 f3 90 3e
       -2.3836246 -6.7163854 -2.1125555 0.28310642
0001c0 e3 43 dc be d1 6d aa c0 0c 60 b7 bf e1 d4 a0 be
       -0.43020543 -5.3259053 -1.4326186 -0.31412414
0001d0 bb 50 8c c0 07 e1 a9 c0 e7 42 c1 bf 20 26 4c 3e
       -4.384855 -5.308719 -1.5098542 0.19936419
0001e0 59 65 10 3f e2 92 7e 40 97 a9 5a 40 f1 7a 3b bf
       0.56404644 3.977715 3.416601 -0.7323447
0001f0 fd 6b b1 3e 84 83 96 c0 5d b4 4d c0 d8 10 11 3c
       0.346527 -4.703554 -3.2141335 0.0088541135

bias f4 [32]
000000 e8 47 54 c0 81 09 12 40 e8 13 90 bf 47 74 dd bd
       -3.3168888 2.28183 -1.1256075 -0.10813194
000010 43 d3 9f bd e9 2c a9 3e 2c 14 ba 40 69 49 ee 3e
       -0.07803967 0.33042076 5.8149624 0.46540383
000020 1d 21 9f bf c0 d9 f2 3f 4e 70 02 c0 61 37 43 bc
       -1.243198 1.8972702 -2.0381045 -0.011915059
000030 17 56 c1 3e 65 b0 23 40 03 14 a5 3e 25 7f f0 3f
       0.37760994 2.5576413 0.3224183 1.8788801
000040 b2 c9 4e 3f c3 59 bd bd 01 f8 35 be db 9b f6 3f
       0.8077651 -0.09245636 -0.17770387 1.9266313
000050 25 30 ae 3e bd 4f b9 bf 63 0a 4a 3f 6c 7b 9d bf
       0.34021106 -1.4477459 0.789221 -1.230329
000060 18 83 11 c0 83 40 32 c0 4b 59 d5 3f 6f 47 28 c0
       -2.2736263 -2.7851875 1.6667875 -2.62936
000070 97 8a 2d bf 5b 4e 89 c0 cb 4d 30 3f be 3e 89 3e
       -0.67789596 -4.290815 0.688687 0.2680568

weight f4 [32, 32]
000000 43 8b 26 3f 30 00 63 bf 60 bd 0b c0 bd a1 18 bf
       0.65056247 -0.8867216 -2.1834335 -0.59621793
000010 e3 1b ad 3f b6 f3 98 3f 8f 07 93 bd cb 56 3b c0
       1.3524135 1.1949375 -0.07179176 -2.9271724
000020 64 8d 50 c0 54 8b 72 bf e3 c5 1d be 10 e8 1e 3e
       -3.2586298 -0.9474385 -0.15407519 0.15518212
000030 97 29 3e 40 b3 2a 38 bf 85 33 9a 3f df ad 35 40
       2.9712884 -0.71940154 1.2046973 2.8387372
000040 f4 2d 8d be 07 64 c4 bf e1 2a 24 3f 31 87 d7 3f
       -0.27574122 -1.5343026 0.6412793 1.6838132
000050 06 b7 1d 40 05 da 48 bc fc 5d 8e 3f 24 a3 47 c0
       2.4642959 -0.012259011 1.1122432 -3.1193323
000060 49 4e 0e 3e 31 14 91 be df 13 4c 40 82 ab cc be
       0.13897051 -0.28335717 3.1887128 -0.399746
000070 8a 71 22 bf 07 ec e2 bf 2f d4 0e 3e 71 2a 2c 3f
       -0.63454497 -1.772828 0.13948129 0.6725226
000080 e9 b9 6c 3f e8 98 4e be 0e 25 4d 3f 2c e1 61 3f
       0.92471176 -0.20175517 0.80134666 0.8823421
000090 56 af f0 3f 68 e4 92 3f 1b a1 1a bf 78 4b 22 bf
       1.8803508 1.1475954 -0.6040208 -0.63396406
0000a0 55 62 a5 3e c6 a0 b6 bf 05 d2 fa 3f 6f bb 47 c0
       0.32301584 -1.4267814 1.9595343 -3.120815
0000b0 f8 54 79 bf 6c e7 d7 bf e8 fa 14 40 cb 3c 8b be
       -0.9739528 -1.6867499 2.327814 -0.2719482
0000c0 21 ae 15 c0 d4 9a 2c c0 80 d7 29 40 af fa 69 3e
       -2.338753 -2.69695 2.653778 0.22849534
0000d0 cf fe a4 bc ab e3 f1 3f 4a 04 db be df 7b 2c be
       -0.020141033 1.8897604 -0.4277671 -0.16844128
0000e0 e8 30 c6 3f 05 ff dc 3e b4 23 bd 3d ba f8 0c 3f
       1.5483675 0.43163314 0.092353255 0.55067027
0000f0 72 c5 58 3f c1 f6 a7 3f 4b 16 17 c0 f7 10 f8 be
       0.8467628 1.3122178 -2.3607357 -0.48450443
000100 c8 4b bf bf 5f 8b 9e 3f 3a 93 0e bf 5e 14 15 c0
       -1.4945002 1.2386283 -0.556934 -2.329368
000110 db 96 a1 be e6 38 7e bf 93 e6 70 3f 5f 94 80 bf
       -0.31560406 -0.9930557 0.9410183 -1.0045279
000120 7b 93 0a bf 55 91 c2 3f b1 29 5c bf 18 45 4a 3f
       -0.5413129 1.5200602 -0.86001116 0.7901168
000130 5f c3 fd 3f 48 6e 0f 3f 89 1f f6 bf 8f db 00 be
       1.9825248 0.5602765 -1.9228374 -0.12583755
000140 84 e6 b2 3f b5 c4 ab 3f 17 70 55 c0 9b b8 3c 3f
       1.3976598 1.3419405 -3.3349664 0.73719186
000150 54 c9 a9 3f 18 0d bf bd 09 d0 04 40 18 19 a9 bf
       1.3264565 -0.09328669 2.0751975 -1.3210783
000160 45 94 72 c0 d8 3b 88 bd d0 fe b6 3d a3 ee 2b c0
       -3.7902997 -0.06652039 0.089353204 -2.6864402
000170 4c de 1a c0 87 99 97 bf 31 8c 95 3f 05 ac 8d bf
       -2.419818 -1.1843728 1.1683408 -1.1068121
000180 8d ca 71 bf 39 9f 29 3f 5a 3f d2 3f da 29 76 3f
       -0.9444969 0.6625858 1.6425583 0.9615761
000190 70 b9 b2 3e 2e 3d 10 3e 0c 0a 03 3f 5a 77 2e 40
       0.34907103 0.14085838 0.51187205 2.7260346
0001a0 f9 ea 1a 40 08 a8 a6 be d3 5b ee bd d9 a2 24 bf
       2.4205916 -0.32550073 -0.11638608 -0.64310986
0001b0 1c 0c f6 bf d6 8d 69 3f 9c d7 ff 3e 97 01 59 c0
       -1.9222445 0.9123205 0.49969184 -3.390722
0001c0 b7 e8 8e be 91 fe f1 3f 14 d6 82 3f 01 51 15 bf
       -0.27911922 1.8905813 1.0221581 -0.5832673
0001d0 9d a7 00 c0 23 cf c5 3e cf cc 88 c0 46 39 08 40
       -2.0102303 0.38634595 -4.275001 2.1284957
0001e0 2c 5f 5c 3f 77 18 84 3f 7d c5 6c c0 ec 54 5c 3f
       0.8608272 1.0319966 -3.6995537 0.8606708
0001f0 e2 1f a8 be cc 85 b8 3f 8d 0b 3d 3e 24 b8 d3 3f
       -0.32836825 1.4415832 0.18461438 1.654057
000200 9f b0 86 bf 2d 77 b4 3f bd d9 d5 bf 2c 55 ed be
       -1.052265 1.409887 -1.6707073 -0.46354043
000210 3b f0 e0 bf cb 50 39 be b2 59 51 3d 6f 56 c1 3e
       -1.7573313 -0.18097226 0.05111093 0.37761256
000220 08 cd 4e bf 52 1b df 3f dd fb e8 bf 45 28 1c 40
       -0.807816 1.7430212 -1.8201863 2.4399579
000230 cd 95 c2 3f 50 ad a1 3f 2e 72 65 c0 1e 25 23 3e
       1.5201966 1.2631016 -3.585094 0.15932128
000240 53 95 f6 3f 2f 58 35 40 e6 a2 64 c0 ee 7c 94 3e
       1.926432 2.8335073 -3.5724425 0.29001564
000250 3a 8d 0a 3f 26 03 04 c0 b2 59 6b 3e dd 55 51 bd
       0.54121745 -2.0626922 0.22983435 -0.051107276
000260 92 92 93 bf 83 61 30 3e 74 6a 1d 3f f4 2b a1 bf
       -1.1529105 0.17224698 0.6149056 -1.2591538
000270 32 56 d6 bf 78 ec 4a be a2 72 9a 3f 88 2a 49 bf
       -1.6745055 -0.19816768 1.2066233 -0.7858052
000280 d6 db cc bf 7e 75 11 3f 7c 98 80 3f 6c e6 ca 3e
       -1.6004589 0.56819904 1.0046535 0.39628923
000290 79 63 2b 3f 99 58 17 3e 0b 2f 82 3f d2 4b ec 40
       0.6694866 0.14779891 1.0170606 7.3842554
0002a0 2f bf 1d 40 89 91 4b 3f 16 e1 a5 bf 8e 35 3f bf
       2.464794 0.79518944 -1.2959316 -0.7469109
0002b0 93 d3 05 bf 5f 69 b0 3e 61 33 e9 3f 60 ab 88 bf
       -0.5227596 0.34455392 1.8218805 -1.06773
0002c0 f9 2c af bc 64 1e 7f 3f b3 c8 9a 3f c4 66 3d bf
       -0.02138375 0.9965575 1.2092499 -0.7398493
0002d0 b6 77 c1 c0 3b eb c7 bf 1e e7 d3 bf 9c 1f 2e 40
       -6.045863 -1.5618662 -1.6554906 2.7206793
0002e0 1b fb 75 be 1e ad 8d bf 11 f1 f5 bc c1 50 1c 3f
       -0.2402157 -1.1068456 -0.030022176 0.6106072
0002f0 dc b6 d1 3e bd b1 01 bf 8f 49 24 be 50 44 99 3f
       0.40959823 -0.5066183 -0.16043685 1.1973972
000300 b1 c8 b9 3e c4 56 2e bf 88 f2 d4 3e 95 07 be 3f
       0.36285928 -0.68101144 0.41591287 1.4846064
000310 a7 dd d9 3f 86 e9 1b bf 51 40 ae bf 21 bd d5 be
       1.7020768 -0.60903203 -1.3613378 -0.41745856
000320 56 69 02 3f 6f d9 ab bf 53 66 db 3f e6 6d 66 bf
       0.5094198 -1.342573 1.7140602 -0.9001144
000330 69 05 02 c0 62 10 82 bf c9 9d 9e 3f 36 dd b5 bf
       -2.0315802 -1.016125 1.2391902 -1.4208133
000340 25 f6 5b bd 12 72 b6 3b 00 e0 4e 3f d1 b0 33 be
       -0.05370154 0.0055677975 0.80810547 -0.17547919
000350 c0 a2 90 be 85 ba c2 3f e6 c6 a0 bf fe 45 01 3e
       -0.28249168 1.5213171 -1.2560699 0.12624356
000360 9a f7 b9 3f 80 3c 27 40 3c 05 e4 bf 5c e0 02 40
       1.4528687 2.6130676 -1.7814097 2.0449438
000370 f7 52 05 40 bf e7 70 40 e4 c4 75 bf 6a 47 6a 3f
       2.0831888 3.7641447 -0.96003556 0.9151522
000380 8b 14 8f be 5a 4b d0 3e db 6b a7 3f 71 49 6c bf
       -0.2794536 0.4068249 1.307979 -0.9229956
000390 9d c7 60 bf 84 f1 bc bf 54 38 26 bf 9f 97 db 3f
       -0.87804586 -1.4761205 -0.649297 1.7155646
0003a0 1a 8a 33 40 39 46 45 3f 4c 4a 6e 3e f0 a7 ba 3f
       2.805304 0.77060276 0.2327053 1.45825
0003b0 ee f3 7b bf cc 7d 4e 3e d0 b1 9d bf a3 8f 97 c0
       -0.9841908 0.20165175 -1.2319889 -4.736284
0003c0 d6 fb 98 3f a9 e6 d2 3f 3d ab 5f bf 5b c6 fc bf
       1.1951854 1.6476642 -0.87370664 -1.9748033
0003d0 af 71 b3 bf e4 bd 8b 3e 78 07 ac bf 4a 1f 2e 40
       -1.4019068 0.27293313 -1.3439779 2.7206597
0003e0 92 cf a7 be 3b f2 31 40 72 e3 65 c0 be f5 59 bf
       -0.3277555 2.7804096 -3.5920072 -0.851406
0003f0 38 2d 47 3e 7c 29 fc 3e c0 2d 01 3e 60 e9 b1 be
       0.19450843 0.492504 0.12615108 -0.34748363

bias f4 [32]
000000 fc 5f 0d 3f 0e e3 22 be 5e 13 1e 3f f9 96 59 3c
       0.55224586 -0.15906927 0.617483 0.013280624
000010 13 0e 5e 3e ad 24 a4 3f 3d 68 ed bf 80 23 a2 bf
       0.21685056 1.2823693 -1.8547436 -1.2667084
000020 54 17 67 c0 c5 e9 53 be 1f fb 64 bf c9 6c 09 40
       -3.6107988 -0.20694645 -0.8944568 2.1472647
000030 27 c6 f6 3f fb ad 87 be b5 6d 3d bd b1 db 16 c0
       1.9279221 -0.26499924 -0.046247203 -2.357159
000040 39 3e b1 3f 01 84 41 3f a7 80 7a 40 e9 fd 3d bf
       1.3847114 0.75592047 3.9141023 -0.7421556
000050 c0 af da c0 09 58 cf 3d 05 64 ce c0 28 ce 45 bf
       -6.833954 0.10124213 -6.4497094 -0.77267694
000060 b6 73 8f bf 90 23 7a 3f 65 a6 a3 3e 17 c8 88 3f
       -1.1207187 0.97710514 0.31962886 1.0686063
000070 29 22 d8 3f 19 72 26 3e 60 b2 8f bf 95 22 1d 3f
       1.6885425 0.16254462 -1.1226311 0.61380893

weight f4 [1, 32]
000000 c7 86 50 bf da 04 08 bf 9e d3 49 bf 78 88 39 bf
       -0.81455654 -0.531324 -0.7883853 -0.7247386
000010 4f ff b5 bf a1 af 33 3f f0 dc 63 3f 8b 9d 69 3f
       -1.4218539 0.70189863 0.89009 0.91256016
000020 17 59 49 bf 00 e8 1a 3f d6 b5 6a bf 51 72 cd bf
       -0.78651565 0.60510254 -0.9168371 -1.6050512
000030 bb 9d 0a bf be 8d 81 be 31 88 bd be 82 d2 90 3f
       -0.5414693 -0.25303453 -0.37017968 1.1314242
000040 5a 21 a0 3f 86 e3 75 3f e6 26 e9 be 6e 00 e3 be
       1.2510178 0.960503 -0.4553749 -0.44336265
000050 a4 b7 55 3d 0c 63 f1 bf 0b 83 0c bf 86 42 b3 bf
       0.052177086 -1.8858352 -0.54887456 -1.4004676
000060 fb 02 93 bf d6 af 7d bf 93 94 57 bf d5 a9 c8 3f
       -1.1485285 -0.9909643 -0.8421108 1.5676829
000070 94 92 90 3f 6f 4f a2 3f d8 93 da bf c6 6f 02 bf
       1.1294732 1.2680491 -1.7076368 -0.509518

weight f4 [1, 32]
000000 bb 9c d2 b8 96 ff 02 b9 58 38 fe b7 b4 a3 19 38
       -0.00010042774 -0.0001249298 -3.0305397e-05 3.6630503e-05
000010 52 29 c5 b8 88 b9 f8 37 6c d3 88 38 95 99 ef b7
       -9.4013885e-05 2.9650299e-05 6.524366e-05 -2.8562537e-05
000020 c6 b7 55 38 9e bd 01 b7 3e b0 63 39 d2 ec 71 37
       5.095431e-05 -7.733148e-06 0.00021714062 1.4419858e-05
000030 6c c0 03 39 14 4d c7 b6 f5 28 66 b8 8b bd 83 b7
       0.00012564816 -5.9396352e-06 -5.4874417e-05 -1.570468e-05
000040 81 9d 0c 38 e5 e5 83 b8 b1 ef 45 b9 91 83 87 b8
       3.3525288e-05 -6.289388e-05 -0.00018876676 -6.461808e-05
000050 03 48 26 40 6d f1 be 38 90 5e 8e 39 56 42 fe b6
       2.5981452 9.104875e-05 0.00027154805 -7.5775124e-06
000060 b4 51 09 b6 e4 93 3e b9 a8 38 b1 b8 40 24 4c 38
       -2.0462148e-06 -0.00018174906 -8.450571e-05 4.867115e-05
000070 34 9f 99 39 dc cb 82 b8 47 c6 0d b9 16 01 36 b8
       0.0002930105 -6.236855e-05 -0.00013520672 -4.3393193e-05

exp_avg f4 [32, 4]
000000 00 56 88 ae ce 72 4f 31 0c dc 92 2f 7f e2 a6 35
       -6.1998406e-11 3.0187723e-09 2.6713598e-10 1.2433883e-06
000010 6c ea 91 b2 c0 04 51 b3 67 a5 0e b1 7d 90 8a b5
       -1.6986824e-08 -4.8665925e-08 -2.075774e-09 -1.0323853e-06
000020 cb 92 62 32 03 71 43 b3 92 7b ce b1 91 b3 09 b8
       1.3188308e-08 -4.550476e-08 -6.0094374e-09 -3.283058e-05
000030 6f c7 de b3 be c4 88 b4 e5 37 3f b2 44 d5 bd b6
       -1.0373957e-07 -2.5475123e-07 -1.1130372e-08 -5.6574663e-06
000040 25 57 c6 b4 7d b0 86 b5 e9 76 2a b3 2e 9f e5 36
       -3.694378e-07 -1.0035143e-06 -3.9689358e-08 6.843263e-06
000050 e5 87 47 b3 fc 5b 9c b3 d9 be 68 b1 a9 a7 ff b5
       -4.6456893e-08 -7.281048e-08 -3.3868928e-09 -1.9047776e-06
000060 22 5a 58 af 3f 48 ac af a9 eb 90 ab b2 40 cf 33
       -1.9677107e-10 -3.1337952e-10 -1.0297224e-12 9.650957e-08
000070 56 a7 05 b6 5b b8 f7 b6 10 ac d5 b4 85 92 5d ba
       -1.9915947e-06 -7.3826354e-06 -3.9799534e-07 -0.0008452314
000080 42 ed 5d 33 80 9b 93 b3 06 30 6c b2 fb 4a b6 b8
       5.1671357e-08 -6.873506e-08 -1.3747927e-08 -8.6924025e-05
000090 95 dd 29 b4 4e de f0 b4 6c 19 a5 b2 ae 36 21 b7
       -1.5819963e-07 -4.4865232e-07 -1.9220089e-08 -9.609079e-06
0000a0 4a d9 70 33 9c 4d 2b 34 16 8d ea 31 99 60 66 36
       5.6076978e-08 1.595385e-07 6.826336e-09 3.4328898e-06
0000b0 80 75 9a 34 0b 9a 5d 35 c7 26 18 33 a1 ef 94 37
       2.8770228e-07 8.255308e-07 3.5425526e-08 1.775456e-05
0000c0 c5 6b 9e b3 f3 eb 20 33 10 88 88 32 f9 6e ec 38
       -7.3770515e-08 3.7467498e-08 1.5894358e-08 0.00011274027
0000d0 25 51 8c b2 99 09 47 b3 1c 54 07 b1 88 1f 84 b5
       -1.6335045e-08 -4.6342027e-08 -1.9692896e-09 -9.843943e-07
0000e0 a9 31 15 b5 8b d2 d6 b5 42 72 93 b3 21 69 10 b8
       -5.557909e-07 -1.6005519e-06 -6.866004e-08 -3.4430184e-05
0000f0 2b ee 9d 31 8c 65 c3 32 fe e4 94 30 f4 f0 da 35
       4.596378e-09 2.2747166e-08 1.0833501e-09 1.6312392e-06
000100 44 65 14 b5 c6 bc 71 b5 24 ae 03 30 85 d9 95 39
       -5.528166e-07 -9.00542e-07 4.790499e-10 0.0002858156
000110 2b 73 b8 b4 00 88 86 b5 41 57 38 b3 d3 11 b3 b7
       -3.4356466e-07 -1.0023359e-06 -4.2920195e-08 -2.1346763e-05
000120 40 c6 e2 b4 63 34 a2 b5 06 9f 5e b3 c3 76 d9 b7
       -4.2240026e-07 -1.2085187e-06 -5.1833034e-08 -2.5923719e-05
000130 c0 49 40 30 f7 6b 28 32 2c c9 35 30 e3 19 1c 36
       6.9954e-10 9.803435e-09 6.61333e-10 2.326088e-06
000140 05 fa b2 35 dd cc a7 36 23 54 8f 34 ce bd 13 3a
       1.3334799e-06 5.000837e-06 2.6697043e-07 0.0005635888
000150 91 41 4e 34 20 b8 12 35 1b 06 c9 32 f9 9d 44 37
       1.9209098e-07 5.4657175e-07 2.3402256e-08 1.1719291e-05
000160 f8 37 0a b6 d4 69 42 b6 48 33 0a 33 73 11 9e 3a
       -2.059618e-06 -2.8969853e-06 3.217727e-08 0.0012059644
000170 8d aa 8c b3 5d 0d 92 b4 af 50 80 b2 3d b9 06 b8
       -6.550281e-08 -2.7204342e-07 -1.4937852e-08 -3.2120606e-05
000180 06 64 e2 31 fd 5d 9f 32 96 2c 56 30 a2 31 c9 34
       6.588837e-09 1.8552777e-08 7.7916107e-10 3.747528e-07
000190 e9 1d 41 34 e0 a7 9d 34 1b 2a 4d 2f 1b 61 c0 b8
       1.7985407e-07 2.9365674e-07 1.86596e-10 -9.173361e-05
0001a0 16 f2 f9 b1 3e 6f 07 b2 d0 5f 99 2e 23 cb 63 36
       -7.2743758e-09 -7.883328e-09 6.974654e-11 3.3943877e-06
0001b0 2f d3 a6 b1 ca cd a6 b2 b4 99 0f b1 2c ab e0 b5
       -4.8552447e-09 -1.9418525e-08 -2.0896609e-09 -1.6739118e-06
0001c0 c8 fa 70 34 8f fc 96 34 9c 45 0a b2 d8 8b 1e b9
       2.2442975e-07 2.8123438e-07 -8.0484845e-09 -0.0001512015
0001d0 ed b0 73 2f c7 59 be 2f 5b 56 2b ae 64 c1 9a b3
       2.2163578e-10 3.462459e-10 -3.8957598e-11 -7.2063614e-08
0001e0 ec 44 a9 33 f4 d2 63 34 ce d5 1c 32 e0 30 9a 36
       7.8822126e-08 2.1217767e-07 9.129009e-09 4.5952474e-06
0001f0 08 a2 21 b5 46 ae e3 b5 17 d0 97 b3 56 bc 9d b7
       -6.021296e-07 -1.6963538e-06 -7.069337e-08 -1.880356e-05

exp_avg_sq f4 [32, 4]
000000 ad 14 66 2b d0 82 11 2e be cb 53 28 66 6b 04 35
       8.174111e-13 3.3085368e-11 1.17570325e-14 4.933012e-07
000010 6e cc 09 31 dc fc 94 35 73 8a 8c 31 e6 10 02 3a
       2.0052329e-09 1.1100451e-06 4.090276e-09 0.00049616245
000020 5b 14 f3 30 61 78 6b 35 31 41 be 30 de aa 8e 39
       1.7686362e-09 8.7719496e-07 1.3842848e-09 0.00027211657
000030 f7 e8 86 31 a6 5e 82 35 ed db e4 31 05 7a 14 37
       3.9263983e-09 9.713301e-07 6.660676e-09 8.849897e-06
000040 f9 ec 5a 32 61 08 b4 35 e5 48 57 32 2f 36 3d 3a
       1.2743151e-08 1.3413484e-06 1.2531221e-08 0.0007217852
000050 01 89 34 32 3a b6 1a 36 88 03 8e 32 1c a8 a9 37
       1.050853e-08 2.3053858e-06 1.6532582e-08 2.0224652e-05
000060 da 3e 07 25 4a 57 58 27 16 35 eb 20 b0 b7 53 2e
       1.1730678e-16 3.0023341e-15 3.9845678e-19 4.8138993e-11
000070 52 05 df 33 b3 4f 4a 36 ee 9a 21 33 99 77 81 3b
       1.03852145e-07 3.0146737e-06 3.762664e-08 0.0039510247
000080 e3 72 ab 31 63 6b 0d 36 7e ab 89 31 3d 88 39 3a
       4.989816e-09 2.1073145e-06 4.006721e-09 0.0007077491
000090 1c d7 cc 30 49 89 0e 34 fc c0 2c 30 aa 3e e9 37
       1.4904091e-09 1.3274725e-07 6.284748e-10 2.7804945e-05
0000a0 dd 1f 03 31 55 ed b2 34 b5 b9 3f 31 d6 a9 e0 39
       1.9081121e-09 3.3327765e-07 2.789972e-09 0.00042851147
0000b0 d0 7c f2 30 31 55 75 34 24 07 84 30 8c c3 81 37
       1.7643291e-09 2.2848396e-07 9.606294e-10 1.5469057e-05
0000c0 07 86 21 31 4d aa 45 35 50 30 04 31 eb 45 8b 39
       2.350477e-09 7.363604e-07 1.923599e-09 0.0002656424
0000d0 46 72 52 30 13 17 3c 34 e0 c7 2d 30 60 d5 1e 38
       7.655995e-10 1.7517259e-07 6.3221073e-10 3.7868856e-05
0000e0 56 2e 33 32 6a 1d 80 35 23 57 c7 31 ba 8c 3b 38
       1.0429707e-08 9.545304e-07 5.8015686e-09 4.4715336e-05
0000f0 52 d5 26 31 34 d7 62 34 90 bd 73 30 81 e4 03 39
       2.4277438e-09 2.112618e-07 8.867227e-10 0.00012578258
000100 4a 85 02 31 0c 9c 36 34 1c 2c 28 2e 3d e2 20 3a
       1.8993256e-09 1.700684e-07 3.8237954e-11 0.0006137228
000110 17 22 0d 32 36 ab 80 35 40 c2 f0 31 dc 68 7b 37
       8.215031e-09 9.586572e-07 7.007003e-09 1.498518e-05
000120 5e 03 ae 31 de 17 eb 34 e3 6a 58 31 45 17 61 37
       5.0644493e-09 4.3789527e-07 3.1492895e-09 1.3416463e-05
000130 55 78 1d 30 26 e6 ba 33 a1 df e7 2f cf 59 2c 38
       5.728727e-10 8.703164e-08 4.2177553e-10 4.1091636e-05
000140 39 85 54 33 d8 d5 fa 34 1d 18 3f 32 dd 08 19 3b
       4.948126e-08 4.672172e-07 1.1123146e-08 0.002335123
000150 58 2e 86 31 d7 6d 39 35 db 50 b1 31 5e ae fe 39
       3.905182e-09 6.907771e-07 5.16057e-09 0.0004857657
000160 a2 60 71 32 42 ac ed 34 4e 9b 08 30 ef c1 75 3b
       1.4050018e-08 4.4270024e-07 4.9697213e-10 0.0037499627
000170 67 74 5d 31 b7 bd 72 35 69 b4 16 31 63 ef af 39
       3.22259e-09 9.0428097e-07 2.1930424e-09 0.00033556958
000180 04 4b 9d 30 c9 7c cd 34 ca 42 41 31 d1 2e 84 39
       1.1444574e-09 3.827502e-07 2.8123162e-09 0.00025211883
000190 17 3f 4e 31 fd d7 65 35 10 f0 af 30 bf 84 fd 39
       3.0012808e-09 8.562345e-07 1.2801156e-09 0.00048354824
0001a0 4a d8 e9 30 48 22 47 34 88 1d 48 30 43 b8 d2 38
       1.7014454e-09 1.854579e-07 7.280154e-10 0.00010047902
0001b0 4e eb b4 2f 3a f4 29 33 1f bb f8 30 3a a1 9f 39
       3.2909003e-10 3.95705e-08 1.8097558e-09 0.00030446966
0001c0 76 b6 79 30 a9 74 ad 33 65 ca 6e 2f 80 8f 35 39
       9.0844965e-10 8.0771606e-08 2.1717879e-10 0.00017314963
0001d0 14 89 99 29 cb f8 a9 2c 6c ab ab 2a 3b 91 95 33
       6.818344e-14 4.8308905e-12 3.049465e-13 6.9647704e-08
0001e0 e1 c2 9a 30 b1 6e a8 34 93 1f 12 30 ae 93 12 38
       1.1260363e-09 3.1372977e-07 5.315936e-10 3.494665e-05
0001f0 52 f4 2f 32 2a 27 07 35 46 b9 35 32 1f d2 cc 3a
       1.0241893e-08 5.034841e-07 1.0577713e-08 0.0015626586

exp_avg f4 [32]
000000 44 29 98 b1 36 da a2 b5 50 df 7c 35 2e a3 f8 b6
       -4.4284736e-09 -1.2133448e-06 9.420228e-07 -7.4099726e-06
000010 ad 5c dd b7 cb b0 5e b6 e2 76 71 b2 bf 2a 15 b9
       -2.6388409e-05 -3.3183485e-06 -1.4055077e-08 -0.00014225671
000020 9a af 77 36 01 95 3d b7 f6 66 86 36 28 63 ac 37
       3.6908082e-06 -1.12999705e-05 4.0054974e-06 2.0550171e-05
000030 26 cf b0 b6 8c 9a 9c b5 dd 82 26 b8 f7 42 b0 34
       -5.269324e-06 -1.1667885e-06 -3.969936e-05 3.2831278e-07
000040 bf 9e 25 b8 f7 db cd b7 ac 18 fd b7 70 9b 56 33
       -3.948691e-05 -2.4540333e-05 -3.0171439e-05 4.9967127e-08
000050 2b c0 c7 38 51 32 66 37 0b 43 1a b9 57 fe 9c b6
       9.5248535e-05 1.37207835e-05 -0.0001471156 -4.6787713e-06
000060 0a ab fc 34 3c 88 57 37 85 7a 0b b5 40 30 ba b4
       4.7063105e-07 1.2846718e-05 -5.1959825e-07 -3.4680306e-07
000070 a9 79 86 37 01 fd 87 32 a3 ea bc 36 d8 64 34 b8
       1.6030697e-05 1.5831121e-08 5.630152e-06 -4.3009262e-05

exp_avg_sq f4 [32]
000000 c9 4b 8f 31 e7 a4 2b 37 51 64 17 37 b9 0b a8 37
       4.1704635e-09 1.0230789e-05 9.023658e-06 2.003262e-05
000010 2f 59 88 38 92 e0 60 38 bf 76 28 2b 26 e6 0a 3a
       6.501597e-05 5.361491e-05 5.9850383e-13 0.0005298577
000020 27 8f d5 37 18 27 ff 36 9f 54 23 37 f4 05 17 37
       2.545824e-05 7.6041433e-06 9.7352595e-06 9.001687e-06
000030 3b 32 49 37 57 11 83 36 cf 30 5f 38 53 cf 4f 37
       1.1992229e-05 3.906123e-06 5.32128e-05 1.2386433e-05
000040 0e 94 22 37 2b cc 2f 38 e2 c0 d8 37 b0 25 44 36
       9.690424e-06 4.1913398e-05 2.5839025e-05 2.9228213e-06
000050 f2 5b 84 39 3d 23 a7 37 ef 54 96 38 7e ec 89 37
       0.00025245507 1.992436e-05 7.1683775e-05 1.6441798e-05
000060 3d ed c3 36 ab 73 80 37 f2 a3 11 37 0f 5b e1 35
       5.839071e-06 1.5312651e-05 8.680845e-06 1.6790308e-06
000070 e1 85 9b 36 ff 3e bf 2f e6 c5 c0 36 db 2b 5b 38
       4.6349455e-06 3.478746e-10 5.7450843e-06 5.2254512e-05

exp_avg f4 [32, 32]
000000 4e a0 33 1e 64 f7 33 9e 79 83 b8 1b f9 f8 33 1e
       9.509331e-21 -9.52734e-21 3.052521e-22 9.5276674e-21
000010 59 fd 22 1e 43 1f 33 1e d0 fa 33 9e 51 c8 c8 1d
       8.6286e-21 9.482646e-21 -9.528048e-21 5.314668e-21
000020 57 b5 e7 1c 2f fb 33 9e a5 c4 33 1e da 3e 33 9e
       1.5333173e-21 -9.528125e-21 9.516846e-21 -9.4891785e-21
000030 2a 5a 8d 1d 2f fb 33 9e 4e 06 32 1e 07 89 b3 1d
       3.7415617e-21 -9.528125e-21 9.424545e-21 4.752259e-21
000040 0c fe cc 9d 82 71 33 9e a1 f0 33 1e 46 c8 9a 1d
       -5.426103e-21 -9.499654e-21 9.525942e-21 4.097054e-21
000050 d9 84 17 9e 64 35 33 1e f0 35 0c 9e 0b 03 a1 1c
       -8.021346e-21 9.487222e-21 -7.422692e-21 1.0654873e-21
000060 80 ed 33 1e 4c c3 fa 1d 0e 71 9e 1d e0 e7 33 1e
       9.525295e-21 6.637638e-21 4.1939148e-21 9.524132e-21
000070 01 35 ff 1c 70 f9 33 1e 0e c1 33 9e 5b d7 3e 1d
       1.6888186e-21 9.5277636e-21 -9.516104e-21 2.5257627e-21
000080 52 77 c3 ae 53 28 9d 2e 45 cc c2 ae 13 3a c3 2e
       -8.888769e-11 7.1466964e-11 -8.858384e-11 8.8778894e-11
000090 3a c5 00 2e d3 21 c1 2e 9f 97 c3 2e ef a2 be 2d
       2.9279003e-11 8.782632e-11 8.894507e-11 2.1672856e-11
0000a0 b9 9c c2 ae a5 4f ac ae 84 e1 a4 ae 12 e1 b8 ae
       -8.849938e-11 -7.835802e-11 -7.497916e-11 -8.407332e-11
0000b0 8a 21 b9 2e f9 ea aa ad a0 f2 b9 2e eb 8a c3 2e
       8.418784e-11 -1.9431111e-11 8.455925e-11 8.89225e-11
0000c0 1b 9b bd 2e 6f 05 bd ae 8c 91 c1 2e 0e 8d c3 2e
       8.622277e-11 -8.59569e-11 8.802478e-11 8.89263e-11
0000d0 14 2f 67 2e c9 dd 73 ae 4d 8d b6 2e 9f b8 c2 ae
       5.2565133e-11 -5.5448788e-11 8.301502e-11 -8.854894e-11
0000e0 e9 17 aa ae 23 95 c3 ae 34 7b c3 2e 38 9c c0 ae
       -7.734952e-11 -8.894065e-11 8.8894586e-11 -8.758899e-11
0000f0 57 b9 bc ae b9 85 c3 ae 34 c6 97 ae 3b d6 31 ad
       -8.582173e-11 -8.891327e-11 -6.901893e-11 -1.0108854e-11
000100 2d 17 83 ac cb 3a 7c ac 46 1e 83 ac fa 1e 83 2c
       -3.725817e-12 -3.584399e-12 -3.726605e-12 3.726683e-12
000110 40 b2 78 2c eb 1e 83 2c eb 1e 83 2c 7e f7 26 2c
       3.5341868e-12 3.7266765e-12 3.7266765e-12 2.3727405e-12
000120 82 1d 83 ac fa 1e 83 ac 85 e8 2f 2c 35 1e 83 ac
       -3.72652e-12 -3.726683e-12 2.499807e-12 -3.7265976e-12
000130 a0 ed 82 2c 86 1e 83 ac 8c 1d 83 2c fa 1e 83 2c
       3.721204e-12 -3.7266327e-12 3.7265243e-12 3.726683e-12
000140 15 cd 82 2c be 1e 83 ac fa 1e 83 2c fa 1e 83 2c
       3.717591e-12 -3.726657e-12 3.726683e-12 3.726683e-12
000150 16 b7 cd 2b 3c 18 59 2c 40 ba 80 2c 16 1e 83 ac
       1.4616943e-12 3.0851008e-12 3.6586567e-12 -3.726584e-12
000160 0c 4b 4d 2c fa 1e 83 ac f2 1e 83 2c cb 6e 78 ac
       2.9173912e-12 -3.726683e-12 3.7266796e-12 -3.5304422e-12
000170 eb e9 82 ac 7c 12 83 ac 7c 1a 83 ac 5b be 1e aa
       -3.7207923e-12 -3.725296e-12 -3.7261843e-12 -1.4099262e-13
000180 19 0f 1f 31 2b 68 1f b1 39 61 1f b0 bc 69 1f 31
       2.3146127e-09 -2.3196758e-09 -5.7982025e-10 2.3197648e-09
000190 c6 9b 12 31 e6 11 1f 31 ef 69 1f b1 93 54 a6 30
       2.1334343e-09 2.314772e-09 -2.3197761e-09 1.2102127e-09
0001a0 1c 50 33 af 5f 6a 1f b1 7c 47 1f 31 cb 08 1f b1
       -1.6308416e-10 -2.319801e-09 2.317818e-09 -2.3142543e-09
0001b0 27 1a a5 30 5d 6a 1f b1 90 59 1e 31 17 f2 db 30
       1.2012763e-09 -2.3198006e-09 2.3042936e-09 1.6003153e-09
0001c0 4b 95 8d b0 ee 2a 1f b1 89 66 1f 31 ac 26 d7 30
       -1.0301532e-09 -2.3161948e-09 2.319583e-09 1.56543e-09
0001d0 ec 3c 05 b1 6a e5 1e 31 78 10 e4 b0 a6 de 02 b0
       -1.9388677e-09 2.3122433e-09 -1.6593864e-09 -4.7610127e-10
0001e0 6d 61 1f 31 b1 2b 94 30 8f 97 d2 30 df 5d 1f 31
       2.3192925e-09 1.0780835e-09 1.5322587e-09 2.3190905e-09
0001f0 ed 08 1f ae 3e 69 1f 31 d9 49 1f b1 c5 49 0c 30
       -3.6160342e-11 2.3197368e-09 -2.3179523e-09 5.1036536e-10
000200 27 ad f7 b1 54 36 c7 31 95 d4 f6 b1 8d 5f f7 31
       -7.2083313e-09 5.7978387e-09 -7.18371e-09 7.199509e-09
000210 ec dc 21 31 e5 b7 f4 31 13 d6 f7 31 83 24 f1 30
       2.3554163e-09 7.122241e-09 7.2129835e-09 1.7545435e-09
000220 67 98 f6 b1 1d 39 da b1 74 00 d1 b1 54 36 ea b1
       -7.1768684e-09 -6.351128e-09 -6.082752e-09 -6.8164727e-09
000230 de 97 ea 31 48 2c d4 b0 b1 93 eb 31 04 c6 f7 31
       6.8275616e-09 -1.5437616e-09 6.8561907e-09 7.211158e-09
000240 77 40 f0 31 41 7e ef b1 c0 44 f5 31 b5 c8 f7 31
       6.992248e-09 -6.970169e-09 7.1382544e-09 7.211464e-09
000250 f6 8c 92 31 69 d4 9a b1 38 4e e7 31 c0 bb f6 b1
       4.2651846e-09 -4.506138e-09 6.7318773e-09 -7.180887e-09
000260 de 96 d7 b1 e6 d2 f7 b1 22 b2 f7 31 14 0d f4 b1
       -6.274475e-09 -7.2126225e-09 7.2088975e-09 -7.1028214e-09
000270 aa 23 ef b1 5b bf f7 b1 0e 0e c0 b1 a0 6e 64 b0
       -6.95987e-09 -7.2104007e-09 -5.5895333e-09 -8.3103124e-10
000280 b5 8b 10 38 43 3d 0c b8 53 43 08 38 4c 7f d0 b7
       3.4462388e-05 -3.3435655e-05 3.2487627e-05 -2.485481e-05
000290 c1 cc 81 35 4d 75 d2 b7 4c c0 10 b8 ee 0a 25 b7
       9.67084e-07 -2.5088573e-05 -3.4511366e-05 -9.837311e-06
0002a0 73 a6 08 38 51 1a dd b7 1d 3d 0a 38 be 85 7d 37
       3.2579945e-05 -2.6357508e-05 3.295868e-05 1.5111114e-05
0002b0 bc 42 cb b7 4e 4e 09 b8 92 db ac b7 9b 1b 0e b8
       -2.4230561e-05 -3.2736272e-05 -2.0606243e-05 -3.3881148e-05
0002c0 56 34 f8 b7 a5 84 99 37 9d e8 98 b7 ae 3f 0e b8
       -2.9588275e-05 1.8300789e-05 -1.8228131e-05 -3.3914745e-05
0002d0 d0 bd 91 b7 0c 16 fa 37 18 93 ed b7 a6 c1 08 38
       -1.7373735e-05 2.9812589e-05 -2.8321097e-05 3.2605276e-05
0002e0 1b 89 0c 38 b1 0c 0f 38 a8 4c 0d b8 ad 92 0f 38
       3.350629e-05 3.4105677e-05 -3.368841e-05 3.423046e-05
0002f0 91 ba ec 37 c4 b5 10 38 49 22 09 b7 2f ea 38 b6
       2.8220269e-05 3.4501558e-05 -8.173819e-06 -2.755445e-06
000300 fd 2e 0d ae 80 2f 0d ae 3a 30 0d ae 3a 30 0d 2e
       -3.2101422e-11 -3.2101877e-11 -3.2102522e-11 3.2102522e-11
000310 ae eb 0c 2e 3a 30 0d 2e 38 30 0d 2e c5 68 f0 2d
       3.204164e-11 3.2102522e-11 3.2102515e-11 2.7331368e-11
000320 3a 30 0d ae 3a 30 0d ae 75 bf 0c 2e 3a 30 0d ae
       -3.2102522e-11 -3.2102522e-11 3.2002363e-11 -3.2102522e-11
000330 02 30 0d 2e 3a 30 0d ae 3a 30 0d 2e 3a 30 0d 2e
       3.2102328e-11 -3.2102522e-11 3.2102522e-11 3.2102522e-11
000340 e2 2e 0d 2e 3a 30 0d ae 3a 30 0d 2e 3a 30 0d 2e
       3.210133e-11 -3.2102522e-11 3.2102522e-11 3.2102522e-11
000350 6a 5e da 2c e8 e1 0c 2e 45 f6 0c 2e 3a 30 0d ae
       6.2064147e-12 3.203296e-11 3.2051046e-11 -3.2102522e-11
000360 54 1a 0d 2e 3a 30 0d ae 3a 30 0d 2e e6 01 86 2d
       3.2083072e-11 -3.2102522e-11 3.2102522e-11 1.523488e-11
000370 d0 2f 0d ae 5d 37 0b ae 3a 30 0d ae 67 e1 1f ad
       -3.2102154e-11 -3.1654113e-11 -3.2102522e-11 -9.088153e-12
000380 8b e9 0f 9a 68 14 10 1a 46 f1 72 99 b5 7f 0f 9a
       -2.976036e-23 2.9794986e-23 -1.25598315e-23 -2.9674868e-23
000390 f6 03 d7 99 ab bd 04 9a be 31 10 1a 9d fc 0e 99
       -2.2232079e-23 -2.7450173e-23 2.9818683e-23 -7.392243e-24
0003a0 a7 39 93 99 4c 2b 10 1a 58 91 0f 9a e2 54 08 1a
       -1.522273e-23 2.9813477e-23 -2.9689115e-23 2.819271e-23
0003b0 56 d8 68 98 78 2e 10 1a 2c 8f fe 99 a8 ae 39 19
       -3.0094519e-24 2.981604e-23 -2.6320811e-23 9.599547e-24
0003c0 c0 e8 b4 19 89 f8 08 1a 30 bf 0e 9a 46 8c 58 19
       1.870557e-23 2.8324906e-23 -2.9519352e-23 1.1195266e-23
0003d0 3f ad d1 19 56 fd 0d 9a 22 11 d9 19 16 65 8c 99
       2.1680067e-23 -2.936276e-23 2.2444194e-23 -1.4516489e-23
0003e0 b4 f5 0f 9a 3b 6a 00 9a e0 4a 2e 19 35 00 10 9a
       -2.9770184e-23 -2.6555592e-23 9.01071e-24 -2.977867e-23
0003f0 fa cb 51 99 15 2f 10 9a 00 f2 0d 1a c8 0e 63 98
       -1.08462395e-23 -2.9816535e-23 2.9353603e-23 -2.9346525e-24
