ppo_algorithm/data/CartpoleSwingShort-v0_2019-03-12_22-34-29/best_policy/save_file.pt (torch_old, 101946 bytes, 28 tensors)

net.0.weight f4 [80, 5]
000000 8d bf 8e bd b2 8e fd be 7f 8d e2 bd a1 dd 46 be
       -0.06970129 -0.4952293 -0.110621445 -0.19420482
000010 6b 5d 6e 3c 3f 9c 89 be 7a 38 67 3e e2 d3 c1 3e
       0.01454864 -0.2687702 0.22580138 0.37856966
000020 1c f3 52 3e 48 5c a9 3d 8d 15 32 3e bc e5 0d 3f
       0.20600551 0.082695544 0.17391033 0.5542867
000030 70 ae 49 3e 18 96 5a be c0 57 01 bd 29 48 00 3e
       0.19695449 -0.21346319 -0.031577826 0.12527527
000040 80 62 5a 3e 2a 96 52 be 74 a1 e4 3d e9 eb b6 bc
       0.21326637 -0.20565096 0.11163607 -0.022329288
000050 71 f9 a0 bc b3 3e 27 3f ed 71 38 bd f3 cd 90 bd
       -0.019650193 0.65330046 -0.045030523 -0.07070532
000060 60 d2 80 bd 73 7c 27 be be 64 c3 be b5 17 35 be
       -0.06290126 -0.16356067 -0.38162798 -0.17684825
000070 e8 a2 a4 3d 7f 95 3e 3d a0 b5 ac 3d 07 a4 d9 3e
       0.080388844 0.04652929 0.0843308 0.42507955
000080 db c8 18 be 06 14 4d 3e 53 5a b9 bc 27 c9 b2 3e
       -0.1492037 0.2002717 -0.022626078 0.34919092
000090 5b 24 b4 3d 40 04 b2 3c 2b 1b 85 3d f7 c2 1f 3d
       0.08795997 0.021730542 0.064993225 0.039004292
0000a0 2e ab b2 be 50 d8 f5 3d 11 4f 83 be 31 88 f9 3e
       -0.34896225 0.12004149 -0.2564626 0.48736718
0000b0 7b cf 5a 3d 46 41 83 be cc 3c 52 bd 34 be c9 be
       0.053420525 -0.25635737 -0.05132751 -0.39402926
0000c0 56 f7 67 3e 56 41 83 3d 4e a4 4c be c8 bf 27 be
       0.22652945 0.06408946 -0.19984552 -0.16381752
0000d0 c0 cf ef 3d f2 c6 de 3d c0 ea 6f 38 fa 0c 85 3d
       0.11709547 0.108777896 5.720067e-05 0.06496616
0000e0 b9 91 d4 3b 7a 78 46 3d 85 f7 54 be 74 be 71 bb
       0.006487098 0.04845474 -0.20797546 -0.00368872
0000f0 0e 47 c6 be 98 55 2b be 74 1c b3 3e a2 5c cc bd
       -0.38726085 -0.1673187 0.34982646 -0.09978606
000100 d3 2b 97 bd cc 1c 9c 3d 42 8f 4a be 13 91 ef bd
       -0.07381406 0.0762268 -0.19781211 -0.116975926
000110 3a c5 aa 3d cf 0e 8b 3c bb bc cc bb 3f dd 2b 3e
       0.08338399 0.016974835 -0.0062480844 0.16783617
000120 94 d1 7f bd 03 77 ce 3d 7c 55 3e bc 31 d4 df 3d
       -0.06245573 0.100812934 -0.011617061 0.10929144
000130 f6 dc 11 3f 53 77 5a be b8 80 13 bf 30 98 f9 bd
       0.56977785 -0.21334581 -0.57618284 -0.121872306
000140 ee 82 ab 3c 89 05 eb bd 6a b2 a4 be c5 31 f5 be
       0.020936456 -0.11475665 -0.3216737 -0.47889534
000150 2f 2a 90 bd 02 d3 68 3c 65 cd d6 3e 11 e1 85 be
       -0.07039296 0.014210464 0.4195358 -0.26148275
000160 c8 e9 30 3e 0e 59 97 bd 80 43 58 bd 42 93 af be
       0.1727668 -0.07390033 -0.052798748 -0.34292036
000170 6d 16 a1 3e 57 a8 8e 3d 20 8f a4 bd 0d f6 aa be
       0.31462422 0.06965702 -0.080351114 -0.33390847
000180 81 9d 99 3d 69 91 67 be 41 54 df be 6e 7d 0e bd
       0.075007446 -0.22614063 -0.43618968 -0.034787588
000190 37 80 81 3e 2e d5 28 be 5f 98 9e 3e 82 70 23 3e
       0.25293133 -0.16487572 0.30975625 0.15960887
0001a0 fd cc 8a bd 9a b8 b4 be 83 fb ac bf 4f c7 22 3d
       -0.0677738 -0.3529709 -1.3514255 0.039740857
0001b0 5c ce ac 3e 2a 25 c0 bd e9 7f 75 be fc 4a 58 be
       0.3375119 -0.093820885 -0.23974575 -0.21122354
0001c0 2b a8 07 be d3 90 c3 bc 6e 86 62 3c ac 28 b0 3e
       -0.13247745 -0.023872769 0.013825996 0.3440603
0001d0 9b 48 f7 3d 61 01 8e 3e 7c 0d 05 3f b8 81 0b bd
       0.12074395 0.27735427 0.519737 -0.034059256
0001e0 93 05 84 be 0a cb c0 be b8 15 f8 bc d4 65 e7 bd
       -0.25785503 -0.37654907 -0.030283794 -0.11298719
0001f0 8e f8 ea 3c 0e 8e f5 3d 3c 67 4f 3e 20 e6 9c 3e
       0.028682973 0.119899854 0.20254225 0.3064432
000200 74 a3 1e 3e 15 a8 0a bc a2 09 8c be 98 9e b9 be
       0.1549204 -0.008462925 -0.273511 -0.3625381
000210 01 a9 f8 3e bd ad 22 3e a6 f3 c2 3d e8 41 92 bd
       0.4856644 0.15886588 0.095191285 -0.07141477
000220 59 92 25 be d4 9f b2 3d 11 b4 0a be 96 bd 01 3c
       -0.16169108 0.08721891 -0.13545252 0.007918736
000230 cb 68 85 3e 07 82 5c 3f 0d 78 1e bd 63 1d 18 be
       0.26056513 0.86135906 -0.038688708 -0.1485496
000240 93 67 0b 3d 17 07 07 3d 67 19 a9 be 19 2a a5 be
       0.034034323 0.032965746 -0.33027193 -0.3225868
000250 9a 9e e9 be 76 de b6 bd c8 7c a6 be 52 0f e6 bd
       -0.45628816 -0.0892915 -0.32517076 -0.11233391
000260 e8 bc a5 3e d4 42 21 3e a5 4d 8f 3d 75 0d 88 3d
       0.32370687 0.15748149 0.069972314 0.06643192
000270 ce 3f 24 bf 6a af 16 bd e4 fe 0d 3e 5d 40 4c 3d
       -0.6415986 -0.03678838 0.13866764 0.04986607
000280 70 bb 44 bc f3 af c3 be 65 42 cd 3e 3f c7 cd be
       -0.012007579 -0.38220176 0.40089718 -0.40191075
000290 7d d6 76 bd 72 3f 81 3b 57 a8 3a be c4 4d 36 3e
       -0.060263146 0.003944331 -0.18228279 0.17803103
0002a0 2e 69 2b 3d a1 89 d2 3b e7 bb 10 bf 86 ca c6 3c
       0.041848354 0.006425098 -0.56536716 0.024266493
0002b0 6f 47 d0 3e d4 5e c4 3d 0e 0b 12 3d b2 d3 af 3e
       0.406795 0.095883995 0.035655074 0.34341198
0002c0 63 3e 6a 3f c6 43 c5 3d 28 74 74 3d 1c eb 34 3d
       0.91501445 0.096320674 0.059681088 0.04416953
0002d0 6e 49 cd bd e8 6e 8f 3d 50 57 6c 3d 1c 41 e5 be
       -0.10023771 0.070035756 0.057700455 -0.44776237
0002e0 86 c9 4a bc 28 d0 f3 3e a9 7e 0e bd 79 e2 0d bf
       -0.0123771485 0.47619748 -0.03478876 -0.55423695
0002f0 f3 26 de be c9 b4 b0 bd 83 92 68 3e 7b 48 25 3f
       -0.4338909 -0.08628232 0.2271214 0.6456372
000300 b2 a8 fa bd 34 87 d5 3b 84 70 09 3d 16 31 80 3d
       -0.12239207 0.0065163616 0.03355457 0.062593624
000310 59 1d 95 3e e8 ea 2f 3d cc 19 52 bd a8 5e c2 bc
       0.29123953 0.042948633 -0.051294133 -0.023726776
000320 b6 8e ce be b4 68 63 be 22 88 43 3e ab 87 42 3e
       -0.40343255 -0.2220791 0.190949 0.18997066
000330 61 8b dc 3c 57 a0 e7 be 8c 10 57 be cc d0 02 3e
       0.02692193 -0.45239517 -0.21002406 0.12774962
000340 ec 37 5a 3e 72 ec 39 ba e2 bb 14 3e 20 84 bb bd
       0.21310395 -0.0007092423 0.14524797 -0.0915606
000350 c4 7e db be f7 04 68 be 88 0d b3 bd 34 1c 43 be
       -0.42870152 -0.22658144 -0.08742815 -0.19053727
000360 d3 48 4f 3c f2 b2 1f be e5 88 96 3e 72 c6 10 3c
       0.01265164 -0.15595606 0.29401317 0.008836376
000370 3b ea 73 3e 05 1c 43 3e 28 1d 0b bd 32 66 7f be
       0.2381982 0.19053657 -0.033963352 -0.24941328
000380 79 7b 23 bc aa a9 3d 3d b2 7d 4b 3e c7 73 9a 3e
       -0.009978169 0.046304382 0.19872168 0.30166456
000390 66 d9 a3 3e d0 df c0 3d 97 e9 08 3e 05 9e 1f bd
       0.320018 0.09417689 0.13370357 -0.03896906
0003a0 3c 11 8c be 7f 85 c0 be a0 0d a4 bc ea 8a 26 3d
       -0.273569 -0.3760185 -0.020026028 0.040659823
0003b0 0c 6c 8f 3e 93 51 0b 3d bd 09 cc be a8 55 da bc
       0.2801212 0.034013342 -0.3985118 -0.026652172
0003c0 e9 50 f9 be 82 74 6c 3e 7a 57 29 3f bd 56 8e bc
       -0.48694542 0.23091319 0.66149104 -0.017375344
0003d0 e4 b7 df bd 2f 2d 8a bd 6d 6b d0 be d6 cc 31 be
       -0.10923746 -0.06746899 -0.4070696 -0.17363295
0003e0 b9 87 70 bc 49 25 1c 3d 1c 3e cb 3e c4 65 14 3f
       -0.014680796 0.038121495 0.39695823 0.5796778
0003f0 4b 1b de bd d8 37 8e 3d a3 ba 96 bd f3 14 2c 3e
       -0.108450495 0.06944245 -0.07359817 0.16804866

net.0.bias f4 [80]
000000 e3 ca 2a 3d 44 2b 11 3e ca 00 b8 bd 97 d4 60 3e
       0.041697394 0.14176661 -0.089845255 0.21956097
000010 0c 9c 3b 3e 31 1d 14 3e 37 87 92 3e 3d 5a 96 bd
       0.18321246 0.1446426 0.28618786 -0.0734143
000020 14 3d 86 bd b5 78 98 3d 76 d2 2c be ab 21 9a be
       -0.065546185 0.07444898 -0.1687716 -0.30103812
000030 f9 e5 2a 3e a1 f2 7a 3e 97 50 4c 3e 7a bd ff bd
       0.1668929 0.24506618 0.19952618 -0.12487312
000040 64 e2 e0 3c c0 47 21 3e 34 b3 c9 3d 8a 9a 32 3e
       0.027451701 0.15750027 0.098486334 0.17441764
000050 ac 5f 44 bc a3 a0 7f 3b fe d2 8e 3e 3f 72 03 be
       -0.011985701 0.003900566 0.2789535 -0.1283655
000060 76 8a 57 3e 81 a6 fc bd bc c3 64 3e 5f e3 f0 3e
       0.21048912 -0.123364456 0.22340292 0.4704847
000070 a2 c2 40 bd 74 d2 20 be ff 6b 92 bc 68 df 4c be
       -0.047060616 -0.15705281 -0.017873762 -0.20007098
000080 ca d8 20 bd 43 0d b2 be cb 3f 2c 3e 57 b7 46 bd
       -0.039269246 -0.34775743 0.1682121 -0.04851469
000090 d3 37 32 be 46 55 47 be 2f 6d d2 bc 74 f5 7b be
       -0.17404108 -0.19466123 -0.025686828 -0.24605352
0000a0 81 1f 27 be f1 a0 34 3e 25 c5 de bd 57 09 1e 3e
       -0.16320612 0.1763952 -0.10877446 0.1543325
0000b0 68 bb 95 be 2b e9 ab 3d b5 0c af be f6 69 a2 be
       -0.29244542 0.08394083 -0.34189382 -0.31721467
0000c0 f8 7a 22 3f e8 f2 71 3e fa 5a 43 3e ae 07 91 be
       0.63468885 0.23627818 0.19077674 -0.28326172
0000d0 11 cf 7f be 5a e5 fd bd 74 c9 4a be 3f d9 42 3b
       -0.24981333 -0.12397261 -0.19803411 0.002973154
0000e0 13 3a 6c 3e 8f e7 4f be 86 17 c3 be a8 74 03 3c
       0.23069029 -0.20303176 -0.38103884 0.0080234185
0000f0 83 10 90 3e cf 20 82 be 27 d8 78 bd 0f 5f 1b 3b
       0.28137597 -0.25415656 -0.060753014 0.0023707782
000100 37 f6 76 bd 1e a3 44 be ce df 47 3e 84 bc 8d 3e
       -0.060293403 -0.1920285 0.19518968 0.27682889
000110 d4 21 87 3e bc 5f 39 3c 22 2d 56 be 83 bf 29 bb
       0.26392996 0.011314329 -0.20915654 -0.0025901503
000120 bc af 78 be 3f 62 c4 bd b6 c8 42 3e 44 84 94 3e
       -0.24285787 -0.095890515 0.19021878 0.2900716
000130 07 36 31 3e 9c 2d 39 bd f5 22 0d bf e5 da 32 3e
       0.17305766 -0.045209512 -0.55131465 0.17466314

net.2.weight f4 [80, 80]
000000 a4 44 e6 be b1 e7 12 3e 81 28 b1 3e b9 ad b7 bd
       -0.44974244 0.14346196 0.34601215 -0.08968682
000010 28 86 48 3e 6f b2 9a be 04 e4 a2 3d c9 1c 2e 3e
       0.19582427 -0.3021426 0.07953647 0.17003168
000020 ff 63 42 3e fc f9 28 3e d8 e1 c3 bd ae fb 71 3e
       0.18983458 0.16501611 -0.09564561 0.23631164
000030 bb fb 21 be dd de 56 be 5b 67 23 3e 56 49 a5 bd
       -0.15818684 -0.20983453 0.15957396 -0.08070628
000040 5c 95 c5 bc c8 32 45 3d 37 32 7c be 54 dd a0 bd
       -0.024119072 0.048144132 -0.2462853 -0.07854715
000050 5c f5 76 be 29 01 90 be a3 d4 52 be 55 75 5c bd
       -0.24117035 -0.28125885 -0.20588927 -0.053822834
000060 07 da b3 3d 1b 4a 38 3e 9f dd 9d 3e 9b 70 0f be
       0.0878182 0.17997019 0.30833146 -0.140078
000070 03 08 a9 3e f2 17 17 be 7c a4 e3 3d 8d 0c 4b bd
       0.33013925 -0.14755228 0.11115357 -0.049572516
000080 0e 2a f0 bd 33 9f 01 3e 77 22 69 3d 0f 5a 6c 3d
       -0.11726771 0.12658386 0.056917634 0.057703074
000090 60 9c 4c 3e bb d1 d9 bd 80 f1 af 3e 36 b9 81 3e
       0.19981527 -0.10635706 0.34363937 0.25336617
0000a0 23 87 0c 3e ee e4 1f bd 0c 83 54 bd 72 ba 64 3e
       0.13723426 -0.039036684 -0.05188279 0.22336748
0000b0 29 a2 33 3e 35 b3 3e 3e 8e 5b c0 3d ac 8e 53 bd
       0.17542328 0.1862305 0.09392463 -0.051649734
0000c0 e9 8d 89 be d2 f4 f5 bd bc 28 ea bd 7d 09 8e 3e
       -0.2686608 -0.120095864 -0.11433551 0.27741614
0000d0 32 23 b8 3d 69 a8 9e be 75 74 b2 3d d6 a7 da bd
       0.08991088 -0.30987862 0.08713619 -0.106765434
0000e0 f2 05 c4 bc 2c ba 8f 3e 0c 73 38 3e f3 58 87 be
       -0.023928616 0.28071725 0.18012637 -0.2643505
0000f0 21 3a 46 3d 14 bd f4 3d 36 e3 bc be 50 06 95 3e
       0.04839528 0.11950126 -0.36892098 0.2910638
000100 d2 1b cd bd bb 08 b3 bc ab a9 e3 3d d0 16 af bc
       -0.10015072 -0.021854749 0.11116346 -0.021373183
000110 30 d3 33 bd c9 3b 9e be 87 1e c5 3c 3f 45 61 bc
       -0.043902576 -0.30904987 0.024062408 -0.01374942
000120 43 ab 3d 3e f0 67 53 be 02 b7 21 3e de 34 ff bd
       0.18522362 -0.20645118 0.15792468 -0.124612555
000130 29 0a 67 3e 3d 1e 31 be 10 bb da 3d 34 f9 0a be
       0.2256247 -0.17296691 0.106802106 -0.13571626
000140 89 07 08 be 09 80 a3 bd 4b af 1a 3e cc cf fb be
       -0.13284124 -0.07983405 0.15105931 -0.49181974
000150 43 5f 94 3c 36 13 00 3d 86 6f 74 be 81 2f 43 3c
       0.01811183 0.03126832 -0.23870668 0.011913181
000160 a4 fe f6 bd 3f e1 77 be 86 19 05 3e 21 1c 74 3e
       -0.120602876 -0.24207018 0.12998018 0.23838855
000170 a5 14 f0 bc b7 7b 23 be 72 a5 92 3c 09 22 46 3d
       -0.02930672 -0.15965162 0.017901156 0.048372302
000180 0e c2 a5 bd 60 e4 97 be 5d 28 33 3e 0a 81 95 be
       -0.080936536 -0.29666424 0.17495866 -0.29200011
000190 12 e5 9f 3d 5c bf 16 be 72 58 8d bd e3 3a 40 3e
       0.078073636 -0.14721435 -0.06901635 0.18772464
0001a0 53 20 a5 bd 40 be 75 3e 9a a5 99 3d 9c 77 a7 3c
       -0.08062806 0.23998356 0.07502289 0.020442776
0001b0 ed e8 68 bd fa 71 84 3d 5b 63 4d 3e 98 84 15 bd
       -0.05686276 0.06467052 0.20057432 -0.036503404
0001c0 08 ed 7c bd 02 46 8a 3e 96 11 2a 3e 70 20 ce 3c
       -0.061749488 0.27006537 0.16608271 0.025161952
0001d0 36 45 1b 3d ba c6 38 be af 3a 95 bd 1a d8 be 3d
       0.0379078 -0.18044558 -0.07286584 0.09318562
0001e0 10 e2 2f 3e 79 18 f7 3d 1f 55 b0 bd 42 70 50 be
       0.1717608 0.12065215 -0.086099856 -0.20355323
0001f0 d7 40 8e 3d 36 3e a8 3c c3 0d 35 be 1b 4c c6 3e
       0.06945961 0.020537477 -0.17681031 0.3872994
000200 da f6 35 3d 3e 08 a0 bd 1e 90 7a bc ee 04 18 3d
       0.04442487 -0.07814072 -0.015293149 0.037114076
000210 f5 0e 89 3e e4 4b ba 3d aa bc 43 3d 22 80 86 bc
       0.26769224 0.09096506 0.047787346 -0.01641852
000220 32 b8 8c be d4 d6 36 3e ea d1 0a 3e 6c d5 a0 be
       -0.2748428 0.17855388 0.13556638 -0.31412828
000230 52 a8 52 be 90 4b ed 3c fb 4d ae bd 29 96 05 3e
       -0.20572022 0.028966695 -0.08510967 0.13045563
000240 ab 6d a2 bd 64 af 35 be 8a 1d 09 3e 51 58 d5 bd
       -0.07931074 -0.17742687 0.13390175 -0.10417236
000250 ee 08 98 bd 26 26 39 3e bb ff 99 3c b7 68 5c bd
       -0.07423578 0.18080959 0.0187987 -0.0538108
000260 07 14 92 3e 40 ea 5d 3c b8 cd 23 3d 58 04 30 3c
       0.28530905 0.013544619 0.03999111 0.010743223
000270 be 0e cb 3b 67 bb d3 bd 9e 8c ed 3d 2d 14 66 be
       0.0061968258 -0.103384785 0.11599086 -0.22468634
000280 ea df 8f be 3c 90 1f bd d2 aa 8b 3e ec 7c 06 3f
       -0.2810052 -0.038955912 0.27278763 0.52534366
000290 44 3a c4 3e da fb 96 bd 4f 09 4e 3e ba 16 46 3d
       0.38325703 -0.073722556 0.20120738 0.048361517
0002a0 a3 cb dc bd 9e 15 dc bd f9 80 83 be 12 de 85 3d
       -0.10781028 -0.10746311 -0.25684336 0.06536497
0002b0 5c 0e e8 bc 8a 6b a5 b8 ed dc 0a 3e c6 84 ef 3e
       -0.02832716 -7.887844e-05 0.13560839 0.46780986
0002c0 b1 21 30 3e bd 7e 88 3e dc 96 9c bd 15 9b e4 3e
       0.17200352 0.26659194 -0.07645962 0.44649568
0002d0 80 86 14 be ae 73 b6 be b1 3c 74 be 58 6f dd bd
       -0.14504433 -0.35635132 -0.23851277 -0.10812253
0002e0 4f 6f c4 be 02 a5 81 3e fa a9 e3 be cb 8c 22 3e
       -0.38366172 0.25321203 -0.4446562 0.15874021
0002f0 25 2f c6 3d 40 48 ee 3d fa 4d d5 be 09 86 7b bd
       0.09676961 0.11634874 -0.41661054 -0.061407123
000300 40 6f d6 be c2 32 c8 bd 35 91 35 be 37 3c 9c 3e
       -0.41881752 -0.09775306 -0.17731173 0.3051469
000310 71 c7 8b 3e b6 52 f4 3e 23 c5 1b 3e 65 ac cc 3e
       0.273006 0.47719353 0.1521192 0.39975277
000320 ff 5b eb be 9e a4 ad be 8c 64 07 3e cb c4 b5 bd
       -0.45968625 -0.33914655 0.1322195 -0.08875426
000330 35 a0 92 3e f8 80 93 be 8c 1d 15 3c 6d bd 5f 3e
       0.28637853 -0.28809333 0.009101283 0.21849604
000340 5e 8d 1c be cd 0f 56 be 04 55 6b 3e a4 df 8b be
       -0.15288302 -0.20904465 0.2298165 -0.27319062
000350 f7 96 47 3d b7 8d e4 3d c3 7b a7 3e e7 e2 e4 3e
       0.048727956 0.111598425 0.3271161 0.44704363
000360 24 72 cd 3a 5b 9c bd be 1c 0a f7 3d 4a 89 aa bd
       0.0015674275 -0.37033352 0.12062475 -0.08326967
000370 0d f5 d6 3e 56 1d 89 3b c6 3d 67 be 11 81 9f 3e
       0.41983834 0.0041844053 -0.22582158 0.31153157
000380 f7 32 68 3e cc 0d 83 3e 31 3b 0e 3e 9f 6d e7 3c
       0.22675692 0.25596464 0.13889767 0.028250514
000390 68 d2 b2 3e 7b c2 27 be cf ab a9 be a5 d0 55 3e
       0.34926152 -0.16382782 -0.33138892 0.20880373
0003a0 83 29 03 be cf bf 90 be bb 2e de 3d 20 e1 87 3d
       -0.12808804 -0.28271338 0.10848757 0.06634736
0003b0 b2 1f cb 3e 6e d7 e3 bd 7c 83 50 3e 35 5f ea 3e
       0.3967262 -0.11125074 0.20362657 0.45775762
0003c0 51 bd 86 3e a0 5c 53 be b3 be 10 be da fb 87 3e
       0.26316312 -0.20640802 -0.14135246 0.26559335
0003d0 66 43 90 bd ee 87 a9 3e bc 3a 86 3e 02 22 26 3d
       -0.07044105 0.3311152 0.26216686 0.040559776
0003e0 fc 8f f9 bd 27 70 51 3e 3b 6f 91 3d 19 35 6f 3d
       -0.12185666 0.20452939 0.07101294 0.058400247
0003f0 9f f8 73 be cd dc 3b 3e 8a 78 5d 3c 48 13 19 3e
       -0.2382531 0.18345948 0.013517508 0.14948761

net.2.bias f4 [80]
000000 9d 63 10 3c d4 e8 cf bd cd 98 29 3d d0 3e 96 3d
       0.008812812 -0.1015183 0.041405488 0.07336199
000010 f8 4a f8 bd 64 31 c5 bd a6 b4 06 3e 2b 86 e6 bd
       -0.12123674 -0.09628561 0.1315485 -0.11256059
000020 86 15 0e be 78 43 3d be 77 a5 9a 3d 08 49 95 bb
       -0.13875398 -0.18482769 0.07551091 -0.004555825
000030 ab c4 0a be 0a b4 9f 3d 3a 89 25 be 9c 93 c1 3d
       -0.13551585 0.077980116 -0.16165629 0.094519824
000040 66 36 08 be aa cd 3c 3b 82 ad a3 3d 80 c2 3d be
       -0.13302001 0.0028809109 0.07992078 -0.18531227
000050 ca 04 58 3d b2 a0 52 3e ce a1 17 3e 85 e2 0c be
       0.052738942 0.20569113 0.14807817 -0.13758285
000060 37 ec 91 be 2b e0 3d 3e 62 00 57 bd c0 ba a5 3d
       -0.2850053 0.18542545 -0.0524906 0.0809226
000070 49 e1 c1 3d 55 4e 26 be aa b7 e8 3d e4 db 50 3e
       0.09466798 -0.16240819 0.11363156 0.20396382
000080 78 c5 b8 be 95 53 14 be f1 e5 20 be 90 f1 4f bc
       -0.36088157 -0.14485009 -0.15712716 -0.01269187
000090 03 e1 e6 bd 33 98 27 3e c6 4a 16 be d9 54 00 3e
       -0.11273386 0.16366653 -0.14676961 0.12532367
0000a0 8f 71 60 3d eb a0 a4 3c c5 63 82 3e 38 3f 85 3b
       0.054795798 0.020096263 0.25466743 0.004066374
0000b0 c9 2e 15 3d 94 77 ff bd 5c 27 18 3e c3 53 ef bd
       0.03642157 -0.124739796 0.14858764 -0.11685898
0000c0 23 03 76 3d 5f 13 21 be de 42 ca 3d 28 01 e3 3d
       0.060061585 -0.15730046 0.09876035 0.11084205
0000d0 c4 1e fa bd e7 ce 56 3e c1 98 02 3e 55 9e 12 3e
       -0.12212899 0.20977364 0.12753583 0.14318211
0000e0 50 61 ed bd 79 86 08 3e 52 7f 9a bc be 42 01 3e
       -0.115908265 0.13332547 -0.01885954 0.12623116
0000f0 c1 c4 7f be 60 c8 cf 3d 5d f8 59 3d ce 40 32 be
       -0.249774 0.101456404 0.053215373 -0.17407534
000100 01 6b f9 3d 70 4c 61 3e 5e d8 6f 3e 80 c3 09 3e
       0.121786125 0.22001815 0.23422381 0.13453484
000110 2a ab 7d 3d 07 6c fb 3d c5 e6 af 3d 5b d5 28 3e
       0.061930813 0.12276464 0.08588938 0.16487639
000120 20 e6 c9 3d 3e f1 f5 bd 3d fc e5 3d 2b d6 10 be
       0.09858346 -0.12008904 0.11229751 -0.14144199
000130 f5 01 cb 3d 26 e7 4d 3e a4 3a 69 bc dc 37 b3 3d
       0.09912483 0.20107707 -0.014235172 0.08750889

out_mean.weight f4 [1, 80]
000000 d1 d5 2c be 2f 9a 8d be 66 34 0d 3e 51 fe d1 3c
       -0.1687844 -0.27656695 0.1378952 0.025633963
000010 47 1f d2 bd fe 09 54 bd c5 10 a9 bd 12 92 ed bd
       -0.10259872 -0.05176734 -0.08255152 -0.11600126
000020 c5 b3 cc bd 48 6e 0f 3e 01 b7 39 3e 1f 44 8a be
       -0.09995226 0.14006913 0.18136217 -0.27005097
000030 11 86 29 be 82 2c bc 3d db 47 c5 3d e1 30 15 3d
       -0.16555049 0.09188177 0.09632846 0.036423568
000040 72 07 d8 3d f5 b3 0e be b3 2a 82 3d 9e 14 ff 3d
       0.10548295 -0.13935836 0.063558005 0.12455104
000050 45 1b 84 3c a7 8d 3d be 5c 13 27 be 06 f4 83 3c
       0.016126284 -0.18511067 -0.16315979 0.01610757
000060 70 c2 b0 bc eb c2 9b bd 61 ab 0f 3e 42 bc a6 3c
       -0.02157709 -0.07605537 0.1403022 0.02035344
000070 d0 27 8b bd 50 24 9d 3d 53 4d f1 3d fd f9 8b 3d
       -0.06794703 0.07672942 0.117823265 0.06834791
000080 ac ad 07 3d eb 28 9b bd c3 f2 a1 bd 71 d4 9d 3b
       0.03312461 -0.07576164 -0.07907631 0.0048165848
000090 ac 5b 09 3e e9 8b 5f 3d 42 9f 21 be d6 40 81 3d
       0.13413876 0.054576788 -0.15783408 0.063111946
0000a0 b4 78 bc bd 30 ec 8d bd ec 35 08 be 47 1e 12 bd
       -0.0920271 -0.06929815 -0.1330182 -0.035673406
0000b0 2d 66 f0 3d b3 5f ba bd 12 23 a4 3d 3c 1d ff 3d
       0.117382385 -0.091002844 0.08014502 0.12456748
0000c0 8f 37 fe bd 8f 02 1d bd ae 6a ab bb d4 1e c2 bd
       -0.12412941 -0.03833252 -0.005231223 -0.09478536
0000d0 cc c9 e4 3c 13 a0 f4 bd 2e a6 c2 3d db 2f e4 bd
       0.027928255 -0.11944594 0.095043525 -0.1114194
0000e0 27 96 db bc 24 42 29 3c 25 13 86 bd cd dc 24 3d
       -0.026804997 0.010330711 -0.0654662 0.040249635
0000f0 66 0e e9 3d df ec 65 3d 89 67 53 3e 2b a9 8c bd
       0.113796994 0.0561341 0.20644964 -0.06868204
000100 78 be e9 3b 3b 82 ff bd af ad d2 bd e2 88 29 3e
       0.0071333013 -0.12476011 -0.10287034 0.16556123
000110 02 b3 fe bd 04 1b 7f bd 4b 75 97 3e c0 a1 f1 3d
       -0.12436487 -0.062281623 0.29581675 0.117984295
000120 98 70 c2 bd ad 31 3d 3d 99 19 9e bd 96 d3 12 3e
       -0.09494132 0.046189953 -0.07719726 0.14338526
000130 9a c9 e2 3d ac e2 f9 3c e9 f6 59 be ab a4 a2 3d
       0.11073609 0.030503593 -0.21285595 0.07941564

out_value.weight f4 [1, 80]
000000 6e 6f 01 3e 9e 84 9b be 26 56 85 3f fc e1 86 3f
       0.12640163 -0.30374616 1.0416915 1.0537715
000010 c2 d7 8b bf 58 0a 8a bf be 99 04 3f 9a b2 87 bf
       -1.0925219 -1.0784407 0.5179709 -1.060138
000020 6b e8 70 bf f3 93 86 bf e4 9c 25 3f b4 3e 9b be
       -0.9410464 -1.05139 0.6469252 -0.30321276
000030 84 ab 8a bf 37 30 3a 3f 3c 8e 92 bf a8 27 5b 3f
       -1.0833592 0.7272982 -1.1449656 0.85607386
000040 a8 39 89 bf 88 ed 6c 3f 97 f4 94 3f 26 28 34 bf
       -1.072072 0.92549944 1.1637143 -0.7037376
000050 4d 01 84 3f 37 cf 42 3f ce 7c a2 3f 46 4d 59 bf
       1.0312897 0.76097435 1.2694337 -0.84883535
000060 96 3d 24 bf 96 6b 22 3f fe 26 87 3f 8b 35 5c 3f
       -0.6415647 0.63445413 1.0558774 0.860192
000070 c4 98 8e 3f 4d ea 1e bf 4c ad 56 3f 45 7b 80 3f
       1.114037 -0.62076265 0.8385818 1.0037619
000080 33 10 59 bf 57 4d 66 bf b5 55 6c bf 76 c1 5c bf
       -0.84790343 -0.8996176 -0.9231828 -0.862327
000090 fd c1 81 3f 6b 29 26 3f 19 be 6e bf c2 6d e0 3e
       1.0137326 0.6490695 -0.93258816 0.4383374
0000a0 fb 3f 3e 3f 27 14 92 3f 22 86 85 3f fb 15 ef 3d
       0.74316376 1.14124 1.0431559 0.11674114
0000b0 71 18 82 bf ba d0 9f bf 64 fc 60 3f e3 da d2 be
       -1.0163709 -1.2485573 0.8788512 -0.41182622
0000c0 3f a5 8a bf 14 ed 5c bf 56 11 74 bf 01 cd 7f 3f
       -1.0831679 -0.8629925 -0.9533895 0.99922186
0000d0 bb 13 7b bf e9 8c 67 3f 14 e8 55 3f d9 74 2e 3f
       -0.9807698 0.90449387 0.8355725 0.68147045
0000e0 4f 2b 91 bf a0 cf 52 3f cc 9a 34 3e c7 47 0c 3f
       -1.1341342 0.8234806 0.17637175 0.54797024
0000f0 07 94 4e bf 0e d4 44 3f eb b7 88 bf d7 a4 f8 be
       -0.8069462 0.7688607 -1.0681127 -0.48563263
000100 f9 b0 62 3f 36 6c 39 3f 72 c0 3e 3f 11 f2 77 3f
       0.8855129 0.7243074 0.745124 0.9685374
000110 7b a8 3c 3f 61 c8 4d 3f ae 99 c9 3e 57 8e 3f 3f
       0.7369458 0.8038388 0.3937506 0.7482657
000120 5e 44 89 3f fc bc 50 bf f5 59 9b 3f b4 f1 71 bf
       1.0723989 -0.8153837 1.2136828 -0.94509435
000130 dd f3 72 3f dd 86 59 3f 6a 1d 81 3d cc 2c 8e 3f
       0.94903356 0.8497141 0.063044384 1.1107421

weight f4 [80, 5]
000000 8d bf 8e bd b2 8e fd be 7f 8d e2 bd a1 dd 46 be
       -0.06970129 -0.4952293 -0.110621445 -0.19420482
000010 6b 5d 6e 3c 3f 9c 89 be 7a 38 67 3e e2 d3 c1 3e
       0.01454864 -0.2687702 0.22580138 0.37856966
000020 1c f3 52 3e 48 5c a9 3d 8d 15 32 3e bc e5 0d 3f
       0.20600551 0.082695544 0.17391033 0.5542867
000030 70 ae 49 3e 18 96 5a be c0 57 01 bd 29 48 00 3e
       0.19695449 -0.21346319 -0.031577826 0.12527527
000040 80 62 5a 3e 2a 96 52 be 74 a1 e4 3d e9 eb b6 bc
       0.21326637 -0.20565096 0.11163607 -0.022329288
000050 71 f9 a0 bc b3 3e 27 3f ed 71 38 bd f3 cd 90 bd
       -0.019650193 0.65330046 -0.045030523 -0.07070532
000060 60 d2 80 bd 73 7c 27 be be 64 c3 be b5 17 35 be
       -0.06290126 -0.16356067 -0.38162798 -0.17684825
000070 e8 a2 a4 3d 7f 95 3e 3d a0 b5 ac 3d 07 a4 d9 3e
       0.080388844 0.04652929 0.0843308 0.42507955
000080 db c8 18 be 06 14 4d 3e 53 5a b9 bc 27 c9 b2 3e
       -0.1492037 0.2002717 -0.022626078 0.34919092
000090 5b 24 b4 3d 40 04 b2 3c 2b 1b 85 3d f7 c2 1f 3d
       0.08795997 0.021730542 0.064993225 0.039004292
0000a0 2e ab b2 be 50 d8 f5 3d 11 4f 83 be 31 88 f9 3e
       -0.34896225 0.12004149 -0.2564626 0.48736718
0000b0 7b cf 5a 3d 46 41 83 be cc 3c 52 bd 34 be c9 be
       0.053420525 -0.25635737 -0.05132751 -0.39402926
0000c0 56 f7 67 3e 56 41 83 3d 4e a4 4c be c8 bf 27 be
       0.22652945 0.06408946 -0.19984552 -0.16381752
0000d0 c0 cf ef 3d f2 c6 de 3d c0 ea 6f 38 fa 0c 85 3d
       0.11709547 0.108777896 5.720067e-05 0.06496616
0000e0 b9 91 d4 3b 7a 78 46 3d 85 f7 54 be 74 be 71 bb
       0.006487098 0.04845474 -0.20797546 -0.00368872
0000f0 0e 47 c6 be 98 55 2b be 74 1c b3 3e a2 5c cc bd
       -0.38726085 -0.1673187 0.34982646 -0.09978606
000100 d3 2b 97 bd cc 1c 9c 3d 42 8f 4a be 13 91 ef bd
       -0.07381406 0.0762268 -0.19781211 -0.116975926
000110 3a c5 aa 3d cf 0e 8b 3c bb bc cc bb 3f dd 2b 3e
       0.08338399 0.016974835 -0.0062480844 0.16783617
000120 94 d1 7f bd 03 77 ce 3d 7c 55 3e bc 31 d4 df 3d
       -0.06245573 0.100812934 -0.011617061 0.10929144
000130 f6 dc 11 3f 53 77 5a be b8 80 13 bf 30 98 f9 bd
       0.56977785 -0.21334581 -0.57618284 -0.121872306
000140 ee 82 ab 3c 89 05 eb bd 6a b2 a4 be c5 31 f5 be
       0.020936456 -0.11475665 -0.3216737 -0.47889534
000150 2f 2a 90 bd 02 d3 68 3c 65 cd d6 3e 11 e1 85 be
       -0.07039296 0.014210464 0.4195358 -0.26148275
000160 c8 e9 30 3e 0e 59 97 bd 80 43 58 bd 42 93 af be
       0.1727668 -0.07390033 -0.052798748 -0.34292036
000170 6d 16 a1 3e 57 a8 8e 3d 20 8f a4 bd 0d f6 aa be
       0.31462422 0.06965702 -0.080351114 -0.33390847
000180 81 9d 99 3d 69 91 67 be 41 54 df be 6e 7d 0e bd
       0.075007446 -0.22614063 -0.43618968 -0.034787588
000190 37 80 81 3e 2e d5 28 be 5f 98 9e 3e 82 70 23 3e
       0.25293133 -0.16487572 0.30975625 0.15960887
0001a0 fd cc 8a bd 9a b8 b4 be 83 fb ac bf 4f c7 22 3d
       -0.0677738 -0.3529709 -1.3514255 0.039740857
0001b0 5c ce ac 3e 2a 25 c0 bd e9 7f 75 be fc 4a 58 be
       0.3375119 -0.093820885 -0.23974575 -0.21122354
0001c0 2b a8 07 be d3 90 c3 bc 6e 86 62 3c ac 28 b0 3e
       -0.13247745 -0.023872769 0.013825996 0.3440603
0001d0 9b 48 f7 3d 61 01 8e 3e 7c 0d 05 3f b8 81 0b bd
       0.12074395 0.27735427 0.519737 -0.034059256
0001e0 93 05 84 be 0a cb c0 be b8 15 f8 bc d4 65 e7 bd
       -0.25785503 -0.37654907 -0.030283794 -0.11298719
0001f0 8e f8 ea 3c 0e 8e f5 3d 3c 67 4f 3e 20 e6 9c 3e
       0.028682973 0.119899854 0.20254225 0.3064432
000200 74 a3 1e 3e 15 a8 0a bc a2 09 8c be 98 9e b9 be
       0.1549204 -0.008462925 -0.273511 -0.3625381
000210 01 a9 f8 3e bd ad 22 3e a6 f3 c2 3d e8 41 92 bd
       0.4856644 0.15886588 0.095191285 -0.07141477
000220 59 92 25 be d4 9f b2 3d 11 b4 0a be 96 bd 01 3c
       -0.16169108 0.08721891 -0.13545252 0.007918736
000230 cb 68 85 3e 07 82 5c 3f 0d 78 1e bd 63 1d 18 be
       0.26056513 0.86135906 -0.038688708 -0.1485496
000240 93 67 0b 3d 17 07 07 3d 67 19 a9 be 19 2a a5 be
       0.034034323 0.032965746 -0.33027193 -0.3225868
000250 9a 9e e9 be 76 de b6 bd c8 7c a6 be 52 0f e6 bd
       -0.45628816 -0.0892915 -0.32517076 -0.11233391
000260 e8 bc a5 3e d4 42 21 3e a5 4d 8f 3d 75 0d 88 3d
       0.32370687 0.15748149 0.069972314 0.06643192
000270 ce 3f 24 bf 6a af 16 bd e4 fe 0d 3e 5d 40 4c 3d
       -0.6415986 -0.03678838 0.13866764 0.04986607
000280 70 bb 44 bc f3 af c3 be 65 42 cd 3e 3f c7 cd be
       -0.012007579 -0.38220176 0.40089718 -0.40191075
000290 7d d6 76 bd 72 3f 81 3b 57 a8 3a be c4 4d 36 3e
       -0.060263146 0.003944331 -0.18228279 0.17803103
0002a0 2e 69 2b 3d a1 89 d2 3b e7 bb 10 bf 86 ca c6 3c
       0.041848354 0.006425098 -0.56536716 0.024266493
0002b0 6f 47 d0 3e d4 5e c4 3d 0e 0b 12 3d b2 d3 af 3e
       0.406795 0.095883995 0.035655074 0.34341198
0002c0 63 3e 6a 3f c6 43 c5 3d 28 74 74 3d 1c eb 34 3d
       0.91501445 0.096320674 0.059681088 0.04416953
0002d0 6e 49 cd bd e8 6e 8f 3d 50 57 6c 3d 1c 41 e5 be
       -0.10023771 0.070035756 0.057700455 -0.44776237
0002e0 86 c9 4a bc 28 d0 f3 3e a9 7e 0e bd 79 e2 0d bf
       -0.0123771485 0.47619748 -0.03478876 -0.55423695
0002f0 f3 26 de be c9 b4 b0 bd 83 92 68 3e 7b 48 25 3f
       -0.4338909 -0.08628232 0.2271214 0.6456372
000300 b2 a8 fa bd 34 87 d5 3b 84 70 09 3d 16 31 80 3d
       -0.12239207 0.0065163616 0.03355457 0.062593624
000310 59 1d 95 3e e8 ea 2f 3d cc 19 52 bd a8 5e c2 bc
       0.29123953 0.042948633 -0.051294133 -0.023726776
000320 b6 8e ce be b4 68 63 be 22 88 43 3e ab 87 42 3e
       -0.40343255 -0.2220791 0.190949 0.18997066
000330 61 8b dc 3c 57 a0 e7 be 8c 10 57 be cc d0 02 3e
       0.02692193 -0.45239517 -0.21002406 0.12774962
000340 ec 37 5a 3e 72 ec 39 ba e2 bb 14 3e 20 84 bb bd
       0.21310395 -0.0007092423 0.14524797 -0.0915606
000350 c4 7e db be f7 04 68 be 88 0d b3 bd 34 1c 43 be
       -0.42870152 -0.22658144 -0.08742815 -0.19053727
000360 d3 48 4f 3c f2 b2 1f be e5 88 96 3e 72 c6 10 3c
       0.01265164 -0.15595606 0.29401317 0.008836376
000370 3b ea 73 3e 05 1c 43 3e 28 1d 0b bd 32 66 7f be
       0.2381982 0.19053657 -0.033963352 -0.24941328
000380 79 7b 23 bc aa a9 3d 3d b2 7d 4b 3e c7 73 9a 3e
       -0.009978169 0.046304382 0.19872168 0.30166456
000390 66 d9 a3 3e d0 df c0 3d 97 e9 08 3e 05 9e 1f bd
       0.320018 0.09417689 0.13370357 -0.03896906
0003a0 3c 11 8c be 7f 85 c0 be a0 0d a4 bc ea 8a 26 3d
       -0.273569 -0.3760185 -0.020026028 0.040659823
0003b0 0c 6c 8f 3e 93 51 0b 3d bd 09 cc be a8 55 da bc
       0.2801212 0.034013342 -0.3985118 -0.026652172
0003c0 e9 50 f9 be 82 74 6c 3e 7a 57 29 3f bd 56 8e bc
       -0.48694542 0.23091319 0.66149104 -0.017375344
0003d0 e4 b7 df bd 2f 2d 8a bd 6d 6b d0 be d6 cc 31 be
       -0.10923746 -0.06746899 -0.4070696 -0.17363295
0003e0 b9 87 70 bc 49 25 1c 3d 1c 3e cb 3e c4 65 14 3f
       -0.014680796 0.038121495 0.39695823 0.5796778
0003f0 4b 1b de bd d8 37 8e 3d a3 ba 96 bd f3 14 2c 3e
       -0.108450495 0.06944245 -0.07359817 0.16804866

bias f4 [80]
000000 e3 ca 2a 3d 44 2b 11 3e ca 00 b8 bd 97 d4 60 3e
       0.041697394 0.14176661 -0.089845255 0.21956097
000010 0c 9c 3b 3e 31 1d 14 3e 37 87 92 3e 3d 5a 96 bd
       0.18321246 0.1446426 0.28618786 -0.0734143
000020 14 3d 86 bd b5 78 98 3d 76 d2 2c be ab 21 9a be
       -0.065546185 0.07444898 -0.1687716 -0.30103812
000030 f9 e5 2a 3e a1 f2 7a 3e 97 50 4c 3e 7a bd ff bd
       0.1668929 0.24506618 0.19952618 -0.12487312
000040 64 e2 e0 3c c0 47 21 3e 34 b3 c9 3d 8a 9a 32 3e
       0.027451701 0.15750027 0.098486334 0.17441764
000050 ac 5f 44 bc a3 a0 7f 3b fe d2 8e 3e 3f 72 03 be
       -0.011985701 0.003900566 0.2789535 -0.1283655
000060 76 8a 57 3e 81 a6 fc bd bc c3 64 3e 5f e3 f0 3e
       0.21048912 -0.123364456 0.22340292 0.4704847
000070 a2 c2 40 bd 74 d2 20 be ff 6b 92 bc 68 df 4c be
       -0.047060616 -0.15705281 -0.017873762 -0.20007098
000080 ca d8 20 bd 43 0d b2 be cb 3f 2c 3e 57 b7 46 bd
       -0.039269246 -0.34775743 0.1682121 -0.04851469
000090 d3 37 32 be 46 55 47 be 2f 6d d2 bc 74 f5 7b be
       -0.17404108 -0.19466123 -0.025686828 -0.24605352
0000a0 81 1f 27 be f1 a0 34 3e 25 c5 de bd 57 09 1e 3e
       -0.16320612 0.1763952 -0.10877446 0.1543325
0000b0 68 bb 95 be 2b e9 ab 3d b5 0c af be f6 69 a2 be
       -0.29244542 0.08394083 -0.34189382 -0.31721467
0000c0 f8 7a 22 3f e8 f2 71 3e fa 5a 43 3e ae 07 91 be
       0.63468885 0.23627818 0.19077674 -0.28326172
0000d0 11 cf 7f be 5a e5 fd bd 74 c9 4a be 3f d9 42 3b
       -0.24981333 -0.12397261 -0.19803411 0.002973154
0000e0 13 3a 6c 3e 8f e7 4f be 86 17 c3 be a8 74 03 3c
       0.23069029 -0.20303176 -0.38103884 0.0080234185
0000f0 83 10 90 3e cf 20 82 be 27 d8 78 bd 0f 5f 1b 3b
       0.28137597 -0.25415656 -0.060753014 0.0023707782
000100 37 f6 76 bd 1e a3 44 be ce df 47 3e 84 bc 8d 3e
       -0.060293403 -0.1920285 0.19518968 0.27682889
000110 d4 21 87 3e bc 5f 39 3c 22 2d 56 be 83 bf 29 bb
       0.26392996 0.011314329 -0.20915654 -0.0025901503
000120 bc af 78 be 3f 62 c4 bd b6 c8 42 3e 44 84 94 3e
       -0.24285787 -0.095890515 0.19021878 0.2900716
000130 07 36 31 3e 9c 2d 39 bd f5 22 0d bf e5 da 32 3e
       0.17305766 -0.045209512 -0.55131465 0.17466314

weight f4 [80, 80]
000000 a4 44 e6 be b1 e7 12 3e 81 28 b1 3e b9 ad b7 bd
       -0.44974244 0.14346196 0.34601215 -0.08968682
000010 28 86 48 3e 6f b2 9a be 04 e4 a2 3d c9 1c 2e 3e
       0.19582427 -0.3021426 0.07953647 0.17003168
000020 ff 63 42 3e fc f9 28 3e d8 e1 c3 bd ae fb 71 3e
       0.18983458 0.16501611 -0.09564561 0.23631164
000030 bb fb 21 be dd de 56 be 5b 67 23 3e 56 49 a5 bd
       -0.15818684 -0.20983453 0.15957396 -0.08070628
000040 5c 95 c5 bc c8 32 45 3d 37 32 7c be 54 dd a0 bd
       -0.024119072 0.048144132 -0.2462853 -0.07854715
000050 5c f5 76 be 29 01 90 be a3 d4 52 be 55 75 5c bd
       -0.24117035 -0.28125885 -0.20588927 -0.053822834
000060 07 da b3 3d 1b 4a 38 3e 9f dd 9d 3e 9b 70 0f be
       0.0878182 0.17997019 0.30833146 -0.140078
000070 03 08 a9 3e f2 17 17 be 7c a4 e3 3d 8d 0c 4b bd
       0.33013925 -0.14755228 0.11115357 -0.049572516
000080 0e 2a f0 bd 33 9f 01 3e 77 22 69 3d 0f 5a 6c 3d
       -0.11726771 0.12658386 0.056917634 0.057703074
000090 60 9c 4c 3e bb d1 d9 bd 80 f1 af 3e 36 b9 81 3e
       0.19981527 -0.10635706 0.34363937 0.25336617
0000a0 23 87 0c 3e ee e4 1f bd 0c 83 54 bd 72 ba 64 3e
       0.13723426 -0.039036684 -0.05188279 0.22336748
0000b0 29 a2 33 3e 35 b3 3e 3e 8e 5b c0 3d ac 8e 53 bd
       0.17542328 0.1862305 0.09392463 -0.051649734
0000c0 e9 8d 89 be d2 f4 f5 bd bc 28 ea bd 7d 09 8e 3e
       -0.2686608 -0.120095864 -0.11433551 0.27741614
0000d0 32 23 b8 3d 69 a8 9e be 75 74 b2 3d d6 a7 da bd
       0.08991088 -0.30987862 0.08713619 -0.106765434
0000e0 f2 05 c4 bc 2c ba 8f 3e 0c 73 38 3e f3 58 87 be
       -0.023928616 0.28071725 0.18012637 -0.2643505
0000f0 21 3a 46 3d 14 bd f4 3d 36 e3 bc be 50 06 95 3e
       0.04839528 0.11950126 -0.36892098 0.2910638
000100 d2 1b cd bd bb 08 b3 bc ab a9 e3 3d d0 16 af bc
       -0.10015072 -0.021854749 0.11116346 -0.021373183
000110 30 d3 33 bd c9 3b 9e be 87 1e c5 3c 3f 45 61 bc
       -0.043902576 -0.30904987 0.024062408 -0.01374942
000120 43 ab 3d 3e f0 67 53 be 02 b7 21 3e de 34 ff bd
       0.18522362 -0.20645118 0.15792468 -0.124612555
000130 29 0a 67 3e 3d 1e 31 be 10 bb da 3d 34 f9 0a be
       0.2256247 -0.17296691 0.106802106 -0.13571626
000140 89 07 08 be 09 80 a3 bd 4b af 1a 3e cc cf fb be
       -0.13284124 -0.07983405 0.15105931 -0.49181974
000150 43 5f 94 3c 36 13 00 3d 86 6f 74 be 81 2f 43 3c
       0.01811183 0.03126832 -0.23870668 0.011913181
000160 a4 fe f6 bd 3f e1 77 be 86 19 05 3e 21 1c 74 3e
       -0.120602876 -0.24207018 0.12998018 0.23838855
000170 a5 14 f0 bc b7 7b 23 be 72 a5 92 3c 09 22 46 3d
       -0.02930672 -0.15965162 0.017901156 0.048372302
000180 0e c2 a5 bd 60 e4 97 be 5d 28 33 3e 0a 81 95 be
       -0.080936536 -0.29666424 0.17495866 -0.29200011
000190 12 e5 9f 3d 5c bf 16 be 72 58 8d bd e3 3a 40 3e
       0.078073636 -0.14721435 -0.06901635 0.18772464
0001a0 53 20 a5 bd 40 be 75 3e 9a a5 99 3d 9c 77 a7 3c
       -0.08062806 0.23998356 0.07502289 0.020442776
0001b0 ed e8 68 bd fa 71 84 3d 5b 63 4d 3e 98 84 15 bd
       -0.05686276 0.06467052 0.20057432 -0.036503404
0001c0 08 ed 7c bd 02 46 8a 3e 96 11 2a 3e 70 20 ce 3c
       -0.061749488 0.27006537 0.16608271 0.025161952
0001d0 36 45 1b 3d ba c6 38 be af 3a 95 bd 1a d8 be 3d
       0.0379078 -0.18044558 -0.07286584 0.09318562
0001e0 10 e2 2f 3e 79 18 f7 3d 1f 55 b0 bd 42 70 50 be
       0.1717608 0.12065215 -0.086099856 -0.20355323
0001f0 d7 40 8e 3d 36 3e a8 3c c3 0d 35 be 1b 4c c6 3e
       0.06945961 0.020537477 -0.17681031 0.3872994
000200 da f6 35 3d 3e 08 a0 bd 1e 90 7a bc ee 04 18 3d
       0.04442487 -0.07814072 -0.015293149 0.037114076
000210 f5 0e 89 3e e4 4b ba 3d aa bc 43 3d 22 80 86 bc
       0.26769224 0.09096506 0.047787346 -0.01641852
000220 32 b8 8c be d4 d6 36 3e ea d1 0a 3e 6c d5 a0 be
       -0.2748428 0.17855388 0.13556638 -0.31412828
000230 52 a8 52 be 90 4b ed 3c fb 4d ae bd 29 96 05 3e
       -0.20572022 0.028966695 -0.08510967 0.13045563
000240 ab 6d a2 bd 64 af 35 be 8a 1d 09 3e 51 58 d5 bd
       -0.07931074 -0.17742687 0.13390175 -0.10417236
000250 ee 08 98 bd 26 26 39 3e bb ff 99 3c b7 68 5c bd
       -0.07423578 0.18080959 0.0187987 -0.0538108
000260 07 14 92 3e 40 ea 5d 3c b8 cd 23 3d 58 04 30 3c
       0.28530905 0.013544619 0.03999111 0.010743223
000270 be 0e cb 3b 67 bb d3 bd 9e 8c ed 3d 2d 14 66 be
       0.0061968258 -0.103384785 0.11599086 -0.22468634
000280 ea df 8f be 3c 90 1f bd d2 aa 8b 3e ec 7c 06 3f
       -0.2810052 -0.038955912 0.27278763 0.52534366
000290 44 3a c4 3e da fb 96 bd 4f 09 4e 3e ba 16 46 3d
       0.38325703 -0.073722556 0.20120738 0.048361517
0002a0 a3 cb dc bd 9e 15 dc bd f9 80 83 be 12 de 85 3d
       -0.10781028 -0.10746311 -0.25684336 0.06536497
0002b0 5c 0e e8 bc 8a 6b a5 b8 ed dc 0a 3e c6 84 ef 3e
       -0.02832716 -7.887844e-05 0.13560839 0.46780986
0002c0 b1 21 30 3e bd 7e 88 3e dc 96 9c bd 15 9b e4 3e
       0.17200352 0.26659194 -0.07645962 0.44649568
0002d0 80 86 14 be ae 73 b6 be b1 3c 74 be 58 6f dd bd
       -0.14504433 -0.35635132 -0.23851277 -0.10812253
0002e0 4f 6f c4 be 02 a5 81 3e fa a9 e3 be cb 8c 22 3e
       -0.38366172 0.25321203 -0.4446562 0.15874021
0002f0 25 2f c6 3d 40 48 ee 3d fa 4d d5 be 09 86 7b bd
       0.09676961 0.11634874 -0.41661054 -0.061407123
000300 40 6f d6 be c2 32 c8 bd 35 91 35 be 37 3c 9c 3e
       -0.41881752 -0.09775306 -0.17731173 0.3051469
000310 71 c7 8b 3e b6 52 f4 3e 23 c5 1b 3e 65 ac cc 3e
       0.273006 0.47719353 0.1521192 0.39975277
000320 ff 5b eb be 9e a4 ad be 8c 64 07 3e cb c4 b5 bd
       -0.45968625 -0.33914655 0.1322195 -0.08875426
000330 35 a0 92 3e f8 80 93 be 8c 1d 15 3c 6d bd 5f 3e
       0.28637853 -0.28809333 0.009101283 0.21849604
000340 5e 8d 1c be cd 0f 56 be 04 55 6b 3e a4 df 8b be
       -0.15288302 -0.20904465 0.2298165 -0.27319062
000350 f7 96 47 3d b7 8d e4 3d c3 7b a7 3e e7 e2 e4 3e
       0.048727956 0.111598425 0.3271161 0.44704363
000360 24 72 cd 3a 5b 9c bd be 1c 0a f7 3d 4a 89 aa bd
       0.0015674275 -0.37033352 0.12062475 -0.08326967
000370 0d f5 d6 3e 56 1d 89 3b c6 3d 67 be 11 81 9f 3e
       0.41983834 0.0041844053 -0.22582158 0.31153157
000380 f7 32 68 3e cc 0d 83 3e 31 3b 0e 3e 9f 6d e7 3c
       0.22675692 0.25596464 0.13889767 0.028250514
000390 68 d2 b2 3e 7b c2 27 be cf ab a9 be a5 d0 55 3e
       0.34926152 -0.16382782 -0.33138892 0.20880373
0003a0 83 29 03 be cf bf 90 be bb 2e de 3d 20 e1 87 3d
       -0.12808804 -0.28271338 0.10848757 0.06634736
0003b0 b2 1f cb 3e 6e d7 e3 bd 7c 83 50 3e 35 5f ea 3e
       0.3967262 -0.11125074 0.20362657 0.45775762
0003c0 51 bd 86 3e a0 5c 53 be b3 be 10 be da fb 87 3e
       0.26316312 -0.20640802 -0.14135246 0.26559335
0003d0 66 43 90 bd ee 87 a9 3e bc 3a 86 3e 02 22 26 3d
       -0.07044105 0.3311152 0.26216686 0.040559776
0003e0 fc 8f f9 bd 27 70 51 3e 3b 6f 91 3d 19 35 6f 3d
       -0.12185666 0.20452939 0.07101294 0.058400247
0003f0 9f f8 73 be cd dc 3b 3e 8a 78 5d 3c 48 13 19 3e
       -0.2382531 0.18345948 0.013517508 0.14948761

bias f4 [80]
000000 9d 63 10 3c d4 e8 cf bd cd 98 29 3d d0 3e 96 3d
       0.008812812 -0.1015183 0.041405488 0.07336199
000010 f8 4a f8 bd 64 31 c5 bd a6 b4 06 3e 2b 86 e6 bd
       -0.12123674 -0.09628561 0.1315485 -0.11256059
000020 86 15 0e be 78 43 3d be 77 a5 9a 3d 08 49 95 bb
       -0.13875398 -0.18482769 0.07551091 -0.004555825
000030 ab c4 0a be 0a b4 9f 3d 3a 89 25 be 9c 93 c1 3d
       -0.13551585 0.077980116 -0.16165629 0.094519824
000040 66 36 08 be aa cd 3c 3b 82 ad a3 3d 80 c2 3d be
       -0.13302001 0.0028809109 0.07992078 -0.18531227
000050 ca 04 58 3d b2 a0 52 3e ce a1 17 3e 85 e2 0c be
       0.052738942 0.20569113 0.14807817 -0.13758285
000060 37 ec 91 be 2b e0 3d 3e 62 00 57 bd c0 ba a5 3d
       -0.2850053 0.18542545 -0.0524906 0.0809226
000070 49 e1 c1 3d 55 4e 26 be aa b7 e8 3d e4 db 50 3e
       0.09466798 -0.16240819 0.11363156 0.20396382
000080 78 c5 b8 be 95 53 14 be f1 e5 20 be 90 f1 4f bc
       -0.36088157 -0.14485009 -0.15712716 -0.01269187
000090 03 e1 e6 bd 33 98 27 3e c6 4a 16 be d9 54 00 3e
       -0.11273386 0.16366653 -0.14676961 0.12532367
0000a0 8f 71 60 3d eb a0 a4 3c c5 63 82 3e 38 3f 85 3b
       0.054795798 0.020096263 0.25466743 0.004066374
0000b0 c9 2e 15 3d 94 77 ff bd 5c 27 18 3e c3 53 ef bd
       0.03642157 -0.124739796 0.14858764 -0.11685898
0000c0 23 03 76 3d 5f 13 21 be de 42 ca 3d 28 01 e3 3d
       0.060061585 -0.15730046 0.09876035 0.11084205
0000d0 c4 1e fa bd e7 ce 56 3e c1 98 02 3e 55 9e 12 3e
       -0.12212899 0.20977364 0.12753583 0.14318211
0000e0 50 61 ed bd 79 86 08 3e 52 7f 9a bc be 42 01 3e
       -0.115908265 0.13332547 -0.01885954 0.12623116
0000f0 c1 c4 7f be 60 c8 cf 3d 5d f8 59 3d ce 40 32 be
       -0.249774 0.101456404 0.053215373 -0.17407534
000100 01 6b f9 3d 70 4c 61 3e 5e d8 6f 3e 80 c3 09 3e
       0.121786125 0.22001815 0.23422381 0.13453484
000110 2a ab 7d 3d 07 6c fb 3d c5 e6 af 3d 5b d5 28 3e
       0.061930813 0.12276464 0.08588938 0.16487639
000120 20 e6 c9 3d 3e f1 f5 bd 3d fc e5 3d 2b d6 10 be
       0.09858346 -0.12008904 0.11229751 -0.14144199
000130 f5 01 cb 3d 26 e7 4d 3e a4 3a 69 bc dc 37 b3 3d
       0.09912483 0.20107707 -0.014235172 0.08750889

weight f4 [1, 80]
000000 d1 d5 2c be 2f 9a 8d be 66 34 0d 3e 51 fe d1 3c
       -0.1687844 -0.27656695 0.1378952 0.025633963
000010 47 1f d2 bd fe 09 54 bd c5 10 a9 bd 12 92 ed bd
       -0.10259872 -0.05176734 -0.08255152 -0.11600126
000020 c5 b3 cc bd 48 6e 0f 3e 01 b7 39 3e 1f 44 8a be
       -0.09995226 0.14006913 0.18136217 -0.27005097
000030 11 86 29 be 82 2c bc 3d db 47 c5 3d e1 30 15 3d
       -0.16555049 0.09188177 0.09632846 0.036423568
000040 72 07 d8 3d f5 b3 0e be b3 2a 82 3d 9e 14 ff 3d
       0.10548295 -0.13935836 0.063558005 0.12455104
000050 45 1b 84 3c a7 8d 3d be 5c 13 27 be 06 f4 83 3c
       0.016126284 -0.18511067 -0.16315979 0.01610757
000060 70 c2 b0 bc eb c2 9b bd 61 ab 0f 3e 42 bc a6 3c
       -0.02157709 -0.07605537 0.1403022 0.02035344
000070 d0 27 8b bd 50 24 9d 3d 53 4d f1 3d fd f9 8b 3d
       -0.06794703 0.07672942 0.117823265 0.06834791
000080 ac ad 07 3d eb 28 9b bd c3 f2 a1 bd 71 d4 9d 3b
       0.03312461 -0.07576164 -0.07907631 0.0048165848
000090 ac 5b 09 3e e9 8b 5f 3d 42 9f 21 be d6 40 81 3d
       0.13413876 0.054576788 -0.15783408 0.063111946
0000a0 b4 78 bc bd 30 ec 8d bd ec 35 08 be 47 1e 12 bd
       -0.0920271 -0.06929815 -0.1330182 -0.035673406
0000b0 2d 66 f0 3d b3 5f ba bd 12 23 a4 3d 3c 1d ff 3d
       0.117382385 -0.091002844 0.08014502 0.12456748
0000c0 8f 37 fe bd 8f 02 1d bd ae 6a ab bb d4 1e c2 bd
       -0.12412941 -0.03833252 -0.005231223 -0.09478536
0000d0 cc c9 e4 3c 13 a0 f4 bd 2e a6 c2 3d db 2f e4 bd
       0.027928255 -0.11944594 0.095043525 -0.1114194
0000e0 27 96 db bc 24 42 29 3c 25 13 86 bd cd dc 24 3d
       -0.026804997 0.010330711 -0.0654662 0.040249635
0000f0 66 0e e9 3d df ec 65 3d 89 67 53 3e 2b a9 8c bd
       0.113796994 0.0561341 0.20644964 -0.06868204
000100 78 be e9 3b 3b 82 ff bd af ad d2 bd e2 88 29 3e
       0.0071333013 -0.12476011 -0.10287034 0.16556123
000110 02 b3 fe bd 04 1b 7f bd 4b 75 97 3e c0 a1 f1 3d
       -0.12436487 -0.062281623 0.29581675 0.117984295
000120 98 70 c2 bd ad 31 3d 3d 99 19 9e bd 96 d3 12 3e
       -0.09494132 0.046189953 -0.07719726 0.14338526
000130 9a c9 e2 3d ac e2 f9 3c e9 f6 59 be ab a4 a2 3d
       0.11073609 0.030503593 -0.21285595 0.07941564

weight f4 [1, 80]
000000 6e 6f 01 3e 9e 84 9b be 26 56 85 3f fc e1 86 3f
       0.12640163 -0.30374616 1.0416915 1.0537715
000010 c2 d7 8b bf 58 0a 8a bf be 99 04 3f 9a b2 87 bf
       -1.0925219 -1.0784407 0.5179709 -1.060138
000020 6b e8 70 bf f3 93 86 bf e4 9c 25 3f b4 3e 9b be
       -0.9410464 -1.05139 0.6469252 -0.30321276
000030 84 ab 8a bf 37 30 3a 3f 3c 8e 92 bf a8 27 5b 3f
       -1.0833592 0.7272982 -1.1449656 0.85607386
000040 a8 39 89 bf 88 ed 6c 3f 97 f4 94 3f 26 28 34 bf
       -1.072072 0.92549944 1.1637143 -0.7037376
000050 4d 01 84 3f 37 cf 42 3f ce 7c a2 3f 46 4d 59 bf
       1.0312897 0.76097435 1.2694337 -0.84883535
000060 96 3d 24 bf 96 6b 22 3f fe 26 87 3f 8b 35 5c 3f
       -0.6415647 0.63445413 1.0558774 0.860192
000070 c4 98 8e 3f 4d ea 1e bf 4c ad 56 3f 45 7b 80 3f
       1.114037 -0.62076265 0.8385818 1.0037619
000080 33 10 59 bf 57 4d 66 bf b5 55 6c bf 76 c1 5c bf
       -0.84790343 -0.8996176 -0.9231828 -0.862327
000090 fd c1 81 3f 6b 29 26 3f 19 be 6e bf c2 6d e0 3e
       1.0137326 0.6490695 -0.93258816 0.4383374
0000a0 fb 3f 3e 3f 27 14 92 3f 22 86 85 3f fb 15 ef 3d
       0.74316376 1.14124 1.0431559 0.11674114
0000b0 71 18 82 bf ba d0 9f bf 64 fc 60 3f e3 da d2 be
       -1.0163709 -1.2485573 0.8788512 -0.41182622
0000c0 3f a5 8a bf 14 ed 5c bf 56 11 74 bf 01 cd 7f 3f
       -1.0831679 -0.8629925 -0.9533895 0.99922186
0000d0 bb 13 7b bf e9 8c 67 3f 14 e8 55 3f d9 74 2e 3f
       -0.9807698 0.90449387 0.8355725 0.68147045
0000e0 4f 2b 91 bf a0 cf 52 3f cc 9a 34 3e c7 47 0c 3f
       -1.1341342 0.8234806 0.17637175 0.54797024
0000f0 07 94 4e bf 0e d4 44 3f eb b7 88 bf d7 a4 f8 be
       -0.8069462 0.7688607 -1.0681127 -0.48563263
000100 f9 b0 62 3f 36 6c 39 3f 72 c0 3e 3f 11 f2 77 3f
       0.8855129 0.7243074 0.745124 0.9685374
000110 7b a8 3c 3f 61 c8 4d 3f ae 99 c9 3e 57 8e 3f 3f
       0.7369458 0.8038388 0.3937506 0.7482657
000120 5e 44 89 3f fc bc 50 bf f5 59 9b 3f b4 f1 71 bf
       1.0723989 -0.8153837 1.2136828 -0.94509435
000130 dd f3 72 3f dd 86 59 3f 6a 1d 81 3d cc 2c 8e 3f
       0.94903356 0.8497141 0.063044384 1.1107421
