ppo_algorithm/data/test/checkpoint/ppo_network_state_dict.pt (torch_old, 74699 bytes, 10 tensors)

net.0.weight f4 [128, 6]
000000 58 e4 c2 bf 72 4c 0c 40 ef 57 32 c0 52 fb 4b 41
       -1.5225935 2.1921659 -2.786617 12.7488575
000010 c1 dc c7 3f 64 31 ca be d0 7e 0d bf 5b 6f 37 40
       1.5614244 -0.39490807 -0.55271626 2.8661716
000020 4c 60 ab bf 14 2c 62 41 61 e9 d2 3f 95 30 94 be
       -1.3388762 14.135761 1.6477472 -0.28943315
000030 a6 09 9c 3d 50 ef 25 40 07 6d 43 bf b8 58 5e 41
       0.07619028 2.5927315 -0.7633824 13.89666
000040 11 09 d5 3f d7 6a 9b be 8b a8 be bf fd b5 8a 40
       1.6643392 -0.3035495 -1.4895185 4.3347154
000050 41 87 68 c0 d9 a0 1e 41 08 a9 b6 3f e5 11 13 bf
       -3.6332552 9.914269 1.4270334 -0.5744918
000060 06 eb a5 bf 23 ea 8e 40 3a b1 42 3f 5c 8c 4d 41
       -1.2962348 4.466081 0.76051676 12.846767
000070 34 db a8 3f 90 0f 21 be 8f db 28 40 ef d2 fa bf
       1.3191895 -0.15728593 2.6384008 -1.9595622
000080 57 a1 6f 40 f6 cc 83 c1 5a 93 df 3e 6b 5d da be
       3.7442224 -16.475079 0.43667108 -0.42649397
000090 25 85 0c bf 1f 6b 29 3e 81 17 85 3f 46 ef db c1
       -0.5489066 0.1654477 1.0397798 -27.491833
0000a0 a1 21 3e bd 83 03 d5 3f 3b ca 66 bf b7 11 9b 40
       -0.04641879 1.6641697 -0.9015233 4.8459125
0000b0 d8 a7 10 c0 43 5d 86 bf f3 d3 6a 3f 1e 3a 9b bf
       -2.2602444 -1.0497211 0.9172966 -1.2127111
0000c0 01 6f 7f bd 73 f8 14 c0 b8 26 f7 c0 70 68 b6 40
       -0.06236172 -2.3276641 -7.7234764 5.7002487
0000d0 95 a9 c3 c0 26 87 40 be 28 d0 64 bf 31 6a ae 40
       -6.114451 -0.18801555 -0.8938012 5.450463
0000e0 04 61 23 3e b4 85 7c 41 6c 00 ec 3f d6 e1 21 3e
       0.15954977 15.782642 1.8437629 0.15808806
0000f0 3d a1 93 bf cd 8a 80 40 9b 0d a3 c0 90 a4 20 41
       -1.1533581 4.0169435 -5.095411 10.040176
000100 dd ce de 3f 74 2b 47 bf 3b af ce bf b4 4f 0d c1
       1.740688 -0.7780068 -1.6147226 -8.831959
000110 6b f0 ca 40 71 0d 6a c1 93 3d f8 3e 6d f4 7a bf
       6.341848 -14.628282 0.48484477 -0.98029214
000120 ba 2e ec be a3 a2 6d 40 70 7c ca c0 0d e5 22 41
       -0.461294 3.7130516 -6.32769 10.180921
000130 9b 4a 00 40 cf 99 64 bf 6f 70 a8 bf 8b 4c 28 40
       2.0045536 -0.89297193 -1.3159312 2.6296718
000140 03 c5 7d bf 01 11 3a 41 9d 36 bd 3f 48 03 a2 be
       -0.9912874 11.629151 1.4782292 -0.31643128
000150 3d cc cd bf 0f 1c 88 40 5e 62 73 c0 57 cf 19 41
       -1.6077954 4.253425 -3.8028789 9.61312
000160 10 84 b7 3f 31 b2 1e bf 81 54 5c bf 8b da 7b 3f
       1.4337177 -0.6199065 -0.8606644 0.98380345
000170 16 de 4c bf 46 36 62 41 d4 ae c7 3f 22 5e b1 be
       -0.80026376 14.13825 1.5600228 -0.3464213
000180 41 65 53 3f c2 27 92 3f 6b 31 28 40 3e 7d bb c1
       0.82576376 1.1418383 2.6280162 -23.436153
000190 85 b1 2b bd cd f7 26 40 bb ab eb bf 27 de 92 40
       -0.041917343 2.6088746 -1.8411783 4.589618
0001a0 00 c7 60 c0 d0 92 22 41 92 09 b2 3f b0 03 04 bf
       -3.512146 10.160843 1.3909171 -0.51568127
0001b0 f2 0d 12 c0 42 c6 f1 3f d6 b9 8f be f5 45 4a 41
       -2.2821012 1.8888628 -0.2807147 12.642079
0001c0 fd 23 8c 3f c7 b5 77 be 3d 25 8e be be bc 83 40
       1.0948483 -0.24190436 -0.27762786 4.11679
0001d0 d6 db d6 c0 90 58 0f 41 30 4e ff 3f f2 94 85 bf
       -6.7143354 8.959122 1.9945736 -1.043608
0001e0 b9 31 01 c0 84 4c 7b 40 0c e1 1f c0 85 ff 1d 41
       -2.0186598 3.9265451 -2.4981108 9.874883
0001f0 8b e1 a4 3f bd b9 fe be 72 ad c3 be 3d 6f 72 40
       1.288133 -0.49751082 -0.38218266 3.7880394
000200 20 75 c6 c0 c0 b9 10 41 bf 0b f9 3f 42 fc 7d bf
       -6.2017975 9.045349 1.945671 -0.9921304
000210 fa 4a 07 c0 fa 29 78 40 5a e8 b0 bf b7 5f 37 41
       -2.1139512 3.877562 -1.3820908 11.460868
000220 c0 c5 9e 3f b3 17 b2 be 4b ed f2 3f 84 22 a2 bd
       1.2404099 -0.34783706 1.8978666 -0.079167396
000230 6d cf 2a 3f 1e fc 6d 41 d3 4e 2d bf a3 21 db 40
       0.66722757 14.874052 -0.676984 6.847856
000240 c4 8f 0d 40 81 e6 78 3f d9 8e 64 3f f6 c6 0c 41
       2.2118998 0.9722672 0.8928047 8.798574
000250 6a a8 2d c0 96 95 4b 40 8c d8 90 bf 6f d5 65 40
       -2.7134042 3.181005 -1.1316085 3.591152
000260 00 a7 23 c0 61 d5 4c 41 1e 00 c7 3f 1f a8 c6 be
       -2.5570679 12.802094 1.5546911 -0.3880014
000270 10 a2 00 c0 65 f1 80 40 3e 33 35 c0 e9 b5 24 41
       -2.0098915 4.029467 -2.8312526 10.294412
000280 a7 44 ab 3f 15 94 fc be 72 e5 ba bf 04 89 51 bf
       1.3380326 -0.49331728 -1.4601271 -0.81849694
000290 be 5d bd bf 25 14 33 41 c2 a8 94 3f 44 e6 4c bf
       -1.4794233 11.192418 1.1614001 -0.8003886
0002a0 a3 ad 39 bf ea a9 2b 40 cc 68 b5 3f 72 1c 49 41
       -0.72530574 2.6822457 1.4172606 12.569445
0002b0 d9 5e a8 3f 38 df 4e be 60 a4 c3 bf 95 18 1d 40
       1.3153945 -0.20202339 -1.5284538 2.4546254
0002c0 36 24 75 c0 f5 4d 56 41 fb ff d8 3f 6d 57 c7 be
       -3.8303351 13.3940325 1.6953119 -0.38933888
0002d0 74 7a c9 bf e1 e3 7a 40 67 1f 18 40 cb c4 3b 41
       -1.5740495 3.9201586 2.3769166 11.735545
0002e0 09 d7 75 3f 3e db 40 be f2 d0 aa bf 6a 3a 8b 3f
       0.9603124 -0.18833634 -1.3345015 1.0877202
0002f0 04 d3 05 c0 7d 92 80 41 30 e0 e2 3f ed 47 39 be
       -2.0910044 16.071527 1.7724667 -0.18093844
000300 d0 85 eb bf bf 6b 8e 40 3e f6 56 c0 17 04 1b 41
       -1.8400211 4.4506526 -3.3587794 9.6884985
000310 29 d7 b0 3f 79 de 02 bf 62 34 e6 bf dc a3 92 40
       1.3815662 -0.51120716 -1.7984736 4.5825024
000320 c7 f8 30 c0 e3 47 08 41 f5 fd 9d 3f e6 69 19 bf
       -2.7651842 8.51755 1.2343127 -0.59927213
000330 62 6e 69 bf 5e 39 43 3f eb 8c 5a 3d 2b 84 49 41
       -0.91184056 0.7625941 0.053357046 12.594768
000340 c3 ac b4 3f 28 19 c9 be 1e 46 3d 3f b7 ea 29 c0
       1.4115223 -0.39277005 0.73935115 -2.6549509
000350 63 67 ee bf 80 87 d8 41 1d 35 2b c0 01 77 25 c0
       -1.8625301 27.066162 -2.6751168 -2.5853884
000360 64 22 b4 bf 26 68 2f 40 92 d3 a3 bf ee 39 3b 41
       -1.4072995 2.7407317 -1.2798941 11.701643
000370 48 58 b8 3f fc c8 b3 be 66 e5 a0 bf 95 a3 0d 40
       1.4401941 -0.35114276 -1.2570007 2.2131093
000380 05 cb 15 c0 ec 92 54 41 6a d5 c5 3f d9 d8 b0 be
       -2.3405163 13.28587 1.5455754 -0.34540442
000390 bb ed c8 bf 44 0f 8a 40 24 9d 4b c0 11 f3 13 41
       -1.569755 4.3143635 -3.181466 9.246842
0003a0 67 bc af 3f ba 55 09 bf 52 f9 f9 bf 84 7a b8 bf
       1.3729371 -0.53646433 -1.9529212 -1.4412389
0003b0 3a 6d dc bf a5 16 b1 41 14 26 a0 3e 82 8f 70 c0
       -1.7220833 22.136057 0.3127905 -3.758759
0003c0 ee 5f be bf 68 60 81 40 e4 12 6c 3f 33 94 58 41
       -1.4873025 4.0430183 0.92216325 13.536181
0003d0 82 02 9b 3f 1e 8d 0c be 75 ba cc bf c6 36 d3 3f
       1.211014 -0.13725707 -1.5994402 1.650109
0003e0 08 e8 8a c0 a7 9f 05 40 5e fa 8e 3f c5 4d ae bf
       -4.340824 2.0878694 1.1170156 -1.3617483
0003f0 7d 99 f6 bf 61 7a 84 40 8b 3e 50 c0 d4 b1 18 41
       -1.9265591 4.139939 -3.2538173 9.543415

net.0.bias f4 [128]
000000 72 69 d2 bf 7c a7 e4 bf 65 bd ee bf b1 d2 da bf
       -1.6438429 -1.7863612 -1.8651549 -1.7095548
000010 8f d3 d2 bf cc fe df 3f 09 6c 92 be f2 e6 b0 bf
       -1.6470813 1.7499633 -0.2859805 -1.3820479
000020 e0 84 6e bf e7 5e a1 bf 25 97 80 bf 6d d1 d7 3f
       -0.931715 -1.2607087 -1.0046126 1.6860787
000030 ad 84 fb be 6b 14 e3 bf fb 0c d6 bf fb 97 c7 bf
       -0.4912466 -1.7740606 -1.6722711 -1.5593256
000040 f7 96 8b 3f a9 5e f5 bf 1d 68 2c c0 cd d5 a3 be
       1.0905446 -1.9169513 -2.6938546 -0.31999055
000050 7b 24 fe bf f3 82 e7 be ec 10 1a c0 9b f6 50 3f
       -1.9854883 -0.45217094 -2.4072828 0.8162629
000060 ec 84 5b 40 a8 1a ed bf c8 a0 dd bf 72 df d6 bf
       3.429988 -1.852376 -1.7314692 -1.678694
000070 70 d5 e3 bf 74 92 e2 bf 42 23 f6 bf dd 63 e2 bf
       -1.7799511 -1.7700944 -1.922951 -1.7686726
000080 24 07 eb bf 5a 81 da bf f5 06 c1 bf e7 02 a7 bd
       -1.8361554 -1.7070725 -1.5080248 -0.081548505
000090 3f 08 f1 bf 9e e5 0c c0 88 5a ec bf bc eb de bf
       -1.8830642 -2.2015147 -1.8465128 -1.741569
0000a0 c4 81 02 c0 d9 e5 c5 bf 31 56 f8 bf 61 d5 16 40
       -2.0391703 -1.5460769 -1.9401304 2.3567736
0000b0 b0 cc b3 bf 64 e0 8a 40 d8 85 d6 bf 76 51 37 c0
       -1.4046841 4.3398914 -1.6759596 -2.864347
0000c0 95 68 0d 3e d6 c3 49 bf c8 81 dc bf 16 8d af be
       0.13809426 -0.78814447 -1.7227106 -0.34287328
0000d0 4a 3b b2 3d b1 68 a5 bf 7e 0a e0 bf d3 d5 09 c0
       0.08702715 -1.2922574 -1.7503202 -2.1536758
0000e0 13 2a 0a bf 2d da ae bf fb b0 c8 bf a6 5b 2e c0
       -0.5397045 -1.3660332 -1.567901 -2.7243438
0000f0 fe 52 b1 c0 d6 c1 aa bf cc 7e ea bf 59 bc df bf
       -5.541381 -1.3340404 -1.8319945 -1.7479354
000100 d6 46 09 c0 ec db 92 40 4c 9a ea bf 4f 9c d5 bf
       -2.1449485 4.589346 -1.8328338 -1.6688327
000110 8f dc e5 bf 9e fd 32 3f 6b ab a8 3f a0 08 ec bf
       -1.7957934 0.6991824 1.3177313 -1.8440132
000120 cd 57 dd bf 58 84 c4 3f ec bb b4 bf e8 59 85 40
       -1.729242 1.5352888 -1.4119849 4.167225
000130 39 1c 02 c0 17 92 c3 3d 5f 1d df bf 34 5d 24 c0
       -2.0329726 0.09549349 -1.7430838 -2.5681887
000140 db fb ea bf 60 8e bb bf a4 0e de bf 9c 4e d0 bf
       -1.835811 -1.4652824 -1.7348218 -1.627399
000150 f3 bf be bf 00 11 f1 bf ff 55 f9 bf ac 57 ca bf
       -1.4902328 -1.8833313 -1.9479369 -1.5808005
000160 c2 b4 4d bf 68 25 d8 bf 74 96 df bd b6 50 e8 bf
       -0.8035394 -1.6886415 -0.109173685 -1.8149631
000170 e4 93 d0 bf 05 64 c4 bf 19 2e a6 bf 8b ce d1 bf
       -1.6295133 -1.5343024 -1.2982818 -1.6391157
000180 87 fe a5 bf ec c3 9b c0 d4 67 30 c0 ea 25 0c c0
       -1.29683 -4.8676662 -2.7563372 -2.189814
000190 69 d8 2d bf 39 80 ea bf 7c 60 d5 bf b0 8b bb bf
       -0.6790834 -1.832038 -1.667007 -1.4652004
0001a0 6c 9c 2b c0 d0 38 b4 bf 32 e5 ab 3e 7c b3 d6 bf
       -2.6814222 -1.4079838 0.335733 -1.6773524
0001b0 86 4c 0a c0 a0 d7 d2 bf 18 cf dc bf da a4 d3 bf
       -2.1609206 -1.6472054 -1.72507 -1.6534684
0001c0 64 b1 41 3e a2 37 2f 40 a8 e1 0f c0 36 e3 12 c0
       0.18915325 2.7377706 -2.248148 -2.2951179
0001d0 67 b0 c8 bf 18 b8 bf c0 83 73 e3 bf b5 9a 8b bf
       -1.5678834 -5.9912224 -1.7769626 -1.0906588
0001e0 fb 6c a2 bf a9 f0 32 c0 a9 39 d4 40 6e 45 d0 bf
       -1.2689508 -2.7959387 6.6320386 -1.6271188
0001f0 9c 11 fa bf d4 9e d8 bf 9a 2a d0 be 14 eb e8 bf
       -1.9536624 -1.692347 -0.40657502 -1.819674

net.1.weight f4 [128]
000000 68 7e 13 ba cb d5 2a 3a be 4d 42 bb 24 41 e4 3a
       -0.0005626441 0.0006516843 -0.0029648389 0.0017414433
000010 88 aa 30 3b 73 6a 0d 40 d4 2e b6 40 dd 4e 76 bd
       0.0026957113 2.2096221 5.6932163 -0.060133804
000020 69 2d 06 41 ab ce ea ba ee 9e 19 39 a9 90 27 41
       8.386086 -0.0017914375 0.00014650423 10.472817
000030 51 3e a9 ba b0 84 79 bb 06 76 a8 3a 48 72 3b ba
       -0.0012912248 -0.0038073473 0.0012852557 -0.0007150513
000040 43 64 c5 40 5d 9b a7 ba 5a be f1 b9 5d 3c 9b 3a
       6.168489 -0.0012787391 -0.00046108925 0.0011843551
000050 da 3c 8d bb ae f9 87 39 aa d9 8b bb 98 e5 1e 41
       -0.0043102326 0.00025935232 -0.004267891 9.931053
000060 a5 ab 6f 40 e1 04 7e bb 79 37 2c bb 97 e4 d1 3b
       3.7448514 -0.0038760232 -0.0026278181 0.006405424
000070 b0 74 a3 3b d6 74 3d bb 42 2d aa bb a4 9c f1 3b
       0.0049882755 -0.002890875 -0.0051933834 0.0073734093
000080 2e c4 ef 3a e1 01 00 bb 68 77 10 3b 8f 11 55 41
       0.0018292719 -0.001953237 0.0022043828 13.316787
000090 8e e4 0b bc 69 0f b9 bb 27 6d 27 bb b0 26 ae 40
       -0.008538378 -0.005647589 -0.0025547238 5.4422226
0000a0 f5 20 d2 3b 6a c6 66 3b 11 84 9f 3b 1c 70 32 40
       0.00641262 0.003521348 0.0048680385 2.7880926
0000b0 52 ae f7 3b f0 c1 a1 40 45 2d 15 bb 9a 00 a6 bb
       0.0075586224 5.054924 -0.0022762578 -0.0050659897
0000c0 4c b8 11 41 5d fb 15 bc 8b 49 6c 3b 29 6a a4 3a
       9.107494 -0.009154168 0.0036054577 0.0012543845
0000d0 5d a9 10 41 a2 61 94 3d 95 17 24 3a 96 5b d6 3a
       9.041348 0.072451845 0.00062596175 0.0016354199
0000e0 53 66 b5 3a 0a ed 90 bb f4 d9 f5 3b c0 af 1f 39
       0.0013839699 -0.0044227885 0.0075027887 0.00015228894
0000f0 1b 53 cb 40 80 5a a1 3b a0 7c 53 bb 45 17 8b 3a
       6.3538947 0.0049241185 -0.0032270327 0.0010611793
000100 7e b8 e6 40 d2 21 f3 40 fc 5a c5 3b 67 3e 47 3b
       7.210021 7.5978785 0.006022809 0.0030402185
000110 09 a2 c6 3b ac cd fb 40 eb 19 db 40 5d 6a 50 3b
       0.0060617966 7.8688564 6.846914 0.0031801679
000120 24 d5 64 3b 5b 08 bc 40 d4 ca 83 bb e8 df ae 40
       0.003491708 5.87602 -0.0040219817 5.4648323
000130 98 a3 96 bb f3 b1 12 41 55 e1 16 bc 1f 1f 0d 40
       -0.0045971386 9.168445 -0.009208997 2.2050245
000140 1e 0d 90 bb a7 40 02 bc 94 82 24 bc 1a f3 d4 3a
       -0.004396095 -0.007949985 -0.010040898 0.0016246766
000150 ad 6f 8f bb f6 8d 0a 3c 87 e3 24 41 20 8b 97 bb
       -0.0043773265 0.008456698 10.305549 -0.0046247393
000160 ee b8 a7 3a 46 94 1f 3b f3 f5 89 3f 77 35 92 3b
       0.0012796202 0.0024349852 1.0778183 0.00446194
000170 54 e6 dd 39 4c 1f 24 3c ca bf d3 ba 14 8b 9e 3b
       0.00042324013 0.010017227 -0.001615518 0.0048383567
000180 2f 3c 45 3b d9 c8 a9 40 da 75 a3 3b 7a 1c 92 bb
       0.0030095687 5.3057675 0.0049884142 -0.004458961
000190 4f 5c c4 40 b7 4f b7 3a b7 e1 a3 3a b0 16 14 3c
       6.136268 0.0013985549 0.0012503181 0.009038612
0001a0 b7 bc ce 39 fa 97 81 3a e7 52 17 41 b4 cd 63 3a
       0.00039431985 0.0009887211 9.45774 0.0008690015
0001b0 c2 a1 04 3c 0a ed 29 3b 73 6c 3a 3b 31 ef 70 3b
       0.008095207 0.002592864 0.0028445988 0.0036763663
0001c0 40 85 d5 40 07 31 c4 40 97 7f 60 bb 21 2b d1 ba
       6.672516 6.130985 -0.0034255737 -0.0015958288
0001d0 a0 85 25 3b 35 ef c3 40 ad e5 d1 3b 46 d4 85 3b
       0.0025256649 6.12295 0.0064055533 0.004084143
0001e0 ea 3a b5 3a f8 d8 25 41 95 f6 95 40 a0 74 d5 b8
       0.0013826762 10.365471 4.6863503 -0.000101783546
0001f0 f3 20 27 3b 36 40 88 bb 76 ba d8 40 a0 40 48 bb
       0.0025501817 -0.004158045 6.7727613 -0.0030556098

net.1.bias f4 [128]
000000 7f 00 03 b9 e5 e6 95 38 64 2f 6e ba 58 ec 9d 3a
       -0.00012493318 7.147881e-05 -0.0009086041 0.0012048585
000010 0e 96 01 3a be bf 87 40 94 44 90 3e 03 e6 b8 3b
       0.00049433194 4.242156 0.2817732 0.005642654
000020 61 6d 1f bf 75 86 d9 ba 07 5a 5f 39 7d 7f 52 40
       -0.62276274 -0.0016595857 0.00021300475 3.2890313
000030 2c 5a 9e 3a 20 e3 33 3a ec 37 12 39 f6 b9 3f 3a
       0.0012081317 0.00068621524 0.00013944478 0.0007313782
000040 f6 c3 78 3f 9d 59 08 b9 a8 b6 e4 b9 f8 8c 7a ba
       0.9717401 -0.00013003354 -0.00043623638 -0.0009557749
000050 24 24 63 ba ba 0b bb b9 df 98 16 b8 39 a8 20 3f
       -0.0008664748 -0.00035676156 -3.590516e-05 0.6275669
000060 f6 94 6a 40 d3 81 ca 39 f5 24 47 ba 30 16 1d b9
       3.6653419 0.0003862517 -0.00075967546 -0.00014980952
000070 48 48 db 39 59 0e 81 3a 5c 7c eb b9 a3 35 a3 ba
       0.0004182479 0.0009846195 -0.00044915348 -0.0012451898
000080 e6 bb c6 ba 59 22 95 ba 1d ca b5 3a e9 17 bc 3e
       -0.0015162199 -0.0011378034 0.0013869439 0.36736992
000090 f4 6c 9a ba 9b 0f d7 b9 48 fe 96 3a 14 80 8a bf
       -0.0011781738 -0.00041019623 0.0011519874 -1.0820336
0000a0 ec dc 2f 3a 3b 44 28 ba 33 4e 30 39 e5 0c 23 40
       0.000670864 -0.00064188585 0.000168138 2.547662
0000b0 73 51 ad 39 2d e6 f5 3f 41 26 2a 3a 58 85 04 ba
       0.00033057816 1.9210869 0.00064906856 -0.000505527
0000c0 e7 5e c2 be bd fe 2a 3b 29 bd bc ba 2b be 89 ba
       -0.3796303 0.0026091777 -0.0014399636 -0.0010508945
0000d0 07 3f 2a bf 50 70 22 bc 8b 28 6c 38 0f c6 84 ba
       -0.6650242 -0.009914473 5.6304543e-05 -0.0010129827
0000e0 77 17 5f ba 0e e5 8b 39 d1 ed bf ba 62 a5 83 b9
       -0.00085102714 0.00026682805 -0.0014643018 -0.00025109487
0000f0 2b 92 04 c0 e2 52 f5 b9 23 47 b8 ba 0b bf 21 3a
       -2.0714214 -0.00046791794 -0.0014059286 0.000617013
000100 19 38 b2 bf 7b cc 4c 40 71 86 82 ba 0f d2 26 3b
       -1.392337 3.1999805 -0.000995828 0.0025454795
000110 ed 4c ee 38 0a d4 01 3f 2a 9d 59 3f da 2d a0 3a
       0.00011363053 0.5071417 0.8500544 0.0012220696
000120 2c 72 9d b9 fe e5 af 3c a8 2f 65 3a 60 c9 83 40
       -0.00030030438 0.021471974 0.0008742758 4.118332
000130 72 4d 68 b8 bd 07 3b be dd 0f 8a ba df 8d 64 c0
       -5.5385237e-05 -0.1826467 -0.0010533292 -3.5711591
000140 80 76 90 ba 9a 82 6d 39 fb bd ec 39 2c f2 cb ba
       -0.0011021644 0.00022650734 0.00045154974 -0.0015559844
000150 e3 c7 8f ba 5d 63 00 39 e8 c6 75 bf 58 73 61 b9
       -0.0010969605 0.00012244047 -0.9600663 -0.00021500641
000160 14 9f de b9 ca cf ea b9 40 f2 02 3f 36 a3 a3 b9
       -0.00042461662 -0.00044786773 0.51150894 -0.00031211384
000170 0c 1c 94 ba d6 b9 10 ba d2 dc c7 ba 0b 68 b6 ba
       -0.0011299863 -0.0005520856 -0.0015248305 -0.0013916505
000180 75 07 83 ba b5 72 2d c0 9c 86 4d 3a 9c 9c fb 38
       -0.0009996729 -2.7101262 0.0007840188 0.000119977834
000190 28 e8 a3 be 88 c4 c4 b9 94 05 43 39 ad d9 bf 3a
       -0.3201306 -0.0003753046 0.00018598727 0.0014637016
0001a0 9f 98 84 39 38 4c 38 ba 59 ea 78 3e df af 94 ba
       0.00025290714 -0.00070304004 0.24308147 -0.0011343918
0001b0 7d 0c db 39 02 7c f8 b9 64 02 bc 3a 55 a0 9b ba
       0.0004178024 -0.0004739464 0.0014343974 -0.0011873344
0001c0 c7 5f 00 3f 8e 2b 13 40 ba 29 fd ba fd c2 28 ba
       0.50146145 2.2995334 -0.0019314804 -0.0006437747
0001d0 63 f3 a1 3a ab 6f 95 c0 5c a4 b9 ba a4 c6 5a 38
       0.001235586 -4.6698813 -0.0014163363 5.216025e-05
0001e0 2f 85 79 ba 97 f8 1c c0 23 d3 16 40 57 16 47 39
       -0.0009518442 -2.4526727 2.3566368 0.00018986441
0001f0 42 7c 1b ba ab 46 80 3a 18 0d 6b bc ff c6 8b ba
       -0.00059312966 0.0009786686 -0.0143463835 -0.0010664164

net.3.weight f4 [128, 128]
000000 ab 6a 23 be 2c c0 02 3e f9 68 a3 bd 3b 84 e5 3e
       -0.1595866 0.1276862 -0.07979006 0.44827446
000010 c0 87 90 3e 6a 3d 1d 40 28 b7 7e 40 6b 04 de 3e
       0.2822857 2.4568734 3.979929 0.43362746
000020 c9 f3 d1 bf d0 09 6c 3e 02 e3 7c be bb fa 35 40
       -1.6402522 0.23050618 -0.24695972 2.8434284
000030 7f 96 3b 3f fb 2f 75 be e5 1c c9 bc a5 82 b5 3e
       0.73276514 -0.23944084 -0.02454991 0.35451236
000040 03 eb bb 3d bc f0 b2 bb f4 14 a8 be 28 e6 78 be
       0.09175684 -0.0054608267 -0.32828486 -0.24306548
000050 6e 09 e0 be e9 75 b6 be 02 8f d1 ba d0 a7 67 c0
       -0.43757194 -0.35636833 -0.0015988054 -3.6196175
000060 97 2b 5c c0 8d 1d b4 3c be 79 86 be 3c 10 ec bd
       -3.4401605 0.021986747 -0.26264757 -0.11526534
000070 89 d2 d9 bd 6e 43 35 bd 49 60 9b 3d 18 17 2c 3e
       -0.106358595 -0.04425376 0.07586724 0.16805685
000080 11 eb c3 be 40 55 65 be 92 5e 10 3e 65 68 26 c0
       -0.3826528 -0.22395802 0.14098576 -2.6001217
000090 57 a1 41 bd d5 ef 3f 3e 3c f7 fe 3e fc 13 9b 3f
       -0.047273006 0.18743832 0.49798 1.2115474
0000a0 9a 82 0a bf 6c e2 e8 bb 9e 8d 9a be 7c 0f 05 3f
       -0.5410553 -0.0071070697 -0.3018617 0.5197675
0000b0 a3 3e 79 be a3 99 c1 3f 94 cc 3c 3c e1 7b bd 3e
       -0.243403 1.5125011 0.011523385 0.37008575
0000c0 b9 3a 41 c0 bb 12 8d 3e c1 d6 b9 bc 11 57 56 bf
       -3.0192091 0.27553353 -0.02268541 -0.837266
0000d0 7a ea b1 40 84 41 0c bf 2a bf df bc 9a 24 05 be
       5.5598726 -0.5478747 -0.027312834 -0.13002244
0000e0 cb 2e 16 bf 29 66 b2 3c 5d 9c de 3d be 02 90 3d
       -0.5866515 0.02177723 0.10869668 0.07031773
0000f0 df d0 e4 bf cb 2a 95 be 7a 90 c3 be 90 79 41 3f
       -1.7876242 -0.2913421 -0.38196164 0.75576115
000100 f1 77 1d c0 16 ba ca bf db d9 fd 3d eb 05 bb 3e
       -2.4604456 -1.5838039 0.12395068 0.36527953
000110 d5 53 0e be 09 ef e5 be a1 f7 45 bf 79 07 e5 3e
       -0.13899167 -0.44908932 -0.77330977 0.44732264
000120 8b 49 d3 3e 30 24 56 40 f0 51 7f be 74 0e ac bf
       0.41267046 3.3459587 -0.249336 -1.3441911
000130 2e 24 e8 be 0e b9 bb 3c e4 d5 38 3e 7b d7 d7 bf
       -0.45340103 0.02291539 0.18050343 -1.6862634
000140 7e 69 e6 3d 2c 91 a1 3d 74 31 73 3d 0f 3d 1e be
       0.1125059 0.078890175 0.059373334 -0.1545298
000150 c3 1a 21 be 6b 56 40 3d 5b af 94 3f 42 f6 65 be
       -0.15732865 0.046957415 1.1616014 -0.22457221
000160 1a 5b bd be c7 77 df bd f5 47 ff bf 49 76 d0 bd
       -0.36983567 -0.109115176 -1.9943835 -0.10178811
000170 1d ae d7 be 03 be 30 bd a4 da 15 bf a0 87 39 bd
       -0.42125025 -0.04314996 -0.58536744 -0.045295358
000180 6c ff b0 be 6a 7a 72 3f 0c d7 aa be 36 be 70 3c
       -0.3456987 0.9471804 -0.33367193 0.014693787
000190 e8 56 b7 3e 5e ba db 3d a5 ed 3a bd 5f 35 28 3e
       0.35808492 0.10728906 -0.04563679 0.1642661
0001a0 4e 96 7b 3e 94 6a 47 3d 90 47 cd be 80 c7 60 be
       0.24569055 0.048685625 -0.4009366 -0.21951103
0001b0 ab 3c be bd cb 0e 8f 3b 88 9f f3 3e b5 76 70 be
       -0.09288915 0.004365777 0.4758265 -0.23482783
0001c0 8a ef 2a 3f 15 d2 62 40 5a 43 33 be 2c 7a c0 3d
       0.6677176 3.5440724 -0.17506161 0.093983024
0001d0 8b a8 98 bd e6 51 2b 40 49 4f 0f be f7 3f 84 be
       -0.07454022 2.6768737 -0.13995089 -0.2583005
0001e0 95 c8 dc be 4a 68 46 c0 3f 90 2e 40 f8 31 f0 3d
       -0.43121782 -3.1001153 2.727554 0.11728281
0001f0 b8 b5 56 bd b3 97 23 3f f9 9d 9f 3f 5e 4f f1 be
       -0.052419394 0.6390335 1.2470084 -0.47130865
000200 73 a4 6c be ff 18 4d 3e 67 c8 b9 3d 4e 40 ea 3d
       -0.23109607 0.20029067 0.09071427 0.114380464
000210 9d 93 44 3e 39 d7 e4 3f ec f2 b4 40 fc d9 71 3e
       0.19196935 1.7878181 5.6546535 0.2361831
000220 59 fa a8 bf ed c8 01 3e 05 2b 50 be db 6f d2 3f
       -1.32014 0.12674303 -0.2032891 1.6440386
000230 10 69 76 3e cd 59 22 3d bd 9e be 3d f2 8a 90 3e
       0.24063516 0.039636422 0.09307621 0.28231007
000240 24 be b0 3f 07 e9 f4 3c de cb 8d bd 65 21 a0 be
       1.3808026 0.029896272 -0.0692365 -0.31275478
000250 a3 db 14 be 7d 19 9a be c3 64 3c be af 1c 27 c0
       -0.1453691 -0.3009757 -0.18397813 -2.6111257
000260 1d f9 c1 bf 90 9f 50 bd ba 6c 6d be 5f d1 18 be
       -1.5154148 -0.05093342 -0.23186007 -0.14923619
000270 eb 31 ba bd 24 b4 1e bd 77 30 16 3b 03 20 53 3e
       -0.09091552 -0.038746014 0.002291707 0.2061768
000280 eb 31 4d be fd 98 40 be b0 97 a3 3d 61 7f b4 bf
       -0.20038573 -0.1880836 0.079879165 -1.4101373
000290 1b 8c 54 3d 23 86 28 3d 0c d0 bf 3e ac 95 eb bd
       0.051891427 0.041143548 0.37463415 -0.11503157
0002a0 0e 19 80 be 61 e3 d9 3c 1a 92 22 be 0a 89 f7 be
       -0.25019115 0.02659768 -0.15876046 -0.4834674
0002b0 38 98 0f bd 00 6e 52 be 07 fb b6 bd e1 cd 2a 3d
       -0.035057276 -0.20549774 -0.089345984 0.041700248
0002c0 1c 5b 7e c0 6c 61 9c bb bc 1c 06 be 2f c9 d9 be
       -3.9743109 -0.004772356 -0.13096899 -0.42536303
0002d0 3f 51 22 40 7e 61 3a 3c c0 61 86 3c 83 71 55 3e
       2.5362089 0.011375783 0.016404033 0.20844083
0002e0 aa a4 9b be 40 4e 2a bd 8d e1 42 bd 7a 60 9d bc
       -0.30399066 -0.04157853 -0.047578383 -0.019211043
0002f0 94 c0 e7 bf a9 73 3d be 2d a8 0c be ef f6 bf 3e
       -1.8105645 -0.18501152 -0.13736029 0.37493083
000300 9f 26 65 bf d9 0b ce bf 43 3d 0b 3e 4b 99 e4 3e
       -0.89512056 -1.6097366 0.13597588 0.44648203
000310 cb 3b c2 bd e0 34 bc 3d 49 dd cf bd f6 a8 90 3e
       -0.09484061 0.091897726 -0.10149629 0.28253907
000320 24 cd dd 3e 1d 7f 90 3f fb 7c 4f be ce 70 ba bf
       0.43320572 1.1288792 -0.2026252 -1.4565675
000330 22 14 85 be b5 73 97 bd ce b1 60 3e a7 ca 5d bf
       -0.25991923 -0.07395116 0.21942827 -0.8663735
000340 50 a9 64 3d 54 35 f3 3d 02 7a 51 be e1 df 08 bd
       0.05582553 0.11875406 -0.20456699 -0.033416633
000350 13 b6 5a bd 2f a6 9c bd 41 e5 e2 3f 4f 97 72 bd
       -0.053396296 -0.076488845 1.7726213 -0.05922633
000360 2e 22 c1 bd ba 9d be bd 70 67 5a bf 8a 19 d9 bd
       -0.094303474 -0.09307428 -0.85314083 -0.10600574
000370 43 64 9d be bf 6f 40 bc 8e 3a d9 be 09 f4 32 bd
       -0.30740556 -0.011745392 -0.42427486 -0.04368976
000380 cd 2f ca bd ff ba d9 3f 61 e0 f4 bd ea 8e 5b 3d
       -0.098723985 1.7010192 -0.119568594 0.05360309
000390 18 dd ae be 68 a9 99 be 7d 81 0f bc c8 ed 19 bc
       -0.34153056 -0.3001206 -0.0087589 -0.00939507
0003a0 4e 7d bf bd 2b 2e 58 3e ff 56 52 bf 19 e4 fe bc
       -0.09350072 0.21111362 -0.82163996 -0.031114625
0003b0 6d 9e 22 be 56 03 4b 3d 05 1d d5 3e 03 aa 48 bb
       -0.15880747 0.04956373 0.41623703 -0.0030618913
0003c0 29 f9 ab 3f ef de fb 3f a9 c9 bb bc b1 12 ad 3d
       1.3435413 1.9677409 -0.022923307 0.08450831
0003d0 1d 28 1d be ac f1 22 40 e2 27 d1 3d f3 4c 7b be
       -0.15347333 2.5460005 0.10212685 -0.24541073
0003e0 e6 70 4c be 04 4c 02 c0 f4 84 de 3f df 3f 29 3e
       -0.19964942 -2.0358896 1.7384324 0.16528271
0003f0 e7 6b ca 3c 8a a4 d1 3e ef b4 85 3f d8 6f bd be
       0.024709655 0.40945846 1.0445842 -0.36999393

net.3.bias f4 [128]
000000 2c 2e c6 3f 74 8d 55 3f 81 72 75 3f cf a2 7c 3f
       1.548284 0.83418965 0.95877844 0.98685926
000010 f5 d9 80 3f 34 24 a0 3f 28 8b c0 3f 33 3f 32 3f
       1.0066515 1.2511048 1.5042467 0.69627684
000020 55 27 98 3f ff 35 67 3f 33 b5 8a 3f 27 50 74 3f
       1.1887003 0.90316767 1.0836548 0.954348
000030 ad c7 9d 3f cc 25 80 3f 05 f8 b5 3f 92 17 6d 3f
       1.2326561 1.0011535 1.4216315 0.9261409
000040 c8 21 3f c1 4b ba 27 3f a5 15 95 40 b1 a0 71 3f
       -11.945747 0.65518636 4.658892 0.9438582
000050 20 a9 81 3f 1d b9 6f 3f 52 8b 08 bd 29 67 77 3f
       1.0129738 0.93641835 -0.03333599 0.96641785
000060 9f bb ca 3e 13 db d7 3f 11 85 6d 3f 04 7c 82 3f
       0.3959627 1.6863731 0.9278117 1.0194097
000070 42 4b 78 3f 1b f0 82 3f f8 9a c1 c0 25 66 a1 3f
       0.96989834 1.0229524 -6.050167 1.2609297
000080 84 d1 72 3f 8e 65 92 3f ce 9e 53 3f 8e e5 9a 3f
       0.94850945 1.1437242 0.8266419 1.2101305
000090 5f b1 71 3f 5a 82 72 3f 42 8c 7c 3f 2b 89 ad 3f
       0.9441127 0.9473015 0.98651516 1.3557485
0000a0 b7 39 8d 3f a4 26 ea 3f 6f 10 4f 3f 18 42 23 3f
       1.1033238 1.8293042 0.8088445 0.63772726
0000b0 8d 92 8a 3f 9a 75 90 40 5e e6 98 3f e9 4d 1c c1
       1.0825974 4.5143557 1.1945302 -9.769021
0000c0 c7 ae 8e 3f 70 b6 33 3f 14 00 7e 3f 1e 3d 64 3f
       1.1147088 0.7020025 0.9921887 0.8915576
0000d0 ae c1 9f 3f 35 02 5f 3f af 82 b5 3f 31 98 81 3f
       1.2480981 0.8711274 1.4180506 1.012457
0000e0 f2 b2 8d 3f 1a 0e c5 3f 30 2d 86 3f b3 bb 02 40
       1.1070235 1.5394928 1.048254 2.0427063
0000f0 a5 5b 83 3f 23 73 8a 3f af f4 90 3e 58 98 a2 3f
       1.0262343 1.0816387 0.2831168 1.2702742
000100 08 c8 b1 3f 9c 83 90 3f ee f7 71 3f e3 0f 9d 3f
       1.388917 1.1290164 0.94518936 1.2270473
000110 69 5c b0 3f 98 5a 7a 3f 35 ec 6f 3f 4e 83 94 3f
       1.3778201 0.97794485 0.937198 1.1602571
000120 94 07 68 3f 96 b0 76 3f 66 c5 41 3f dd 17 2e c1
       0.90636563 0.963632 0.7569183 -10.880826
000130 5c 38 61 3f dd 42 c8 bf 0f 50 03 40 b1 a6 be 3f
       0.8797662 -1.5645405 2.0517614 1.489462
000140 d0 d7 44 3f c6 57 6f 3f 45 78 53 3f 1e 39 5d 3f
       0.76891804 0.93493307 0.8260539 0.8641528
000150 51 b3 a1 3f e1 ab 6e 3f 3d 43 7f 3f d6 b1 87 3f
       1.2632848 0.93231016 0.9971197 1.0601146
000160 bf 74 71 be d6 de 74 3f 60 22 5a 3f 33 49 a9 3f
       -0.23579691 0.9565252 0.852087 1.3225464
000170 51 ce 50 3f 32 a3 8b 3f 1e 33 72 3f 76 44 6b 3f
       0.81564814 1.0909178 0.9460925 0.9190134
000180 64 21 85 3f 16 ed 97 bf 32 15 b1 3f ac 34 9f 3f
       1.0400815 -1.1869228 1.3834593 1.2437949
000190 24 d9 a7 3f 73 ed 5d 3f aa 98 88 3f 0c 53 53 3f
       1.3113141 0.86690444 1.0671589 0.82548594
0001a0 5e f1 97 3f 3f 50 5e 3f b7 a2 95 3f 37 77 7b 3f
       1.1870534 0.86841196 1.1690282 0.9822878
0001b0 e2 8b 46 3f 3c b4 18 3f e5 d4 8f 3f ee 91 79 3f
       0.77557194 0.59650016 1.1236845 0.97488296
0001c0 74 df b3 3f 44 34 6e 3f 0e 13 8f 3f 20 26 69 3f
       1.4052567 0.930485 1.117769 0.910738
0001d0 3d fb 79 3f b7 5a 94 3f 85 cd dd 3e 17 98 5d 3f
       0.97648984 1.1590184 0.4332086 0.86560196
0001e0 27 f8 83 40 ca 16 45 3f d9 0e 6f 3f 66 71 d6 3f
       4.124042 0.769879 0.9338203 1.6753356
0001f0 c4 00 34 3e d9 aa 16 c0 c9 d6 8c 3f 6f 4a 64 3f
       0.17578417 -2.3541777 1.1003047 0.89176077

net.4.weight f4 [128]
000000 a4 bf 25 bd 17 7d 1b 3c 07 6b 10 3c d1 0c 23 bd
       -0.040465966 0.009490273 0.00881458 -0.039807145
000010 68 e0 bd 3c 0e 23 10 3c 1e 10 ce 3c c9 49 3b bd
       0.023178294 0.00879742 0.02515417 -0.045724664
000020 d5 03 21 be 03 77 03 3c 2d 3c fb 3b 33 d5 97 be
       -0.15724118 0.00802398 0.0076670856 -0.29654846
000030 9f fc 1d ba 79 7d c4 bd ae 29 43 bd 1e 68 c0 be
       -0.0006026718 -0.095942445 -0.04764717 -0.37579435
000040 61 d6 ca 39 95 fa 87 3c 74 e6 4d 39 ce 33 8a bc
       0.00038688167 0.016598979 0.00019636174 -0.016870406
000050 1b 53 8b bc 9d f1 6a 3c e1 35 f4 3d fd 85 f4 3d
       -0.017007401 0.014339832 0.11924339 0.11939619
000060 e1 27 84 3b 35 80 dd 3c ec 56 88 3c 95 5b 0b bc
       0.0040330742 0.027038673 0.01664301 -0.008505722
000070 23 24 c9 bc 68 e4 7a 3c 18 d6 2d 3e 63 9a 6c 3c
       -0.024553364 0.015313245 0.16976202 0.014441106
000080 8d 00 86 bc 8e 13 c2 3c 24 67 99 ba 4e ab 96 3c
       -0.016357685 0.023690965 -0.0011703712 0.018392231
000090 5f ae be 3c 47 5a 04 3f 47 3d 4c 3e c7 49 27 bc
       0.023276506 0.5170025 0.1994525 -0.010210461
0000a0 05 3a d4 bb 34 5c 3a 36 7b cf 22 bc 68 af 73 3d
       -0.006476643 2.776983e-06 -0.0099371625 0.059493452
0000b0 33 b3 f6 3c 8b 20 ac 3f 6d 64 00 bb d9 fc c0 ba
       0.030114746 1.3447431 -0.0019591108 -0.0014723792
0000c0 27 ad 02 bc 9a f5 0d bd fe c9 dc bd ab ac 4e bc
       -0.007975853 -0.034658052 -0.107807145 -0.012614409
0000d0 c1 a6 9b 3c c3 6d 8e 3d e4 5d c7 bd 21 af c0 3b
       0.019000413 0.06954529 -0.09734705 0.005880252
0000e0 ed f5 a8 bd ed a4 e9 3c 2c 2a b0 bc fa 08 9b ba
       -0.082500316 0.028521026 -0.021504484 -0.0011828237
0000f0 bf 4a 3c 3d e6 ee f3 3d 97 90 9e 3c 2a 16 2c 3c
       0.04596972 0.11910801 0.019356055 0.010503331
000100 e5 87 21 3d fd c4 1d bd 3c 09 0f bd f7 31 99 3a
       0.03943624 -0.03851794 -0.034920916 0.0011687864
000110 17 69 02 3d 34 c0 6e 3c f6 71 12 bc f8 5f d7 3c
       0.031838503 0.014572192 -0.008938303 0.026290879
000120 1d ce 54 3b 75 11 62 bc b7 0e b0 3d 0d a0 b9 ba
       0.0032471486 -0.013798107 0.08596557 -0.0014162079
000130 a5 64 5d 3a db 18 b6 3f 05 01 83 bc 41 94 1d 3c
       0.0008445478 1.4226335 -0.015991697 0.009617866
000140 2b d8 35 3b f8 56 51 bc aa ea 12 3c 31 a2 2b bc
       0.0027747254 -0.012777083 0.008967081 -0.010475681
000150 6e 28 5b 3b 7d 50 92 3c 77 82 5c 3b 52 a4 56 bc
       0.0033440846 0.017860645 0.00336471 -0.0131007
000160 df 5b 5d be 57 67 b8 39 67 5f 9a 3b 55 73 11 bb
       -0.21617077 0.0003517221 0.00471108 -0.0022193987
000170 9c 05 a1 bb 7b 67 d3 3c c3 3f e8 bc 0f 7c 54 bc
       -0.004913999 0.02580618 -0.028350716 -0.012969031
000180 ff 10 a7 be 30 22 1e 3d e5 36 9b 3c 56 db cd 3b
       -0.32630154 0.038606822 0.018947074 0.0062822504
000190 56 5e ec bc ea 23 2d 3e d2 f6 33 3d 61 89 d1 3e
       -0.028853577 0.16908231 0.043936558 0.40925124
0001a0 12 ab d5 3d 17 28 7e bc 56 59 e0 3d eb e0 27 3d
       0.1043302 -0.015512488 0.109545395 0.040985983
0001b0 df 55 54 bc d6 91 22 b0 68 68 14 3d 2e 26 8d 3d
       -0.012959926 -5.91425e-10 0.036232382 0.06892048
0001c0 cb 21 cb 3c 24 64 4b 3d 79 0e fb bc 82 29 4b bd
       0.024796387 0.04965605 -0.03064655 -0.04960013
0001d0 a3 24 69 be 4d 11 34 bc 24 ae 5d 3c 03 7a 0f 3d
       -0.22767882 -0.010990453 0.013530288 0.03502847
0001e0 34 c2 0a 3e 16 c2 1b 3d 87 ce 8d 3b fc f1 5b bc
       0.13550645 0.03802689 0.0043275985 -0.013424393
0001f0 39 bb 34 3f 24 4d 7e 3f e5 11 f0 bc ca 99 43 3d
       0.7059818 0.9933646 -0.029305408 0.047754087

net.4.bias f4 [128]
000000 f9 43 db bd dd 25 ca 3d 38 52 af bd 7c 3d c4 bd
       -0.10706324 0.09870503 -0.08560604 -0.0958204
000010 4b ff dd 3d 71 04 cb bd 7b 59 d6 3d 74 36 fc 3d
       0.10839709 -0.099129565 0.10466286 0.123150736
000020 b3 6e b5 bd 0b cd b7 3d 63 21 ae 3d 03 00 f7 bd
       -0.08859005 0.08974656 0.08502462 -0.12060549
000030 73 98 c5 bd 10 dd f1 3d a5 a5 e8 bd 26 ca db bd
       -0.09648218 0.118097425 -0.11359719 -0.10731916
000040 46 6b 0e 3b 57 05 e6 3d 0f e7 ba ba 28 6a c6 bd
       0.002173142 0.11231487 -0.0014259535 -0.096882164
000050 5f d5 b2 3d 8e 8e cb bd 86 d0 d6 bd 58 d7 84 bb
       0.087321036 -0.099392995 -0.104889914 -0.0040539913
000060 5c 3d d7 3d d0 ba 49 bb c8 1d cb 3d 6c 56 01 3a
       0.1050975 -0.0030781515 0.0991779 0.00049338373
000070 73 e9 b9 bd 8c c2 d0 3d e2 9d fa bb 79 03 dc 3d
       -0.0907773 0.10193357 -0.0076482156 0.1074285
000080 24 0a f5 bd 23 4c a4 bd 9d 83 a6 bd 01 d9 a3 bc
       -0.11964825 -0.080223344 -0.08130572 -0.020000936
000090 81 52 ed 3d a5 cb cd 3d cc 19 d2 3d d0 81 bd 3d
       0.11588002 0.10048608 0.102588266 0.092532754
0000a0 e5 d0 b7 3d 23 4f 56 b6 3a 59 a7 3d 02 3c d0 3b
       0.0897539 -3.1934549e-06 0.081713155 0.0063548097
0000b0 75 d0 b6 bd 40 2a f9 3e be 61 b9 bd 6f d9 eb bb
       -0.08926479 0.48665047 -0.09051846 -0.007197551
0000c0 f6 94 93 bd c5 99 bc bd 75 4d a6 3d d5 04 d0 3d
       -0.072061464 -0.09209017 0.081202425 0.10157172
0000d0 ed 78 ca 3d be 9f e1 3d 4f 32 f7 bd 99 c1 a7 3d
       0.09886346 0.110167965 -0.120701425 0.08191223
0000e0 80 8c 72 3d c0 cc 60 bd 4e e2 05 be 35 89 54 3b
       0.059216022 -0.054882765 -0.1307461 0.0032430415
0000f0 ef 64 7e 3d f0 a1 f9 bb 1e 37 fe 3d 18 30 b6 bd
       0.062107977 -0.0076181814 0.124128565 -0.08895892
000100 f0 42 ea 3d 8b e7 93 3d 66 6b ff bd d9 03 d7 3d
       0.114385486 0.07221898 -0.124716565 0.10498781
000110 c2 f7 52 bd 0f 56 c3 3d 1c 74 f9 3d 17 2e db 3d
       -0.05150581 0.09537899 0.12180349 0.1070215
000120 b8 92 90 3d aa f9 ae bd 04 fb e8 bd 19 ca f4 bb
       0.070592344 -0.085437134 -0.113760024 -0.007470381
000130 92 34 fe 37 e3 82 e3 3c ea ea 92 3d a5 ac 85 bd
       3.030364e-05 0.027772373 0.071737126 -0.0652707
000140 64 44 97 3d 44 03 bf bd d7 1a f1 bd c7 0d e8 bd
       0.07386091 -0.09326795 -0.117726974 -0.11330753
000150 24 4f a6 3d 07 e4 9f 3d 33 19 e1 bd b9 21 bf bd
       0.081205636 0.07807165 -0.109911345 -0.09332604
000160 e9 98 eb 3d 21 ed 98 3d 4f 3b 91 3d 68 ca d5 bd
       0.11503775 0.07467104 0.0709139 -0.104389966
000170 58 18 ed bd 3e 4b a3 bd cd f7 cd bd 47 97 f3 bd
       -0.11576909 -0.07973336 -0.1005703 -0.11894088
000180 5c 9c e0 bd b1 f4 f1 3d a3 8e d1 3d fa 88 f2 bd
       -0.10967323 0.11814249 0.10232284 -0.118425325
000190 bc 6d e8 bd 3e 82 df bd 79 91 9b 3d 60 28 0c 3d
       -0.11349055 -0.109135136 0.07596106 0.034218192
0001a0 83 a6 ee bc 9c da f2 bd f0 52 14 bc ed 55 a3 bd
       -0.029132133 -0.11858103 -0.009052977 -0.079753734
0001b0 08 31 f2 bd e2 03 1b 2f d5 71 e1 3d 73 b7 a7 bb
       -0.11825758 1.4098547e-10 0.1100804 -0.0051183044
0001c0 5e 6c ca 3d f0 50 af bd c2 6c 9b 3d f7 c4 a7 bd
       0.09883951 -0.085603595 0.07589103 -0.08191865
0001d0 80 bc 6d 3d e8 db 9d 3d 28 d7 c1 3d b5 ea 90 3d
       0.058041096 0.077079594 0.09464866 0.07076017
0001e0 6b 7d 16 3e 3c 65 cd bd 73 f3 b1 3d fc 5e c8 bd
       0.1469628 -0.100290745 0.086890124 -0.09783742
0001f0 09 cb 15 3f f9 57 c6 bb ff c3 e3 bd 91 bf a2 3d
       0.5851293 -0.0060529676 -0.11121368 0.07946695

out_mean.weight f4 [1, 128]
000000 22 f5 24 bb 80 40 ff bb 57 a3 33 3b 90 de e1 3b
       -0.0025170525 -0.0077896714 0.002741059 0.0068929866
000010 f4 20 91 bb 49 bb 27 3b 77 66 19 bb e0 54 3d bb
       -0.004428977 0.0025593808 -0.002340702 -0.00288897
000020 e8 77 62 3c fb 67 81 ba 2b 92 38 bb a3 59 fc 3b
       0.013822533 -0.0009872908 -0.0028163295 0.007701115
000030 5f c4 2b 3b 22 b6 d7 bb d3 e0 1b ba b4 70 05 3c
       0.0026209576 -0.006582991 -0.0005946282 0.008144546
000040 41 77 da b8 54 2d 58 ba 79 7c b2 b9 85 c2 be bb
       -0.00010417263 -0.00082465005 -0.00034043545 -0.0058215284
000050 41 26 40 bb e5 d2 b2 3b 44 47 bb 3b 9d 6d 9e ba
       -0.0029319676 0.0054572695 0.0057152826 -0.0012087111
000060 9a 66 f1 ba 66 91 90 38 9a f7 b0 bb b8 97 89 39
       -0.0018417418 6.893538e-05 -0.00540061 0.00026243716
000070 33 81 7d 3b 3a 7c 96 bb 50 94 aa bb 90 6e 40 bb
       0.0038681745 -0.0045924457 -0.0052056685 -0.0029362775
000080 3b 0e f1 3b 6d bd 17 3b 0c 29 ce 3b fb 60 37 3a
       0.0073564327 0.0023153678 0.0062915143 0.0006995347
000090 a7 7d 9e bb f5 ce 1c bc 26 33 3f ba 3f 3c f7 ba
       -0.0048367563 -0.009570827 -0.00072936935 -0.0018862559
0000a0 59 66 5e bb 57 d0 ff 35 24 47 0c 3c c7 ce b2 3a
       -0.0033935516 1.9059615e-06 0.008561883 0.0013641947
0000b0 9c 2a 0c 3b 45 f8 04 c0 57 bc 2d 3b dd b2 32 3a
       0.0021387702 -2.0776532 0.0026509964 0.0006816814
0000c0 d5 db 1a bc 45 9e 58 3b 4a cd 31 bb 9d fb 72 3b
       -0.009451826 0.003305332 -0.0027130418 0.0037076243
0000d0 cc 92 37 bb 12 5d 8a bb 03 d2 04 3b c2 34 35 bb
       -0.0028011082 -0.0042225206 0.0020266778 -0.0027649854
0000e0 ac 74 18 bb e0 2c 93 3a e6 48 03 3c f4 3d f3 b9
       -0.0023262901 0.0011228584 0.008012986 -0.0004639473
0000f0 5a e8 91 3b 30 94 e7 39 86 6e d7 3b 9f 33 38 3b
       0.0044527473 0.00044170162 0.0065744547 0.002810694
000100 47 7d 3f bb 6b 16 1a bb 40 76 e8 3b 8e bd 42 bb
       -0.0029218958 -0.0023511897 0.0070941746 -0.0029715034
000110 c7 77 f9 3a ea 1c a1 bb ee f4 3e bc 24 ae 59 3b
       0.0019032889 -0.004916777 -0.0116550755 0.0033215368
000120 77 6c 2f bb 20 7c 8b 3b bd 52 a2 3b d2 78 10 3a
       -0.002676753 0.00425674 0.004953711 0.00055111677
000130 00 5b 2b ba 3c e7 79 be d4 dc fb 39 9e 1b 02 3b
       -0.00065366924 -0.24404615 0.0004803898 0.0019852887
000140 58 10 18 3c 76 73 c3 bb d3 84 ae 3b c6 cf ca 3a
       0.00928124 -0.0059646918 0.0053258925 0.0015473298
000150 cd 03 18 bb 5a 97 8a 3b 0b 93 9b 3b f2 92 52 3b
       -0.0023195625 0.0042294683 0.0047477535 0.0032131043
000160 ac 18 a6 3a 65 3e 4b bb e0 9c 90 bb bb 1f 22 3b
       0.0012672148 -0.0031012532 -0.004413232 0.002473815
000170 d0 f5 90 3b 96 96 4d 3b 2a 97 a0 3b f4 58 a5 3b
       0.0044238344 0.0031370274 0.0049008327 0.0050460044
000180 27 83 03 3c d9 c0 d8 3a ce e6 f4 b9 e3 30 07 3c
       0.008026875 0.0016536965 -0.0004671127 0.008251402
000190 41 32 00 bb f8 56 be 3b b0 09 03 3c ec b0 be bb
       -0.0019561204 0.0058087073 0.007997915 -0.0058194306
0001a0 3a 8f 33 3a fb d9 02 3c e8 21 6d b8 4e 52 44 3b
       0.00068496505 0.007986541 -5.653678e-05 0.0029956284
0001b0 f8 a0 70 ba da 3d 1f af 64 ed 8f bb 4f 0a db 3a
       -0.00091792597 -1.448294e-10 -0.004392313 0.0016711446
0001c0 a9 77 23 bb 0a 24 c8 3b 77 15 2f bb ee a6 96 3b
       -0.002494315 0.006107812 -0.0026715675 0.0045975363
0001d0 4a 9f d8 3c 53 ed 2a bb 96 3f 26 bb 92 a3 4c bb
       0.026443142 -0.0026081398 -0.002536749 -0.0031225425
0001e0 d2 47 0d ba fd 88 ff 3a d3 11 84 bb 7e 6e c0 3a
       -0.0005389425 0.0019495782 -0.004030445 0.0014681367
0001f0 5f 06 01 40 83 f5 9d 3f 60 82 90 3b 4e f3 a3 3b
       2.0160139 1.2340549 0.004410073 0.0050033694

out_value.weight f4 [1, 128]
000000 2d 27 f0 3d 32 bc ec bd 7d bb c6 3d 01 c8 df 3d
       0.11726222 -0.11559333 0.09703729 0.109268196
000010 cc 3b f9 bd b8 e1 df 3d 8d 21 e9 bd 62 be 0b be
       -0.121696085 0.10931724 -0.113833524 -0.13646844
000020 80 b6 d8 3d 4e 72 d0 bd 1c 76 c6 bd f0 22 05 3e
       0.10581684 -0.10178052 -0.09690496 0.13001609
000030 5f cc da 3d 05 08 09 be a5 af fe 3d a0 0a f3 3d
       0.10683512 -0.13381965 0.12435845 0.11867261
000040 55 bd bc 38 4b 49 ce bd f3 b1 de 38 aa d7 e2 3d
       8.9998044e-05 -0.10072573 0.000106189305 0.11076291
000050 44 ef ca bd 4d 9e e6 3d 57 b5 e9 3d 93 48 a8 b8
       -0.099089175 0.11260662 0.11411541 -8.024382e-05
000060 92 72 b4 bd 83 fe bb 39 7b ad ea bd 6f e0 24 b9
       -0.08810915 0.00035857045 -0.1145887 -0.00015723867
000070 e2 60 d5 3d 18 4c eb bd 94 d9 33 3b cf 23 f1 bd
       0.104188696 -0.11489123 0.002744292 -0.11774408
000080 b8 11 09 3e ea a8 ba 3d 1d ea c0 3d 09 18 87 ba
       0.13385665 0.09114249 0.094196536 -0.0010306846
000090 09 25 05 be 86 af e5 bd e3 4e e4 bd 45 74 cf bd
       -0.13002409 -0.11215119 -0.11147859 -0.101295985
0000a0 66 12 d1 bd 02 a3 d9 36 a5 7b c4 bd 99 76 20 bc
       -0.10208587 6.4860806e-06 -0.09593896 -0.009793901
0000b0 46 47 cc 3d 4c cf 2f bc b4 0e d0 3d 1f 95 45 b9
       0.09974532 -0.010730576 0.101590544 -0.00018842936
0000c0 78 5d af 3d e1 bb d1 3d 09 90 bd bd d6 c1 eb bd
       0.085627496 0.10240913 -0.09255988 -0.11511581
0000d0 6b 5c e0 bd 25 0a fc bd 85 0b 09 3e 9b fa c0 bd
       -0.10955127 -0.123066224 0.133833 -0.09422799
0000e0 de c9 8b bd f7 17 d0 3c 36 8e 18 3e fa 75 d3 ba
       -0.068256125 0.025402052 0.14897999 -0.0016133182
0000f0 df 59 97 bd 75 58 46 3b 27 2a 07 be c4 50 cb 3d
       -0.073901884 0.0030265127 -0.13199674 0.09927514
000100 2d cf fd bd 23 6e aa bd a5 28 0d 3e d7 8f ea bd
       -0.12393031 -0.08321788 0.13785036 -0.114532165
000110 18 ba 6f 3d 7a 8a e0 bd 66 e2 0c be eb d8 f6 bd
       0.058527082 -0.10963912 -0.13758239 -0.120530926
000120 61 af aa bd f2 e9 ca 3d 6d 85 03 3e bd 04 76 b9
       -0.08334232 0.09907903 0.12843867 -0.00023462153
000130 fa e8 f2 38 33 f0 e9 ba 7e 5a 09 bd a8 2d 94 3d
       0.000115828545 -0.0017848074 -0.033533566 0.07235271
000140 e7 9e b5 bd ba 69 e0 3d 6e 30 09 3e 88 32 02 3e
       -0.08868199 0.10957666 0.1339738 0.12714589
000150 f4 d3 bb bd 57 8c b8 bd ff 3e fc 3d 3a 36 d7 3d
       -0.09171286 -0.09011143 0.12316703 0.1050839
000160 a8 06 f6 bd 40 42 b4 bd 22 ed b1 bd 04 3f e9 3d
       -0.12012988 -0.08801699 -0.086878076 0.113889724
000170 45 f1 04 3e da f1 bb 3d ab 01 ed 3d 56 65 08 3e
       0.12982662 0.09176989 0.11572584 0.13319907
000180 03 87 f8 3d dc 9b 05 be 24 92 e2 bd 05 46 08 3e
       0.121351264 -0.13047737 -0.1106303 0.1330796
000190 9e 37 02 3e 18 bf f8 3d 2b 71 b7 bd c3 3b 0a bd
       0.12716529 0.12145823 -0.08957132 -0.0337484
0001a0 99 0f fd 3c d2 d4 08 3e d3 9c b3 3b 2f 51 bd 3d
       0.030891227 0.13362435 0.0054813414 0.09244
0001b0 38 64 05 3e de 0e b0 ad ff 11 fa bd 3e a2 87 3b
       0.13026512 -2.0015486e-11 -0.12210464 0.004139214
0001c0 53 bd dd bd 17 31 ca 3d 37 c4 b2 bd 4a 75 c6 3d
       -0.10827126 0.098726444 -0.08728831 0.0969034
0001d0 db 1e 87 bd 2a 56 b4 bd 14 35 c6 bd 1b a6 ad bd
       -0.06597682 -0.08805497 -0.096780926 -0.08478948
0001e0 e7 16 1c be e8 c0 e4 3d ea 45 ce bd 38 1e d6 3d
       -0.15243112 0.111696064 -0.10071929 0.104549825
0001f0 09 05 af bc 6c 25 28 ba ff 29 fd 3d b5 76 be bd
       -0.021364706 -0.00064142677 0.12361526 -0.09299985
