ppo_algorithm/data/CartpoleSwingShort-v0_2019-03-06_16-44-58/best_policy/ppo_network.pt (torch_old, 13170 bytes, 4 tensors)

weight f4 [64, 5]
000000 44 6d 39 3e 6c ae 99 be f6 81 44 bd 7c 29 46 3d
       0.18108088 -0.30015886 -0.047975503 0.048379406
000010 10 a6 d6 bc c1 0a 71 3d ee 1b 95 bd e6 62 17 3e
       -0.026202232 0.058848146 -0.07280718 0.1478382
000020 dd 2f b4 bc cb 4c da 3d e3 3e 83 be 87 c2 e7 bb
       -0.02199548 0.10659178 -0.25633916 -0.00707275
000030 7f 05 57 be 2a 17 cc bd bf 55 be be 4a 43 bd 3d
       -0.2099819 -0.09965356 -0.37174794 0.0924135
000040 aa dd 3a 3d 30 22 d7 bd ca 8b 96 bc 51 8c 87 3d
       0.04562155 -0.105045676 -0.018377203 0.0661856
000050 b5 e4 29 3e 9b 31 86 bd 03 91 fc bd 79 8d a8 3d
       0.16591151 -0.0655243 -0.12332346 0.08230109
000060 bb d7 6e 3c 07 69 89 3d 9b 3f 19 bd 8a 96 2a 3e
       0.014577801 0.067094855 -0.037414175 0.16658989
000070 d6 04 88 3d bc 4f 93 bd 50 e5 9c bd 8b aa 59 be
       0.066415474 -0.071929425 -0.076609254 -0.21256463
000080 b8 ad 4a be 81 15 17 3d 76 b9 1d bd ba eb 0c 3c
       -0.19792831 0.036885742 -0.038506947 0.0086011235
000090 56 71 92 be 02 ea 98 3d 07 96 89 3d 22 81 c9 bd
       -0.28602093 0.074665084 0.067180686 -0.09839083
0000a0 ef a2 0e 3e f9 bf 40 be 14 48 11 be d4 93 7c 3a
       0.13929342 -0.18823232 -0.14187652 0.0009635065
0000b0 93 a4 e9 be aa 7c 2d bd b1 5d 8c 3e 6e d7 54 be
       -0.45633373 -0.042355217 0.2741523 -0.20785305
0000c0 46 10 9f 3c 7e 24 da bc bb 22 28 be d2 c4 5b 3e
       0.01941694 -0.026628729 -0.16419499 0.214618
0000d0 77 44 0e 3e 02 35 c2 3d 12 5e 8a 3e af 94 54 bd
       0.13893305 0.09482767 0.27024895 -0.05189961
0000e0 1e 38 0b 3e 83 df e8 bd 42 53 11 3b b0 f6 10 be
       0.13595626 -0.113707565 0.002217487 -0.14156604
0000f0 4b 54 f2 bd 12 e5 2d be e1 e0 f4 3d f9 c7 a4 3d
       -0.11832484 -0.16981915 0.11956955 0.08045954
000100 8e 31 83 3e a0 68 99 3e 4f c0 77 bd 8a a3 33 3e
       0.25623745 0.29962635 -0.060486134 0.17542854
000110 de 14 eb 3b 8e 38 95 be 15 6d 08 3e bc 7b 86 3d
       0.0071741184 -0.2914471 0.13322861 0.06566569
000120 d6 1c 04 3e 09 30 70 bc a7 d9 f4 3d 43 07 bb bb
       0.12901625 -0.01465989 0.119555764 -0.005707653
000130 d0 19 11 be ad 7f 48 bd fd 47 75 3d 12 1c fa 3d
       -0.14170003 -0.048949886 0.059883106 0.12212385
000140 e6 2e 8f 3d 02 c1 4f 3c c8 a5 6f 3d c6 46 17 be
       0.06991367 0.012680294 0.05850771 -0.14773092
000150 1a 75 14 3e 1c 9f c6 3e d6 a7 4e 3e ea 54 5c bc
       0.14497796 0.38793266 0.20181212 -0.013447979
000160 fc 45 fe 3d 8a 88 a2 be 1d d4 01 be 32 a7 07 bc
       0.12415692 -0.31744796 -0.12678571 -0.008279609
000170 a9 05 ed 3b 94 55 c9 3c d4 fd 84 bc 12 fc a7 bd
       0.0072333408 0.02457694 -0.016234316 -0.082023755
000180 2e 86 b7 bd 9d f7 6d bd 99 46 dd bd 0f 97 11 3d
       -0.089611396 -0.05809747 -0.10804481 0.03554445
000190 42 8c 8a be dd f2 ae 3d 0b 6e 3b 3d d2 b7 e7 3d
       -0.27060133 0.08542416 0.045759242 0.11314358
0001a0 9b ae 95 bd 33 0c 8c 3e 27 eb ca 3c a2 1e c9 3b
       -0.07308694 0.27353057 0.024770333 0.006137685
0001b0 e6 38 ac bd 05 0a 05 3e ad 32 21 be 73 ce d8 bc
       -0.0840929 0.12992103 -0.15741988 -0.02646563
0001c0 f0 51 05 3c da 5e 1d bd bc b6 91 be af 6c 86 bd
       0.008137211 -0.038420536 -0.28459728 -0.065636985
0001d0 08 73 10 3d 96 ac 4e 3e af 61 81 3e 46 d7 30 ba
       0.035265952 0.20183024 0.2526984 -0.00067459454
0001e0 a0 fe 0a be 77 cc 1f be 42 09 63 3d f3 b3 1f be
       -0.13573694 -0.15605341 0.05542875 -0.15595989
0001f0 cb cd 93 be a8 db 01 be 4c 42 22 bd 4b dd 9c be
       -0.28867945 -0.12681448 -0.039614007 -0.30637583
000200 28 01 dd be 88 bc c7 3e b3 7b 5c 3e d3 cd 93 3c
       -0.43164945 0.39011025 0.21531563 0.01804248
000210 a0 7d 06 bd f7 45 de bd b2 23 5b be 09 7f 9d bd
       -0.03283465 -0.108531885 -0.21400335 -0.07690246
000220 50 d6 bf 3d 1e 2a 27 3e 96 7e 78 bc e5 87 31 3d
       0.09367049 0.1632466 -0.015166899 0.04334249
000230 4d fe a7 bc 0a 65 19 be 1d dd d4 3d 7d ca 5c 3e
       -0.020507002 -0.1497995 0.103937365 0.21561618
000240 66 43 4f bd c4 02 63 3d 71 e2 8e 3e 91 14 33 be
       -0.050601386 0.05542256 0.27907136 -0.17488314
000250 ca d3 cc bd 4f bc e8 3d 31 27 3e 3c e5 5c c4 3e
       -0.10001333 0.11364042 0.011606024 0.38352123
000260 f8 c1 9e 3c 5f 1d ad bc 7b 4c 05 3e 52 32 aa 3e
       0.0193796 -0.02113217 0.13017456 0.33241516
000270 33 eb 8b 3c 17 0a 3c be 95 c9 4c bd e7 e1 01 be
       0.017079925 -0.18363224 -0.04999693 -0.12683831
000280 49 aa 20 3e d2 73 8d 3d b7 f7 cd bd 9f 8e 0b be
       0.15689959 0.069068566 -0.100570135 -0.13628624
000290 35 60 c8 3b dd ab b5 bd 33 77 67 bd 71 1e 8e 3d
       0.0061149844 -0.08870671 -0.05651016 0.069394
0002a0 ab bc 1a bd 3e af ee 3d 93 4e 25 3e b1 b4 cd bd
       -0.037777584 0.116545185 0.16143255 -0.1004423
0002b0 eb f0 8d 3c a0 4b 08 be 77 e9 03 be 4c ca 14 be
       0.017326793 -0.13310099 -0.12882029 -0.14530295
0002c0 07 31 c4 3d cf bb 77 3e 48 b1 18 3d fb e8 2d be
       0.09579664 0.24192737 0.037278444 -0.16983406
0002d0 91 5a 00 3d 09 51 34 3e db 6c 41 be 89 48 c7 3d
       0.03133637 0.17609037 -0.18889181 0.09730632
0002e0 e6 ba d2 bd d3 a8 b5 bd 6c 66 4c bd e2 22 8a 3d
       -0.10289554 -0.08870091 -0.049902365 0.067449346
0002f0 e4 17 0f bb bd 76 67 3e 06 ea 19 bd 97 2e 7f 3b
       -0.0021834308 0.22603889 -0.037576698 0.0038937682
000300 0e f7 e9 3d 51 18 20 be a1 51 d9 bc f0 6c c6 bd
       0.11424075 -0.15634276 -0.026528182 -0.09688747
000310 aa 8a 4f 3e 99 88 06 3d df 2a da 3c 00 f7 43 3e
       0.2026774 0.032845113 0.02663177 0.19137192
000320 72 79 64 be 27 37 cd bd 94 70 0a be 66 c4 9c 3e
       -0.22311953 -0.10020285 -0.13519508 0.3061859
000330 28 77 9f bd c6 d1 4d 3d 97 e3 e3 bd d3 98 52 bd
       -0.07786399 0.050248884 -0.11127394 -0.051415276
000340 60 6c c2 3d 4b ff 15 3d f1 18 69 3e 35 e6 d9 be
       0.09493327 0.03662042 0.2276342 -0.42558447
000350 58 a1 4a be ef ca d1 3c 60 9d 93 3c 86 d7 c3 bc
       -0.1978811 0.025609462 0.018019378 -0.02390648
000360 b4 ab 1c be 00 15 70 3d 03 d7 25 bd d9 b6 38 be
       -0.15299875 0.058613777 -0.040488254 -0.18038501
000370 b6 14 62 3d f7 38 e8 3e 7f 83 07 3e 4b 95 5f bd
       0.055195533 0.4535596 0.13233756 -0.054585736
000380 d5 53 af bc e3 ad 1b be 7d f7 bc be 9f 3e 7c 3d
       -0.021402279 -0.15203051 -0.3690757 0.061583158
000390 84 c9 39 be 03 a1 f3 3d 23 be 09 bd 07 0b 50 3e
       -0.18143278 0.11895945 -0.033628594 0.20316707
0003a0 88 8b a9 bd bd a7 c3 bc 3b 6e 00 bf b2 69 20 be
       -0.082785666 -0.023883695 -0.501682 -0.1566532
0003b0 12 5b 44 3e 98 15 84 3d ba c6 ea 3c b5 01 c8 3d
       0.19175366 0.06449431 0.028659213 0.097659506
0003c0 a1 51 35 3e 38 fe b3 be 74 de 9e 3e fe ef 8c 3e
       0.1770692 -0.3515489 0.31029093 0.2752685
0003d0 31 82 06 be 8a c5 e0 3c ee 5c 43 3d 71 b1 98 be
       -0.13135602 0.027437944 0.047696047 -0.29822877
0003e0 ec e9 b8 bc 0f e4 c4 3d a5 fa 5e be ab cf f3 bb
       -0.02257248 0.09613811 -0.21775301 -0.0074405274
0003f0 d5 4f 85 bd be 24 a8 3e 74 a1 80 3e 7f f9 d8 be
       -0.065093674 0.32840532 0.2512318 -0.4237785

bias f4 [64]
000000 87 ee 98 3c f9 ff cf bc 06 83 a6 ba 3d 49 dc bb
       0.018668426 -0.025390612 -0.0012703843 -0.006722598
000010 aa 79 86 bb 47 1e c8 3b 2b e8 7d 3c 2a 7b f9 3b
       -0.004103859 0.006107125 0.015497248 0.0076135593
000020 c4 58 37 3d b0 97 6c 3c 11 28 5d bc aa 11 07 bc
       0.044762388 0.014440462 -0.013498322 -0.008243958
000030 ea 66 ad bc 9e 74 ab 3b 59 96 ea bc b2 cb 4f bb
       -0.021167237 0.0052324077 -0.028636144 -0.0031707105
000040 56 f7 22 bd 6d c9 09 bc f8 16 27 bc ba 65 83 3c
       -0.03978666 -0.00840984 -0.010198347 0.016039718
000050 a7 62 1f 3c e8 98 a1 bb a7 a8 2c bc 86 2a 11 bd
       0.00972811 -0.004931558 -0.010538257 -0.035440944
000060 df 7c 55 bc 43 78 d0 3c d7 5a 99 3c ff d2 19 3c
       -0.01303026 0.02544797 0.018720074 0.009388684
000070 34 2a 8a bc 4a f3 12 bc 9d 5c 00 3c d3 29 0e bc
       -0.016865827 -0.008969137 0.007834581 -0.008676964
000080 73 63 03 bc 32 f0 bd bc b5 df a9 bc 4d 1d 54 bc
       -0.008019316 -0.023185823 -0.020736555 -0.012946439
000090 a4 2c 4e bb fa 67 16 3c 7f 4d c4 bd e2 e6 4a bc
       -0.0031459713 0.009180063 -0.09585094 -0.012384148
0000a0 22 36 fe bb 5c 13 1c bc 3a 53 9f 3c 83 72 b9 bc
       -0.007757918 -0.0095261 0.019448865 -0.022637611
0000b0 6e d7 8f bc 20 43 7e bc 28 09 97 3c 6c 33 69 bc
       -0.01755878 -0.015518934 0.018436983 -0.014233451
0000c0 85 25 52 bc 71 b1 c7 3c eb 92 c1 3c 3e 55 e3 bd
       -0.012826328 0.024376603 0.023629626 -0.11100243
0000d0 2f ae 9d 3c 67 9f bb 3d 36 8f 38 bc c4 1f e3 bc
       0.019248096 0.09161263 -0.011264613 -0.027725108
0000e0 1f e3 7e 3c 0a 1f 22 3c 61 84 0c bc f7 b9 c6 bb
       0.01555708 0.009895096 -0.0085764835 -0.006064649
0000f0 68 45 9b 3a 14 1b a5 3c bc 83 7f bc a0 66 ec bb
       0.0011846246 0.020154513 -0.015595373 -0.0072143823

weight f4 [1, 64]
000000 be a4 1e 3d eb c4 31 3d 04 05 bb be a1 7c ff bd
       0.03873133 0.043400686 -0.36527264 -0.12474943
000010 8f c6 fd 3c ed 59 01 be 4d 98 d7 3e 6a fa 19 3e
       0.03097847 -0.1263196 0.42108384 0.15036932
000020 92 08 bf 3d 6d 49 3f bd e5 fd 47 be 62 db 52 be
       0.093278065 -0.046700884 -0.19530447 -0.205915
000030 d0 9d 44 3d 6f 74 cc 3c eb cf 7f 3e 51 77 0d 3c
       0.048002064 0.024957864 0.24981658 0.008634404
000040 bd 54 1f 3e 02 24 a4 be 94 3c 8c 3d 2f 4d 7f bd
       0.15559669 -0.32058722 0.06847492 -0.062329467
000050 cb 2f 2e 3c 21 e6 d4 3d 85 59 a8 be 6a ab 64 be
       0.010631512 0.10395456 -0.32880798 -0.22331014
000060 55 3b 03 be 50 83 a1 3c f5 62 0c bc 96 03 e8 3d
       -0.12815602 0.019715935 -0.008568515 0.11328809
000070 d7 80 be be ff 3a b4 bd 2f 47 6e 3e b6 c5 3d 3e
       -0.37207672 -0.08800315 0.23269342 0.18532452
000080 d7 e0 c5 be 1a c6 61 bd e5 5e 4b 3e 5e c9 1b be
       -0.38648102 -0.055120565 0.19860418 -0.15213534
000090 5e a0 a6 3d 05 3b 3a 3e 9c 56 73 3d 2a 4b c0 bd
       0.08136056 0.18186577 0.05940877 -0.093893364
0000a0 ae ad 6d 3e ed ce 7f bb 37 b8 f0 3c 93 af d8 bd
       0.23210785 -0.003903325 0.029384715 -0.10580363
0000b0 53 07 0e be 97 96 c6 be 5a a2 c4 bd 74 06 0d be
       -0.13869981 -0.38786766 -0.096012786 -0.13771993
0000c0 1c b6 1f 3d 4a 5e 49 be 91 7f 13 3e f1 08 fc ba
       0.038992032 -0.19664875 0.14404131 -0.0019228739
0000d0 62 1a 95 be 72 13 05 bd 5e 85 c5 3e da 11 ad 3c
       -0.2912169 -0.032489248 0.38578314 0.021126676
0000e0 20 5b 17 be 21 25 ec bd d0 4a fe bd e7 e6 a3 bd
       -0.14780855 -0.11530519 -0.12416613 -0.080030255
0000f0 cd 84 01 3e 2a e2 0c 3e 78 02 d2 3d d9 a7 45 be
       0.12648316 0.1375815 0.10254377 -0.1930231

weight f4 [1, 64]
000000 1e f6 3a bc 9d 43 41 bd 3e 99 b9 bd ee 6f 17 be
       -0.011411218 -0.04718362 -0.09062432 -0.14788792
000010 75 ca b4 bd de 3c e9 3d b1 ee d9 3d e1 14 52 3e
       -0.08827678 0.113885626 0.1064123 0.20515777
000020 b3 4a 6f 3b 1b 4e 9f 3e f4 5f b1 be 36 ad 47 be
       0.003651303 0.31114277 -0.3464352 -0.19499668
000030 65 33 80 3c 06 8a ee 3d 87 b8 f2 bc 73 ca 93 bd
       0.015649507 0.1164742 -0.029629005 -0.072163485
000040 8e 38 49 bb b6 da 9b bd c2 50 81 bc f5 3b 33 3e
       -0.0030703875 -0.07610075 -0.015785579 0.1750334
000050 6c 39 9a 3e 46 a2 2b bb d5 8b 36 be c5 d4 14 ba
       0.30121934 -0.0026189252 -0.17826779 -0.0005677457
000060 58 02 87 be 1c c9 16 3d 25 cc 18 bb 55 20 64 3e
       -0.26368976 0.036812887 -0.002331504 0.22277959
000070 db 73 29 3b 19 e5 9e be 38 49 30 3e 66 ba 1e be
       0.0025856409 -0.31034163 0.1721543 -0.15500793
000080 8f 8e 60 be a2 08 1f bd 1c f7 bc ba 94 d3 8a be
       -0.21929382 -0.038826592 -0.0014416906 -0.27114546
000090 bd b6 99 bd a0 bd 8a 3e 93 a1 49 3a 95 b3 c7 be
       -0.07505558 0.27097797 0.0007691618 -0.39004198
0000a0 76 a5 11 be a8 61 82 be cc d8 b5 3d d7 e1 0f 3c
       -0.14223275 -0.2546513 0.08879241 0.008781872
0000b0 d6 e8 d7 bd 1b 54 69 bd 04 7f 02 3e ff 68 89 be
       -0.10542457 -0.056964975 0.12743765 -0.26837918
0000c0 4b f7 87 be 70 bb 58 3d 3b 1a ed 3c 39 f9 fe b9
       -0.26555857 0.05291313 0.028943172 -0.0004863234
0000d0 1e b3 bc 3d 46 80 31 3a 82 7d dd be 17 2a 2c bd
       0.092138514 0.00067711284 -0.43259817 -0.042032328
0000e0 6d cd 2c 3e 5d f7 b1 3e 0e cb 44 be a2 67 2d be
       0.16875239 0.34759036 -0.19218084 -0.16934064
0000f0 e2 2d 28 3d cb 5d 0c bc ba 4c 1b be 1d 88 33 be
       0.041059382 -0.008567284 -0.15165988 -0.17532392
