ppo_algorithm/data/CartpoleSwingShort-v0_2019-03-06_16-44-58/checkpoint/ppo_network_state_dict.pt (torch_old, 3286 bytes, 4 tensors)

net.0.weight f4 [64, 5]
000000 71 44 29 3e 1c 35 99 be 88 aa 8b bd 5a 76 12 3d
       0.16530015 -0.29923332 -0.06819636 0.0357574
000010 3a 68 00 bd 04 f4 6c 3d a0 93 67 bd ea 4b 2e 3e
       -0.0313494 0.0578499 -0.05653727 0.17021146
000020 14 6a 87 bb af 93 c3 3d 6a db 8b be fc 59 3f bd
       -0.0041325185 0.09549653 -0.27315837 -0.046716675
000030 50 2b 5a be 77 94 bf bc 36 27 b4 be 37 97 aa 3d
       -0.21305585 -0.023386223 -0.35186166 0.08329623
000040 82 bc 28 3c 15 99 ce bd 57 54 b1 3b f3 89 7f 3d
       0.01029885 -0.10087792 0.0054116654 0.062387418
000050 e5 fe 1e 3e b0 32 a4 bd af fe f8 bd 2a 9d ba 3d
       0.15526922 -0.080174804 -0.12157952 0.09112008
000060 d2 51 10 3c ed 3b 9f 3d a5 d1 83 bd 52 4d 26 3e
       0.00880857 0.07775102 -0.06436471 0.16240433
000070 c6 67 bb 3d eb 62 9a bd 8d 69 99 bd 50 c1 08 be
       0.091506526 -0.07538398 -0.07490835 -0.13354993
000080 db 3b 57 be e4 b4 27 bd be 6b bf bc 5e f6 90 3c
       -0.21018927 -0.040943995 -0.023366805 0.017695602
000090 0f 82 8c be 19 75 8e 3d b0 fa 57 3d 95 7a d0 bd
       -0.27442977 0.06955928 0.05272931 -0.10179631
0000a0 a1 a6 f8 3d a4 70 1d be c8 74 3e be b2 dd 79 bd
       0.12141157 -0.15375 -0.18599236 -0.06100244
0000b0 eb 21 01 bf 36 b9 17 bd ab ec 87 3e 3d f2 60 be
       -0.5044238 -0.037041865 0.2654775 -0.21967407
0000c0 86 79 f3 b9 59 bb 93 bc 7e 2a 33 be c6 bc 68 3e
       -0.00046439114 -0.01803367 -0.17496678 0.22728261
0000d0 20 7f 18 3e 1a 8c 04 3e 2e 23 90 3e 3d 72 7c bd
       0.14892244 0.1294407 0.2815184 -0.061632384
0000e0 e6 91 ce 3d bc 78 de bd a5 3a 55 3d 72 36 1b be
       0.10086422 -0.10862872 0.05205788 -0.15157488
0000f0 b3 8e c2 bd a7 dc 0b be 1f 17 13 3e ab 37 e4 3c
       -0.09499874 -0.13658391 0.14364289 0.027858576
000100 b1 a9 85 3e 90 27 9f 3e 6f 49 08 be 52 ab 2f 3e
       0.26106027 0.3108487 -0.13309263 0.17155197
000110 3a 18 93 3d ae 0b 9d be 82 44 03 3e 38 fb f9 3d
       0.07182355 -0.30672973 0.12819102 0.12206119
000120 56 06 1f 3e e9 a4 79 bd 5b 5d f9 3d 6e dc 8c bc
       0.1552976 -0.060948286 0.12176009 -0.017194953
000130 61 c6 16 be 61 85 44 bd f2 8f 82 3d 96 f1 f4 3d
       -0.14724113 -0.047978763 0.06375112 0.11960141
000140 68 aa 8f 3d c1 fc 9c 3d 93 4e c4 3d 07 74 55 be
       0.07014924 0.076653965 0.09585299 -0.20845042
000150 01 f9 20 3e 5b 80 c5 3e 60 9c 42 3e 25 ca 03 bc
       0.15719987 0.3857449 0.19004965 -0.0080438005
000160 9a 59 31 3e 82 d8 9f be 80 a1 0b be 10 ca 10 bc
       0.17319337 -0.3121987 -0.13635826 -0.008837238
000170 39 de 7d 3c 27 ec d1 3c 5b 1d d8 bc f9 60 9e bd
       0.015494877 0.025625302 -0.026381185 -0.0773334
000180 42 dd a5 bd 27 b3 92 bd 0a 4c f1 bd a3 0b 29 3d
       -0.08098842 -0.07163077 -0.117820814 0.041270863
000190 f7 8c 86 be 21 74 cf 3d e7 ce 1d 3d 09 26 cc 3d
       -0.26279423 0.10129572 0.038527396 0.09968192
0001a0 ec cb 8a bd 10 21 8c 3e a8 ee b5 3d a8 55 16 3c
       -0.06777176 0.27368975 0.08883411 0.0091756955
0001b0 0a 00 12 be 8f 12 1e 3e af ba 2a be 02 dd ad bc
       -0.14257827 0.15436767 -0.16672777 -0.021223549
0001c0 0f 0d 82 3c 9b ac 91 bc e6 08 8e be ad 95 1f bd
       0.015875367 -0.0177825 -0.27741164 -0.0389611
0001d0 3d 63 b6 bc 1c 29 74 3e c5 52 aa 3e f8 4f 36 bc
       -0.022264117 0.23843807 0.33266273 -0.0111274645
0001e0 19 a5 14 be 3b 6e d9 bd e7 65 87 3d b5 74 30 be
       -0.14516105 -0.10616728 0.06611233 -0.1723202
0001f0 aa 50 8e be f9 f1 03 be e2 2f 08 be 5e d6 a9 be
       -0.27795917 -0.12885274 -0.13299516 -0.33171362
000200 f0 95 a8 be fd 75 c0 3e b2 c6 4b 3e 68 af a5 3a
       -0.32926893 0.37590018 0.19900015 0.0012640776
000210 24 db 5a bd e6 67 b5 bd 77 7a 80 be 85 53 8b bd
       -0.053431645 -0.08857708 -0.25093433 -0.068030395
000220 82 91 0f 3e 54 8d 20 3e 52 73 57 bd 06 74 58 3d
       0.1402035 0.15678912 -0.052600212 0.052845024
000230 39 2e 47 3b d6 23 53 be 3b 83 fa 3d 7d e4 95 3e
       0.003039254 -0.20619139 0.122320615 0.29275885
000240 3a c5 72 bd fc 11 42 3d e9 9d 9b 3e c1 19 2c be
       -0.05927012 0.047380432 0.30393913 -0.168067
000250 f3 e0 ea bd 89 e7 fe 3d ab 37 ae 3c 52 7a d6 3e
       -0.11468687 0.124465056 0.021266779 0.41890198
000260 45 48 6b 3c 10 c9 61 bd a4 27 05 3e dc 25 a5 3e
       0.014360492 -0.05512339 0.13003403 0.32255447
000270 2d 9d 3a 3d c8 fb 35 be 7c 14 1b bd c8 38 08 be
       0.04556005 -0.17771828 -0.037861332 -0.1330291
000280 30 ed 18 3e 67 4e 60 3c 66 77 c3 bd d6 36 b5 bd
       0.1493423 0.013690568 -0.09544258 -0.0884835
000290 78 73 16 ba 23 90 b8 bd 9c 22 b5 bd ad 06 b7 3d
       -0.0005739252 -0.09011867 -0.08844492 0.0893682
0002a0 91 90 cc 3b 81 73 e1 3d 82 47 27 3e bc db 40 bd
       0.0062428196 0.11008359 0.16335872 -0.047084555
0002b0 c5 d2 19 3d b5 f9 4b be 4b 27 08 be f6 85 1a be
       0.03755452 -0.19919474 -0.13296239 -0.15090165
0002c0 94 40 af 3d 6e 92 81 3e ab 80 9b 3c a3 d9 2a be
       0.08557239 0.2530703 0.018982252 -0.16684584
0002d0 db f9 9d 3c 4b d6 50 3e ce f5 40 be b5 64 e2 3d
       0.01928418 0.20394246 -0.18843767 0.110543646
0002e0 8d 21 e8 bd 38 e4 9f bd 30 c2 61 bd e7 19 7b 3d
       -0.11334524 -0.07807201 -0.055116832 0.061304
0002f0 42 ac fa bc cd f1 66 3e 6a 4b 90 bc 82 5b 7c 3d
       -0.030599717 0.22553177 -0.017614085 0.061610706
000300 79 8f 55 3e b3 66 5f be 57 d9 cd bc 67 22 d8 bd
       0.20855512 -0.2181652 -0.02512805 -0.10553437
000310 0c 25 5c 3e 14 cb 2d 3d 0c fb 1f 3d 20 c4 47 3e
       0.21498507 0.04243 0.039057776 0.1950841
000320 b2 bc 6f be 91 95 a3 bd 53 26 05 be 6c af 9a 3e
       -0.23411825 -0.07987512 -0.13002901 0.3021196
000330 16 fa ae bd 8d 82 2c 3d f2 4a 0a be 7f ff 35 bd
       -0.08543794 0.04211669 -0.13505152 -0.044433113
000340 89 86 e4 3d f0 ae f2 3c ae 13 6d 3e bd d4 bb be
       0.11158473 0.029624432 0.23152038 -0.36685744
000350 cc d2 5b be be f0 33 3a 69 03 e9 3c d9 f2 b8 3b
       -0.21467131 0.00068641815 0.028444009 0.005644184
000360 6e cf 5d be 92 97 a9 3d a7 3f 1d 3d f2 f2 4b be
       -0.2166116 0.08280863 0.03839078 -0.19916895
000370 a3 ed 52 3d 35 2b c3 3e d1 8f 16 3e 0a 9a 3e bc
       0.05149616 0.38118902 0.14703299 -0.011633405
000380 a1 db 08 bd b1 74 19 be a6 a0 db be 84 b6 97 3d
       -0.03341258 -0.1498592 -0.42896003 0.07407859
000390 b5 54 cc bd de e6 da 3d fa 99 ac bc b5 91 20 3c
       -0.09977094 0.10688566 -0.021069515 0.009800364
0003a0 a6 f1 c7 bd 42 5b f9 3c 4e ac 12 bf 9a 3a 27 be
       -0.09762888 0.030439023 -0.57294166 -0.16330948
0003b0 77 df 26 3e 13 5b 9b 3d 96 b5 74 3d 06 89 bb 3d
       0.16296183 0.075857304 0.059743486 0.091569945
0003c0 c3 2c 30 3e 25 d8 94 be 1d aa a4 3e 42 d2 71 3e
       0.17204575 -0.29071155 0.32161036 0.23615363
0003d0 ef 15 e2 bd df 06 07 3d 08 3b 1f 3b 65 56 a4 be
       -0.1103934 0.032965537 0.002429666 -0.32097164
0003e0 2c 35 fc 3c 52 54 b9 3d 35 54 63 be 3c 36 96 3c
       0.030787073 0.09049286 -0.22200091 0.018336408
0003f0 32 19 b0 bd 32 b6 91 3e 12 90 84 3e fe 7c d3 be
       -0.085985556 0.28459316 0.25891167 -0.413063

net.0.bias f4 [64]
000000 e8 61 15 36 5b fb 9b ba 49 c1 29 bb dd 20 3b ba
       2.225972e-06 -0.0011900471 -0.002590256 -0.0007138381
000010 3e f7 01 ba a0 6e 84 38 0b 5a c3 3a 40 3d 33 3a
       -0.00049578014 6.314856e-05 0.0014904154 0.0006837435
000020 1b 38 12 b9 2a 68 43 3a 06 45 d8 ba 70 3b aa ba
       -0.00013944546 0.00074541813 -0.0016500063 -0.0012987684
000030 2c 99 a0 3a 7f 65 e0 b9 1d f3 22 ba 1a f4 d1 b9
       0.001225268 -0.0004280023 -0.0006216036 -0.00040045456
000040 21 14 98 ba 74 d8 b0 ba ae df 39 ba c8 56 2f 3a
       -0.0011602679 -0.0013492242 -0.0007090521 0.00066886516
000050 af dc 28 3a 8b 05 36 ba f3 92 87 ba 36 79 a2 3a
       0.0006441576 -0.0006943575 -0.0010343477 0.0012395743
000060 66 ae 0f ba 98 fc cf ba fe 4b 44 ba df a6 89 3a
       -0.00054810045 -0.0015868125 -0.00074881304 0.0010502002
000070 b0 8c 8f 3a bf 07 ac b9 a2 f4 89 3a 36 85 60 ba
       0.0010951962 -0.00032812168 0.0010525177 -0.0008564772
000080 4c d8 8a ba f7 a0 c4 ba a5 9d 1b b9 9e a6 54 37
       -0.0010593026 -0.0015001585 -0.00014840679 1.2674978e-05
000090 18 af 4f ba 5b fe 9a 3a 5a f0 e8 ba 83 8b 7d ba
       -0.00079225143 0.0011825071 -0.0017771826 -0.0009671973
0000a0 70 68 38 ba 51 da 34 ba c8 ba 56 3a a7 9f 17 38
       -0.00070346054 -0.0006898987 0.0008191285 3.6149893e-05
0000b0 a4 b6 89 ba 5b 00 bf ba fa cd e8 3a 7e d7 86 ba
       -0.0010506702 -0.001457225 0.0017761581 -0.001028761
0000c0 d8 10 9e 39 de 3e 2d b9 69 60 98 3a 2e d6 96 bb
       0.00030148658 -0.00016521986 0.0011625412 -0.004603169
0000d0 d4 60 28 b7 88 c8 18 3b 00 be 45 ba 5f 74 a6 ba
       -1.0036125e-05 0.0023312885 -0.0007543266 -0.0012699476
0000e0 4a a2 b2 3a 6e 5c 8e 38 56 f1 89 ba c6 08 61 3a
       0.0013628688 6.788304e-05 -0.0010524194 0.0008584376
0000f0 f8 b2 ae 3a a0 a0 e8 b6 16 ba 72 39 6c f2 f7 b9
       0.0013328483 -6.932838e-06 0.00023148241 -0.0004729213

out_mean.weight f4 [1, 64]
000000 c3 ef d9 3c eb d5 52 3d 83 55 bf be fa 6d 07 be
       0.026603585 0.05147354 -0.37369928 -0.13225546
000010 45 a3 a5 3c 38 f9 00 be 50 fe d5 3e 5a 75 17 3e
       0.020219455 -0.1259507 0.41795588 0.1479086
000020 4c 18 ba 3d 47 ba 53 bd 5a d8 40 be 69 d3 5a be
       0.090866655 -0.05169132 -0.18832532 -0.21369709
000030 6e 46 60 3d 0d e9 e0 3c 69 c3 88 3e 0e ac f1 3a
       0.054754667 0.027454877 0.26711586 0.0018438117
000040 fe 1d 39 3e 91 26 aa be 3f 8e ac 3d 83 c6 83 bd
       0.18077847 -0.3323255 0.08425569 -0.064343475
000050 c5 cd 45 3c 37 9b 0e 3e 11 c6 ad be b7 c0 6e be
       0.012072985 0.13926397 -0.33940175 -0.23315702
000060 d7 9b 03 be c4 4f 83 3c 62 d8 76 bc eb cd fe 3d
       -0.12852417 0.016029246 -0.015066238 0.124416195
000070 94 f1 ca be b6 00 b7 bd 28 e8 86 3e 74 05 39 3e
       -0.39637434 -0.089356825 0.26348996 0.18068486
000080 b1 6b ca be 21 ba 56 bd 60 91 68 3e a4 d9 16 be
       -0.39535287 -0.0524236 0.22711706 -0.14731461
000090 a0 80 9c 3d 4f 4b 42 3e 9f 92 b1 3d 8e 9a a9 bd
       0.07641721 0.1897404 0.08670544 -0.08281432
0000a0 6a 86 61 3e 90 1f a9 bc fe cf 93 3c 70 5e f2 bd
       0.22023931 -0.020644933 0.018043514 -0.11834419
0000b0 1a 30 04 be 9b 97 cc be d3 e0 cc bd 82 5a 04 be
       -0.12908974 -0.39959416 -0.10003819 -0.12925151
0000c0 db 18 26 3d 15 af 52 be 61 1d 13 3e 10 c7 71 3c
       0.040551048 -0.20574601 0.14366676 0.014756933
0000d0 4c d0 98 be a6 81 22 bd 2b a0 bf 3e 95 6f ee 3c
       -0.29846418 -0.039674424 0.37426886 0.02910594
0000e0 59 ae 20 be 52 cb e2 bd f0 9c 08 be 32 aa af bd
       -0.15691508 -0.110739365 -0.13341117 -0.08577384
0000f0 63 6d 14 3e 96 43 0c 3e cd dd e2 3d 22 7c 48 be
       0.14494853 0.13697657 0.110774614 -0.19578603

out_value.weight f4 [1, 64]
000000 11 46 f8 bc 90 41 87 bd 96 7c b5 bd 01 47 1b be
       -0.030306848 -0.06604302 -0.088616535 -0.15163805
000010 08 a2 ba bd c5 dc e6 3d 83 15 fb 3d fc 8d 5a 3e
       -0.09112936 0.11272577 0.122599624 0.21343225
000020 b6 49 cc 3c 6b 46 a8 3e 0a df bb be c8 89 4d be
       0.024937492 0.32866225 -0.36693603 -0.2007209
000030 44 9d a3 3c fd 6e ee 3d 8d e5 3f bd 5d 73 b4 bd
       0.019972451 0.11642263 -0.046849776 -0.08811066
000040 3c 7b a6 bc 93 98 c7 bd e9 27 35 be 09 01 57 3e
       -0.020322435 -0.09745898 -0.17691006 0.20996489
000050 00 87 a4 3e b6 62 e8 bc 00 21 56 be 7c fc 42 bc
       0.32134247 -0.028367382 -0.20911026 -0.011901017
000060 69 fd 94 be 7b b7 46 3d c5 c7 8f bc b1 64 64 3e
       -0.29099587 0.048514824 -0.017551312 0.22304036
000070 1d 59 ed bb e8 40 9e be 6d e0 5d 3e 84 de 1d be
       -0.007243289 -0.30908895 0.21667643 -0.15416914
000080 a2 fe 64 be 0e ac 8b bd db 17 66 bb be 2d 93 be
       -0.2236276 -0.06819926 -0.0035109434 -0.28745836
000090 fd 97 98 bd be 38 92 3e 48 9f 0c bb cc c2 db be
       -0.074508645 0.28558916 -0.0021457244 -0.42922056
0000a0 c9 06 16 be 3f ff 8c be 3e eb d8 3d 38 c8 78 3c
       -0.14651026 -0.27538487 0.10591744 0.015184455
0000b0 a5 06 00 be 4b 0b b2 bd 96 30 20 3e c4 a3 9a be
       -0.12502535 -0.0869356 0.15643534 -0.30203068
0000c0 29 fa 8e be 2d 57 8a 3d c1 fc 57 3d 46 2e d0 3a
       -0.27925232 0.06754909 0.05273128 0.0015882931
0000d0 31 88 e4 3d 69 1c 00 bb 4f d7 df be b3 af 69 bd
       0.11158789 -0.0019548184 -0.43718955 -0.057052325
0000e0 a7 cb 3e 3e b1 5b b0 3e 82 5f 5b be 06 9c 28 be
       0.18632375 0.34444955 -0.21423152 -0.16465768
0000f0 33 af 6e 3d 7a e6 99 bc 5c 0d 2e be 9c 33 2f be
       0.05827255 -0.018786658 -0.16997284 -0.17109531
