ppo_algorithm/data/CartpoleSwingShort-v0_2019-03-13_15-05-02/best_policy/save_file.pt (torch_old, 31195 bytes, 32 tensors)

net.0.weight f4 [16, 5]
0	0x3f80f9dd	1.0076252
1	0x3f3422ed	0.7036579
2	0x3ea425e7	0.32060167
3	0x3ed0515d	0.40687075
4	0xbcffb72f	-0.031215278
5	0xbe781000	-0.24224854
6	0xbf972bbf	-1.1810225
7	0x3ea93c3f	0.33053777
8	0x3f2a2613	0.66464347
9	0x3e7d7830	0.24752879
10	0xbf027d1c	-0.5097215
11	0xbd996964	-0.07490805
12	0x3e6ca961	0.23111488
13	0x3efc603d	0.49292174
14	0x3e585152	0.21124771
15	0xbf0bacca	-0.5456053
16	0xbf88073c	-1.0627208
17	0x3da9061c	0.082531184
18	0xbeb62ef7	-0.35582706
19	0xbf20e604	-0.62850976
20	0xbddee3d3	-0.10883298
21	0xbfa743ec	-1.3067603
22	0xbefb36d1	-0.4906526
23	0x3eecdfd9	0.46264532
24	0x3e09d5ac	0.13460416
25	0x3da28f2e	0.079374656
26	0x3f529296	0.8225492
27	0xbef5f63a	-0.48039418
28	0xbe0eaac3	-0.13932328
29	0x3d9844c6	0.074349925
30	0xbdd6d4b2	-0.10489787
31	0x3e979af0	0.29610395
32	0x3ec8f017	0.39245674
33	0xbf6cfc66	-0.9257263
34	0xbe80e746	-0.25176448
35	0x3f0c9403	0.5491335
36	0xbf302d0f	-0.68818754
37	0x3ec16608	0.37773156
38	0xbe3dcd68	-0.18535388
39	0x3e187837	0.14889608
40	0x3f757408	0.95880175
41	0x3f863544	1.0485005
42	0x3ee6c5c0	0.45072746
43	0xbecc0ba8	-0.39852643
44	0x3daa7c43	0.08324482
45	0xbedd2ffa	-0.43200666
46	0xbe223e22	-0.15844014
47	0xbfa13356	-1.2593791
48	0x3ea90643	0.3301259
49	0x3d83f942	0.064440265
50	0xbf715d64	-0.9428313
51	0xbf5c9755	-0.86168414
52	0xbf86ed18	-1.0541105
53	0x3e35fc37	0.17771994
54	0xbe1002f6	-0.1406363
55	0xbe6c7f37	-0.23095404
56	0x3f9fe4b5	1.2491671
57	0x3dae7986	0.085192725
58	0xbede3d9e	-0.43406385
59	0xbec3b6dc	-0.38225448
60	0xbf5fe58a	-0.87459624
61	0x3f5507f6	0.8321527
62	0xbd5ed14b	-0.054398816
63	0x3ec76654	0.38945258
64	0x3e7602b8	0.24024475
65	0x3cdf7dec	0.027281724
66	0xbf435afc	-0.76310706
67	0x3ec4cf9b	0.3843964
68	0xbcc278d2	-0.023739252
69	0xbc17703a	-0.0092430655
70	0xbcfc87e7	-0.030826522
71	0xbe7ee805	-0.24893196
72	0xbf71be43	-0.9443094
73	0x3f32d0b4	0.69849706
74	0x3e3933b3	0.18086128
75	0x3deb2a29	0.11482651
76	0x3f86780c	1.0505385
77	0x3e172e18	0.14763677
78	0xbe116877	-0.14200006
79	0xbe5783bc	-0.21046346

net.0.bias f4 [16]
0	0xbeefaf11	-0.46813253
1	0x3ed03608	0.40666223
2	0x3f6cba43	0.9247171
3	0x3eaf6e2f	0.3426375
4	0x3bc3066d	0.0059516937
5	0xbf0f11d5	-0.55886585
6	0x3dbeb5e1	0.093120344
7	0xbe56bc4e	-0.2097027
8	0xbcf63693	-0.03005532
9	0xbeaab664	-0.33342278
10	0xbe938b5f	-0.2881727
11	0xbca3694d	-0.019947672
12	0xbecc8ab8	-0.39949584
13	0x3e40a1e6	0.1881176
14	0xbf097405	-0.53692657
15	0xbb9f475f	-0.004860803

net.2.weight f4 [16, 16]
0	0xbdeed0f8	-0.116609514
1	0x3eeeb733	0.46624145
2	0xbd528780	-0.051398754
3	0x3f14cd7c	0.58126044
4	0x3ec2ad41	0.38022807
5	0xbb0013bb	-0.001954301
6	0x3e75c55c	0.24001068
7	0xbe9ca0ac	-0.30591333
8	0xbf0d5538	-0.5520816
9	0x3f3ad440	0.7298012
10	0x3e6225cb	0.2208473
11	0xbec058c8	-0.37567735
12	0xbe7a4efe	-0.24444196
13	0xbdb0d0ad	-0.08633552
14	0xbe049980	-0.1294918
15	0xbef4f64c	-0.4784416
16	0xbed836e5	-0.4222938
17	0xbe4084f6	-0.1880072
18	0xbf9a5745	-1.2057883
19	0x3e1c0806	0.15237436
20	0xbebcc046	-0.36865443
21	0x3d2eea86	0.042704128
22	0x3e806b48	0.2508185
23	0x3dfda094	0.123841435
24	0xbe372308	-0.17884457
25	0x3d8b2b24	0.06795338
26	0x3ece5d25	0.4030544
27	0x3da6f8a8	0.08152896
28	0xbfa44ff7	-1.2836903
29	0x3e580f94	0.21099693
30	0x3eaff326	0.34365195
31	0xbe606b9d	-0.21916051
32	0x3ec7d912	0.390328
33	0x3db26234	0.08710137
34	0xbdc728ab	-0.09724554
35	0xbeedacbd	-0.4642085
36	0x3e39a99d	0.18131109
37	0x3d7c23ba	0.06155751
38	0xbee5d265	-0.4488708
39	0x3db77c3d	0.089592434
40	0x3e503e5c	0.20336288
41	0xbca96a16	-0.020680469
42	0xbd58c6a7	-0.052923825
43	0xbf009d49	-0.5024
44	0x3c41f0e8	0.011837222
45	0x3e95bdf7	0.29246494
46	0x3f4d9ded	0.803191
47	0xbde37222	-0.111057535
48	0x3f1ad912	0.60487473
49	0xbec321c6	-0.38111705
50	0x3d9f293d	0.077715375
51	0x3d535981	0.05159903
52	0xbdca0a5c	-0.09865257
53	0xba2eeaa0	-0.0006672535
54	0x3f139d13	0.5766155
55	0x3eeb0b73	0.45907173
56	0x3ed14d6a	0.40879375
57	0xbea66000	-0.32495117
58	0xbf442a2e	-0.7662686
59	0x3d9e3e82	0.07726766
60	0xbeda5b2a	-0.42647678
61	0x3f100cf9	0.56269795
62	0xbeaaeeaa	-0.3338521
63	0x391780e5	0.00014448499
64	0xbe7e6968	-0.24844897
65	0x3e1455cd	0.14485855
66	0xbd9f845f	-0.0778892
67	0x3efe78da	0.49701577
68	0xbe2a1e73	-0.16613178
69	0xbf52fcd9	-0.82417065
70	0x3e25b38a	0.1618177
71	0x3e01512d	0.12628622
72	0xbd3b54a1	-0.045735005
73	0x3e21f6b1	0.15816762
74	0xbe2a4e5f	-0.16631459
75	0xbdc45909	-0.095872946
76	0xbe965097	-0.2935836
77	0x3f90119b	1.1255373
78	0xbebe6511	-0.37186483
79	0xbde97218	-0.11398715
80	0x3f0d88f8	0.5528712
81	0xbe7eb581	-0.24873926
82	0x3d65ae8a	0.056074657
83	0xbcc1c7c5	-0.023654828
84	0xbd994768	-0.07484323
85	0xbec681b8	-0.38770843
86	0xbe864f5a	-0.26232415
87	0x3f3a1f69	0.7270418
88	0x3ee3be56	0.44481152
89	0xbee7e5af	-0.45292422
90	0xbf758366	-0.95903623
91	0xbeb2d4ba	-0.34927922
92	0xbef85d11	-0.48508504
93	0x3f04d4a2	0.5188695
94	0xbeb4b95c	-0.35297668
95	0xbf067228	-0.5251794
96	0x3f33b003	0.7019045
97	0x3e94ad6e	0.29038566
98	0x3e9bc535	0.30423895
99	0x3db44819	0.08802814
100	0x3dbb0500	0.09131813
101	0xbf0c7538	-0.5486636
102	0x3d954b85	0.07289795
103	0x3e991407	0.29898092
104	0x3f1380e0	0.5761852
105	0xbed5268d	-0.41630974
106	0xbf41f951	-0.7577105
107	0xbebbe7f2	-0.36700398
108	0xbe3de44e	-0.18544123
109	0x3ecf9d1c	0.40549552
110	0xbecc60e2	-0.39917666
111	0xbf0c1f4f	-0.54735273
112	0x3e471c72	0.19444445
113	0xbe7d1ecb	-0.24718778
114	0xbe2ce812	-0.16885403
115	0xbf1d2255	-0.6138051
116	0x3e68b3d3	0.22724847
117	0xbebb050f	-0.36527297
118	0xbe294102	-0.16528705
119	0xbca818b3	-0.02051959
120	0x3f08eec9	0.5348936
121	0xbebc44a0	-0.36771107
122	0x3e9894b8	0.29800963
123	0x3e8f8acb	0.28035578
124	0x3f5abab4	0.85441136
125	0xbe61fff1	-0.2207029
126	0xbee5685f	-0.4480619
127	0x3eb6ea1b	0.35725483
128	0xbdf065d1	-0.1173817
129	0xbdd91e94	-0.106015354
130	0x3f45a850	0.7720995
131	0x3cb756d5	0.022380272
132	0x3e82ba92	0.25532967
133	0xbeb5931d	-0.354638
134	0x3ef518ef	0.47870585
135	0x3eb13d91	0.34617284
136	0x3e610f0c	0.21978396
137	0xbeaaad6b	-0.33335432
138	0xbf03809a	-0.51368105
139	0x3f1f4cd1	0.6222659
140	0xbe8daaa1	-0.27669242
141	0x3c22848b	0.009919296
142	0x3dba989d	0.0911114
143	0x3e6f0589	0.23341955
144	0xbf3a17a2	-0.7269231
145	0x3f0c41ee	0.547881
146	0x3d8ce6b7	0.06879943
147	0x3c6aa9a5	0.014322673
148	0x3cf2470e	0.029574897
149	0xbf1803e0	-0.5938091
150	0x3ee06d7a	0.43833524
151	0x3f6dda4c	0.9291122
152	0x3db1c2f0	0.086797595
153	0xbd4f113e	-0.050553553
154	0x3e162f99	0.14666595
155	0xbd8cfc7d	-0.06884096
156	0xbf77db64	-0.9681914
157	0x3f8aa84b	1.0832609
158	0xbe35dfdd	-0.17761178
159	0xbea80a5d	-0.32820407
160	0xbe33939c	-0.17536777
161	0x3eaaf7e3	0.33392248
162	0xbeae6f0f	-0.34069106
163	0x3d894570	0.06702697
164	0x3e271fa3	0.16320662
165	0xbec23365	-0.37929836
166	0x3e2479f1	0.16062142
167	0xbd7afeda	-0.0612782
168	0xbf46cef2	-0.77659523
169	0x3ee1d2fd	0.44106284
170	0x3eefcdb9	0.4683664
171	0xbe232bd9	-0.15934695
172	0xbd30523b	-0.04304717
173	0xbe56fb0a	-0.20994201
174	0x3ee3aac8	0.44466233
175	0xbf0cbce4	-0.54975724
176	0x3f8534b3	1.0406708
177	0xbf10643d	-0.5640295
178	0xbe8c82a8	-0.27443433
179	0xbe1f3d5e	-0.15550753
180	0xbd265ce9	-0.04061595
181	0xbaf6652a	-0.001879846
182	0x3f13017a	0.5742413
183	0x3e72ea07	0.23722087
184	0xbf0572da	-0.52128375
185	0x3f75d529	0.9602838
186	0x3e1ad47f	0.15120123
187	0xbdd4b121	-0.10385347
188	0x3d9dae0c	0.076992124
189	0x3e2a1069	0.16607822
190	0x3eb7880c	0.35845983
191	0xbecf5e52	-0.40501648
192	0xbf4e94d3	-0.8069584
193	0x3e81dbb6	0.2536294
194	0x3f1531a0	0.58278847
195	0x3e0b27f8	0.13589466
196	0xbeae8771	-0.3408771
197	0xbe09d864	-0.13461453
198	0xbd20f07a	-0.039291836
199	0x3b8f0325	0.0043643885
200	0x3eba0042	0.36328322
201	0xbecca533	-0.39969787
202	0xbee2d487	-0.4430277
203	0xbe8a7e9d	-0.27049723
204	0xbf1834e3	-0.594557
205	0xbdb278c6	-0.08714442
206	0xbdf05d9b	-0.11736604
207	0x3e6b1cf2	0.2296026
208	0x3f012feb	0.5046374
209	0xbf3e2366	-0.74272764
210	0xbf27b730	-0.65513897
211	0x3e50011a	0.2031292
212	0x3debaad3	0.115071915
213	0xbebdbc98	-0.37057948
214	0xbd8275d0	-0.06370127
215	0xbf5f6145	-0.87257797
216	0xbf2a5344	-0.66533303
217	0x3d4430ad	0.047897983
218	0x3eebdb6c	0.46065843
219	0x3e16a4cd	0.14711304
220	0x3f0e8bf8	0.55682325
221	0xbf35ae81	-0.70969397
222	0x3dd0219c	0.101626605
223	0x3f386b38	0.720386
224	0xbef1c688	-0.4722178
225	0x3e90719a	0.2821167
226	0x3e9dee5e	0.30845922
227	0x3c3e3ede	0.011611668
228	0x3df241d6	0.118289635
229	0xbe9773fb	-0.29580674
230	0xbac112da	-0.001473035
231	0xbeff5312	-0.49868065
232	0xbe2e89f4	-0.17044812
233	0x3e19f908	0.15036404
234	0xbe1fb0e9	-0.1559483
235	0xbe7da54b	-0.24770086
236	0x3f0383b9	0.5137287
237	0x3e32bd88	0.17455113
238	0x3e80217c	0.25025547
239	0xbefe942a	-0.49722415
240	0xbf1cc230	-0.61233807
241	0x3e586852	0.21133545
242	0x3e648f1a	0.22320214
243	0x3f19a2b8	0.60013914
244	0x3e517082	0.20453075
245	0x3ee4b9ca	0.44672996
246	0xbe0c0e5a	-0.1367735
247	0xbe779a92	-0.24180058
248	0xbf252df3	-0.6452324
249	0x3e319b35	0.17344363
250	0x3ea1234d	0.31472245
251	0xbdc006ba	-0.09376283
252	0xbe22c743	-0.15896325
253	0x3c64f164	0.013973568
254	0xbe547621	-0.20748188
255	0xbf43d195	-0.7649167

net.2.bias f4 [16]
0	0x3d16cda1	0.036817197
1	0xbe970305	-0.2949449
2	0xbe4e2f65	-0.20135267
3	0xbea6f0e5	-0.32605663
4	0x3dc738a6	0.09727602
5	0xbe5f0802	-0.21780398
6	0xbe247253	-0.16059236
7	0xbd1c1392	-0.0381046
8	0x3f166e2a	0.58761847
9	0x3ecc7bd4	0.39938223
10	0xbec75a4d	-0.38936082
11	0xbf4f9bd3	-0.81097144
12	0x3f2b01fd	0.6679991
13	0xbe49f660	-0.19722891
14	0x3ee597b7	0.44842312
15	0x3ccaab82	0.024739984

net.4.weight f4 [16, 16]
0	0x3ee56114	0.44800627
1	0xbf72f7fe	-0.94909656
2	0xbea57940	-0.3231907
3	0x3f18ca6c	0.5968387
4	0x3f2997ec	0.6624744
5	0x3f0646ab	0.5245158
6	0x3efabb80	0.48971176
7	0x3e08547d	0.1331348
8	0xbde8f70a	-0.11375244
9	0x3f2f7c65	0.68549186
10	0x3e486961	0.19571449
11	0x3e4525c9	0.19252695
12	0xbccd1f39	-0.025039302
13	0x3dd2ccbc	0.10292956
14	0x3c2cddee	0.010550959
15	0x3f044acf	0.5167665
16	0xbe16385e	-0.1466994
17	0xbfc049f1	-1.5022565
18	0x3f8e91aa	1.1138203
19	0xbc0fa204	-0.008766655
20	0xbf2809ab	-0.6563975
21	0x3e612d0b	0.21989839
22	0x3ee49ac3	0.44649324
23	0x3d10aab7	0.035319056
24	0x3f143838	0.57898283
25	0xbf89e0d6	-1.077174
26	0xbe6d83b9	-0.2319478
27	0xbd47f663	-0.048818957
28	0xbd0b0748	-0.03394249
29	0x3f39efab	0.7263133
30	0xbd5855fa	-0.05281637
31	0xbec5af9a	-0.38610536
32	0xbe1d9207	-0.15387736
33	0x3eab3d8d	0.33445397
34	0x3e2c8203	0.1684647
35	0x3f7cce3e	0.987522
36	0xbe100adf	-0.14066647
37	0x3f082a7a	0.53189814
38	0xbe07d332	-0.13264158
39	0x3eb37ea3	0.35057554
40	0xbf571364	-0.8401396
41	0xbec5a7d2	-0.386046
42	0x3eb5217d	0.35377112
43	0x3ff93b17	1.9471158
44	0xbfc2fe61	-1.523388
45	0x3e5174ce	0.20454714
46	0xbf07a3e4	-0.5298445
47	0xbd97074c	-0.07374439
48	0xbf9ac423	-1.2091106
49	0x3d99a410	0.075019956
50	0xbdb5e2f7	-0.08881181
51	0x3ec53902	0.38520056
52	0x3dd3758d	0.103251554
53	0x3ea027bc	0.31280315
54	0xbed7142f	-0.42007586
55	0x3f5dcd84	0.86641717
56	0x3ef051f9	0.4693754
57	0x3f05767e	0.5213393
58	0xbe1d1c27	-0.1534277
59	0x3ceea27d	0.029130215
60	0x3ec0b332	0.37636715
61	0x3e71d256	0.23615393
62	0xbe60e675	-0.21962912
63	0xbf50b7b3	-0.815303
64	0xbeb35b0c	-0.350304
65	0x3e9871d4	0.29774344
66	0xbd02fecc	-0.031981274
67	0x3fa12999	1.259082
68	0x3f380163	0.71877116
69	0x3f62643b	0.8843419
70	0x3f1c2e6b	0.6100833
71	0x3eca28c7	0.39484236
72	0x3f3427f0	0.7037344
73	0x3f3bb034	0.7331574
74	0xbefcf681	-0.49406818
75	0x3ea4006e	0.32031578
76	0x3de3d992	0.111254826
77	0xbf9347f7	-1.1506337
78	0xbf242b33	-0.64128417
79	0xbee31477	-0.4435155
80	0x3d830acb	0.06398543
81	0x3e5f0a23	0.2178121
82	0xbe5dd069	-0.21661533
83	0x3f67f337	0.9060549
84	0xbec7fedf	-0.3906164
85	0x3e8062f1	0.25075486
86	0x3e67ef65	0.22649916
87	0x3db071df	0.08615469
88	0xbd9e20bc	-0.07721087
89	0xbf15d84e	-0.5853318
90	0x3eb8f4f1	0.36124375
91	0x3f29b528	0.6629205
92	0xbe8f5ee4	-0.28002083
93	0x3e75f8ab	0.2402064
94	0xbf0a9df7	-0.54147285
95	0x3c9b6859	0.018970655
96	0xbe380977	-0.1797236
97	0xbd37ce97	-0.044874754
98	0x3eb1de7a	0.3474005
99	0xbebc833e	-0.3681888
100	0x3e584ce3	0.2112308
101	0xbf40a02c	-0.752444
102	0xbe43c7aa	-0.19119135
103	0xbe829755	-0.25506082
104	0x3fa18b0e	1.2620561
105	0x3eec9b19	0.4621208
106	0xbe867bf7	-0.26266453
107	0xc000123e	-2.0011134
108	0x3fceee34	1.6166444
109	0xbee4d7d8	-0.44695926
110	0x3f0c5b46	0.5482677
111	0x3ec3de51	0.3825555
112	0x3f3094fc	0.6897733
113	0x3da25f36	0.07928316
114	0x3cbf700c	0.023368858
115	0xbf01b488	-0.50666094
116	0xbec1755e	-0.37784857
117	0xbf8805f3	-1.0626816
118	0xbf04ec15	-0.5192273
119	0xbe01085f	-0.1260085
120	0xbef6a26f	-0.48170802
121	0xbf93ffb5	-1.156241
122	0xbe397e6c	-0.18114632
123	0xbe7d434b	-0.24732701
124	0x3cff0398	0.031129643
125	0x3f071461	0.5276547
126	0x3d89be75	0.0672578
127	0x3ed8d973	0.423534
128	0x3d1ce9c8	0.03830889
129	0xbdace792	-0.08442606
130	0x3c807f99	0.015685843
131	0x3e6f2234	0.23352891
132	0xbd901d92	-0.0703689
133	0x3f075ffe	0.5288085
134	0xbea0ae51	-0.31382993
135	0x3e255777	0.16146646
136	0xbee05c4d	-0.4382042
137	0x3d853a6b	0.06505283
138	0x3e3ff8c7	0.18747245
139	0x40020a5a	2.0318818
140	0xbfdd4015	-1.7285181
141	0x3e90ae7e	0.28258127
142	0xbf1bef9d	-0.60912496
143	0xbe93745e	-0.2879972
144	0xbf0afc22	-0.54290974
145	0xbe43309c	-0.19061512
146	0xbf1604af	-0.58600897
147	0x3f9066d2	1.1281378
148	0x3f29e4f1	0.6636496
149	0x3f6bdd1d	0.9213427
150	0x3ecffca2	0.4062243
151	0x3ee537f0	0.4476924
152	0x3efc7978	0.49311423
153	0x3f0e3d85	0.5556262
154	0x3e0a3107	0.13495265
155	0x3ee45971	0.44599488
156	0xbe3a5e88	-0.18200123
157	0xbea0377e	-0.31292337
158	0xbd9596dc	-0.07304165
159	0xbe963acc	-0.29341733
160	0xbf1a82c1	-0.60355765
161	0x3d820475	0.06348506
162	0x3f11dbb0	0.5697584
163	0xbe9cb61a	-0.30607682
164	0xbf41b43c	-0.7566564
165	0xbf241b64	-0.64104295
166	0xbf5314a3	-0.82453364
167	0x3f0c916d	0.549094
168	0x3e0bda6f	0.13657545
169	0x3e7dd657	0.24788795
170	0xbeb05f8a	-0.3444789
171	0xbf2f3494	-0.684396
172	0x3efe5c59	0.4967983
173	0x3e03ecb6	0.12883267
174	0xbb2308dd	-0.002487711
175	0x3ccf16b8	0.025279388
176	0xbed050b8	-0.40686584
177	0x3db9e4c4	0.09076837
178	0xbe82a33a	-0.25515157
179	0x3edf8281	0.43654254
180	0x3d7cda6c	0.06173174
181	0x3ed6a475	0.41922346
182	0xbde3a517	-0.11115473
183	0x3f6f63de	0.9351176
184	0x3e2bae69	0.16765751
185	0x3eb88803	0.3604127
186	0x3d314944	0.043282762
187	0xbe2ba60f	-0.16762565
188	0xbe01cef7	-0.12676607
189	0x3e709fb2	0.23498419
190	0xbf384d24	-0.7199271
191	0xbecec9cd	-0.40388337
192	0x3ef74947	0.48298094
193	0x3e01f47d	0.12690921
194	0xbf3f74f2	-0.7478782
195	0x3f24c2d6	0.64359796
196	0x3f74b865	0.95593864
197	0xbe43b4c5	-0.19111927
198	0xbb62b628	-0.0034593437
199	0xbf209624	-0.62729096
200	0xbdc5ab26	-0.096517846
201	0x3ec89faf	0.3918433
202	0x3ead84e0	0.33890438
203	0x3e7cae2e	0.2467582
204	0xbe0ff747	-0.14059173
205	0x3f158e5a	0.58420336
206	0x3e46091b	0.19339411
207	0x3e1ffd80	0.15624046
208	0x3ed3fd50	0.414042
209	0x3e80f0c3	0.25183687
210	0xbf09eaea	-0.53874075
211	0xbed2abe5	-0.4114677
212	0x3e7fb239	0.2497033
213	0xbf44ac1e	-0.7682513
214	0xbd4677e3	-0.048454177
215	0xbecb1077	-0.39661
216	0xbde5e88f	-0.11225998
217	0xbf8218e1	-1.0163842
218	0x3cf6f4f1	0.030146094
219	0xbf5f4d4e	-0.8722733
220	0xbe4fd934	-0.202977
221	0xbf3a2c7c	-0.7272413
222	0x3eb5b314	0.35488188
223	0x3daf84d0	0.08570254
224	0xbf34dc85	-0.70648986
225	0xbebfb29b	-0.37440953
226	0xbe63daeb	-0.2225148
227	0xbed9506e	-0.42444175
228	0xbf43a791	-0.7642756
229	0xbe4dd303	-0.20100026
230	0xbe80e450	-0.2517419
231	0x3edb959f	0.4288759
232	0xbf2d6101	-0.6772614
233	0xbf170205	-0.58987457
234	0xbee467fd	-0.44610587
235	0xbe187be5	-0.14891012
236	0xbe3251ae	-0.17413971
237	0x3ca3b234	0.019982435
238	0x3e9fe9a2	0.31232935
239	0xbf298c04	-0.6622927
240	0x3ef7ea74	0.4842106
241	0x3db15bb4	0.08660069
242	0x3e982051	0.29712155
243	0x3cb25212	0.02176765
244	0x3e4b1a6a	0.19834295
245	0x3f2741c4	0.65334725
246	0x3e4331cf	0.19061969
247	0x3c5ab1d0	0.013348058
248	0xbf0e6bb7	-0.5563311
249	0xbd64e13f	-0.055878874
250	0x3ee9d690	0.4567151
251	0x3f9e9823	1.2390178
252	0xbf0bd819	-0.54626614
253	0x3e801f2a	0.25023776
254	0xbd1bd82c	-0.038047954
255	0xbb0889a6	-0.0020833998

net.4.bias f4 [16]
0	0xbf2121e6	-0.6294235
1	0x3f02d8a7	0.51111835
2	0xbfbafe96	-1.4608943
3	0xbe2b9b58	-0.16758478
4	0xbecf10d0	-0.40442514
5	0xbf51d08d	-0.8195885
6	0x3fb7ab98	1.4349241
7	0x3e7a5329	0.24445786
8	0xbfa6a70f	-1.3019732
9	0xbec9807b	-0.39355835
10	0x3db5b58f	0.0887252
11	0xbebb374c	-0.36565626
12	0xbca3b6bd	-0.019984597
13	0x3ef12ef5	0.47106138
14	0x3d817be9	0.06322462
15	0xbf7d6daf	-0.9899549

out_mean.weight f4 [1, 16]
0	0x3edccc18	0.4312446
1	0xbf57bd0a	-0.84272826
2	0x3c9d66ff	0.019214151
3	0xbf97f3f6	-1.1871326
4	0x3d754d67	0.05988827
5	0xbf91453d	-1.1349255
6	0xbe9a9917	-0.30194923
7	0xbd9d4ba2	-0.076804414
8	0x3e5d24c0	0.2159605
9	0xbe401b21	-0.18760349
10	0xbf8e45da	-1.1115067
11	0xbeeb38b3	-0.45941696
12	0x3f900c31	1.125372
13	0x3f7ccfe4	0.98754716
14	0xbfa16411	-1.2608663
15	0x3e12fcb1	0.14354207

out_value.weight f4 [1, 16]
0	0xc0add63a	-5.4324007
1	0xbf50dc8e	-0.8158654
2	0xc0a561c4	-5.1681843
3	0xbefcc054	-0.49365485
4	0xc0aafd1c	-5.343397
5	0xc09f4730	-4.97744
6	0x40a22fe7	5.0683475
7	0x40aa97a6	5.331012
8	0xc0a0bdb1	-5.0231557
9	0xc0ae8c26	-5.454608
10	0x402df58a	2.7181115
11	0xc0298294	-2.6485949
12	0xc00f02d2	-2.2345471
13	0x40594cc7	3.395311
14	0x40465533	3.0989501
15	0xc0a40c4f	-5.1265025

weight f4 [16, 5]
0	0x3f80f9dd	1.0076252
1	0x3f3422ed	0.7036579
2	0x3ea425e7	0.32060167
3	0x3ed0515d	0.40687075
4	0xbcffb72f	-0.031215278
5	0xbe781000	-0.24224854
6	0xbf972bbf	-1.1810225
7	0x3ea93c3f	0.33053777
8	0x3f2a2613	0.66464347
9	0x3e7d7830	0.24752879
10	0xbf027d1c	-0.5097215
11	0xbd996964	-0.07490805
12	0x3e6ca961	0.23111488
13	0x3efc603d	0.49292174
14	0x3e585152	0.21124771
15	0xbf0bacca	-0.5456053
16	0xbf88073c	-1.0627208
17	0x3da9061c	0.082531184
18	0xbeb62ef7	-0.35582706
19	0xbf20e604	-0.62850976
20	0xbddee3d3	-0.10883298
21	0xbfa743ec	-1.3067603
22	0xbefb36d1	-0.4906526
23	0x3eecdfd9	0.46264532
24	0x3e09d5ac	0.13460416
25	0x3da28f2e	0.079374656
26	0x3f529296	0.8225492
27	0xbef5f63a	-0.48039418
28	0xbe0eaac3	-0.13932328
29	0x3d9844c6	0.074349925
30	0xbdd6d4b2	-0.10489787
31	0x3e979af0	0.29610395
32	0x3ec8f017	0.39245674
33	0xbf6cfc66	-0.9257263
34	0xbe80e746	-0.25176448
35	0x3f0c9403	0.5491335
36	0xbf302d0f	-0.68818754
37	0x3ec16608	0.37773156
38	0xbe3dcd68	-0.18535388
39	0x3e187837	0.14889608
40	0x3f757408	0.95880175
41	0x3f863544	1.0485005
42	0x3ee6c5c0	0.45072746
43	0xbecc0ba8	-0.39852643
44	0x3daa7c43	0.08324482
45	0xbedd2ffa	-0.43200666
46	0xbe223e22	-0.15844014
47	0xbfa13356	-1.2593791
48	0x3ea90643	0.3301259
49	0x3d83f942	0.064440265
50	0xbf715d64	-0.9428313
51	0xbf5c9755	-0.86168414
52	0xbf86ed18	-1.0541105
53	0x3e35fc37	0.17771994
54	0xbe1002f6	-0.1406363
55	0xbe6c7f37	-0.23095404
56	0x3f9fe4b5	1.2491671
57	0x3dae7986	0.085192725
58	0xbede3d9e	-0.43406385
59	0xbec3b6dc	-0.38225448
60	0xbf5fe58a	-0.87459624
61	0x3f5507f6	0.8321527
62	0xbd5ed14b	-0.054398816
63	0x3ec76654	0.38945258
64	0x3e7602b8	0.24024475
65	0x3cdf7dec	0.027281724
66	0xbf435afc	-0.76310706
67	0x3ec4cf9b	0.3843964
68	0xbcc278d2	-0.023739252
69	0xbc17703a	-0.0092430655
70	0xbcfc87e7	-0.030826522
71	0xbe7ee805	-0.24893196
72	0xbf71be43	-0.9443094
73	0x3f32d0b4	0.69849706
74	0x3e3933b3	0.18086128
75	0x3deb2a29	0.11482651
76	0x3f86780c	1.0505385
77	0x3e172e18	0.14763677
78	0xbe116877	-0.14200006
79	0xbe5783bc	-0.21046346

bias f4 [16]
0	0xbeefaf11	-0.46813253
1	0x3ed03608	0.40666223
2	0x3f6cba43	0.9247171
3	0x3eaf6e2f	0.3426375
4	0x3bc3066d	0.0059516937
5	0xbf0f11d5	-0.55886585
6	0x3dbeb5e1	0.093120344
7	0xbe56bc4e	-0.2097027
8	0xbcf63693	-0.03005532
9	0xbeaab664	-0.33342278
10	0xbe938b5f	-0.2881727
11	0xbca3694d	-0.019947672
12	0xbecc8ab8	-0.39949584
13	0x3e40a1e6	0.1881176
14	0xbf097405	-0.53692657
15	0xbb9f475f	-0.004860803

weight f4 [16, 16]
0	0xbdeed0f8	-0.116609514
1	0x3eeeb733	0.46624145
2	0xbd528780	-0.051398754
3	0x3f14cd7c	0.58126044
4	0x3ec2ad41	0.38022807
5	0xbb0013bb	-0.001954301
6	0x3e75c55c	0.24001068
7	0xbe9ca0ac	-0.30591333
8	0xbf0d5538	-0.5520816
9	0x3f3ad440	0.7298012
10	0x3e6225cb	0.2208473
11	0xbec058c8	-0.37567735
12	0xbe7a4efe	-0.24444196
13	0xbdb0d0ad	-0.08633552
14	0xbe049980	-0.1294918
15	0xbef4f64c	-0.4784416
16	0xbed836e5	-0.4222938
17	0xbe4084f6	-0.1880072
18	0xbf9a5745	-1.2057883
19	0x3e1c0806	0.15237436
20	0xbebcc046	-0.36865443
21	0x3d2eea86	0.042704128
22	0x3e806b48	0.2508185
23	0x3dfda094	0.123841435
24	0xbe372308	-0.17884457
25	0x3d8b2b24	0.06795338
26	0x3ece5d25	0.4030544
27	0x3da6f8a8	0.08152896
28	0xbfa44ff7	-1.2836903
29	0x3e580f94	0.21099693
30	0x3eaff326	0.34365195
31	0xbe606b9d	-0.21916051
32	0x3ec7d912	0.390328
33	0x3db26234	0.08710137
34	0xbdc728ab	-0.09724554
35	0xbeedacbd	-0.4642085
36	0x3e39a99d	0.18131109
37	0x3d7c23ba	0.06155751
38	0xbee5d265	-0.4488708
39	0x3db77c3d	0.089592434
40	0x3e503e5c	0.20336288
41	0xbca96a16	-0.020680469
42	0xbd58c6a7	-0.052923825
43	0xbf009d49	-0.5024
44	0x3c41f0e8	0.011837222
45	0x3e95bdf7	0.29246494
46	0x3f4d9ded	0.803191
47	0xbde37222	-0.111057535
48	0x3f1ad912	0.60487473
49	0xbec321c6	-0.38111705
50	0x3d9f293d	0.077715375
51	0x3d535981	0.05159903
52	0xbdca0a5c	-0.09865257
53	0xba2eeaa0	-0.0006672535
54	0x3f139d13	0.5766155
55	0x3eeb0b73	0.45907173
56	0x3ed14d6a	0.40879375
57	0xbea66000	-0.32495117
58	0xbf442a2e	-0.7662686
59	0x3d9e3e82	0.07726766
60	0xbeda5b2a	-0.42647678
61	0x3f100cf9	0.56269795
62	0xbeaaeeaa	-0.3338521
63	0x391780e5	0.00014448499
64	0xbe7e6968	-0.24844897
65	0x3e1455cd	0.14485855
66	0xbd9f845f	-0.0778892
67	0x3efe78da	0.49701577
68	0xbe2a1e73	-0.16613178
69	0xbf52fcd9	-0.82417065
70	0x3e25b38a	0.1618177
71	0x3e01512d	0.12628622
72	0xbd3b54a1	-0.045735005
73	0x3e21f6b1	0.15816762
74	0xbe2a4e5f	-0.16631459
75	0xbdc45909	-0.095872946
76	0xbe965097	-0.2935836
77	0x3f90119b	1.1255373
78	0xbebe6511	-0.37186483
79	0xbde97218	-0.11398715
80	0x3f0d88f8	0.5528712
81	0xbe7eb581	-0.24873926
82	0x3d65ae8a	0.056074657
83	0xbcc1c7c5	-0.023654828
84	0xbd994768	-0.07484323
85	0xbec681b8	-0.38770843
86	0xbe864f5a	-0.26232415
87	0x3f3a1f69	0.7270418
88	0x3ee3be56	0.44481152
89	0xbee7e5af	-0.45292422
90	0xbf758366	-0.95903623
91	0xbeb2d4ba	-0.34927922
92	0xbef85d11	-0.48508504
93	0x3f04d4a2	0.5188695
94	0xbeb4b95c	-0.35297668
95	0xbf067228	-0.5251794
96	0x3f33b003	0.7019045
97	0x3e94ad6e	0.29038566
98	0x3e9bc535	0.30423895
99	0x3db44819	0.08802814
100	0x3dbb0500	0.09131813
101	0xbf0c7538	-0.5486636
102	0x3d954b85	0.07289795
103	0x3e991407	0.29898092
104	0x3f1380e0	0.5761852
105	0xbed5268d	-0.41630974
106	0xbf41f951	-0.7577105
107	0xbebbe7f2	-0.36700398
108	0xbe3de44e	-0.18544123
109	0x3ecf9d1c	0.40549552
110	0xbecc60e2	-0.39917666
111	0xbf0c1f4f	-0.54735273
112	0x3e471c72	0.19444445
113	0xbe7d1ecb	-0.24718778
114	0xbe2ce812	-0.16885403
115	0xbf1d2255	-0.6138051
116	0x3e68b3d3	0.22724847
117	0xbebb050f	-0.36527297
118	0xbe294102	-0.16528705
119	0xbca818b3	-0.02051959
120	0x3f08eec9	0.5348936
121	0xbebc44a0	-0.36771107
122	0x3e9894b8	0.29800963
123	0x3e8f8acb	0.28035578
124	0x3f5abab4	0.85441136
125	0xbe61fff1	-0.2207029
126	0xbee5685f	-0.4480619
127	0x3eb6ea1b	0.35725483
128	0xbdf065d1	-0.1173817
129	0xbdd91e94	-0.106015354
130	0x3f45a850	0.7720995
131	0x3cb756d5	0.022380272
132	0x3e82ba92	0.25532967
133	0xbeb5931d	-0.354638
134	0x3ef518ef	0.47870585
135	0x3eb13d91	0.34617284
136	0x3e610f0c	0.21978396
137	0xbeaaad6b	-0.33335432
138	0xbf03809a	-0.51368105
139	0x3f1f4cd1	0.6222659
140	0xbe8daaa1	-0.27669242
141	0x3c22848b	0.009919296
142	0x3dba989d	0.0911114
143	0x3e6f0589	0.23341955
144	0xbf3a17a2	-0.7269231
145	0x3f0c41ee	0.547881
146	0x3d8ce6b7	0.06879943
147	0x3c6aa9a5	0.014322673
148	0x3cf2470e	0.029574897
149	0xbf1803e0	-0.5938091
150	0x3ee06d7a	0.43833524
151	0x3f6dda4c	0.9291122
152	0x3db1c2f0	0.086797595
153	0xbd4f113e	-0.050553553
154	0x3e162f99	0.14666595
155	0xbd8cfc7d	-0.06884096
156	0xbf77db64	-0.9681914
157	0x3f8aa84b	1.0832609
158	0xbe35dfdd	-0.17761178
159	0xbea80a5d	-0.32820407
160	0xbe33939c	-0.17536777
161	0x3eaaf7e3	0.33392248
162	0xbeae6f0f	-0.34069106
163	0x3d894570	0.06702697
164	0x3e271fa3	0.16320662
165	0xbec23365	-0.37929836
166	0x3e2479f1	0.16062142
167	0xbd7afeda	-0.0612782
168	0xbf46cef2	-0.77659523
169	0x3ee1d2fd	0.44106284
170	0x3eefcdb9	0.4683664
171	0xbe232bd9	-0.15934695
172	0xbd30523b	-0.04304717
173	0xbe56fb0a	-0.20994201
174	0x3ee3aac8	0.44466233
175	0xbf0cbce4	-0.54975724
176	0x3f8534b3	1.0406708
177	0xbf10643d	-0.5640295
178	0xbe8c82a8	-0.27443433
179	0xbe1f3d5e	-0.15550753
180	0xbd265ce9	-0.04061595
181	0xbaf6652a	-0.001879846
182	0x3f13017a	0.5742413
183	0x3e72ea07	0.23722087
184	0xbf0572da	-0.52128375
185	0x3f75d529	0.9602838
186	0x3e1ad47f	0.15120123
187	0xbdd4b121	-0.10385347
188	0x3d9dae0c	0.076992124
189	0x3e2a1069	0.16607822
190	0x3eb7880c	0.35845983
191	0xbecf5e52	-0.40501648
192	0xbf4e94d3	-0.8069584
193	0x3e81dbb6	0.2536294
194	0x3f1531a0	0.58278847
195	0x3e0b27f8	0.13589466
196	0xbeae8771	-0.3408771
197	0xbe09d864	-0.13461453
198	0xbd20f07a	-0.039291836
199	0x3b8f0325	0.0043643885
200	0x3eba0042	0.36328322
201	0xbecca533	-0.39969787
202	0xbee2d487	-0.4430277
203	0xbe8a7e9d	-0.27049723
204	0xbf1834e3	-0.594557
205	0xbdb278c6	-0.08714442
206	0xbdf05d9b	-0.11736604
207	0x3e6b1cf2	0.2296026
208	0x3f012feb	0.5046374
209	0xbf3e2366	-0.74272764
210	0xbf27b730	-0.65513897
211	0x3e50011a	0.2031292
212	0x3debaad3	0.115071915
213	0xbebdbc98	-0.37057948
214	0xbd8275d0	-0.06370127
215	0xbf5f6145	-0.87257797
216	0xbf2a5344	-0.66533303
217	0x3d4430ad	0.047897983
218	0x3eebdb6c	0.46065843
219	0x3e16a4cd	0.14711304
220	0x3f0e8bf8	0.55682325
221	0xbf35ae81	-0.70969397
222	0x3dd0219c	0.101626605
223	0x3f386b38	0.720386
224	0xbef1c688	-0.4722178
225	0x3e90719a	0.2821167
226	0x3e9dee5e	0.30845922
227	0x3c3e3ede	0.011611668
228	0x3df241d6	0.118289635
229	0xbe9773fb	-0.29580674
230	0xbac112da	-0.001473035
231	0xbeff5312	-0.49868065
232	0xbe2e89f4	-0.17044812
233	0x3e19f908	0.15036404
234	0xbe1fb0e9	-0.1559483
235	0xbe7da54b	-0.24770086
236	0x3f0383b9	0.5137287
237	0x3e32bd88	0.17455113
238	0x3e80217c	0.25025547
239	0xbefe942a	-0.49722415
240	0xbf1cc230	-0.61233807
241	0x3e586852	0.21133545
242	0x3e648f1a	0.22320214
243	0x3f19a2b8	0.60013914
244	0x3e517082	0.20453075
245	0x3ee4b9ca	0.44672996
246	0xbe0c0e5a	-0.1367735
247	0xbe779a92	-0.24180058
248	0xbf252df3	-0.6452324
249	0x3e319b35	0.17344363
250	0x3ea1234d	0.31472245
251	0xbdc006ba	-0.09376283
252	0xbe22c743	-0.15896325
253	0x3c64f164	0.013973568
254	0xbe547621	-0.20748188
255	0xbf43d195	-0.7649167

bias f4 [16]
0	0x3d16cda1	0.036817197
1	0xbe970305	-0.2949449
2	0xbe4e2f65	-0.20135267
3	0xbea6f0e5	-0.32605663
4	0x3dc738a6	0.09727602
5	0xbe5f0802	-0.21780398
6	0xbe247253	-0.16059236
7	0xbd1c1392	-0.0381046
8	0x3f166e2a	0.58761847
9	0x3ecc7bd4	0.39938223
10	0xbec75a4d	-0.38936082
11	0xbf4f9bd3	-0.81097144
12	0x3f2b01fd	0.6679991
13	0xbe49f660	-0.19722891
14	0x3ee597b7	0.44842312
15	0x3ccaab82	0.024739984

weight f4 [16, 16]
0	0x3ee56114	0.44800627
1	0xbf72f7fe	-0.94909656
2	0xbea57940	-0.3231907
3	0x3f18ca6c	0.5968387
4	0x3f2997ec	0.6624744
5	0x3f0646ab	0.5245158
6	0x3efabb80	0.48971176
7	0x3e08547d	0.1331348
8	0xbde8f70a	-0.11375244
9	0x3f2f7c65	0.68549186
10	0x3e486961	0.19571449
11	0x3e4525c9	0.19252695
12	0xbccd1f39	-0.025039302
13	0x3dd2ccbc	0.10292956
14	0x3c2cddee	0.010550959
15	0x3f044acf	0.5167665
16	0xbe16385e	-0.1466994
17	0xbfc049f1	-1.5022565
18	0x3f8e91aa	1.1138203
19	0xbc0fa204	-0.008766655
20	0xbf2809ab	-0.6563975
21	0x3e612d0b	0.21989839
22	0x3ee49ac3	0.44649324
23	0x3d10aab7	0.035319056
24	0x3f143838	0.57898283
25	0xbf89e0d6	-1.077174
26	0xbe6d83b9	-0.2319478
27	0xbd47f663	-0.048818957
28	0xbd0b0748	-0.03394249
29	0x3f39efab	0.7263133
30	0xbd5855fa	-0.05281637
31	0xbec5af9a	-0.38610536
32	0xbe1d9207	-0.15387736
33	0x3eab3d8d	0.33445397
34	0x3e2c8203	0.1684647
35	0x3f7cce3e	0.987522
36	0xbe100adf	-0.14066647
37	0x3f082a7a	0.53189814
38	0xbe07d332	-0.13264158
39	0x3eb37ea3	0.35057554
40	0xbf571364	-0.8401396
41	0xbec5a7d2	-0.386046
42	0x3eb5217d	0.35377112
43	0x3ff93b17	1.9471158
44	0xbfc2fe61	-1.523388
45	0x3e5174ce	0.20454714
46	0xbf07a3e4	-0.5298445
47	0xbd97074c	-0.07374439
48	0xbf9ac423	-1.2091106
49	0x3d99a410	0.075019956
50	0xbdb5e2f7	-0.08881181
51	0x3ec53902	0.38520056
52	0x3dd3758d	0.103251554
53	0x3ea027bc	0.31280315
54	0xbed7142f	-0.42007586
55	0x3f5dcd84	0.86641717
56	0x3ef051f9	0.4693754
57	0x3f05767e	0.5213393
58	0xbe1d1c27	-0.1534277
59	0x3ceea27d	0.029130215
60	0x3ec0b332	0.37636715
61	0x3e71d256	0.23615393
62	0xbe60e675	-0.21962912
63	0xbf50b7b3	-0.815303
64	0xbeb35b0c	-0.350304
65	0x3e9871d4	0.29774344
66	0xbd02fecc	-0.031981274
67	0x3fa12999	1.259082
68	0x3f380163	0.71877116
69	0x3f62643b	0.8843419
70	0x3f1c2e6b	0.6100833
71	0x3eca28c7	0.39484236
72	0x3f3427f0	0.7037344
73	0x3f3bb034	0.7331574
74	0xbefcf681	-0.49406818
75	0x3ea4006e	0.32031578
76	0x3de3d992	0.111254826
77	0xbf9347f7	-1.1506337
78	0xbf242b33	-0.64128417
79	0xbee31477	-0.4435155
80	0x3d830acb	0.06398543
81	0x3e5f0a23	0.2178121
82	0xbe5dd069	-0.21661533
83	0x3f67f337	0.9060549
84	0xbec7fedf	-0.3906164
85	0x3e8062f1	0.25075486
86	0x3e67ef65	0.22649916
87	0x3db071df	0.08615469
88	0xbd9e20bc	-0.07721087
89	0xbf15d84e	-0.5853318
90	0x3eb8f4f1	0.36124375
91	0x3f29b528	0.6629205
92	0xbe8f5ee4	-0.28002083
93	0x3e75f8ab	0.2402064
94	0xbf0a9df7	-0.54147285
95	0x3c9b6859	0.018970655
96	0xbe380977	-0.1797236
97	0xbd37ce97	-0.044874754
98	0x3eb1de7a	0.3474005
99	0xbebc833e	-0.3681888
100	0x3e584ce3	0.2112308
101	0xbf40a02c	-0.752444
102	0xbe43c7aa	-0.19119135
103	0xbe829755	-0.25506082
104	0x3fa18b0e	1.2620561
105	0x3eec9b19	0.4621208
106	0xbe867bf7	-0.26266453
107	0xc000123e	-2.0011134
108	0x3fceee34	1.6166444
109	0xbee4d7d8	-0.44695926
110	0x3f0c5b46	0.5482677
111	0x3ec3de51	0.3825555
112	0x3f3094fc	0.6897733
113	0x3da25f36	0.07928316
114	0x3cbf700c	0.023368858
115	0xbf01b488	-0.50666094
116	0xbec1755e	-0.37784857
117	0xbf8805f3	-1.0626816
118	0xbf04ec15	-0.5192273
119	0xbe01085f	-0.1260085
120	0xbef6a26f	-0.48170802
121	0xbf93ffb5	-1.156241
122	0xbe397e6c	-0.18114632
123	0xbe7d434b	-0.24732701
124	0x3cff0398	0.031129643
125	0x3f071461	0.5276547
126	0x3d89be75	0.0672578
127	0x3ed8d973	0.423534
128	0x3d1ce9c8	0.03830889
129	0xbdace792	-0.08442606
130	0x3c807f99	0.015685843
131	0x3e6f2234	0.23352891
132	0xbd901d92	-0.0703689
133	0x3f075ffe	0.5288085
134	0xbea0ae51	-0.31382993
135	0x3e255777	0.16146646
136	0xbee05c4d	-0.4382042
137	0x3d853a6b	0.06505283
138	0x3e3ff8c7	0.18747245
139	0x40020a5a	2.0318818
140	0xbfdd4015	-1.7285181
141	0x3e90ae7e	0.28258127
142	0xbf1bef9d	-0.60912496
143	0xbe93745e	-0.2879972
144	0xbf0afc22	-0.54290974
145	0xbe43309c	-0.19061512
146	0xbf1604af	-0.58600897
147	0x3f9066d2	1.1281378
148	0x3f29e4f1	0.6636496
149	0x3f6bdd1d	0.9213427
150	0x3ecffca2	0.4062243
151	0x3ee537f0	0.4476924
152	0x3efc7978	0.49311423
153	0x3f0e3d85	0.5556262
154	0x3e0a3107	0.13495265
155	0x3ee45971	0.44599488
156	0xbe3a5e88	-0.18200123
157	0xbea0377e	-0.31292337
158	0xbd9596dc	-0.07304165
159	0xbe963acc	-0.29341733
160	0xbf1a82c1	-0.60355765
161	0x3d820475	0.06348506
162	0x3f11dbb0	0.5697584
163	0xbe9cb61a	-0.30607682
164	0xbf41b43c	-0.7566564
165	0xbf241b64	-0.64104295
166	0xbf5314a3	-0.82453364
167	0x3f0c916d	0.549094
168	0x3e0bda6f	0.13657545
169	0x3e7dd657	0.24788795
170	0xbeb05f8a	-0.3444789
171	0xbf2f3494	-0.684396
172	0x3efe5c59	0.4967983
173	0x3e03ecb6	0.12883267
174	0xbb2308dd	-0.002487711
175	0x3ccf16b8	0.025279388
176	0xbed050b8	-0.40686584
177	0x3db9e4c4	0.09076837
178	0xbe82a33a	-0.25515157
179	0x3edf8281	0.43654254
180	0x3d7cda6c	0.06173174
181	0x3ed6a475	0.41922346
182	0xbde3a517	-0.11115473
183	0x3f6f63de	0.9351176
184	0x3e2bae69	0.16765751
185	0x3eb88803	0.3604127
186	0x3d314944	0.043282762
187	0xbe2ba60f	-0.16762565
188	0xbe01cef7	-0.12676607
189	0x3e709fb2	0.23498419
190	0xbf384d24	-0.7199271
191	0xbecec9cd	-0.40388337
192	0x3ef74947	0.48298094
193	0x3e01f47d	0.12690921
194	0xbf3f74f2	-0.7478782
195	0x3f24c2d6	0.64359796
196	0x3f74b865	0.95593864
197	0xbe43b4c5	-0.19111927
198	0xbb62b628	-0.0034593437
199	0xbf209624	-0.62729096
200	0xbdc5ab26	-0.096517846
201	0x3ec89faf	0.3918433
202	0x3ead84e0	0.33890438
203	0x3e7cae2e	0.2467582
204	0xbe0ff747	-0.14059173
205	0x3f158e5a	0.58420336
206	0x3e46091b	0.19339411
207	0x3e1ffd80	0.15624046
208	0x3ed3fd50	0.414042
209	0x3e80f0c3	0.25183687
210	0xbf09eaea	-0.53874075
211	0xbed2abe5	-0.4114677
212	0x3e7fb239	0.2497033
213	0xbf44ac1e	-0.7682513
214	0xbd4677e3	-0.048454177
215	0xbecb1077	-0.39661
216	0xbde5e88f	-0.11225998
217	0xbf8218e1	-1.0163842
218	0x3cf6f4f1	0.030146094
219	0xbf5f4d4e	-0.8722733
220	0xbe4fd934	-0.202977
221	0xbf3a2c7c	-0.7272413
222	0x3eb5b314	0.35488188
223	0x3daf84d0	0.08570254
224	0xbf34dc85	-0.70648986
225	0xbebfb29b	-0.37440953
226	0xbe63daeb	-0.2225148
227	0xbed9506e	-0.42444175
228	0xbf43a791	-0.7642756
229	0xbe4dd303	-0.20100026
230	0xbe80e450	-0.2517419
231	0x3edb959f	0.4288759
232	0xbf2d6101	-0.6772614
233	0xbf170205	-0.58987457
234	0xbee467fd	-0.44610587
235	0xbe187be5	-0.14891012
236	0xbe3251ae	-0.17413971
237	0x3ca3b234	0.019982435
238	0x3e9fe9a2	0.31232935
239	0xbf298c04	-0.6622927
240	0x3ef7ea74	0.4842106
241	0x3db15bb4	0.08660069
242	0x3e982051	0.29712155
243	0x3cb25212	0.02176765
244	0x3e4b1a6a	0.19834295
245	0x3f2741c4	0.65334725
246	0x3e4331cf	0.19061969
247	0x3c5ab1d0	0.013348058
248	0xbf0e6bb7	-0.5563311
249	0xbd64e13f	-0.055878874
250	0x3ee9d690	0.4567151
251	0x3f9e9823	1.2390178
252	0xbf0bd819	-0.54626614
253	0x3e801f2a	0.25023776
254	0xbd1bd82c	-0.038047954
255	0xbb0889a6	-0.0020833998

bias f4 [16]
0	0xbf2121e6	-0.6294235
1	0x3f02d8a7	0.51111835
2	0xbfbafe96	-1.4608943
3	0xbe2b9b58	-0.16758478
4	0xbecf10d0	-0.40442514
5	0xbf51d08d	-0.8195885
6	0x3fb7ab98	1.4349241
7	0x3e7a5329	0.24445786
8	0xbfa6a70f	-1.3019732
9	0xbec9807b	-0.39355835
10	0x3db5b58f	0.0887252
11	0xbebb374c	-0.36565626
12	0xbca3b6bd	-0.019984597
13	0x3ef12ef5	0.47106138
14	0x3d817be9	0.06322462
15	0xbf7d6daf	-0.9899549

weight f4 [1, 16]
0	0x3edccc18	0.4312446
1	0xbf57bd0a	-0.84272826
2	0x3c9d66ff	0.019214151
3	0xbf97f3f6	-1.1871326
4	0x3d754d67	0.05988827
5	0xbf91453d	-1.1349255
6	0xbe9a9917	-0.30194923
7	0xbd9d4ba2	-0.076804414
8	0x3e5d24c0	0.2159605
9	0xbe401b21	-0.18760349
10	0xbf8e45da	-1.1115067
11	0xbeeb38b3	-0.45941696
12	0x3f900c31	1.125372
13	0x3f7ccfe4	0.98754716
14	0xbfa16411	-1.2608663
15	0x3e12fcb1	0.14354207

weight f4 [1, 16]
0	0xc0add63a	-5.4324007
1	0xbf50dc8e	-0.8158654
2	0xc0a561c4	-5.1681843
3	0xbefcc054	-0.49365485
4	0xc0aafd1c	-5.343397
5	0xc09f4730	-4.97744
6	0x40a22fe7	5.0683475
7	0x40aa97a6	5.331012
8	0xc0a0bdb1	-5.0231557
9	0xc0ae8c26	-5.454608
10	0x402df58a	2.7181115
11	0xc0298294	-2.6485949
12	0xc00f02d2	-2.2345471
13	0x40594cc7	3.395311
14	0x40465533	3.0989501
15	0xc0a40c4f	-5.1265025

exp_avg f4 [16, 5]
0	0x3a8b2f22	0.0010618905
1	0xbaf8dcfa	-0.0018986755
2	0x396a74a8	0.00022359437
3	0xb8dce1c2	-0.00010532468
4	0xbc344835	-0.011003544
5	0x37d76e8e	2.5681478e-05
6	0x3a0c05bc	0.00053414307
7	0xb7ba0cc3	-2.217887e-05
8	0x36f66c50	7.3439805e-06
9	0x3bb888ba	0.0056315335
10	0x381484b4	3.540954e-05
11	0x3a4dd422	0.00078517396
12	0x390d9589	0.00013502514
13	0xba3fa3a5	-0.0007310457
14	0xb69cf28d	-4.677399e-06
15	0x37cdb2fd	2.4521252e-05
16	0xb8f23658	-0.000115495815
17	0x3993f15b	0.0002821785
18	0x392b7001	0.00016349556
19	0x387b78cd	5.9955568e-05
20	0xb7579cdb	-1.2851519e-05
21	0x397b23d0	0.00023950567
22	0x37cb141d	2.4208852e-05
23	0x38d50473	0.0001015746
24	0x3b631c1c	0.0034654206
25	0xba44f13b	-0.0007512753
26	0x3b3294a3	0.002724924
27	0x3a9215a9	0.0011145371
28	0xbaeebac6	-0.0018213622
29	0xbcc25b10	-0.023725063
30	0xb7816944	-1.5427016e-05
31	0x3a0c4c83	0.00053519773
32	0xb7e5259e	-2.7316444e-05
33	0xba18d5e2	-0.0005830211
34	0x3903b316	0.00012559848
35	0x394292c5	0.00018555958
36	0x3a17c643	0.0005789736
37	0x3a3431f2	0.00068738975
38	0xbab84955	-0.0014059941
39	0xbb91d3ad	-0.0044502825
40	0x3a2ef435	0.0006673963
41	0xba9b75f0	-0.001186071
42	0xb9a9aaa5	-0.00032361332
43	0x3a678f95	0.0008833346
44	0x3b877eab	0.004134973
45	0xba43ee30	-0.00074741524
46	0xba65adf1	-0.0008761576
47	0xba0c6f2d	-0.00053571427
48	0x3a9269a0	0.0011170395
49	0xbcce41ff	-0.025177954
50	0xbadc238d	-0.0016795263
51	0x3b6d5b72	0.0036217836
52	0x3aa3e86a	0.0012505178
53	0xbb2c94e9	-0.0026333875
54	0xbcdde162	-0.02708501
55	0xb6e8c39d	-6.936911e-06
56	0xb97d5e1e	-0.00024163022
57	0xb8e18ee3	-0.00010755451
58	0x395f8283	0.00021315557
59	0x37d8ce48	2.5845264e-05
60	0xba460a81	-0.0007554666
61	0xb9c3904f	-0.00037300817
62	0x3accea89	0.0015633862
63	0x39536086	0.00020158486
64	0xbc60d235	-0.013721992
65	0x3a9e9658	0.0012099249
66	0xba83a9b8	-0.0010045087
67	0x38f47c46	0.000116579744
68	0x3963e7fc	0.00021734828
69	0x3d0fc7bb	0.035102587
70	0x38054c6d	3.1780848e-05
71	0xba9ac84c	-0.0011808961
72	0x3993fd6c	0.0002822684
73	0x3aa0168a	0.0012213748
74	0xba189829	-0.00058210135
75	0x38c820bf	9.5428426e-05
76	0xba5991ce	-0.00082996197
77	0xb9f7b744	-0.00047248055
78	0x3a337617	0.0006845905
79	0xb98aa21b	-0.0002644219

exp_avg_sq f4 [16, 5]
0	0x374e3cde	1.2292729e-05
1	0x3a3657da	0.000695584
2	0x39176249	0.00014437096
3	0x39bef0c4	0.00036419008
4	0x3d106690	0.03525406
5	0x354e63d8	7.688627e-07
6	0x37fda1d2	3.0235304e-05
7	0x36b0e93b	5.2723603e-06
8	0x3734d97d	1.0779474e-05
9	0x3a8bf3cf	0.0010677519
10	0x3444839c	1.8301802e-07
11	0x375f3a40	1.3305398e-05
12	0x3614f40c	2.2195773e-06
13	0x371ea401	9.455719e-06
14	0x38a8c270	8.047081e-05
15	0x3492aa64	2.7318595e-07
16	0x361daa25	2.349386e-06
17	0x369a5785	4.5997463e-06
18	0x36836a6d	3.916494e-06
19	0x373af27a	1.114292e-05
20	0x33c56d61	9.193423e-08
21	0x364cab19	3.049796e-06
22	0x35782a35	9.244862e-07
23	0x358bf730	1.0428248e-06
24	0x396f919e	0.00022847063
25	0x3770e9b0	1.4359524e-05
26	0x39a1e24a	0.00030876911
27	0x38feb348	0.000121450576
28	0x391590ee	0.00014263738
29	0x3cc8ba90	0.024503022
30	0x35757051	9.1433054e-07
31	0x381706a5	3.6007394e-05
32	0x36a34376	4.865632e-06
33	0x377fd1c0	1.5248021e-05
34	0x3a311852	0.0006755638
35	0x3792bfef	1.7493932e-05
36	0x3a3050f0	0.0006725928
37	0x38d59b55	0.00010185564
38	0x39a5839a	0.00031569303
39	0x3c8ac32b	0.016938766
40	0x368aa7bc	4.1322473e-06
41	0x38a7c7c7	8.000392e-05
42	0x3827e1d8	4.0026236e-05
43	0x382830f1	4.00999e-05
44	0x3be70ddb	0.0070512122
45	0x373f9341	1.1418772e-05
46	0x39acaf84	0.00032937166
47	0x38264836	3.9644736e-05
48	0x3901f1d8	0.00012392492
49	0x3cbc3122	0.022972647
50	0x371fc87f	9.52382e-06
51	0x398acd53	0.0002647439
52	0x38d5c4d7	0.00010193296
53	0x393c8d2b	0.00017981666
54	0x3c785231	0.015156315
55	0x341251ab	1.362702e-07
56	0x36bff48d	5.720713e-06
57	0x362ebeb2	2.603902e-06
58	0x365668db	3.194952e-06
59	0x38e392a7	0.000108515196
60	0x36898fc3	4.0996542e-06
61	0x3952aa25	0.00020090544
62	0x38099f40	3.281166e-05
63	0x38f036a0	0.000114542665
64	0x3ace38cb	0.0015733478
65	0x38188bea	3.636993e-05
66	0x3a4ff725	0.0007933251
67	0x39bd6772	0.00036125962
68	0x39c1b8c2	0.00036949484
69	0x3da448db	0.080217086
70	0x36cb57fd	6.0601146e-06
71	0x39600d50	0.00021367264
72	0x38034150	3.129366e-05
73	0x38cbf01a	9.724517e-05
74	0x3bd9634f	0.006634153
75	0x35f30723	1.8106988e-06
76	0x389670f5	7.173597e-05
77	0x37df23ea	2.6600395e-05
78	0x381f4b56	3.7978716e-05
79	0x3ae46ce1	0.0017427468

exp_avg f4 [16]
0	0x3be74374	0.0070576016
1	0xb95ff4de	-0.00021358157
2	0x39aa6e78	0.00032507232
3	0x38fd6a96	0.00012083833
4	0xb9d68e3e	-0.0004092324
5	0xbb2fdbd9	-0.002683392
6	0x386d5d47	5.6592075e-05
7	0x3add017d	0.0016861405
8	0x3b678556	0.0035327277
9	0xbb80441c	-0.0039143693
10	0xbc00143a	-0.007817322
11	0xb8c244eb	-9.263478e-05
12	0xbb8207c2	-0.00396821
13	0x3bcad9fe	0.0061905375
14	0x37c9f81d	2.4076604e-05
15	0x3a274648	0.0006381017

exp_avg_sq f4 [16]
0	0x3a4cdf07	0.0007815216
1	0x3813484a	3.5114856e-05
2	0x3764f2e5	1.3646412e-05
3	0x36e7f9a9	6.9134007e-06
4	0x368a7440	4.1262538e-06
5	0x39b29401	0.00034061077
6	0x3823b7b5	3.903332e-05
7	0x3a389198	0.0007040738
8	0x38d52745	0.00010163946
9	0x39ba73ef	0.00035563062
10	0x399291d9	0.00027955955
11	0x37090e59	8.169177e-06
12	0x395d718a	0.00021118499
13	0x3a79e4f5	0.00095327134
14	0x396a2418	0.00022329425
15	0x38bdff0d	9.059729e-05

exp_avg f4 [16, 16]
0	0x3a7237da	0.000923989
1	0xb8f70247	-0.00011778302
2	0xb823874b	-3.898823e-05
3	0xb80f369a	-3.414471e-05
4	0xb96d9df6	-0.00022660926
5	0x3a98ff37	0.001167274
6	0xb8b4cab0	-8.620822e-05
7	0x38145c26	3.537177e-05
8	0x3a771c5a	0.0009426527
9	0x3a56a0ad	0.00081873947
10	0xb9c0bfd4	-0.00036764017
11	0xb8e75345	-0.000110304485
12	0x39e26e81	0.0004318841
13	0xba8c87fe	-0.0010721681
14	0x38e71cd0	0.00011020305
15	0x37d81598	2.5759262e-05
16	0xb9c62c05	-0.000377983
17	0x3a248689	0.0006276151
18	0x39f2217a	0.0004618278
19	0x3794fbbc	1.7760198e-05
20	0x3a2dfcdb	0.00066371047
21	0xba039e07	-0.00050208013
22	0xba0989d1	-0.00052466715
23	0x387c7e21	6.019895e-05
24	0xba188ae7	-0.0005819038
25	0x39ecf83b	0.00045198374
26	0x3a0c08f8	0.00053419126
27	0xba019b18	-0.000494407
28	0xb9c1f4b2	-0.0003699414
29	0x39bbebab	0.00035843006
30	0x39ecb72d	0.00045149904
31	0xba038a1b	-0.0005017833
32	0xb9429ae4	-0.00018558983
33	0x39ad6c34	0.0003307775
34	0x394041ab	0.0001833501
35	0x3a0d07a3	0.0005379861
36	0x39b23847	0.00033992736
37	0xb9a27c74	-0.00030991773
38	0xb96eb808	-0.00022766006
39	0xb9657d7f	-0.00021885893
40	0xb9d3e7d2	-0.00040417776
41	0x3970cf47	0.000229654
42	0x39e87b84	0.00044342515
43	0xb9554f22	-0.00020342742
44	0xb9b7ffbd	-0.0003509502
45	0x39425d95	0.00018536144
46	0x390d4ce4	0.00013475452
47	0xb9129630	-0.00013979594
48	0xbaed9a21	-0.0018127599
49	0xbb0caf15	-0.0021466662
50	0xba008b2b	-0.000490355
51	0xba8cc6f2	-0.0010740443
52	0xbaf4ec97	-0.0018686232
53	0xba594d33	-0.00082893966
54	0x3b0b2b8f	0.002123568
55	0xbac29177	-0.0014844377
56	0xba369ebf	-0.0006966404
57	0xbab3ba38	-0.0013712114
58	0x39f5caa8	0.00046881032
59	0x3b2c82c1	0.0026323053
60	0xba66b2c2	-0.00088004407
61	0x3a0aa00b	0.00052881305
62	0xbac275f7	-0.0014836182
63	0x3afab69b	0.0019127907
64	0xbad76867	-0.0016434313
65	0x3b28ca45	0.0025755328
66	0x3b16c889	0.0023007712
67	0xbb41e828	-0.0029587839
68	0x3b288465	0.002571368
69	0xba8421fe	-0.0010080931
70	0xbb2ab1db	-0.0026045952
71	0x3b1b3e33	0.0023688197
72	0xbaa92eea	-0.0012907658
73	0x3b04c8f2	0.0020261374
74	0xba066248	-0.00051263394
75	0xbb2afd31	-0.0026090855
76	0x3ac64f0c	0.0015129759
77	0x3a9c4e4c	0.001192519
78	0x3b2cbd5e	0.0026357989
79	0xbb29cf31	-0.002591085
80	0xbb0df467	-0.0021660568
81	0x39512e21	0.00019948978
82	0x3af7da36	0.0018909636
83	0xbb80b15f	-0.0039273943
84	0x3a457f77	0.00075339474
85	0xbb1d1546	-0.0023968979
86	0xb9e4d49b	-0.00043645952
87	0x3aa04c35	0.0012229743
88	0xba8eb1d7	-0.0010886741
89	0xb98f1d95	-0.00027297126
90	0xbac35eed	-0.001490561
91	0x38f26ff1	0.0001156031
92	0x3a42128f	0.0007403278
93	0x3b07dc50	0.0020730682
94	0x3a0fde37	0.00054881297
95	0xba336c1f	-0.00068444194
96	0xba2a88c5	-0.00065053656
97	0xb903a630	-0.00012555043
98	0x3a185287	0.00058106374
99	0xbb0e0e71	-0.0021676088
100	0xb81e0b19	-3.768047e-05
101	0xba394621	-0.000706764
102	0xb7c02c52	-2.2908822e-05
103	0x3a720de5	0.0009233638
104	0x386b0c94	5.604008e-05
105	0xb9c31aff	-0.00037213412
106	0xbaaf3ab3	-0.0013368934
107	0x390a4013	0.00013184575
108	0x3a65dad2	0.00087682635
109	0x3a3a5951	0.0007108646
110	0x39219f27	0.00015413445
111	0xb94d12f7	-0.00019557388
112	0xba923576	-0.0011154849
113	0x3955881f	0.00020363972
114	0x392de85e	0.00016585129
115	0xb99c3bf4	-0.00029799307
116	0x39b262c9	0.00034024406
117	0xba9d2fa2	-0.0011992345
118	0xb904b975	-0.00012657589
119	0x3931a261	0.00016940526
120	0xba7d8c83	-0.0009672122
121	0xba4b2c63	-0.00077504496
122	0x3979b7cf	0.00023814965
123	0xb8225fb2	-3.8712933e-05
124	0xb9bf39cf	-0.0003647343
125	0x3a83eae5	0.0010064511
126	0x39432643	0.00018610903
127	0xb973f4fd	-0.00023265551
128	0xbab48eb8	-0.0013775444
129	0x3aeb607f	0.0017957835
130	0x3ac90358	0.001533608
131	0xbad53892	-0.001626747
132	0x3ac8d82d	0.0015323214
133	0xbaa8e2f1	-0.0012885017
134	0xbaca0687	-0.0015413322
135	0x3add3b0c	0.0016878559
136	0xba89befd	-0.001050919
137	0x384c63fe	4.8730515e-05
138	0xb9f50b12	-0.0004673829
139	0xbaca9b1c	-0.0015457603
140	0x3a292508	0.00064523565
141	0x3ab81396	0.0014043923
142	0x3abb4d86	0.0014290072
143	0xbaddf0e2	-0.0016932751
144	0x39ca49e3	0.00038583492
145	0x37d217e9	2.5045085e-05
146	0x393a9b44	0.00017796183
147	0xb9c043bb	-0.00036671557
148	0xba3a8853	-0.0007115651
149	0x386b902b	5.6162633e-05
150	0xb897604f	-7.21818e-05
151	0x39d3e81d	0.00040417994
152	0x39cfb69b	0.00039618168
153	0xbadc56ca	-0.0016810533
154	0xba1f87be	-0.0006085596
155	0xb85ddd29	-5.2896477e-05
156	0x39428d7e	0.00018553992
157	0x3933c0ce	0.00017142596
158	0xb8444244	-4.6791756e-05
159	0x3807e48f	3.239937e-05
160	0x3846efeb	4.743032e-05
161	0xb96f8c9a	-0.00022845194
162	0xb94f2f8d	-0.00019758772
163	0xb8d2b0c2	-0.00010046504
164	0xb94a6e9f	-0.00019305431
165	0xb8ac1bde	-8.20679e-05
166	0x38d042b8	9.93064e-05
167	0x378058e4	1.5300182e-05
168	0xb8d8f2fa	-0.000103449405
169	0x38713261	5.7505797e-05
170	0x38e6d6e9	0.00011007285
171	0x38d402ba	0.000101094556
172	0x37fd10af	3.016772e-05
173	0x39026b6c	0.00012437784
174	0xb6c36bc6	-5.8239993e-06
175	0x39018b03	0.00012354185
176	0xba963f2f	-0.0011462922
177	0x3a987905	0.0011632746
178	0x3ac11dd5	0.0014733622
179	0xbb09d508	-0.0021031518
180	0x3a933787	0.0011231758
181	0xbad7dc11	-0.0016468783
182	0xbaaaf1e8	-0.0013042064
183	0x3ab2ce68	0.0013641836
184	0xba89cb5e	-0.0010512879
185	0x39821b26	0.0002481576
186	0xba4860ad	-0.00076438003
187	0xbaa92c73	-0.0012906924
188	0x3a1d7216	0.0006006075
189	0x3abcc91c	0.0014403197
190	0x3a9bfcc3	0.001190089
191	0xbaa73f8b	-0.0012760026
192	0x38257cbe	3.945524e-05
193	0xb8f2dbb4	-0.00011580382
194	0xb9612306	-0.0002147072
195	0x39f65d75	0.00046990407
196	0xb7232031	-9.723052e-06
197	0xb7bd45e8	-2.2563108e-05
198	0x3971a3d5	0.00023044583
199	0xb98c4e84	-0.0002676138
200	0xb8bba1b3	-8.946974e-05
201	0xb84fa954	-4.9510345e-05
202	0x3994573b	0.00028293752
203	0x3980e071	0.00024581284
204	0xb993ac6b	-0.00028166486
205	0xb7953dbc	-1.7790931e-05
206	0xb9624f29	-0.00021582529
207	0x393e0b5e	0.00018124047
208	0x391865c2	0.00014533757
209	0x3a6659f6	0.0008787209
210	0xb9c96166	-0.00038410275
211	0x3a6ea637	0.00091037474
212	0x3a4a1948	0.00077094557
213	0xb9c9c4b2	-0.00038484257
214	0xba526d4d	-0.00080271513
215	0x3a1b9860	0.00059354864
216	0xba2aa253	-0.00065091735
217	0x3967a2f6	0.00022090584
218	0x3a20cc63	0.00061339716
219	0xba93c008	-0.001127244
220	0xb8694bc7	-5.5622102e-05
221	0x39e68fb5	0.0004397609
222	0x3a416f06	0.00073789095
223	0xba49e578	-0.0007701735
224	0x3a028f88	0.0004980494
225	0x3ae51b2c	0.0017479411
226	0x38e1c19a	0.00010764897
227	0x3a6781d9	0.00088312995
228	0x3aab5ff6	0.0013074863
229	0xb94d298f	-0.00019565805
230	0xba8f4286	-0.001092986
231	0x3aa1ae95	0.0012335355
232	0xb9f20adc	-0.00046165928
233	0x3a027760	0.00049768947
234	0x396f4331	0.00022817847
235	0xbac4448a	-0.001497404
236	0x38d70400	0.00010252744
237	0x39bc0c9a	0.00035867543
238	0x3a89a738	0.0010502106
239	0xbaaaf51a	-0.0013043017
240	0x3a5881fb	0.00082591147
241	0xba78656e	-0.00094755634
242	0xba5c1d21	-0.00083966745
243	0x3a6c5041	0.00090146443
244	0xba4ae2c9	-0.0007739482
245	0x3a02329f	0.00049666496
246	0x3a542fdc	0.000809429
247	0xba497f83	-0.0007686542
248	0x3988c8b5	0.0002608948
249	0x39b29695	0.00034062998
250	0x39aa356c	0.0003246473
251	0x3a50bb2a	0.000796246
252	0xb9b93f61	-0.0003533317
253	0xba211421	-0.0006144662
254	0xba2d5736	-0.0006612422
255	0x3a68d93f	0.000888247
