ppo_algorithm/data/CartpoleSwingShort-v0_2019-03-12_22-31-37/best_policy/save_file.pt (torch_old, 72536 bytes, 28 tensors)

net.0.weight f4 [64, 5]
0	0xbead7332	-0.3387695
1	0xbea58ed3	-0.3233553
2	0xbb3d28ca	-0.0028863424
3	0xbe047726	-0.12936077
4	0x3d4f668b	0.050634902
5	0x3eb12b7d	0.3460349
6	0xbebf4a79	-0.37361506
7	0xbae7bb4f	-0.0017679724
8	0x3d58196d	0.052758623
9	0x3e5869ab	0.21134059
10	0xbd236d0b	-0.039898913
11	0x3cc09430	0.023508161
12	0xbe02a741	-0.12759115
13	0x3ea09846	0.31366175
14	0xbda58328	-0.08081657
15	0xbedd5700	-0.43230438
16	0x3ebcea37	0.36897442
17	0xbd1c2ad4	-0.03812678
18	0xbe5bbdec	-0.21459168
19	0xbe551228	-0.20807707
20	0xbd7bdada	-0.06148801
21	0x3d1e4bf4	0.038646653
22	0xbcebd399	-0.028787421
23	0xbe1d2f94	-0.15350181
24	0x3cd55eb9	0.026046144
25	0x3f2ed16c	0.682883
26	0xbc941238	-0.018075094
27	0x3ceb23f4	0.028703667
28	0xbede562a	-0.43425113
29	0x3de7f33b	0.113256894
30	0xbed3ccf9	-0.4136732
31	0xbe86a40b	-0.2629703
32	0x3bd6f2b6	0.006559695
33	0xbcd273f1	-0.02569005
34	0x390966b4	0.00013103598
35	0xbf0cc5e3	-0.5498945
36	0x3f0cc68e	0.5499047
37	0xbcb333f7	-0.021875365
38	0x3e8b8418	0.27249217
39	0xbe0f474f	-0.13992046
40	0x3ddefe6a	0.108883694
41	0xbe26ac79	-0.1627673
42	0xbd244fe8	-0.040115267
43	0xbe6b908c	-0.23004359
44	0xbd726c5e	-0.05918538
45	0x3e11f4fa	0.14253607
46	0x3f349b6d	0.7054966
47	0xbd212ebe	-0.039351217
48	0xbdae4bf7	-0.08510583
49	0xbe6b2d77	-0.22966562
50	0x3dcbd7e3	0.099532865
51	0xbf1757b6	-0.5911821
52	0x3bdf511e	0.00681509
53	0xbdbd9070	-0.09256065
54	0x3e3450c8	0.1760894
55	0xbe990f1b	-0.29894337
56	0x3e6811a7	0.22662984
57	0x3ccb1276	0.024789076
58	0xbe8aaede	-0.27086538
59	0xbe47b970	-0.19504333
60	0xbe268f2c	-0.16265553
61	0xbf2c5d68	-0.67330027
62	0xbdf3d324	-0.11905506
63	0xbebf6c9b	-0.37387547
64	0x3df37192	0.11886896
65	0xbe11d080	-0.14239693
66	0xbcc9c6ad	-0.024630869
67	0xbd073b08	-0.03301528
68	0x3e5a19bd	0.21298881
69	0x3e92a2a7	0.2863972
70	0xbe8cf147	-0.2752783
71	0x3e984d55	0.297465
72	0x3e4f4cac	0.20244092
73	0x3ce365f0	0.027758569
74	0xbe845649	-0.2584708
75	0x3ee2d945	0.44306388
76	0xbef4ba91	-0.4779859
77	0x3ddef4c2	0.108865276
78	0x3e1570ea	0.14593855
79	0x3ece3b77	0.40279743
80	0x3e6e70ca	0.23285213
81	0x3ec5b758	0.38616443
82	0xbdce7e8e	-0.10082732
83	0x3ec3602d	0.38159314
84	0xbd5e736f	-0.054309305
85	0x3e106f81	0.14105035
86	0xbf0c37fb	-0.5477292
87	0xbddda9d0	-0.10823405
88	0xbe3f46d0	-0.18679357
89	0x3ddc13a5	0.107459344
90	0xbe21a1bf	-0.15784357
91	0xbf187b29	-0.5956293
92	0xbd22aa53	-0.039713215
93	0x3e689e74	0.22716695
94	0x3e1a6362	0.15076974
95	0x3cf20537	0.029543502
96	0x3f13b676	0.5770029
97	0xbce8b7a4	-0.02840788
98	0x3dd53ad8	0.10411614
99	0xbe1aaf43	-0.1510592
100	0x3d84b3ab	0.064795814
101	0x3ea53f13	0.32274684
102	0x3ddc7f06	0.10766415
103	0xbe3e605b	-0.18591444
104	0xbea4b31a	-0.32167894
105	0xbe889ee0	-0.26683712
106	0xbf296773	-0.66173476
107	0x3b6995f9	0.003564237
108	0x3bb74dfa	0.0055940123
109	0x3e2aec18	0.16691625
110	0x3df46d4b	0.119349085
111	0xbe98723f	-0.29774663
112	0xbe92ddd4	-0.28684866
113	0xbe43f1f5	-0.19135268
114	0x3de9ebf6	0.11421959
115	0x3f31ab5e	0.6940211
116	0xbd8c2bb7	-0.068442754
117	0x3d06732b	0.032824676
118	0x3c0da997	0.00864639
119	0x3d929faa	0.0715936
120	0x3f031411	0.51202494
121	0x3ed1d791	0.40984777
122	0xbd80169b	-0.06254312
123	0xbe1d77a0	-0.15377665
124	0xbdabbbb0	-0.08385408
125	0xbf24c1aa	-0.6435801
126	0xbd76f24e	-0.060289674
127	0xbdb4939b	-0.08817216
128	0xbd3443ec	-0.044010088
129	0x3e942119	0.28931502
130	0xbeecf3f0	-0.4627986
131	0xbe7f3585	-0.2492276
132	0xbd8c162f	-0.06840169
133	0xbdd7469a	-0.10511513
134	0xbd14e017	-0.03634652
135	0xbdc0481a	-0.09388752
136	0x3e9fc6fd	0.31206504
137	0x3da7328d	0.08163939
138	0x3e31d92d	0.17368002
139	0xbec3a852	-0.38214356
140	0xbf03f216	-0.5154127
141	0xbe879869	-0.26483467
142	0xbe03ef58	-0.12884271
143	0xbe73763e	-0.23775575
144	0xbda81832	-0.0820774
145	0x3d310e75	0.043226678
146	0xbec85b73	-0.3913227
147	0xbdf5fd3a	-0.1201119
148	0xbd5b6042	-0.053558595
149	0x3e8449c4	0.2583753
150	0xbf0b6dc0	-0.5446434
151	0x3d9bc7e0	0.076064825
152	0x3d42c68b	0.047552627
153	0x3e70019d	0.23438115
154	0x3d687eb6	0.056761466
155	0xbd0a7c01	-0.033809666
156	0x3f167faf	0.5878858
157	0xbde63ff9	-0.112426706
158	0x3e356fa1	0.17718364
159	0xbf1ea164	-0.6196501
160	0x3ec5126d	0.3849062
161	0x3deb6f94	0.11495891
162	0xbd44fb44	-0.048091188
163	0xbcb8b470	-0.022546977
164	0xbc42b343	-0.01188356
165	0xbe330d63	-0.17485575
166	0xbe1666be	-0.1468763
167	0x3e447578	0.19185436
168	0x3ec8822b	0.3916181
169	0x3e019463	0.12654261
170	0x3e11f5f4	0.1425398
171	0x3de44139	0.11145253
172	0x3ea9fdb1	0.33201364
173	0x3ef1de01	0.47239688
174	0x3b5f503f	0.003407493
175	0xbd323446	-0.043506883
176	0xbeb5217e	-0.35377115
177	0x3da13ba2	0.07872702
178	0xbd5feb5e	-0.054667823
179	0x3e9a59eb	0.30146727
180	0xbe509081	-0.20367624
181	0xbf08d88d	-0.5345543
182	0xbcc11556	-0.023569744
183	0xbe89fbdc	-0.26949966
184	0x3e04c0aa	0.1296412
185	0xbd1a2cb9	-0.037640307
186	0x3dcebd89	0.10094745
187	0xbd56ab74	-0.052409604
188	0xbeb1e5ff	-0.34745786
189	0xbe187bd0	-0.1489098
190	0xbd665012	-0.056228705
191	0x3d7b9b71	0.061427537
192	0x3e0fdca3	0.1404901
193	0x3d561004	0.052261367
194	0xbdb6ba25	-0.08922223
195	0xbae5f25f	-0.0017543546
196	0x3e9c9a44	0.30586445
197	0x3ee65103	0.44983682
198	0xbc5c74fa	-0.013455624
199	0x3d3742bd	0.04474138
200	0x3de09d3e	0.109674916
201	0xbeff97aa	-0.49920398
202	0x3c2cdab9	0.010550194
203	0xbe6f0952	-0.23343399
204	0x3e21c21d	0.15796705
205	0xbe25702b	-0.1615607
206	0x3e9bbf20	0.30419254
207	0x3daaa568	0.0833233
208	0x3e95987d	0.29217902
209	0xbda5ab41	-0.08089305
210	0x3e8146ca	0.2524932
211	0x3ee3e105	0.44507614
212	0x3d840e81	0.06448079
213	0xbebaf7f6	-0.36517304
214	0xbe420cbb	-0.18950169
215	0x3e19f27a	0.15033904
216	0x3ddcd502	0.107828155
217	0xbd402f59	-0.046920154
218	0x3e0ca6fb	0.13735573
219	0xbe93cd7e	-0.28867716
220	0xbd00dd74	-0.031461194
221	0xbf450440	-0.7695961
222	0x3d17bb88	0.037044078
223	0xbea7eb2b	-0.32796606
224	0x3e3c63c7	0.18397437
225	0x3edab507	0.42716238
226	0x3f392aac	0.7233074
227	0x3e406086	0.18786821
228	0x3e586d82	0.21135524
229	0xbeb966eb	-0.36211333
230	0xbe0b92e2	-0.1363025
231	0x3eedd384	0.46450436
232	0xbe6bb0c0	-0.23016644
233	0xbea6a78a	-0.32549697
234	0xbeaadc1b	-0.33371052
235	0xbdcff5ac	-0.1015428
236	0xbed98a9a	-0.42488557
237	0xbd4f6842	-0.050636537
238	0xbe89ea30	-0.26936483
239	0x3deae1ca	0.11468847
240	0xbe443a29	-0.19162811
241	0x3f2fc8c7	0.68665737
242	0x3caeb04d	0.021324301
243	0xbdcacfe8	-0.09902936
244	0xbe73a106	-0.23791894
245	0xbdfc3c73	-0.12316217
246	0x3d24ff3e	0.04028248
247	0xbe9bdcf0	-0.30442
248	0xbd8d3336	-0.06894533
249	0x3eb53d71	0.3539844
250	0x3eb7cb91	0.35897496
251	0xbe446666	-0.19179687
252	0x3cb20d16	0.021734755
253	0x3e4a0bdf	0.19731091
254	0x3e3bfe2c	0.18358678
255	0x3ed643a6	0.41848487

net.0.bias f4 [64]
0	0xbd4043ca	-0.04693965
1	0x3ca40ed1	0.020026596
2	0x3e28dd4d	0.1649067
3	0x3cd7bb87	0.026334537
4	0x3cbdf87e	0.02318978
5	0xbc9cfcf4	-0.019163586
6	0xbd45021a	-0.048097707
7	0x3d275788	0.04085496
8	0x3db1a890	0.08674729
9	0x3d757b2e	0.059931926
10	0xbc9eb9d7	-0.019375725
11	0xbd3c2e85	-0.045942802
12	0x3d7dc87f	0.061958786
13	0x3b3be042	0.0028667604
14	0xbde01ef8	-0.10943407
15	0xbde5a496	-0.11213033
16	0x3e2180f7	0.15771852
17	0x3db33b0c	0.08751497
18	0x3cf926b8	0.03041397
19	0x3d68048d	0.056644965
20	0xbd34a946	-0.044106744
21	0xbd3cad6a	-0.046063818
22	0x3d2f5107	0.042801883
23	0x3c82d76c	0.015971862
24	0x3dddbb0e	0.108266935
25	0xba86ec21	-0.001029376
26	0x3c3c4f4e	0.011493517
27	0xbc63cbb6	-0.013903549
28	0x3d8a68cd	0.067582704
29	0x3dc4fb24	0.09618214
30	0xbdd10b1f	-0.10207199
31	0x3ddd06a3	0.107922815
32	0x3dab80e6	0.08374195
33	0xbdaf2c8b	-0.08553418
34	0xbe5e2dff	-0.21697234
35	0xbd317559	-0.043324802
36	0xbceab782	-0.028651956
37	0x3d6303f2	0.055423684
38	0xbdd0f6d0	-0.10203326
39	0x3c3fa162	0.0116961915
40	0xbc968bdb	-0.018377235
41	0xbdc9a163	-0.09845235
42	0xbd23c308	-0.03998092
43	0x3d84c070	0.06482017
44	0xbdad998a	-0.08476551
45	0xbdbb2b72	-0.09139146
46	0x3e08edaa	0.13371912
47	0x3c30a687	0.010781891
48	0xbce52fdc	-0.027976923
49	0x3d300c83	0.042980682
50	0x3be9005c	0.0071106385
51	0x3cfb388c	0.030666612
52	0x3d2eedbd	0.042707194
53	0xbc850f30	-0.016242594
54	0x3d831fdf	0.06402563
55	0x3cb44d94	0.022009648
56	0x3cc81632	0.024424646
57	0xbd94f9e5	-0.07274226
58	0xbe45b5da	-0.19307652
59	0xbd8b2e11	-0.06795896
60	0x3d3054b4	0.04304953
61	0x3cbe7f4b	0.023254057
62	0xbd08605e	-0.033295028
63	0xbc27ea3d	-0.010248718

net.2.weight f4 [64, 64]
0	0x3bc9bde1	0.0061566685
1	0x3d8a5793	0.06754985
2	0x3d4d3718	0.05010137
3	0x3e28454f	0.16432689
4	0xbca3ce09	-0.019995706
5	0xbcf7398b	-0.030178806
6	0xbdfe90fb	-0.124299966
7	0xbdffb500	-0.12485695
8	0x3cd1a17f	0.025589703
9	0x3eb3e383	0.35134515
10	0xbd8a8162	-0.06762959
11	0xbe588772	-0.21145418
12	0xbe786f09	-0.24261107
13	0x3d10073b	0.035163146
14	0x3d81d4b6	0.063393995
15	0x3c301270	0.010746583
16	0xbd6e4701	-0.058173183
17	0x3e0deb30	0.13859248
18	0xbd17f2af	-0.037096675
19	0xbe45e09b	-0.19323961
20	0x3cf156f1	0.029460402
21	0x3dc9f43b	0.098610364
22	0x3e1a69f5	0.15079482
23	0x3e23b508	0.15987027
24	0x3e23973a	0.15975657
25	0xbd8da7d3	-0.069167756
26	0xbdaac10c	-0.08337602
27	0xbe1d82db	-0.15381949
28	0x3e44e754	0.1922887
29	0xbd05aa60	-0.032633185
30	0x3cdf5a71	0.027264806
31	0xbdb72622	-0.0894282
32	0x3dd9159f	0.10599827
33	0xbe07f4f2	-0.13277033
34	0xbd8bb30d	-0.068212606
35	0xbda6c018	-0.08142108
36	0xbd66ae9a	-0.056318857
37	0x3d97479d	0.07386706
38	0x3e4db263	0.2008758
39	0x3dbebdfc	0.093135804
40	0x3e3e7ea1	0.18602993
41	0xbe3cd77e	-0.18441579
42	0xbdb78e80	-0.089627266
43	0xbe8e1410	-0.2774968
44	0x3e0762b5	0.13221247
45	0xbe2f5d6d	-0.17125483
46	0xbc5d0fbc	-0.013492521
47	0x3df0a697	0.117505245
48	0x3dfb2ffe	0.12265013
49	0xbba27010	-0.0049572065
50	0x3e013b73	0.12620334
51	0x3d9b2f91	0.07577432
52	0xbe2f93d7	-0.1714624
53	0xbe013ee0	-0.12621641
54	0x3e2390d4	0.15973216
55	0x3e20ca08	0.15702069
56	0xbe1cea0a	-0.15323654
57	0xbe0db85e	-0.13839862
58	0x3e07f5ed	0.13277407
59	0x3cf746e5	0.030185172
60	0xbc0ed82c	-0.008718532
61	0x3b5edfb5	0.0034007852
62	0xbe1477f2	-0.1449888
63	0xbddeae3a	-0.10873075
64	0x3e06d2d2	0.13166359
65	0x3d9e8742	0.07740642
66	0xbd98805a	-0.07446356
67	0xbcbb80c8	-0.022888556
68	0xbd19dd82	-0.037564762
69	0xbd830213	-0.0639688
70	0x3cfc6a57	0.030812426
71	0x3d9e4385	0.07727722
72	0xbe37bd34	-0.17943269
73	0xbe675af1	-0.22593285
74	0x3d002887	0.03128865
75	0xbc04ab9d	-0.008097556
76	0xbe2ca1d6	-0.1685861
77	0xbdf25a31	-0.11833609
78	0xbe151431	-0.14558484
79	0xbd1138c3	-0.035454523
80	0xbe04cb3d	-0.12968154
81	0x3d7ccc85	0.061718483
82	0x3ea3cb9e	0.31991285
83	0x3e1ed6ea	0.1551167
84	0xbe6e00b5	-0.23242457
85	0x3dd4da06	0.10393147
86	0xbe980316	-0.29689854
87	0xbe91e11d	-0.2849206
88	0x3d7e9be1	0.062160376
89	0xbe8c4cd5	-0.27402368
90	0x3dbf3b55	0.093374886
91	0xbd9f30db	-0.0777299
92	0x3d2c4547	0.042058256
93	0x3df56d99	0.11983795
94	0xbdd3cb4f	-0.103415124
95	0xbe3c85cd	-0.18410416
96	0xbe37ca68	-0.17948306
97	0xbdd21e11	-0.10259641
98	0xbe1977f2	-0.14987162
99	0x3cc35bb3	0.023847437
100	0x3e833e4d	0.2563347
101	0xbe84d042	-0.25940138
102	0xbd61c857	-0.0551227
103	0xbd95d7e9	-0.07316572
104	0xbda78590	-0.08179772
105	0xbe7eb653	-0.24874239
106	0x3d806399	0.06268997
107	0xbd03978d	-0.032126952
108	0xbd6dd5a2	-0.058065064
109	0xbeda701b	-0.42663655
110	0xbe2f185c	-0.17099136
111	0x3dadf9e4	0.084949285
112	0xbec5a29c	-0.38600624
113	0x3cac4514	0.021029033
114	0xbd9307af	-0.071792
115	0x3e0b2bc7	0.13590918
116	0xbc909082	-0.017647032
117	0x3cdb9746	0.026805531
118	0xbe2ae9aa	-0.16690698
119	0x3dbcd8d4	0.09221044
120	0xbca34357	-0.019929571
121	0xbe227ea2	-0.15868619
122	0xbe0bb47c	-0.13643068
123	0x3e04fe25	0.12987573
124	0xbe436e23	-0.19084983
125	0xbd9677e7	-0.07347088
126	0x3d563e19	0.052305315
127	0xbd1e4039	-0.038635466
128	0x3d72c214	0.05926712
129	0xbc9216b2	-0.017833088
130	0xbd8ecf2c	-0.06973109
131	0xbdbaad47	-0.09115081
132	0xbe078d6a	-0.13237539
133	0x3d1531dc	0.036424503
134	0xbd895ad7	-0.067067795
135	0x3b8cac5f	0.004293009
136	0xbdbe1bda	-0.09282656
137	0x3da20e0d	0.07912836
138	0x3d4cdc06	0.05001452
139	0xbd945868	-0.07243425
140	0xbd2025bc	-0.039098486
141	0xbe1f00ec	-0.15527695
142	0xbc70733d	-0.014675912
143	0x3dd9c3a3	0.10633018
144	0x3e8885ef	0.26664683
145	0x3e5cb0f1	0.21551873
146	0xbe3b7a82	-0.18308452
147	0x3d10991b	0.035302263
148	0x3c0b79ab	0.008512895
149	0xbd91b2a8	-0.07114154
150	0x3dcc328f	0.09970581
151	0x3e197f2c	0.14989918
152	0x3e8f67f8	0.2800901
153	0xbdc968cc	-0.098344415
154	0x3c698438	0.014252715
155	0x3dd290ab	0.102814995
156	0x3e403811	0.18771388
157	0x3e653b52	0.2238591
158	0x3cb3dea8	0.021956757
159	0x3d847be0	0.0646894
160	0x3d3f8f52	0.04676754
161	0x3eae0662	0.33989245
162	0xbb74c026	-0.0037345975
163	0xbca6951c	-0.020334773
164	0xbe13d7f2	-0.14437845
165	0x3db96a35	0.090534605
166	0x3e267ac0	0.16257763
167	0x3da72dce	0.081630334
168	0xbeb7866e	-0.3584475
169	0x3ded5235	0.11587945
170	0x3dd92e8e	0.10604583
171	0x3e15b177	0.14618479
172	0x3e13d1b6	0.14435467
173	0xbda627a0	-0.081130266
174	0xbd913e9e	-0.070920214
175	0xbdb696c3	-0.08915474
176	0x3d2e1d78	0.042508572
177	0xbe09c657	-0.13454567
178	0xbd327a19	-0.043573473
179	0xbd0af197	-0.033921804
180	0x3e083f4e	0.13305399
181	0x3d9a70fc	0.07541081
182	0x3e6fc8db	0.23416464
183	0xbe42f2e0	-0.19037962
184	0x3d05d03a	0.032669283
185	0x3e626ccd	0.22111817
186	0x3daca92d	0.08430705
187	0x3cf33c8f	0.029691963
188	0xbdad9ade	-0.08476804
189	0x3d8a3085	0.067475356
190	0xbd76849f	-0.06018507
191	0xbda83275	-0.08212749
192	0x3d19fdbf	0.037595507
193	0x3db4f662	0.08836056
194	0x3dda15f3	0.10648718
195	0xbdbf0a3e	-0.093281254
196	0xbe73ccb1	-0.23808552
197	0xbdd56556	-0.10419719
198	0x3ea4d0c5	0.3219053
199	0x3e2de75e	0.16982791
200	0xbddc33ad	-0.10752044
201	0x3d7901ae	0.060792617
202	0xbdcf2385	-0.10114197
203	0xbdfa7495	-0.122292675
204	0x3dc0da70	0.09416664
205	0xbd965216	-0.073398754
206	0xbd1ddf79	-0.0385432
207	0xbc5ac675	-0.01335298
208	0xbe783826	-0.24240169
209	0x3d62b22b	0.055345695
210	0x3dd96e02	0.106166855
211	0xbdbf3ed4	-0.093381554
212	0x3ddc28ab	0.10749944
213	0x3e889295	0.26674333
214	0xbde7c983	-0.11317732
215	0x3e19e72e	0.15029594
216	0x3de1e9ed	0.11030946
217	0x3e2ac551	0.16676833
218	0x3d03960c	0.032125518
219	0x3ddc39b3	0.10753193
220	0x3e883fff	0.26611325
221	0xbd9045c5	-0.070445575
222	0xbd6b9d6e	-0.057523184
223	0xbd008720	-0.031378865
224	0x3d8785bc	0.06617305
225	0xbd95f9ba	-0.07323022
226	0xbdfc09d6	-0.123065636
227	0x3cc102d5	0.02356092
228	0x3e1200d1	0.14258124
229	0x3da87819	0.08226032
230	0x3e1d2db2	0.15349463
231	0xbe4aa463	-0.19789271
232	0x3f11e15f	0.56984514
233	0xbdbe64cc	-0.09296569
234	0x3dc90d7c	0.09817025
235	0xbe0fcfa2	-0.1404405
236	0x3e905f58	0.28197742
237	0xbd84ccdd	-0.06484387
238	0xbe3b1d1a	-0.1827282
239	0x3da1edd7	0.079066925
240	0xbe20043a	-0.15626612
241	0xbe05d952	-0.13071182
242	0x3d247cff	0.040158268
243	0xbe20bf2a	-0.15697923
244	0xbdfe5c8d	-0.124199964
245	0x3e89446c	0.26810014
246	0x3d400a96	0.046885096
247	0x3d0d06ba	0.034430243
248	0xbea0a0fb	-0.31372818
249	0xbe0c8ff3	-0.13726787
250	0x3e3c8ba8	0.1841265
251	0xbde8a8b8	-0.113603055
252	0x3d4abd72	0.049497075
253	0x3e24d144	0.16095454
254	0xbea04950	-0.31305933
255	0x3eaad772	0.33367497

net.2.bias f4 [64]
0	0x3ce4827e	0.027894255
1	0xbb3019fb	-0.0026870954
2	0x3d0607bf	0.03272223
3	0xbd232d61	-0.0398382
4	0xbd9fef55	-0.07809321
5	0x3d848592	0.06470789
6	0xbd83381e	-0.06407188
7	0xbd483f13	-0.048888277
8	0xbd091440	-0.033466578
9	0xbb427053	-0.0029669001
10	0xbcdc104a	-0.026863236
11	0xbc32da13	-0.010916251
12	0x3c9639b2	0.018338058
13	0xbd4f853e	-0.05066418
14	0xbc807232	-0.015679453
15	0x3d850f04	0.06497005
16	0x3c8cc392	0.017183099
17	0xbb81efa6	-0.003965336
18	0xbd07fb90	-0.033198893
19	0xbd0ffad1	-0.035151307
20	0x3c31b78e	0.0108469855
21	0x3cbaece0	0.022818029
22	0xbd12149d	-0.03566419
23	0xbbed6a6b	-0.007245352
24	0x3d347beb	0.04406349
25	0x3ce62008	0.028091446
26	0x3d4f6b57	0.050639477
27	0x3d8371d6	0.06418197
28	0xbc05b40e	-0.008160604
29	0x3da12759	0.07868833
30	0xbba44aeb	-0.0050138137
31	0x3d2d58d1	0.04232103
32	0xbc933358	-0.017968819
33	0x3c99da0f	0.018780736
34	0x3ccbdfd7	0.024887009
35	0x3d469345	0.04848029
36	0xbb30bd4a	-0.0026968294
37	0x3d24bfa2	0.040221818
38	0xbb5366ee	-0.0032257396
39	0xbd33a26c	-0.04385607
40	0x3cbfc33a	0.023408521
41	0x3cdac9d9	0.026707577
42	0xbcdd8f0d	-0.027045751
43	0xbc12703b	-0.008937891
44	0x3cb396ee	0.021922555
45	0xbd475f54	-0.048674896
46	0x3a56706f	0.0008180206
47	0xbd1b0aec	-0.037852213
48	0xbbfea0d1	-0.0077706357
49	0xbd813371	-0.0630864
50	0xbac20d40	-0.0014804974
51	0x3cfa15df	0.030528007
52	0xbb9cbe1d	-0.0047834055
53	0x3d22d1d1	0.039750878
54	0x3d63492f	0.055489715
55	0xbad88c99	-0.0016521394
56	0xbd952f75	-0.07284442
57	0x3b83584c	0.0040083285
58	0xbc2e8c88	-0.010653622
59	0xbc83231a	-0.016007949
60	0x3c4f1399	0.01263895
61	0xbd6e6eb1	-0.058211032
62	0x3cfd9623	0.03095538
63	0xbcbd65bc	-0.0231198

out_mean.weight f4 [1, 64]
0	0xbc1d7f8f	-0.009612932
1	0x3d1d0e97	0.038343992
2	0xbd4a6519	-0.04941282
3	0x3d7dcb81	0.061961655
4	0x3d9f328c	0.07773313
5	0xbe3e5bc9	-0.18589701
6	0x3b9b9a03	0.0047485842
7	0x3e1c1fc5	0.15246494
8	0x3b8d240f	0.004307277
9	0xbd31bdb6	-0.043393813
10	0x3d8512aa	0.064977005
11	0xbc8a1ba8	-0.01685889
12	0xbd9f986f	-0.07792746
13	0x3e0e471a	0.1389431
14	0x3abe0852	0.0014498329
15	0xbe8f7e55	-0.2802607
16	0x3ca28f19	0.019843625
17	0x3bbaa62a	0.005696078
18	0x3d88f7b7	0.06687873
19	0x3e0144a2	0.12623838
20	0x3c67db11	0.014151351
21	0xbbd5e47c	-0.0065274816
22	0xbcee46e8	-0.029086545
23	0xbb5665c4	-0.0032714466
24	0xbe0512fb	-0.12995522
25	0xbb6c3ed8	-0.00360482
26	0x3a9edd8e	0.0012120472
27	0xbaa42b16	-0.0012525048
28	0xbbbc2ddc	-0.0057427716
29	0xbeac121b	-0.33607563
30	0x3da80fbd	0.08206127
31	0xbdd3c90f	-0.10341083
32	0x3cabbd02	0.02096415
33	0xbced3f01	-0.028960707
34	0x3b1c972f	0.0023893823
35	0xbd94f5dc	-0.072734565
36	0xbc88e326	-0.016709875
37	0xbc3c6a53	-0.011499959
38	0x3a094bc6	0.00052374264
39	0x3abae86c	0.0014259941
40	0x3d0438fb	0.032280903
41	0xbd2962da	-0.041354038
42	0x3bd59263	0.006517695
43	0xbbed5e7d	-0.00724393
44	0xbdcc9ded	-0.099910595
45	0x3e3a6c14	0.18205291
46	0xbc2aff4c	-0.010436844
47	0x3d996bbf	0.07491254
48	0x3cefd659	0.029277014
49	0x3e89a5aa	0.26884204
50	0x3c5a91a0	0.013340384
51	0x3b6dbfc1	0.0036277624
52	0x3c816ccf	0.015798954
53	0x3896c578	7.189339e-05
54	0xbdd0d44d	-0.10196743
55	0xbce232f5	-0.027612189
56	0x3e18aee0	0.1491046
57	0x3c8845f6	0.016634922
58	0x3c0f53f3	0.008748042
59	0xbba85a50	-0.005137719
60	0xbcbde86d	-0.023182118
61	0x3b7ebe8d	0.0038870901
62	0x3ce1613e	0.027512189
63	0x3df75b1a	0.12077923

out_value.weight f4 [1, 64]
0	0x3c8ed99e	0.017437752
1	0x3dd9519c	0.10611269
2	0x3e0713c8	0.1319114
3	0xbcc054c2	-0.023477916
4	0x3d93ec57	0.072228126
5	0x3dc46d6d	0.09591184
6	0x3c028b43	0.007967773
7	0x3e5011be	0.20319268
8	0xbd722bfd	-0.05912398
9	0x3c53bab0	0.012922928
10	0xbc9d3265	-0.019189069
11	0xbe1c1c91	-0.15245272
12	0x3bab5b9d	0.005229427
13	0xbe09c341	-0.1345339
14	0xbcce47fe	-0.025180813
15	0x3e4df0c8	0.20111382
16	0x3d411d58	0.047147125
17	0xbd29ab69	-0.041423235
18	0xbb8143d5	-0.003944854
19	0xbc8f4749	-0.017490046
20	0x3e268d2a	0.16264787
21	0xbd474186	-0.048646472
22	0xbd015ccd	-0.031582642
23	0x3ddfc54f	0.109263055
24	0xbd061bf7	-0.032741513
25	0x3e3ff0ca	0.18744197
26	0x3dabadc7	0.08382755
27	0xbb770a29	-0.0037695265
28	0xbda19240	-0.07889223
29	0xbc7421d6	-0.014900645
30	0x3e0eee38	0.1395806
31	0xbdbdfe1e	-0.09276985
32	0x3de6858c	0.11255941
33	0xbd5f1bd2	-0.05446989
34	0x3e7baaa4	0.24576813
35	0xbbad70c6	-0.0052929847
36	0x3b1cbe34	0.002391708
37	0xbd4f394e	-0.05059176
38	0x3d0f3bc0	0.03496909
39	0x3df2b294	0.11850467
40	0x3cc9a545	0.02461494
41	0xbd54a0a3	-0.051911008
42	0xbbc1d966	-0.0059158085
43	0xbe24fb85	-0.16111572
44	0x3dc0a372	0.09406175
45	0xbc8129a2	-0.015766922
46	0x3d711326	0.058856152
47	0xbd9ad0f1	-0.07559384
48	0x3e2d00ab	0.16894786
49	0xbd663849	-0.05620602
50	0xbe416895	-0.18887551
51	0x3d039ed5	0.032133896
52	0x3d6f4bb4	0.058421806
53	0x3daa8c1d	0.08327506
54	0xbe54dfb6	-0.20788464
55	0xbda2c5ed	-0.079479076
56	0xbe695fc6	-0.22790441
57	0xbdbfd59b	-0.09366914
58	0xbb025af9	-0.001989065
59	0xbd70e320	-0.058810353
60	0x3d15723c	0.036485896
61	0x3e29138e	0.16511366
62	0x3d9ac1aa	0.0755647
63	0xbe2f4c7d	-0.17119022

weight f4 [64, 5]
0	0xbead7332	-0.3387695
1	0xbea58ed3	-0.3233553
2	0xbb3d28ca	-0.0028863424
3	0xbe047726	-0.12936077
4	0x3d4f668b	0.050634902
5	0x3eb12b7d	0.3460349
6	0xbebf4a79	-0.37361506
7	0xbae7bb4f	-0.0017679724
8	0x3d58196d	0.052758623
9	0x3e5869ab	0.21134059
10	0xbd236d0b	-0.039898913
11	0x3cc09430	0.023508161
12	0xbe02a741	-0.12759115
13	0x3ea09846	0.31366175
14	0xbda58328	-0.08081657
15	0xbedd5700	-0.43230438
16	0x3ebcea37	0.36897442
17	0xbd1c2ad4	-0.03812678
18	0xbe5bbdec	-0.21459168
19	0xbe551228	-0.20807707
20	0xbd7bdada	-0.06148801
21	0x3d1e4bf4	0.038646653
22	0xbcebd399	-0.028787421
23	0xbe1d2f94	-0.15350181
24	0x3cd55eb9	0.026046144
25	0x3f2ed16c	0.682883
26	0xbc941238	-0.018075094
27	0x3ceb23f4	0.028703667
28	0xbede562a	-0.43425113
29	0x3de7f33b	0.113256894
30	0xbed3ccf9	-0.4136732
31	0xbe86a40b	-0.2629703
32	0x3bd6f2b6	0.006559695
33	0xbcd273f1	-0.02569005
34	0x390966b4	0.00013103598
35	0xbf0cc5e3	-0.5498945
36	0x3f0cc68e	0.5499047
37	0xbcb333f7	-0.021875365
38	0x3e8b8418	0.27249217
39	0xbe0f474f	-0.13992046
40	0x3ddefe6a	0.108883694
41	0xbe26ac79	-0.1627673
42	0xbd244fe8	-0.040115267
43	0xbe6b908c	-0.23004359
44	0xbd726c5e	-0.05918538
45	0x3e11f4fa	0.14253607
46	0x3f349b6d	0.7054966
47	0xbd212ebe	-0.039351217
48	0xbdae4bf7	-0.08510583
49	0xbe6b2d77	-0.22966562
50	0x3dcbd7e3	0.099532865
51	0xbf1757b6	-0.5911821
52	0x3bdf511e	0.00681509
53	0xbdbd9070	-0.09256065
54	0x3e3450c8	0.1760894
55	0xbe990f1b	-0.29894337
56	0x3e6811a7	0.22662984
57	0x3ccb1276	0.024789076
58	0xbe8aaede	-0.27086538
59	0xbe47b970	-0.19504333
60	0xbe268f2c	-0.16265553
61	0xbf2c5d68	-0.67330027
62	0xbdf3d324	-0.11905506
63	0xbebf6c9b	-0.37387547
64	0x3df37192	0.11886896
65	0xbe11d080	-0.14239693
66	0xbcc9c6ad	-0.024630869
67	0xbd073b08	-0.03301528
68	0x3e5a19bd	0.21298881
69	0x3e92a2a7	0.2863972
70	0xbe8cf147	-0.2752783
71	0x3e984d55	0.297465
72	0x3e4f4cac	0.20244092
73	0x3ce365f0	0.027758569
74	0xbe845649	-0.2584708
75	0x3ee2d945	0.44306388
76	0xbef4ba91	-0.4779859
77	0x3ddef4c2	0.108865276
78	0x3e1570ea	0.14593855
79	0x3ece3b77	0.40279743
80	0x3e6e70ca	0.23285213
81	0x3ec5b758	0.38616443
82	0xbdce7e8e	-0.10082732
83	0x3ec3602d	0.38159314
84	0xbd5e736f	-0.054309305
85	0x3e106f81	0.14105035
86	0xbf0c37fb	-0.5477292
87	0xbddda9d0	-0.10823405
88	0xbe3f46d0	-0.18679357
89	0x3ddc13a5	0.107459344
90	0xbe21a1bf	-0.15784357
91	0xbf187b29	-0.5956293
92	0xbd22aa53	-0.039713215
93	0x3e689e74	0.22716695
94	0x3e1a6362	0.15076974
95	0x3cf20537	0.029543502
96	0x3f13b676	0.5770029
97	0xbce8b7a4	-0.02840788
98	0x3dd53ad8	0.10411614
99	0xbe1aaf43	-0.1510592
100	0x3d84b3ab	0.064795814
101	0x3ea53f13	0.32274684
102	0x3ddc7f06	0.10766415
103	0xbe3e605b	-0.18591444
104	0xbea4b31a	-0.32167894
105	0xbe889ee0	-0.26683712
106	0xbf296773	-0.66173476
107	0x3b6995f9	0.003564237
108	0x3bb74dfa	0.0055940123
109	0x3e2aec18	0.16691625
110	0x3df46d4b	0.119349085
111	0xbe98723f	-0.29774663
112	0xbe92ddd4	-0.28684866
113	0xbe43f1f5	-0.19135268
114	0x3de9ebf6	0.11421959
115	0x3f31ab5e	0.6940211
116	0xbd8c2bb7	-0.068442754
117	0x3d06732b	0.032824676
118	0x3c0da997	0.00864639
119	0x3d929faa	0.0715936
120	0x3f031411	0.51202494
121	0x3ed1d791	0.40984777
122	0xbd80169b	-0.06254312
123	0xbe1d77a0	-0.15377665
124	0xbdabbbb0	-0.08385408
125	0xbf24c1aa	-0.6435801
126	0xbd76f24e	-0.060289674
127	0xbdb4939b	-0.08817216
128	0xbd3443ec	-0.044010088
129	0x3e942119	0.28931502
130	0xbeecf3f0	-0.4627986
131	0xbe7f3585	-0.2492276
132	0xbd8c162f	-0.06840169
133	0xbdd7469a	-0.10511513
134	0xbd14e017	-0.03634652
135	0xbdc0481a	-0.09388752
136	0x3e9fc6fd	0.31206504
137	0x3da7328d	0.08163939
138	0x3e31d92d	0.17368002
139	0xbec3a852	-0.38214356
140	0xbf03f216	-0.5154127
141	0xbe879869	-0.26483467
142	0xbe03ef58	-0.12884271
143	0xbe73763e	-0.23775575
144	0xbda81832	-0.0820774
145	0x3d310e75	0.043226678
146	0xbec85b73	-0.3913227
147	0xbdf5fd3a	-0.1201119
148	0xbd5b6042	-0.053558595
149	0x3e8449c4	0.2583753
150	0xbf0b6dc0	-0.5446434
151	0x3d9bc7e0	0.076064825
152	0x3d42c68b	0.047552627
153	0x3e70019d	0.23438115
154	0x3d687eb6	0.056761466
155	0xbd0a7c01	-0.033809666
156	0x3f167faf	0.5878858
157	0xbde63ff9	-0.112426706
158	0x3e356fa1	0.17718364
159	0xbf1ea164	-0.6196501
160	0x3ec5126d	0.3849062
161	0x3deb6f94	0.11495891
162	0xbd44fb44	-0.048091188
163	0xbcb8b470	-0.022546977
164	0xbc42b343	-0.01188356
165	0xbe330d63	-0.17485575
166	0xbe1666be	-0.1468763
167	0x3e447578	0.19185436
168	0x3ec8822b	0.3916181
169	0x3e019463	0.12654261
170	0x3e11f5f4	0.1425398
171	0x3de44139	0.11145253
172	0x3ea9fdb1	0.33201364
173	0x3ef1de01	0.47239688
174	0x3b5f503f	0.003407493
175	0xbd323446	-0.043506883
176	0xbeb5217e	-0.35377115
177	0x3da13ba2	0.07872702
178	0xbd5feb5e	-0.054667823
179	0x3e9a59eb	0.30146727
180	0xbe509081	-0.20367624
181	0xbf08d88d	-0.5345543
182	0xbcc11556	-0.023569744
183	0xbe89fbdc	-0.26949966
184	0x3e04c0aa	0.1296412
185	0xbd1a2cb9	-0.037640307
186	0x3dcebd89	0.10094745
187	0xbd56ab74	-0.052409604
188	0xbeb1e5ff	-0.34745786
189	0xbe187bd0	-0.1489098
190	0xbd665012	-0.056228705
191	0x3d7b9b71	0.061427537
192	0x3e0fdca3	0.1404901
193	0x3d561004	0.052261367
194	0xbdb6ba25	-0.08922223
195	0xbae5f25f	-0.0017543546
196	0x3e9c9a44	0.30586445
197	0x3ee65103	0.44983682
198	0xbc5c74fa	-0.013455624
199	0x3d3742bd	0.04474138
200	0x3de09d3e	0.109674916
201	0xbeff97aa	-0.49920398
202	0x3c2cdab9	0.010550194
203	0xbe6f0952	-0.23343399
204	0x3e21c21d	0.15796705
205	0xbe25702b	-0.1615607
206	0x3e9bbf20	0.30419254
207	0x3daaa568	0.0833233
208	0x3e95987d	0.29217902
209	0xbda5ab41	-0.08089305
210	0x3e8146ca	0.2524932
211	0x3ee3e105	0.44507614
212	0x3d840e81	0.06448079
213	0xbebaf7f6	-0.36517304
214	0xbe420cbb	-0.18950169
215	0x3e19f27a	0.15033904
216	0x3ddcd502	0.107828155
217	0xbd402f59	-0.046920154
218	0x3e0ca6fb	0.13735573
219	0xbe93cd7e	-0.28867716
220	0xbd00dd74	-0.031461194
221	0xbf450440	-0.7695961
222	0x3d17bb88	0.037044078
223	0xbea7eb2b	-0.32796606
224	0x3e3c63c7	0.18397437
225	0x3edab507	0.42716238
226	0x3f392aac	0.7233074
227	0x3e406086	0.18786821
228	0x3e586d82	0.21135524
229	0xbeb966eb	-0.36211333
230	0xbe0b92e2	-0.1363025
231	0x3eedd384	0.46450436
232	0xbe6bb0c0	-0.23016644
233	0xbea6a78a	-0.32549697
234	0xbeaadc1b	-0.33371052
235	0xbdcff5ac	-0.1015428
236	0xbed98a9a	-0.42488557
237	0xbd4f6842	-0.050636537
238	0xbe89ea30	-0.26936483
239	0x3deae1ca	0.11468847
240	0xbe443a29	-0.19162811
241	0x3f2fc8c7	0.68665737
242	0x3caeb04d	0.021324301
243	0xbdcacfe8	-0.09902936
244	0xbe73a106	-0.23791894
245	0xbdfc3c73	-0.12316217
246	0x3d24ff3e	0.04028248
247	0xbe9bdcf0	-0.30442
248	0xbd8d3336	-0.06894533
249	0x3eb53d71	0.3539844
250	0x3eb7cb91	0.35897496
251	0xbe446666	-0.19179687
252	0x3cb20d16	0.021734755
253	0x3e4a0bdf	0.19731091
254	0x3e3bfe2c	0.18358678
255	0x3ed643a6	0.41848487

bias f4 [64]
0	0xbd4043ca	-0.04693965
1	0x3ca40ed1	0.020026596
2	0x3e28dd4d	0.1649067
3	0x3cd7bb87	0.026334537
4	0x3cbdf87e	0.02318978
5	0xbc9cfcf4	-0.019163586
6	0xbd45021a	-0.048097707
7	0x3d275788	0.04085496
8	0x3db1a890	0.08674729
9	0x3d757b2e	0.059931926
10	0xbc9eb9d7	-0.019375725
11	0xbd3c2e85	-0.045942802
12	0x3d7dc87f	0.061958786
13	0x3b3be042	0.0028667604
14	0xbde01ef8	-0.10943407
15	0xbde5a496	-0.11213033
16	0x3e2180f7	0.15771852
17	0x3db33b0c	0.08751497
18	0x3cf926b8	0.03041397
19	0x3d68048d	0.056644965
20	0xbd34a946	-0.044106744
21	0xbd3cad6a	-0.046063818
22	0x3d2f5107	0.042801883
23	0x3c82d76c	0.015971862
24	0x3dddbb0e	0.108266935
25	0xba86ec21	-0.001029376
26	0x3c3c4f4e	0.011493517
27	0xbc63cbb6	-0.013903549
28	0x3d8a68cd	0.067582704
29	0x3dc4fb24	0.09618214
30	0xbdd10b1f	-0.10207199
31	0x3ddd06a3	0.107922815
32	0x3dab80e6	0.08374195
33	0xbdaf2c8b	-0.08553418
34	0xbe5e2dff	-0.21697234
35	0xbd317559	-0.043324802
36	0xbceab782	-0.028651956
37	0x3d6303f2	0.055423684
38	0xbdd0f6d0	-0.10203326
39	0x3c3fa162	0.0116961915
40	0xbc968bdb	-0.018377235
41	0xbdc9a163	-0.09845235
42	0xbd23c308	-0.03998092
43	0x3d84c070	0.06482017
44	0xbdad998a	-0.08476551
45	0xbdbb2b72	-0.09139146
46	0x3e08edaa	0.13371912
47	0x3c30a687	0.010781891
48	0xbce52fdc	-0.027976923
49	0x3d300c83	0.042980682
50	0x3be9005c	0.0071106385
51	0x3cfb388c	0.030666612
52	0x3d2eedbd	0.042707194
53	0xbc850f30	-0.016242594
54	0x3d831fdf	0.06402563
55	0x3cb44d94	0.022009648
56	0x3cc81632	0.024424646
57	0xbd94f9e5	-0.07274226
58	0xbe45b5da	-0.19307652
59	0xbd8b2e11	-0.06795896
60	0x3d3054b4	0.04304953
61	0x3cbe7f4b	0.023254057
62	0xbd08605e	-0.033295028
63	0xbc27ea3d	-0.010248718

weight f4 [64, 64]
0	0x3bc9bde1	0.0061566685
1	0x3d8a5793	0.06754985
2	0x3d4d3718	0.05010137
3	0x3e28454f	0.16432689
4	0xbca3ce09	-0.019995706
5	0xbcf7398b	-0.030178806
6	0xbdfe90fb	-0.124299966
7	0xbdffb500	-0.12485695
8	0x3cd1a17f	0.025589703
9	0x3eb3e383	0.35134515
10	0xbd8a8162	-0.06762959
11	0xbe588772	-0.21145418
12	0xbe786f09	-0.24261107
13	0x3d10073b	0.035163146
14	0x3d81d4b6	0.063393995
15	0x3c301270	0.010746583
16	0xbd6e4701	-0.058173183
17	0x3e0deb30	0.13859248
18	0xbd17f2af	-0.037096675
19	0xbe45e09b	-0.19323961
20	0x3cf156f1	0.029460402
21	0x3dc9f43b	0.098610364
22	0x3e1a69f5	0.15079482
23	0x3e23b508	0.15987027
24	0x3e23973a	0.15975657
25	0xbd8da7d3	-0.069167756
26	0xbdaac10c	-0.08337602
27	0xbe1d82db	-0.15381949
28	0x3e44e754	0.1922887
29	0xbd05aa60	-0.032633185
30	0x3cdf5a71	0.027264806
31	0xbdb72622	-0.0894282
32	0x3dd9159f	0.10599827
33	0xbe07f4f2	-0.13277033
34	0xbd8bb30d	-0.068212606
35	0xbda6c018	-0.08142108
36	0xbd66ae9a	-0.056318857
37	0x3d97479d	0.07386706
38	0x3e4db263	0.2008758
39	0x3dbebdfc	0.093135804
40	0x3e3e7ea1	0.18602993
41	0xbe3cd77e	-0.18441579
42	0xbdb78e80	-0.089627266
43	0xbe8e1410	-0.2774968
44	0x3e0762b5	0.13221247
45	0xbe2f5d6d	-0.17125483
46	0xbc5d0fbc	-0.013492521
47	0x3df0a697	0.117505245
48	0x3dfb2ffe	0.12265013
49	0xbba27010	-0.0049572065
50	0x3e013b73	0.12620334
51	0x3d9b2f91	0.07577432
52	0xbe2f93d7	-0.1714624
53	0xbe013ee0	-0.12621641
54	0x3e2390d4	0.15973216
55	0x3e20ca08	0.15702069
56	0xbe1cea0a	-0.15323654
57	0xbe0db85e	-0.13839862
58	0x3e07f5ed	0.13277407
59	0x3cf746e5	0.030185172
60	0xbc0ed82c	-0.008718532
61	0x3b5edfb5	0.0034007852
62	0xbe1477f2	-0.1449888
63	0xbddeae3a	-0.10873075
64	0x3e06d2d2	0.13166359
65	0x3d9e8742	0.07740642
66	0xbd98805a	-0.07446356
67	0xbcbb80c8	-0.022888556
68	0xbd19dd82	-0.037564762
69	0xbd830213	-0.0639688
70	0x3cfc6a57	0.030812426
71	0x3d9e4385	0.07727722
72	0xbe37bd34	-0.17943269
73	0xbe675af1	-0.22593285
74	0x3d002887	0.03128865
75	0xbc04ab9d	-0.008097556
76	0xbe2ca1d6	-0.1685861
77	0xbdf25a31	-0.11833609
78	0xbe151431	-0.14558484
79	0xbd1138c3	-0.035454523
80	0xbe04cb3d	-0.12968154
81	0x3d7ccc85	0.061718483
82	0x3ea3cb9e	0.31991285
83	0x3e1ed6ea	0.1551167
84	0xbe6e00b5	-0.23242457
85	0x3dd4da06	0.10393147
86	0xbe980316	-0.29689854
87	0xbe91e11d	-0.2849206
88	0x3d7e9be1	0.062160376
89	0xbe8c4cd5	-0.27402368
90	0x3dbf3b55	0.093374886
91	0xbd9f30db	-0.0777299
92	0x3d2c4547	0.042058256
93	0x3df56d99	0.11983795
94	0xbdd3cb4f	-0.103415124
95	0xbe3c85cd	-0.18410416
96	0xbe37ca68	-0.17948306
97	0xbdd21e11	-0.10259641
98	0xbe1977f2	-0.14987162
99	0x3cc35bb3	0.023847437
100	0x3e833e4d	0.2563347
101	0xbe84d042	-0.25940138
102	0xbd61c857	-0.0551227
103	0xbd95d7e9	-0.07316572
104	0xbda78590	-0.08179772
105	0xbe7eb653	-0.24874239
106	0x3d806399	0.06268997
107	0xbd03978d	-0.032126952
108	0xbd6dd5a2	-0.058065064
109	0xbeda701b	-0.42663655
110	0xbe2f185c	-0.17099136
111	0x3dadf9e4	0.084949285
112	0xbec5a29c	-0.38600624
113	0x3cac4514	0.021029033
114	0xbd9307af	-0.071792
115	0x3e0b2bc7	0.13590918
116	0xbc909082	-0.017647032
117	0x3cdb9746	0.026805531
118	0xbe2ae9aa	-0.16690698
119	0x3dbcd8d4	0.09221044
120	0xbca34357	-0.019929571
121	0xbe227ea2	-0.15868619
122	0xbe0bb47c	-0.13643068
123	0x3e04fe25	0.12987573
124	0xbe436e23	-0.19084983
125	0xbd9677e7	-0.07347088
126	0x3d563e19	0.052305315
127	0xbd1e4039	-0.038635466
128	0x3d72c214	0.05926712
129	0xbc9216b2	-0.017833088
130	0xbd8ecf2c	-0.06973109
131	0xbdbaad47	-0.09115081
132	0xbe078d6a	-0.13237539
133	0x3d1531dc	0.036424503
134	0xbd895ad7	-0.067067795
135	0x3b8cac5f	0.004293009
136	0xbdbe1bda	-0.09282656
137	0x3da20e0d	0.07912836
138	0x3d4cdc06	0.05001452
139	0xbd945868	-0.07243425
140	0xbd2025bc	-0.039098486
141	0xbe1f00ec	-0.15527695
142	0xbc70733d	-0.014675912
143	0x3dd9c3a3	0.10633018
144	0x3e8885ef	0.26664683
145	0x3e5cb0f1	0.21551873
146	0xbe3b7a82	-0.18308452
147	0x3d10991b	0.035302263
148	0x3c0b79ab	0.008512895
149	0xbd91b2a8	-0.07114154
150	0x3dcc328f	0.09970581
151	0x3e197f2c	0.14989918
152	0x3e8f67f8	0.2800901
153	0xbdc968cc	-0.098344415
154	0x3c698438	0.014252715
155	0x3dd290ab	0.102814995
156	0x3e403811	0.18771388
157	0x3e653b52	0.2238591
158	0x3cb3dea8	0.021956757
159	0x3d847be0	0.0646894
160	0x3d3f8f52	0.04676754
161	0x3eae0662	0.33989245
162	0xbb74c026	-0.0037345975
163	0xbca6951c	-0.020334773
164	0xbe13d7f2	-0.14437845
165	0x3db96a35	0.090534605
166	0x3e267ac0	0.16257763
167	0x3da72dce	0.081630334
168	0xbeb7866e	-0.3584475
169	0x3ded5235	0.11587945
170	0x3dd92e8e	0.10604583
171	0x3e15b177	0.14618479
172	0x3e13d1b6	0.14435467
173	0xbda627a0	-0.081130266
174	0xbd913e9e	-0.070920214
175	0xbdb696c3	-0.08915474
176	0x3d2e1d78	0.042508572
177	0xbe09c657	-0.13454567
178	0xbd327a19	-0.043573473
179	0xbd0af197	-0.033921804
180	0x3e083f4e	0.13305399
181	0x3d9a70fc	0.07541081
182	0x3e6fc8db	0.23416464
183	0xbe42f2e0	-0.19037962
184	0x3d05d03a	0.032669283
185	0x3e626ccd	0.22111817
186	0x3daca92d	0.08430705
187	0x3cf33c8f	0.029691963
188	0xbdad9ade	-0.08476804
189	0x3d8a3085	0.067475356
190	0xbd76849f	-0.06018507
191	0xbda83275	-0.08212749
192	0x3d19fdbf	0.037595507
193	0x3db4f662	0.08836056
194	0x3dda15f3	0.10648718
195	0xbdbf0a3e	-0.093281254
196	0xbe73ccb1	-0.23808552
197	0xbdd56556	-0.10419719
198	0x3ea4d0c5	0.3219053
199	0x3e2de75e	0.16982791
200	0xbddc33ad	-0.10752044
201	0x3d7901ae	0.060792617
202	0xbdcf2385	-0.10114197
203	0xbdfa7495	-0.122292675
204	0x3dc0da70	0.09416664
205	0xbd965216	-0.073398754
206	0xbd1ddf79	-0.0385432
207	0xbc5ac675	-0.01335298
208	0xbe783826	-0.24240169
209	0x3d62b22b	0.055345695
210	0x3dd96e02	0.106166855
211	0xbdbf3ed4	-0.093381554
212	0x3ddc28ab	0.10749944
213	0x3e889295	0.26674333
214	0xbde7c983	-0.11317732
215	0x3e19e72e	0.15029594
216	0x3de1e9ed	0.11030946
217	0x3e2ac551	0.16676833
218	0x3d03960c	0.032125518
219	0x3ddc39b3	0.10753193
220	0x3e883fff	0.26611325
221	0xbd9045c5	-0.070445575
222	0xbd6b9d6e	-0.057523184
223	0xbd008720	-0.031378865
224	0x3d8785bc	0.06617305
225	0xbd95f9ba	-0.07323022
226	0xbdfc09d6	-0.123065636
227	0x3cc102d5	0.02356092
228	0x3e1200d1	0.14258124
229	0x3da87819	0.08226032
230	0x3e1d2db2	0.15349463
231	0xbe4aa463	-0.19789271
232	0x3f11e15f	0.56984514
233	0xbdbe64cc	-0.09296569
234	0x3dc90d7c	0.09817025
235	0xbe0fcfa2	-0.1404405
236	0x3e905f58	0.28197742
237	0xbd84ccdd	-0.06484387
238	0xbe3b1d1a	-0.1827282
239	0x3da1edd7	0.079066925
240	0xbe20043a	-0.15626612
241	0xbe05d952	-0.13071182
242	0x3d247cff	0.040158268
243	0xbe20bf2a	-0.15697923
244	0xbdfe5c8d	-0.124199964
245	0x3e89446c	0.26810014
246	0x3d400a96	0.046885096
247	0x3d0d06ba	0.034430243
248	0xbea0a0fb	-0.31372818
249	0xbe0c8ff3	-0.13726787
250	0x3e3c8ba8	0.1841265
251	0xbde8a8b8	-0.113603055
252	0x3d4abd72	0.049497075
253	0x3e24d144	0.16095454
254	0xbea04950	-0.31305933
255	0x3eaad772	0.33367497

bias f4 [64]
0	0x3ce4827e	0.027894255
1	0xbb3019fb	-0.0026870954
2	0x3d0607bf	0.03272223
3	0xbd232d61	-0.0398382
4	0xbd9fef55	-0.07809321
5	0x3d848592	0.06470789
6	0xbd83381e	-0.06407188
7	0xbd483f13	-0.048888277
8	0xbd091440	-0.033466578
9	0xbb427053	-0.0029669001
10	0xbcdc104a	-0.026863236
11	0xbc32da13	-0.010916251
12	0x3c9639b2	0.018338058
13	0xbd4f853e	-0.05066418
14	0xbc807232	-0.015679453
15	0x3d850f04	0.06497005
16	0x3c8cc392	0.017183099
17	0xbb81efa6	-0.003965336
18	0xbd07fb90	-0.033198893
19	0xbd0ffad1	-0.035151307
20	0x3c31b78e	0.0108469855
21	0x3cbaece0	0.022818029
22	0xbd12149d	-0.03566419
23	0xbbed6a6b	-0.007245352
24	0x3d347beb	0.04406349
25	0x3ce62008	0.028091446
26	0x3d4f6b57	0.050639477
27	0x3d8371d6	0.06418197
28	0xbc05b40e	-0.008160604
29	0x3da12759	0.07868833
30	0xbba44aeb	-0.0050138137
31	0x3d2d58d1	0.04232103
32	0xbc933358	-0.017968819
33	0x3c99da0f	0.018780736
34	0x3ccbdfd7	0.024887009
35	0x3d469345	0.04848029
36	0xbb30bd4a	-0.0026968294
37	0x3d24bfa2	0.040221818
38	0xbb5366ee	-0.0032257396
39	0xbd33a26c	-0.04385607
40	0x3cbfc33a	0.023408521
41	0x3cdac9d9	0.026707577
42	0xbcdd8f0d	-0.027045751
43	0xbc12703b	-0.008937891
44	0x3cb396ee	0.021922555
45	0xbd475f54	-0.048674896
46	0x3a56706f	0.0008180206
47	0xbd1b0aec	-0.037852213
48	0xbbfea0d1	-0.0077706357
49	0xbd813371	-0.0630864
50	0xbac20d40	-0.0014804974
51	0x3cfa15df	0.030528007
52	0xbb9cbe1d	-0.0047834055
53	0x3d22d1d1	0.039750878
54	0x3d63492f	0.055489715
55	0xbad88c99	-0.0016521394
56	0xbd952f75	-0.07284442
57	0x3b83584c	0.0040083285
58	0xbc2e8c88	-0.010653622
59	0xbc83231a	-0.016007949
60	0x3c4f1399	0.01263895
61	0xbd6e6eb1	-0.058211032
62	0x3cfd9623	0.03095538
63	0xbcbd65bc	-0.0231198

weight f4 [1, 64]
0	0xbc1d7f8f	-0.009612932
1	0x3d1d0e97	0.038343992
2	0xbd4a6519	-0.04941282
3	0x3d7dcb81	0.061961655
4	0x3d9f328c	0.07773313
5	0xbe3e5bc9	-0.18589701
6	0x3b9b9a03	0.0047485842
7	0x3e1c1fc5	0.15246494
8	0x3b8d240f	0.004307277
9	0xbd31bdb6	-0.043393813
10	0x3d8512aa	0.064977005
11	0xbc8a1ba8	-0.01685889
12	0xbd9f986f	-0.07792746
13	0x3e0e471a	0.1389431
14	0x3abe0852	0.0014498329
15	0xbe8f7e55	-0.2802607
16	0x3ca28f19	0.019843625
17	0x3bbaa62a	0.005696078
18	0x3d88f7b7	0.06687873
19	0x3e0144a2	0.12623838
20	0x3c67db11	0.014151351
21	0xbbd5e47c	-0.0065274816
22	0xbcee46e8	-0.029086545
23	0xbb5665c4	-0.0032714466
24	0xbe0512fb	-0.12995522
25	0xbb6c3ed8	-0.00360482
26	0x3a9edd8e	0.0012120472
27	0xbaa42b16	-0.0012525048
28	0xbbbc2ddc	-0.0057427716
29	0xbeac121b	-0.33607563
30	0x3da80fbd	0.08206127
31	0xbdd3c90f	-0.10341083
32	0x3cabbd02	0.02096415
33	0xbced3f01	-0.028960707
34	0x3b1c972f	0.0023893823
35	0xbd94f5dc	-0.072734565
36	0xbc88e326	-0.016709875
37	0xbc3c6a53	-0.011499959
38	0x3a094bc6	0.00052374264
39	0x3abae86c	0.0014259941
40	0x3d0438fb	0.032280903
41	0xbd2962da	-0.041354038
42	0x3bd59263	0.006517695
43	0xbbed5e7d	-0.00724393
44	0xbdcc9ded	-0.099910595
45	0x3e3a6c14	0.18205291
46	0xbc2aff4c	-0.010436844
47	0x3d996bbf	0.07491254
48	0x3cefd659	0.029277014
49	0x3e89a5aa	0.26884204
50	0x3c5a91a0	0.013340384
51	0x3b6dbfc1	0.0036277624
52	0x3c816ccf	0.015798954
53	0x3896c578	7.189339e-05
54	0xbdd0d44d	-0.10196743
55	0xbce232f5	-0.027612189
56	0x3e18aee0	0.1491046
57	0x3c8845f6	0.016634922
58	0x3c0f53f3	0.008748042
59	0xbba85a50	-0.005137719
60	0xbcbde86d	-0.023182118
61	0x3b7ebe8d	0.0038870901
62	0x3ce1613e	0.027512189
63	0x3df75b1a	0.12077923

weight f4 [1, 64]
0	0x3c8ed99e	0.017437752
1	0x3dd9519c	0.10611269
2	0x3e0713c8	0.1319114
3	0xbcc054c2	-0.023477916
4	0x3d93ec57	0.072228126
5	0x3dc46d6d	0.09591184
6	0x3c028b43	0.007967773
7	0x3e5011be	0.20319268
8	0xbd722bfd	-0.05912398
9	0x3c53bab0	0.012922928
10	0xbc9d3265	-0.019189069
11	0xbe1c1c91	-0.15245272
12	0x3bab5b9d	0.005229427
13	0xbe09c341	-0.1345339
14	0xbcce47fe	-0.025180813
15	0x3e4df0c8	0.20111382
16	0x3d411d58	0.047147125
17	0xbd29ab69	-0.041423235
18	0xbb8143d5	-0.003944854
19	0xbc8f4749	-0.017490046
20	0x3e268d2a	0.16264787
21	0xbd474186	-0.048646472
22	0xbd015ccd	-0.031582642
23	0x3ddfc54f	0.109263055
24	0xbd061bf7	-0.032741513
25	0x3e3ff0ca	0.18744197
26	0x3dabadc7	0.08382755
27	0xbb770a29	-0.0037695265
28	0xbda19240	-0.07889223
29	0xbc7421d6	-0.014900645
30	0x3e0eee38	0.1395806
31	0xbdbdfe1e	-0.09276985
32	0x3de6858c	0.11255941
33	0xbd5f1bd2	-0.05446989
34	0x3e7baaa4	0.24576813
35	0xbbad70c6	-0.0052929847
36	0x3b1cbe34	0.002391708
37	0xbd4f394e	-0.05059176
38	0x3d0f3bc0	0.03496909
39	0x3df2b294	0.11850467
40	0x3cc9a545	0.02461494
41	0xbd54a0a3	-0.051911008
42	0xbbc1d966	-0.0059158085
43	0xbe24fb85	-0.16111572
44	0x3dc0a372	0.09406175
45	0xbc8129a2	-0.015766922
46	0x3d711326	0.058856152
47	0xbd9ad0f1	-0.07559384
48	0x3e2d00ab	0.16894786
49	0xbd663849	-0.05620602
50	0xbe416895	-0.18887551
51	0x3d039ed5	0.032133896
52	0x3d6f4bb4	0.058421806
53	0x3daa8c1d	0.08327506
54	0xbe54dfb6	-0.20788464
55	0xbda2c5ed	-0.079479076
56	0xbe695fc6	-0.22790441
57	0xbdbfd59b	-0.09366914
58	0xbb025af9	-0.001989065
59	0xbd70e320	-0.058810353
60	0x3d15723c	0.036485896
61	0x3e29138e	0.16511366
62	0x3d9ac1aa	0.0755647
63	0xbe2f4c7d	-0.17119022

exp_avg f4 [64, 5]
0	0xb95adbe9	-0.00020872023
1	0x39d933a2	0.00041427935
2	0x389ac938	7.380772e-05
3	0xbb0f729b	-0.0021888379
4	0xbbd52c96	-0.006505559
5	0x38255827	3.9421164e-05
6	0x39286234	0.00016058312
7	0xba48af6f	-0.0007655536
8	0xba4d5a77	-0.00078336097
9	0xbb259be6	-0.0025269925
10	0xb88ec6b4	-6.808099e-05
11	0xb48b1a8b	-2.591008e-07
12	0x39ac0446	0.0003280958
13	0xb8463747	-4.725836e-05
14	0xb89f58d7	-7.5982585e-05
15	0xb850f7a2	-4.982169e-05
16	0xb96cbecc	-0.00022577791
17	0x3a64e27a	0.00087312574
18	0x3a8bf7d9	0.0010678723
19	0x3b552969	0.0032525903
20	0xb6f24566	-7.220241e-06
21	0xb7b57d8a	-2.163534e-05
22	0x394e74cb	0.000196892
23	0x39031429	0.00012500644
24	0x39a532be	0.00031509058
25	0x3985520f	0.00025428875
26	0xb9509e8b	-0.00019895488
27	0xba960f1a	-0.0011448592
28	0x3a86e2a2	0.001029093
29	0x3b31a795	0.0027107943
30	0xb94f65b8	-0.00019778952
31	0x39921559	0.00027863195
32	0x39d77e0a	0.00041101902
33	0xbabf1be4	-0.0014580456
34	0xbb86e61a	-0.0041167857
35	0xb70cbd0b	-8.388665e-06
36	0xb99de2ba	-0.00030114298
37	0x3a8356d7	0.0010020387
38	0x3ac9883e	0.0015375686
39	0x3b9eefae	0.0048503494
40	0xb929e270	-0.0001620145
41	0xb77cf0e1	-1.50764545e-05
42	0x3a84d135	0.0010133149
43	0xb791ea5c	-1.7394479e-05
44	0x39699022	0.00022274305
45	0x3996533b	0.0002867224
46	0xba2cdf17	-0.0006594522
47	0x390b83ba	0.00013305145
48	0x3b5ca458	0.0033667292
49	0x3c21f529	0.009885111
50	0xb85b6312	-5.2305935e-05
51	0x39d76d52	0.00041089446
52	0xba829f0f	-0.0009965616
53	0xbb091b42	-0.0020920788
54	0xbbd65e0e	-0.006541974
55	0xb8e8364a	-0.00011072734
56	0xb8a7c031	-7.998979e-05
57	0x3a2c5030	0.0006573228
58	0x39843ebb	0.0002522374
59	0x3a490452	0.0007668185
60	0xb9c2c9be	-0.00037152873
61	0x3a2fc0c2	0.00067044434
62	0x3985daa1	0.00025530628
63	0xbb67faba	-0.0035397247
64	0xbc29cefa	-0.010364288
65	0xb729293b	-1.0082785e-05
66	0x395574ce	0.00020356776
67	0xb9eb9baa	-0.00044938672
68	0xba7a4da8	-0.0009548315
69	0xbb3dcc9a	-0.0028961063
70	0x371140db	8.657774e-06
71	0xb99c5bf1	-0.0002982314
72	0x3a561e88	0.00081680017
73	0x3ac356d5	0.0014903197
74	0x3b9680f6	0.00459301
75	0x3717cc31	9.047843e-06
76	0x39f946b1	0.0004754565
77	0xbaac418d	-0.0013142094
78	0xbb181a45	-0.0023209017
79	0xbbeb4f97	-0.0071811187
80	0x3963cc64	0.00021724548
81	0xb9a36fa1	-0.00031172953
82	0xb9c494c7	-0.0003749488
83	0x3adb46ba	0.0016729452
84	0x3b9bc560	0.0047537535
85	0x332ec750	4.0693806e-08
86	0x3910215a	0.00013745335
87	0xba02ad8d	-0.00049849675
88	0xba42b246	-0.00074270775
89	0xbb1413d4	-0.0022594826
90	0xb99bf70a	-0.00029747962
91	0x39fd1dd8	0.00048278156
92	0x3a2488fb	0.0006276515
93	0xbb1f08c8	-0.0024266709
94	0xbbdebf3e	-0.0067977
95	0x39370b04	0.00017456344
96	0xb9e02368	-0.0004275099
97	0x3950ef74	0.00019925629
98	0x3b112d8f	0.00221524
99	0x3bd5e40d	0.00652743
100	0x38d45d72	0.00010126353
101	0xb9ee0a9b	-0.000454028
102	0x3a235a9c	0.00062314584
103	0x3b1399f8	0.0022522192
104	0x3bde74fb	0.0067888475
105	0xb9a04ec1	-0.00030576254
106	0x3a3bf0b4	0.00071693514
107	0xb92d45e8	-0.00016524608
108	0xbb71b284	-0.0036880085
109	0xbc317903	-0.010832074
110	0x37d86ef9	2.5800882e-05
111	0x39847cc4	0.0002526996
112	0xba894d28	-0.0010475265
113	0xbab05ebf	-0.0013455971
114	0xbb8f6429	-0.0043759537
115	0x3997ba54	0.0002893979
116	0xb9940982	-0.00028235844
117	0xba8e4bdf	-0.0010856352
118	0x3ac52c02	0.0015043023
119	0x3b89cb37	0.0042051333
120	0x39c2bcce	0.00037143234
121	0xba10abc4	-0.0005518759
122	0xba33aeb9	-0.0006854344
123	0x3b3aec1c	0.002852208
124	0x3c054ef5	0.008136501
125	0xb930979b	-0.00016841145
126	0x3a0638b1	0.0005120142
127	0xb9a4cea5	-0.0003143448
128	0xbb27c04f	-0.0025596803
129	0xbbfa48fa	-0.007638094
130	0xb9c0b8eb	-0.00036758868
131	0x39c35040	0.0003725309
132	0x3aab6919	0.0013077586
133	0xbb031fa7	-0.002000788
134	0xbbb0ffc9	-0.0054015857
135	0x38995611	7.31164e-05
136	0xba073414	-0.00051576016
137	0x3a6e9478	0.0009101103
138	0x3b267bab	0.0025403302
139	0x3c001d89	0.007819542
140	0xb93ee3d0	-0.00018204679
141	0x398dcb44	0.0002704506
142	0x39c5fcf8	0.00037763244
143	0xbabd85ca	-0.0014459428
144	0xbb8970ee	-0.0041943705
145	0xb83ce3bb	-4.5034783e-05
146	0x39ab99c6	0.00032730232
147	0xba0baad0	-0.0005327882
148	0xbacfea0b	-0.0015862597
149	0xbb9bfc4e	-0.0047603017
150	0xb8626f83	-5.3986452e-05
151	0x39964049	0.00028658126
152	0xb9fd0238	-0.00048257574
153	0xbabb7bc0	-0.0014303848
154	0xbb8d8795	-0.004319141
155	0x3992e8b8	0.0002802068
156	0xba477256	-0.0007608285
157	0xb914c0bb	-0.00014186178
158	0x3b72bdcb	0.0037039395
159	0x3c2dd33f	0.010609447
160	0x3953cbdd	0.00020198473
161	0xb986f867	-0.00025743546
162	0xba1ad0e1	-0.0005905759
163	0x3aad8a7b	0.0013240123
164	0x3b75cdac	0.0037506623
165	0xb81adc9e	-3.6921927e-05
166	0x38638df8	5.4253236e-05
167	0x398b93a4	0.00026622147
168	0xb963e23f	-0.0002173269
169	0xba1c756c	-0.0005968425
170	0x389b59e9	7.407723e-05
171	0xb8715fb0	-5.7547993e-05
172	0xb99db49c	-0.00030079938
173	0x39b24bf2	0.0003400739
174	0x3a61ffaf	0.00086211687
175	0xb984fcfe	-0.00025365496
176	0x397ae007	0.00023925315
177	0x3aa31f4f	0.0012445244
178	0xba936a4a	-0.0011246887
179	0xbb35eae7	-0.002775842
180	0xb9ab50c6	-0.00032675843
181	0x3a281ced	0.00064130017
182	0x391a64fd	0.00014724206
183	0xbb5b44e0	-0.00334578
184	0xbc2119bd	-0.009832797
185	0xb91e9960	-0.00015125191
186	0xb71a5f81	-9.2013515e-06
187	0x3a822dd0	0.0009931866
188	0xb8697bcc	-5.5666824e-05
189	0x37a9f9a8	2.0262625e-05
190	0xb94166c4	-0.00018444197
191	0x3783877b	1.5679505e-05
192	0x3a9d6a37	0.0012009804
193	0xb8e153ef	-0.0001074447
194	0x38b4f937	8.629489e-05
195	0x386480d8	5.447943e-05
196	0xb9c0e317	-0.0003679029
197	0x3a601668	0.00085482607
198	0x3b028f67	0.00199219
199	0x3bcbb1e9	0.006216277
200	0xb905ef95	-0.0001277312
201	0x39a59083	0.00031578922
202	0xb987e475	-0.0002591942
203	0xbad4ea75	-0.001624419
204	0xbb9fd734	-0.004877949
205	0x38c46967	9.365641e-05
206	0xb8564e30	-5.1094394e-05
207	0xba12f943	-0.0005606601
208	0x3981f176	0.000247847
209	0x3a19d1f4	0.0005867772
210	0xb8a012f7	-7.632927e-05
211	0xb9adab66	-0.00033124833
212	0x3aa9939a	0.0012937665
213	0x3ad0e3c1	0.0015937017
214	0x3ba43ede	0.005012377
215	0x392e48a2	0.00016620991
216	0xb9632a47	-0.00021664157
217	0xb9f87087	-0.00047386085
218	0x3a870db2	0.0010303764
219	0x3b382418	0.0028097685
220	0xb9bd71db	-0.00036133718
221	0x3a560f24	0.0008165708
222	0xb9117856	-0.00013873106
223	0xbb8b42a3	-0.004249887
224	0xbc4cec4a	-0.012507508
225	0x39c576c7	0.00037663264
226	0xba57e69d	-0.0008235963
227	0xb922d54d	-0.00015528985
228	0x3b88bf2a	0.004173179
229	0x3c460ae1	0.012087555
230	0x39754bd8	0.00023393275
231	0xb95ef552	-0.00021262959
232	0xbaa522a2	-0.0012598822
233	0x3a7f6add	0.0009743402
234	0x3b1712e2	0.0023052027
235	0xb85da394	-5.284285e-05
236	0x39a7f134	0.00032032433
237	0xba45d98c	-0.00075473706
238	0xbadc41f4	-0.0016804324
239	0xbbaa74d9	-0.0052019176
240	0x395f83ca	0.00021316033
241	0xba17d183	-0.00057914126
242	0x39769c10	0.00023518526
243	0x3b3df1b3	0.0028983175
244	0x3c0bb0ee	0.00852607
245	0x3935dd47	0.00017343937
246	0x39ea3e6a	0.0004467846
247	0xbb27d722	-0.0025610407
248	0xbb11b1c5	-0.0022231203
249	0xbbf51a03	-0.0074799075
250	0x39007663	0.00012251134
251	0x3862970b	5.402327e-05
252	0xba4dcf7f	-0.0007851049
253	0xb9259a22	-0.00015793045
254	0xba27b3ad	-0.0006397318
255	0x384f4775	4.9419195e-05
