ppo_algorithm/data/Qube-v0_2019-03-07_15-31-42/best_policy/ppo_network.pt (torch_old, 13426 bytes, 4 tensors)

weight f4 [64, 6]
0	0xbc61530c	-0.01375271
1	0xba7c4de4	-0.0009624644
2	0x3c2e75b3	0.010648179
3	0xbc83ad28	-0.016073778
4	0xba92cc0b	-0.0011199726
5	0x3ba789b8	0.005112853
6	0xbdf19e0f	-0.117977254
7	0x3d83d96f	0.064379565
8	0x3e478172	0.19482973
9	0x3d42e7a4	0.04758419
10	0x3e4fa4c7	0.20277701
11	0xbe9225e3	-0.2854453
12	0x3bea6737	0.0071534174
13	0xbbb0c4ee	-0.0053945696
14	0xbb0728bd	-0.0020623647
15	0xbc056e03	-0.008143905
16	0xba1dd44d	-0.000602071
17	0x3b15b455	0.0022843082
18	0x3d1d4d94	0.038404062
19	0x3e418078	0.18896663
20	0x3e469a38	0.19394767
21	0x3dc2e255	0.09515826
22	0xbd375e13	-0.04476745
23	0x3e251d50	0.16124463
24	0xbe071b61	-0.13194038
25	0xbd90e419	-0.07074756
26	0x3dd70564	0.10499075
27	0xbc95c150	-0.018280655
28	0x3e009619	0.12557258
29	0xbc9ea8a6	-0.019367527
30	0xbe14b955	-0.14523824
31	0xbe6572a4	-0.22407013
32	0x3d4510fe	0.04811191
33	0x3bf54e06	0.0074861078
34	0x3e03ec73	0.12883167
35	0x3c176f4c	0.009242844
36	0x3de0b12e	0.10971294
37	0x3c0d881a	0.008638406
38	0xbe7830e1	-0.24237396
39	0xbc879619	-0.016551064
40	0xbe30bfe3	-0.17260699
41	0x3e5c37bc	0.21505636
42	0xbbb6ef4f	-0.005582727
43	0xbdfd3cde	-0.12365125
44	0x3d2e4794	0.04254873
45	0x3d9535e1	0.07285667
46	0xbdfa8236	-0.12231867
47	0x3dcb6ca5	0.09932832
48	0x3dcd8800	0.100357056
49	0x3df2aa65	0.118489064
50	0xbd1762a2	-0.036959298
51	0x3c33e41b	0.010979678
52	0x3c9e0ad8	0.01929228
53	0x3d3c4a35	0.045969207
54	0x3ea49ac2	0.3214932
55	0x3b956ff2	0.004560464
56	0x3d369000	0.044570923
57	0x3910d11e	0.00013810812
58	0xbd4efea0	-0.050535798
59	0xbcd36160	-0.025803268
60	0x3d80b10f	0.06283771
61	0x3d5e2f87	0.054244544
62	0x3daa3f8c	0.08312902
63	0x3d4bfdff	0.049802776
64	0x3e1b0ad1	0.15140845
65	0xbdcd3b23	-0.10021045
66	0x3d918af9	0.07106585
67	0xbdd21282	-0.10257436
68	0xbdc07a51	-0.0939833
69	0x3e7e029a	0.2480568
70	0x3ca2add6	0.019858282
71	0xbe83edc9	-0.25767353
72	0x3e467474	0.19380361
73	0xbee4a109	-0.4465411
74	0x3e69cede	0.2283282
75	0x3e1a1c17	0.15049778
76	0xbe046147	-0.12927733
77	0xbda1dc09	-0.079032965
78	0xbbbb0a3b	-0.0057080067
79	0x3abf9fe7	0.0014619798
80	0xb65f1648	-3.3242559e-06
81	0x3c0fa8f6	0.008768311
82	0xba5d8a07	-0.00084510486
83	0xbab5e7ee	-0.0013878325
84	0x3da76048	0.08172661
85	0xbbfc6f14	-0.007703671
86	0x3dd4f64e	0.103985414
87	0x3c290782	0.010316731
88	0x3e117f5f	0.14208744
89	0xbdcdfcbc	-0.10057971
90	0x3d87e373	0.06635179
91	0xbdcdb4f2	-0.10044278
92	0xbe0c25b1	-0.13686253
93	0xbce382ae	-0.027772274
94	0xbe46413a	-0.1936082
95	0x3e93b8b1	0.28851846
96	0xbe175919	-0.14780082
97	0xbe1434bd	-0.14473243
98	0x3e46b178	0.19403636
99	0xbda7fa0b	-0.08201989
100	0x3b55b7e8	0.0032610837
101	0xbe161ffd	-0.1466064
102	0x3d0cc783	0.034369957
103	0xbda07569	-0.07834894
104	0xbc521d62	-0.012824388
105	0x3c19199d	0.009344486
106	0xbe3fe962	-0.18741372
107	0x3e8f693d	0.28009978
108	0x3aa38a86	0.0012477196
109	0x3e0cb3fc	0.13740534
110	0xbe1ac089	-0.15112509
111	0xbe990d2a	-0.29892856
112	0x3c4f469a	0.01265111
113	0xbe49152d	-0.19636984
114	0x3df2ade3	0.118495725
115	0x3e680f79	0.22662152
116	0x3c5395c6	0.012914127
117	0xbc8868bf	-0.01665151
118	0xbe0268a2	-0.12735227
119	0xbcbf8f0e	-0.023383643
120	0xbe2d4047	-0.16919051
121	0xbe25f36c	-0.1620614
122	0xbe117058	-0.14203012
123	0xbd0b8176	-0.03405901
124	0x3d2b27bd	0.041785944
125	0xbe4fedde	-0.20305583
126	0xbadd3d31	-0.0016879198
127	0xbd5f0352	-0.054446526
128	0x3df0d9c7	0.11760288
129	0x3e414c1a	0.18876687
130	0x3dfbefa5	0.12301568
131	0xbdd8a5ed	-0.10578523
132	0xbdb10de1	-0.08645225
133	0xbdd1955a	-0.10233565
134	0xbeceeb85	-0.40414062
135	0xbe176284	-0.14783674
136	0xbc8da1be	-0.017289039
137	0x3e7b3886	0.2453328
138	0x3da323c6	0.079658076
139	0x3dc8748f	0.09787857
140	0xbdaef3ad	-0.08542571
141	0xbd0c5ffd	-0.03427123
142	0x3e44d7dd	0.1922297
143	0xbddd5e04	-0.10808948
144	0x3d8c5f95	0.06854168
145	0x3d3ca490	0.046055377
146	0xbd89975b	-0.06718322
147	0xbda6c966	-0.081438825
148	0x3e3099a0	0.17246103
149	0xbddcd195	-0.10782162
150	0xbe1be404	-0.152237
151	0x3d9ae9ef	0.075641505
152	0xbe46f183	-0.19428067
153	0xbc868c38	-0.016424283
154	0x3e0006f2	0.1250265
155	0x3d881617	0.06644838
156	0x3e5bd9ea	0.21469846
157	0xbebef0ce	-0.37293094
158	0xbd8285d6	-0.063731834
159	0x3d441b76	0.04787775
160	0xbd95a0ec	-0.07306084
161	0xbc590d24	-0.013247762
162	0xbeb42c6c	-0.3519014
163	0x3dbdcf76	0.09268086
164	0x3dbe0e79	0.09280104
165	0x3db1a8e2	0.0867479
166	0xbe247eac	-0.16063946
167	0x3df1398c	0.11778554
168	0xbda7fe6b	-0.08202823
169	0x3dced513	0.100992344
170	0x3e600631	0.21877362
171	0x3d16a56a	0.036778845
172	0x3e35f752	0.17770126
173	0xbe88a30f	-0.26686904
174	0x3e22bfbe	0.15893456
175	0x3b6fd58f	0.0036595797
176	0x3e5d4c80	0.21611214
177	0x3d7e52ae	0.06209057
178	0xbdfd102d	-0.12356601
179	0xbd865c4a	-0.065605715
180	0x3c56e82c	0.0131168775
181	0x3daefb53	0.0854403
182	0xbe047c0c	-0.12937945
183	0xbda3aeec	-0.07992348
184	0x3cf416c7	0.029796017
185	0xbe6be106	-0.23035058
186	0xbde3f244	-0.11130193
187	0xbdae3ab8	-0.085072935
188	0xbe1295c1	-0.14314939
189	0x3d96f7d7	0.073714904
190	0x3c62a6d3	0.013833719
191	0xbe92e387	-0.28689215
192	0x3a9f77ec	0.0012166477
193	0x3bf36a55	0.0074284473
194	0x3b1bc23d	0.0023766898
195	0x3c16c237	0.009201578
196	0x3a8ea881	0.0010883958
197	0xbb0329fa	-0.0020014034
198	0xbd4e91b9	-0.05043194
199	0x3d66d9c6	0.05636003
200	0x3d8043ce	0.06262933
201	0x3c889cbd	0.016676301
202	0x3bda73e0	0.0066666454
203	0xbc19e330	-0.009392545
204	0xbcd07426	-0.025446009
205	0x3951d01a	0.00020009317
206	0xbd03379d	-0.03203546
207	0xbaff42f8	-0.0019474914
208	0xba88c0b9	-0.0010433412
209	0x3abf7901	0.0014608206
210	0x3da6ab44	0.08138135
211	0x3db15bd8	0.08660096
212	0x3d8039ad	0.06261001
213	0x3d6809e3	0.056650054
214	0xbd1d2a80	-0.03837061
215	0xbd254957	-0.040353145
216	0x3d2a5b6b	0.04159109
217	0x3e9327a8	0.28741193
218	0x3de712b1	0.11282862
219	0xbd6e690b	-0.058205646
220	0x3d6c689d	0.057716954
221	0x3d766041	0.06015039
222	0x3e1fd669	0.15609135
223	0x3dd5eac9	0.10445172
224	0x3e52e379	0.20594586
225	0xbd82ff63	-0.063963674
226	0xbc3a67b2	-0.011377262
227	0x3e966164	0.29371178
228	0xbdd4bc81	-0.10387517
229	0xbcc0d12d	-0.023537243
230	0x3dbf1235	0.093296446
231	0xbd7d24c5	-0.061802644
232	0x3e08da7d	0.13364597
233	0xbdedeb73	-0.11617174
234	0xbd85ebec	-0.06539139
235	0xbd01f854	-0.031730965
236	0xbe0924f8	-0.13393009
237	0x3cb08915	0.02154974
238	0xbca38bc6	-0.01996411
239	0x3e466940	0.19376087
240	0xbc3e4f07	-0.011615521
241	0xbdb666b0	-0.08906305
242	0xbe1fd5ba	-0.15608874
243	0xbdae2619	-0.0850336
244	0x3d1c996c	0.038232252
245	0xbe58a514	-0.21156722
246	0xbdd9d974	-0.10637179
247	0x3d24c473	0.04022641
248	0x3dbb81e7	0.09155636
249	0x3e05bf9e	0.13061377
250	0xbe22e6f3	-0.15908413
251	0x3dfb66fb	0.12275501
252	0xbdc69292	-0.09695925
253	0xbe396e3f	-0.18108462
254	0xbdad4f11	-0.08462346
255	0xbd30c964	-0.04316081

bias f4 [64]
0	0xbbc6e155	-0.006069342
1	0x3cee82fe	0.029115196
2	0xbbf81e7e	-0.0075719943
3	0xbc917432	-0.017755602
4	0xbceb2bf5	-0.028707484
5	0x3c8c575f	0.017131506
6	0xbb7a654e	-0.0038207355
7	0x3bb23d03	0.005439402
8	0x3b98f82e	0.004668257
9	0xbe47d42b	-0.1951453
10	0x3b8ddd7e	0.0043293824
11	0xbc66a3a1	-0.014077098
12	0xbcd9b714	-0.026576556
13	0x3b685f0f	0.003545705
14	0xbcad70a5	-0.021171877
15	0x3b0782ab	0.002067725
16	0xbd8df0c5	-0.06930689
17	0xbbff8ba1	-0.0077986275
18	0x3c185768	0.009298183
19	0xbca58a13	-0.02020744
20	0x3c3f79dc	0.011686768
21	0xbcee7a73	-0.029111123
22	0x3b0e6c46	0.0021732016
23	0x3d1b162f	0.037862953
24	0xbc02d3cc	-0.007985067
25	0x3d208d30	0.039197147
26	0xb9680f8b	-0.00022131034
27	0x3d040965	0.03223552
28	0xbcfc96f1	-0.030833693
29	0xbd1358b7	-0.035973277
30	0x3c2793bf	0.0102280965
31	0x3c17eed8	0.009273253
32	0x3b874d52	0.0041290903
33	0xb9bb9dbe	-0.00035784947
34	0x3ce21710	0.027598888
35	0xbcc6ed9f	-0.024283228
36	0xbd3a03ad	-0.04541366
37	0xbc21d939	-0.00987845
38	0x3c119415	0.008885403
39	0x3c82abd4	0.015951075
40	0x3bfbc14f	0.0076829563
41	0x3c964fee	0.01834866
42	0xb909a828	-0.00013127981
43	0xbb041f29	-0.0020160174
44	0x3ce08fed	0.02741238
45	0x3b94d614	0.0045421217
46	0xbca1a8b6	-0.019733768
47	0x3cedd26b	0.029031
48	0xbc97369a	-0.018458653
49	0x3cbd11c4	0.02307976
50	0xbb3bfe15	-0.002868538
51	0x3ba6e464	0.0050931443
52	0x3c5cdec5	0.013480847
53	0xbda4ae5f	-0.08041071
54	0xbb4a2296	-0.0030843369
55	0xbb0001da	-0.0019532354
56	0xbd46a264	-0.04849471
57	0xbc99d4f8	-0.01877831
58	0x3c1f888f	0.009737148
59	0xbc113fde	-0.008865325
60	0xbb96013b	-0.0045777834
61	0xbb406986	-0.0029359772
62	0xbd790089	-0.060791526
63	0x3d851007	0.064971976

weight f4 [1, 64]
0	0x3d0abe2a	0.03387276
1	0xbc9b1666	-0.018931579
2	0x3ca888e3	0.020573085
3	0xbd9531bc	-0.07284877
4	0x3ebde929	0.3709195
5	0x3c4b6f9b	0.012416746
6	0xb9ad2cf9	-0.0003303064
7	0xbe34af73	-0.17645054
8	0xbecf2611	-0.4045873
9	0x3e34b918	0.17648733
10	0x3d529aea	0.05141727
11	0x3d7d5dec	0.06185715
12	0x3f3292c6	0.6975521
13	0xbbf7e7f3	-0.0075654923
14	0x3e80403f	0.25049016
15	0xbe404d13	-0.18779401
16	0x3e0e7c5c	0.13914627
17	0xbe71edf8	-0.23625934
18	0x3e00fc69	0.12596287
19	0x3e667d6a	0.22508779
20	0x3e381a0e	0.17978689
21	0x3c89f2ae	0.016839352
22	0x3f2bda87	0.6713032
23	0x3dffe42c	0.12494692
24	0x3ce0f349	0.027459757
25	0x3d19eb8c	0.03757815
26	0x3e29aede	0.16570613
27	0xbe2ec5d3	-0.17067651
28	0x3ca3b3b4	0.01998315
29	0x3ced4866	0.028965186
30	0xbd182945	-0.037148733
31	0xbe321aad	-0.17392989
32	0xbc97b7ad	-0.0185202
33	0xbd6fdbcc	-0.058559224
34	0x3c81ebbd	0.01585948
35	0x3dab4973	0.08363619
36	0xbe94e423	-0.29080305
37	0x3e8fce5b	0.28087124
38	0x3b1fd487	0.002438815
39	0xbd385eac	-0.04501216
40	0x3df731c7	0.12070041
41	0x3dda8d53	0.10671487
42	0xbdcfc851	-0.10145629
43	0xbd30609f	-0.043060895
44	0xbe0fec0b	-0.14054887
45	0xbcaaadde	-0.02083486
46	0x3da64835	0.08119241
47	0xbeb2ef87	-0.3494837
48	0xbe4d78d2	-0.2006562
49	0xbdd42ab7	-0.1035971
50	0x3ed8a224	0.42311203
51	0x3bf766e3	0.007550107
52	0xbe1a2ad9	-0.15055408
53	0xbe1d84bb	-0.15382664
54	0xbdbcb4d9	-0.092141815
55	0x3d859ce3	0.065240644
56	0xbe99ff4b	-0.30077586
57	0xbe532631	-0.20620038
58	0x3c7e5de0	0.015525311
59	0xbda1f92b	-0.07908853
60	0xbf37abfc	-0.717468
61	0xbc656982	-0.014002206
62	0xbd151851	-0.036400143
63	0x3eb2eb8d	0.34945336

weight f4 [1, 64]
0	0xb854857c	-5.0669056e-05
1	0x3dbdabf4	0.09261313
2	0x3714ae69	8.8620955e-06
3	0xbdb88115	-0.090089954
4	0x3e138279	0.1440524
5	0x3e083342	0.13300803
6	0x3d5c38c5	0.053765077
7	0xbd5eb002	-0.054367073
8	0xbd5645ed	-0.05231278
9	0xb9a1989f	-0.00030822025
10	0x3e0d55d6	0.13802275
11	0x3cfec1b4	0.031098224
12	0xbac7c73a	-0.0015241869
13	0xb9055265	-0.00012714563
14	0xbe9f95b7	-0.3116891
15	0x3e8af25f	0.2713804
16	0xbc4eb9d9	-0.012617552
17	0xbe27d739	-0.16390695
18	0xbbf4d7f5	-0.007472033
19	0x3d0f78b3	0.035027217
20	0x3e3730d9	0.17889728
21	0x3d518f2c	0.05116193
22	0xbc8dd2b3	-0.017312383
23	0xbd36d13e	-0.044633143
24	0x3dc09123	0.09402683
25	0xbd0018f2	-0.03127379
26	0x3b24a82f	0.002512466
27	0xbd5da98a	-0.054116763
28	0x3dd8563d	0.10563324
29	0xbc8ce382	-0.017198328
30	0x3e01be0e	0.12670156
31	0xbe399a5f	-0.18125294
32	0xb90e80e6	-0.00013590194
33	0xba1a38e5	-0.0005883112
34	0xb90c755a	-0.00013395157
35	0x3bdf2bbb	0.006810633
36	0xbc37290e	-0.011179222
37	0xbdc97a48	-0.098377764
38	0xbe820218	-0.25392222
39	0x3e5b8a06	0.2143937
40	0xbe968a53	-0.29402408
41	0x3e0619f0	0.13095832
42	0xbe76c166	-0.24097213
43	0x3e43d244	0.19123179
44	0xbc87b5f1	-0.016566249
45	0xb8e896e1	-0.000110907255
46	0xbd1fd3a4	-0.039020196
47	0xbd7552e4	-0.059893504
48	0xbd0bd3d7	-0.034137573
49	0x3d03a765	0.03214206
50	0xbb55fa40	-0.0032650381
51	0x381e3286	3.771719e-05
52	0x3db4c774	0.08827105
53	0x3a1728ab	0.0005766253
54	0xbe97922a	-0.29603702
55	0xbcd4de91	-0.025985034
56	0xbd1a9ccb	-0.037747186
57	0x3e9b1a56	0.3029353
58	0xbdd6498f	-0.10463249
59	0x3e0d4204	0.13794714
60	0x3dcbd37a	0.09952445
61	0x3c85b27f	0.016320465
62	0x3c56ac57	0.013102612
63	0x3947d25e	0.00019056487
