ppo_algorithm/data/Qube-v0_2019-03-08_12-24-18/checkpoint/save_file.pt (torch_old, 249065 bytes, 28 tensors)

net.0.weight f4 [128, 6]
0	0x3ad8ece2	0.0016550089
1	0x3f175073	0.5910713
2	0xbd950ab0	-0.07277429
3	0xbe8d2710	-0.27568865
4	0xbcbe767d	-0.023249859
5	0xc02c6d07	-2.6941545
6	0x3c513801	0.0127697
7	0xbee1b738	-0.44085097
8	0xbbd519ae	-0.0065033054
9	0x3e5f6521	0.21815921
10	0x3cced8bf	0.025249837
11	0x401d08d2	2.4536633
12	0x3bd4a29f	0.0064891125
13	0x3f196796	0.59923685
14	0xbd8da3d5	-0.06916014
15	0xbe60f368	-0.21967852
16	0xbd3b9c57	-0.045803394
17	0xc03dabe9	-2.9636176
18	0x3efc08f4	0.4922558
19	0x3f13aad6	0.5768255
20	0xbf928f9e	-1.1450078
21	0x3f1fda88	0.6244283
22	0xbe0da486	-0.13832292
23	0x3d93134e	0.071814165
24	0x3ee6cb4d	0.4507698
25	0x3edb1138	0.42786574
26	0x3f36bdce	0.7138337
27	0xbd0c922a	-0.03431908
28	0xbedb44b2	-0.42825848
29	0xbc7e8774	-0.015535224
30	0x3d3e0280	0.046389103
31	0xbf1112fc	-0.5666959
32	0x3d506f6c	0.05088751
33	0x3e813cb9	0.2524164
34	0x3c4c28b1	0.012460873
35	0x402f677f	2.740692
36	0xbdc4d317	-0.09610575
37	0x3ec32e40	0.38121223
38	0x3d8eb9f6	0.06969063
39	0xbe1ab272	-0.15107134
40	0xbc6ff74f	-0.014646365
41	0xc00fd0bd	-2.2471154
42	0x3e7d7c82	0.24754527
43	0xc00ae85f	-2.1704328
44	0x3e171eac	0.14757794
45	0x400fc319	2.2462828
46	0xbe5f96da	-0.21834889
47	0xbe19b637	-0.15010916
48	0xbd647b11	-0.055781428
49	0xbf16be86	-0.58884466
50	0xbcd9f047	-0.026603831
51	0x3e769c3f	0.2408304
52	0x3d489dff	0.0489788
53	0x401ce8c5	2.4517071
54	0x3dac8a75	0.08424846
55	0x3e19a34f	0.15003704
56	0xbe6eb7a3	-0.2331224
57	0x3ea19022	0.31555277
58	0xbdb75a09	-0.0895272
59	0x3d7c1e0b	0.06155209
60	0x3f006f47	0.50169796
61	0xbf3828c2	-0.7193719
62	0xbe62c873	-0.22146778
63	0xbf13a364	-0.5767119
64	0xbe3767c7	-0.17910682
65	0xbe0579bd	-0.1303472
66	0xbe858c79	-0.26083735
67	0x3ecf7e09	0.40525845
68	0x3d2f0210	0.042726576
69	0xbc5bc402	-0.013413431
70	0x3d9a7afb	0.07542988
71	0x3e681f0f	0.22668098
72	0x3c47a03c	0.012184199
73	0xbf201baa	-0.6254221
74	0x3db3584e	0.08757077
75	0x3e853668	0.2601807
76	0x3c8a5605	0.01688672
77	0x403ddf11	2.96674
78	0xbcf222f8	-0.02955769
79	0xbf1d4c70	-0.6144476
80	0x3db124d5	0.08649603
81	0x3e910a6a	0.28328258
82	0x3d5cb124	0.053879872
83	0x40408eea	3.0087228
84	0xbc99e49e	-0.018785771
85	0x3ec61fa3	0.38696012
86	0xbbd54487	-0.0065084132
87	0xbe831bb5	-0.25607076
88	0xbd4ded05	-0.050274868
89	0xc01813fa	-2.3762193
90	0x3e8133d4	0.25234854
91	0xbe3010b3	-0.1719387
92	0xbea41c47	-0.32052824
93	0xbe93cfaf	-0.28869388
94	0xbe3c77a7	-0.18405019
95	0x3f7ca7e2	0.9869367
96	0x3df262b7	0.118352346
97	0x3f1f9ab3	0.6234543
98	0xbf75ca04	-0.96011376
99	0x3eedb465	0.46426693
100	0xbe07a016	-0.13244662
101	0x3cfeaa68	0.031087115
102	0x3db1caae	0.08681236
103	0xbecbd67f	-0.39812085
104	0x3e79f81c	0.24411052
105	0xbef0b148	-0.47010255
106	0xbd80633e	-0.06268929
107	0xbdc8c4f1	-0.098031886
108	0xbe842e63	-0.2581664
109	0x3f009a7b	0.5023572
110	0x3e78724e	0.24262354
111	0xbda18373	-0.078864
112	0x3d588c3d	0.052868117
113	0xbff72271	-1.9307386
114	0x3d16f6d3	0.036856484
115	0xbf16d46c	-0.5891788
116	0x3d904042	0.07043506
117	0x3e803492	0.25040108
118	0x3d4ea241	0.050447706
119	0x403648f5	2.848203
120	0x3d23fb3e	0.040034525
121	0xbf09aa01	-0.5377503
122	0xbd309e47	-0.043119695
123	0x3e7a455d	0.24440522
124	0x3c38adbd	0.011271891
125	0x4025642c	2.584239
126	0xbecfa0a8	-0.40552258
127	0x3eabeb56	0.33577985
128	0x3e804596	0.2505309
129	0x3efbc2c1	0.49172023
130	0x3d99a0b0	0.07501352
131	0x3e4a5d9c	0.19762272
132	0xbcb05910	-0.021526843
133	0x3ee97716	0.45598668
134	0x3ce45d6d	0.02787658
135	0xbe7ea687	-0.24868213
136	0xbd5cb136	-0.05387994
137	0xc0214fa0	-2.520485
138	0x3e60bf8d	0.21948071
139	0xbef7cb55	-0.48397318
140	0xbdf34459	-0.11878271
141	0x3e93e592	0.28886086
142	0xbbf7e26a	-0.0075648325
143	0x40121ac4	2.2828836
144	0x3ee8611a	0.45386583
145	0xbed89d85	-0.42307678
146	0xbd90197f	-0.07036113
147	0xbf221e2a	-0.63327277
148	0xbdd5aa7a	-0.104329064
149	0xbdd2800d	-0.1027833
150	0xbc36c0db	-0.011154379
151	0x3f2517cb	0.6448943
152	0xbdbebad6	-0.0931298
153	0xbe911059	-0.28332785
154	0xbd7ad5a7	-0.06123891
155	0xc03e6c5e	-2.9753642
156	0xbdd95eb8	-0.10613769
157	0x3ed87748	0.42278504
158	0x3dc28439	0.09497876
159	0x3f35f71c	0.71080184
160	0xbe1ed806	-0.15512094
161	0x3d05b675	0.032644708
162	0x3d08828f	0.033327635
163	0xbee9b09b	-0.45642552
164	0xbd248e5b	-0.040174823
165	0x3e449f49	0.19201387
166	0x3d6f69dd	0.05845057
167	0x401bd988	2.435152
168	0xbe53a80d	-0.20669575
169	0xbf2ad550	-0.6673174
170	0x3e39593a	0.18100443
171	0x3dddd7ce	0.10832177
172	0xbd94d505	-0.07267193
173	0xbdf968db	-0.12178203
174	0xbeca379d	-0.39495555
175	0x3e6e185b	0.23251478
176	0x3ea00a72	0.3125797
177	0x3d430b7c	0.047618374
178	0x3dd699b0	0.10478532
179	0xbfa292ed	-1.2701088
180	0xbe70a828	-0.23501647
181	0x3ebcb3d9	0.36855963
182	0xbd2e39c4	-0.04253556
183	0xbe4e1bf0	-0.20127845
184	0xbe0b4777	-0.1360148
185	0x3e82c8c6	0.25543803
186	0x3cd9200a	0.026504535
187	0xbf1ee87f	-0.6207351
188	0x3d1669da	0.03672204
189	0x3e4ef1fa	0.20209494
190	0xbc0a1800	-0.008428574
191	0x402c2b3b	2.6901386
192	0x3f301848	0.6878705
193	0xbf46b2a1	-0.77616316
194	0x3d987984	0.07445052
195	0xbebf1302	-0.3731919
196	0x3e0139c9	0.126197
197	0x3c87f2c5	0.016595254
198	0x3e7d486e	0.24734661
199	0x3eecca26	0.46247977
200	0xbd90f663	-0.070782445
201	0xbe87b336	-0.26503915
202	0x3e9f73ba	0.3114298
203	0x3e7b8f7e	0.24566457
204	0xbdd4d01a	-0.10391255
205	0x3df7fded	0.121089794
206	0x3e774502	0.24147418
207	0x3f4c0ed7	0.79710144
208	0x3e4e7e28	0.20165312
209	0x3e196a27	0.149819
210	0x3c06ece2	0.008235188
211	0xbf3252b1	-0.6965743
212	0x3d88af85	0.06674103
213	0x3e519b8f	0.20469497
214	0x3d0ebe16	0.03484925
215	0x4038d8f8	2.8882427
216	0xbd6e85ad	-0.058232952
217	0x3a808013	0.0009803794
218	0x3e050d73	0.12993412
219	0x3ee5e533	0.44901428
220	0xbd29ad7a	-0.041425206
221	0x3dd0e432	0.10199775
222	0x3e54fd04	0.20799643
223	0xbf040be0	-0.5158062
224	0xbd76a314	-0.060214117
225	0xbe736192	-0.23767689
226	0xbdac13fb	-0.084022485
227	0xbddf6ded	-0.109096386
228	0xbcb065e5	-0.021532962
229	0xbf206e22	-0.6266805
230	0x3d5b9f11	0.053618494
231	0x3e8c6d20	0.27427006
232	0x3d1850a7	0.03718629
233	0x40379dd5	2.8690083
234	0x3c9636ad	0.018336618
235	0xbf2335e7	-0.63754123
236	0x3dac4f75	0.08413593
237	0x3e85412d	0.26026288
238	0x3d1cf9cc	0.038324162
239	0x403cb58b	2.9485805
240	0x3d9ff9a5	0.07811288
241	0xbf11147b	-0.56671876
242	0x3d8c8d5e	0.06862901
243	0x3e93a649	0.28837803
244	0x3d031835	0.032005507
245	0x4031dbb3	2.7790344
246	0xbeeb67d4	-0.45977652
247	0x3e5abb24	0.21360451
248	0x3eba5014	0.3638922
249	0x3f52d3d6	0.82354486
250	0x3e37c88c	0.17947596
251	0x3def524f	0.11685621
252	0x3d993a6e	0.07481848
253	0xbf00d702	-0.50328076
254	0x3c474d7d	0.012164471
255	0x3e63d377	0.22248636

net.0.bias f4 [128]
0	0xbdb58b56	-0.08864467
1	0xbb83f614	-0.0040271375
2	0xbd993749	-0.07481248
3	0x3f63bc6a	0.8895937
4	0x3f385306	0.72001684
5	0x3bd98c17	0.0066390145
6	0xbe1295a0	-0.1431489
7	0xbe26ee12	-0.16301754
8	0x3ccee496	0.025255483
9	0x3e4d6ce8	0.20061076
10	0x3d3d851a	0.046269514
11	0x3d7f8092	0.062378474
12	0x3dc4f3f0	0.0961684
13	0x3d7000d7	0.05859455
14	0xbd1f22c7	-0.038851526
15	0x3eb702f3	0.35744438
16	0x3f38918e	0.720971
17	0x3c233650	0.00996168
18	0xbea27dd0	-0.31736612
19	0x3d50c191	0.05096585
20	0xbc560664	-0.013063047
21	0x3dc04d4a	0.09389742
22	0xbd33eea0	-0.043928742
23	0x3e745c09	0.23863234
24	0x3e270c47	0.16313277
25	0xbd9f3458	-0.07773656
26	0x3eeb6aaf	0.4597983
27	0x3d06af70	0.032882154
28	0xbe8e8cd8	-0.2784183
29	0xbed44913	-0.41462
30	0xbdcba0be	-0.099427685
31	0xbc5ec901	-0.013597728
32	0xbda976c6	-0.08274607
33	0x3ebdad43	0.3704625
34	0xbd8cd20b	-0.06876
35	0x3da286b4	0.07935849
36	0xbc718cc6	-0.014743036
37	0xbdd59052	-0.104279175
38	0x3d8fc377	0.07019704
39	0x3de6336d	0.112402774
40	0x3d363242	0.044481523
41	0x3dad0cc9	0.08449704
42	0xbba2ff5a	-0.004974288
43	0x3bded7aa	0.0068006115
44	0x3dcd03d9	0.100104995
45	0x3c91c64f	0.017794756
46	0xbd46549e	-0.04842054
47	0xbc06da9a	-0.00823083
48	0xbc7d4f23	-0.015460762
49	0x3dfabebd	0.12243412
50	0xbd5a2fa0	-0.053268075
51	0xbdb2a271	-0.087223895
52	0x3f665042	0.89966214
53	0x3e139c1f	0.14415024
54	0xbdbbb101	-0.0916462
55	0xbdcc77e7	-0.09983807
56	0x3ecf7f9a	0.4052704
57	0xbd3ad4f4	-0.045613244
58	0xbe9c0284	-0.3047067
59	0xbe30e6db	-0.17275564
60	0xbe458369	-0.1928841
61	0x3da5b4e1	0.080911405
62	0x3dcdae7e	0.10043047
63	0x3ddb2f2c	0.10702357
64	0x3dd7e143	0.10541012
65	0x3dfec522	0.12439944
66	0x3e8d50ff	0.27600858
67	0x3f2da70f	0.67833036
68	0xbe26faba	-0.16306582
69	0x3eb66311	0.35622457
70	0x3c7e51ff	0.015522479
71	0xbcc3edaf	-0.023917047
72	0x3f1f0752	0.62120545
73	0xbcb6a5e0	-0.022295892
74	0x3db49764	0.08817938
75	0x3db7ef96	0.08981244
76	0x3db0b358	0.08627957
77	0x3f3912cc	0.72294307
78	0x3e0e67c5	0.13906772
79	0x3e4d15d6	0.20027861
80	0xbd0b6825	-0.034034867
81	0x3d6919c3	0.056909334
82	0x3d23bec8	0.039976865
83	0x3d8525b1	0.0650133
84	0xbd49aeb5	-0.04923888
85	0xbd4ea0e3	-0.050446402
86	0x3d9afc68	0.07567674
87	0x3ed202f5	0.4101788
88	0x3c91b20c	0.017785095
89	0xbe1b3efc	-0.15160745
90	0x3eb891a5	0.36048618
91	0x3e06c6a6	0.13161716
92	0xbd0c4d5a	-0.034253456
93	0x3e483e3d	0.19554992
94	0xbd252dce	-0.040326886
95	0x3f32b946	0.69813955
96	0xbea37614	-0.31926024
97	0x3cfcec37	0.030874355
98	0x3e437fce	0.19091722
99	0xbd5b89ae	-0.0535981
100	0xbdee2bb3	-0.11629429
101	0xbe22d4b9	-0.1590146
102	0x3d8d2752	0.068922654
103	0x3c33f86a	0.0109845195
104	0x3e45c79c	0.19314426
105	0x3d7520c8	0.059845716
106	0xbddf6a0d	-0.109088995
107	0xbd0a91d7	-0.03383049
108	0x3ee9ed9b	0.4568909
109	0x3db9f0c6	0.09079127
110	0xbed8ea6b	-0.42366347
111	0x3e2751ca	0.16339794
112	0x3de7a783	0.11311247
113	0x3c029984	0.007971171
114	0x3d3b8efc	0.045790657
115	0xbdbeb5f1	-0.09312046
116	0x3da59fae	0.08087097
117	0xbd8547cd	-0.065078355
118	0x3dba73fd	0.09104154
119	0x3eaf6810	0.3425908
120	0x3d965894	0.07341114
121	0xbd9595ab	-0.073039375
122	0x3d52dcbe	0.051480047
123	0xbdcfbb79	-0.101431794
124	0x3cf02e0b	0.02931883
125	0x3ecbeea3	0.39830503
126	0xbd874b92	-0.06606211
127	0x3e747e85	0.23876388

net.2.weight f4 [128, 128]
0	0x3efa4a82	0.4888497
1	0xbdf17282	-0.11789419
2	0x3f098ef0	0.5373373
3	0xbe8a917b	-0.27064118
4	0xbeb1bf77	-0.3471639
5	0xbe8f1570	-0.27946043
6	0x3e8f8a7c	0.28035343
7	0xbf2b3667	-0.66879886
8	0xbd3aa401	-0.045566563
9	0xbf01f625	-0.5076621
10	0x3e4f1c17	0.20225559
11	0x3e108f7d	0.14117236
12	0xbebeae46	-0.37242335
13	0xbea57f0d	-0.32323495
14	0x3ed1801d	0.40918055
15	0xbf1f5195	-0.6223386
16	0x3d715d50	0.05892688
17	0x3e3e3d99	0.18578185
18	0x3eda0579	0.425823
19	0xbef6f343	-0.4823247
20	0xbda62b10	-0.08113682
21	0xbede55be	-0.4342479
22	0x3e1d4d71	0.15361573
23	0xbdbb4849	-0.09144647
24	0x3f19e8fc	0.6012113
25	0x3ee18102	0.44043738
26	0xbeb48a28	-0.35261655
27	0x3ce7cee3	0.028296893
28	0xbcdc74b4	-0.026911117
29	0x3f03a930	0.51430035
30	0xbe8095d7	-0.2511432
31	0xbeae239e	-0.3401155
32	0x3eefa9c0	0.46809196
33	0xbd276a72	-0.040873
34	0xbf73c965	-0.9522918
35	0xbf05bc63	-0.5224058
36	0xbe426631	-0.18984295
37	0x3e85de6f	0.26146266
38	0xbefc0e7b	-0.49229798
39	0xbf06b315	-0.5261701
40	0xbdcb6bd9	-0.0993268
41	0xbf5c4b83	-0.8605272
42	0xbe81cc9e	-0.25351423
43	0x3ee5e736	0.44902962
44	0xbf121735	-0.5706666
45	0xbe389c48	-0.18028367
46	0x3f4b7435	0.7947419
47	0xbf018fb7	-0.50609916
48	0x3d0620a2	0.032745965
49	0x3e0d2d6c	0.13786858
50	0x3dda6a57	0.10664814
51	0x3ee5c318	0.44875407
52	0xbe332ab0	-0.17496753
53	0xbe85c7a4	-0.26128876
54	0x3eb7a6ae	0.35869354
55	0x3ebf3a39	0.37349108
56	0xbefc3122	-0.49256235
57	0x3eaa04b6	0.3320672
58	0x3e6bf230	0.23041606
59	0xbd3b5fe2	-0.045745738
60	0xbdc6897c	-0.09694192
61	0xbedb1d5b	-0.42795834
62	0xbe27cf0e	-0.16387579
63	0xbed0c7ed	-0.4077753
64	0xbe8e9e2a	-0.27855045
65	0x3ddc73be	0.107642636
66	0xbe541b4b	-0.20713536
67	0x3de0eacb	0.10982283
68	0x3e1d2e50	0.15349698
69	0x3c8af1b7	0.016960962
70	0xbe638f63	-0.22222666
71	0xbc964bb8	-0.018346652
72	0x3e12d58c	0.14339274
73	0xbf432c40	-0.76239395
74	0xbe73f2a4	-0.23823029
75	0xbf04e8ef	-0.5191793
76	0xbe451020	-0.19244432
77	0xbe3eec7d	-0.186449
78	0xbea5bdd4	-0.3237139
79	0xbd93eec8	-0.07223278
80	0x3e1dda3c	0.15415281
81	0xbf0c6c3c	-0.5485265
82	0xbe7284d8	-0.23683488
83	0x3f31bcef	0.69428915
84	0x3f206e9c	0.62668777
85	0x3f1be778	0.6090007
86	0xbe590afd	-0.21195598
87	0xbd7b382a	-0.06133286
88	0xbe0fdfab	-0.14050166
89	0x3ddf035d	0.10889313
90	0xbdb5261b	-0.08845159
91	0x3f3921af	0.7231702
92	0x3e24df7b	0.16100876
93	0x3f59a6ed	0.85020334
94	0x3e245327	0.16047345
95	0xbedc577f	-0.43035504
96	0x3e3cdfc0	0.18444729
97	0xbe2f0ab4	-0.17093927
98	0xbe16449b	-0.14674608
99	0x3ea3ffdc	0.32031143
100	0x3e060f3b	0.13091747
101	0x3ef50557	0.47855636
102	0xbee26a8e	-0.4422192
103	0xbeeb505d	-0.4595975
104	0xbcfec8e9	-0.03110166
105	0xbea2f717	-0.3182914
106	0x3e34e645	0.17665966
107	0x3edf4d96	0.4361388
108	0x3e1f2473	0.15541248
109	0xbef9d786	-0.48797244
110	0xbdbd2529	-0.09235603
111	0xbe732db6	-0.23747906
112	0xbef984d1	-0.48734143
113	0x3f45aea8	0.7721963
114	0x3dbaf8ec	0.09129509
115	0x3ed5e568	0.41776586
116	0x3c397d93	0.011321443
117	0x3f1a8aef	0.60368246
118	0xbef40e21	-0.4766703
119	0x3e8060dc	0.25073898
120	0xbe4e9b5b	-0.20176451
121	0x3ecca9dc	0.39973342
122	0xbed00b72	-0.40633732
123	0x3eb9dab7	0.3629968
124	0x3e02ed85	0.12785919
125	0x3c90cdc9	0.017676251
126	0x3ed8e44b	0.42361674
127	0x3e02b5d4	0.12764674
128	0x3e8e2057	0.27759048
129	0xbef4945d	-0.47769442
130	0x3f40a168	0.75246286
131	0xbd2bf31d	-0.041979898
132	0xbe37d7f2	-0.1795347
133	0xbee8c41e	-0.45462126
134	0x3f091c46	0.53558767
135	0xbe83666a	-0.25664073
136	0xbeeaa5a2	-0.45829493
137	0x3cb4de29	0.02207859
138	0x3e2630f9	0.16229619
139	0xbddc0a67	-0.107441716
140	0xbf3b1763	-0.7308256
141	0xbefd550c	-0.49478948
142	0x3ddb36c9	0.10703809
143	0xbe74bbd5	-0.23899777
144	0x3e22710b	0.15863435
145	0xbd1a5c9c	-0.037685975
146	0x3ede401b	0.43408284
147	0xbf059d16	-0.5219282
148	0xbf17f3dd	-0.5935648
149	0x3e44d499	0.19221725
150	0x3f018d25	0.50605994
151	0xbe415f1a	-0.18883935
152	0x3caa2b86	0.020772707
153	0x3f1bbbff	0.60833734
154	0x3d994a31	0.07484854
155	0xbeeeeb6e	-0.46663994
156	0x3c21a6e0	0.009866446
157	0x3e49b549	0.19698061
158	0x3d7ea51f	0.06216919
159	0xbf042a08	-0.51626635
160	0x3d89efc1	0.067351826
161	0xbdd2aa39	-0.10286374
162	0x3e22f7bd	0.15914817
163	0xbf26b71b	-0.65123147
164	0x3b660737	0.0035099515
165	0x3cd5182c	0.026012503
166	0xbefe13e0	-0.49624538
167	0xbf01c506	-0.5069126
168	0xbf283448	-0.65704775
169	0xbd48b357	-0.048999157
170	0xbf2a2d43	-0.66475314
171	0x3e1ea7a7	0.15493642
172	0xbda5fe37	-0.08105128
173	0xbf216d0c	-0.6305702
174	0xbb2764d8	-0.0025542285
175	0xbf48bdef	-0.78414816
176	0x3cd4f712	0.025996719
177	0x3c6a64bc	0.0143062435
178	0x3e9123f8	0.28347754
179	0x3ec6dca0	0.388402
180	0xbe4672db	-0.19379751
181	0x3ddcca30	0.10780752
182	0x3f311e98	0.6918731
183	0x3e9f946e	0.3116793
184	0xbe900be2	-0.28134066
185	0x3f1bacd6	0.608106
186	0x3e94aeb0	0.29039526
187	0x3cb9a735	0.022662738
188	0xbd9c8dd1	-0.07644237
189	0xbf0dcd64	-0.55391526
190	0xbee7e736	-0.45293587
191	0xbf1620f9	-0.5864406
192	0xbf418665	-0.75595695
193	0x3e6f113a	0.23346415
194	0x3c222c94	0.009898324
195	0xbdadc269	-0.084843464
196	0x3e40a153	0.1881154
197	0xbed92fa6	-0.42419165
198	0x3d9d5ff4	0.07684317
199	0xbeb440b8	-0.35205626
200	0x3e742384	0.23841673
201	0xbeac38c7	-0.33637068
202	0xbecdd640	-0.40202522
203	0xbf1251fc	-0.5715635
204	0xbf01ca10	-0.5069895
205	0xbda21d56	-0.07915752
206	0xbeff114f	-0.49817893
207	0xbe6c3751	-0.23067977
208	0x3ea2dbdf	0.31808373
209	0xbf0a005b	-0.5390679
210	0xbf4b99f1	-0.7953177
211	0x3e945ed5	0.289786
212	0xbd63182b	-0.05544297
213	0x3e8409a6	0.2578861
214	0xbf49e888	-0.7887044
215	0xbeab54da	-0.33463174
216	0xbabf7189	-0.001460598
217	0x3dce243a	0.100655034
218	0x3d70be86	0.058775447
219	0xbd9fa0da	-0.07794352
220	0x3f09cb19	0.5382553
221	0x3e5b4317	0.21412311
222	0x3efeef40	0.49791908
223	0xbb36ae38	-0.0027874839
224	0xbd99fcba	-0.07518907
225	0x3d09f227	0.0336782
226	0xbe8189a7	-0.25300333
227	0x3f540619	0.82821804
228	0x3c8fc9be	0.017552253
229	0xbb9b2244	-0.0047343094
230	0xbf0b9157	-0.54518646
231	0xbf230f7c	-0.636955
232	0xbd1fd3d6	-0.039020382
233	0xbf03b3e7	-0.51446384
234	0xbe04e83c	-0.12979215
235	0x3f07b567	0.53011173
236	0xbe1fd7de	-0.1560969
237	0xbec06eab	-0.37584433
238	0x3ac60e4c	0.0015110462
239	0x3ed5b7c6	0.4174177
240	0xbe95f47d	-0.29288092
241	0x3e2c6265	0.1683441
242	0x3d1a0322	0.037600644
243	0x3f0e61db	0.55618066
244	0xbe05f850	-0.13083005
245	0x3f14a47e	0.58063495
246	0xbf23da38	-0.6400485
247	0xbd79c910	-0.060982764
248	0xbf179359	-0.5920921
249	0x3f16bab7	0.58878654
250	0xbf50dc7a	-0.8158642
251	0x3f02c6d8	0.5108466
252	0x3cc987a9	0.02460082
253	0x3e82b409	0.2552798
254	0x3f1dc4c5	0.6162837
255	0x3ce5a69c	0.028033547

net.2.bias f4 [128]
0	0xbe41cb21	-0.18925144
1	0x3c7da46d	0.015481097
2	0xbd47bf88	-0.048766643
3	0x3f99034a	1.1954129
4	0xbe879378	-0.26479697
5	0xbd1b08b5	-0.0378501
6	0xbf3daeee	-0.74095047
7	0x3e2529c8	0.1612922
8	0xbdac4d1a	-0.084131435
9	0xbea36c43	-0.31918535
10	0x3ca71c01	0.020399095
11	0x3ce91cf3	0.028456187
12	0xbce2c09f	-0.02767974
13	0xbd03a166	-0.032136343
14	0x3e641263	0.22272639
15	0x3ed38ab3	0.41316757
16	0xbe8216b4	-0.25407946
17	0x3daf3e68	0.08556825
18	0xbe956190	-0.29175997
19	0x3f13875b	0.5762841
20	0x3ec81441	0.39077953
21	0xbe42d2a5	-0.19025667
22	0xbe3a95ee	-0.18221256
23	0x3e0ef6a9	0.13961281
24	0xbdbee045	-0.0932012
25	0x3e2e36b9	0.17013063
26	0xbe318b0d	-0.173382
27	0xbcd54067	-0.026031686
28	0xbd26764f	-0.04064017
29	0x3e0051b5	0.12531169
30	0xbde022c5	-0.10944132
31	0x3ed0e48c	0.40799367
32	0xbe23e9bc	-0.16007131
33	0x3d4b6413	0.049655985
34	0xbdb934d8	-0.09043282
35	0xbd40fb8b	-0.04711489
36	0xbf004d13	-0.50117606
37	0xbd3df44c	-0.046375558
38	0xbe05340e	-0.13008139
39	0xbd944292	-0.0723926
40	0xbdb7e93d	-0.089800335
41	0xbdf55fbd	-0.11981151
42	0xbd09787f	-0.03356218
43	0x3e209078	0.1568011
44	0x3db34cc6	0.08754878
45	0x3e6c0e3a	0.23052302
46	0x3cf8000b	0.030273458
47	0xbe53efaf	-0.20696901
48	0x3d9b16df	0.07572722
49	0xbcd3e6e9	-0.025866942
50	0x3c366235	0.011131813
51	0xbd53f430	-0.051746547
52	0x3e17f451	0.14839293
53	0xbe18592b	-0.14877765
54	0xbe16e54b	-0.14735906
55	0xbc8d22a2	-0.017228428
56	0x3e00b2b6	0.12568173
57	0xbc75d00e	-0.015003217
58	0x3d9eb33a	0.077490285
59	0xbd47dc14	-0.048793867
60	0xbd5f9483	-0.05458499
61	0x3e30912c	0.17242879
62	0x3e8c7f81	0.27441028
63	0xbd2f50b8	-0.04280159
64	0x3ddd1933	0.10795822
65	0x3e1ff774	0.1562174
66	0xbed09710	-0.40740252
67	0xbe82b810	-0.25531054
68	0x3d07f9b7	0.03319713
69	0xbe323721	-0.17403843
70	0xbe791329	-0.24323715
71	0xbebd249a	-0.36941987
72	0xbdd91a00	-0.10600662
73	0x3ed20085	0.4101602
74	0x3c44340b	0.011975299
75	0xbe56ff5b	-0.20995848
76	0x3cacc7a1	0.021091284
77	0xbe89f978	-0.26948142
78	0x3e618674	0.22023946
79	0x3dd1eadb	0.10249873
80	0x3d93b0d3	0.07211461
81	0x3c396860	0.011316389
82	0x3d17452a	0.036931194
83	0xbe2977ad	-0.16549559
84	0x3e329ebe	0.17443368
85	0xbd167e02	-0.036741264
86	0x3da08640	0.07838106
87	0x3e80f95d	0.2519025
88	0x3d98064b	0.07423075
89	0x3b81672c	0.0039490666
90	0x3e720d8f	0.23637985
91	0x3eae649b	0.3406113
92	0xbe107450	-0.1410687
93	0x3e5ef31d	0.21772428
94	0x3d3e3b54	0.0464433
95	0xbf29ae8e	-0.66281974
96	0xbdb7e52f	-0.0897926
97	0x3ec47980	0.38373947
98	0x3e53e22d	0.20691748
99	0xbe17fc12	-0.14842251
100	0xbd085483	-0.03328372
101	0x3cfdedc4	0.030997165
102	0x3cb982d3	0.02264539
103	0xbd33a17e	-0.043855183
104	0x3dfd7bb1	0.12377108
105	0x3ec9748d	0.39346734
106	0x3cea78f3	0.028622126
107	0x3d10dca4	0.03536667
108	0x3c0d0b99	0.008608722
109	0xbb873409	-0.004126076
110	0x3da54790	0.0807029
111	0xbf33ed81	-0.7028428
112	0xbdf41b4a	-0.119192675
113	0x3c5e9652	0.013585644
114	0x3d1a337f	0.037646767
115	0xbaf7cb09	-0.0018905114
116	0xbcbe612a	-0.02323969
117	0x3db17342	0.08664562
118	0xbdb84699	-0.089978404
119	0x3e72371c	0.23653835
120	0xbef3ff77	-0.47655842
121	0x3d7411ee	0.05958741
122	0xbd391a20	-0.04519093
123	0x3cb9cc79	0.022680508
124	0x3e3b0163	0.18262248
125	0x3d9a48a8	0.07533389
126	0x3d023626	0.03178992
127	0xbc726e84	-0.014796857

out_mean.weight f4 [1, 128]
0	0xbdde62dd	-0.108587004
1	0xba03ebce	-0.0005032391
2	0xbcd0aed3	-0.025473988
3	0xbebc68c4	-0.3679868
4	0xbe046a6d	-0.12931223
5	0xbb3063b1	-0.002691489
6	0x3ea5441a	0.3227852
7	0x3e3015cc	0.17195815
8	0x3e1ec175	0.15503486
9	0xbe2089bb	-0.1567754
10	0x3e9f8bce	0.3116135
11	0xbceaf207	-0.02867986
12	0xbc43e999	-0.0119575495
13	0xba9e7f6e	-0.001209242
14	0x3cfb0efc	0.030646794
15	0x3e08a021	0.13342334
16	0xbd87c922	-0.0663016
17	0xba06ed36	-0.00051470415
18	0xbe409d2e	-0.1880996
19	0xbea8f04a	-0.32995826
20	0x3e845f4a	0.2585395
21	0xbe767912	-0.24069622
22	0x3bfe43ed	0.007759562
23	0x3d369933	0.044579696
24	0xbe5bb650	-0.21456265
25	0xbd6cd7f5	-0.05782314
26	0xbd057fe9	-0.032592688
27	0x3b33c59e	0.0027431021
28	0xbdf5119d	-0.1196625
29	0x3c6ec5be	0.014573513
30	0xbd55eb1f	-0.052226182
31	0x3f293af2	0.6610557
32	0x3c08d005	0.008350377
33	0x3c69f317	0.014279149
34	0xbe9ffd9c	-0.31248176
35	0x3a3a4490	0.00071055535
36	0x3e84b370	0.2591815
37	0xb9be796b	-0.00036330087
38	0xbe79d047	-0.24395858
39	0xbcd97dfb	-0.02654933
40	0x3ddb7895	0.107163586
41	0xbdb9d047	-0.09072929
42	0xbab7dfd2	-0.0014028496
43	0x3cf7b8c9	0.03023948
44	0x3dd526cf	0.10407793
45	0xbbe095ed	-0.00685381
46	0x3a3d5906	0.00072230434
47	0x3e20b3b6	0.15693554
48	0x3c663949	0.014051744
49	0x3ea54631	0.32280114
50	0x3b19723e	0.002341404
51	0xbdd76b86	-0.10518555
52	0x3c232a0d	0.009958756
53	0xbd87d733	-0.06632843
54	0xbbebd684	-0.007197203
55	0x3cecba0f	0.028897313
56	0xbb299b92	-0.002588008
57	0x3d12ac84	0.035809055
58	0x3e9770a1	0.29578117
59	0xbc1d20ec	-0.009590369
60	0xbe0ed785	-0.13949402
61	0x3e908733	0.2822815
62	0xbda6ca2f	-0.08144032
63	0x3b8a071c	0.0042122733
64	0xbc4b319e	-0.012401966
65	0x3e283421	0.16426136
66	0xbd2793f6	-0.04091259
67	0xbd139fe5	-0.03604116
68	0x3a8051a0	0.0009789951
69	0xbcd9b138	-0.026573762
70	0xbe455c23	-0.19273429
71	0xbdafba5a	-0.085804656
72	0xbc6aace8	-0.014323451
73	0x3dd8ee15	0.105922855
74	0xbbefcbfd	-0.0073180185
75	0x3e2ef8c6	0.17087087
76	0xbb8847e3	-0.00415896
77	0xbd46c526	-0.04852786
78	0x3af21bd6	0.001847143
79	0x3d0fc836	0.035103045
80	0x3d0738e3	0.033013236
81	0xbe26a77e	-0.1627483
82	0x3aa9c244	0.0012951572
83	0xbe01cc0b	-0.12675492
84	0xba2fe9af	-0.0006710542
85	0x3de975d9	0.11399431
86	0xb7f2db15	-2.8950666e-05
87	0xbec26bb9	-0.3797281
88	0x3ce087ba	0.02740847
89	0x3e964259	0.29347494
90	0xbe09b640	-0.13448429
91	0x3cf1cd78	0.02951692
92	0xbc8a3a0d	-0.016873384
93	0xbe268356	-0.16261038
94	0x3866ef08	5.505889e-05
95	0x3ec6bc31	0.38815454
96	0xbbd75085	-0.006570878
97	0xbd89ddc0	-0.067317486
98	0x3d71eb68	0.05906239
99	0xbd05ae3a	-0.03263686
100	0x3d678cfc	0.056530938
101	0x39bcc01d	0.0003600129
102	0xbb4707a6	-0.003036955
103	0xba168a9b	-0.00057427
104	0x3d1b4846	0.037910722
105	0x3ba45503	0.005015017
106	0xb9da1480	-0.00041595474
107	0x3c3d9b8d	0.011572731
108	0x3c8f0380	0.017457724
109	0x3a8359bf	0.0010021253
110	0xbe4f8524	-0.20265633
111	0x3f280d00	0.65644836
112	0x3c6eb7d0	0.0145701915
113	0xbdf68397	-0.120368175
114	0xbbf1e74f	-0.0073823105
115	0xba68b3e3	-0.0008876903
116	0x3a55053f	0.0008126087
117	0x3da74f6e	0.08169447
118	0x3e6cd5ec	0.2312848
119	0x3e0a39be	0.1349859
120	0x3e1bfb9d	0.15232702
121	0x3bb78b98	0.0056013577
122	0xbbd9123d	-0.0066244886
123	0xbde078c4	-0.10960534
124	0x3d0b8b29	0.03406826
125	0x3a6b99f3	0.0008987479
126	0xbc62106c	-0.013797861
127	0xbb957214	-0.0045607183

out_value.weight f4 [1, 128]
0	0xba30174e	-0.000671734
1	0xb9998355	-0.00029280284
2	0x3adff426	0.0017086312
3	0xb9b10c6c	-0.00033769326
4	0x38d10a4e	9.967816e-05
5	0x3a01d906	0.00049532985
6	0x389de8a3	7.529675e-05
7	0x38e8395c	0.00011073306
8	0xbbba7497	-0.005690168
9	0xb83fcfdd	-4.5731536e-05
10	0x3aca09e1	0.0015414321
11	0x3dab3de7	0.08361416
12	0x3a006cff	0.0004899054
13	0xb91c2ff8	-0.00014895189
14	0x3a92bf8d	0.0011196003
15	0x3955c52f	0.0002038672
16	0xb8f30d73	-0.00011589648
17	0xb9f77289	-0.00047196847
18	0xb9ea9fb3	-0.00044750943
19	0x3913806e	0.00014066856
20	0x38f850af	0.0001184059
21	0xba3989e4	-0.0007077737
22	0xba15e774	-0.0005718388
23	0xb9f6eae8	-0.00047095795
24	0xb9b63759	-0.00034754982
25	0xb907a55d	-0.00012936206
26	0xba3ab47e	-0.00071222323
27	0xb9a8ba69	-0.00032182343
28	0xba5917f1	-0.00082814606
29	0x3a6d8a85	0.00090614735
30	0x39802b04	0.00024446112
31	0x383b7b7b	4.4699274e-05
32	0xbaae49dc	-0.0013297158
33	0x3a59abbc	0.00083034835
34	0x38d6d00a	0.000102430655
35	0x39f4dba5	0.00046702955
36	0xb86f8be2	-5.7112316e-05
37	0x38a8ca93	8.048597e-05
38	0x39c9e88e	0.00038510974
39	0xb9cb6413	-0.00038793738
40	0x38b075ec	8.414299e-05
41	0xba7ac9ce	-0.00095668144
42	0xb9946a89	-0.00028308135
43	0x3adf7e0f	0.0017051118
44	0x3a076a97	0.00051657244
45	0x392af345	0.00016303088
46	0xb918efe4	-0.00014585216
47	0xb920fa5a	-0.00015352052
48	0x3a410688	0.0007363339
49	0xb9683285	-0.00022144064
50	0x3938a758	0.00017609948
51	0xb8f157a8	-0.00011508103
52	0x3a9a7cb5	0.0011786433
53	0xbb08df02	-0.0020884876
54	0xba72df2c	-0.00092648226
55	0x39aa0d89	0.0003243501
56	0x3a2fd853	0.0006707955
57	0x3ab0cfbd	0.0013489645
58	0x390bf5f6	0.000133477
59	0x3a2243a3	0.0006189888
60	0x3c19baf2	0.00938295
61	0x39018b64	0.00012354326
62	0x39fa976f	0.00047796543
63	0x39a47a7c	0.00031371776
64	0x39e1107f	0.00042927635
65	0xba7a78cd	-0.0009554744
66	0x399e1b4c	0.00030156446
67	0xbab77104	-0.0013995473
68	0xba42dad2	-0.00074331195
69	0x3992180f	0.00027865215
70	0xb9ec6802	-0.0004509092
71	0xbb1f8a73	-0.0024343997
72	0xba4da48c	-0.0007844649
73	0x39398791	0.00017693477
74	0x3b0d0874	0.002151993
75	0x39db8575	0.00041870368
76	0xba32352b	-0.0006798084
77	0xbafb1d6b	-0.0019158548
78	0x39edf49a	0.00045386405
79	0x3818bcfc	3.641563e-05
80	0x3c13f3e4	0.009030316
81	0xb9b8490d	-0.00035149642
82	0xb81d22dc	-3.7464182e-05
83	0x3a0bec8c	0.00053376774
84	0x3930252b	0.00016798514
85	0xbb88fa54	-0.004180232
86	0x39407b63	0.00018356512
87	0x37953c60	1.7790298e-05
88	0x390e4ad6	0.00013570054
89	0xb8e1b2f4	-0.00010762169
90	0x39f31b83	0.0004636907
91	0x3a7c12f5	0.0009615862
92	0xba2837cb	-0.0006417005
93	0x395c9aa8	0.00021038449
94	0x39716d38	0.00023024238
95	0xb9798b62	-0.00023798415
96	0xba1ad4e9	-0.000590636
97	0x397cb50d	0.0002410004
98	0x3af3c788	0.0018598894
99	0xb9d5a78e	-0.00040751364
100	0xbc960568	-0.018313125
101	0x39cf80c2	0.0003957805
102	0x3a684a2d	0.0008861151
103	0xb9d3e96f	-0.00040418978
104	0x377e899d	1.517162e-05
105	0x3ac54aed	0.0015052237
106	0xb99db1b2	-0.00030077767
107	0x3d7e5cfd	0.0621004
108	0x3a806ee2	0.0009798671
109	0xb7bf48c9	-2.2802868e-05
110	0xb84713f5	-4.7463884e-05
111	0xb99137be	-0.00027698086
112	0xb9c8dcc4	-0.00038311456
113	0x3cacf17e	0.021111246
114	0x39fe5ddd	0.0004851659
115	0xba8ceb1d	-0.0010751222
116	0xba50cd9c	-0.00079652085
117	0xb72dae20	-1.0352145e-05
118	0x3e68d3c7	0.22737037
119	0xb9b04096	-0.00033617456
120	0x3a126035	0.0005583794
121	0x3998cdf6	0.00029145152
122	0xbad7d9b7	-0.0016468082
123	0x398ab84d	0.00026458726
124	0xb9a53499	-0.0003151044
125	0xb8d6bd91	-0.00010239625
126	0x39ec3176	0.0004505028
127	0xb9f130bb	-0.0004600341

weight f4 [128, 6]
0	0x3ad8ece2	0.0016550089
1	0x3f175073	0.5910713
2	0xbd950ab0	-0.07277429
3	0xbe8d2710	-0.27568865
4	0xbcbe767d	-0.023249859
5	0xc02c6d07	-2.6941545
6	0x3c513801	0.0127697
7	0xbee1b738	-0.44085097
8	0xbbd519ae	-0.0065033054
9	0x3e5f6521	0.21815921
10	0x3cced8bf	0.025249837
11	0x401d08d2	2.4536633
12	0x3bd4a29f	0.0064891125
13	0x3f196796	0.59923685
14	0xbd8da3d5	-0.06916014
15	0xbe60f368	-0.21967852
16	0xbd3b9c57	-0.045803394
17	0xc03dabe9	-2.9636176
18	0x3efc08f4	0.4922558
19	0x3f13aad6	0.5768255
20	0xbf928f9e	-1.1450078
21	0x3f1fda88	0.6244283
22	0xbe0da486	-0.13832292
23	0x3d93134e	0.071814165
24	0x3ee6cb4d	0.4507698
25	0x3edb1138	0.42786574
26	0x3f36bdce	0.7138337
27	0xbd0c922a	-0.03431908
28	0xbedb44b2	-0.42825848
29	0xbc7e8774	-0.015535224
30	0x3d3e0280	0.046389103
31	0xbf1112fc	-0.5666959
32	0x3d506f6c	0.05088751
33	0x3e813cb9	0.2524164
34	0x3c4c28b1	0.012460873
35	0x402f677f	2.740692
36	0xbdc4d317	-0.09610575
37	0x3ec32e40	0.38121223
38	0x3d8eb9f6	0.06969063
39	0xbe1ab272	-0.15107134
40	0xbc6ff74f	-0.014646365
41	0xc00fd0bd	-2.2471154
42	0x3e7d7c82	0.24754527
43	0xc00ae85f	-2.1704328
44	0x3e171eac	0.14757794
45	0x400fc319	2.2462828
46	0xbe5f96da	-0.21834889
47	0xbe19b637	-0.15010916
48	0xbd647b11	-0.055781428
49	0xbf16be86	-0.58884466
50	0xbcd9f047	-0.026603831
51	0x3e769c3f	0.2408304
52	0x3d489dff	0.0489788
53	0x401ce8c5	2.4517071
54	0x3dac8a75	0.08424846
55	0x3e19a34f	0.15003704
56	0xbe6eb7a3	-0.2331224
57	0x3ea19022	0.31555277
58	0xbdb75a09	-0.0895272
59	0x3d7c1e0b	0.06155209
60	0x3f006f47	0.50169796
61	0xbf3828c2	-0.7193719
62	0xbe62c873	-0.22146778
63	0xbf13a364	-0.5767119
64	0xbe3767c7	-0.17910682
65	0xbe0579bd	-0.1303472
66	0xbe858c79	-0.26083735
67	0x3ecf7e09	0.40525845
68	0x3d2f0210	0.042726576
69	0xbc5bc402	-0.013413431
70	0x3d9a7afb	0.07542988
71	0x3e681f0f	0.22668098
72	0x3c47a03c	0.012184199
73	0xbf201baa	-0.6254221
74	0x3db3584e	0.08757077
75	0x3e853668	0.2601807
76	0x3c8a5605	0.01688672
77	0x403ddf11	2.96674
78	0xbcf222f8	-0.02955769
79	0xbf1d4c70	-0.6144476
80	0x3db124d5	0.08649603
81	0x3e910a6a	0.28328258
82	0x3d5cb124	0.053879872
83	0x40408eea	3.0087228
84	0xbc99e49e	-0.018785771
85	0x3ec61fa3	0.38696012
86	0xbbd54487	-0.0065084132
87	0xbe831bb5	-0.25607076
88	0xbd4ded05	-0.050274868
89	0xc01813fa	-2.3762193
90	0x3e8133d4	0.25234854
91	0xbe3010b3	-0.1719387
92	0xbea41c47	-0.32052824
93	0xbe93cfaf	-0.28869388
94	0xbe3c77a7	-0.18405019
95	0x3f7ca7e2	0.9869367
96	0x3df262b7	0.118352346
97	0x3f1f9ab3	0.6234543
98	0xbf75ca04	-0.96011376
99	0x3eedb465	0.46426693
100	0xbe07a016	-0.13244662
101	0x3cfeaa68	0.031087115
102	0x3db1caae	0.08681236
103	0xbecbd67f	-0.39812085
104	0x3e79f81c	0.24411052
105	0xbef0b148	-0.47010255
106	0xbd80633e	-0.06268929
107	0xbdc8c4f1	-0.098031886
108	0xbe842e63	-0.2581664
109	0x3f009a7b	0.5023572
110	0x3e78724e	0.24262354
111	0xbda18373	-0.078864
112	0x3d588c3d	0.052868117
113	0xbff72271	-1.9307386
114	0x3d16f6d3	0.036856484
115	0xbf16d46c	-0.5891788
116	0x3d904042	0.07043506
117	0x3e803492	0.25040108
118	0x3d4ea241	0.050447706
119	0x403648f5	2.848203
120	0x3d23fb3e	0.040034525
121	0xbf09aa01	-0.5377503
122	0xbd309e47	-0.043119695
123	0x3e7a455d	0.24440522
124	0x3c38adbd	0.011271891
125	0x4025642c	2.584239
126	0xbecfa0a8	-0.40552258
127	0x3eabeb56	0.33577985
128	0x3e804596	0.2505309
129	0x3efbc2c1	0.49172023
130	0x3d99a0b0	0.07501352
131	0x3e4a5d9c	0.19762272
132	0xbcb05910	-0.021526843
133	0x3ee97716	0.45598668
134	0x3ce45d6d	0.02787658
135	0xbe7ea687	-0.24868213
136	0xbd5cb136	-0.05387994
137	0xc0214fa0	-2.520485
138	0x3e60bf8d	0.21948071
139	0xbef7cb55	-0.48397318
140	0xbdf34459	-0.11878271
141	0x3e93e592	0.28886086
142	0xbbf7e26a	-0.0075648325
143	0x40121ac4	2.2828836
144	0x3ee8611a	0.45386583
145	0xbed89d85	-0.42307678
146	0xbd90197f	-0.07036113
147	0xbf221e2a	-0.63327277
148	0xbdd5aa7a	-0.104329064
149	0xbdd2800d	-0.1027833
150	0xbc36c0db	-0.011154379
151	0x3f2517cb	0.6448943
152	0xbdbebad6	-0.0931298
153	0xbe911059	-0.28332785
154	0xbd7ad5a7	-0.06123891
155	0xc03e6c5e	-2.9753642
156	0xbdd95eb8	-0.10613769
157	0x3ed87748	0.42278504
158	0x3dc28439	0.09497876
159	0x3f35f71c	0.71080184
160	0xbe1ed806	-0.15512094
161	0x3d05b675	0.032644708
162	0x3d08828f	0.033327635
163	0xbee9b09b	-0.45642552
164	0xbd248e5b	-0.040174823
165	0x3e449f49	0.19201387
166	0x3d6f69dd	0.05845057
167	0x401bd988	2.435152
168	0xbe53a80d	-0.20669575
169	0xbf2ad550	-0.6673174
170	0x3e39593a	0.18100443
171	0x3dddd7ce	0.10832177
172	0xbd94d505	-0.07267193
173	0xbdf968db	-0.12178203
174	0xbeca379d	-0.39495555
175	0x3e6e185b	0.23251478
176	0x3ea00a72	0.3125797
177	0x3d430b7c	0.047618374
178	0x3dd699b0	0.10478532
179	0xbfa292ed	-1.2701088
180	0xbe70a828	-0.23501647
181	0x3ebcb3d9	0.36855963
182	0xbd2e39c4	-0.04253556
183	0xbe4e1bf0	-0.20127845
184	0xbe0b4777	-0.1360148
185	0x3e82c8c6	0.25543803
186	0x3cd9200a	0.026504535
187	0xbf1ee87f	-0.6207351
188	0x3d1669da	0.03672204
189	0x3e4ef1fa	0.20209494
190	0xbc0a1800	-0.008428574
191	0x402c2b3b	2.6901386
192	0x3f301848	0.6878705
193	0xbf46b2a1	-0.77616316
194	0x3d987984	0.07445052
195	0xbebf1302	-0.3731919
196	0x3e0139c9	0.126197
197	0x3c87f2c5	0.016595254
198	0x3e7d486e	0.24734661
199	0x3eecca26	0.46247977
200	0xbd90f663	-0.070782445
201	0xbe87b336	-0.26503915
202	0x3e9f73ba	0.3114298
203	0x3e7b8f7e	0.24566457
204	0xbdd4d01a	-0.10391255
205	0x3df7fded	0.121089794
206	0x3e774502	0.24147418
207	0x3f4c0ed7	0.79710144
208	0x3e4e7e28	0.20165312
209	0x3e196a27	0.149819
210	0x3c06ece2	0.008235188
211	0xbf3252b1	-0.6965743
212	0x3d88af85	0.06674103
213	0x3e519b8f	0.20469497
214	0x3d0ebe16	0.03484925
215	0x4038d8f8	2.8882427
216	0xbd6e85ad	-0.058232952
217	0x3a808013	0.0009803794
218	0x3e050d73	0.12993412
219	0x3ee5e533	0.44901428
220	0xbd29ad7a	-0.041425206
221	0x3dd0e432	0.10199775
222	0x3e54fd04	0.20799643
223	0xbf040be0	-0.5158062
224	0xbd76a314	-0.060214117
225	0xbe736192	-0.23767689
226	0xbdac13fb	-0.084022485
227	0xbddf6ded	-0.109096386
228	0xbcb065e5	-0.021532962
229	0xbf206e22	-0.6266805
230	0x3d5b9f11	0.053618494
231	0x3e8c6d20	0.27427006
232	0x3d1850a7	0.03718629
233	0x40379dd5	2.8690083
234	0x3c9636ad	0.018336618
235	0xbf2335e7	-0.63754123
236	0x3dac4f75	0.08413593
237	0x3e85412d	0.26026288
238	0x3d1cf9cc	0.038324162
239	0x403cb58b	2.9485805
240	0x3d9ff9a5	0.07811288
241	0xbf11147b	-0.56671876
242	0x3d8c8d5e	0.06862901
243	0x3e93a649	0.28837803
244	0x3d031835	0.032005507
245	0x4031dbb3	2.7790344
246	0xbeeb67d4	-0.45977652
247	0x3e5abb24	0.21360451
248	0x3eba5014	0.3638922
249	0x3f52d3d6	0.82354486
250	0x3e37c88c	0.17947596
251	0x3def524f	0.11685621
252	0x3d993a6e	0.07481848
253	0xbf00d702	-0.50328076
254	0x3c474d7d	0.012164471
255	0x3e63d377	0.22248636

bias f4 [128]
0	0xbdb58b56	-0.08864467
1	0xbb83f614	-0.0040271375
2	0xbd993749	-0.07481248
3	0x3f63bc6a	0.8895937
4	0x3f385306	0.72001684
5	0x3bd98c17	0.0066390145
6	0xbe1295a0	-0.1431489
7	0xbe26ee12	-0.16301754
8	0x3ccee496	0.025255483
9	0x3e4d6ce8	0.20061076
10	0x3d3d851a	0.046269514
11	0x3d7f8092	0.062378474
12	0x3dc4f3f0	0.0961684
13	0x3d7000d7	0.05859455
14	0xbd1f22c7	-0.038851526
15	0x3eb702f3	0.35744438
16	0x3f38918e	0.720971
17	0x3c233650	0.00996168
18	0xbea27dd0	-0.31736612
19	0x3d50c191	0.05096585
20	0xbc560664	-0.013063047
21	0x3dc04d4a	0.09389742
22	0xbd33eea0	-0.043928742
23	0x3e745c09	0.23863234
24	0x3e270c47	0.16313277
25	0xbd9f3458	-0.07773656
26	0x3eeb6aaf	0.4597983
27	0x3d06af70	0.032882154
28	0xbe8e8cd8	-0.2784183
29	0xbed44913	-0.41462
30	0xbdcba0be	-0.099427685
31	0xbc5ec901	-0.013597728
32	0xbda976c6	-0.08274607
33	0x3ebdad43	0.3704625
34	0xbd8cd20b	-0.06876
35	0x3da286b4	0.07935849
36	0xbc718cc6	-0.014743036
37	0xbdd59052	-0.104279175
38	0x3d8fc377	0.07019704
39	0x3de6336d	0.112402774
40	0x3d363242	0.044481523
41	0x3dad0cc9	0.08449704
42	0xbba2ff5a	-0.004974288
43	0x3bded7aa	0.0068006115
44	0x3dcd03d9	0.100104995
45	0x3c91c64f	0.017794756
46	0xbd46549e	-0.04842054
47	0xbc06da9a	-0.00823083
48	0xbc7d4f23	-0.015460762
49	0x3dfabebd	0.12243412
50	0xbd5a2fa0	-0.053268075
51	0xbdb2a271	-0.087223895
52	0x3f665042	0.89966214
53	0x3e139c1f	0.14415024
54	0xbdbbb101	-0.0916462
55	0xbdcc77e7	-0.09983807
56	0x3ecf7f9a	0.4052704
57	0xbd3ad4f4	-0.045613244
58	0xbe9c0284	-0.3047067
59	0xbe30e6db	-0.17275564
60	0xbe458369	-0.1928841
61	0x3da5b4e1	0.080911405
62	0x3dcdae7e	0.10043047
63	0x3ddb2f2c	0.10702357
64	0x3dd7e143	0.10541012
65	0x3dfec522	0.12439944
66	0x3e8d50ff	0.27600858
67	0x3f2da70f	0.67833036
68	0xbe26faba	-0.16306582
69	0x3eb66311	0.35622457
70	0x3c7e51ff	0.015522479
71	0xbcc3edaf	-0.023917047
72	0x3f1f0752	0.62120545
73	0xbcb6a5e0	-0.022295892
74	0x3db49764	0.08817938
75	0x3db7ef96	0.08981244
76	0x3db0b358	0.08627957
77	0x3f3912cc	0.72294307
78	0x3e0e67c5	0.13906772
79	0x3e4d15d6	0.20027861
80	0xbd0b6825	-0.034034867
81	0x3d6919c3	0.056909334
82	0x3d23bec8	0.039976865
83	0x3d8525b1	0.0650133
84	0xbd49aeb5	-0.04923888
85	0xbd4ea0e3	-0.050446402
86	0x3d9afc68	0.07567674
87	0x3ed202f5	0.4101788
88	0x3c91b20c	0.017785095
89	0xbe1b3efc	-0.15160745
90	0x3eb891a5	0.36048618
91	0x3e06c6a6	0.13161716
92	0xbd0c4d5a	-0.034253456
93	0x3e483e3d	0.19554992
94	0xbd252dce	-0.040326886
95	0x3f32b946	0.69813955
96	0xbea37614	-0.31926024
97	0x3cfcec37	0.030874355
98	0x3e437fce	0.19091722
99	0xbd5b89ae	-0.0535981
100	0xbdee2bb3	-0.11629429
101	0xbe22d4b9	-0.1590146
102	0x3d8d2752	0.068922654
103	0x3c33f86a	0.0109845195
104	0x3e45c79c	0.19314426
105	0x3d7520c8	0.059845716
106	0xbddf6a0d	-0.109088995
107	0xbd0a91d7	-0.03383049
108	0x3ee9ed9b	0.4568909
109	0x3db9f0c6	0.09079127
110	0xbed8ea6b	-0.42366347
111	0x3e2751ca	0.16339794
112	0x3de7a783	0.11311247
113	0x3c029984	0.007971171
114	0x3d3b8efc	0.045790657
115	0xbdbeb5f1	-0.09312046
116	0x3da59fae	0.08087097
117	0xbd8547cd	-0.065078355
118	0x3dba73fd	0.09104154
119	0x3eaf6810	0.3425908
120	0x3d965894	0.07341114
121	0xbd9595ab	-0.073039375
122	0x3d52dcbe	0.051480047
123	0xbdcfbb79	-0.101431794
124	0x3cf02e0b	0.02931883
125	0x3ecbeea3	0.39830503
126	0xbd874b92	-0.06606211
127	0x3e747e85	0.23876388

weight f4 [128, 128]
0	0x3efa4a82	0.4888497
1	0xbdf17282	-0.11789419
2	0x3f098ef0	0.5373373
3	0xbe8a917b	-0.27064118
4	0xbeb1bf77	-0.3471639
5	0xbe8f1570	-0.27946043
6	0x3e8f8a7c	0.28035343
7	0xbf2b3667	-0.66879886
8	0xbd3aa401	-0.045566563
9	0xbf01f625	-0.5076621
10	0x3e4f1c17	0.20225559
11	0x3e108f7d	0.14117236
12	0xbebeae46	-0.37242335
13	0xbea57f0d	-0.32323495
14	0x3ed1801d	0.40918055
15	0xbf1f5195	-0.6223386
16	0x3d715d50	0.05892688
17	0x3e3e3d99	0.18578185
18	0x3eda0579	0.425823
19	0xbef6f343	-0.4823247
20	0xbda62b10	-0.08113682
21	0xbede55be	-0.4342479
22	0x3e1d4d71	0.15361573
23	0xbdbb4849	-0.09144647
24	0x3f19e8fc	0.6012113
25	0x3ee18102	0.44043738
26	0xbeb48a28	-0.35261655
27	0x3ce7cee3	0.028296893
28	0xbcdc74b4	-0.026911117
29	0x3f03a930	0.51430035
30	0xbe8095d7	-0.2511432
31	0xbeae239e	-0.3401155
32	0x3eefa9c0	0.46809196
33	0xbd276a72	-0.040873
34	0xbf73c965	-0.9522918
35	0xbf05bc63	-0.5224058
36	0xbe426631	-0.18984295
37	0x3e85de6f	0.26146266
38	0xbefc0e7b	-0.49229798
39	0xbf06b315	-0.5261701
40	0xbdcb6bd9	-0.0993268
41	0xbf5c4b83	-0.8605272
42	0xbe81cc9e	-0.25351423
43	0x3ee5e736	0.44902962
44	0xbf121735	-0.5706666
45	0xbe389c48	-0.18028367
46	0x3f4b7435	0.7947419
47	0xbf018fb7	-0.50609916
48	0x3d0620a2	0.032745965
49	0x3e0d2d6c	0.13786858
50	0x3dda6a57	0.10664814
51	0x3ee5c318	0.44875407
52	0xbe332ab0	-0.17496753
53	0xbe85c7a4	-0.26128876
54	0x3eb7a6ae	0.35869354
55	0x3ebf3a39	0.37349108
56	0xbefc3122	-0.49256235
57	0x3eaa04b6	0.3320672
58	0x3e6bf230	0.23041606
59	0xbd3b5fe2	-0.045745738
60	0xbdc6897c	-0.09694192
61	0xbedb1d5b	-0.42795834
62	0xbe27cf0e	-0.16387579
63	0xbed0c7ed	-0.4077753
64	0xbe8e9e2a	-0.27855045
65	0x3ddc73be	0.107642636
66	0xbe541b4b	-0.20713536
67	0x3de0eacb	0.10982283
68	0x3e1d2e50	0.15349698
69	0x3c8af1b7	0.016960962
70	0xbe638f63	-0.22222666
71	0xbc964bb8	-0.018346652
72	0x3e12d58c	0.14339274
73	0xbf432c40	-0.76239395
74	0xbe73f2a4	-0.23823029
75	0xbf04e8ef	-0.5191793
76	0xbe451020	-0.19244432
77	0xbe3eec7d	-0.186449
78	0xbea5bdd4	-0.3237139
79	0xbd93eec8	-0.07223278
80	0x3e1dda3c	0.15415281
81	0xbf0c6c3c	-0.5485265
82	0xbe7284d8	-0.23683488
83	0x3f31bcef	0.69428915
84	0x3f206e9c	0.62668777
85	0x3f1be778	0.6090007
86	0xbe590afd	-0.21195598
87	0xbd7b382a	-0.06133286
88	0xbe0fdfab	-0.14050166
89	0x3ddf035d	0.10889313
90	0xbdb5261b	-0.08845159
91	0x3f3921af	0.7231702
92	0x3e24df7b	0.16100876
93	0x3f59a6ed	0.85020334
94	0x3e245327	0.16047345
95	0xbedc577f	-0.43035504
96	0x3e3cdfc0	0.18444729
97	0xbe2f0ab4	-0.17093927
98	0xbe16449b	-0.14674608
99	0x3ea3ffdc	0.32031143
100	0x3e060f3b	0.13091747
101	0x3ef50557	0.47855636
102	0xbee26a8e	-0.4422192
103	0xbeeb505d	-0.4595975
104	0xbcfec8e9	-0.03110166
105	0xbea2f717	-0.3182914
106	0x3e34e645	0.17665966
107	0x3edf4d96	0.4361388
108	0x3e1f2473	0.15541248
109	0xbef9d786	-0.48797244
110	0xbdbd2529	-0.09235603
111	0xbe732db6	-0.23747906
112	0xbef984d1	-0.48734143
113	0x3f45aea8	0.7721963
114	0x3dbaf8ec	0.09129509
115	0x3ed5e568	0.41776586
116	0x3c397d93	0.011321443
117	0x3f1a8aef	0.60368246
118	0xbef40e21	-0.4766703
119	0x3e8060dc	0.25073898
120	0xbe4e9b5b	-0.20176451
121	0x3ecca9dc	0.39973342
122	0xbed00b72	-0.40633732
123	0x3eb9dab7	0.3629968
124	0x3e02ed85	0.12785919
125	0x3c90cdc9	0.017676251
126	0x3ed8e44b	0.42361674
127	0x3e02b5d4	0.12764674
128	0x3e8e2057	0.27759048
129	0xbef4945d	-0.47769442
130	0x3f40a168	0.75246286
131	0xbd2bf31d	-0.041979898
132	0xbe37d7f2	-0.1795347
133	0xbee8c41e	-0.45462126
134	0x3f091c46	0.53558767
135	0xbe83666a	-0.25664073
136	0xbeeaa5a2	-0.45829493
137	0x3cb4de29	0.02207859
138	0x3e2630f9	0.16229619
139	0xbddc0a67	-0.107441716
140	0xbf3b1763	-0.7308256
141	0xbefd550c	-0.49478948
142	0x3ddb36c9	0.10703809
143	0xbe74bbd5	-0.23899777
144	0x3e22710b	0.15863435
145	0xbd1a5c9c	-0.037685975
146	0x3ede401b	0.43408284
147	0xbf059d16	-0.5219282
148	0xbf17f3dd	-0.5935648
149	0x3e44d499	0.19221725
150	0x3f018d25	0.50605994
151	0xbe415f1a	-0.18883935
152	0x3caa2b86	0.020772707
153	0x3f1bbbff	0.60833734
154	0x3d994a31	0.07484854
155	0xbeeeeb6e	-0.46663994
156	0x3c21a6e0	0.009866446
157	0x3e49b549	0.19698061
158	0x3d7ea51f	0.06216919
159	0xbf042a08	-0.51626635
160	0x3d89efc1	0.067351826
161	0xbdd2aa39	-0.10286374
162	0x3e22f7bd	0.15914817
163	0xbf26b71b	-0.65123147
164	0x3b660737	0.0035099515
165	0x3cd5182c	0.026012503
166	0xbefe13e0	-0.49624538
167	0xbf01c506	-0.5069126
168	0xbf283448	-0.65704775
169	0xbd48b357	-0.048999157
170	0xbf2a2d43	-0.66475314
171	0x3e1ea7a7	0.15493642
172	0xbda5fe37	-0.08105128
173	0xbf216d0c	-0.6305702
174	0xbb2764d8	-0.0025542285
175	0xbf48bdef	-0.78414816
176	0x3cd4f712	0.025996719
177	0x3c6a64bc	0.0143062435
178	0x3e9123f8	0.28347754
179	0x3ec6dca0	0.388402
180	0xbe4672db	-0.19379751
181	0x3ddcca30	0.10780752
182	0x3f311e98	0.6918731
183	0x3e9f946e	0.3116793
184	0xbe900be2	-0.28134066
185	0x3f1bacd6	0.608106
186	0x3e94aeb0	0.29039526
187	0x3cb9a735	0.022662738
188	0xbd9c8dd1	-0.07644237
189	0xbf0dcd64	-0.55391526
190	0xbee7e736	-0.45293587
191	0xbf1620f9	-0.5864406
192	0xbf418665	-0.75595695
193	0x3e6f113a	0.23346415
194	0x3c222c94	0.009898324
195	0xbdadc269	-0.084843464
196	0x3e40a153	0.1881154
197	0xbed92fa6	-0.42419165
198	0x3d9d5ff4	0.07684317
199	0xbeb440b8	-0.35205626
200	0x3e742384	0.23841673
201	0xbeac38c7	-0.33637068
202	0xbecdd640	-0.40202522
203	0xbf1251fc	-0.5715635
204	0xbf01ca10	-0.5069895
205	0xbda21d56	-0.07915752
206	0xbeff114f	-0.49817893
207	0xbe6c3751	-0.23067977
208	0x3ea2dbdf	0.31808373
209	0xbf0a005b	-0.5390679
210	0xbf4b99f1	-0.7953177
211	0x3e945ed5	0.289786
212	0xbd63182b	-0.05544297
213	0x3e8409a6	0.2578861
214	0xbf49e888	-0.7887044
215	0xbeab54da	-0.33463174
216	0xbabf7189	-0.001460598
217	0x3dce243a	0.100655034
218	0x3d70be86	0.058775447
219	0xbd9fa0da	-0.07794352
220	0x3f09cb19	0.5382553
221	0x3e5b4317	0.21412311
222	0x3efeef40	0.49791908
223	0xbb36ae38	-0.0027874839
224	0xbd99fcba	-0.07518907
225	0x3d09f227	0.0336782
226	0xbe8189a7	-0.25300333
227	0x3f540619	0.82821804
228	0x3c8fc9be	0.017552253
229	0xbb9b2244	-0.0047343094
230	0xbf0b9157	-0.54518646
231	0xbf230f7c	-0.636955
232	0xbd1fd3d6	-0.039020382
233	0xbf03b3e7	-0.51446384
234	0xbe04e83c	-0.12979215
235	0x3f07b567	0.53011173
236	0xbe1fd7de	-0.1560969
237	0xbec06eab	-0.37584433
238	0x3ac60e4c	0.0015110462
239	0x3ed5b7c6	0.4174177
240	0xbe95f47d	-0.29288092
241	0x3e2c6265	0.1683441
242	0x3d1a0322	0.037600644
243	0x3f0e61db	0.55618066
244	0xbe05f850	-0.13083005
245	0x3f14a47e	0.58063495
246	0xbf23da38	-0.6400485
247	0xbd79c910	-0.060982764
248	0xbf179359	-0.5920921
249	0x3f16bab7	0.58878654
250	0xbf50dc7a	-0.8158642
251	0x3f02c6d8	0.5108466
252	0x3cc987a9	0.02460082
253	0x3e82b409	0.2552798
254	0x3f1dc4c5	0.6162837
255	0x3ce5a69c	0.028033547

bias f4 [128]
0	0xbe41cb21	-0.18925144
1	0x3c7da46d	0.015481097
2	0xbd47bf88	-0.048766643
3	0x3f99034a	1.1954129
4	0xbe879378	-0.26479697
5	0xbd1b08b5	-0.0378501
6	0xbf3daeee	-0.74095047
7	0x3e2529c8	0.1612922
8	0xbdac4d1a	-0.084131435
9	0xbea36c43	-0.31918535
10	0x3ca71c01	0.020399095
11	0x3ce91cf3	0.028456187
12	0xbce2c09f	-0.02767974
13	0xbd03a166	-0.032136343
14	0x3e641263	0.22272639
15	0x3ed38ab3	0.41316757
16	0xbe8216b4	-0.25407946
17	0x3daf3e68	0.08556825
18	0xbe956190	-0.29175997
19	0x3f13875b	0.5762841
20	0x3ec81441	0.39077953
21	0xbe42d2a5	-0.19025667
22	0xbe3a95ee	-0.18221256
23	0x3e0ef6a9	0.13961281
24	0xbdbee045	-0.0932012
25	0x3e2e36b9	0.17013063
26	0xbe318b0d	-0.173382
27	0xbcd54067	-0.026031686
28	0xbd26764f	-0.04064017
29	0x3e0051b5	0.12531169
30	0xbde022c5	-0.10944132
31	0x3ed0e48c	0.40799367
32	0xbe23e9bc	-0.16007131
33	0x3d4b6413	0.049655985
34	0xbdb934d8	-0.09043282
35	0xbd40fb8b	-0.04711489
36	0xbf004d13	-0.50117606
37	0xbd3df44c	-0.046375558
38	0xbe05340e	-0.13008139
39	0xbd944292	-0.0723926
40	0xbdb7e93d	-0.089800335
41	0xbdf55fbd	-0.11981151
42	0xbd09787f	-0.03356218
43	0x3e209078	0.1568011
44	0x3db34cc6	0.08754878
45	0x3e6c0e3a	0.23052302
46	0x3cf8000b	0.030273458
47	0xbe53efaf	-0.20696901
48	0x3d9b16df	0.07572722
49	0xbcd3e6e9	-0.025866942
50	0x3c366235	0.011131813
51	0xbd53f430	-0.051746547
52	0x3e17f451	0.14839293
53	0xbe18592b	-0.14877765
54	0xbe16e54b	-0.14735906
55	0xbc8d22a2	-0.017228428
56	0x3e00b2b6	0.12568173
57	0xbc75d00e	-0.015003217
58	0x3d9eb33a	0.077490285
59	0xbd47dc14	-0.048793867
60	0xbd5f9483	-0.05458499
61	0x3e30912c	0.17242879
62	0x3e8c7f81	0.27441028
63	0xbd2f50b8	-0.04280159
64	0x3ddd1933	0.10795822
65	0x3e1ff774	0.1562174
66	0xbed09710	-0.40740252
67	0xbe82b810	-0.25531054
68	0x3d07f9b7	0.03319713
69	0xbe323721	-0.17403843
70	0xbe791329	-0.24323715
71	0xbebd249a	-0.36941987
72	0xbdd91a00	-0.10600662
73	0x3ed20085	0.4101602
74	0x3c44340b	0.011975299
75	0xbe56ff5b	-0.20995848
76	0x3cacc7a1	0.021091284
77	0xbe89f978	-0.26948142
78	0x3e618674	0.22023946
79	0x3dd1eadb	0.10249873
80	0x3d93b0d3	0.07211461
81	0x3c396860	0.011316389
82	0x3d17452a	0.036931194
83	0xbe2977ad	-0.16549559
84	0x3e329ebe	0.17443368
85	0xbd167e02	-0.036741264
86	0x3da08640	0.07838106
87	0x3e80f95d	0.2519025
88	0x3d98064b	0.07423075
89	0x3b81672c	0.0039490666
90	0x3e720d8f	0.23637985
91	0x3eae649b	0.3406113
92	0xbe107450	-0.1410687
93	0x3e5ef31d	0.21772428
94	0x3d3e3b54	0.0464433
95	0xbf29ae8e	-0.66281974
96	0xbdb7e52f	-0.0897926
97	0x3ec47980	0.38373947
98	0x3e53e22d	0.20691748
99	0xbe17fc12	-0.14842251
100	0xbd085483	-0.03328372
101	0x3cfdedc4	0.030997165
102	0x3cb982d3	0.02264539
103	0xbd33a17e	-0.043855183
104	0x3dfd7bb1	0.12377108
105	0x3ec9748d	0.39346734
106	0x3cea78f3	0.028622126
107	0x3d10dca4	0.03536667
108	0x3c0d0b99	0.008608722
109	0xbb873409	-0.004126076
110	0x3da54790	0.0807029
111	0xbf33ed81	-0.7028428
112	0xbdf41b4a	-0.119192675
113	0x3c5e9652	0.013585644
114	0x3d1a337f	0.037646767
115	0xbaf7cb09	-0.0018905114
116	0xbcbe612a	-0.02323969
117	0x3db17342	0.08664562
118	0xbdb84699	-0.089978404
119	0x3e72371c	0.23653835
120	0xbef3ff77	-0.47655842
121	0x3d7411ee	0.05958741
122	0xbd391a20	-0.04519093
123	0x3cb9cc79	0.022680508
124	0x3e3b0163	0.18262248
125	0x3d9a48a8	0.07533389
126	0x3d023626	0.03178992
127	0xbc726e84	-0.014796857
