ppo_algorithm/data/Levitation-v1_2019-03-14_19-15-51/checkpoint/save_file.pt (torch_old, 96937 bytes, 24 tensors)

net.0.weight f4 [32, 4]
000000 45 60 cc be 3d 8d 49 bf de 61 88 bf 95 6d 79 3f
       -0.39917198 -0.7873114 -1.0654867 0.97432834
000010 ca 6b 86 3e a2 fb 4a 3f c7 ea ea 3f ea ac a3 bf
       0.26254112 0.7929021 1.8352898 -1.2787144
000020 be 88 08 bf f0 86 1c bf 08 bf e7 bf 61 4f 93 3f
       -0.5333365 -0.611434 -1.8105173 1.15086
000030 ad a6 be bd 9f 89 5c bf a8 0c 58 bf 7f a8 8c 3f
       -0.09309135 -0.86147493 -0.8439431 1.0988921
000040 35 d5 62 3f 08 9f 2c 3f 97 27 83 3f f0 58 a3 bf
       0.8860658 0.6743016 1.0246457 -1.2761517
000050 07 e1 11 bf 19 4d 10 bf c3 dc 6d bf 0a 4c 88 3f
       -0.5698399 -0.5636764 -0.9291498 1.0648205
000060 40 be a3 3f 35 ec fa 3e 25 59 9a 3f 6b b6 85 bf
       1.2792435 0.49008337 1.2058455 -1.0446295
000070 c3 dd dc 3d aa c1 47 3f 46 1d cc 3f 18 93 87 bf
       0.10784485 0.7802988 1.5946434 -1.0591764
000080 3f 51 82 bf 38 ec 82 be 8c 15 a7 bf 26 f5 77 3f
       -1.0181044 -0.25570846 -1.305345 0.9685844
000090 79 d1 e4 be 7b b9 4a bf c5 f8 c3 bf b0 c6 90 3f
       -0.44691065 -0.7918927 -1.5310293 1.1310635
0000a0 01 21 b0 be a5 11 43 bf 9b 2d ca bf cb cb 94 3f
       -0.3440018 -0.761988 -1.5795168 1.1624693
0000b0 85 a7 26 40 60 e2 1d 40 89 2a 6c 40 db d4 1b 3f
       2.6039746 2.4669418 3.6900961 0.60871667
0000c0 a2 45 59 3f 29 c8 05 3f 88 2b 79 3f 2e 05 90 bf
       0.84871876 0.52258545 0.9733205 -1.1251581
0000d0 52 c7 82 bf aa ab c9 be 1c 00 63 bf 89 d2 86 3f
       -1.0217078 -0.39388782 -0.8867204 1.0533
0000e0 0c 2e 8f bf 8f 73 20 bf bc 1d a4 bf 46 42 8b 3f
       -1.1185927 -0.6267633 -1.2821574 1.08796
0000f0 2f 7b 6e 3f bd c6 a4 3e c4 09 57 3f c7 6e a1 bf
       0.93156713 0.32182875 0.83999276 -1.2611932
000100 18 7a 4a 3f 87 45 4e 3f 40 78 9b 3f cb f5 a1 bf
       0.7909255 0.8057484 1.2146072 -1.2653135
000110 f7 bc 54 bf df a3 f4 be 5d 08 d4 bf a7 42 81 3f
       -0.8310084 -0.47781274 -1.6565052 1.0098466
000120 38 17 10 be b3 6e 2e bf 4f dd 07 3d 52 21 72 3f
       -0.14071357 -0.68137664 0.03317004 0.9458209
000130 f5 ab f3 be 45 d7 30 bf 4a 1b f1 bf 5b b7 a2 3f
       -0.4759213 -0.69078475 -1.8836453 1.2712206
000140 10 22 b1 3e 87 26 2b 3f 15 0b 97 3f b5 53 5f bf
       0.345963 0.66855663 1.1800257 -0.872371
000150 13 3a cc 3e e1 a5 51 3e 58 79 d3 3e e0 a0 7a bf
       0.39888057 0.20473434 0.41303515 -0.97901726
000160 06 07 65 bf 02 f2 5d be a9 e8 5a bf 8e cf 80 3f
       -0.8946384 -0.2167435 -0.8551126 1.0063341
000170 be 97 67 bd 7d 8e d1 bd ba 6b bb 3f 89 59 1a bf
       -0.056541197 -0.102322556 1.464225 -0.6029287
000180 d8 85 75 3f 3c e6 14 3f 2f 3d 83 3f 91 b8 8e bf
       0.95907354 0.5816381 1.0253047 -1.1150075
000190 42 59 8e 3f 28 c0 09 3f de be 95 3f ce 0b 8a bf
       1.1120989 0.5380883 1.1698873 -1.0784853
0001a0 3f 99 dd be 67 d2 2e bf c8 42 d2 bf 47 93 87 3f
       -0.4328098 -0.682898 -1.642663 1.059182
0001b0 ee 74 bd be a6 80 51 bf a1 0c ac bf 96 0f 85 3f
       -0.37003273 -0.81836927 -1.3441354 1.0395381
0001c0 01 05 20 bf 42 4d 23 bf bf 07 9d bf 1d 0a 80 3f
       -0.62507635 -0.6378976 -1.2267989 1.0003086
0001d0 f7 4c 00 bf 8e 61 36 bf a6 0a e0 bf 17 88 a1 3f
       -0.5011744 -0.71242607 -1.750325 1.2619656
0001e0 f7 10 18 be 1a 25 01 bf d1 6e ca bf af 96 55 3f
       -0.14850222 -0.5044724 -1.5815068 0.8343305
0001f0 e1 e0 fd be f6 07 4f bf 38 7d c7 bf e7 b2 9b 3f
       -0.4958563 -0.8087152 -1.5585089 1.2163972

net.0.bias f4 [32]
000000 bd dc 02 bf 7b d3 d7 3e 1b ad da be e9 05 95 be
       -0.5111807 0.42153534 -0.42710194 -0.29106072
000010 76 92 46 3f f3 31 1c bf c5 85 8d 3f 51 3b fa 3e
       0.7756723 -0.61013716 1.1056448 0.4887338
000020 1c 21 83 bf d0 8f 98 be 3d ba 35 bf 40 71 20 40
       -1.0244479 -0.2979722 -0.709873 2.5069122
000030 dc 24 55 3f 01 90 35 bf c1 a7 16 bf 4c 36 89 3f
       0.8325937 -0.7092286 -0.5884972 1.0719695
000040 56 24 ca 3e f4 c7 63 bf 3c 36 97 3d ad a9 30 bf
       0.39480847 -0.8897698 0.07383391 -0.69008905
000050 d9 a1 38 3e 62 eb 05 3f 0d 04 7c bf 8e f8 10 be
       0.1803049 0.5231229 -0.9844368 -0.14157316
000060 fe c6 49 3f ea 43 3c 3f d6 82 09 bf 5c 55 a0 be
       0.78819263 0.7354113 -0.53715265 -0.31315124
000070 e8 4c 41 bf b3 dd 06 bf 4c c5 52 bf 34 ef e9 be
       -0.75507975 -0.52682036 -0.823323 -0.4569031

net.2.weight f4 [32, 32]
000000 48 d2 f7 3f 93 7f d2 bf 64 e2 76 3f a7 dd 0c 40
       1.9361048 -1.6445183 0.96439195 2.2010286
000010 ad c0 1c c0 33 b1 d9 3f 1a 8a 96 bf da 36 c1 bf
       -2.44926 1.7007202 -1.1760895 -1.5094864
000020 77 66 68 3f 1f 6f 6f 3f ab 80 33 40 ad fc d1 be
       0.9078135 0.9352893 2.8047283 -0.4101309
000030 01 e1 8b bf a7 21 06 3f 31 34 07 40 14 e7 80 bf
       -1.0928041 0.523951 2.1125605 -1.007052
000040 03 9a f6 bf 06 13 24 3f 91 78 81 3f c6 31 17 40
       -1.9265751 0.6409153 1.0114919 2.362413
000050 96 98 25 bf 35 2e 96 bf b7 4b 77 3f ca d5 85 3e
       -0.6468595 -1.1732851 0.96599907 0.2613967
000060 d6 61 a5 bf e9 e9 89 bf 87 56 fc 3f 0e b3 f1 3f
       -1.2920482 -1.0774509 1.9713906 1.8882768
000070 aa 8c d1 3f 87 9a 17 40 ea df a6 3f fa 2b 35 3f
       1.6371052 2.3688066 1.3037083 0.7077023
000080 b1 9a 54 3e dc 0d bb bf 72 61 a2 3f 51 07 d3 3f
       0.20762135 -1.4613605 1.2685988 1.6486608
000090 11 23 1e bf 34 22 27 3f f8 91 28 bf b7 a8 97 bf
       -0.6177226 0.65286565 -0.6584773 -1.1848363
0000a0 db 00 85 3f 7d 3b a6 3f a2 f0 96 3f 25 3c 93 be
       1.0390886 1.2986904 1.1792185 -0.28756824
0000b0 bc 20 ab bf 85 7a ee 3f de b8 39 3f b8 b6 13 c0
       -1.3369365 1.863114 0.7254771 -2.3080273
0000c0 84 f5 a8 bf 3a 11 31 3f 3b 80 ca 3d e4 4e ad 3f
       -1.3199925 0.6916691 0.09887739 1.35397
0000d0 c5 f0 1d bf 5f 66 95 be 00 db cd 3f 63 9b 46 3e
       -0.6169551 -0.29179665 1.6082458 0.19395213
0000e0 d3 7d 6c bf 9a d0 80 bf c5 e6 37 3f c6 06 5d 3e
       -0.9237949 -1.006366 0.718365 0.21584615
0000f0 31 24 bb bd d0 25 d5 3f c4 d5 ce 3f 8c 86 25 3f
       -0.09137762 1.6652164 1.6158986 0.6465843
000100 53 a4 cf 3f 87 74 f6 bf 5f bf b2 3f 62 a4 b4 3f
       1.6222023 -1.9254311 1.3964652 1.4112666
000110 fe b5 2f c0 3e fb 2c 40 29 6d c5 bf dc 07 dc bf
       -2.745483 2.7028346 -1.5423938 -1.7189898
000120 54 b8 9c 3f 29 14 5c 3f 21 ab 1f 40 9b 4c 1c be
       1.2243752 0.8596826 2.4948199 -0.15263598
000130 d0 3a 72 bf 7c 2c 36 3f ee 0f 0e 40 a4 b7 48 bf
       -0.9462099 0.7116163 2.2197223 -0.78405213
000140 a6 37 02 c0 3e 9c b8 3f f7 8a 63 3f 28 34 56 40
       -2.0346465 1.4422681 0.8888392 3.3469334
000150 91 2b a4 bf 22 7c 85 bf d5 fd 86 3f ea 63 f3 be
       -1.2825795 -1.0428507 1.0546213 -0.47537166
000160 d7 66 9b bf 67 66 b9 bf ea e3 17 40 db 6a be 3f
       -1.2140759 -1.4484376 2.3732858 1.487636
000170 78 73 9b 3f cc 26 43 40 28 85 84 3f da f0 14 40
       1.2144613 3.049243 1.0353136 2.3272004
000180 0c 1a dc 3e 60 21 db bc 47 67 6d be 0c 6b ac 3c
       0.42988622 -0.026749313 -0.23183928 0.021047138
000190 14 58 8d be 4a 08 4a be 43 46 c7 bd 20 9e e4 be
       -0.2760626 -0.19729725 -0.09730198 -0.4465189
0001a0 94 b8 01 bd 13 69 96 be 72 1c 3f 3b 80 7d a7 bf
       -0.031670168 -0.2937704 0.0029161242 -1.3085175
0001b0 10 37 db 3d bc 1b a0 be be 2d bd 3d 0c 46 d6 bd
       0.10703862 -0.3127116 0.0923724 -0.10462579
0001c0 54 31 59 3e 92 49 0b be 1e 3d 11 3f 90 7e 8c 3d
       0.21210223 -0.13602284 0.5673388 0.068600774
0001d0 8c 85 8e be 1c f7 81 be db 83 82 3e f0 54 bf 3e
       -0.27836263 -0.25383842 0.25491223 0.3736949
0001e0 62 9c 8f be b4 b7 64 bd a2 56 eb bc 89 a6 94 3e
       -0.28048998 -0.055839255 -0.028727833 0.29033306
0001f0 41 d7 76 be df c2 2c 3e 97 c5 2b be bf bd c8 3d
       -0.2410555 0.16871212 -0.16774593 0.09801816
000200 fb 8e a1 3f 43 e0 b5 bf 32 36 19 40 22 4a 95 3f
       1.2621759 -1.4209064 2.3939328 1.1663249
000210 a4 03 00 c0 47 7f da 3f ed 8f a2 bf f2 78 08 c0
       -2.0002222 1.7070092 -1.2700173 -2.132382
000220 60 32 93 3f 4a 4a 6c 3f 34 56 20 40 89 7d d2 bd
       1.1499748 0.92300856 2.5052614 -0.1027785
000230 e3 76 3a bf 85 4f 67 3f f4 15 11 40 1e 63 9b bf
       -0.72837657 0.9035571 2.266965 -1.2139623
000240 44 e1 ec bf 5f 1f 91 3f 70 ea 41 3f ed e2 53 40
       -1.8506246 1.1337699 0.7574835 3.3107255
000250 a5 38 ae bf da 8d b3 be a5 3c b5 3f a1 94 f7 be
       -1.3611037 -0.35069162 1.4159132 -0.48355582
000260 da 77 a0 bf fc 68 a3 bf 3a 90 36 40 2e 04 e0 3f
       -1.2536576 -1.2766414 2.852553 1.7501276
000270 0c 5f d2 3f 32 75 3f 40 b8 e0 85 3f 9b 51 34 40
       1.6435256 2.991528 1.0459204 2.8174808
000280 5d 18 c8 bf bb d5 a3 be 35 c5 bc be 76 38 96 be
       -1.5632435 -0.31999 -0.36869207 -0.2933995
000290 7e d0 e2 3f 84 e8 ac bf 38 5e 3b 40 79 db 63 3f
       1.7719877 -1.3508458 2.9276257 0.89006764
0002a0 56 62 dd bf 2b 70 11 bd 82 36 22 c0 1b b6 5e 3f
       -1.7295635 -0.035507362 -2.534577 0.8699662
0002b0 93 c8 cc 3e 7e b3 2b bd e1 16 d6 bf b0 01 9f 3e
       0.39996776 -0.041919224 -1.6725732 0.31055975
0002c0 82 5e 1e 3e 97 aa b9 bf 29 ac 44 3f fb 34 b3 bf
       0.1546574 -1.4505185 0.76825196 -1.4000543
0002d0 92 6b d6 3e 0e 32 c7 3c e4 b2 00 bf 74 44 9c bf
       0.41878945 0.02431586 -0.50272965 -1.220839
0002e0 b6 50 43 3f e5 a2 7f 3f 8f ef 0c c0 e9 28 c0 bf
       0.7629503 0.9985793 -2.2021215 -1.5012485
0002f0 cb 6e 01 c0 17 ad c2 be 04 09 fa bf 60 b6 bb bf
       -2.0223873 -0.38022682 -1.9534001 -1.4665031
000300 80 6f ca 3f 38 aa f5 be 1f 0b af 3e 1c f1 25 3f
       1.5815277 -0.4798143 0.34188172 0.6482103
000310 bf 65 03 c0 06 6b 82 3f f3 a3 18 c0 d0 dd 63 bf
       -2.053085 1.0188911 -2.3850067 -0.89010334
000320 b4 a1 d8 3f a0 8c 70 3e 05 c8 01 40 68 58 32 bf
       1.6924348 0.23491144 2.0278332 -0.6966615
000330 98 5b 4e bf 8a b6 17 be 42 5c aa 3f ca ee 5a bf
       -0.8060851 -0.14815727 1.3309405 -0.85520613
000340 68 09 b3 be 64 ec 10 40 af 6c f0 bd bf 30 9e 3f
       -0.34968114 2.2644281 -0.1173948 1.2358626
000350 09 90 00 bf ee 56 18 bf 96 30 1c 3f 5c 61 19 3f
       -0.5021978 -0.59507644 0.61011636 0.59914184
000360 60 d9 3d bf 6a 35 28 bf 15 85 f9 3f 7b bc 5e 3f
       -0.7415981 -0.65706503 1.9493738 0.8700635
000370 c4 69 03 40 46 4c eb 3e 15 5c be 3f 8c a1 cb 3f
       2.0533304 0.4595663 1.4871851 1.5908675
000380 3f 02 a3 3f 6d 03 fb bf 02 a8 03 40 c8 20 c0 3f
       1.273506 -1.961042 2.0571294 1.5010004
000390 14 c6 1c c0 eb dc 1e 40 7c e3 c8 bf 6a 62 f7 bf
       -2.4495897 2.4822338 -1.5694423 -1.9326909
0003a0 b6 17 ba 3f 08 71 23 3f 9e 3b 28 40 63 7c 12 be
       1.4538486 0.63844347 2.6286387 -0.14305262
0003b0 8f 43 15 bf c7 0e 8a 3f e2 a2 21 40 62 4e 81 bf
       -0.5830621 1.078576 2.5255666 -1.0102046
0003c0 66 73 a8 bf 67 8d 62 3f 23 44 87 3f 3a fb 53 40
       -1.3160217 0.8849701 1.0567669 3.3122087
0003d0 96 4f b1 bf 11 b8 26 bf 3e ee ba 3f 8c c4 2b bf
       -1.3852413 -0.65124613 1.4603956 -0.6709678
0003e0 03 43 92 bf a9 c1 91 bf d2 df 18 40 1f fa df 3f
       -1.14267 -1.1387225 2.388661 1.7498206
0003f0 47 5b bf 3f c1 bc 44 40 f1 5c 9e 3f 6a f7 29 40
       1.4949731 3.0740206 1.2372113 2.655726

net.2.bias f4 [32]
000000 4c 74 c3 be ae a1 9c be 68 04 e0 bd a7 9e b4 c0
       -0.38174665 -0.30592102 -0.109383404 -5.6443667
000010 01 7a f4 bd 5d 25 72 3f 56 71 97 bf 29 f5 cd 3d
       -0.11937333 0.9458826 -1.1831462 0.10056526
000020 02 bb 92 3f 33 e1 d7 3e 64 56 e8 bd da e0 54 bf
       1.146332 0.42164 -0.11344603 -0.83155596
000030 46 ae 72 bf a6 6c b3 bd 9c a1 c6 be 00 b1 2e bf
       -0.9479717 -0.087609574 -0.38795173 -0.6823883
000040 24 14 02 be da 1b 34 3e 6b 9c 94 be 5d 07 a9 3d
       -0.12702996 0.1758875 -0.29025587 0.082533576
000050 3f dc 22 be bb 4a 83 bf d4 23 34 be 48 ae 9b be
       -0.1590433 -1.0257181 -0.17591792 -0.30406404
000060 da 7f b2 3e c9 f1 8e 3d c2 bd 6c bf ff d7 27 3f
       0.34863168 0.069797106 -0.9247705 0.6556396
000070 33 57 a4 be 5e 1d b5 c0 20 02 5d bf 02 ff 99 3c
       -0.32097778 -5.659835 -0.8633137 0.018798355

out_mean.weight f4 [1, 32]
000000 bd cb 81 3f d6 c3 8d bf 54 a0 87 3f d0 0d 7d be
       1.0140301 -1.1075389 1.0595803 -0.247123
000010 71 5e 8b 3f 60 80 b2 3f 33 09 25 bf 25 5b 8f 3f
       1.0888196 1.3945427 -0.6446716 1.119969
000020 8f 07 8d 3f 66 1e 7e bf 55 14 44 bf ac dd ae bf
       1.1017932 -0.99265134 -0.76593524 -1.3661399
000030 f0 ed 39 bf cb 15 84 3f dc 7d 05 bf f7 2b 81 bf
       -0.7262869 1.0319151 -0.5214517 -1.0091542
000040 1d eb 9a bf a0 51 83 bf 53 74 3d 3f f4 18 aa 3f
       -1.2103001 -1.0259285 0.7400562 1.3288865
000050 ac 2e a8 3f a0 7c 35 bf 06 94 2b 3f 0e c9 5a 3f
       1.3139243 -0.7089329 0.6702274 0.85463035
000060 15 98 a2 bf 1e 28 94 bf 7e f2 0b 3f 49 96 61 3f
       -1.2702662 -1.1574743 0.5466689 0.8811994
000070 c0 db 48 bf 93 a6 50 be f6 07 a4 bf 52 24 b6 3f
       -0.7846031 -0.20376043 -1.281493 1.4229834

out_value.weight f4 [1, 32]
000000 51 ab f9 3c d7 1e 9d 3e a5 57 81 3d 71 33 95 3f
       0.030477198 0.3068759 0.06315545 1.1656324
000010 d3 4a cf bd f0 65 8f bb ef 20 49 bc 70 4e d9 bd
       -0.101216935 -0.0043761656 -0.012275918 -0.10610664
000020 d2 fe 9a bc 87 f8 79 b8 aa d8 9b be 3c b4 28 bc
       -0.018920336 -5.9597685e-05 -0.3043874 -0.0102968775
000030 58 90 f9 ba 79 a5 71 3b 0e 9e 50 bc 76 c6 80 3c
       -0.001904021 0.003687231 -0.012732996 0.015719634
000040 13 85 21 3e 66 d9 d8 bc 11 89 36 3e d4 e9 20 bc
       0.1577342 -0.026470851 0.17825724 -0.009821374
000050 10 97 db 3d f9 7f 0b 3a bc fe 44 ba de f1 be 3e
       0.10722172 0.00053214986 -0.0007514765 0.37293905
000060 d3 e3 57 bd 61 a4 61 3e bf eb 99 ba e5 2c 3f bb
       -0.052707504 0.22035362 -0.0011743231 -0.0029171046
000070 78 53 e7 bb f3 6d 91 3f 13 2c 94 bc 51 36 4c be
       -0.007059511 1.1361679 -0.018087422 -0.19942595

weight f4 [32, 4]
000000 45 60 cc be 3d 8d 49 bf de 61 88 bf 95 6d 79 3f
       -0.39917198 -0.7873114 -1.0654867 0.97432834
000010 ca 6b 86 3e a2 fb 4a 3f c7 ea ea 3f ea ac a3 bf
       0.26254112 0.7929021 1.8352898 -1.2787144
000020 be 88 08 bf f0 86 1c bf 08 bf e7 bf 61 4f 93 3f
       -0.5333365 -0.611434 -1.8105173 1.15086
000030 ad a6 be bd 9f 89 5c bf a8 0c 58 bf 7f a8 8c 3f
       -0.09309135 -0.86147493 -0.8439431 1.0988921
000040 35 d5 62 3f 08 9f 2c 3f 97 27 83 3f f0 58 a3 bf
       0.8860658 0.6743016 1.0246457 -1.2761517
000050 07 e1 11 bf 19 4d 10 bf c3 dc 6d bf 0a 4c 88 3f
       -0.5698399 -0.5636764 -0.9291498 1.0648205
000060 40 be a3 3f 35 ec fa 3e 25 59 9a 3f 6b b6 85 bf
       1.2792435 0.49008337 1.2058455 -1.0446295
000070 c3 dd dc 3d aa c1 47 3f 46 1d cc 3f 18 93 87 bf
       0.10784485 0.7802988 1.5946434 -1.0591764
000080 3f 51 82 bf 38 ec 82 be 8c 15 a7 bf 26 f5 77 3f
       -1.0181044 -0.25570846 -1.305345 0.9685844
000090 79 d1 e4 be 7b b9 4a bf c5 f8 c3 bf b0 c6 90 3f
       -0.44691065 -0.7918927 -1.5310293 1.1310635
0000a0 01 21 b0 be a5 11 43 bf 9b 2d ca bf cb cb 94 3f
       -0.3440018 -0.761988 -1.5795168 1.1624693
0000b0 85 a7 26 40 60 e2 1d 40 89 2a 6c 40 db d4 1b 3f
       2.6039746 2.4669418 3.6900961 0.60871667
0000c0 a2 45 59 3f 29 c8 05 3f 88 2b 79 3f 2e 05 90 bf
       0.84871876 0.52258545 0.9733205 -1.1251581
0000d0 52 c7 82 bf aa ab c9 be 1c 00 63 bf 89 d2 86 3f
       -1.0217078 -0.39388782 -0.8867204 1.0533
0000e0 0c 2e 8f bf 8f 73 20 bf bc 1d a4 bf 46 42 8b 3f
       -1.1185927 -0.6267633 -1.2821574 1.08796
0000f0 2f 7b 6e 3f bd c6 a4 3e c4 09 57 3f c7 6e a1 bf
       0.93156713 0.32182875 0.83999276 -1.2611932
000100 18 7a 4a 3f 87 45 4e 3f 40 78 9b 3f cb f5 a1 bf
       0.7909255 0.8057484 1.2146072 -1.2653135
000110 f7 bc 54 bf df a3 f4 be 5d 08 d4 bf a7 42 81 3f
       -0.8310084 -0.47781274 -1.6565052 1.0098466
000120 38 17 10 be b3 6e 2e bf 4f dd 07 3d 52 21 72 3f
       -0.14071357 -0.68137664 0.03317004 0.9458209
000130 f5 ab f3 be 45 d7 30 bf 4a 1b f1 bf 5b b7 a2 3f
       -0.4759213 -0.69078475 -1.8836453 1.2712206
000140 10 22 b1 3e 87 26 2b 3f 15 0b 97 3f b5 53 5f bf
       0.345963 0.66855663 1.1800257 -0.872371
000150 13 3a cc 3e e1 a5 51 3e 58 79 d3 3e e0 a0 7a bf
       0.39888057 0.20473434 0.41303515 -0.97901726
000160 06 07 65 bf 02 f2 5d be a9 e8 5a bf 8e cf 80 3f
       -0.8946384 -0.2167435 -0.8551126 1.0063341
000170 be 97 67 bd 7d 8e d1 bd ba 6b bb 3f 89 59 1a bf
       -0.056541197 -0.102322556 1.464225 -0.6029287
000180 d8 85 75 3f 3c e6 14 3f 2f 3d 83 3f 91 b8 8e bf
       0.95907354 0.5816381 1.0253047 -1.1150075
000190 42 59 8e 3f 28 c0 09 3f de be 95 3f ce 0b 8a bf
       1.1120989 0.5380883 1.1698873 -1.0784853
0001a0 3f 99 dd be 67 d2 2e bf c8 42 d2 bf 47 93 87 3f
       -0.4328098 -0.682898 -1.642663 1.059182
0001b0 ee 74 bd be a6 80 51 bf a1 0c ac bf 96 0f 85 3f
       -0.37003273 -0.81836927 -1.3441354 1.0395381
0001c0 01 05 20 bf 42 4d 23 bf bf 07 9d bf 1d 0a 80 3f
       -0.62507635 -0.6378976 -1.2267989 1.0003086
0001d0 f7 4c 00 bf 8e 61 36 bf a6 0a e0 bf 17 88 a1 3f
       -0.5011744 -0.71242607 -1.750325 1.2619656
0001e0 f7 10 18 be 1a 25 01 bf d1 6e ca bf af 96 55 3f
       -0.14850222 -0.5044724 -1.5815068 0.8343305
0001f0 e1 e0 fd be f6 07 4f bf 38 7d c7 bf e7 b2 9b 3f
       -0.4958563 -0.8087152 -1.5585089 1.2163972

bias f4 [32]
000000 bd dc 02 bf 7b d3 d7 3e 1b ad da be e9 05 95 be
       -0.5111807 0.42153534 -0.42710194 -0.29106072
000010 76 92 46 3f f3 31 1c bf c5 85 8d 3f 51 3b fa 3e
       0.7756723 -0.61013716 1.1056448 0.4887338
000020 1c 21 83 bf d0 8f 98 be 3d ba 35 bf 40 71 20 40
       -1.0244479 -0.2979722 -0.709873 2.5069122
000030 dc 24 55 3f 01 90 35 bf c1 a7 16 bf 4c 36 89 3f
       0.8325937 -0.7092286 -0.5884972 1.0719695
000040 56 24 ca 3e f4 c7 63 bf 3c 36 97 3d ad a9 30 bf
       0.39480847 -0.8897698 0.07383391 -0.69008905
000050 d9 a1 38 3e 62 eb 05 3f 0d 04 7c bf 8e f8 10 be
       0.1803049 0.5231229 -0.9844368 -0.14157316
000060 fe c6 49 3f ea 43 3c 3f d6 82 09 bf 5c 55 a0 be
       0.78819263 0.7354113 -0.53715265 -0.31315124
000070 e8 4c 41 bf b3 dd 06 bf 4c c5 52 bf 34 ef e9 be
       -0.75507975 -0.52682036 -0.823323 -0.4569031

weight f4 [32, 32]
000000 48 d2 f7 3f 93 7f d2 bf 64 e2 76 3f a7 dd 0c 40
       1.9361048 -1.6445183 0.96439195 2.2010286
000010 ad c0 1c c0 33 b1 d9 3f 1a 8a 96 bf da 36 c1 bf
       -2.44926 1.7007202 -1.1760895 -1.5094864
000020 77 66 68 3f 1f 6f 6f 3f ab 80 33 40 ad fc d1 be
       0.9078135 0.9352893 2.8047283 -0.4101309
000030 01 e1 8b bf a7 21 06 3f 31 34 07 40 14 e7 80 bf
       -1.0928041 0.523951 2.1125605 -1.007052
000040 03 9a f6 bf 06 13 24 3f 91 78 81 3f c6 31 17 40
       -1.9265751 0.6409153 1.0114919 2.362413
000050 96 98 25 bf 35 2e 96 bf b7 4b 77 3f ca d5 85 3e
       -0.6468595 -1.1732851 0.96599907 0.2613967
000060 d6 61 a5 bf e9 e9 89 bf 87 56 fc 3f 0e b3 f1 3f
       -1.2920482 -1.0774509 1.9713906 1.8882768
000070 aa 8c d1 3f 87 9a 17 40 ea df a6 3f fa 2b 35 3f
       1.6371052 2.3688066 1.3037083 0.7077023
000080 b1 9a 54 3e dc 0d bb bf 72 61 a2 3f 51 07 d3 3f
       0.20762135 -1.4613605 1.2685988 1.6486608
000090 11 23 1e bf 34 22 27 3f f8 91 28 bf b7 a8 97 bf
       -0.6177226 0.65286565 -0.6584773 -1.1848363
0000a0 db 00 85 3f 7d 3b a6 3f a2 f0 96 3f 25 3c 93 be
       1.0390886 1.2986904 1.1792185 -0.28756824
0000b0 bc 20 ab bf 85 7a ee 3f de b8 39 3f b8 b6 13 c0
       -1.3369365 1.863114 0.7254771 -2.3080273
0000c0 84 f5 a8 bf 3a 11 31 3f 3b 80 ca 3d e4 4e ad 3f
       -1.3199925 0.6916691 0.09887739 1.35397
0000d0 c5 f0 1d bf 5f 66 95 be 00 db cd 3f 63 9b 46 3e
       -0.6169551 -0.29179665 1.6082458 0.19395213
0000e0 d3 7d 6c bf 9a d0 80 bf c5 e6 37 3f c6 06 5d 3e
       -0.9237949 -1.006366 0.718365 0.21584615
0000f0 31 24 bb bd d0 25 d5 3f c4 d5 ce 3f 8c 86 25 3f
       -0.09137762 1.6652164 1.6158986 0.6465843
000100 53 a4 cf 3f 87 74 f6 bf 5f bf b2 3f 62 a4 b4 3f
       1.6222023 -1.9254311 1.3964652 1.4112666
000110 fe b5 2f c0 3e fb 2c 40 29 6d c5 bf dc 07 dc bf
       -2.745483 2.7028346 -1.5423938 -1.7189898
000120 54 b8 9c 3f 29 14 5c 3f 21 ab 1f 40 9b 4c 1c be
       1.2243752 0.8596826 2.4948199 -0.15263598
000130 d0 3a 72 bf 7c 2c 36 3f ee 0f 0e 40 a4 b7 48 bf
       -0.9462099 0.7116163 2.2197223 -0.78405213
000140 a6 37 02 c0 3e 9c b8 3f f7 8a 63 3f 28 34 56 40
       -2.0346465 1.4422681 0.8888392 3.3469334
000150 91 2b a4 bf 22 7c 85 bf d5 fd 86 3f ea 63 f3 be
       -1.2825795 -1.0428507 1.0546213 -0.47537166
000160 d7 66 9b bf 67 66 b9 bf ea e3 17 40 db 6a be 3f
       -1.2140759 -1.4484376 2.3732858 1.487636
000170 78 73 9b 3f cc 26 43 40 28 85 84 3f da f0 14 40
       1.2144613 3.049243 1.0353136 2.3272004
000180 0c 1a dc 3e 60 21 db bc 47 67 6d be 0c 6b ac 3c
       0.42988622 -0.026749313 -0.23183928 0.021047138
000190 14 58 8d be 4a 08 4a be 43 46 c7 bd 20 9e e4 be
       -0.2760626 -0.19729725 -0.09730198 -0.4465189
0001a0 94 b8 01 bd 13 69 96 be 72 1c 3f 3b 80 7d a7 bf
       -0.031670168 -0.2937704 0.0029161242 -1.3085175
0001b0 10 37 db 3d bc 1b a0 be be 2d bd 3d 0c 46 d6 bd
       0.10703862 -0.3127116 0.0923724 -0.10462579
0001c0 54 31 59 3e 92 49 0b be 1e 3d 11 3f 90 7e 8c 3d
       0.21210223 -0.13602284 0.5673388 0.068600774
0001d0 8c 85 8e be 1c f7 81 be db 83 82 3e f0 54 bf 3e
       -0.27836263 -0.25383842 0.25491223 0.3736949
0001e0 62 9c 8f be b4 b7 64 bd a2 56 eb bc 89 a6 94 3e
       -0.28048998 -0.055839255 -0.028727833 0.29033306
0001f0 41 d7 76 be df c2 2c 3e 97 c5 2b be bf bd c8 3d
       -0.2410555 0.16871212 -0.16774593 0.09801816
000200 fb 8e a1 3f 43 e0 b5 bf 32 36 19 40 22 4a 95 3f
       1.2621759 -1.4209064 2.3939328 1.1663249
000210 a4 03 00 c0 47 7f da 3f ed 8f a2 bf f2 78 08 c0
       -2.0002222 1.7070092 -1.2700173 -2.132382
000220 60 32 93 3f 4a 4a 6c 3f 34 56 20 40 89 7d d2 bd
       1.1499748 0.92300856 2.5052614 -0.1027785
000230 e3 76 3a bf 85 4f 67 3f f4 15 11 40 1e 63 9b bf
       -0.72837657 0.9035571 2.266965 -1.2139623
000240 44 e1 ec bf 5f 1f 91 3f 70 ea 41 3f ed e2 53 40
       -1.8506246 1.1337699 0.7574835 3.3107255
000250 a5 38 ae bf da 8d b3 be a5 3c b5 3f a1 94 f7 be
       -1.3611037 -0.35069162 1.4159132 -0.48355582
000260 da 77 a0 bf fc 68 a3 bf 3a 90 36 40 2e 04 e0 3f
       -1.2536576 -1.2766414 2.852553 1.7501276
000270 0c 5f d2 3f 32 75 3f 40 b8 e0 85 3f 9b 51 34 40
       1.6435256 2.991528 1.0459204 2.8174808
000280 5d 18 c8 bf bb d5 a3 be 35 c5 bc be 76 38 96 be
       -1.5632435 -0.31999 -0.36869207 -0.2933995
000290 7e d0 e2 3f 84 e8 ac bf 38 5e 3b 40 79 db 63 3f
       1.7719877 -1.3508458 2.9276257 0.89006764
0002a0 56 62 dd bf 2b 70 11 bd 82 36 22 c0 1b b6 5e 3f
       -1.7295635 -0.035507362 -2.534577 0.8699662
0002b0 93 c8 cc 3e 7e b3 2b bd e1 16 d6 bf b0 01 9f 3e
       0.39996776 -0.041919224 -1.6725732 0.31055975
0002c0 82 5e 1e 3e 97 aa b9 bf 29 ac 44 3f fb 34 b3 bf
       0.1546574 -1.4505185 0.76825196 -1.4000543
0002d0 92 6b d6 3e 0e 32 c7 3c e4 b2 00 bf 74 44 9c bf
       0.41878945 0.02431586 -0.50272965 -1.220839
0002e0 b6 50 43 3f e5 a2 7f 3f 8f ef 0c c0 e9 28 c0 bf
       0.7629503 0.9985793 -2.2021215 -1.5012485
0002f0 cb 6e 01 c0 17 ad c2 be 04 09 fa bf 60 b6 bb bf
       -2.0223873 -0.38022682 -1.9534001 -1.4665031
000300 80 6f ca 3f 38 aa f5 be 1f 0b af 3e 1c f1 25 3f
       1.5815277 -0.4798143 0.34188172 0.6482103
000310 bf 65 03 c0 06 6b 82 3f f3 a3 18 c0 d0 dd 63 bf
       -2.053085 1.0188911 -2.3850067 -0.89010334
000320 b4 a1 d8 3f a0 8c 70 3e 05 c8 01 40 68 58 32 bf
       1.6924348 0.23491144 2.0278332 -0.6966615
000330 98 5b 4e bf 8a b6 17 be 42 5c aa 3f ca ee 5a bf
       -0.8060851 -0.14815727 1.3309405 -0.85520613
000340 68 09 b3 be 64 ec 10 40 af 6c f0 bd bf 30 9e 3f
       -0.34968114 2.2644281 -0.1173948 1.2358626
000350 09 90 00 bf ee 56 18 bf 96 30 1c 3f 5c 61 19 3f
       -0.5021978 -0.59507644 0.61011636 0.59914184
000360 60 d9 3d bf 6a 35 28 bf 15 85 f9 3f 7b bc 5e 3f
       -0.7415981 -0.65706503 1.9493738 0.8700635
000370 c4 69 03 40 46 4c eb 3e 15 5c be 3f 8c a1 cb 3f
       2.0533304 0.4595663 1.4871851 1.5908675
000380 3f 02 a3 3f 6d 03 fb bf 02 a8 03 40 c8 20 c0 3f
       1.273506 -1.961042 2.0571294 1.5010004
000390 14 c6 1c c0 eb dc 1e 40 7c e3 c8 bf 6a 62 f7 bf
       -2.4495897 2.4822338 -1.5694423 -1.9326909
0003a0 b6 17 ba 3f 08 71 23 3f 9e 3b 28 40 63 7c 12 be
       1.4538486 0.63844347 2.6286387 -0.14305262
0003b0 8f 43 15 bf c7 0e 8a 3f e2 a2 21 40 62 4e 81 bf
       -0.5830621 1.078576 2.5255666 -1.0102046
0003c0 66 73 a8 bf 67 8d 62 3f 23 44 87 3f 3a fb 53 40
       -1.3160217 0.8849701 1.0567669 3.3122087
0003d0 96 4f b1 bf 11 b8 26 bf 3e ee ba 3f 8c c4 2b bf
       -1.3852413 -0.65124613 1.4603956 -0.6709678
0003e0 03 43 92 bf a9 c1 91 bf d2 df 18 40 1f fa df 3f
       -1.14267 -1.1387225 2.388661 1.7498206
0003f0 47 5b bf 3f c1 bc 44 40 f1 5c 9e 3f 6a f7 29 40
       1.4949731 3.0740206 1.2372113 2.655726

bias f4 [32]
000000 4c 74 c3 be ae a1 9c be 68 04 e0 bd a7 9e b4 c0
       -0.38174665 -0.30592102 -0.109383404 -5.6443667
000010 01 7a f4 bd 5d 25 72 3f 56 71 97 bf 29 f5 cd 3d
       -0.11937333 0.9458826 -1.1831462 0.10056526
000020 02 bb 92 3f 33 e1 d7 3e 64 56 e8 bd da e0 54 bf
       1.146332 0.42164 -0.11344603 -0.83155596
000030 46 ae 72 bf a6 6c b3 bd 9c a1 c6 be 00 b1 2e bf
       -0.9479717 -0.087609574 -0.38795173 -0.6823883
000040 24 14 02 be da 1b 34 3e 6b 9c 94 be 5d 07 a9 3d
       -0.12702996 0.1758875 -0.29025587 0.082533576
000050 3f dc 22 be bb 4a 83 bf d4 23 34 be 48 ae 9b be
       -0.1590433 -1.0257181 -0.17591792 -0.30406404
000060 da 7f b2 3e c9 f1 8e 3d c2 bd 6c bf ff d7 27 3f
       0.34863168 0.069797106 -0.9247705 0.6556396
000070 33 57 a4 be 5e 1d b5 c0 20 02 5d bf 02 ff 99 3c
       -0.32097778 -5.659835 -0.8633137 0.018798355

weight f4 [1, 32]
000000 bd cb 81 3f d6 c3 8d bf 54 a0 87 3f d0 0d 7d be
       1.0140301 -1.1075389 1.0595803 -0.247123
000010 71 5e 8b 3f 60 80 b2 3f 33 09 25 bf 25 5b 8f 3f
       1.0888196 1.3945427 -0.6446716 1.119969
000020 8f 07 8d 3f 66 1e 7e bf 55 14 44 bf ac dd ae bf
       1.1017932 -0.99265134 -0.76593524 -1.3661399
000030 f0 ed 39 bf cb 15 84 3f dc 7d 05 bf f7 2b 81 bf
       -0.7262869 1.0319151 -0.5214517 -1.0091542
000040 1d eb 9a bf a0 51 83 bf 53 74 3d 3f f4 18 aa 3f
       -1.2103001 -1.0259285 0.7400562 1.3288865
000050 ac 2e a8 3f a0 7c 35 bf 06 94 2b 3f 0e c9 5a 3f
       1.3139243 -0.7089329 0.6702274 0.85463035
000060 15 98 a2 bf 1e 28 94 bf 7e f2 0b 3f 49 96 61 3f
       -1.2702662 -1.1574743 0.5466689 0.8811994
000070 c0 db 48 bf 93 a6 50 be f6 07 a4 bf 52 24 b6 3f
       -0.7846031 -0.20376043 -1.281493 1.4229834

weight f4 [1, 32]
000000 51 ab f9 3c d7 1e 9d 3e a5 57 81 3d 71 33 95 3f
       0.030477198 0.3068759 0.06315545 1.1656324
000010 d3 4a cf bd f0 65 8f bb ef 20 49 bc 70 4e d9 bd
       -0.101216935 -0.0043761656 -0.012275918 -0.10610664
000020 d2 fe 9a bc 87 f8 79 b8 aa d8 9b be 3c b4 28 bc
       -0.018920336 -5.9597685e-05 -0.3043874 -0.0102968775
000030 58 90 f9 ba 79 a5 71 3b 0e 9e 50 bc 76 c6 80 3c
       -0.001904021 0.003687231 -0.012732996 0.015719634
000040 13 85 21 3e 66 d9 d8 bc 11 89 36 3e d4 e9 20 bc
       0.1577342 -0.026470851 0.17825724 -0.009821374
000050 10 97 db 3d f9 7f 0b 3a bc fe 44 ba de f1 be 3e
       0.10722172 0.00053214986 -0.0007514765 0.37293905
000060 d3 e3 57 bd 61 a4 61 3e bf eb 99 ba e5 2c 3f bb
       -0.052707504 0.22035362 -0.0011743231 -0.0029171046
000070 78 53 e7 bb f3 6d 91 3f 13 2c 94 bc 51 36 4c be
       -0.007059511 1.1361679 -0.018087422 -0.19942595

exp_avg f4 [32, 4]
000000 86 31 2d b8 96 6e 41 bb 03 4e 7b 39 bb 54 6e bb
       -4.1292536e-05 -0.0029515377 0.00023966287 -0.0036366421
000010 04 1d 1a 37 cd 94 2c 3a 03 eb 2b b8 f8 5e 5b 3a
       9.185871e-06 0.00065834523 -4.098845e-05 0.00083683385
000020 29 2e 39 b7 21 22 4f ba 3f 14 b3 38 bd e0 78 ba
       -1.1037607e-05 -0.0007901509 8.539156e-05 -0.0009493938
000030 3b e9 96 b7 1f ad a8 ba 9b 09 c6 38 19 da d2 ba
       -1.799e-05 -0.0012868977 9.443165e-05 -0.0016086727
000040 4e 38 46 38 02 6b 5d 3b 5f 42 86 b9 e6 69 89 3b
       4.7259316e-05 0.0033785705 -0.00025607922 0.0041935323
000050 21 0e 03 b8 e8 6f 12 bb 56 2a 3e 39 b5 81 34 bb
       -3.1245992e-05 -0.0022344533 0.00018135583 -0.0027543132
000060 ad 15 92 38 a8 14 a3 3b cd 01 ea b9 9d fd c6 3b
       6.96586e-05 0.0049768277 -0.000446333 0.0060727135
000070 e7 75 24 38 0c b3 37 3b 93 04 81 b9 a0 e0 61 3b
       3.9210452e-05 0.0028030304 -0.00024608205 0.0034466162
000080 90 92 f2 b7 f6 70 07 bb 03 31 72 39 7b b6 1e bb
       -2.8916897e-05 -0.0020666695 0.00023097177 -0.0024217654
000090 1a aa 10 b7 30 c5 21 ba 47 6d 55 38 4d 37 49 ba
       -8.622674e-06 -0.0006171046 5.088493e-05 -0.0007675782
0000a0 b0 bb 8b b8 c8 0c 9c bb 14 c0 dc 39 7b ee be bb
       -6.662996e-05 -0.004762266 0.0004210478 -0.005826769
0000b0 15 ad 57 30 28 27 70 33 08 83 92 2f 19 b1 92 33
       7.846251e-10 5.5914967e-08 2.6650349e-10 6.830869e-08
0000c0 c2 bc b7 37 6f 32 cd 3a 35 ac 01 b9 12 19 fc 3a
       2.1903197e-05 0.0015655289 -0.00012366551 0.0019233546
0000d0 9b 1a a2 b6 cc 8e b5 b9 9a 61 14 38 70 ce d6 b9
       -4.8310735e-06 -0.00034629402 3.537685e-05 -0.0004097107
0000e0 5d d7 08 b8 83 e8 18 bb 6b a8 52 39 7d 61 3b bb
       -3.26255e-05 -0.0023331947 0.00020089901 -0.0028592043
0000f0 95 60 aa 37 8f 52 be 3a d1 1f e4 b8 49 ca ea 3a
       2.0310554e-05 0.0014520454 -0.000108778135 0.0017913069
000100 26 20 ff 36 a1 de 0e 3a c9 bb 2e b8 44 0b 33 3a
       7.603335e-06 0.00054500444 -4.165972e-05 0.0006829987
000110 52 fa 42 b8 80 b0 59 bb 0d 49 84 39 32 5d 86 bb
       -4.6486333e-05 -0.0033216774 0.0002523143 -0.004100465
000120 87 41 6b 37 6d 25 83 3a 47 85 9a b8 4d 45 a4 3a
       1.4022348e-05 0.0010005661 -7.368117e-05 0.001253286
000130 7d fd 44 b8 9a 18 5c bb 03 14 a7 39 e7 6d 86 bb
       -4.696612e-05 -0.0033584 0.00031867632 -0.004102457
000140 09 28 a5 37 bb 83 b8 3a 54 42 c5 b8 f5 40 e8 3a
       1.9688176e-05 0.0014077345 -9.4060466e-05 0.0017719554
000150 24 21 73 b7 84 84 87 ba 5c fa 88 38 e1 c2 ac ba
       -1.4491645e-05 -0.0010339175 6.5316184e-05 -0.0013180637
000160 06 87 29 b7 03 81 3d ba 77 98 a6 38 7a d9 59 ba
       -1.0104623e-05 -0.0007229002 7.9438956e-05 -0.00083102996
000170 25 4a 56 b7 75 0b 6f ba e0 c2 d9 38 e3 cb 8f ba
       -1.2772657e-05 -0.00091188337 0.000103836646 -0.0010970797
000180 08 d8 d4 37 4b bd ed 3a da d2 20 b9 65 58 11 3b
       2.5372967e-05 0.0018138079 -0.00015337337 0.0022177931
000190 6f f9 6e 37 5c 8a 85 3a 53 c9 be b8 5d 95 a1 3a
       1.4243981e-05 0.0010188329 -9.0974056e-05 0.0012327839
0001a0 40 87 57 b8 f3 ba 70 bb 20 5f b4 39 6f 55 92 bb
       -5.1385956e-05 -0.0036732524 0.0003440315 -0.004465751
0001b0 2d 28 02 b8 ad 66 11 bb c9 d0 57 39 a6 c6 30 bb
       -3.1031832e-05 -0.0022186444 0.00020581776 -0.0026973872
0001c0 5c 68 6c b8 91 fc 83 bb 10 3c af 39 f1 53 a2 bb
       -5.6363977e-05 -0.004027911 0.0003342335 -0.0049538543
0001d0 1e 24 d8 b7 67 b1 f1 ba 16 93 2a 39 f4 9c 14 bb
       -2.5766025e-05 -0.0018439711 0.00016267257 -0.002267656
0001e0 b4 0c 96 b8 28 80 a7 bb 90 57 df 39 ef bf cd bb
       -7.1549235e-05 -0.005111713 0.00042599114 -0.006278984
0001f0 de a7 10 b8 06 a0 21 bb ff 80 5d 39 75 15 47 bb
       -3.4488614e-05 -0.0024662032 0.00021124257 -0.003037778

exp_avg_sq f4 [32, 4]
000000 0a fb 49 33 c4 6e 75 39 e9 ba 16 36 53 83 cf 39
       4.7027278e-08 0.00023406284 2.2460538e-06 0.0003957996
000010 34 30 e0 32 26 2f 09 39 35 88 9e 35 43 e9 58 39
       2.6098952e-08 0.00013082902 1.1811559e-06 0.00020686262
000020 23 04 9e 32 66 af c0 38 be 4e 6e 35 a6 3f 19 39
       1.8395502e-08 9.187944e-05 8.8776494e-07 0.00014614928
000030 6c 53 c2 32 33 52 ee 38 b2 db 8a 35 af 14 3e 39
       2.2622508e-08 0.00011364035 1.0345741e-06 0.00018127517
000040 cf 3c 89 33 e3 e5 a6 39 8e 77 43 36 02 17 0a 3a
       6.390621e-08 0.00031833266 2.9126854e-06 0.00052677107
000050 c3 6a 49 33 d8 1e 76 39 38 19 0f 36 ee da c6 39
       4.689606e-08 0.00023471878 2.132334e-06 0.00037928618
000060 c2 8c 92 33 e8 5c b1 39 17 39 5e 36 56 3b 23 3a
       6.8242585e-08 0.0003382929 3.3113809e-06 0.0006226798
000070 aa 4c 3a 33 ad 8f 62 39 a4 60 0c 36 25 bb c1 39
       4.3376225e-08 0.00021606563 2.0917878e-06 0.00036951262
000080 75 71 2b 33 79 12 4d 39 c1 ce e9 35 b7 b9 b6 39
       3.991723e-08 0.00019557205 1.7420026e-06 0.00034852113
000090 8c f9 1f 32 aa 3a 42 38 fa 79 c8 34 49 63 9a 38
       9.3117585e-09 4.630784e-05 3.7341653e-07 7.3617855e-05
0000a0 2d 55 cf 33 8b a0 fb 39 1c 56 9b 36 eb e8 5a 3a
       9.654682e-08 0.00047994065 4.6293844e-06 0.00083507475
0000b0 59 87 3e 26 94 77 9e 2a 85 0b 89 28 88 35 5a 2c
       6.610292e-16 2.8149412e-13 1.5215051e-14 3.100938e-12
0000c0 82 f6 34 33 ea 5b 59 39 76 f0 d9 35 45 20 b6 39
       4.2133713e-08 0.00020728973 1.6237743e-06 0.00034737788
0000d0 7d 25 c6 32 f2 00 ef 38 b5 56 55 35 e8 fc 40 39
       2.3067281e-08 0.00011396584 7.947486e-07 0.00018404762
0000e0 c4 01 60 33 23 3f 88 39 89 0c 1c 36 9f b1 dd 39
       5.215567e-08 0.00025986982 2.3253108e-06 0.00042284743
0000f0 c6 05 a8 33 d2 35 ca 39 ac e4 3e 36 43 51 27 3a
       7.82416e-08 0.00038568542 2.844531e-06 0.00063826534
000100 47 04 b1 32 2f ab d9 38 be a8 6a 35 d1 25 29 39
       2.0607457e-08 0.00010379252 8.7417345e-07 0.00016131184
000110 c0 9c 18 33 8c a1 37 39 e8 6b ef 35 90 a2 a3 39
       3.553282e-08 0.00017512421 1.7838292e-06 0.000312109
000120 a9 99 59 32 9b cd 84 38 ce c0 f4 34 1a 4a ce 38
       1.2666001e-08 6.3325475e-05 4.5588826e-07 9.836648e-05
000130 d7 1d fa 33 b4 61 18 3a f1 9c b5 36 6d 14 7d 3a
       1.164696e-07 0.0005812899 5.4124907e-06 0.0009654228
000140 85 c2 90 32 00 f4 b1 38 ce c1 4d 35 22 77 0b 39
       1.6852264e-08 8.485466e-05 7.6650474e-07 0.00013300453
000150 8d 08 cc 31 66 bd fb 37 06 7d 83 34 8b 5c 4b 38
       5.9381535e-09 3.0009727e-05 2.4491618e-07 4.848516e-05
000160 5d b8 e4 32 3d 04 09 39 d2 9c 8e 35 a0 91 68 39
       2.6626532e-08 0.00013066917 1.0625465e-06 0.00022179494
000170 f1 54 2c 31 95 6f 53 37 3a 1c 0e 34 09 ff cf 37
       2.5077578e-09 1.260256e-05 1.323505e-07 2.4795083e-05
000180 53 c5 c2 32 76 bc e9 38 85 df 8f 35 7a 92 48 39
       2.2674305e-08 0.000111454094 1.0719383e-06 0.00019128053
000190 d0 ab 53 32 d8 27 80 38 d3 40 0e 35 ac 68 d3 38
       1.2320882e-08 6.110937e-05 5.2993454e-07 0.00010080761
0001a0 5b 9a b1 33 89 49 d8 39 56 9e 84 36 dc b9 35 3a
       8.270282e-08 0.00041253518 3.9523393e-06 0.0006932297
0001b0 9b 31 2f 33 99 5d 56 39 47 90 f6 35 4d 78 ad 39
       4.079048e-08 0.00020443498 1.8370419e-06 0.00033086762
0001c0 e5 67 76 33 f7 9a 94 39 9b 12 3c 36 de e9 01 3a
       5.737083e-08 0.00028344218 2.8025013e-06 0.00049558084
0001d0 13 bb a5 33 f3 b0 ca 39 b3 51 6c 36 97 71 22 3a
       7.71744e-08 0.0003866028 3.5214296e-06 0.0006196736
0001e0 f4 5c db 33 c8 97 03 3a e6 ff 9b 36 cb 28 6c 3a
       1.021489e-07 0.00050198706 4.6491505e-06 0.0009008764
0001f0 7d 69 68 33 3c 5f 8e 39 b3 80 29 36 e8 a1 e7 39
       5.411265e-08 0.00027155306 2.5257875e-06 0.00044180383

exp_avg f4 [32]
000000 d6 4b 41 bb 61 00 2c 3a ab ac 4e ba 72 6d a8 ba
       -0.0029494665 0.0006561336 -0.0007884006 -0.001285
000010 3e 3a 5d 3b 55 44 12 bb 79 0a a3 3b bc 8c 37 3b
       0.003375664 -0.002231856 0.0049756137 0.0028007468
000020 34 5d 07 bb b5 74 21 ba c2 f3 9b bb bc b5 70 33
       -0.0020654919 -0.00061590533 -0.004759283 5.604464e-08
000030 61 10 cd 3a 66 eb b4 b9 81 b9 18 bb 37 27 be 3a
       0.001564514 -0.0003450766 -0.0023303928 0.0014507537
000040 81 5e 0e 3a f4 9b 59 bb fd 47 83 3a e8 da 5b bb
       0.00054309523 -0.0033204528 0.0010015961 -0.0033547226
000050 8d 53 b8 3a c8 ac 87 ba 69 34 3d ba 9b 29 6f ba
       0.0014062986 -0.0010351175 -0.00072175876 -0.0009123326
000060 87 8c ed 3a 32 5b 85 3a 83 8b 70 bb b2 43 11 bb
       0.0018123545 0.0010174273 -0.003670425 -0.0022165594
000070 85 ec 83 bb 95 3a f1 ba 52 77 a7 bb 35 72 21 bb
       -0.004025998 -0.00184043 -0.0051106596 -0.0024634723

exp_avg_sq f4 [32]
000000 1c 97 7b 39 38 a0 0b 39 cb d3 c4 38 0e 0e f2 38
       0.00023993518 0.00013315759 9.385458e-05 0.00011542077
000010 fe f1 aa 39 46 e3 7a 39 78 8b b6 39 c2 0e 68 39
       0.00032605225 0.00023926524 0.00034817657 0.00022130742
000020 59 8d 55 39 5f 44 47 38 d6 20 01 3a 4a 53 6d 2c
       0.00020365919 4.7508973e-05 0.00049258524 3.372596e-12
000030 0c 69 61 39 7d d0 f6 38 62 83 8b 39 a1 4a d1 39
       0.00021496805 0.00011769028 0.00026610034 0.0003991919
000040 ad 7e dc 38 b8 18 3e 39 ee 85 87 38 47 c6 1b 3a
       0.00010514013 0.0001812902 6.462248e-05 0.00059423264
000050 b2 50 b4 38 a1 25 fe 37 d8 72 0e 39 c0 a8 56 37
       8.5980995e-05 3.0296682e-05 0.00013584958 1.2794684e-05
000060 15 9c f2 38 9e d4 83 38 9c 39 dd 39 4d 39 5a 39
       0.00011568532 6.28617e-05 0.00042195327 0.00020811446
000070 aa 76 99 39 d8 6f ce 39 fa 9e 08 3a 84 bf 90 39
       0.00029270846 0.00039374712 0.00052116776 0.0002760851

exp_avg f4 [32, 32]
000000 dc c2 55 b4 8a 2b 9f b4 4b 58 cc 34 ab 0e 25 b4
       -1.990806e-07 -2.9647737e-07 3.8062203e-07 -1.5372159e-07
000010 de 23 92 34 af 8a 26 b4 94 8f c0 34 91 44 b8 b3
       2.7220716e-07 -1.5510408e-07 3.5867254e-07 -8.58064e-08
000020 74 dd 01 b4 ee bd 54 34 c3 9a 61 b3 52 1d 50 35
       -1.2094625e-07 1.9813135e-07 -5.252765e-08 7.7528705e-07
000030 12 0d a0 34 69 0e 32 b4 b2 cc c6 b2 7a 16 c2 34
       2.9811832e-07 -1.6582784e-07 -2.3143318e-08 3.615167e-07
000040 2d 9c 93 b2 f2 a6 27 b0 3a 4f 83 b3 50 7f 48 34
       -1.7184073e-08 -6.099149e-10 -6.114574e-08 1.8672768e-07
000050 7d 21 36 b4 dd f1 02 33 6f 71 8f b4 9e 10 46 b5
       -1.6962254e-07 3.0487957e-08 -2.671836e-07 -7.378493e-07
000060 9d 88 8e 34 9e ad 0c 34 a6 7f 20 34 83 8d b0 33
       2.654896e-07 1.3101678e-07 1.49476e-07 8.2213795e-08
000070 ef c9 55 b4 78 bc 77 34 99 17 a7 b3 09 4d fe 33
       -1.9910634e-07 2.3072232e-07 -7.780836e-08 1.1841809e-07
000080 de 14 5b 33 6c 2f c7 b3 f0 97 3d 33 65 db 57 34
       5.100889e-08 -9.2752856e-08 4.4143178e-08 2.010325e-07
000090 66 03 6e b4 a9 d0 32 34 66 8f 1c b3 b4 23 46 b2
       -2.2166714e-07 1.6653452e-07 -3.6452e-08 -1.1533235e-08
0000a0 3f 40 89 33 6b de eb 33 15 66 10 33 fb a4 32 34
       6.391246e-08 1.0983498e-07 3.3620456e-08 1.6637561e-07
0000b0 a7 b6 73 b4 af 03 85 34 6c 8f d2 33 7d e8 b6 b4
       -2.2697587e-07 2.477586e-07 9.804975e-08 -3.40693e-07
0000c0 37 18 62 b4 a2 39 df b2 5b a0 a7 34 b8 99 71 33
       -2.10567e-07 -2.5986825e-08 3.1222848e-07 5.625199e-08
0000d0 26 cb 56 b3 cf 5d 99 b4 45 7c 69 34 17 6b ab b3
       -5.001052e-08 -2.8566726e-07 2.1745025e-07 -7.9822875e-08
0000e0 1a c3 36 b4 de 38 fc b3 d5 2c 9c b1 01 91 47 33
       -1.7021048e-07 -1.17450085e-07 -4.5452944e-09 4.646518e-08
0000f0 e1 fd dd 32 ba c2 d5 33 dd af a2 b3 1f c9 bf 33
       2.5843237e-08 9.954006e-08 -7.575702e-08 8.930714e-08
000100 ef 03 ff 33 cd 57 bb 33 e3 0e 9e b3 d3 e1 35 b4
       1.1875078e-07 8.723837e-08 -7.360156e-08 -1.6939093e-07
000110 85 02 0f 34 14 c6 f4 b3 14 4e 80 b4 47 cd 0c b4
       1.331883e-07 -1.13981656e-07 -2.3898667e-07 -1.3113196e-07
000120 b4 c6 05 34 fa ba b8 b3 e2 a2 1e 34 31 d9 30 b5
       1.2458878e-07 -8.6021785e-08 1.4774153e-07 -6.5881164e-07
000130 55 92 9f 33 17 6e 4b b4 95 24 7b b2 45 ca 85 34
       7.430632e-08 -1.8945899e-07 -1.4618441e-08 2.492035e-07
000140 8c 48 71 34 de f1 80 34 d5 ab 05 b5 5d 6a 26 33
       2.2471266e-07 2.401784e-07 -4.979641e-07 3.8746624e-08
000150 61 80 3d 33 0e d5 e6 34 34 e3 c8 b3 e9 d2 dc 34
       4.412175e-08 4.2995856e-07 -9.354554e-08 4.113165e-07
000160 9d 9c ba 32 f6 76 71 31 c1 71 f2 33 46 d5 6f 32
       2.172447e-08 3.5137737e-09 1.1289695e-07 1.3960124e-08
000170 ab d5 3f 34 0c ff a4 b3 55 aa bd 34 5b d4 39 b3
       1.7865993e-07 -7.683238e-08 3.5327926e-07 -4.3266805e-08
000180 bf 3d 74 33 96 c1 6d b3 19 5c 6d 33 c3 fb 70 33
       5.6866835e-08 -5.5356928e-08 5.5264625e-08 5.610833e-08
000190 d6 18 72 b3 ce b6 71 33 38 df 76 b3 d7 60 71 b3
       -5.6367604e-08 5.6278445e-08 -5.7479355e-08 -5.620026e-08
0001a0 c6 c4 72 33 ee 9a 6e 33 c4 14 73 33 d8 53 63 33
       5.652398e-08 5.55546e-08 5.6596733e-08 5.292881e-08
0001b0 a4 5d 73 b3 f3 f2 70 33 88 53 71 33 a3 a9 71 b3
       -5.6663012e-08 5.6100316e-08 5.6188156e-08 -5.626647e-08
0001c0 72 8a 6e b3 93 5e 72 33 1d 47 6d 33 f4 d0 6f 33
       -5.553961e-08 5.643103e-08 5.524554e-08 5.5836566e-08
0001d0 d4 03 6f b3 4c a9 6d b3 f0 f3 72 33 f5 30 67 b3
       -5.5650005e-08 -5.5334837e-08 5.6566876e-08 -5.3828405e-08
0001e0 8b b3 73 b3 88 7b 72 b3 5a ad 70 33 bb 96 70 33
       -5.674114e-08 -5.6457367e-08 5.6037017e-08 5.6016443e-08
0001f0 83 95 74 33 96 65 6e 33 18 22 70 33 5b a5 6f 33
       5.6946657e-08 5.5506085e-08 5.5910363e-08 5.5796914e-08
000200 ad e5 6e 34 1c 62 39 34 27 1b 29 b4 1a 31 84 b4
       2.2249033e-07 1.726516e-07 -1.574923e-07 -2.4622642e-07
000210 9b fb 29 34 34 d0 1c b4 2c 1f ef b4 14 72 59 b4
       1.5830885e-07 -1.4604376e-07 -4.45399e-07 -2.0251201e-07
000220 81 45 79 34 6b 28 2e b4 17 05 88 34 66 8a 9c b5
       2.3215217e-07 -1.6219717e-07 2.5335677e-07 -1.1663185e-06
000230 a5 ea 90 33 eb ea 8f b4 59 83 00 b2 45 7f b0 34
       6.748204e-08 -2.680675e-07 -7.480446e-09 3.2875155e-07
000240 20 ec bd 34 fe d1 d4 34 8c 72 53 b5 2a 55 55 33
       3.5375797e-07 3.9640867e-07 -7.8770313e-07 4.9670383e-08
000250 61 01 c1 33 3d a4 32 35 7b e3 cd b3 ad be 49 35
       8.987514e-08 6.6549165e-07 -9.587435e-08 7.5155805e-07
000260 28 cf 6f b2 dc 78 ed b2 2c a9 36 34 3a cb 92 32
       -1.3958733e-08 -2.7645392e-08 1.7011615e-07 1.7089054e-08
000270 f0 bc ad 34 0c 25 1a b4 3c e7 1b 35 74 f2 a1 b3
       3.236123e-07 -1.4355845e-07 5.807849e-07 -7.541249e-08
000280 0f 4f cf b7 4d c9 f3 b9 75 c3 fa 39 27 99 7c 39
       -2.4713137e-05 -0.00046498553 0.00047829343 0.00024089646
000290 c6 7f 2f b9 11 fc 40 39 b3 e3 6d 39 1e 46 2f b9
       -0.000167369 0.00018404449 0.00022686906 -0.00016715421
0002a0 26 41 f9 36 a0 4b ce 39 1d 04 b0 38 b2 39 80 3a
       7.4283626e-06 0.00039347727 8.3931e-05 0.000978282
0002b0 92 de aa b8 f3 44 71 39 9d 5d 53 39 44 27 45 b9
       -8.147689e-05 0.00023009237 0.00020157402 -0.00018802012
0002c0 67 11 d2 b9 b1 56 45 37 b6 9b fc 39 97 0e a9 39
       -0.00040067287 1.1762299e-05 0.000481812 0.00032245062
0002d0 bc 28 9e b9 f3 e9 e9 b9 bc 03 a9 38 a0 4e 52 ba
       -0.00030166458 -0.0004461553 8.0592436e-05 -0.00080225803
0002e0 be 84 73 b8 55 53 01 b9 4c 9c 60 39 91 e3 7d 39
       -5.805934e-05 -0.00012333442 0.0002142053 0.00024212735
0002f0 5d c2 96 b8 be 83 db 39 ca eb 1f b9 5e 90 ad 39
       -7.18876e-05 0.0004186909 -0.0001525126 0.00033104693
000300 0f 80 3e 36 97 2d dc 38 7c ff de b8 9b 55 87 b8
       2.8386746e-06 0.00010498909 -0.000106333726 -6.453247e-05
000310 39 e6 4b 38 96 e0 50 b8 37 e8 55 b8 75 e1 0f 38
       4.8613383e-05 -4.9800226e-05 -5.0999424e-05 3.430383e-05
000320 74 01 30 34 05 b3 bc b8 cd 26 93 b7 ad 97 6f b9
       1.6391806e-07 -8.9978836e-05 -1.7541834e-05 -0.0002284932
000330 53 2b db 37 8a 95 7c b8 bb cb 4b b8 a6 2c 67 38
       2.6127009e-05 -6.022075e-05 -4.858871e-05 5.5116274e-05
000340 30 ac ce 38 0d 64 94 36 2e d8 02 b9 5e da 93 b8
       9.854918e-05 4.422391e-06 -0.000124783 -7.05018e-05
000350 e2 e8 90 38 39 12 ee 38 fd 08 d4 b7 25 7c 3e 39
       6.909833e-05 0.000113521186 -2.5276555e-05 0.0001816606
000360 46 bd a6 37 4c 71 06 38 0f 6a 3b b8 89 2a 6b b8
       1.987688e-05 3.2053606e-05 -4.468305e-05 -5.606798e-05
000370 fe 57 87 37 1c 75 c7 b8 e1 1a 3c 38 1c 59 a1 b8
       1.6134229e-05 -9.510873e-05 4.4847726e-05 -7.693676e-05
000380 50 10 18 34 eb 97 cc 33 35 30 d1 b3 8a f6 f5 b3
       1.4162038e-07 9.527124e-08 -9.74109e-08 -1.1453547e-07
000390 69 d3 bb 33 6b 57 b0 b3 74 42 82 b4 1e 66 03 b4
       8.7463214e-08 -8.21154e-08 -2.4262738e-07 -1.2237476e-07
0003a0 0f 0a e8 33 3c 04 ad b3 10 9a 1c 34 8a 75 2e b5
       1.08051715e-07 -8.0567105e-08 1.458468e-07 -6.4991093e-07
0003b0 b4 e2 2d 33 84 9a 2b b4 38 0e 97 b1 bc f9 5a 34
       4.0485887e-08 -1.5981828e-07 -4.396295e-09 2.0393685e-07
0003c0 6c e7 49 34 b6 4a 60 34 24 8f e2 b4 5e 5a ae 32
       1.8803775e-07 2.0888805e-07 -4.219993e-07 2.029736e-08
0003d0 c5 1b 2a 33 1e 48 d2 34 55 3f a0 b3 ea de ef 34
       3.9606466e-08 3.916802e-07 -7.4621006e-08 4.467941e-07
0003e0 16 60 ff b1 8a 37 30 b2 41 a3 cc 33 e7 84 d1 32
       -7.4324005e-09 -1.0257176e-08 9.529186e-08 2.439124e-08
0003f0 59 84 45 34 ec 30 b4 b3 2d 02 ac 34 c6 e2 17 b3
       1.8395203e-07 -8.390802e-08 3.203908e-07 -3.5363676e-08
