ppo_algorithm/data/CartpoleSwingShort-v0_2019-03-06_16-46-04/checkpoint/ppo_network_state_dict.pt (torch_old, 3286 bytes, 4 tensors)

net.0.weight f4 [64, 5]
0	0x3db1da04	0.08684161
1	0xbed1c47f	-0.40970227
2	0xbd1527a7	-0.03641477
3	0x3ea014f1	0.31265977
4	0x3ea20286	0.3164255
5	0x3ece8f38	0.40343642
6	0x3c399809	0.011327752
7	0x39d8ee49	0.00041376267
8	0x3cc23528	0.023706988
9	0x3e310c10	0.17289758
10	0x3e9378e5	0.28803173
11	0x3dfd6aa5	0.123738565
12	0x3e10b35a	0.14130917
13	0xbe90c3fa	-0.28274518
14	0xbe704466	-0.23463592
15	0xbddddb3d	-0.10832832
16	0x3e39618e	0.1810362
17	0x3cc46211	0.023972543
18	0xbc44f9be	-0.012022434
19	0x3e181496	0.14851603
20	0x3e6dfe8a	0.2324163
21	0xbec859b6	-0.39130944
22	0xbe49b258	-0.19696939
23	0x3e1b32f9	0.15156163
24	0xbe6b3fee	-0.22973606
25	0xbdd27521	-0.10276247
26	0xbe319471	-0.17341782
27	0xbe23c739	-0.15993966
28	0x3e36a5dd	0.1783671
29	0x3d8eb45f	0.06967997
30	0xbe1127b4	-0.14175302
31	0xbeb4d4e8	-0.35318685
32	0xba754d18	-0.0009357496
33	0xbd8f2fba	-0.06991525
34	0xbd6eff10	-0.058348715
35	0x3d8a09ed	0.067401744
36	0xbe18b542	-0.14912894
37	0xbe294f3f	-0.16534136
38	0x3e3d11f5	0.18463881
39	0x3e1bf97a	0.15231887
40	0x3e019bac	0.1265704
41	0xbf18c345	-0.5967296
42	0x3daf9a8f	0.085744016
43	0xbe540e14	-0.20708495
44	0x3e284d90	0.16435838
45	0x3d355cab	0.04427783
46	0x3de6509e	0.11245845
47	0x3d2f6dae	0.042829208
48	0x3d307f40	0.043090105
49	0xbd7125ff	-0.058874127
50	0x3d712b2c	0.058879063
51	0x3d28d4cd	0.041218568
52	0xbe1ebfc8	-0.15502846
53	0xba7d90eb	-0.00096727785
54	0x3c99ec4e	0.018789437
55	0xbcd04095	-0.02542142
56	0xbe558b35	-0.20853885
57	0x3d01f47a	0.03172729
58	0xbda99442	-0.08280231
59	0x3c2165e2	0.009850951
60	0xbd6c89df	-0.05774867
61	0x3e8a6ace	0.2703461
62	0x3da665e0	0.081249
63	0x3c683204	0.014172081
64	0xbcb741ac	-0.022370182
65	0xbe3d7067	-0.1849991
66	0xbf016376	-0.5054239
67	0x3dcf1d8b	0.10113057
68	0xbd857fb4	-0.06518498
69	0x3d296d2e	0.041363887
70	0x3d8dd342	0.0692506
71	0xbd6c9528	-0.057759434
72	0x3dd3335c	0.103125304
73	0xbef24783	-0.47320184
74	0x3e115855	0.14193852
75	0xbdd88185	-0.10571579
76	0xbf4577a6	-0.77135694
77	0xbcca805d	-0.024719412
78	0x3e89dab7	0.2692468
79	0x3d34270a	0.043982543
80	0x3c847b98	0.016172215
81	0x3c0e884a	0.008699486
82	0xbdbfb72c	-0.09361109
83	0x3d06ccb0	0.03291005
84	0x3cb33cf2	0.021879647
85	0x3d87f02f	0.06637608
86	0xbeb0a364	-0.34499657
87	0x3de149d3	0.11000409
88	0x3c0548b7	0.008135012
89	0xbea2d6a1	-0.31804374
90	0x3ece0837	0.40240642
91	0x3d5a9384	0.053363338
92	0xbe0007fc	-0.12503046
93	0x3dbb60e9	0.091493435
94	0x3d865070	0.06558311
95	0xbcc252e4	-0.023721166
96	0xba842cee	-0.0010084191
97	0x3cb89342	0.022531155
98	0x3c8fb956	0.01754443
99	0xbc884aad	-0.01663717
100	0x3d822a67	0.06355744
101	0xbe74a8cc	-0.23892516
102	0xbd84df4d	-0.06487904
103	0xbe7a623d	-0.24451537
104	0x3e6281ee	0.22119877
105	0x3d3f9fa7	0.046783116
106	0xbdecedef	-0.1156882
107	0xbca55648	-0.020182744
108	0x3eb4acb1	0.35288003
109	0x3d752ec1	0.05985904
110	0xbe85ddc9	-0.2614577
111	0x3dd070b5	0.10177747
112	0xbdf1c54a	-0.11805208
113	0xbe1b2826	-0.15152034
114	0x3ca9af12	0.020713363
115	0xbe39336f	-0.18086027
116	0x3dcf2f28	0.10116416
117	0x3e0a663f	0.13515566
118	0xbe9a81ea	-0.30177242
119	0x3e023d9a	0.12718812
120	0x3e014a6f	0.1262605
121	0xbd8aebf1	-0.067832835
122	0xbe518e37	-0.20464407
123	0x3e659274	0.22419149
124	0x3e5f6de3	0.21819262
125	0x3e65378d	0.22384472
126	0x3d9e1e93	0.07720675
127	0xbe31337e	-0.17304799
128	0xbe868f62	-0.26281267
129	0xbe32f689	-0.17476858
130	0x3d63c8aa	0.05561129
131	0x3e880af0	0.26570845
132	0xbd2f8e79	-0.042860482
133	0xbe2c55ae	-0.16829559
134	0xbe6bdf5d	-0.23034425
135	0x3b6a638e	0.0035764906
136	0x3ba68e16	0.005082856
137	0x3cf7d981	0.030255081
138	0x3aeffc0b	0.0018309368
139	0x3c6394b5	0.013890435
140	0x3d4a2083	0.04934741
141	0x3ed4c972	0.4155994
142	0xbd395de3	-0.045255553
143	0x3d0cd8fd	0.034386624
144	0x3d8b51af	0.06802689
145	0x3dad910a	0.0847493
146	0x3e1d0318	0.15333211
147	0xbdb03c17	-0.08605211
148	0x3d93e543	0.072214626
149	0x3a21ffe7	0.0006179795
150	0xbad22b9e	-0.0016034727
151	0x3f097486	0.53693426
152	0x3c2d6ed6	0.010585507
153	0x3d954bc0	0.07289839
154	0x3d3e07e6	0.04639425
155	0xbc584d19	-0.013201975
156	0x3db8c97c	0.09022805
157	0xbb82487f	-0.0039759274
158	0xbdc80e57	-0.0976836
159	0xbe019dd5	-0.12657864
160	0xbda10716	-0.0786268
161	0xbe45f8bd	-0.19333167
162	0x3e15f373	0.1464365
163	0x3d825346	0.063635394
164	0x3cfa3ba4	0.030546017
165	0x3d1cb474	0.03825803
166	0xbea87353	-0.32900485
167	0xbd9bc0f3	-0.076051615
168	0x3e8f0702	0.27935034
169	0xbe88b867	-0.26703188
170	0xbce236a9	-0.027613955
171	0xbdb065e6	-0.086131856
172	0x3dc84449	0.09778649
173	0xbdbc77db	-0.09202548
174	0x3dcb58b2	0.09929027
175	0xbe3024da	-0.17201558
176	0x3e1ecc45	0.1550761
177	0x3debe138	0.115175664
178	0x3dd665f1	0.104686625
179	0x3df479e2	0.1193731
180	0x3bd293af	0.0064262967
181	0x3d32fbad	0.043697048
182	0xbbd33f51	-0.006446757
183	0xbd2f9dc7	-0.042875078
184	0x3b0d04c1	0.0021517726
185	0x3d917d8f	0.071040265
186	0xbe72350f	-0.23653053
187	0x3d89bb0b	0.06725129
188	0x3e2c3307	0.1681634
189	0x3ce7e1c9	0.028305905
190	0x3dbcfba8	0.09227687
191	0x3e9ebac9	0.3100188
192	0xbd0532b5	-0.03251906
193	0xbea11bf1	-0.3146663
194	0xbe66fbf7	-0.22557054
195	0x3e16a045	0.14709575
196	0x3d01b9f1	0.03167147
197	0x3dcd7eb8	0.10033935
198	0xbe5b0997	-0.21390377
199	0x3e546b00	0.20743942
200	0xbe27a8e8	-0.16373026
201	0xbe683729	-0.22677292
202	0xbde8bc00	-0.11363983
203	0x3e982353	0.2971445
204	0x3c29f711	0.010373847
205	0x3d23cc5e	0.03998982
206	0xbd10849e	-0.035282724
207	0xbde17a49	-0.11009652
208	0xbc9d5021	-0.019203248
209	0x3cb2307e	0.021751639
210	0x3decabb8	0.1155619
211	0x3e4dcf79	0.20098676
212	0xbe616347	-0.22010528
213	0x3c92d466	0.017923545
214	0xbdf6b240	-0.12045717
215	0x3e80d4aa	0.2516225
216	0xbe882ecc	-0.26598203
217	0x3e4c5d09	0.19957365
218	0xbdbc2d15	-0.09188286
219	0x3d156ac9	0.03647879
220	0xbe08d319	-0.13361777
221	0xbe795dc2	-0.24352172
222	0x3e19c802	0.15017703
223	0xbe24fefd	-0.16112895
224	0x3c0ef2be	0.008724866
225	0x3e639314	0.22224075
226	0x3e4c5d29	0.19957413
227	0xbdc53a5e	-0.09630273
228	0x3d2f9959	0.042870853
229	0x3eeecec4	0.46642125
230	0xbb858a49	-0.0040753228
231	0x3e122082	0.14270213
232	0xbe9c2016	-0.3049323
233	0x3e2694b1	0.16267659
234	0xbe5f32b6	-0.21796688
235	0xbe28c374	-0.1648081
236	0xbe490d68	-0.1963402
237	0x3d185caf	0.037197765
238	0xbd6c0b4f	-0.057627972
239	0xbe95a796	-0.2922942
240	0x3e35c640	0.17751408
241	0xbf3d69cd	-0.73989564
242	0x3e037526	0.12837657
243	0xbe08d20a	-0.13361374
244	0xbda6e1ce	-0.081485376
245	0x3e2dfab5	0.16990168
246	0xbee01b85	-0.43770996
247	0xbd9a9bd3	-0.07549252
248	0xbd3c49c6	-0.045968793
249	0x3d758716	0.05994328
250	0x3dc7d446	0.09757285
251	0xbcb133b2	-0.021631096
252	0x3e47f227	0.19525968
253	0x3e1d9526	0.15388927
254	0x3e299548	0.16560853
255	0xbded11f2	-0.115756884

net.0.bias f4 [64]
0	0x3d0e0cdc	0.034680232
1	0xbbcad47e	-0.006189882
2	0xbd2b364d	-0.041799832
3	0xbc338dfc	-0.010959145
4	0x3d3864a7	0.045017865
5	0x3d1af7af	0.037833866
6	0x3ced4416	0.02896313
7	0x3d748f6b	0.059707087
8	0xbd97e66f	-0.074169986
9	0xbd66cd04	-0.056347862
10	0x3e165dd2	0.14684227
11	0xbc69dcd5	-0.014273842
12	0xbd9aaf01	-0.075529106
13	0xbd83c28c	-0.06433591
14	0xbd3171c6	-0.043321393
15	0x3d1d3b77	0.03838679
16	0x3db3805c	0.08764717
17	0xbdb43f11	-0.088010915
18	0x3d6ffdcd	0.058591653
19	0xbcae4419	-0.021272706
20	0x3da4e26a	0.080509976
21	0xbb4efe68	-0.0031584743
22	0x3d17feaa	0.0371081
23	0xbd4e8a45	-0.050424833
24	0x3b7a899a	0.003822899
25	0x3d6cd075	0.057815988
26	0xbadf0bb2	-0.0017017035
27	0xbcff0483	-0.031130081
28	0x3d05f422	0.032703526
29	0x3d78ed4c	0.06077318
30	0xbc9174ce	-0.017755892
31	0xbb1d83ca	-0.0024034851
32	0xbd436d9e	-0.04771196
33	0x3beea5ae	0.007282934
34	0xbc72e3e7	-0.014824844
35	0x3bc329cb	0.00595591
36	0x3bd158d4	0.006388763
37	0xbd9e3dcf	-0.07726633
38	0x3c78fa24	0.015196357
39	0xbce2f956	-0.027706783
40	0x3dfb579b	0.12272569
41	0x3ddbd90f	0.1073476
42	0x3d37c4c4	0.044865385
43	0xbcc9af03	-0.024619585
44	0xbdd9ff17	-0.10644358
45	0x3d894480	0.067025185
46	0x3afed03b	0.001944072
47	0xbc314a60	-0.010820955
48	0xbd431f95	-0.04763754
49	0x3d673eb6	0.05645629
50	0xbd13b464	-0.036060706
51	0xbacb5eeb	-0.0015515959
52	0x3e0ce8e6	0.13760719
53	0x3c855582	0.016276125
54	0x3d348fbd	0.044082392
55	0x3c8f2f6e	0.01747867
56	0x3cf904b3	0.030397749
57	0xbd534062	-0.051575072
58	0x3d8e4412	0.06946577
59	0xbc8297e1	-0.015941562
60	0xbdab342c	-0.0835956
61	0xbdb7681e	-0.08955406
62	0xbc975f2d	-0.018478
63	0xbcf31275	-0.029671887

out_mean.weight f4 [1, 64]
0	0x3e6bf559	0.23042811
1	0x3d1c735c	0.038195953
2	0xbe0deee7	-0.13860665
3	0xbd8faa3b	-0.07014891
4	0xbc896743	-0.016772872
5	0xbd4d38d5	-0.050103027
6	0x3d47a538	0.04874155
7	0x3e908648	0.28227448
8	0x3e1e5995	0.1546386
9	0xbd378d8c	-0.044812724
10	0x3bc75721	0.0060833846
11	0xbb59480c	-0.0033154516
12	0xbb85d6b6	-0.0040844334
13	0x3d512d51	0.051068608
14	0x3c64ea94	0.013971943
15	0x3e8feec2	0.28111845
16	0x3c473ae3	0.012160036
17	0x3e45c4d7	0.1931337
18	0x3c088bc4	0.008334104
19	0xbb9ea8ee	-0.0048419153
20	0x3cc1fb21	0.023679318
21	0x3c90236a	0.017595012
22	0xbecb7002	-0.39733893
23	0xbda92749	-0.08259446
24	0x3e3e1347	0.18562041
25	0xbea9e859	-0.3318508
26	0xbe2da491	-0.16957308
27	0x3ba0638b	0.004894679
28	0xbcac35cd	-0.021021748
29	0x3ab07240	0.0013461784
30	0xbd2f937f	-0.042865273
31	0xbdbbb2d9	-0.09164972
32	0x3e5b884d	0.21438713
33	0xbd842c97	-0.06453817
34	0x3bf57ca1	0.0074916636
35	0x3e4ab87e	0.1979694
36	0xbb4d7a46	-0.0031353398
37	0x3d8a4160	0.067507505
38	0xbe14c73e	-0.1452913
39	0x3e96a4c7	0.2942259
40	0x3c1cad17	0.009562752
41	0x3c03b8e4	0.008039687
42	0xbd9dd37c	-0.07706353
43	0x3eced009	0.40393093
44	0xb95879e6	-0.00020644776
45	0xbe0c96ea	-0.13729444
46	0xbe2146d5	-0.15749677
47	0xbb9a745e	-0.004713579
48	0x3e840226	0.2578289
49	0x3d267a15	0.04064377
50	0x3e802dcc	0.2503494
51	0x3d6c6380	0.057712078
52	0xbb07781d	-0.0020670958
53	0x3b69250d	0.0035575063
54	0x3daff7ad	0.08592162
55	0xbe2a8dbd	-0.16655631
56	0x38c4b59f	9.379838e-05
57	0x3c00557c	0.007832881
58	0x3ba9da02	0.0051834593
59	0xbda3b323	-0.07993152
60	0xbdb95681	-0.090497024
61	0x3e37c826	0.17947444
62	0xbe909bf3	-0.2824398
63	0x3d839258	0.06424397

out_value.weight f4 [1, 64]
0	0x364139f8	2.8792983e-06
1	0x3dc287db	0.094985686
2	0x3d7e9cd8	0.062161297
3	0x3a9997e1	0.0011718237
4	0x3df12e64	0.117764264
5	0x3e85a8ff	0.26105496
6	0xba791d23	-0.0009502938
7	0x3de5398d	0.111926176
8	0x3a796fd7	0.00095152616
9	0x379bf73d	1.859257e-05
10	0x3872f070	5.792122e-05
11	0x397d6054	0.00024163845
12	0xb9eea249	-0.0004551581
13	0xb9d76480	-0.00041082874
14	0x3d0d9b4b	0.034571927
15	0xbb4b9df3	-0.0031069487
16	0x379bbf5b	1.8566547e-05
17	0xbb92af8f	-0.0044764946
18	0x3cf9b1c8	0.03048028
19	0xb6bb9b52	-5.591116e-06
20	0x394b198e	0.00019369108
21	0xbc243665	-0.010022734
22	0x3e05533d	0.13020034
23	0xbdbc49ab	-0.091937385
24	0xbe347864	-0.1762405
25	0x3b6526eb	0.0034965824
26	0xbdb7b5c5	-0.08970217
27	0x3594aa27	1.107638e-06
28	0xb8c0846f	-9.179941e-05
29	0xb95bd5d6	-0.00020965128
30	0x3988d157	0.00026095912
31	0x39967185	0.00028694808
32	0xbddba3ed	-0.10724626
33	0xbe296405	-0.1654206
34	0x3db53475	0.08847896
35	0x3e4c245b	0.19935744
36	0xb98811b8	-0.00025953143
37	0xb94836f1	-0.00019093954
38	0x3a9c1f04	0.0011911099
39	0xbe40feb6	-0.18847165
40	0x38b2affe	8.5204825e-05
41	0x377b789c	1.4988847e-05
42	0x3e1ff7d2	0.1562188
43	0x3cef3bf4	0.029203393
44	0x39d2c3b4	0.00040200131
45	0x3a84c854	0.0010130503
46	0xbe43a35e	-0.19105288
47	0x3cb09d1a	0.021559287
48	0x3cb0de6e	0.021590438
49	0x39daf461	0.00041762277
50	0xbe4c2e1a	-0.19939461
51	0xbe3a9d7f	-0.18224142
52	0xb9256e07	-0.00015776615
53	0x39e90d94	0.0004445134
54	0x3e3059a1	0.1722169
55	0x3e2d3eb0	0.16918445
56	0x39969bdd	0.00028726357
57	0x3849884f	4.804908e-05
58	0xb81f838a	-3.803106e-05
59	0x3de98e9b	0.11404153
60	0x3c3350b0	0.01094453
61	0xbaf58377	-0.0018731196
62	0xbcfcc2c2	-0.030854587
63	0x3d684e57	0.056715336
