ppo_algorithm/data/CartpoleSwingShort-v0_2019-03-12_22-30-07/best_policy/save_file.pt (torch_old, 83712 bytes, 44 tensors)

net.0.weight f4 [64, 5]
0	0xbef8e189	-0.4860957
1	0x3f67d507	0.9055943
2	0xbf4222b4	-0.758342
3	0x3f03c11c	0.51466537
4	0xbd180ad5	-0.037119705
5	0xbe5cfa44	-0.21579844
6	0x40007f94	2.0077868
7	0x3d8c5bc4	0.068534404
8	0xbe95001c	-0.29101646
9	0xbd222dde	-0.039594524
10	0x3efba3cc	0.49148405
11	0xbf5e3af0	-0.8680868
12	0xbf165961	-0.5873013
13	0x3f4e4653	0.80576056
14	0x3e620253	0.22071199
15	0x3f8712d3	1.055262
16	0x3f89a82c	1.0754447
17	0x3ee57c11	0.44821218
18	0xbe29264c	-0.16518515
19	0xbdb39706	-0.0876904
20	0x3f036668	0.51328135
21	0x3f8d32be	1.103111
22	0xbf1ccbf7	-0.61248726
23	0xbe865884	-0.26239407
24	0x3f092548	0.5357251
25	0xbf328352	-0.6973163
26	0xc0656c8b	-3.58475
27	0xbeeac076	-0.4584996
28	0xbe19803e	-0.14990327
29	0x3f0a7ab0	0.54093456
30	0xbe90bad8	-0.2826755
31	0x3fdcec30	1.7259579
32	0x3da85799	0.08219833
33	0xbe42d7b1	-0.19027592
34	0xbdda5e63	-0.10662534
35	0xbe5e684f	-0.21719478
36	0x3f7afe8f	0.98044676
37	0x3f184e49	0.59494454
38	0xbd8fa6a3	-0.07014205
39	0xbe023e89	-0.12719168
40	0xbe9b46f0	-0.3032756
41	0x404be222	3.185677
42	0x3ea49ab4	0.3214928
43	0xbd00771a	-0.031363584
44	0x3dd69cfa	0.1047916
45	0xbf79a6b0	-0.9751997
46	0x3e8138b2	0.25238568
47	0x3f36be04	0.7138369
48	0x3fb5adf5	1.4193712
49	0x3f60b2ce	0.87772834
50	0xbd220628	-0.039556652
51	0x3f13fdd4	0.57809186
52	0x3f1180a9	0.56836945
53	0xbe6e13e8	-0.23249781
54	0xbe3067cf	-0.172271
55	0xbe139299	-0.14411391
56	0x3e577887	0.21042071
57	0x3f2761db	0.6538369
58	0x3ec71dc5	0.388899
59	0xbddffaba	-0.10936494
60	0xbedff0c2	-0.4373837
61	0x3fd780ad	1.6836144
62	0x3f2c0337	0.67192405
63	0x3ee8cb43	0.45467576
64	0xbd3998ec	-0.045311853
65	0x3f74fdf0	0.9569998
66	0x3f5f412b	0.87208813
67	0x3e007584	0.12544829
68	0x3e2ebec3	0.17064957
69	0x3ed3551c	0.4127587
70	0x3fd9fbf8	1.703002
71	0x3e865603	0.26237497
72	0xbea6925a	-0.32533532
73	0xbe2626e5	-0.16225775
74	0x3d31da2e	0.043420963
75	0x3f96ceb0	1.1781826
76	0xbf39de80	-0.72605133
77	0xbef7da99	-0.48408964
78	0x3f129a53	0.5726673
79	0x3e65a7cf	0.22427295
80	0x3d26b172	0.04069657
81	0xbe5720fd	-0.21008678
82	0x3f39141a	0.722963
83	0x3d8645e3	0.065562986
84	0x3eb85368	0.36001134
85	0xbf0a35bb	-0.53988236
86	0x3f5a5c28	0.8529687
87	0xbe8933ac	-0.26797235
88	0x3e0c41f8	0.1369704
89	0xbdef2c59	-0.116783805
90	0x3ea3e956	0.3201396
91	0x3eb4a86c	0.35284746
92	0x3f1b2ede	0.6061839
93	0xbdb062c4	-0.08612588
94	0xbe423720	-0.18966341
95	0x3ebfba6a	0.3744691
96	0x3f813788	1.0095072
97	0x3f05e258	0.522985
98	0x3eefee8b	0.4686168
99	0x3efe71a5	0.4969608
100	0x3f05506d	0.52075845
101	0xbd6d5234	-0.057939723
102	0xbf38ccad	-0.7218731
103	0xbe6b2624	-0.22963768
104	0x3e73d61d	0.23812146
105	0xbe93bc11	-0.2885442
106	0x3feb3992	1.8376944
107	0x3d107e44	0.035276666
108	0xbe11d18e	-0.14240095
109	0xbde714fc	-0.11283299
110	0xbfa4ff48	-1.2890406
111	0x3c16b870	0.009199247
112	0x3f40a82f	0.7525663
113	0x3eb0532e	0.3443846
114	0x3e471152	0.19440201
115	0x3e8c9a67	0.2746155
116	0x3f03963f	0.5140113
117	0xbf099be3	-0.5375349
118	0xbe43d27f	-0.19123267
119	0x3eb02080	0.34399796
120	0x3f493a43	0.78604525
121	0xbe7f26ec	-0.24917191
122	0x3f20207e	0.6254958
123	0xbf8aa71d	-1.0832249
124	0xbed9281b	-0.4241341
125	0xbdbe1acd	-0.092824556
126	0x3e5448ad	0.20730849
127	0x3f140d65	0.5783294
128	0x3f61806a	0.8808657
129	0x3f0d8f5c	0.55296874
130	0x3db655f4	0.08903113
131	0x3ea81eaf	0.3283591
132	0x3f01eca8	0.50751734
133	0x3d984a28	0.07436019
134	0x3ed0192e	0.4064421
135	0x3e666056	0.22497687
136	0x3f58054f	0.843831
137	0xbe749d15	-0.23888047
138	0xbf2afdc4	-0.66793466
139	0xbe70e780	-0.2352581
140	0x3e8f4de1	0.27989104
141	0x3e998c16	0.2998969
142	0x3f2a68ee	0.6656636
143	0x3d929a1f	0.071583025
144	0xbf075b11	-0.5287333
145	0x3f100a67	0.5626587
146	0x3f85c6f0	1.0451336
147	0xbf527297	-0.822061
148	0x3c1442da	0.009049142
149	0x3cdd3f82	0.027007822
150	0x3d307659	0.043081615
151	0x3ee8c7c2	0.45464903
152	0x3f1c8662	0.6114255
153	0x3f746df3	0.9548027
154	0x3f2005ac	0.62508655
155	0xbf3636d1	-0.71177393
156	0x3fb28b61	1.3948785
157	0x3f217da6	0.6308235
158	0x3f61325a	0.87967455
159	0x3f2b52fa	0.6692349
160	0xbee0f09c	-0.4393357
161	0x403c3a17	2.9410455
162	0x3eafb1e3	0.34315404
163	0xbdfa62e2	-0.12225892
164	0xbd8444d3	-0.0645844
165	0xbfb31cbf	-1.3993148
166	0xbebd2670	-0.36943388
167	0xbe9248bd	-0.2857112
168	0x3e86eb3c	0.26351345
169	0x3de11980	0.10991192
170	0xbec4ddaa	-0.38450366
171	0x3f991437	1.1959294
172	0xbe4a38ac	-0.19748181
173	0xbea49024	-0.3214122
174	0xbe89f45d	-0.26944247
175	0xbf0a1ce1	-0.53950316
176	0x3fb4c780	1.4123383
177	0x3da4cb04	0.08046535
178	0x3e8b5802	0.27215582
179	0x3f143886	0.5789875
180	0xbfd51ef9	-1.6650077
181	0x3f012057	0.5043997
182	0x3f332e7d	0.6999281
183	0x3e0f9d4a	0.14024845
184	0xbd93d399	-0.072180934
185	0xbf0c3c7b	-0.54779786
186	0x400a6739	2.1625502
187	0x3ef1b272	0.47206455
188	0xbeb3b74c	-0.35100782
189	0xbd1422e6	-0.036166094
190	0xbe36f6a8	-0.1786753
191	0xbf4e22b1	-0.80521685
192	0xbec399e3	-0.38203344
193	0x3f0620c9	0.52393776
194	0x3e880a0b	0.26570162
195	0xbfb74b6a	-1.431989
196	0x3ea92092	0.33032662
197	0x3f2f525e	0.6848506
198	0x3e957cc3	0.29196748
199	0x3e069373	0.13142185
200	0xbe732da5	-0.23747881
201	0x3ea1fb6f	0.3163714
202	0xbf4e85a7	-0.8067269
203	0xbec763b4	-0.38943255
204	0xbea7c66b	-0.32768568
205	0xbf573936	-0.8407167
206	0x3fc0e9ae	1.5071313
207	0xbe91738e	-0.28408474
208	0x3e1b0bfb	0.15141289
209	0x3f2e0bbc	0.67986655
210	0x3df088bb	0.11744829
211	0x3f34a85d	0.705694
212	0x3f3579c3	0.7088892
213	0x3e55ea77	0.20890222
214	0xbe760828	-0.24026549
215	0x3f47fbcc	0.78118587
216	0x3ef3889a	0.47565156
217	0xbe1ff50e	-0.15620825
218	0xbe93c6f4	-0.28862727
219	0x3ec6aa48	0.3880179
220	0xbfd0f43a	-1.6324532
221	0x3f8da3f7	1.1065663
222	0x3f266e3c	0.65011954
223	0x3c9a26fa	0.018817414
224	0x3d325856	0.043541275
225	0x3e34488d	0.17605801
226	0x3ea582b1	0.32326272
227	0x3ed4e865	0.41583553
228	0xbdf19627	-0.117962174
229	0x3ef5e39c	0.48025215
230	0xbf6cedfc	-0.92550635
231	0xbf965e66	-1.1747558
232	0x3e56fe45	0.20995434
233	0x3eb74dd8	0.35801578
234	0xbb93dec1	-0.0045126383
235	0xbf75bc02	-0.9599
236	0x3fb657cc	1.4245543
237	0x3f6b84f5	0.9199975
238	0x3f3e2288	0.7427144
239	0xbc394c5b	-0.0113097085
240	0xbfa922b3	-1.3213714
241	0xbf84d6d2	-1.0378058
242	0xbe722706	-0.23647699
243	0x3e90ad86	0.28257388
244	0xbb022940	-0.0019861013
245	0x3fcf79e5	1.6209074
246	0xbf9359de	-1.15118
247	0xbec3131e	-0.38100523
248	0x3dfb27a6	0.12263422
249	0x3e67f736	0.22652897
250	0x3f472750	0.7779436
251	0x3faf4406	1.3692634
252	0x3eff57a5	0.49871555
253	0x3f075ea6	0.528788
254	0xbdbfaefe	-0.09359549
255	0x3a8b0bd5	0.0010608385

net.0.bias f4 [64]
0	0x3e00db5d	0.1258368
1	0x3d620b6c	0.055186674
2	0x3e65d8ce	0.22445986
3	0xbe23cdb0	-0.15996432
4	0xbe27429d	-0.16334005
5	0xbf150859	-0.5821586
6	0xba8d3d92	-0.0010775796
7	0xbddfe151	-0.109316476
8	0xbc63e7d3	-0.013910252
9	0x3ea747a5	0.32671848
10	0xbc2b29dc	-0.010446992
11	0x3e07a0b1	0.13244893
12	0xbe06c81d	-0.13162275
13	0xbcedd13b	-0.029030433
14	0xbdf01206	-0.11722188
15	0x3e222baa	0.15836969
16	0xbd9de85f	-0.07710337
17	0x3d836881	0.06416417
18	0x3d669948	0.056298524
19	0x3df808b8	0.12111038
20	0x3de6161d	0.112346865
21	0x3ccb2c9e	0.024801549
22	0xbcc04551	-0.023470553
23	0xbc04a4cc	-0.008095931
24	0xbdd75357	-0.10513943
25	0x3e0afb4a	0.13572422
26	0x3bc7e491	0.0061002453
27	0xbe39b600	-0.18135834
28	0x3dedf0b5	0.11618177
29	0x3c8a6611	0.016894372
30	0x3e8fd0a9	0.28088883
31	0x3e963dfc	0.29344165
32	0xbddfec96	-0.10933797
33	0x3e1dceb3	0.1541088
34	0xbd552ec1	-0.05204654
35	0xbc6477a5	-0.013944541
36	0x3cff38e6	0.031155061
37	0xbd8b68f9	-0.06807131
38	0x3e3de800	0.18545532
39	0xbc8deebf	-0.017325757
40	0xbdf97df5	-0.121822275
41	0xbcb063a7	-0.021531893
42	0x3bc615e8	0.006045092
43	0xbd6d1cec	-0.05788891
44	0xbe015bc8	-0.12632668
45	0x3cfd31f4	0.030907609
46	0x3e04a85f	0.12954853
47	0xbd9f8d6e	-0.077906474
48	0x3dafbf06	0.08581357
49	0x3e52809e	0.20556876
50	0xbde66e28	-0.112514794
51	0x3de397ec	0.11112961
52	0x3d562e6a	0.052290358
53	0x3dd179c5	0.10228304
54	0x3f0b03be	0.54302585
55	0x3cdfa8d3	0.027302181
56	0x3db5775e	0.08860658
57	0xbde59562	-0.11210133
58	0xbcc52f36	-0.024070363
59	0xbd1a986a	-0.03774301
60	0x3c83c789	0.016086357
61	0x3e5601c8	0.20899117
62	0x3e072def	0.13201116
63	0x3dc12d91	0.09432519

net.1.weight f4 [64]
0	0x3fd4142b	1.6568655
1	0x3fa94571	1.3224317
2	0x3ff0977d	1.879623
3	0x3fbb94b1	1.4654752
4	0x3fce4ed5	1.6117808
5	0x4056325a	3.3468232
6	0x3fae2964	1.3606381
7	0x3f8ea214	1.1143212
8	0x40123685	2.2845776
9	0x3faa34e2	1.3297389
10	0x3f9a4e38	1.205512
11	0x3f9ab2e5	1.2085844
12	0x3f910aeb	1.1331457
13	0x3f9398f9	1.1531059
14	0x4001dfb1	2.029278
15	0x4005d4ef	2.0911214
16	0x3fa8a4e7	1.3175324
17	0x3f8913db	1.0709184
18	0x3f9d887c	1.2307277
19	0x3f8bce4f	1.0922335
20	0x3fa9ba2d	1.3259941
21	0x3fb464bf	1.4093245
22	0x40173338	2.3625011
23	0x3f976423	1.1827434
24	0x40206781	2.5063174
25	0x3f93dbde	1.1551473
26	0x3f8c900d	1.0981461
27	0x3fa91d36	1.321204
28	0x3fb178ef	1.3865031
29	0x3ff9a478	1.9503317
30	0x3f9cb9f0	1.2244244
31	0x3f0c690c	0.5484779
32	0x400444df	2.0667036
33	0x3fb86e70	1.4408703
34	0x3f96af00	1.1772156
35	0x3f9abc4b	1.2088712
36	0x3fa58573	1.293135
37	0x3fd2edbc	1.6478801
38	0x3fb9bb76	1.4510334
39	0x40206727	2.506296
40	0x3f999d1d	1.2001072
41	0x3fbd6226	1.4795578
42	0x3f92710a	1.1440747
43	0x3faaa9de	1.3333089
44	0x401a2785	2.408662
45	0x3f9261a4	1.1436048
46	0x3fd0b7e0	1.6306114
47	0x3fc13aef	1.509611
48	0x3fd8fb66	1.6951721
49	0x40209dbc	2.5096273
50	0x3f8ff46f	1.124647
51	0x3f94bfe0	1.1621056
52	0x3fc6a24a	1.5518277
53	0x3fc9beb0	1.5761318
54	0x3f60a225	0.8774741
55	0x3fb40881	1.4065095
56	0x3f958b6b	1.1683172
57	0x3fcd3c81	1.6034089
58	0x40156cf4	2.334775
59	0x3fdbb458	1.7164412
60	0x40133cb5	2.3005803
61	0x3fded5a0	1.7408943
62	0x3fb92449	1.4464198
63	0x3fe3abf5	1.7786852

net.1.bias f4 [64]
0	0x3dc40403	0.09571078
1	0x3d546492	0.051853724
2	0x3e4e8489	0.20167746
3	0xbe0e63ae	-0.13905212
4	0xbe399275	-0.18122275
5	0xbf0b7a18	-0.54483175
6	0x3ce48ee5	0.027900169
7	0xbdefaab9	-0.11702485
8	0xbdcca7b2	-0.09992923
9	0x3ea79b75	0.32735792
10	0xbbeb042d	-0.0071721287
11	0x3e23f03e	0.16009614
12	0xbe2e6b60	-0.17033148
13	0xbd709f75	-0.05874582
14	0xbdc97e4a	-0.09838541
15	0x3e1e2397	0.15443264
16	0xbdb535a3	-0.08848121
17	0x3d506e85	0.05088665
18	0x3d838011	0.06420911
19	0x3da8b5a6	0.08237772
20	0x3dbfa36c	0.09357342
21	0x3d16f4c6	0.036854528
22	0xbb720559	-0.0036929457
23	0xbd20358e	-0.039113574
24	0xbd9eb3df	-0.077491514
25	0x3da2072c	0.07911524
26	0xbcd6bfbd	-0.026214475
27	0xbe297cf4	-0.16551572
28	0x3dfb1218	0.122593105
29	0x3b00daa6	0.0019661575
30	0x3e71829b	0.23584978
31	0x3e952dd3	0.29136524
32	0xbe39c642	-0.18142036
33	0x3e00e3d4	0.1258691
34	0xbd1f6cdd	-0.03892218
35	0xbdd645e6	-0.10462551
36	0x3cf8bf68	0.030364707
37	0xbd7f6e7b	-0.06236122
38	0x3e2db264	0.16962582
39	0xbca7e5b5	-0.020495275
40	0xbe0675f5	-0.13130935
41	0xbd9b9654	-0.07597032
42	0x3b803853	0.0039129644
43	0xbdbae5d9	-0.09125871
44	0xbe048827	-0.12942563
45	0x3b5fe78d	0.0034165115
46	0x3decaa62	0.115559354
47	0xbdcd4ccd	-0.10024414
48	0x3da1d10e	0.07901202
49	0x3e56e6e6	0.20986518
50	0xbe099999	-0.13437499
51	0x3d8812b8	0.06644195
52	0x3cfe0f6b	0.031013211
53	0x3d8f8d9c	0.07009432
54	0x3ec15932	0.37763363
55	0x3d5d9d4d	0.05410509
56	0x3ce9981c	0.028514914
57	0xbe059a13	-0.13047056
58	0xbc2d1aa5	-0.010565435
59	0xbd47babb	-0.048762064
60	0x3cb519d1	0.022107037
61	0x3e4962aa	0.19666544
62	0x3dd2346c	0.10263905
63	0x3dbedc32	0.09319343

net.3.weight f4 [64, 64]
0	0xbe8de190	-0.27711153
1	0xbe449d01	-0.19200517
2	0x3e49ab87	0.19694339
3	0xbebe6815	-0.37188783
4	0xbeafd3d9	-0.34341314
5	0x3c2994a8	0.010350384
6	0x3d47737d	0.048694123
7	0xbe345ba2	-0.1761308
8	0xbd7aa7cb	-0.061195176
9	0xbdc10250	-0.09424269
10	0xbe5187c3	-0.20461945
11	0x3cfea493	0.031084334
12	0xbe22ead5	-0.15909894
13	0xbd90aa6a	-0.07063754
14	0xbf025709	-0.50914055
15	0xbe178baf	-0.14799379
16	0xbe15982b	-0.14608829
17	0x3e305331	0.17219235
18	0xbb38d952	-0.0028205705
19	0x3dae37a7	0.085067086
20	0xbd488991	-0.04895932
21	0xbea50c3c	-0.32235897
22	0x3f6b5bc0	0.91936874
23	0xbe80ccf6	-0.25156373
24	0x3e2a0cf4	0.16606504
25	0x3ec1c7b4	0.37847674
26	0xbc9a09ff	-0.018803595
27	0xbe3f7105	-0.18695457
28	0x3e288446	0.16456708
29	0xbea5a654	-0.3235346
30	0x3d5ed4ee	0.054402284
31	0x3eba13d2	0.36343247
32	0xbd998fab	-0.074981056
33	0x3eaa93e7	0.33315966
34	0xbcfed429	-0.031107025
35	0xbd0dae28	-0.034589916
36	0xbcf8e973	-0.030384755
37	0xbe5337a1	-0.2062669
38	0x3df438d2	0.119249
39	0x3f479af2	0.779708
40	0xbeab0dd2	-0.33408982
41	0xbe0e7498	-0.13911664
42	0x3d4c5ef1	0.04989523
43	0x3a3b036c	0.0007133994
44	0xbdc64c02	-0.09682466
45	0xbe08d368	-0.13361895
46	0x3e556cfb	0.20842354
47	0xbc95bdc6	-0.018278968
48	0x3e6b3eb4	0.22973138
49	0xbcd91713	-0.02650026
50	0xbe720ef3	-0.23638515
51	0x3d8102b8	0.06299347
52	0x3d03ebdf	0.032207366
53	0x3e9bf6d6	0.30461758
54	0xbe03610f	-0.12829994
55	0x3cc1e955	0.023670832
56	0xbe26eecd	-0.16302033
57	0x3e836564	0.25663292
58	0x3cec2c6b	0.028829774
59	0x3e1f3aec	0.1554982
60	0x3daf1d30	0.08550489
61	0x3d2d4309	0.042300258
62	0x3db1be7c	0.0867891
63	0x3e09753d	0.13423629
64	0x3e922c93	0.28549632
65	0xbd72b702	-0.05925656
66	0x3ec1652c	0.377725
67	0xbec5d6f1	-0.3864055
68	0xbe4a68cf	-0.19766544
69	0xbf3dd65d	-0.7415522
70	0xbd2ceaa7	-0.04221597
71	0xbe79581e	-0.2435002
72	0xbdccb238	-0.0999493
73	0x3e9b76a4	0.30363953
74	0xbe53bdb4	-0.20677835
75	0x3dda8a40	0.106709
76	0xbdf79d6c	-0.12090573
77	0x3d131e8e	0.03591781
78	0xbf646887	-0.89221996
79	0x3d192a86	0.03739407
80	0xbde7490f	-0.11293232
81	0x3cbfd594	0.023417272
82	0xbe14afe9	-0.1452023
83	0x3e5e9de1	0.21739914
84	0xbdf56b19	-0.11983318
85	0x3c97c976	0.018528681
86	0x3f6857bc	0.9075887
87	0xbc9dd7df	-0.019267974
88	0xbf219a0e	-0.63125694
89	0xbcf52514	-0.029924907
90	0x3cd0aee4	0.02547402
91	0xbdf16344	-0.117865115
92	0x3da0fec2	0.07861091
93	0xbed5606d	-0.4167513
94	0x3d417a8f	0.04723602
95	0x3e83fa3f	0.2577686
96	0xbe4065f3	-0.1878889
97	0x3f30a848	0.69006777
98	0x3c60e098	0.013725422
99	0xbdb97f5b	-0.09057494
100	0x3e7d152f	0.24715112
101	0xbbad984f	-0.0052976976
102	0x3dec327b	0.11533066
103	0x3f720208	0.9453435
104	0xbe6460e9	-0.22302593
105	0x3df1b140	0.11801386
106	0xbd9bb8fb	-0.076036416
107	0xbe8a1c3e	-0.26974672
108	0x3df0dd36	0.11760943
109	0xbe128af7	-0.14310823
110	0x3e9596e3	0.2921668
111	0x3e0764ed	0.13222094
112	0x3f1c3bc8	0.6102872
113	0x3d918d55	0.07107035
114	0xbd5b5c0e	-0.053554587
115	0xbdbc6749	-0.091993876
116	0x3eacc68a	0.33745223
117	0x3f3c8020	0.73633003
118	0x3e94bf05	0.29051986
119	0x3d0093f5	0.031391103
120	0xbd11f9e5	-0.03563871
121	0x3e4cb76e	0.19991848
122	0xbe3b8185	-0.18311127
123	0x3eb92515	0.36161104
124	0xbe3e3fe4	-0.1857906
125	0x3e62afb9	0.22137345
126	0xbe2b6d52	-0.16740921
127	0x3dfabf80	0.12243557
128	0x3edb7871	0.42865327
129	0x3ce910c6	0.028450381
130	0x3f02df89	0.5112234
131	0xbe62c53f	-0.22145556
132	0x3dadcde6	0.08486538
133	0x3d6195ee	0.055074625
134	0x3d35d996	0.04439696
135	0xbd50193e	-0.050805323
136	0x3c31a4de	0.01084253
137	0xbcaae08f	-0.020859031
138	0xbe2aacfb	-0.1666755
139	0x3dcccbd6	0.09999816
140	0xbedf8552	-0.43656403
141	0x3e5d5d04	0.21617514
142	0x3e87a36a	0.26491863
143	0x3ea2f697	0.31828758
144	0x3d162986	0.036660694
145	0x3ccd9f2e	0.025100317
146	0xbe1a97c6	-0.1509696
147	0x3bcd3147	0.006261978
148	0x3eff0174	0.49805796
149	0xbd8c11b6	-0.068393156
150	0xbf150583	-0.58211535
151	0x3dea0065	0.114258565
152	0xbdb1657e	-0.08661936
153	0x3e3dc902	0.1853371
154	0xbd5c20ae	-0.053742103
155	0xbf12b532	-0.5730773
156	0xbd7a82b1	-0.061159793
157	0x3e516213	0.20447569
158	0x3ec112bb	0.37709603
159	0x3e62ece7	0.22160684
160	0xbe91defc	-0.28490436
161	0xbe67e39b	-0.22645418
162	0xbe0c55c8	-0.13704598
163	0x3c94b295	0.01815156
164	0xbe55b2a1	-0.20868923
165	0xbea3c895	-0.3198897
166	0x3e97c733	0.29644164
167	0xbf138dd4	-0.5763829
168	0x3cc2b7b2	0.023769233
169	0xbc0db35f	-0.008648722
170	0xbdd6df9b	-0.10491868
171	0xbdbfafb7	-0.09359687
172	0xbecff74f	-0.4061837
173	0x3d603b96	0.054744326
174	0xbe3aed9b	-0.18254702
175	0xbee6c816	-0.45074528
176	0xbe998ee2	-0.29991823
177	0x3ec4c4c5	0.38431373
178	0xbe771907	-0.24130641
179	0x3e11bcf1	0.14232232
180	0xbd475013	-0.04866035
181	0xbe064774	-0.13113195
182	0x3eac7ac1	0.33687404
183	0xbe8f2f37	-0.2796571
184	0x3df6392d	0.12022624
185	0x3df08be5	0.11745433
186	0x3e4f04b0	0.20216632
187	0xbeba3e78	-0.36375785
188	0x3decf7cb	0.115707
189	0x3caae5e8	0.020861581
190	0x3e8b2dff	0.2718353
191	0xbe620db7	-0.22075544
192	0x3db8ea05	0.09029011
193	0xbe37ca29	-0.17948212
194	0xbde83dcc	-0.11339912
195	0x3f2807a7	0.65636677
196	0x3f093e26	0.53610456
197	0xbd6c22ae	-0.05765026
198	0x3d4eb65f	0.05046689
199	0xbdd386ab	-0.1032842
200	0x3e07b66f	0.13253187
201	0xbe460a5d	-0.19339891
202	0xbe6abe21	-0.22924091
203	0x3e374e85	0.17901047
204	0xbee04f0a	-0.43810302
205	0x3e6ae0a2	0.22937253
206	0x3f4329a9	0.76235443
207	0x3eca9384	0.3956567
208	0x3dd4f5d1	0.10398448
209	0xbde9fa0e	-0.11424647
210	0x3d8b57f8	0.06803888
211	0x3eb5fc4d	0.35544053
212	0x3ee8a81f	0.45440766
213	0xbd5cf170	-0.05394119
214	0xbf68d24b	-0.9094588
215	0x3e88c116	0.26709813
216	0x3f0c67a5	0.5484565
217	0x3a5c0c50	0.00083941687
218	0x3e1e2b3c	0.1544618
219	0x3e2f4a54	0.17118198
220	0x3d030440	0.031986475
221	0x3eeeb314	0.46621
222	0x3e5d265c	0.21596664
223	0x3df42536	0.1192116
224	0x3e256b9e	0.16154334
225	0xbf2556c2	-0.64585507
226	0xbe971c7c	-0.2951392
227	0x3e58c85b	0.2117018
228	0xbeae9c7c	-0.34103763
229	0xbc987211	-0.018609079
230	0xbdfa9fbf	-0.122375004
231	0xbfbb5d4f	-1.463785
232	0xbe761a4a	-0.24033466
233	0x3d67f147	0.056626584
234	0x3dcf867c	0.10133073
235	0x3e5e50a9	0.21710457
236	0xbf6ebabb	-0.9325368
237	0x3dab8f6f	0.08376967
238	0xbf395d06	-0.7240757
239	0xbeef56af	-0.46745822
240	0xbf90e2ef	-1.1319255
241	0x3f2478fb	0.642471
242	0x3e75be36	0.23998341
243	0x3eb38feb	0.35070738
244	0xbf456c6b	-0.7711856
245	0xbec68c2a	-0.38778812
246	0x3dca313e	0.098726735
247	0xbd78f57a	-0.06078098
248	0x3dfc1e05	0.12310413
249	0xbdd0852a	-0.10181649
250	0x3ea1cf24	0.31603348
251	0xbf37005c	-0.71484923
252	0xbc64a9b0	-0.013956472
253	0xbf054a30	-0.52066326
254	0x3e38031e	0.17969939
255	0xbef700c5	-0.48242775

net.3.bias f4 [64]
0	0x3e3b9775	0.18319495
1	0x3e4983a6	0.19679126
2	0x3d248949	0.040169988
3	0x3dcae1c0	0.0990634
4	0x3e1e9042	0.15484717
5	0x3e5a85b2	0.21340063
6	0x3dba062c	0.090832084
7	0x3e453e6f	0.19262098
8	0x3d398efb	0.045302372
9	0x3cff0371	0.03112957
10	0x3e20219a	0.15637818
11	0x3e18362f	0.1486442
12	0xbdb32536	-0.08747332
13	0x3e411d55	0.18858846
14	0x3d6b3aac	0.057429
15	0x3ee3f6f0	0.44524336
16	0x3e34a640	0.17641544
17	0x3e2ef4cf	0.17085575
18	0x3e365bd9	0.17808475
19	0x3db6fc8d	0.08934889
20	0xbddff669	-0.10935671
21	0xbe830ec4	-0.25597203
22	0x3e2fc56e	0.17165157
23	0xbd881dc6	-0.06646304
24	0x3e518cc1	0.2046385
25	0xbdf2c335	-0.11853639
26	0xbd48ecdd	-0.049054015
27	0x3db46464	0.088082105
28	0xbd1cb4ee	-0.038258485
29	0xbc8ab8ad	-0.016933763
30	0x3dfb6e6f	0.12276923
31	0x3e56e5a7	0.20986043
32	0x3e424f8f	0.18975662
33	0xbd102542	-0.03519178
34	0x3c1ca8c9	0.009561726
35	0x3e4b17bd	0.19833274
36	0x3e6237fb	0.22091667
37	0x3e1bd8e1	0.15219451
38	0xbc1bc926	-0.009508407
39	0x3d335ba5	0.04378857
40	0x3f0496ae	0.5179242
41	0xbd19234f	-0.03738719
42	0xbddc5048	-0.107575
43	0xbdb204a8	-0.08692294
44	0x3e4acd84	0.1980496
45	0xbd7915ae	-0.06081169
46	0x3d9fcfca	0.078033045
47	0xbd7f5a32	-0.062341876
48	0x3e11d93b	0.14243023
49	0xbde092ff	-0.10965537
50	0xbd1cbdc7	-0.038266923
51	0xbd2be4f3	-0.04196639
52	0x3cb4a5a9	0.02205165
53	0x3df5cfb9	0.120025106
54	0xbdbdee76	-0.092739984
55	0xbd837949	-0.06419618
56	0x3d2b8fbe	0.04188513
57	0x3e28a78d	0.16470166
58	0x3d57a04c	0.052643105
59	0x3e0bf4eb	0.13667648
60	0xbdb8cf90	-0.090239644
61	0x3cf4df1f	0.029891549
62	0x3d26b840	0.04070306
63	0x3e309cb5	0.17247279

net.4.weight f4 [64]
0	0x3f7846c3	0.96982974
1	0x3faee74a	1.3664334
2	0x3f802841	1.0012285
3	0x3fc6b04f	1.5522555
4	0x400e2269	2.2208502
5	0x3f9f5db8	1.2450476
6	0x400564f4	2.0842867
7	0x3f98bbd6	1.1932323
8	0x3f65f06b	0.89819974
9	0x3f71ba2b	0.94424695
10	0x3f85a77f	1.0441741
11	0x3f3bd387	0.7336964
12	0x403243a6	2.785379
13	0x3f8979f1	1.0740339
14	0x3f55b1ca	0.8347441
15	0x3f7d7249	0.9900251
16	0x3f3c54cb	0.73566884
17	0x3f81beef	1.0136393
18	0x3f802e10	1.0014057
19	0x3fe3d94e	1.7800691
20	0x4038e9ff	2.889282
21	0x3fe8dbe0	1.81921
22	0x4016fabe	2.359054
23	0x3f6cd0ad	0.92505914
24	0x3f99fb20	1.2029762
25	0x3fb88abf	1.4417342
26	0x40454efe	3.0829463
27	0x3f71b866	0.94421995
28	0x3fdfeac9	1.7493526
29	0x3f702e14	0.9382031
30	0x3fddbb51	1.732279
31	0x3f5f4616	0.8721632
32	0x3f6fff78	0.9374919
33	0x4028ecf7	2.6394632
34	0x3f5ea9cb	0.86977834
35	0x3f8830b2	1.0639861
36	0x3f998f6b	1.1996893
37	0x3f7d1658	0.9886222
38	0x401cdfa9	2.4511511
39	0x4050484f	3.2544134
40	0x3f92003b	1.140632
41	0x403378b9	2.8042433
42	0x3f875f6a	1.0575993
43	0x404b2df1	3.174679
44	0x3f91c8de	1.1389425
45	0x407eac95	3.9792836
46	0x4001be3b	2.0272357
47	0x3f8ae06d	1.0849739
48	0x3f8ead1f	1.1146582
49	0x3f8cd5a7	1.1002702
50	0x3fde1825	1.7351118
51	0x403bc79e	2.9340587
52	0x3f639485	0.888985
53	0x3f992c20	1.1966591
54	0x3f8932c2	1.0718615
55	0x3f82f7f1	1.0231916
56	0x3f715a02	0.94277966
57	0x3f85089e	1.0393255
58	0x3fb1f298	1.3902159
59	0x40728648	3.7894459
60	0x402c0572	2.6878324
61	0x3fda0171	1.703169
62	0x3f6bed61	0.92159086
63	0x3f8c5d5b	1.096599

net.4.bias f4 [64]
0	0x3dbc0bd7	0.09181946
1	0x3e158c35	0.14604266
2	0xbde05616	-0.109539196
3	0xbd019973	-0.03164048
4	0x3da8544c	0.08219203
5	0x3e37e35a	0.17957821
6	0x3cc98c63	0.024603074
7	0x3e18918c	0.14899272
8	0xbe03a2b0	-0.12855029
9	0xbe1bd0d7	-0.15216385
10	0x3dbeaccd	0.09310303
11	0xbdd5c6d1	-0.10438312
12	0xbe12e311	-0.14344431
13	0x3e27c39e	0.16383216
14	0xbe11cd82	-0.14238551
15	0xbd00e34e	-0.031466775
16	0xbdacae07	-0.084316306
17	0x3da84c0b	0.08217629
18	0x3e0dc61c	0.13845104
19	0xbcb15e87	-0.02165152
20	0xbe288c95	-0.16459878
21	0xbe96c36f	-0.2944598
22	0x3d86b1d9	0.065768905
23	0xbe318779	-0.17336835
24	0x3e21f2fe	0.1581535
25	0xbe57054b	-0.20998113
26	0xbdc2a6d4	-0.09504476
27	0xbdd4cc05	-0.10390476
28	0xbe0f3cdc	-0.1398806
29	0xbe19015b	-0.14941923
30	0x3d0a8d6f	0.033826288
31	0xbd83e47a	-0.06440063
32	0x3e1900a0	0.14941645
33	0xbde61e03	-0.11236193
34	0xbe16741e	-0.14692733
35	0x3e3275be	0.17427728
36	0x3e3eb117	0.18622242
37	0x3d9b835a	0.07593413
38	0xbd9cbbf7	-0.07653039
39	0xbd811a12	-0.06303801
40	0xbc89e891	-0.01683453
41	0xbd926198	-0.07147521
42	0xbe403ffc	-0.18774408
43	0xbe0df95a	-0.13864651
44	0x3e308fd5	0.17242368
45	0xbdd51310	-0.104040265
46	0x3c14a8e6	0.009073472
47	0xbe3fc3c6	-0.18727025
48	0x3d309e94	0.043119982
49	0xbe482aaf	-0.19547532
50	0xbe158b55	-0.14603932
51	0xbd83310a	-0.06405838
52	0xbe07c690	-0.1325934
53	0x3d287a4a	0.04113225
54	0xbe53b0aa	-0.2067286
55	0xbe40124b	-0.18756978
56	0xbe02988c	-0.12753505
57	0x3dd8f052	0.105927125
58	0xbcab7f33	-0.020934677
59	0x3d82d974	0.06389132
60	0xbe2670ea	-0.16254011
61	0xbd83bba9	-0.06432278
62	0xbe0b9d2f	-0.1363418
63	0x3e05b9b1	0.13059117

out_mean.weight f4 [1, 64]
0	0x3e0bdde8	0.1365887
1	0x3db1c4dd	0.08680127
2	0xbeb5e674	-0.35527384
3	0xbe9d91fb	-0.30775437
4	0xbc906e83	-0.017630821
5	0x3e4fca09	0.20291914
6	0x3eb308ef	0.34967753
7	0x3e8442a8	0.25832105
8	0xbe58029d	-0.21094747
9	0xbd65d55b	-0.056111675
10	0x3e995241	0.29945567
11	0x3e4e590a	0.20151153
12	0xbf02693a	-0.50941813
13	0x3ed5a3a4	0.4172641
14	0xbda470e3	-0.08029344
15	0xbe531427	-0.20613156
16	0xbdfe1624	-0.12406567
17	0x3e3e6543	0.18593316
18	0x3ec9fe10	0.39451647
19	0x3ee8caba	0.45467168
20	0xbf17d777	-0.5931315
21	0xbe749f72	-0.23888949
22	0xbf2ac3f2	-0.6670524
23	0xbeaa5ddf	-0.33274743
24	0x3e321035	0.17388995
25	0xbe412aee	-0.18864033
26	0xbe180fd9	-0.14849795
27	0xbe884680	-0.26616287
28	0x3f0941c7	0.53615993
29	0xbe9650e8	-0.29358602
30	0x3e7bdda8	0.24596274
31	0xbd185b25	-0.037196297
32	0x3eb28b7c	0.34872043
33	0xbd97bd9c	-0.07409212
34	0xbe4e89fb	-0.20169823
35	0x3edb77f4	0.42864954
36	0x3e4ce505	0.20009239
37	0x3e805a7a	0.25069028
38	0xbf38ba2f	-0.72159094
39	0x3da1dd3c	0.07903525
40	0xbe86b801	-0.2631226
41	0xbeb9f386	-0.36318606
42	0xbed73d3b	-0.42038903
43	0xbf0323cf	-0.51226515
44	0x3ebfea14	0.37483275
45	0x3dd0d68d	0.10197172
46	0xbdb1e2cd	-0.08685837
47	0xbe0af37c	-0.13569444
48	0x3e516b8c	0.20451182
49	0xbeb23193	-0.34803447
50	0x3d72d9dd	0.059289802
51	0xbed2f63b	-0.41203484
52	0xbe985d04	-0.29758465
53	0x3e900cf9	0.28134897
54	0xbdd89066	-0.10574417
55	0xbdef862c	-0.11695513
56	0xbe6aa85f	-0.22915791
57	0x3e938773	0.28814277
58	0x3e9b7ae2	0.3036719
59	0xbe5eee2a	-0.2177054
60	0xbf0a0014	-0.5390637
61	0xbe8d88d1	-0.27643445
62	0xbe03ac4e	-0.12858698
63	0x3eab93a9	0.33511093

out_value.weight f4 [1, 64]
0	0x3e293b3b	0.16526501
1	0x3f2223f5	0.63336116
2	0x3d66a39a	0.056308366
3	0xbe2622e7	-0.16224252
4	0x3f9df065	1.2338988
5	0x3f133476	0.57501924
6	0x3f5034ec	0.8133075
7	0x3ea9cf54	0.3316599
8	0xbdb6491c	-0.08900663
9	0xbe968f3a	-0.29406148
10	0xbb2a0d7c	-0.0025947979
11	0xbb8e8e45	-0.004350456
12	0x3fddad9f	1.731861
13	0x3ea19138	0.31556106
14	0xbe6474ec	-0.22310227
15	0x3e324af4	0.17411405
16	0xbd6d8a8e	-0.057993464
17	0x3e0104b1	0.12599446
18	0x3d8598ab	0.0652326
19	0xbf1477b4	-0.5799515
20	0x3fd63d12	1.6737387
21	0xbf94d848	-1.1628504
22	0x3fb8bd75	1.4432818
23	0xbe9552cf	-0.2916474
24	0x3edd7c9e	0.43259138
25	0xbf3031bc	-0.6882589
26	0xbfe76fb6	-1.8080966
27	0xbcb1933e	-0.021676656
28	0xbf2aec9f	-0.66767305
29	0xbe360e5e	-0.17778918
30	0x3f2652e4	0.6497023
31	0xbdc52e68	-0.09627992
32	0x3e25fcee	0.16209766
33	0xbfabcf33	-1.3422607
34	0xbe45325f	-0.19257496
35	0x3eb06947	0.3445532
36	0x3f03f6f6	0.5154871
37	0xbd2ad6be	-0.0417087
38	0x3fc369d5	1.5266672
39	0xc014fc19	-2.3278868
40	0x3ed71b1a	0.42012864
41	0x3feb05a8	1.8361101
42	0xbed8b674	-0.423267
43	0x3ff6a80b	1.9270033
44	0x3ed1fa3f	0.41011235
45	0xc02ad4b3	-2.6692321
46	0x3f94d3e0	1.1627159
47	0xbee1a5d2	-0.44071823
48	0x3dba5acd	0.0909935
49	0xbefdfb2f	-0.496057
50	0xbf34135d	-0.70342046
51	0x40181dbf	2.3768156
52	0xbdc3e0aa	-0.09564336
53	0xbd91089b	-0.070817195
54	0xbf0211c1	-0.5080834
55	0xbee671b0	-0.45008612
56	0xbe0efd63	-0.13963847
57	0x3d196c47	0.037456777
58	0xbeb86ce2	-0.3602057
59	0x4013d146	2.309648
60	0x3fbfe110	1.4990559
61	0xbf20cbf2	-0.62811196
62	0xbe593d1d	-0.21214719
63	0x3e00c862	0.1257644

weight f4 [64, 5]
0	0xbef8e189	-0.4860957
1	0x3f67d507	0.9055943
2	0xbf4222b4	-0.758342
3	0x3f03c11c	0.51466537
4	0xbd180ad5	-0.037119705
5	0xbe5cfa44	-0.21579844
6	0x40007f94	2.0077868
7	0x3d8c5bc4	0.068534404
8	0xbe95001c	-0.29101646
9	0xbd222dde	-0.039594524
10	0x3efba3cc	0.49148405
11	0xbf5e3af0	-0.8680868
12	0xbf165961	-0.5873013
13	0x3f4e4653	0.80576056
14	0x3e620253	0.22071199
15	0x3f8712d3	1.055262
16	0x3f89a82c	1.0754447
17	0x3ee57c11	0.44821218
18	0xbe29264c	-0.16518515
19	0xbdb39706	-0.0876904
20	0x3f036668	0.51328135
21	0x3f8d32be	1.103111
22	0xbf1ccbf7	-0.61248726
23	0xbe865884	-0.26239407
24	0x3f092548	0.5357251
25	0xbf328352	-0.6973163
26	0xc0656c8b	-3.58475
27	0xbeeac076	-0.4584996
28	0xbe19803e	-0.14990327
29	0x3f0a7ab0	0.54093456
30	0xbe90bad8	-0.2826755
31	0x3fdcec30	1.7259579
32	0x3da85799	0.08219833
33	0xbe42d7b1	-0.19027592
34	0xbdda5e63	-0.10662534
35	0xbe5e684f	-0.21719478
36	0x3f7afe8f	0.98044676
37	0x3f184e49	0.59494454
38	0xbd8fa6a3	-0.07014205
39	0xbe023e89	-0.12719168
40	0xbe9b46f0	-0.3032756
41	0x404be222	3.185677
42	0x3ea49ab4	0.3214928
43	0xbd00771a	-0.031363584
44	0x3dd69cfa	0.1047916
45	0xbf79a6b0	-0.9751997
46	0x3e8138b2	0.25238568
47	0x3f36be04	0.7138369
48	0x3fb5adf5	1.4193712
49	0x3f60b2ce	0.87772834
50	0xbd220628	-0.039556652
51	0x3f13fdd4	0.57809186
52	0x3f1180a9	0.56836945
53	0xbe6e13e8	-0.23249781
54	0xbe3067cf	-0.172271
55	0xbe139299	-0.14411391
56	0x3e577887	0.21042071
57	0x3f2761db	0.6538369
58	0x3ec71dc5	0.388899
59	0xbddffaba	-0.10936494
60	0xbedff0c2	-0.4373837
61	0x3fd780ad	1.6836144
62	0x3f2c0337	0.67192405
63	0x3ee8cb43	0.45467576
64	0xbd3998ec	-0.045311853
65	0x3f74fdf0	0.9569998
66	0x3f5f412b	0.87208813
67	0x3e007584	0.12544829
68	0x3e2ebec3	0.17064957
69	0x3ed3551c	0.4127587
70	0x3fd9fbf8	1.703002
71	0x3e865603	0.26237497
72	0xbea6925a	-0.32533532
73	0xbe2626e5	-0.16225775
74	0x3d31da2e	0.043420963
75	0x3f96ceb0	1.1781826
76	0xbf39de80	-0.72605133
77	0xbef7da99	-0.48408964
78	0x3f129a53	0.5726673
79	0x3e65a7cf	0.22427295
80	0x3d26b172	0.04069657
81	0xbe5720fd	-0.21008678
82	0x3f39141a	0.722963
83	0x3d8645e3	0.065562986
84	0x3eb85368	0.36001134
85	0xbf0a35bb	-0.53988236
86	0x3f5a5c28	0.8529687
87	0xbe8933ac	-0.26797235
88	0x3e0c41f8	0.1369704
89	0xbdef2c59	-0.116783805
90	0x3ea3e956	0.3201396
91	0x3eb4a86c	0.35284746
92	0x3f1b2ede	0.6061839
93	0xbdb062c4	-0.08612588
94	0xbe423720	-0.18966341
95	0x3ebfba6a	0.3744691
96	0x3f813788	1.0095072
97	0x3f05e258	0.522985
98	0x3eefee8b	0.4686168
99	0x3efe71a5	0.4969608
100	0x3f05506d	0.52075845
101	0xbd6d5234	-0.057939723
102	0xbf38ccad	-0.7218731
103	0xbe6b2624	-0.22963768
104	0x3e73d61d	0.23812146
105	0xbe93bc11	-0.2885442
106	0x3feb3992	1.8376944
107	0x3d107e44	0.035276666
108	0xbe11d18e	-0.14240095
109	0xbde714fc	-0.11283299
110	0xbfa4ff48	-1.2890406
111	0x3c16b870	0.009199247
112	0x3f40a82f	0.7525663
113	0x3eb0532e	0.3443846
114	0x3e471152	0.19440201
115	0x3e8c9a67	0.2746155
116	0x3f03963f	0.5140113
117	0xbf099be3	-0.5375349
118	0xbe43d27f	-0.19123267
119	0x3eb02080	0.34399796
120	0x3f493a43	0.78604525
121	0xbe7f26ec	-0.24917191
122	0x3f20207e	0.6254958
123	0xbf8aa71d	-1.0832249
124	0xbed9281b	-0.4241341
125	0xbdbe1acd	-0.092824556
126	0x3e5448ad	0.20730849
127	0x3f140d65	0.5783294
128	0x3f61806a	0.8808657
129	0x3f0d8f5c	0.55296874
130	0x3db655f4	0.08903113
131	0x3ea81eaf	0.3283591
132	0x3f01eca8	0.50751734
133	0x3d984a28	0.07436019
134	0x3ed0192e	0.4064421
135	0x3e666056	0.22497687
136	0x3f58054f	0.843831
137	0xbe749d15	-0.23888047
138	0xbf2afdc4	-0.66793466
139	0xbe70e780	-0.2352581
140	0x3e8f4de1	0.27989104
141	0x3e998c16	0.2998969
142	0x3f2a68ee	0.6656636
143	0x3d929a1f	0.071583025
144	0xbf075b11	-0.5287333
145	0x3f100a67	0.5626587
146	0x3f85c6f0	1.0451336
147	0xbf527297	-0.822061
148	0x3c1442da	0.009049142
149	0x3cdd3f82	0.027007822
150	0x3d307659	0.043081615
151	0x3ee8c7c2	0.45464903
152	0x3f1c8662	0.6114255
153	0x3f746df3	0.9548027
154	0x3f2005ac	0.62508655
155	0xbf3636d1	-0.71177393
156	0x3fb28b61	1.3948785
157	0x3f217da6	0.6308235
158	0x3f61325a	0.87967455
159	0x3f2b52fa	0.6692349
160	0xbee0f09c	-0.4393357
161	0x403c3a17	2.9410455
162	0x3eafb1e3	0.34315404
163	0xbdfa62e2	-0.12225892
164	0xbd8444d3	-0.0645844
165	0xbfb31cbf	-1.3993148
166	0xbebd2670	-0.36943388
167	0xbe9248bd	-0.2857112
168	0x3e86eb3c	0.26351345
169	0x3de11980	0.10991192
170	0xbec4ddaa	-0.38450366
171	0x3f991437	1.1959294
172	0xbe4a38ac	-0.19748181
173	0xbea49024	-0.3214122
174	0xbe89f45d	-0.26944247
175	0xbf0a1ce1	-0.53950316
176	0x3fb4c780	1.4123383
177	0x3da4cb04	0.08046535
178	0x3e8b5802	0.27215582
179	0x3f143886	0.5789875
180	0xbfd51ef9	-1.6650077
181	0x3f012057	0.5043997
182	0x3f332e7d	0.6999281
183	0x3e0f9d4a	0.14024845
184	0xbd93d399	-0.072180934
185	0xbf0c3c7b	-0.54779786
186	0x400a6739	2.1625502
187	0x3ef1b272	0.47206455
188	0xbeb3b74c	-0.35100782
189	0xbd1422e6	-0.036166094
190	0xbe36f6a8	-0.1786753
191	0xbf4e22b1	-0.80521685
192	0xbec399e3	-0.38203344
193	0x3f0620c9	0.52393776
194	0x3e880a0b	0.26570162
195	0xbfb74b6a	-1.431989
196	0x3ea92092	0.33032662
197	0x3f2f525e	0.6848506
198	0x3e957cc3	0.29196748
199	0x3e069373	0.13142185
200	0xbe732da5	-0.23747881
201	0x3ea1fb6f	0.3163714
202	0xbf4e85a7	-0.8067269
203	0xbec763b4	-0.38943255
204	0xbea7c66b	-0.32768568
205	0xbf573936	-0.8407167
206	0x3fc0e9ae	1.5071313
207	0xbe91738e	-0.28408474
208	0x3e1b0bfb	0.15141289
209	0x3f2e0bbc	0.67986655
210	0x3df088bb	0.11744829
211	0x3f34a85d	0.705694
212	0x3f3579c3	0.7088892
213	0x3e55ea77	0.20890222
214	0xbe760828	-0.24026549
215	0x3f47fbcc	0.78118587
216	0x3ef3889a	0.47565156
217	0xbe1ff50e	-0.15620825
218	0xbe93c6f4	-0.28862727
219	0x3ec6aa48	0.3880179
220	0xbfd0f43a	-1.6324532
221	0x3f8da3f7	1.1065663
222	0x3f266e3c	0.65011954
223	0x3c9a26fa	0.018817414
224	0x3d325856	0.043541275
225	0x3e34488d	0.17605801
226	0x3ea582b1	0.32326272
227	0x3ed4e865	0.41583553
228	0xbdf19627	-0.117962174
229	0x3ef5e39c	0.48025215
230	0xbf6cedfc	-0.92550635
231	0xbf965e66	-1.1747558
232	0x3e56fe45	0.20995434
233	0x3eb74dd8	0.35801578
234	0xbb93dec1	-0.0045126383
235	0xbf75bc02	-0.9599
236	0x3fb657cc	1.4245543
237	0x3f6b84f5	0.9199975
238	0x3f3e2288	0.7427144
239	0xbc394c5b	-0.0113097085
240	0xbfa922b3	-1.3213714
241	0xbf84d6d2	-1.0378058
242	0xbe722706	-0.23647699
243	0x3e90ad86	0.28257388
244	0xbb022940	-0.0019861013
245	0x3fcf79e5	1.6209074
246	0xbf9359de	-1.15118
247	0xbec3131e	-0.38100523
248	0x3dfb27a6	0.12263422
249	0x3e67f736	0.22652897
250	0x3f472750	0.7779436
251	0x3faf4406	1.3692634
252	0x3eff57a5	0.49871555
253	0x3f075ea6	0.528788
254	0xbdbfaefe	-0.09359549
255	0x3a8b0bd5	0.0010608385

bias f4 [64]
0	0x3e00db5d	0.1258368
1	0x3d620b6c	0.055186674
2	0x3e65d8ce	0.22445986
3	0xbe23cdb0	-0.15996432
4	0xbe27429d	-0.16334005
5	0xbf150859	-0.5821586
6	0xba8d3d92	-0.0010775796
7	0xbddfe151	-0.109316476
8	0xbc63e7d3	-0.013910252
9	0x3ea747a5	0.32671848
10	0xbc2b29dc	-0.010446992
11	0x3e07a0b1	0.13244893
12	0xbe06c81d	-0.13162275
13	0xbcedd13b	-0.029030433
14	0xbdf01206	-0.11722188
15	0x3e222baa	0.15836969
16	0xbd9de85f	-0.07710337
17	0x3d836881	0.06416417
18	0x3d669948	0.056298524
19	0x3df808b8	0.12111038
20	0x3de6161d	0.112346865
21	0x3ccb2c9e	0.024801549
22	0xbcc04551	-0.023470553
23	0xbc04a4cc	-0.008095931
24	0xbdd75357	-0.10513943
25	0x3e0afb4a	0.13572422
26	0x3bc7e491	0.0061002453
27	0xbe39b600	-0.18135834
28	0x3dedf0b5	0.11618177
29	0x3c8a6611	0.016894372
30	0x3e8fd0a9	0.28088883
31	0x3e963dfc	0.29344165
32	0xbddfec96	-0.10933797
33	0x3e1dceb3	0.1541088
34	0xbd552ec1	-0.05204654
35	0xbc6477a5	-0.013944541
36	0x3cff38e6	0.031155061
37	0xbd8b68f9	-0.06807131
38	0x3e3de800	0.18545532
39	0xbc8deebf	-0.017325757
40	0xbdf97df5	-0.121822275
41	0xbcb063a7	-0.021531893
42	0x3bc615e8	0.006045092
43	0xbd6d1cec	-0.05788891
44	0xbe015bc8	-0.12632668
45	0x3cfd31f4	0.030907609
46	0x3e04a85f	0.12954853
47	0xbd9f8d6e	-0.077906474
48	0x3dafbf06	0.08581357
49	0x3e52809e	0.20556876
50	0xbde66e28	-0.112514794
51	0x3de397ec	0.11112961
52	0x3d562e6a	0.052290358
53	0x3dd179c5	0.10228304
54	0x3f0b03be	0.54302585
55	0x3cdfa8d3	0.027302181
56	0x3db5775e	0.08860658
57	0xbde59562	-0.11210133
58	0xbcc52f36	-0.024070363
59	0xbd1a986a	-0.03774301
60	0x3c83c789	0.016086357
61	0x3e5601c8	0.20899117
62	0x3e072def	0.13201116
63	0x3dc12d91	0.09432519

weight f4 [64]
0	0x3fd4142b	1.6568655
1	0x3fa94571	1.3224317
2	0x3ff0977d	1.879623
3	0x3fbb94b1	1.4654752
4	0x3fce4ed5	1.6117808
5	0x4056325a	3.3468232
6	0x3fae2964	1.3606381
7	0x3f8ea214	1.1143212
8	0x40123685	2.2845776
9	0x3faa34e2	1.3297389
10	0x3f9a4e38	1.205512
11	0x3f9ab2e5	1.2085844
12	0x3f910aeb	1.1331457
13	0x3f9398f9	1.1531059
14	0x4001dfb1	2.029278
15	0x4005d4ef	2.0911214
16	0x3fa8a4e7	1.3175324
17	0x3f8913db	1.0709184
18	0x3f9d887c	1.2307277
19	0x3f8bce4f	1.0922335
20	0x3fa9ba2d	1.3259941
21	0x3fb464bf	1.4093245
22	0x40173338	2.3625011
23	0x3f976423	1.1827434
24	0x40206781	2.5063174
25	0x3f93dbde	1.1551473
26	0x3f8c900d	1.0981461
27	0x3fa91d36	1.321204
28	0x3fb178ef	1.3865031
29	0x3ff9a478	1.9503317
30	0x3f9cb9f0	1.2244244
31	0x3f0c690c	0.5484779
32	0x400444df	2.0667036
33	0x3fb86e70	1.4408703
34	0x3f96af00	1.1772156
35	0x3f9abc4b	1.2088712
36	0x3fa58573	1.293135
37	0x3fd2edbc	1.6478801
38	0x3fb9bb76	1.4510334
39	0x40206727	2.506296
40	0x3f999d1d	1.2001072
41	0x3fbd6226	1.4795578
42	0x3f92710a	1.1440747
43	0x3faaa9de	1.3333089
44	0x401a2785	2.408662
45	0x3f9261a4	1.1436048
46	0x3fd0b7e0	1.6306114
47	0x3fc13aef	1.509611
48	0x3fd8fb66	1.6951721
49	0x40209dbc	2.5096273
50	0x3f8ff46f	1.124647
51	0x3f94bfe0	1.1621056
52	0x3fc6a24a	1.5518277
53	0x3fc9beb0	1.5761318
54	0x3f60a225	0.8774741
55	0x3fb40881	1.4065095
56	0x3f958b6b	1.1683172
57	0x3fcd3c81	1.6034089
58	0x40156cf4	2.334775
59	0x3fdbb458	1.7164412
60	0x40133cb5	2.3005803
61	0x3fded5a0	1.7408943
62	0x3fb92449	1.4464198
63	0x3fe3abf5	1.7786852

bias f4 [64]
0	0x3dc40403	0.09571078
1	0x3d546492	0.051853724
2	0x3e4e8489	0.20167746
3	0xbe0e63ae	-0.13905212
4	0xbe399275	-0.18122275
5	0xbf0b7a18	-0.54483175
6	0x3ce48ee5	0.027900169
7	0xbdefaab9	-0.11702485
8	0xbdcca7b2	-0.09992923
9	0x3ea79b75	0.32735792
10	0xbbeb042d	-0.0071721287
11	0x3e23f03e	0.16009614
12	0xbe2e6b60	-0.17033148
13	0xbd709f75	-0.05874582
14	0xbdc97e4a	-0.09838541
15	0x3e1e2397	0.15443264
16	0xbdb535a3	-0.08848121
17	0x3d506e85	0.05088665
18	0x3d838011	0.06420911
19	0x3da8b5a6	0.08237772
20	0x3dbfa36c	0.09357342
21	0x3d16f4c6	0.036854528
22	0xbb720559	-0.0036929457
23	0xbd20358e	-0.039113574
24	0xbd9eb3df	-0.077491514
25	0x3da2072c	0.07911524
26	0xbcd6bfbd	-0.026214475
27	0xbe297cf4	-0.16551572
28	0x3dfb1218	0.122593105
29	0x3b00daa6	0.0019661575
30	0x3e71829b	0.23584978
31	0x3e952dd3	0.29136524
32	0xbe39c642	-0.18142036
33	0x3e00e3d4	0.1258691
34	0xbd1f6cdd	-0.03892218
35	0xbdd645e6	-0.10462551
36	0x3cf8bf68	0.030364707
37	0xbd7f6e7b	-0.06236122
38	0x3e2db264	0.16962582
39	0xbca7e5b5	-0.020495275
40	0xbe0675f5	-0.13130935
41	0xbd9b9654	-0.07597032
42	0x3b803853	0.0039129644
43	0xbdbae5d9	-0.09125871
44	0xbe048827	-0.12942563
45	0x3b5fe78d	0.0034165115
46	0x3decaa62	0.115559354
47	0xbdcd4ccd	-0.10024414
48	0x3da1d10e	0.07901202
49	0x3e56e6e6	0.20986518
50	0xbe099999	-0.13437499
51	0x3d8812b8	0.06644195
52	0x3cfe0f6b	0.031013211
53	0x3d8f8d9c	0.07009432
54	0x3ec15932	0.37763363
55	0x3d5d9d4d	0.05410509
56	0x3ce9981c	0.028514914
57	0xbe059a13	-0.13047056
58	0xbc2d1aa5	-0.010565435
59	0xbd47babb	-0.048762064
60	0x3cb519d1	0.022107037
61	0x3e4962aa	0.19666544
62	0x3dd2346c	0.10263905
63	0x3dbedc32	0.09319343

weight f4 [64, 64]
0	0xbe8de190	-0.27711153
1	0xbe449d01	-0.19200517
2	0x3e49ab87	0.19694339
3	0xbebe6815	-0.37188783
4	0xbeafd3d9	-0.34341314
5	0x3c2994a8	0.010350384
6	0x3d47737d	0.048694123
7	0xbe345ba2	-0.1761308
8	0xbd7aa7cb	-0.061195176
9	0xbdc10250	-0.09424269
10	0xbe5187c3	-0.20461945
11	0x3cfea493	0.031084334
12	0xbe22ead5	-0.15909894
13	0xbd90aa6a	-0.07063754
14	0xbf025709	-0.50914055
15	0xbe178baf	-0.14799379
16	0xbe15982b	-0.14608829
17	0x3e305331	0.17219235
18	0xbb38d952	-0.0028205705
19	0x3dae37a7	0.085067086
20	0xbd488991	-0.04895932
21	0xbea50c3c	-0.32235897
22	0x3f6b5bc0	0.91936874
23	0xbe80ccf6	-0.25156373
24	0x3e2a0cf4	0.16606504
25	0x3ec1c7b4	0.37847674
26	0xbc9a09ff	-0.018803595
27	0xbe3f7105	-0.18695457
28	0x3e288446	0.16456708
29	0xbea5a654	-0.3235346
30	0x3d5ed4ee	0.054402284
31	0x3eba13d2	0.36343247
32	0xbd998fab	-0.074981056
33	0x3eaa93e7	0.33315966
34	0xbcfed429	-0.031107025
35	0xbd0dae28	-0.034589916
36	0xbcf8e973	-0.030384755
37	0xbe5337a1	-0.2062669
38	0x3df438d2	0.119249
39	0x3f479af2	0.779708
40	0xbeab0dd2	-0.33408982
41	0xbe0e7498	-0.13911664
42	0x3d4c5ef1	0.04989523
43	0x3a3b036c	0.0007133994
44	0xbdc64c02	-0.09682466
45	0xbe08d368	-0.13361895
46	0x3e556cfb	0.20842354
47	0xbc95bdc6	-0.018278968
48	0x3e6b3eb4	0.22973138
49	0xbcd91713	-0.02650026
50	0xbe720ef3	-0.23638515
51	0x3d8102b8	0.06299347
52	0x3d03ebdf	0.032207366
53	0x3e9bf6d6	0.30461758
54	0xbe03610f	-0.12829994
55	0x3cc1e955	0.023670832
56	0xbe26eecd	-0.16302033
57	0x3e836564	0.25663292
58	0x3cec2c6b	0.028829774
59	0x3e1f3aec	0.1554982
60	0x3daf1d30	0.08550489
61	0x3d2d4309	0.042300258
62	0x3db1be7c	0.0867891
63	0x3e09753d	0.13423629
64	0x3e922c93	0.28549632
65	0xbd72b702	-0.05925656
66	0x3ec1652c	0.377725
67	0xbec5d6f1	-0.3864055
68	0xbe4a68cf	-0.19766544
69	0xbf3dd65d	-0.7415522
70	0xbd2ceaa7	-0.04221597
71	0xbe79581e	-0.2435002
72	0xbdccb238	-0.0999493
73	0x3e9b76a4	0.30363953
74	0xbe53bdb4	-0.20677835
75	0x3dda8a40	0.106709
76	0xbdf79d6c	-0.12090573
77	0x3d131e8e	0.03591781
78	0xbf646887	-0.89221996
79	0x3d192a86	0.03739407
80	0xbde7490f	-0.11293232
81	0x3cbfd594	0.023417272
82	0xbe14afe9	-0.1452023
83	0x3e5e9de1	0.21739914
84	0xbdf56b19	-0.11983318
85	0x3c97c976	0.018528681
86	0x3f6857bc	0.9075887
87	0xbc9dd7df	-0.019267974
88	0xbf219a0e	-0.63125694
89	0xbcf52514	-0.029924907
90	0x3cd0aee4	0.02547402
91	0xbdf16344	-0.117865115
92	0x3da0fec2	0.07861091
93	0xbed5606d	-0.4167513
94	0x3d417a8f	0.04723602
95	0x3e83fa3f	0.2577686
96	0xbe4065f3	-0.1878889
97	0x3f30a848	0.69006777
98	0x3c60e098	0.013725422
99	0xbdb97f5b	-0.09057494
100	0x3e7d152f	0.24715112
101	0xbbad984f	-0.0052976976
102	0x3dec327b	0.11533066
103	0x3f720208	0.9453435
104	0xbe6460e9	-0.22302593
105	0x3df1b140	0.11801386
106	0xbd9bb8fb	-0.076036416
107	0xbe8a1c3e	-0.26974672
108	0x3df0dd36	0.11760943
109	0xbe128af7	-0.14310823
110	0x3e9596e3	0.2921668
111	0x3e0764ed	0.13222094
112	0x3f1c3bc8	0.6102872
113	0x3d918d55	0.07107035
114	0xbd5b5c0e	-0.053554587
115	0xbdbc6749	-0.091993876
116	0x3eacc68a	0.33745223
117	0x3f3c8020	0.73633003
118	0x3e94bf05	0.29051986
119	0x3d0093f5	0.031391103
120	0xbd11f9e5	-0.03563871
121	0x3e4cb76e	0.19991848
122	0xbe3b8185	-0.18311127
123	0x3eb92515	0.36161104
124	0xbe3e3fe4	-0.1857906
125	0x3e62afb9	0.22137345
126	0xbe2b6d52	-0.16740921
127	0x3dfabf80	0.12243557
128	0x3edb7871	0.42865327
129	0x3ce910c6	0.028450381
130	0x3f02df89	0.5112234
131	0xbe62c53f	-0.22145556
132	0x3dadcde6	0.08486538
133	0x3d6195ee	0.055074625
134	0x3d35d996	0.04439696
135	0xbd50193e	-0.050805323
136	0x3c31a4de	0.01084253
137	0xbcaae08f	-0.020859031
138	0xbe2aacfb	-0.1666755
139	0x3dcccbd6	0.09999816
140	0xbedf8552	-0.43656403
141	0x3e5d5d04	0.21617514
142	0x3e87a36a	0.26491863
143	0x3ea2f697	0.31828758
144	0x3d162986	0.036660694
145	0x3ccd9f2e	0.025100317
146	0xbe1a97c6	-0.1509696
147	0x3bcd3147	0.006261978
148	0x3eff0174	0.49805796
149	0xbd8c11b6	-0.068393156
150	0xbf150583	-0.58211535
151	0x3dea0065	0.114258565
152	0xbdb1657e	-0.08661936
153	0x3e3dc902	0.1853371
154	0xbd5c20ae	-0.053742103
155	0xbf12b532	-0.5730773
156	0xbd7a82b1	-0.061159793
157	0x3e516213	0.20447569
158	0x3ec112bb	0.37709603
159	0x3e62ece7	0.22160684
160	0xbe91defc	-0.28490436
161	0xbe67e39b	-0.22645418
162	0xbe0c55c8	-0.13704598
163	0x3c94b295	0.01815156
164	0xbe55b2a1	-0.20868923
165	0xbea3c895	-0.3198897
166	0x3e97c733	0.29644164
167	0xbf138dd4	-0.5763829
168	0x3cc2b7b2	0.023769233
169	0xbc0db35f	-0.008648722
170	0xbdd6df9b	-0.10491868
171	0xbdbfafb7	-0.09359687
172	0xbecff74f	-0.4061837
173	0x3d603b96	0.054744326
174	0xbe3aed9b	-0.18254702
175	0xbee6c816	-0.45074528
176	0xbe998ee2	-0.29991823
177	0x3ec4c4c5	0.38431373
178	0xbe771907	-0.24130641
179	0x3e11bcf1	0.14232232
180	0xbd475013	-0.04866035
181	0xbe064774	-0.13113195
182	0x3eac7ac1	0.33687404
183	0xbe8f2f37	-0.2796571
184	0x3df6392d	0.12022624
185	0x3df08be5	0.11745433
186	0x3e4f04b0	0.20216632
187	0xbeba3e78	-0.36375785
188	0x3decf7cb	0.115707
189	0x3caae5e8	0.020861581
190	0x3e8b2dff	0.2718353
191	0xbe620db7	-0.22075544
192	0x3db8ea05	0.09029011
193	0xbe37ca29	-0.17948212
194	0xbde83dcc	-0.11339912
195	0x3f2807a7	0.65636677
196	0x3f093e26	0.53610456
197	0xbd6c22ae	-0.05765026
198	0x3d4eb65f	0.05046689
199	0xbdd386ab	-0.1032842
200	0x3e07b66f	0.13253187
201	0xbe460a5d	-0.19339891
202	0xbe6abe21	-0.22924091
203	0x3e374e85	0.17901047
204	0xbee04f0a	-0.43810302
205	0x3e6ae0a2	0.22937253
206	0x3f4329a9	0.76235443
207	0x3eca9384	0.3956567
208	0x3dd4f5d1	0.10398448
209	0xbde9fa0e	-0.11424647
210	0x3d8b57f8	0.06803888
211	0x3eb5fc4d	0.35544053
212	0x3ee8a81f	0.45440766
213	0xbd5cf170	-0.05394119
214	0xbf68d24b	-0.9094588
215	0x3e88c116	0.26709813
216	0x3f0c67a5	0.5484565
217	0x3a5c0c50	0.00083941687
218	0x3e1e2b3c	0.1544618
219	0x3e2f4a54	0.17118198
220	0x3d030440	0.031986475
221	0x3eeeb314	0.46621
222	0x3e5d265c	0.21596664
223	0x3df42536	0.1192116
224	0x3e256b9e	0.16154334
225	0xbf2556c2	-0.64585507
226	0xbe971c7c	-0.2951392
227	0x3e58c85b	0.2117018
228	0xbeae9c7c	-0.34103763
229	0xbc987211	-0.018609079
230	0xbdfa9fbf	-0.122375004
231	0xbfbb5d4f	-1.463785
232	0xbe761a4a	-0.24033466
233	0x3d67f147	0.056626584
234	0x3dcf867c	0.10133073
235	0x3e5e50a9	0.21710457
236	0xbf6ebabb	-0.9325368
237	0x3dab8f6f	0.08376967
238	0xbf395d06	-0.7240757
239	0xbeef56af	-0.46745822
240	0xbf90e2ef	-1.1319255
241	0x3f2478fb	0.642471
242	0x3e75be36	0.23998341
243	0x3eb38feb	0.35070738
244	0xbf456c6b	-0.7711856
245	0xbec68c2a	-0.38778812
246	0x3dca313e	0.098726735
247	0xbd78f57a	-0.06078098
248	0x3dfc1e05	0.12310413
249	0xbdd0852a	-0.10181649
250	0x3ea1cf24	0.31603348
251	0xbf37005c	-0.71484923
252	0xbc64a9b0	-0.013956472
253	0xbf054a30	-0.52066326
254	0x3e38031e	0.17969939
255	0xbef700c5	-0.48242775

bias f4 [64]
0	0x3e3b9775	0.18319495
1	0x3e4983a6	0.19679126
2	0x3d248949	0.040169988
3	0x3dcae1c0	0.0990634
4	0x3e1e9042	0.15484717
5	0x3e5a85b2	0.21340063
6	0x3dba062c	0.090832084
7	0x3e453e6f	0.19262098
8	0x3d398efb	0.045302372
9	0x3cff0371	0.03112957
10	0x3e20219a	0.15637818
11	0x3e18362f	0.1486442
12	0xbdb32536	-0.08747332
13	0x3e411d55	0.18858846
14	0x3d6b3aac	0.057429
15	0x3ee3f6f0	0.44524336
16	0x3e34a640	0.17641544
17	0x3e2ef4cf	0.17085575
18	0x3e365bd9	0.17808475
19	0x3db6fc8d	0.08934889
20	0xbddff669	-0.10935671
21	0xbe830ec4	-0.25597203
22	0x3e2fc56e	0.17165157
23	0xbd881dc6	-0.06646304
24	0x3e518cc1	0.2046385
25	0xbdf2c335	-0.11853639
26	0xbd48ecdd	-0.049054015
27	0x3db46464	0.088082105
28	0xbd1cb4ee	-0.038258485
29	0xbc8ab8ad	-0.016933763
30	0x3dfb6e6f	0.12276923
31	0x3e56e5a7	0.20986043
32	0x3e424f8f	0.18975662
33	0xbd102542	-0.03519178
34	0x3c1ca8c9	0.009561726
35	0x3e4b17bd	0.19833274
36	0x3e6237fb	0.22091667
37	0x3e1bd8e1	0.15219451
38	0xbc1bc926	-0.009508407
39	0x3d335ba5	0.04378857
40	0x3f0496ae	0.5179242
41	0xbd19234f	-0.03738719
42	0xbddc5048	-0.107575
43	0xbdb204a8	-0.08692294
44	0x3e4acd84	0.1980496
45	0xbd7915ae	-0.06081169
46	0x3d9fcfca	0.078033045
47	0xbd7f5a32	-0.062341876
48	0x3e11d93b	0.14243023
49	0xbde092ff	-0.10965537
50	0xbd1cbdc7	-0.038266923
51	0xbd2be4f3	-0.04196639
52	0x3cb4a5a9	0.02205165
53	0x3df5cfb9	0.120025106
54	0xbdbdee76	-0.092739984
55	0xbd837949	-0.06419618
56	0x3d2b8fbe	0.04188513
57	0x3e28a78d	0.16470166
58	0x3d57a04c	0.052643105
59	0x3e0bf4eb	0.13667648
60	0xbdb8cf90	-0.090239644
61	0x3cf4df1f	0.029891549
62	0x3d26b840	0.04070306
63	0x3e309cb5	0.17247279

weight f4 [64]
0	0x3f7846c3	0.96982974
1	0x3faee74a	1.3664334
2	0x3f802841	1.0012285
3	0x3fc6b04f	1.5522555
4	0x400e2269	2.2208502
5	0x3f9f5db8	1.2450476
6	0x400564f4	2.0842867
7	0x3f98bbd6	1.1932323
8	0x3f65f06b	0.89819974
9	0x3f71ba2b	0.94424695
10	0x3f85a77f	1.0441741
11	0x3f3bd387	0.7336964
12	0x403243a6	2.785379
13	0x3f8979f1	1.0740339
14	0x3f55b1ca	0.8347441
15	0x3f7d7249	0.9900251
16	0x3f3c54cb	0.73566884
17	0x3f81beef	1.0136393
18	0x3f802e10	1.0014057
19	0x3fe3d94e	1.7800691
20	0x4038e9ff	2.889282
21	0x3fe8dbe0	1.81921
22	0x4016fabe	2.359054
23	0x3f6cd0ad	0.92505914
24	0x3f99fb20	1.2029762
25	0x3fb88abf	1.4417342
26	0x40454efe	3.0829463
27	0x3f71b866	0.94421995
28	0x3fdfeac9	1.7493526
29	0x3f702e14	0.9382031
30	0x3fddbb51	1.732279
31	0x3f5f4616	0.8721632
32	0x3f6fff78	0.9374919
33	0x4028ecf7	2.6394632
34	0x3f5ea9cb	0.86977834
35	0x3f8830b2	1.0639861
36	0x3f998f6b	1.1996893
37	0x3f7d1658	0.9886222
38	0x401cdfa9	2.4511511
39	0x4050484f	3.2544134
40	0x3f92003b	1.140632
41	0x403378b9	2.8042433
42	0x3f875f6a	1.0575993
43	0x404b2df1	3.174679
44	0x3f91c8de	1.1389425
45	0x407eac95	3.9792836
46	0x4001be3b	2.0272357
47	0x3f8ae06d	1.0849739
48	0x3f8ead1f	1.1146582
49	0x3f8cd5a7	1.1002702
50	0x3fde1825	1.7351118
51	0x403bc79e	2.9340587
52	0x3f639485	0.888985
53	0x3f992c20	1.1966591
54	0x3f8932c2	1.0718615
55	0x3f82f7f1	1.0231916
56	0x3f715a02	0.94277966
57	0x3f85089e	1.0393255
58	0x3fb1f298	1.3902159
59	0x40728648	3.7894459
60	0x402c0572	2.6878324
61	0x3fda0171	1.703169
62	0x3f6bed61	0.92159086
63	0x3f8c5d5b	1.096599

bias f4 [64]
0	0x3dbc0bd7	0.09181946
1	0x3e158c35	0.14604266
2	0xbde05616	-0.109539196
3	0xbd019973	-0.03164048
4	0x3da8544c	0.08219203
5	0x3e37e35a	0.17957821
6	0x3cc98c63	0.024603074
7	0x3e18918c	0.14899272
8	0xbe03a2b0	-0.12855029
9	0xbe1bd0d7	-0.15216385
10	0x3dbeaccd	0.09310303
11	0xbdd5c6d1	-0.10438312
12	0xbe12e311	-0.14344431
13	0x3e27c39e	0.16383216
14	0xbe11cd82	-0.14238551
15	0xbd00e34e	-0.031466775
16	0xbdacae07	-0.084316306
17	0x3da84c0b	0.08217629
18	0x3e0dc61c	0.13845104
19	0xbcb15e87	-0.02165152
20	0xbe288c95	-0.16459878
21	0xbe96c36f	-0.2944598
22	0x3d86b1d9	0.065768905
23	0xbe318779	-0.17336835
24	0x3e21f2fe	0.1581535
25	0xbe57054b	-0.20998113
26	0xbdc2a6d4	-0.09504476
27	0xbdd4cc05	-0.10390476
28	0xbe0f3cdc	-0.1398806
29	0xbe19015b	-0.14941923
30	0x3d0a8d6f	0.033826288
31	0xbd83e47a	-0.06440063
32	0x3e1900a0	0.14941645
33	0xbde61e03	-0.11236193
34	0xbe16741e	-0.14692733
35	0x3e3275be	0.17427728
36	0x3e3eb117	0.18622242
37	0x3d9b835a	0.07593413
38	0xbd9cbbf7	-0.07653039
39	0xbd811a12	-0.06303801
40	0xbc89e891	-0.01683453
41	0xbd926198	-0.07147521
42	0xbe403ffc	-0.18774408
43	0xbe0df95a	-0.13864651
44	0x3e308fd5	0.17242368
45	0xbdd51310	-0.104040265
46	0x3c14a8e6	0.009073472
47	0xbe3fc3c6	-0.18727025
48	0x3d309e94	0.043119982
49	0xbe482aaf	-0.19547532
50	0xbe158b55	-0.14603932
51	0xbd83310a	-0.06405838
52	0xbe07c690	-0.1325934
53	0x3d287a4a	0.04113225
54	0xbe53b0aa	-0.2067286
55	0xbe40124b	-0.18756978
56	0xbe02988c	-0.12753505
57	0x3dd8f052	0.105927125
58	0xbcab7f33	-0.020934677
59	0x3d82d974	0.06389132
60	0xbe2670ea	-0.16254011
61	0xbd83bba9	-0.06432278
62	0xbe0b9d2f	-0.1363418
63	0x3e05b9b1	0.13059117
