ppo_algorithm/data/Qube-v0_2019-03-14_16-46-36/checkpoint/save_file.pt (torch_old, 73251 bytes, 24 tensors)

net.0.weight f4 [64, 6]
000000 50 6b 52 3e 91 91 8c 3d 4b d9 3e 3d 75 51 9b 3d
       0.20548749 0.06863702 0.046593945 0.07583896
000010 93 66 64 3e e0 96 35 bd fc 86 a1 bd d3 ca 36 3e
       0.22304754 -0.04433334 -0.07887074 0.17850809
000020 18 67 84 bd 51 74 c8 3e f9 13 4e 3d 77 ab 4c 3e
       -0.06464976 0.39151242 0.050312016 0.19987284
000030 7b 9e c1 bd 20 00 07 3d 18 c8 c1 be 5f 54 fd bd
       -0.09454056 0.032959104 -0.37847972 -0.12369608
000040 3a 22 15 be b9 2c a1 3e aa 5f 28 be 36 7b 72 be
       -0.14563838 0.31479433 -0.16442743 -0.23679814
000050 ff 30 c6 3e 15 92 5a 3e 91 58 79 bc ab d1 24 3e
       0.38709256 0.21344788 -0.01521887 0.16095607
000060 d9 6a 1f be a6 e0 90 bd 8d 4a 74 be 46 5d ac 3e
       -0.15568103 -0.07074098 -0.23856564 0.33664912
000070 3a 8c 8f bc 5e f4 73 3d a9 dd 5e be 6b 70 42 3e
       -0.01752292 0.05955922 -0.21764244 0.18988197
000080 fc 14 16 3d ad f0 e8 3c 21 08 5d 3d 74 26 f6 be
       0.036641106 0.028435076 0.05396283 -0.48076212
000090 69 99 12 be c2 8f 9d 3d 7d 69 ec 3a 7b 62 f7 bd
       -0.14316334 0.07693435 0.0018036809 -0.120793305
0000a0 4b 6a 02 be ad 2e ec 3a 55 25 9e 3d 8b 51 8e bc
       -0.1273586 0.0018019282 0.07721964 -0.017372867
0000b0 cf c3 3d bd ef c9 25 be 21 1d 21 3d 34 38 3b 3e
       -0.046329316 -0.16190313 0.03933442 0.18283159
0000c0 1d 9b c0 bd 42 e3 15 be 21 e6 4b be 9e 0e d4 bb
       -0.094045855 -0.14637473 -0.19912006 -0.006471469
0000d0 4b 31 70 be 70 20 d0 bc 1e 79 f2 bb da 28 01 bd
       -0.23456304 -0.025406092 -0.007399692 -0.0315331
0000e0 e6 f6 39 3d 9c e0 08 3e 0f 1f 87 3d 2b 45 9a be
       0.045401476 0.13366932 0.06597721 -0.30130896
0000f0 40 f1 4e bd 41 ae 35 be df 01 31 3e ff 5e 47 3e
       -0.050523043 -0.17742254 0.1728587 0.19469832
000100 88 ae 21 3d a5 58 31 3e 74 22 bc 3d b3 97 d3 3d
       0.039473087 0.17318971 0.09186259 0.10331669
000110 96 1d ae 3d 06 cb cd bd 34 df 3e bd 24 d9 bc bc
       0.08501737 -0.10048489 -0.04659958 -0.02305276
000120 d6 2e 59 3e fd 52 57 3d a3 58 8b be 3c 84 b1 bd
       0.21209273 0.05256938 -0.27216062 -0.086678
000130 16 48 e5 3d 71 88 a4 3e 8e c8 51 bb 2e cc 8d 3c
       0.1119539 0.32135347 -0.003201041 0.017309275
000140 3d a7 70 bd 0b 46 57 bd 35 c5 05 be c9 ce f2 bc
       -0.05875324 -0.052557033 -0.1306351 -0.029639618
000150 08 32 76 bd 85 9b 5b 3d 6a a7 7c 3e 8c 4d 6e 3d
       -0.060106307 0.05361511 0.24673238 0.058179423
000160 42 50 0a bd c0 72 81 bd 10 98 50 3d a4 84 45 be
       -0.033767946 -0.06320715 0.050926268 -0.1928888
000170 ff b4 21 3e 15 29 ab 3d e2 b1 03 be a4 fb cc 3e
       0.15791701 0.08357445 -0.12860826 0.40035737
000180 b3 7a 62 be 82 54 a7 3d 71 47 aa 3c 57 81 c5 3c
       -0.22117119 0.081704155 0.020786019 0.024109526
000190 da b2 37 be 72 5b 1c be 50 f8 6c be 44 1e 86 3e
       -0.1793932 -0.15269259 -0.23141599 0.26194966
0001a0 65 b3 b3 bd 77 41 b0 3d dd ca 18 3d 11 f7 d5 3d
       -0.08774451 0.086062364 0.03730284 0.10447515
0001b0 12 c5 f3 3d 1f 2d 31 3d 27 63 26 3d 39 72 85 be
       0.119028226 0.04325592 0.040621903 -0.26063707
0001c0 1a 80 ec 3d 57 d8 93 3d b3 d1 1c be b2 57 bb 3e
       0.11547871 0.07218998 -0.15314369 0.36590344
0001d0 2f 92 d1 bd 4c 7e 20 be 26 ab a9 3e 6a 44 78 3e
       -0.102329604 -0.15673178 0.33138388 0.24244848
0001e0 4d 3a 1f 3e f8 d6 2d bd d7 d6 0e 3d ca 36 d6 be
       0.15549584 -0.04244134 0.034872856 -0.41838676
0001f0 bb e7 1b be a5 c7 13 3d d6 e5 1e 3e 6c 4a 89 3e
       -0.15225117 0.036079068 0.15517363 0.26814592
000200 ff aa 28 3d a4 b5 cc bc b4 1e 0c be 80 19 00 bd
       0.0411787 -0.024988957 -0.13683587 -0.03127432
000210 5e 7c 86 3d 55 81 36 bb 4f 8d 8c 3e 96 80 8a bd
       0.0656669 -0.0027848084 0.2745156 -0.06762807
000220 d9 da 9b 3e 62 eb e4 bd 65 ec 8f 3e 37 87 83 bd
       0.30440405 -0.11177708 0.28110042 -0.064222746
000230 8c 54 07 3d 7c a3 b2 3e 68 99 42 be 52 5b 77 3d
       0.033039615 0.34890354 -0.19003832 0.060389824
000240 56 8b f4 3d 5e 46 7f bd 98 cb 17 be 16 de ab 3c
       0.11940639 -0.062322967 -0.14823759 0.020979922
000250 bf 38 8d bd 07 5b b7 3d 1e 36 98 bd 21 20 45 3e
       -0.06895589 0.08952909 -0.07432197 0.19250537
000260 ef 40 33 bd c3 c3 0c 3a d6 03 6f bd ba a5 b1 3e
       -0.043763097 0.0005369747 -0.058353268 0.34696752
000270 e8 0a 73 3b 86 b1 05 3f a4 f3 ba bd 84 22 fa bc
       0.0037085358 0.52224004 -0.09128502 -0.030534036
000280 d5 3e 05 be a3 cb c6 be 68 31 df 3d 0a 10 46 be
       -0.1301225 -0.38827237 0.10898095 -0.19342056
000290 cf 95 0c 3e 14 9d d8 3d be 57 a5 3e 0f 83 c9 3d
       0.13729022 0.10576835 0.32293504 0.098394506
0002a0 b5 d0 6c bc 8d 80 b9 bd 7a 71 03 3e 26 40 d6 bd
       -0.0144540565 -0.09057722 0.12836257 -0.10461454
0002b0 c2 e1 7d bd 50 82 80 bd b9 f8 48 bd 6b 77 20 be
       -0.061982878 -0.06274855 -0.049065325 -0.15670554
0002c0 84 79 8c 3a 90 8f c4 bd d1 9a 25 bd 6c 8c af 3d
       0.0010717367 -0.09597695 -0.040430848 0.08571705
0002d0 0f 9e f4 bd 22 db 0c be a8 57 0f be 1c cc fd 3e
       -0.1194421 -0.13755468 -0.13998282 0.49569786
0002e0 ad 8f 94 3e 39 81 0a 3e e3 26 c6 3d 17 7a 19 be
       0.29015866 0.13525857 0.09675386 -0.1498798
0002f0 b1 53 1e be 15 00 a5 3d 90 08 d2 3d 60 4c 98 bd
       -0.15461613 0.08056656 0.102555394 -0.074364424
000300 21 bd 54 bd f2 ed 82 3b 53 00 cc 3d 85 c5 fe 3c
       -0.05193818 0.0039956504 0.09960999 0.031100044
000310 10 30 86 be 8f d0 99 3d 58 ec a8 3c 54 8d 90 be
       -0.26208544 0.075104825 0.02062051 -0.28232825
000320 0d 71 9d bd 0d bd c2 bd 39 e2 42 bc 3f 6a 23 3e
       -0.07687578 -0.09508715 -0.011894756 0.15958498
000330 7d 99 55 3e 91 b0 3f bd 1d dd 4e 3e f2 9c b5 3d
       0.20859332 -0.046799246 0.20201536 0.088678256
000340 d5 63 18 3e 80 0d 9c 3d 62 29 af 3d 07 ff 71 3d
       0.14881833 0.076197624 0.08552815 0.059081104
000350 68 88 8c be 9d 39 63 bd 9b a4 9d 3d 2c 2f 0e 3d
       -0.2744782 -0.055474866 0.076974116 0.034712955
000360 23 bc cf 3e 06 d8 ac be 0d 5b bd bd 69 26 5d be
       0.40573224 -0.33758563 -0.09245882 -0.21596684
000370 94 20 02 bc a7 e3 99 3e 41 7e 2d be a7 f1 fa 3d
       -0.007942338 0.30056497 -0.16942693 0.12253123
000380 46 85 d7 bd 39 5f 80 be 36 f5 b0 bd 40 59 a6 bc
       -0.10523467 -0.2507265 -0.0864052 -0.02030623
000390 30 ea 3c 3e be 90 fc 3c a2 ce eb bd 77 1c 12 be
       0.1844871 0.030830737 -0.115140215 -0.14268671
0003a0 e6 61 a1 be ff ee 85 3e e6 21 71 bd 58 74 8a bd
       -0.31520003 0.26158902 -0.05887022 -0.06760472
0003b0 a4 0b 87 3d 76 be 89 3e d2 a3 3a be 43 b4 eb bd
       0.06594017 0.26903123 -0.18226555 -0.115089916
0003c0 cc d6 17 3e 38 f6 0c be 36 90 00 be 50 40 8a 3e
       0.14828032 -0.137658 -0.12555012 0.27002192
0003d0 21 47 68 bc b9 08 e6 bd a1 6e f5 3d c0 3c cb 3c
       -0.014177115 -0.112321325 0.119839914 0.024809241
0003e0 11 44 c5 bd 05 48 51 3e 90 55 3b 3e 3b c1 07 3e
       -0.09632123 0.2043763 0.18294358 0.13257305
0003f0 de 3b 88 bd 5e 26 9c bb 65 3b 3c bc e2 f5 a3 3e
       -0.06652044 -0.004765316 -0.01148877 0.3202353

net.0.bias f4 [64]
000000 78 a7 e9 ba ac 34 6c bb 70 d4 93 ba c7 1f 71 3a
       -0.0017826399 -0.0036042137 -0.0011278521 0.00091981556
000010 29 99 45 3a 17 6f f1 3a 6d c7 17 3b ff b1 a6 3b
       0.0007537776 0.0018419948 0.0023159639 0.0050871368
000020 1b 72 54 3a 7d a3 f2 bb 3d 9e 1b 3c 1d 16 cf bb
       0.0008104161 -0.007404743 0.009498176 -0.006319775
000030 9e bd 31 3c 2e a1 11 bc 5c 13 95 39 88 25 15 38
       0.010848431 -0.008888526 0.00028433918 3.5559322e-05
000040 da a1 86 3a af 1a e2 ba 68 25 55 3b d4 a2 6f ba
       0.0010271624 -0.0017250384 0.0032523517 -0.000914139
000050 54 32 5a ba 66 49 46 bb 3c ac 47 3b e9 56 08 bc
       -0.00083235395 -0.0030256151 0.003046765 -0.008321502
000060 45 19 d8 bb 6d 05 19 bb 21 3e 29 bb a5 6c aa 3b
       -0.0065948092 -0.0023349181 -0.0025824385 0.0052009397
000070 51 8e 22 3b 41 4c a2 3b 6e c8 0b bb e8 47 54 3b
       0.0024804065 0.004952938 -0.0021329182 0.0032391492
000080 45 5a 04 3b 4b a1 0c 3c 23 2e 99 bb 52 9c 21 3c
       0.0020195406 0.008583377 -0.0046746894 0.00986393
000090 bc be bb ba ac 8e ad 3b 52 83 e7 ba 7a df 33 bc
       -0.0014323811 0.005296549 -0.0017663038 -0.010978574
0000a0 29 6b c0 bb b0 8a 47 3b c3 7e 92 3b 14 53 a5 ba
       -0.0058721495 0.0030447654 0.0044706776 -0.001261326
0000b0 a2 e7 5b 3b 31 83 b3 bb 3e 31 e2 bb 91 cd 48 bb
       0.0033554812 -0.0054782857 -0.006902843 -0.0030640105
0000c0 bf ad 3a 3c 2e fb 9e ba 43 7f 01 bc 04 ab c5 39
       0.011393963 -0.0012129301 -0.007903877 0.00037702185
0000d0 3d 26 a4 b9 2e 26 8d bb 3c 45 99 3a 64 a6 17 3c
       -0.00031309007 -0.00430753 0.0011693607 0.009255979
0000e0 b2 c1 50 39 b6 87 0e 3a 68 68 a3 3a 43 0b 6a 3b
       0.00019908583 0.00054370926 0.0012467029 0.003571228
0000f0 60 0b df 3b 60 79 02 38 89 12 e6 bb 3b 97 da bb
       0.006806776 3.1107455e-05 -0.0070212525 -0.00667086

net.2.weight f4 [64, 64]
000000 a7 ba 49 bd f1 21 a8 bd 18 9c 04 bc ae 45 7f be
       -0.04925027 -0.08209599 -0.008093856 -0.24928924
000010 0d 06 d4 3d 80 32 67 3c 0f a6 bc bd dc fb a2 bd
       0.103527166 0.014111161 -0.09211361 -0.079581946
000020 b9 33 28 3e f8 8c db 3d 70 d2 c8 3d 69 0b 12 3d
       0.1642598 0.10720247 0.09805763 0.035655413
000030 fa ef 0c 3d 60 de 87 bd 24 dd 78 bd 6e 17 16 be
       0.034408547 -0.066342115 -0.06075777 -0.14657375
000040 93 e2 74 be f3 cb 8d 3d 21 a2 50 be 47 e2 11 3c
       -0.23914556 0.06923666 -0.20374347 0.008904046
000050 2b c0 30 3e bd 33 80 bd 0f 52 a7 bd ed 23 89 bd
       0.17260806 -0.06259868 -0.08169948 -0.066963054
000060 4c 37 35 3e 36 ca 16 3e 39 f7 c0 3d 17 68 40 bd
       0.17696875 0.14725575 0.09422154 -0.046974268
000070 c9 f1 98 3e a8 37 5d 3c e3 ed b4 bd 40 7c a8 3d
       0.29871967 0.013502039 -0.08834436 0.08226824
000080 ae 9a fb ba b5 11 6e 3d ce 20 6f 3e cd ff d6 3d
       -0.0019195878 0.058122355 0.23352358 0.10498009
000090 49 b7 56 bd 8c 44 02 3e 0a 0a 58 bd 1c 0b e6 bc
       -0.052420888 0.12721461 -0.05274395 -0.02808147
0000a0 12 72 7e bd 83 d2 0f 3e c9 e1 56 bd d3 23 b0 3d
       -0.062120505 0.14045148 -0.05246142 0.08600583
0000b0 34 67 02 bd a6 23 5e bd ef ea 34 3d e3 fe cb bb
       -0.031836703 -0.054233216 0.044169363 -0.006225453
0000c0 86 34 61 3d 53 4b 26 be 09 8f 16 3d 38 94 9c be
       0.05498173 -0.16239671 0.036757503 -0.30581832
0000d0 ae c8 37 3d 79 fe 8d bd 23 2d 23 3e 68 33 aa 3d
       0.044869117 -0.069333024 0.15935187 0.08310586
0000e0 52 71 ee 3d b0 14 15 3e 29 fb c7 3d fa 25 8b 3d
       0.11642708 0.14558673 0.09764702 0.06794353
0000f0 15 c8 9d bd ef 08 3c 3d 04 f5 21 bd 62 03 2d be
       -0.07704178 0.045906957 -0.039540306 -0.16895822
000100 7d 3f 9e bd c7 9d 56 3c a2 f9 6c be 12 bc a4 3d
       -0.07726953 0.0130991405 -0.23142102 0.08043684
000110 c7 23 e0 b9 91 2c 1a 3e 99 da 37 3d 44 eb 2a bb
       -0.00042751266 0.15056063 0.044886205 -0.002608017
000120 37 6b 6f bd c2 2c 88 bc 5b f2 25 3d 0a b0 20 3e
       -0.058451857 -0.016622905 0.04051433 0.15692154
000130 5b 93 2a 3d c1 44 54 3e 5c bc 90 3d 76 e5 3b be
       0.041644435 0.20729353 0.07067177 -0.18349251
000140 7f c0 3d bd e7 a3 e9 3d dd 60 94 3d c5 0e 25 3e
       -0.046326157 0.11408215 0.07245038 0.16118915
000150 5b 7a 64 3e 23 fc de 3c c0 91 09 be 8b da 2f be
       0.223123 0.027219838 -0.13434505 -0.17173211
000160 a0 80 98 bc 12 6b b3 bb aa d6 1e 3e f6 c8 2c be
       -0.01861602 -0.0054754103 0.15511575 -0.16873536
000170 57 72 09 be 0d 21 ff 3d 94 aa 47 3e 6b d8 8b 3d
       -0.13422523 0.12457476 0.19498664 0.06828388
000180 56 45 24 3e 17 37 8e 3d c4 e2 f1 bc f4 59 a8 bc
       0.16042075 0.06944101 -0.029527076 -0.020550705
000190 2e ae e7 bd a1 9e 6f be ad 68 c2 bc 45 5b 97 be
       -0.11312519 -0.23400356 -0.023731554 -0.2956182
0001a0 8d 77 7a 3d dd 5a e3 3c 82 b1 1e 3d dd 04 98 3d
       0.06114917 0.027753288 0.038743503 0.074228026
0001b0 7d 1f a5 3d de af 75 3d 32 2b 40 3e 3b 58 e5 bb
       0.080626465 0.059982173 0.18766478 -0.0069990433
0001c0 62 27 b3 bd 44 bc 47 3d 30 13 ff 3d 9f 98 42 3d
       -0.08747746 0.04876353 0.124548316 0.047508832
0001d0 4a 71 d6 3d d7 42 1a be 95 9c 56 3e 8c a0 dc bc
       0.10470827 -0.1506456 0.20958169 -0.026932023
0001e0 07 eb d1 bd d6 d3 fc 3d f3 1d 1c be f6 b8 0a 3e
       -0.10249906 0.12345092 -0.152458 0.1354712
0001f0 37 23 8c 3c 0a 66 ae 3d 3e fe f6 3d 30 dd 87 3c
       0.017106635 0.08515556 0.120602116 0.016584963
000200 fd 7b de bc 5b 7d 53 bc 6d ef 19 3e 2b 84 9f 3d
       -0.027158732 -0.012908305 0.1503274 0.07788881
000210 12 30 af 3d fd 0d a0 bd 04 40 9d bd 7f d0 85 3c
       0.085540906 -0.07815168 -0.07678226 0.01633477
000220 70 6c 95 bd 91 08 96 bc 7c 97 3a be ac e1 6f 3b
       -0.072960734 -0.018314632 -0.18221849 0.0036603017
000230 1f a2 26 bd 2d 56 c7 bd e6 e4 1a be 27 70 ef 3c
       -0.040681954 -0.097332336 -0.1512638 0.029228283
000240 f5 c2 5e 3d b1 7e 18 bd 5b 0e 2d 3d 64 8c 7c bc
       0.054385144 -0.037230197 0.04225002 -0.015414331
000250 3a f6 0e be 9d 96 e1 bc f5 d4 0a be 13 b6 33 bd
       -0.13961115 -0.027537638 -0.13557799 -0.04387481
000260 12 ba 19 3e 8e 81 0d 3e 67 29 0c 3e 1e 4c 83 bd
       0.15012386 0.13818952 0.13687669 -0.064110026
000270 b6 c6 81 bd f2 c1 a9 3c 26 be 8f bc 43 8c 14 be
       -0.06336729 0.020722363 -0.017546725 -0.1450663
000280 33 44 b1 3c 82 c8 41 3d cc bb b5 bd 0b d5 a1 3d
       0.021638965 0.04731036 -0.0887371 0.07901963
000290 45 a7 05 be 29 04 98 bb 7c 15 34 3d 4a 15 62 3d
       -0.1305209 -0.004639168 0.0439658 0.055196084
0002a0 19 29 b0 3a 2c c1 cb 3d 70 df c9 bc ef 84 f3 bc
       0.0013439982 0.09948954 -0.024642676 -0.029726474
0002b0 ab 1b 8a 3d cc 65 95 bc d8 25 c2 3d 89 4d 71 bd
       0.067435585 -0.018237017 0.09479874 -0.058911834
0002c0 00 ac eb bc e8 d5 47 3d f5 16 9b 3d fc ea 9c 3d
       -0.02876854 0.04878798 0.07572738 0.07662007
0002d0 f0 3c 21 3d 0f e7 0c be 2a 2b 5b be 3e 9a c1 3d
       0.039364755 -0.13760017 -0.21403185 0.094532475
0002e0 42 e8 49 be bc 60 42 bd 8a 04 b5 3d 87 f3 bf bd
       -0.19717506 -0.047455534 0.088387564 -0.09372621
0002f0 ff f0 8f 3d a4 ab 7f 3e f5 10 82 be f7 50 8f bd
       0.07028388 0.2496782 -0.25403562 -0.06997865
000300 e8 dc da 3c cd fc a9 3c a4 33 c8 bd d4 95 9c 3d
       0.026716664 0.020750428 -0.09775475 0.07645765
000310 2d 80 5e 3d 56 70 94 3d 45 da fa 3a 73 dc dd 3b
       0.054321457 0.07247989 0.0019138536 0.0067706644
000320 b9 5b 65 3d 1f 67 2b bc 22 ed 49 bd 7e 5d 87 3c
       0.055995677 -0.010461598 -0.049298413 0.016524073
000330 d5 10 c5 bc 35 17 a7 3d 25 a3 e1 bc b4 0c 5e bc
       -0.024055878 0.08158723 -0.027543614 -0.013552833
000340 e4 af f4 3c 38 25 b2 bd 63 a6 e6 3c 28 1c 75 be
       0.029869027 -0.08698505 0.028155511 -0.23936522
000350 e6 c6 65 be 2d 03 98 3e e6 58 c6 3d 3b 2e cf bc
       -0.22439155 0.29689923 0.09684925 -0.0252906
000360 60 a7 86 be 3d c5 7e 3e c9 14 a5 3c 3d f4 6b 3e
       -0.26299572 0.24879928 0.020151513 0.23042388
000370 1b e0 aa 3d 82 aa 0a bc a5 a9 ae 3c 6a 20 28 be
       0.08343526 -0.008463504 0.021321127 -0.16418615
000380 01 f6 7e 3d 66 4e 08 bd 8c 5a f8 bd 78 b8 9b bd
       0.062246326 -0.03327789 -0.121266454 -0.07603544
000390 01 da 3e be 92 ef 8d bd f5 2e 48 bd 4c 00 51 3e
       -0.1863785 -0.0693046 -0.048872907 0.2041027
0003a0 bc d3 49 bd ef f5 82 3e 2d a6 c2 bd 47 56 38 bd
       -0.04927419 0.25578257 -0.09504352 -0.045004155
0003b0 66 af 5b 3e 7c a6 18 3d 59 c1 9e 3d 24 57 b2 bc
       0.21453628 0.037268147 0.07751722 -0.021770068
0003c0 1f 11 7f 3c e2 ad 34 3d 23 b1 5f be c2 c7 9f bd
       0.015568047 0.04411114 -0.21844916 -0.07801773
0003d0 7b 6b 83 bd f2 2c b1 be 83 8e 9c 3d b1 f2 38 bd
       -0.06416985 -0.34604603 0.076443695 -0.045153324
0003e0 fb ea 81 bd 71 80 78 3d bc 4b 4e be e3 22 db bd
       -0.06343647 0.060669366 -0.20146078 -0.107000135
0003f0 a9 19 95 bb cd fc 1f be 7c 8b b8 3d 98 df f7 bb
       -0.004550178 -0.1562378 0.090109795 -0.0075644962

net.2.bias f4 [64]
000000 a7 92 90 3a 9f 3c 14 bb 6e f2 a9 bb 52 a3 7c bb
       0.0011030034 -0.002261914 -0.0051863706 -0.0038549495
000010 57 76 c8 ba df cf a9 ba 1d 1a 34 3b d7 43 86 3b
       -0.0015294057 -0.0012955627 0.0027481385 0.0040974426
000020 a9 00 40 bb b4 4b 1b 3b b9 02 88 3b 5e dc cf ba
       -0.0029297268 0.0023696246 0.004150715 -0.0015858521
000030 e8 8f 08 3b 66 20 24 3a fc 61 01 bb b3 69 6f 3b
       0.0020837728 0.0006260931 -0.001974224 0.0036531508
000040 78 13 73 3b 8e 36 7e bb e3 2e ba 39 f3 0c 8f bb
       0.0037090462 -0.0038789841 0.00035511618 -0.0043655573
000050 9e 8a 55 b9 10 45 2f bb 7c 74 8d 3b 45 24 1a bb
       -0.00020364902 -0.0026744045 0.0043168645 -0.0023520153
000060 c6 11 4a bb e8 4e 4f 3a 69 3a 5c 3b 28 61 7e bb
       -0.0030833348 0.0007908181 0.003360415 -0.0038815234
000070 66 16 8c 3b 04 5f a8 ba f3 d7 a5 3b fc 53 52 bb
       0.004275131 -0.00128457 0.0050611435 -0.0032093516
000080 5b fd 65 bb 29 04 b3 3b 2d 6a 94 bb ef 7f f7 bb
       -0.0035093639 0.0054631424 -0.0045292587 -0.0075530927
000090 10 3b 26 bb 34 49 b9 ba 3a 78 5f bb fc 7a ea 39
       -0.0025364794 -0.0014136196 -0.003409876 0.00044723589
0000a0 38 e7 9b bb 2e 2f 07 3b 4b 3f 06 3b a1 ab cc 3b
       -0.004757788 0.0020627487 0.0020484503 0.0062460457
0000b0 9b b4 66 3b 57 e5 06 3c 8b 3e 19 3b c6 37 3f bb
       0.0035202864 0.00823339 0.0023383226 -0.002917753
0000c0 89 0d 45 bb 8e 5a 4a bb 06 c9 9b bb 18 96 26 3a
       -0.0030067882 -0.0030876729 -0.0047541885 0.0006354763
0000d0 14 84 75 3b f7 67 82 3b a8 b6 8b bb ae 78 7b bb
       0.0037462758 0.0039796787 -0.0042637177 -0.0038371491
0000e0 10 9d 54 3b 21 d4 32 3b 73 42 35 bb e3 a0 1c bb
       0.003244225 0.0027287083 -0.0027658015 -0.0023899607
0000f0 54 70 af bb ea 2e 24 3b 07 5a 40 3b 5c 8a f3 3a
       -0.0053539667 0.0025052377 0.0029350535 0.0018580663

out_mean.weight f4 [1, 64]
000000 f7 04 d9 bd 27 b9 05 3e 79 14 b1 3e 32 1d 89 3d
       -0.1059665 0.13058911 0.34585932 0.06695022
000010 eb 2e 63 3e 69 e1 e7 3d 09 d1 30 be 94 5e 85 be
       0.22185867 0.113222905 -0.1726724 -0.2604872
000020 76 58 84 3e 5a c5 de 3c cd ec 9b be 3e 43 1c 3d
       0.2584874 0.027193714 -0.30454102 0.038150065
000030 81 99 81 3c 9e 1a 89 ba 7b f6 80 3d c2 31 6b be
       0.015820267 -0.0010460203 0.062970124 -0.229682
000040 bf 1f 79 be f6 6c af 3d 0c 7a ab 3d ce ba c6 3e
       -0.24328516 0.085657045 0.08372888 0.38814396
000050 04 6f 32 3d d5 21 58 3e 74 11 88 be c5 83 87 3d
       0.043562904 0.21106656 -0.26575816 0.0661693
000060 7e 05 08 3e bf cc 8e be 27 1d a7 be 9e 84 3a 3e
       0.13283345 -0.27890584 -0.3263943 0.18214652
000070 f4 12 79 3d 3a 05 ab 3d fd 11 87 be 73 35 bb 3d
       0.06080909 0.08350606 -0.2638091 0.09141054
000080 2b 80 fa 3d d0 b9 0e be e6 31 c6 3e 19 6b 44 3e
       0.12231477 -0.1393807 0.38709944 0.1918148
000090 ea 78 93 3e 13 32 bb 3d 0a d2 2d 3e 60 18 73 3d
       0.28803188 0.0914041 0.16974655 0.059349418
0000a0 8d 0c f9 3d 0c c1 a7 be e9 76 0c be 16 76 d9 bd
       0.12160597 -0.3276447 -0.13717236 -0.10618226
0000b0 3e a3 dd bd 17 78 49 bd 6e 75 4a be 64 06 1e 3e
       -0.108221516 -0.049186792 -0.19771358 0.15432125
0000c0 ed dd 3e 3e 9d 18 88 3e b6 fb 30 3d b2 44 8e 3e
       0.18639345 0.26581278 0.0432088 0.27786785
0000d0 e7 da 87 bd b2 5c 10 be 82 d7 b8 3e 7f 01 f5 bc
       -0.06633549 -0.1409786 0.3610192 -0.02990794
0000e0 67 d9 1c be 62 fa 40 be a7 36 d9 3c 47 52 46 3e
       -0.15317307 -0.18845513 0.026515318 0.19367324
0000f0 c6 6d 60 3d 30 18 a2 be 01 82 31 be f2 91 c7 bb
       0.054792188 -0.3165908 -0.17334749 -0.006090396

out_value.weight f4 [1, 64]
000000 65 70 39 be cb f8 6c 3d b6 2c 99 be 74 5f 9e be
       -0.18109281 0.057854455 -0.29916924 -0.309322
000010 51 c0 d2 3d 14 35 78 3e b6 c7 30 3d cc fc 2f 3e
       0.10290588 0.24238998 0.04315921 0.17186278
000020 23 58 08 be f8 74 90 be 84 5b 8f 3d 9a a3 5e 3d
       -0.13314871 -0.2821424 0.06999877 0.05435524
000030 9d 20 f1 3d ba 53 7e 3e 7f e9 8e 3d b5 49 1f 3d
       0.117737986 0.24836627 0.069781296 0.038888652
000040 93 74 91 3d c2 c0 e1 bd cf 07 1d 3e 7e f5 c9 3d
       0.07102313 -0.11023094 0.1533501 0.09861277
000050 d9 ea 9b 3d 2e 3d 97 3e 60 ab a6 bd 01 c1 16 3e
       0.07613153 0.29538864 -0.08138156 0.14722063
000060 e6 8c de 3d e9 fa 8f 3d 69 23 7a 3e 6e 5f d4 3d
       0.10866718 0.07030279 0.2442757 0.10369764
000070 a3 78 af be db cd 40 3e 35 72 eb 3c 65 f3 fd bd
       -0.34271726 0.18828528 0.028740982 -0.123999394
000080 2a e6 83 3c 2b 0b 5a be 0c 83 92 be c6 de 3e be
       0.016100962 -0.21293323 -0.28615606 -0.18639669
000090 50 1c 44 3e aa 0d 30 3e c6 c2 a6 3b 5f 2f f8 bc
       0.19151425 0.17192712 0.005089137 -0.030296026
0000a0 27 f1 b2 be 4e da 89 bd 05 d3 4f be 87 28 7c bd
       -0.3494961 -0.067310914 -0.20295341 -0.061562087
0000b0 c7 6b 5f 3d bd 24 df 3d 65 5d 4c be 2f f9 f5 bd
       0.054546144 0.10895679 -0.19957502 -0.120104186
0000c0 2f 8f 1a 3e 7d 37 ea 3c 33 b5 a4 bc 72 25 77 be
       0.15093683 0.028590912 -0.020105934 -0.24135378
0000d0 b1 1d 90 3d 03 9d da 3c a3 58 b1 bd 21 03 1e 3e
       0.07036913 0.026686197 -0.08659484 0.15430881
0000e0 78 de 2d 3e 63 5e b0 3d 4d 32 27 3c 6a 2a 4f 3e
       0.16979396 0.08611753 0.010204864 0.20231023
0000f0 0d 95 d0 bd d2 1c ab bd e2 ad 90 3c 78 1f 7a 3e
       -0.10184679 -0.083551064 0.017661039 0.24426067

weight f4 [64, 6]
000000 50 6b 52 3e 91 91 8c 3d 4b d9 3e 3d 75 51 9b 3d
       0.20548749 0.06863702 0.046593945 0.07583896
000010 93 66 64 3e e0 96 35 bd fc 86 a1 bd d3 ca 36 3e
       0.22304754 -0.04433334 -0.07887074 0.17850809
000020 18 67 84 bd 51 74 c8 3e f9 13 4e 3d 77 ab 4c 3e
       -0.06464976 0.39151242 0.050312016 0.19987284
000030 7b 9e c1 bd 20 00 07 3d 18 c8 c1 be 5f 54 fd bd
       -0.09454056 0.032959104 -0.37847972 -0.12369608
000040 3a 22 15 be b9 2c a1 3e aa 5f 28 be 36 7b 72 be
       -0.14563838 0.31479433 -0.16442743 -0.23679814
000050 ff 30 c6 3e 15 92 5a 3e 91 58 79 bc ab d1 24 3e
       0.38709256 0.21344788 -0.01521887 0.16095607
000060 d9 6a 1f be a6 e0 90 bd 8d 4a 74 be 46 5d ac 3e
       -0.15568103 -0.07074098 -0.23856564 0.33664912
000070 3a 8c 8f bc 5e f4 73 3d a9 dd 5e be 6b 70 42 3e
       -0.01752292 0.05955922 -0.21764244 0.18988197
000080 fc 14 16 3d ad f0 e8 3c 21 08 5d 3d 74 26 f6 be
       0.036641106 0.028435076 0.05396283 -0.48076212
000090 69 99 12 be c2 8f 9d 3d 7d 69 ec 3a 7b 62 f7 bd
       -0.14316334 0.07693435 0.0018036809 -0.120793305
0000a0 4b 6a 02 be ad 2e ec 3a 55 25 9e 3d 8b 51 8e bc
       -0.1273586 0.0018019282 0.07721964 -0.017372867
0000b0 cf c3 3d bd ef c9 25 be 21 1d 21 3d 34 38 3b 3e
       -0.046329316 -0.16190313 0.03933442 0.18283159
0000c0 1d 9b c0 bd 42 e3 15 be 21 e6 4b be 9e 0e d4 bb
       -0.094045855 -0.14637473 -0.19912006 -0.006471469
0000d0 4b 31 70 be 70 20 d0 bc 1e 79 f2 bb da 28 01 bd
       -0.23456304 -0.025406092 -0.007399692 -0.0315331
0000e0 e6 f6 39 3d 9c e0 08 3e 0f 1f 87 3d 2b 45 9a be
       0.045401476 0.13366932 0.06597721 -0.30130896
0000f0 40 f1 4e bd 41 ae 35 be df 01 31 3e ff 5e 47 3e
       -0.050523043 -0.17742254 0.1728587 0.19469832
000100 88 ae 21 3d a5 58 31 3e 74 22 bc 3d b3 97 d3 3d
       0.039473087 0.17318971 0.09186259 0.10331669
000110 96 1d ae 3d 06 cb cd bd 34 df 3e bd 24 d9 bc bc
       0.08501737 -0.10048489 -0.04659958 -0.02305276
000120 d6 2e 59 3e fd 52 57 3d a3 58 8b be 3c 84 b1 bd
       0.21209273 0.05256938 -0.27216062 -0.086678
000130 16 48 e5 3d 71 88 a4 3e 8e c8 51 bb 2e cc 8d 3c
       0.1119539 0.32135347 -0.003201041 0.017309275
000140 3d a7 70 bd 0b 46 57 bd 35 c5 05 be c9 ce f2 bc
       -0.05875324 -0.052557033 -0.1306351 -0.029639618
000150 08 32 76 bd 85 9b 5b 3d 6a a7 7c 3e 8c 4d 6e 3d
       -0.060106307 0.05361511 0.24673238 0.058179423
000160 42 50 0a bd c0 72 81 bd 10 98 50 3d a4 84 45 be
       -0.033767946 -0.06320715 0.050926268 -0.1928888
000170 ff b4 21 3e 15 29 ab 3d e2 b1 03 be a4 fb cc 3e
       0.15791701 0.08357445 -0.12860826 0.40035737
000180 b3 7a 62 be 82 54 a7 3d 71 47 aa 3c 57 81 c5 3c
       -0.22117119 0.081704155 0.020786019 0.024109526
000190 da b2 37 be 72 5b 1c be 50 f8 6c be 44 1e 86 3e
       -0.1793932 -0.15269259 -0.23141599 0.26194966
0001a0 65 b3 b3 bd 77 41 b0 3d dd ca 18 3d 11 f7 d5 3d
       -0.08774451 0.086062364 0.03730284 0.10447515
0001b0 12 c5 f3 3d 1f 2d 31 3d 27 63 26 3d 39 72 85 be
       0.119028226 0.04325592 0.040621903 -0.26063707
0001c0 1a 80 ec 3d 57 d8 93 3d b3 d1 1c be b2 57 bb 3e
       0.11547871 0.07218998 -0.15314369 0.36590344
0001d0 2f 92 d1 bd 4c 7e 20 be 26 ab a9 3e 6a 44 78 3e
       -0.102329604 -0.15673178 0.33138388 0.24244848
0001e0 4d 3a 1f 3e f8 d6 2d bd d7 d6 0e 3d ca 36 d6 be
       0.15549584 -0.04244134 0.034872856 -0.41838676
0001f0 bb e7 1b be a5 c7 13 3d d6 e5 1e 3e 6c 4a 89 3e
       -0.15225117 0.036079068 0.15517363 0.26814592
000200 ff aa 28 3d a4 b5 cc bc b4 1e 0c be 80 19 00 bd
       0.0411787 -0.024988957 -0.13683587 -0.03127432
000210 5e 7c 86 3d 55 81 36 bb 4f 8d 8c 3e 96 80 8a bd
       0.0656669 -0.0027848084 0.2745156 -0.06762807
000220 d9 da 9b 3e 62 eb e4 bd 65 ec 8f 3e 37 87 83 bd
       0.30440405 -0.11177708 0.28110042 -0.064222746
000230 8c 54 07 3d 7c a3 b2 3e 68 99 42 be 52 5b 77 3d
       0.033039615 0.34890354 -0.19003832 0.060389824
000240 56 8b f4 3d 5e 46 7f bd 98 cb 17 be 16 de ab 3c
       0.11940639 -0.062322967 -0.14823759 0.020979922
000250 bf 38 8d bd 07 5b b7 3d 1e 36 98 bd 21 20 45 3e
       -0.06895589 0.08952909 -0.07432197 0.19250537
000260 ef 40 33 bd c3 c3 0c 3a d6 03 6f bd ba a5 b1 3e
       -0.043763097 0.0005369747 -0.058353268 0.34696752
000270 e8 0a 73 3b 86 b1 05 3f a4 f3 ba bd 84 22 fa bc
       0.0037085358 0.52224004 -0.09128502 -0.030534036
000280 d5 3e 05 be a3 cb c6 be 68 31 df 3d 0a 10 46 be
       -0.1301225 -0.38827237 0.10898095 -0.19342056
000290 cf 95 0c 3e 14 9d d8 3d be 57 a5 3e 0f 83 c9 3d
       0.13729022 0.10576835 0.32293504 0.098394506
0002a0 b5 d0 6c bc 8d 80 b9 bd 7a 71 03 3e 26 40 d6 bd
       -0.0144540565 -0.09057722 0.12836257 -0.10461454
0002b0 c2 e1 7d bd 50 82 80 bd b9 f8 48 bd 6b 77 20 be
       -0.061982878 -0.06274855 -0.049065325 -0.15670554
0002c0 84 79 8c 3a 90 8f c4 bd d1 9a 25 bd 6c 8c af 3d
       0.0010717367 -0.09597695 -0.040430848 0.08571705
0002d0 0f 9e f4 bd 22 db 0c be a8 57 0f be 1c cc fd 3e
       -0.1194421 -0.13755468 -0.13998282 0.49569786
0002e0 ad 8f 94 3e 39 81 0a 3e e3 26 c6 3d 17 7a 19 be
       0.29015866 0.13525857 0.09675386 -0.1498798
0002f0 b1 53 1e be 15 00 a5 3d 90 08 d2 3d 60 4c 98 bd
       -0.15461613 0.08056656 0.102555394 -0.074364424
000300 21 bd 54 bd f2 ed 82 3b 53 00 cc 3d 85 c5 fe 3c
       -0.05193818 0.0039956504 0.09960999 0.031100044
000310 10 30 86 be 8f d0 99 3d 58 ec a8 3c 54 8d 90 be
       -0.26208544 0.075104825 0.02062051 -0.28232825
000320 0d 71 9d bd 0d bd c2 bd 39 e2 42 bc 3f 6a 23 3e
       -0.07687578 -0.09508715 -0.011894756 0.15958498
000330 7d 99 55 3e 91 b0 3f bd 1d dd 4e 3e f2 9c b5 3d
       0.20859332 -0.046799246 0.20201536 0.088678256
000340 d5 63 18 3e 80 0d 9c 3d 62 29 af 3d 07 ff 71 3d
       0.14881833 0.076197624 0.08552815 0.059081104
000350 68 88 8c be 9d 39 63 bd 9b a4 9d 3d 2c 2f 0e 3d
       -0.2744782 -0.055474866 0.076974116 0.034712955
000360 23 bc cf 3e 06 d8 ac be 0d 5b bd bd 69 26 5d be
       0.40573224 -0.33758563 -0.09245882 -0.21596684
000370 94 20 02 bc a7 e3 99 3e 41 7e 2d be a7 f1 fa 3d
       -0.007942338 0.30056497 -0.16942693 0.12253123
000380 46 85 d7 bd 39 5f 80 be 36 f5 b0 bd 40 59 a6 bc
       -0.10523467 -0.2507265 -0.0864052 -0.02030623
000390 30 ea 3c 3e be 90 fc 3c a2 ce eb bd 77 1c 12 be
       0.1844871 0.030830737 -0.115140215 -0.14268671
0003a0 e6 61 a1 be ff ee 85 3e e6 21 71 bd 58 74 8a bd
       -0.31520003 0.26158902 -0.05887022 -0.06760472
0003b0 a4 0b 87 3d 76 be 89 3e d2 a3 3a be 43 b4 eb bd
       0.06594017 0.26903123 -0.18226555 -0.115089916
0003c0 cc d6 17 3e 38 f6 0c be 36 90 00 be 50 40 8a 3e
       0.14828032 -0.137658 -0.12555012 0.27002192
0003d0 21 47 68 bc b9 08 e6 bd a1 6e f5 3d c0 3c cb 3c
       -0.014177115 -0.112321325 0.119839914 0.024809241
0003e0 11 44 c5 bd 05 48 51 3e 90 55 3b 3e 3b c1 07 3e
       -0.09632123 0.2043763 0.18294358 0.13257305
0003f0 de 3b 88 bd 5e 26 9c bb 65 3b 3c bc e2 f5 a3 3e
       -0.06652044 -0.004765316 -0.01148877 0.3202353

bias f4 [64]
000000 78 a7 e9 ba ac 34 6c bb 70 d4 93 ba c7 1f 71 3a
       -0.0017826399 -0.0036042137 -0.0011278521 0.00091981556
000010 29 99 45 3a 17 6f f1 3a 6d c7 17 3b ff b1 a6 3b
       0.0007537776 0.0018419948 0.0023159639 0.0050871368
000020 1b 72 54 3a 7d a3 f2 bb 3d 9e 1b 3c 1d 16 cf bb
       0.0008104161 -0.007404743 0.009498176 -0.006319775
000030 9e bd 31 3c 2e a1 11 bc 5c 13 95 39 88 25 15 38
       0.010848431 -0.008888526 0.00028433918 3.5559322e-05
000040 da a1 86 3a af 1a e2 ba 68 25 55 3b d4 a2 6f ba
       0.0010271624 -0.0017250384 0.0032523517 -0.000914139
000050 54 32 5a ba 66 49 46 bb 3c ac 47 3b e9 56 08 bc
       -0.00083235395 -0.0030256151 0.003046765 -0.008321502
000060 45 19 d8 bb 6d 05 19 bb 21 3e 29 bb a5 6c aa 3b
       -0.0065948092 -0.0023349181 -0.0025824385 0.0052009397
000070 51 8e 22 3b 41 4c a2 3b 6e c8 0b bb e8 47 54 3b
       0.0024804065 0.004952938 -0.0021329182 0.0032391492
000080 45 5a 04 3b 4b a1 0c 3c 23 2e 99 bb 52 9c 21 3c
       0.0020195406 0.008583377 -0.0046746894 0.00986393
000090 bc be bb ba ac 8e ad 3b 52 83 e7 ba 7a df 33 bc
       -0.0014323811 0.005296549 -0.0017663038 -0.010978574
0000a0 29 6b c0 bb b0 8a 47 3b c3 7e 92 3b 14 53 a5 ba
       -0.0058721495 0.0030447654 0.0044706776 -0.001261326
0000b0 a2 e7 5b 3b 31 83 b3 bb 3e 31 e2 bb 91 cd 48 bb
       0.0033554812 -0.0054782857 -0.006902843 -0.0030640105
0000c0 bf ad 3a 3c 2e fb 9e ba 43 7f 01 bc 04 ab c5 39
       0.011393963 -0.0012129301 -0.007903877 0.00037702185
0000d0 3d 26 a4 b9 2e 26 8d bb 3c 45 99 3a 64 a6 17 3c
       -0.00031309007 -0.00430753 0.0011693607 0.009255979
0000e0 b2 c1 50 39 b6 87 0e 3a 68 68 a3 3a 43 0b 6a 3b
       0.00019908583 0.00054370926 0.0012467029 0.003571228
0000f0 60 0b df 3b 60 79 02 38 89 12 e6 bb 3b 97 da bb
       0.006806776 3.1107455e-05 -0.0070212525 -0.00667086

weight f4 [64, 64]
000000 a7 ba 49 bd f1 21 a8 bd 18 9c 04 bc ae 45 7f be
       -0.04925027 -0.08209599 -0.008093856 -0.24928924
000010 0d 06 d4 3d 80 32 67 3c 0f a6 bc bd dc fb a2 bd
       0.103527166 0.014111161 -0.09211361 -0.079581946
000020 b9 33 28 3e f8 8c db 3d 70 d2 c8 3d 69 0b 12 3d
       0.1642598 0.10720247 0.09805763 0.035655413
000030 fa ef 0c 3d 60 de 87 bd 24 dd 78 bd 6e 17 16 be
       0.034408547 -0.066342115 -0.06075777 -0.14657375
000040 93 e2 74 be f3 cb 8d 3d 21 a2 50 be 47 e2 11 3c
       -0.23914556 0.06923666 -0.20374347 0.008904046
000050 2b c0 30 3e bd 33 80 bd 0f 52 a7 bd ed 23 89 bd
       0.17260806 -0.06259868 -0.08169948 -0.066963054
000060 4c 37 35 3e 36 ca 16 3e 39 f7 c0 3d 17 68 40 bd
       0.17696875 0.14725575 0.09422154 -0.046974268
000070 c9 f1 98 3e a8 37 5d 3c e3 ed b4 bd 40 7c a8 3d
       0.29871967 0.013502039 -0.08834436 0.08226824
000080 ae 9a fb ba b5 11 6e 3d ce 20 6f 3e cd ff d6 3d
       -0.0019195878 0.058122355 0.23352358 0.10498009
000090 49 b7 56 bd 8c 44 02 3e 0a 0a 58 bd 1c 0b e6 bc
       -0.052420888 0.12721461 -0.05274395 -0.02808147
0000a0 12 72 7e bd 83 d2 0f 3e c9 e1 56 bd d3 23 b0 3d
       -0.062120505 0.14045148 -0.05246142 0.08600583
0000b0 34 67 02 bd a6 23 5e bd ef ea 34 3d e3 fe cb bb
       -0.031836703 -0.054233216 0.044169363 -0.006225453
0000c0 86 34 61 3d 53 4b 26 be 09 8f 16 3d 38 94 9c be
       0.05498173 -0.16239671 0.036757503 -0.30581832
0000d0 ae c8 37 3d 79 fe 8d bd 23 2d 23 3e 68 33 aa 3d
       0.044869117 -0.069333024 0.15935187 0.08310586
0000e0 52 71 ee 3d b0 14 15 3e 29 fb c7 3d fa 25 8b 3d
       0.11642708 0.14558673 0.09764702 0.06794353
0000f0 15 c8 9d bd ef 08 3c 3d 04 f5 21 bd 62 03 2d be
       -0.07704178 0.045906957 -0.039540306 -0.16895822
000100 7d 3f 9e bd c7 9d 56 3c a2 f9 6c be 12 bc a4 3d
       -0.07726953 0.0130991405 -0.23142102 0.08043684
000110 c7 23 e0 b9 91 2c 1a 3e 99 da 37 3d 44 eb 2a bb
       -0.00042751266 0.15056063 0.044886205 -0.002608017
000120 37 6b 6f bd c2 2c 88 bc 5b f2 25 3d 0a b0 20 3e
       -0.058451857 -0.016622905 0.04051433 0.15692154
000130 5b 93 2a 3d c1 44 54 3e 5c bc 90 3d 76 e5 3b be
       0.041644435 0.20729353 0.07067177 -0.18349251
000140 7f c0 3d bd e7 a3 e9 3d dd 60 94 3d c5 0e 25 3e
       -0.046326157 0.11408215 0.07245038 0.16118915
000150 5b 7a 64 3e 23 fc de 3c c0 91 09 be 8b da 2f be
       0.223123 0.027219838 -0.13434505 -0.17173211
000160 a0 80 98 bc 12 6b b3 bb aa d6 1e 3e f6 c8 2c be
       -0.01861602 -0.0054754103 0.15511575 -0.16873536
000170 57 72 09 be 0d 21 ff 3d 94 aa 47 3e 6b d8 8b 3d
       -0.13422523 0.12457476 0.19498664 0.06828388
000180 56 45 24 3e 17 37 8e 3d c4 e2 f1 bc f4 59 a8 bc
       0.16042075 0.06944101 -0.029527076 -0.020550705
000190 2e ae e7 bd a1 9e 6f be ad 68 c2 bc 45 5b 97 be
       -0.11312519 -0.23400356 -0.023731554 -0.2956182
0001a0 8d 77 7a 3d dd 5a e3 3c 82 b1 1e 3d dd 04 98 3d
       0.06114917 0.027753288 0.038743503 0.074228026
0001b0 7d 1f a5 3d de af 75 3d 32 2b 40 3e 3b 58 e5 bb
       0.080626465 0.059982173 0.18766478 -0.0069990433
0001c0 62 27 b3 bd 44 bc 47 3d 30 13 ff 3d 9f 98 42 3d
       -0.08747746 0.04876353 0.124548316 0.047508832
0001d0 4a 71 d6 3d d7 42 1a be 95 9c 56 3e 8c a0 dc bc
       0.10470827 -0.1506456 0.20958169 -0.026932023
0001e0 07 eb d1 bd d6 d3 fc 3d f3 1d 1c be f6 b8 0a 3e
       -0.10249906 0.12345092 -0.152458 0.1354712
0001f0 37 23 8c 3c 0a 66 ae 3d 3e fe f6 3d 30 dd 87 3c
       0.017106635 0.08515556 0.120602116 0.016584963
000200 fd 7b de bc 5b 7d 53 bc 6d ef 19 3e 2b 84 9f 3d
       -0.027158732 -0.012908305 0.1503274 0.07788881
000210 12 30 af 3d fd 0d a0 bd 04 40 9d bd 7f d0 85 3c
       0.085540906 -0.07815168 -0.07678226 0.01633477
000220 70 6c 95 bd 91 08 96 bc 7c 97 3a be ac e1 6f 3b
       -0.072960734 -0.018314632 -0.18221849 0.0036603017
000230 1f a2 26 bd 2d 56 c7 bd e6 e4 1a be 27 70 ef 3c
       -0.040681954 -0.097332336 -0.1512638 0.029228283
000240 f5 c2 5e 3d b1 7e 18 bd 5b 0e 2d 3d 64 8c 7c bc
       0.054385144 -0.037230197 0.04225002 -0.015414331
000250 3a f6 0e be 9d 96 e1 bc f5 d4 0a be 13 b6 33 bd
       -0.13961115 -0.027537638 -0.13557799 -0.04387481
000260 12 ba 19 3e 8e 81 0d 3e 67 29 0c 3e 1e 4c 83 bd
       0.15012386 0.13818952 0.13687669 -0.064110026
000270 b6 c6 81 bd f2 c1 a9 3c 26 be 8f bc 43 8c 14 be
       -0.06336729 0.020722363 -0.017546725 -0.1450663
000280 33 44 b1 3c 82 c8 41 3d cc bb b5 bd 0b d5 a1 3d
       0.021638965 0.04731036 -0.0887371 0.07901963
000290 45 a7 05 be 29 04 98 bb 7c 15 34 3d 4a 15 62 3d
       -0.1305209 -0.004639168 0.0439658 0.055196084
0002a0 19 29 b0 3a 2c c1 cb 3d 70 df c9 bc ef 84 f3 bc
       0.0013439982 0.09948954 -0.024642676 -0.029726474
0002b0 ab 1b 8a 3d cc 65 95 bc d8 25 c2 3d 89 4d 71 bd
       0.067435585 -0.018237017 0.09479874 -0.058911834
0002c0 00 ac eb bc e8 d5 47 3d f5 16 9b 3d fc ea 9c 3d
       -0.02876854 0.04878798 0.07572738 0.07662007
0002d0 f0 3c 21 3d 0f e7 0c be 2a 2b 5b be 3e 9a c1 3d
       0.039364755 -0.13760017 -0.21403185 0.094532475
0002e0 42 e8 49 be bc 60 42 bd 8a 04 b5 3d 87 f3 bf bd
       -0.19717506 -0.047455534 0.088387564 -0.09372621
0002f0 ff f0 8f 3d a4 ab 7f 3e f5 10 82 be f7 50 8f bd
       0.07028388 0.2496782 -0.25403562 -0.06997865
000300 e8 dc da 3c cd fc a9 3c a4 33 c8 bd d4 95 9c 3d
       0.026716664 0.020750428 -0.09775475 0.07645765
000310 2d 80 5e 3d 56 70 94 3d 45 da fa 3a 73 dc dd 3b
       0.054321457 0.07247989 0.0019138536 0.0067706644
000320 b9 5b 65 3d 1f 67 2b bc 22 ed 49 bd 7e 5d 87 3c
       0.055995677 -0.010461598 -0.049298413 0.016524073
000330 d5 10 c5 bc 35 17 a7 3d 25 a3 e1 bc b4 0c 5e bc
       -0.024055878 0.08158723 -0.027543614 -0.013552833
000340 e4 af f4 3c 38 25 b2 bd 63 a6 e6 3c 28 1c 75 be
       0.029869027 -0.08698505 0.028155511 -0.23936522
000350 e6 c6 65 be 2d 03 98 3e e6 58 c6 3d 3b 2e cf bc
       -0.22439155 0.29689923 0.09684925 -0.0252906
000360 60 a7 86 be 3d c5 7e 3e c9 14 a5 3c 3d f4 6b 3e
       -0.26299572 0.24879928 0.020151513 0.23042388
000370 1b e0 aa 3d 82 aa 0a bc a5 a9 ae 3c 6a 20 28 be
       0.08343526 -0.008463504 0.021321127 -0.16418615
000380 01 f6 7e 3d 66 4e 08 bd 8c 5a f8 bd 78 b8 9b bd
       0.062246326 -0.03327789 -0.121266454 -0.07603544
000390 01 da 3e be 92 ef 8d bd f5 2e 48 bd 4c 00 51 3e
       -0.1863785 -0.0693046 -0.048872907 0.2041027
0003a0 bc d3 49 bd ef f5 82 3e 2d a6 c2 bd 47 56 38 bd
       -0.04927419 0.25578257 -0.09504352 -0.045004155
0003b0 66 af 5b 3e 7c a6 18 3d 59 c1 9e 3d 24 57 b2 bc
       0.21453628 0.037268147 0.07751722 -0.021770068
0003c0 1f 11 7f 3c e2 ad 34 3d 23 b1 5f be c2 c7 9f bd
       0.015568047 0.04411114 -0.21844916 -0.07801773
0003d0 7b 6b 83 bd f2 2c b1 be 83 8e 9c 3d b1 f2 38 bd
       -0.06416985 -0.34604603 0.076443695 -0.045153324
0003e0 fb ea 81 bd 71 80 78 3d bc 4b 4e be e3 22 db bd
       -0.06343647 0.060669366 -0.20146078 -0.107000135
0003f0 a9 19 95 bb cd fc 1f be 7c 8b b8 3d 98 df f7 bb
       -0.004550178 -0.1562378 0.090109795 -0.0075644962

bias f4 [64]
000000 a7 92 90 3a 9f 3c 14 bb 6e f2 a9 bb 52 a3 7c bb
       0.0011030034 -0.002261914 -0.0051863706 -0.0038549495
000010 57 76 c8 ba df cf a9 ba 1d 1a 34 3b d7 43 86 3b
       -0.0015294057 -0.0012955627 0.0027481385 0.0040974426
000020 a9 00 40 bb b4 4b 1b 3b b9 02 88 3b 5e dc cf ba
       -0.0029297268 0.0023696246 0.004150715 -0.0015858521
000030 e8 8f 08 3b 66 20 24 3a fc 61 01 bb b3 69 6f 3b
       0.0020837728 0.0006260931 -0.001974224 0.0036531508
000040 78 13 73 3b 8e 36 7e bb e3 2e ba 39 f3 0c 8f bb
       0.0037090462 -0.0038789841 0.00035511618 -0.0043655573
000050 9e 8a 55 b9 10 45 2f bb 7c 74 8d 3b 45 24 1a bb
       -0.00020364902 -0.0026744045 0.0043168645 -0.0023520153
000060 c6 11 4a bb e8 4e 4f 3a 69 3a 5c 3b 28 61 7e bb
       -0.0030833348 0.0007908181 0.003360415 -0.0038815234
000070 66 16 8c 3b 04 5f a8 ba f3 d7 a5 3b fc 53 52 bb
       0.004275131 -0.00128457 0.0050611435 -0.0032093516
000080 5b fd 65 bb 29 04 b3 3b 2d 6a 94 bb ef 7f f7 bb
       -0.0035093639 0.0054631424 -0.0045292587 -0.0075530927
000090 10 3b 26 bb 34 49 b9 ba 3a 78 5f bb fc 7a ea 39
       -0.0025364794 -0.0014136196 -0.003409876 0.00044723589
0000a0 38 e7 9b bb 2e 2f 07 3b 4b 3f 06 3b a1 ab cc 3b
       -0.004757788 0.0020627487 0.0020484503 0.0062460457
0000b0 9b b4 66 3b 57 e5 06 3c 8b 3e 19 3b c6 37 3f bb
       0.0035202864 0.00823339 0.0023383226 -0.002917753
0000c0 89 0d 45 bb 8e 5a 4a bb 06 c9 9b bb 18 96 26 3a
       -0.0030067882 -0.0030876729 -0.0047541885 0.0006354763
0000d0 14 84 75 3b f7 67 82 3b a8 b6 8b bb ae 78 7b bb
       0.0037462758 0.0039796787 -0.0042637177 -0.0038371491
0000e0 10 9d 54 3b 21 d4 32 3b 73 42 35 bb e3 a0 1c bb
       0.003244225 0.0027287083 -0.0027658015 -0.0023899607
0000f0 54 70 af bb ea 2e 24 3b 07 5a 40 3b 5c 8a f3 3a
       -0.0053539667 0.0025052377 0.0029350535 0.0018580663

weight f4 [1, 64]
000000 f7 04 d9 bd 27 b9 05 3e 79 14 b1 3e 32 1d 89 3d
       -0.1059665 0.13058911 0.34585932 0.06695022
000010 eb 2e 63 3e 69 e1 e7 3d 09 d1 30 be 94 5e 85 be
       0.22185867 0.113222905 -0.1726724 -0.2604872
000020 76 58 84 3e 5a c5 de 3c cd ec 9b be 3e 43 1c 3d
       0.2584874 0.027193714 -0.30454102 0.038150065
000030 81 99 81 3c 9e 1a 89 ba 7b f6 80 3d c2 31 6b be
       0.015820267 -0.0010460203 0.062970124 -0.229682
000040 bf 1f 79 be f6 6c af 3d 0c 7a ab 3d ce ba c6 3e
       -0.24328516 0.085657045 0.08372888 0.38814396
000050 04 6f 32 3d d5 21 58 3e 74 11 88 be c5 83 87 3d
       0.043562904 0.21106656 -0.26575816 0.0661693
000060 7e 05 08 3e bf cc 8e be 27 1d a7 be 9e 84 3a 3e
       0.13283345 -0.27890584 -0.3263943 0.18214652
000070 f4 12 79 3d 3a 05 ab 3d fd 11 87 be 73 35 bb 3d
       0.06080909 0.08350606 -0.2638091 0.09141054
000080 2b 80 fa 3d d0 b9 0e be e6 31 c6 3e 19 6b 44 3e
       0.12231477 -0.1393807 0.38709944 0.1918148
000090 ea 78 93 3e 13 32 bb 3d 0a d2 2d 3e 60 18 73 3d
       0.28803188 0.0914041 0.16974655 0.059349418
0000a0 8d 0c f9 3d 0c c1 a7 be e9 76 0c be 16 76 d9 bd
       0.12160597 -0.3276447 -0.13717236 -0.10618226
0000b0 3e a3 dd bd 17 78 49 bd 6e 75 4a be 64 06 1e 3e
       -0.108221516 -0.049186792 -0.19771358 0.15432125
0000c0 ed dd 3e 3e 9d 18 88 3e b6 fb 30 3d b2 44 8e 3e
       0.18639345 0.26581278 0.0432088 0.27786785
0000d0 e7 da 87 bd b2 5c 10 be 82 d7 b8 3e 7f 01 f5 bc
       -0.06633549 -0.1409786 0.3610192 -0.02990794
0000e0 67 d9 1c be 62 fa 40 be a7 36 d9 3c 47 52 46 3e
       -0.15317307 -0.18845513 0.026515318 0.19367324
0000f0 c6 6d 60 3d 30 18 a2 be 01 82 31 be f2 91 c7 bb
       0.054792188 -0.3165908 -0.17334749 -0.006090396

weight f4 [1, 64]
000000 65 70 39 be cb f8 6c 3d b6 2c 99 be 74 5f 9e be
       -0.18109281 0.057854455 -0.29916924 -0.309322
000010 51 c0 d2 3d 14 35 78 3e b6 c7 30 3d cc fc 2f 3e
       0.10290588 0.24238998 0.04315921 0.17186278
000020 23 58 08 be f8 74 90 be 84 5b 8f 3d 9a a3 5e 3d
       -0.13314871 -0.2821424 0.06999877 0.05435524
000030 9d 20 f1 3d ba 53 7e 3e 7f e9 8e 3d b5 49 1f 3d
       0.117737986 0.24836627 0.069781296 0.038888652
000040 93 74 91 3d c2 c0 e1 bd cf 07 1d 3e 7e f5 c9 3d
       0.07102313 -0.11023094 0.1533501 0.09861277
000050 d9 ea 9b 3d 2e 3d 97 3e 60 ab a6 bd 01 c1 16 3e
       0.07613153 0.29538864 -0.08138156 0.14722063
000060 e6 8c de 3d e9 fa 8f 3d 69 23 7a 3e 6e 5f d4 3d
       0.10866718 0.07030279 0.2442757 0.10369764
000070 a3 78 af be db cd 40 3e 35 72 eb 3c 65 f3 fd bd
       -0.34271726 0.18828528 0.028740982 -0.123999394
000080 2a e6 83 3c 2b 0b 5a be 0c 83 92 be c6 de 3e be
       0.016100962 -0.21293323 -0.28615606 -0.18639669
000090 50 1c 44 3e aa 0d 30 3e c6 c2 a6 3b 5f 2f f8 bc
       0.19151425 0.17192712 0.005089137 -0.030296026
0000a0 27 f1 b2 be 4e da 89 bd 05 d3 4f be 87 28 7c bd
       -0.3494961 -0.067310914 -0.20295341 -0.061562087
0000b0 c7 6b 5f 3d bd 24 df 3d 65 5d 4c be 2f f9 f5 bd
       0.054546144 0.10895679 -0.19957502 -0.120104186
0000c0 2f 8f 1a 3e 7d 37 ea 3c 33 b5 a4 bc 72 25 77 be
       0.15093683 0.028590912 -0.020105934 -0.24135378
0000d0 b1 1d 90 3d 03 9d da 3c a3 58 b1 bd 21 03 1e 3e
       0.07036913 0.026686197 -0.08659484 0.15430881
0000e0 78 de 2d 3e 63 5e b0 3d 4d 32 27 3c 6a 2a 4f 3e
       0.16979396 0.08611753 0.010204864 0.20231023
0000f0 0d 95 d0 bd d2 1c ab bd e2 ad 90 3c 78 1f 7a 3e
       -0.10184679 -0.083551064 0.017661039 0.24426067

exp_avg f4 [64, 6]
000000 17 28 fb 38 44 fc e3 3a 70 0c f1 ba 73 ef 6f b9
       0.0001197608 0.0017393907 -0.0018390547 -0.00022882018
000010 bb db 73 bb 97 c5 37 3a c4 ba b8 3a f7 20 6b 3b
       -0.0037209827 0.0007010339 0.0014093746 0.0035877803
000020 33 4f 53 bb ca 6d 3a ba 9d 72 a1 bc 9b 69 9a 3b
       -0.0032243251 -0.0007111697 -0.019707972 0.004712296
000030 b5 72 d7 39 6a 21 6c 3a af 65 6b ba f6 fb 95 b9
       0.0004109346 0.00090076646 -0.00089796906 -0.0002860722
000040 fd 38 bd bb cc b3 e8 3a 00 51 3c b9 5b a8 e5 b9
       -0.005774616 0.0017753779 -0.00017959252 -0.00043803718
000050 dd 28 e3 39 bb e8 fd 37 a5 a3 f0 3a 99 b8 27 b9
       0.0004332726 3.0268324e-05 0.0018359317 -0.00015995129
000060 6f ad 97 39 3f bc d1 3a 47 ec c3 ba fb 2a 82 b9
       0.00028930182 0.0016001536 -0.0014947735 -0.00024827555
000070 cd 23 90 bb 7e af 32 3a aa 55 f9 38 c4 57 1a 3b
       -0.004398799 0.00068163115 0.000118892014 0.0023550848
000080 dc 7b 16 bb a5 69 30 b9 7c c3 71 bb ab 4c b1 3a
       -0.002296201 -0.00016824024 -0.00368902 0.0013526877
000090 f1 33 25 b9 13 b2 16 ba ce fb d4 39 59 51 8b 38
       -0.00015754976 -0.0005748581 0.000406234 6.643189e-05
0000a0 9b 95 c2 39 88 d7 1f 39 0d ec 48 ba 33 02 00 bb
       0.00037114028 0.00015243713 -0.0007664569 -0.001953256
0000b0 4c 17 04 3b c0 89 e9 39 01 37 61 3c 08 28 6b bb
       0.0020155488 0.00044543855 0.013746024 -0.0035882015
0000c0 df 90 1b 39 ab 97 71 b5 15 14 9a 38 c3 28 af b7
       0.0001483592 -9.00002e-07 7.347033e-05 -2.0880607e-05
0000d0 16 ce 86 b9 94 04 a4 38 06 9d 81 b9 18 8f 3c 39
       -0.00025712018 7.820982e-05 -0.0002472179 0.00017982384
0000e0 b3 40 05 ba 03 90 a4 b8 51 29 96 ba 3c 50 1f 3a
       -0.00050831883 -7.846954e-05 -0.0011456405 0.00060773245
0000f0 bf 77 ab b9 ef f0 83 38 e3 c7 c8 b9 30 05 a0 34
       -0.0003270488 6.291444e-05 -0.000382959 2.9806097e-07
000100 6c 27 8f 3a 2a 05 53 39 d0 0b 6f 3a 00 1a 98 3a
       0.0010921783 0.00020124452 0.00091188867 0.0011604428
000110 22 fd 11 ba 08 5c 4b b9 d8 a9 c4 bb 8e 33 b9 3a
       -0.0005569031 -0.00019393873 -0.0060016923 0.0014129744
000120 d2 69 05 ba 6b d7 6f b6 40 b8 8e b9 af 10 56 38
       -0.0005089316 -3.5739165e-06 -0.00027221628 5.1037114e-05
000130 06 0d 1e 3b f1 ea 79 b9 20 4f 14 38 f3 f9 5d 39
       0.002411665 -0.00023834013 3.535964e-05 0.00021169316
000140 27 ac 80 b9 f1 76 9e b7 fd 23 28 ba b7 9a b1 b7
       -0.00024542326 -1.8890454e-05 -0.0006414054 -2.1172089e-05
000150 76 da 22 3a 44 a4 94 3a ad 60 02 ba 95 a2 8f b8
       0.0006212363 0.0011340459 -0.0004973512 -6.8490546e-05
000160 ae 0e 27 ba d9 2b 04 b9 57 e8 e4 39 08 47 2e 3b
       -0.0006372732 -0.00012604836 0.00043660656 0.002659263
000170 4e 85 19 bb af 5d 63 b9 98 ea 95 bb 05 66 ba 3a
       -0.0023425403 -0.00021683307 -0.004575085 0.0014221078
000180 1a 62 22 ba e2 6c ec ba 0e 71 c0 3a 48 24 80 39
       -0.0006194428 -0.0018037821 0.001468213 0.00024441094
000190 77 da af 3b 1b 2a a9 ba 8c a8 48 39 77 4f 7f 3a
       0.005366619 -0.0012906225 0.00019136275 0.0009739319
0001a0 69 f1 77 ba cf c0 5f b9 eb 9b 6a bb af 30 97 38
       -0.0009458275 -0.00021338764 -0.00357985 7.209309e-05
0001b0 c0 69 dc b9 c3 c3 89 ba ba ad 51 3a 2d f4 0c 39
       -0.0004204046 -0.0010510612 0.00079986046 0.00013442403
0001c0 5e 6d 71 3b 23 94 fd b9 54 3e 84 38 55 2f ed 3a
       0.003683887 -0.0004836629 6.30586e-05 0.0018095771
0001d0 71 a8 e1 ba ad 60 34 b9 e5 10 3e bb 66 f3 c2 b9
       -0.0017216337 -0.00017202152 -0.002900177 -0.0003718391
0001e0 ae 73 14 3a 1a 23 07 38 74 31 00 3a bc 61 bb b4
       0.00056629896 3.22192e-05 0.00048901816 -3.4902575e-07
0001f0 1f 16 47 ba bd 28 71 b9 f6 a1 88 39 c8 55 b1 3a
       -0.0007594544 -0.00022998727 0.00026060612 0.0013529593
000200 26 ed b8 ba 0b 87 61 b9 ac b2 98 bb c1 18 cc 3a
       -0.0014108762 -0.0002150798 -0.004659971 0.0015571342
000210 ce e3 d2 ba c7 75 7c bb 76 fa 3c 3b c7 52 17 3a
       -0.001608962 -0.003852235 0.002883581 0.00057725277
000220 6e 55 fd 3b a7 ac 8b ba 10 21 90 39 49 c8 a2 3a
       0.0077311313 -0.0010656313 0.00027490454 0.0012419309
000230 d8 93 a1 ba ed 99 7a b9 1f 3c 61 bb 96 7f 19 3a
       -0.0012327386 -0.000238992 -0.003436811 0.00058554986
000240 2b dd ca 39 19 60 59 b9 d4 2d c3 39 a5 b5 b6 b8
       0.00038693225 -0.00020730532 0.00037227443 -8.71227e-05
000250 0d 3f 08 bb 4d f9 db 39 89 98 1e 3a 3c e8 d7 3a
       -0.0020789534 0.0004195668 0.0006049951 0.001647241
000260 06 64 f8 ba ee dc f8 b9 7b ae 56 bc d7 6f 83 3b
       -0.0018950708 -0.00047466852 -0.013103123 0.004011135
000270 69 9b 43 3a 6c f9 d3 3a ba db be ba 8a 45 3e b9
       0.00074618176 0.0016172356 -0.0014561333 -0.00018145717
000280 32 d7 02 bc 6d ce 45 3b 4c 49 a4 ba f7 cc eb ba
       -0.007985877 0.0030182854 -0.0012534051 -0.0017990161
000290 39 f7 9c 3a 7e 7a b8 39 d2 16 fe 3b 09 b7 87 ba
       0.0011975534 0.0003518648 0.0077541852 -0.0010354231
0002a0 0f 56 8f ba 39 c9 45 bb 86 31 28 3b 5f f3 03 3a
       -0.0010935682 -0.0030179753 0.0025664284 0.00050335185
0002b0 8b a5 5b 3c e6 b8 39 bb 39 aa 07 ba 7e a2 96 ba
       0.013406168 -0.0028338968 -0.00051752065 -0.0011492518
0002c0 a7 c3 84 3a 17 2c 63 39 a8 ec d8 3b cc d2 b9 ba
       0.001012911 0.00021664832 0.0066200085 -0.0014177202
0002d0 e6 80 3d 39 3e ec e5 3a 52 7e d8 ba da 83 60 b9
       0.00018072463 0.0017541719 -0.0016517139 -0.00021411423
0002e0 99 bf 4b bb 60 ed e6 39 01 2e 68 b8 af 47 02 ba
       -0.0031089543 0.00044045877 -5.5355955e-05 -0.0004969788
0002f0 95 07 3f 3a 6c bb 1e 39 dd 55 1d 3b 14 f3 73 ba
       0.00072872016 0.00015137874 0.0024007477 -0.0009305936
000300 59 d1 84 b8 c3 e6 b2 b9 5c 63 c4 39 59 8a 54 38
       -6.3332445e-05 -0.00034122737 0.00037458062 5.0673585e-05
000310 4c f6 70 3a 0c a3 2f b8 aa 79 1b b9 fd 67 26 39
       0.00091919745 -4.18751e-05 -0.00014827275 0.00015869732
000320 cc 2f 37 b9 3d f6 c6 37 a9 33 76 3a 30 e0 94 38
       -0.00017470046 2.3718103e-05 0.0009391853 7.098948e-05
000330 77 ef 19 3a c2 f1 5e 3a 45 44 02 ba cb 82 09 b9
       0.000587217 0.00085046527 -0.00049692794 -0.00013114062
000340 aa be 9b bb d4 86 ba 3a ad 27 8b b9 42 b9 b3 b9
       -0.0047529535 0.0014230856 -0.00026541707 -0.00034279568
000350 aa 13 73 39 c7 09 ce 38 24 7e fa 3a 36 72 06 b9
       0.00023181611 9.8246666e-05 0.0019111079 -0.00012821783
000360 0a 7a a0 38 68 7d 42 39 b1 37 6b b8 15 c9 88 37
       7.652126e-05 0.00018547999 -5.6080233e-05 1.63061e-05
000370 5b 04 bd 3a 66 34 4b ba 20 1d fb b9 63 e1 6c ba
       0.0014420854 -0.00077516434 -0.0004789615 -0.0009036271
000380 62 de 21 3a 0a 38 1e 39 86 06 58 3b a6 94 5e ba
       0.00061748 0.0001508893 0.0032962873 -0.0008490778
000390 1b 6b bb b8 0f 6e 20 ba 64 bb 11 3a 8b 1b 87 38
       -8.936805e-05 -0.00061199156 0.00055592344 6.442432e-05
0003a0 ae b6 0b 3a 0e ec cc b8 32 e5 7c 38 fa 4f f7 39
       0.00053296506 -9.771447e-05 6.0294937e-05 0.00047171098
0003b0 f7 09 08 ba dd ae e8 b8 1d 53 84 ba 5b b9 c8 b8
       -0.0005189473 -0.00011095193 -0.001009557 -9.571268e-05
0003c0 a1 e6 31 3a b4 f1 e6 3a f6 41 ad ba 9d 04 7f b9
       0.00067863805 0.001761964 -0.001321851 -0.00024320414
0003d0 50 ff df bb 1a 31 ab 3a 92 82 07 39 41 a5 55 3a
       -0.0068358555 0.0013060898 0.00012923245 0.000814993
0003e0 f0 e3 4b ba 62 2c 86 b8 2d bd 14 bb 63 9f 45 3a
       -0.0007777801 -6.397885e-05 -0.0022695765 0.0007538704
0003f0 29 a4 8f 39 46 ad 48 3a 33 28 13 ba 3b 6b a3 b8
       0.00027397394 0.0007655214 -0.0005613595 -7.792419e-05
