ppo_algorithm/data/6/best_policy/ppo_network_state_dict.pt (torch_old, 21707 bytes, 10 tensors)

net.0.weight f4 [64, 5]
0	0x3d7d9d11	0.06191737
1	0x3f5304a6	0.8242897
2	0xbec9b61d	-0.39396754
3	0x3f140964	0.5782683
4	0xbe81b6ef	-0.2533488
5	0x3e935968	0.2877915
6	0x3eb3e85b	0.3513821
7	0x3f0ea23e	0.5571631
8	0xbf2142ad	-0.62992364
9	0x3d4a2115	0.049347956
10	0xbe1b2efa	-0.15154639
11	0xbe3e26f5	-0.18569548
12	0x3ebf7705	0.37395492
13	0xbec22fc4	-0.37927067
14	0xbc1b5fcb	-0.009483288
15	0x3f4fb2c0	0.81132126
16	0x3d9e0d65	0.077173986
17	0x3f335a3e	0.70059574
18	0x3ebe6892	0.37189156
19	0xbe5934bc	-0.21211523
20	0x3f3cd24a	0.73758376
21	0x3f101efc	0.5629728
22	0xbd2be6d4	-0.04196818
23	0xbef93442	-0.48672682
24	0x3ea8cb3c	0.32967556
25	0x3dfce233	0.123478316
26	0x3e9abff8	0.30224586
27	0xbe809697	-0.2511489
28	0xbe276f12	-0.16350964
29	0x3db25dbb	0.08709284
30	0xbdeff2a2	-0.117162004
31	0x3e139a86	0.14414415
32	0x3ed92d28	0.42417264
33	0xbe9b15af	-0.3028998
34	0x3e15e279	0.14637174
35	0xbe938cc0	-0.2881832
36	0xbf4b9183	-0.7951891
37	0xbe80ba63	-0.25142202
38	0x3f3afc79	0.7304149
39	0xbf3cda54	-0.7377064
40	0xbf05040c	-0.519593
41	0xbee93093	-0.45544872
42	0x3e27fbaa	0.16404596
43	0x3f185359	0.5950218
44	0x3e39ef6f	0.18157743
45	0xbebb44b7	-0.36575863
46	0xbf2cc12a	-0.67482245
47	0xbba559f7	-0.005046125
48	0x3f022cfe	0.508499
49	0xbf3e68c1	-0.7437859
50	0x3f0696d8	0.5257392
51	0x3e75a663	0.23989253
52	0x3f1a2c46	0.60223806
53	0xbf4d01db	-0.80080956
54	0x3dcd262a	0.10017045
55	0x3e0296c1	0.1275282
56	0x3e710389	0.23536505
57	0x3ea7301e	0.32653898
58	0x3da79085	0.08181862
59	0x3e93cc4d	0.28866807
60	0x3e87e9b6	0.26545495
61	0x3f65f8e0	0.8983288
62	0x3e92c666	0.2866699
63	0xbf09c87d	-0.53821546
64	0x3ed1b11c	0.40955436
65	0xbe9b5d85	-0.30344787
66	0xbf58a775	-0.8463052
67	0xbe4fce6a	-0.20293584
68	0x3f2d4e3f	0.6769752
69	0xbe8f2e16	-0.27964848
70	0xbf88857e	-1.0665739
71	0xbf0c1eae	-0.54734313
72	0xbf42e411	-0.7612925
73	0x3d7eec84	0.062237278
74	0x3d380d36	0.044934474
75	0x3efc98c4	0.493353
76	0x3eb2626f	0.34840724
77	0x3e240ede	0.16021296
78	0xbe8df6d2	-0.2772737
79	0x3ed1990c	0.40937078
80	0xbd5266c6	-0.051367544
81	0x3f5cec15	0.8629773
82	0x3e2201b4	0.15820962
83	0xbf7338ad	-0.95008355
84	0x3f959440	1.1685867
85	0xbe75bb33	-0.23997192
86	0xbef413b6	-0.47671288
87	0xbea9c9bc	-0.33161724
88	0x3f24b8f8	0.6434474
89	0xbf26bf5e	-0.65135753
90	0xbe67eba6	-0.22648486
91	0xbf80c371	-1.0059644
92	0xbb11d745	-0.0022253555
93	0x3f31652e	0.6929501
94	0xbf837586	-1.027024
95	0xbe65e42e	-0.22450325
96	0xbef311a5	-0.474744
97	0xbeb0adfb	-0.34507737
98	0x3e8b925f	0.2726011
99	0xbe4340d3	-0.19067697
100	0xbe8f233b	-0.27956566
101	0xbf0c6e34	-0.54855657
102	0x3e95d698	0.29265285
103	0x3e9fb965	0.31196132
104	0xbe81b02f	-0.2532973
105	0x3ef0b0ae	0.47009796
106	0x3f16135b	0.58623284
107	0xbe828e7f	-0.2549934
108	0xbd75d35d	-0.060016025
109	0x3d5e01e0	0.054201007
110	0x3eccee0d	0.40025368
111	0x3f8c9095	1.0981623
112	0xbe21224d	-0.15735741
113	0xbf52f313	-0.8240215
114	0x3f2e0d06	0.6798862
115	0x3f14fdab	0.58199567
116	0x3ec9c5bd	0.39408675
117	0x3e8c48aa	0.27399188
118	0xbf2511b1	-0.6448012
119	0x3c7117fc	0.014715191
120	0xbe8e2b22	-0.27767283
121	0xbecf8151	-0.40528348
122	0x3effbe9a	0.49950105
123	0xbdfb8579	-0.12281317
124	0x3e6bc505	0.23024376
125	0x3f106207	0.5639958
126	0x3f13423f	0.5752296
127	0x3ebad801	0.36492923
128	0xbdefa3bf	-0.11701154
129	0xbdf892e3	-0.121373914
130	0x3c69d86e	0.014272792
131	0x3f1d6eb3	0.6149704
132	0x3e04f9d4	0.12985927
133	0xbdea5f09	-0.11443908
134	0x3f2cae5f	0.6745357
135	0xbd2d9756	-0.042380653
136	0x3f3fd035	0.74927074
137	0xbd588f7c	-0.052871212
138	0xbf69708b	-0.9118735
139	0x3fa8d1bb	1.3189005
140	0xbf1747a5	-0.59093696
141	0x3e2d2d74	0.1691187
142	0x3d80ab2a	0.06282647
143	0x3b1c1986	0.0023818924
144	0xbe87fdef	-0.26560923
145	0x3ee0dfdf	0.439208
146	0x3e8c4954	0.27399695
147	0x3e55ac47	0.208665
148	0xbf99c0a7	-1.2011918
149	0x3c15e779	0.009149426
150	0xbdc2d168	-0.09512597
151	0xbe48dd3b	-0.19615643
152	0xbed51bf4	-0.4162289
153	0x3ecca082	0.39966208
154	0xbeffa901	-0.49933627
155	0x3e638e25	0.22222193
156	0x3f0e52c4	0.5559504
157	0x3db93913	0.09044089
158	0xbeb7c470	-0.35892057
159	0x3f0aff9a	0.5429627
160	0x3dc61da3	0.096736215
161	0x3f288bf8	0.65838575
162	0x3e884a8b	0.26619372
163	0xbee98760	-0.45611095
164	0x3e2a39e1	0.16623642
165	0x3ef5a91e	0.4798059
166	0x3e701e48	0.23449051
167	0x3ed8d547	0.42350218
168	0xbc983bdc	-0.01858323
169	0xbdd373df	-0.10324835
170	0xbe812278	-0.2522161
171	0xbf3673d6	-0.712705
172	0xbf138ff4	-0.5764153
173	0x3c818b01	0.015813353
174	0xbb3e74be	-0.0029061283
175	0xbf148b35	-0.58024913
176	0xbeb16a9b	-0.34651646
177	0xbdaaf1f9	-0.08346934
178	0x3ecbb9cd	0.39790192
179	0xbe8c3414	-0.27383482
180	0x3eb41687	0.35173437
181	0xbe0b467e	-0.1360111
182	0xbdb8d4e6	-0.09024982
183	0x3e73ead9	0.23820056
184	0xbe872aef	-0.26399943
185	0x3d92210d	0.0713521
186	0xbf27b6f8	-0.65513563
187	0xbf0eb177	-0.5573954
188	0x3efedbf6	0.49777192
189	0xbf185e65	-0.59519035
190	0xbeca9644	-0.3956777
191	0xbee7584b	-0.4518455
192	0x3ec5c0b4	0.38623583
193	0x3ef59e3c	0.47972286
194	0xbec433f8	-0.383209
195	0x3eb7f782	0.3593102
196	0x3d322be5	0.043498892
197	0x3e044405	0.12916572
198	0x3f0792e8	0.52958536
199	0x3e7d8a98	0.247599
200	0x3e1fb7c2	0.15597442
201	0x3f1e8dc7	0.61935085
202	0xbc80b9df	-0.01571363
203	0xbf4e257c	-0.80525947
204	0x3f3257ae	0.6966504
205	0x3ea17531	0.31534722
206	0x3f50bd82	0.81539166
207	0x3ec6522f	0.38734576
208	0xbf0087fd	-0.502075
209	0x3ea23694	0.31682265
210	0xbd13117c	-0.035905346
211	0xbecbff6c	-0.3984331
212	0xbea0d938	-0.31415725
213	0x3eacc71d	0.3374566
214	0xbe123b6f	-0.14280485
215	0x3ed2680b	0.41095003
216	0x3f1fa48b	0.6236045
217	0xbf50199a	-0.81289065
218	0xbe80e0fa	-0.25171643
219	0xbb4d4b43	-0.0031325377
220	0xbf369aaa	-0.7132975
221	0xbe9c6c2f	-0.30551288
222	0x3f0fb0b5	0.5612901
223	0xbe961654	-0.2931391
224	0x3df7905b	0.120880805
225	0xbeedcb49	-0.46444157
226	0xbf894ed8	-1.0727186
227	0xbe31617b	-0.17322342
228	0x3f3c8da4	0.73653626
229	0xbea71db1	-0.3263984
230	0xbf05dee6	-0.5229324
231	0xbc975b78	-0.018476233
232	0xbf1237bc	-0.57116294
233	0x3f47708a	0.77906096
234	0xbdb0104e	-0.0859686
235	0x3d605559	0.054768894
236	0x3e073839	0.13205041
237	0x3e57e237	0.21082388
238	0x3ec37dbd	0.38181868
239	0xbcf1009f	-0.029419241
240	0xbe12c5fa	-0.14333335
241	0xbf0d2b4c	-0.5514419
242	0xbdc67d7c	-0.09691903
243	0x3e3dde91	0.18541934
244	0xbeb1795d	-0.34662905
245	0xbd3e69ef	-0.046487745
246	0xbedf10b2	-0.43567425
247	0xbebb44fc	-0.36576068
248	0x3de274dc	0.110574454
249	0x3e255f07	0.16149531
250	0x3da0dcc7	0.0785461
251	0xbf25bc93	-0.64740866
252	0x3ea68b51	0.32528165
253	0x3eef3e14	0.4672705
254	0xbedd0b88	-0.4317286
255	0xbe2786b4	-0.16359979

net.0.bias f4 [64]
0	0x3e0bba8f	0.13645385
1	0xbd352e68	-0.04423371
2	0xbe5f6013	-0.21813993
3	0xbe412324	-0.18861061
4	0x3e1e745d	0.15474077
5	0x3de99683	0.11405661
6	0xbd06fc3a	-0.032955386
7	0xbe5b763f	-0.21431826
8	0xbc703a59	-0.014662349
9	0xbe423330	-0.18964839
10	0xbde9f0e1	-0.11422897
11	0x3d843c84	0.06456855
12	0x3e15630f	0.14588569
13	0xbdfbb6e6	-0.122907445
14	0x3e0b3ea5	0.13598116
15	0x3e1c9e78	0.15294826
16	0x3e21dc2c	0.15806645
17	0xbe54acdf	-0.2076907
18	0xbe4ef1bf	-0.20209406
19	0xbdbdc3e4	-0.09265879
20	0xbe15feff	-0.14648055
21	0x3e34e05c	0.17663711
22	0x3e2fb6c8	0.1715957
23	0xbe6eb45f	-0.23310994
24	0xbe47dcad	-0.19517775
25	0xbcf819f6	-0.030285817
26	0x3e3746aa	0.1789805
27	0x3e2a2358	0.16615045
28	0xbda120cb	-0.07867583
29	0xbe752e20	-0.23943377
30	0xbe19b3a5	-0.15009935
31	0x3e25988a	0.1617147
32	0x3dbc313d	0.09189079
33	0xbd511258	-0.051042885
34	0x3e06ab6d	0.13151331
35	0xbe070844	-0.13186747
36	0x3c94f612	0.018183742
37	0xbe4e2188	-0.20129979
38	0xbdafecea	-0.0859011
39	0x3d97f1c8	0.07419163
40	0x3e3ce59d	0.18446966
41	0x3e070bf2	0.1318815
42	0xbd47bce0	-0.04876411
43	0x3e7b84c1	0.2456236
44	0xbd9df820	-0.07713342
45	0xbe06d8fe	-0.13168713
46	0x3dedefc2	0.11617996
47	0xbd84ed3e	-0.06490563
48	0xbde4e05f	-0.11175608
49	0x3d394bfe	0.045238487
50	0xbe174322	-0.14771703
51	0x3e23ed42	0.16008475
52	0x3e565ad1	0.20933081
53	0xbe1a867a	-0.15090361
54	0xbe445cff	-0.191761
55	0xbe1a7de4	-0.15087086
56	0xbe3ced7e	-0.18449971
57	0x3d85f406	0.065406844
58	0x3e3dd7c2	0.18539336
59	0xbe2b9dca	-0.1675941
60	0x3dfd2355	0.12360255
61	0x3e491e75	0.19640525
62	0xbe290ab4	-0.16507989
63	0x3d61850f	0.055058535

net.1.weight f4 [64]
0	0x3f985fdb	1.1904253
1	0x3fab797f	1.3396453
2	0x3f8abc79	1.0838767
3	0x3fb31d93	1.39934
4	0x3f9a9c7e	1.2079008
5	0x3f7a5b97	0.97796005
6	0x3f70128b	0.93778294
7	0x3fc2a66e	1.520704
8	0x3f53aa51	0.8268176
9	0x3fb9fbab	1.4529928
10	0x3fb41b4e	1.4070833
11	0x3f64e0c1	0.8940545
12	0x3fad2eaf	1.3529872
13	0x3fa36509	1.2765208
14	0x3fc04014	1.5019555
15	0x3f973010	1.1811543
16	0x3fe1149f	1.7584418
17	0x3fb5a04c	1.4189544
18	0x3fd509fc	1.6643672
19	0x3f6d4232	0.9267913
20	0x3f8c5264	1.0962644
21	0x3f85969c	1.0436587
22	0x3fb64c84	1.4242101
23	0x3f73adff	0.9518737
24	0x3f8d23a5	1.1026503
25	0x3f905750	1.1276646
26	0x3fab7fdd	1.3398396
27	0x3fe9d482	1.8267977
28	0x3f46b140	0.7761421
29	0x3f75f288	0.960732
30	0x3f8acbf0	1.0843487
31	0x3fac6896	1.3469417
32	0x3f81bc3b	1.0135568
33	0x3f8f5aa2	1.1199534
34	0x3fb2139a	1.3912232
35	0x3f8cd781	1.1003267
36	0x3f5133ec	0.8171985
37	0x3fb3d287	1.4048623
38	0x3f959ae9	1.16879
39	0x3f51e1ac	0.8198497
40	0x3fb611c4	1.4224172
41	0x3fa1867f	1.261917
42	0x3f789701	0.97105414
43	0x3f9cd182	1.2251437
44	0x3f95969e	1.168659
45	0x3fb0958d	1.3795639
46	0x3fa14bf2	1.2601302
47	0x3ee32844	0.44366658
48	0x3f8c5d0e	1.0965898
49	0x3f7f0b95	0.9962705
50	0x3f906617	1.1281155
51	0x3f99545f	1.1978873
52	0x3f74b368	0.9558625
53	0x3f959637	1.1686467
54	0x3fc69d4a	1.5516751
55	0x3f8a2c37	1.0794743
56	0x3f923efc	1.1425471
57	0x3f66f34b	0.90214986
58	0x3fadd37d	1.3580166
59	0x3fad53ed	1.3541237
60	0x3f92b4c7	1.1461419
61	0x3fba3c2e	1.4549615
62	0x3fb74ad5	1.4319712
63	0x3f7e56a2	0.9935094

net.1.bias f4 [64]
0	0x3e3f152f	0.18660425
1	0xbdac34e1	-0.08408523
2	0xbe5ebcd4	-0.2175172
3	0xbe5b7dc1	-0.2143469
4	0x3e1f5f79	0.15563764
5	0x3e0f9781	0.14022638
6	0xbdaf4d41	-0.08559657
7	0xbe529470	-0.20564437
8	0x3c35fa95	0.011107107
9	0xbe3cfeca	-0.1845657
10	0xbe0ff25f	-0.14057301
11	0x3d7e0822	0.062019475
12	0x3e0eff52	0.13964584
13	0xbde3628c	-0.11102781
14	0x3e39d53c	0.18147749
15	0x3e254ba7	0.1614214
16	0x3e208192	0.15674427
17	0xbe444477	-0.19166742
18	0xbe45ed77	-0.19328867
19	0xbda1b8db	-0.078965865
20	0xbe2b0b46	-0.16703519
21	0x3e3f349b	0.18672411
22	0x3e286b82	0.16447261
23	0xbe916cf2	-0.2840343
24	0xbe7b0dad	-0.24516936
25	0xbd77b931	-0.060479347
26	0x3e32e8fd	0.1747169
27	0x3e23deab	0.1600291
28	0xbdbd760c	-0.09251031
29	0xbe94ed5d	-0.29087344
30	0xbe083cde	-0.13304469
31	0x3e229230	0.15876079
32	0x3dd06394	0.10175243
33	0xbdb11588	-0.08646685
34	0x3e318969	0.17337574
35	0xbe03daaa	-0.12876382
36	0x3d77b46e	0.060474806
37	0xbe2d45da	-0.16921178
38	0xbdad3ebc	-0.08459231
39	0x3ddadcaa	0.106866196
40	0x3e36fe28	0.1787039
41	0x3e02d711	0.12777354
42	0xbcbc49ea	-0.022984464
43	0x3e85d86f	0.26141688
44	0xbdd3a5f6	-0.10334389
45	0xbdf86f2f	-0.121305816
46	0x3e48c593	0.19606619
47	0xbd1823e8	-0.037143618
48	0xbdd968ae	-0.10615669
49	0x3d9bb8c9	0.07603604
50	0xbe25ae6a	-0.16179815
51	0x3e1f88ac	0.1557948
52	0x3e6b5af1	0.2298391
53	0xbe46e00b	-0.19421403
54	0xbe3b138d	-0.18269177
55	0xbe25867f	-0.16164587
56	0xbe421624	-0.18953758
57	0x3d86433f	0.06555795
58	0x3e3d9df8	0.18517292
59	0xbe0eb9bf	-0.13938044
60	0x3ddc009b	0.10742303
61	0x3e3a0d18	0.18169057
62	0xbe27975c	-0.16366333
63	0x3dc7d29d	0.09756968

net.3.weight f4 [64, 64]
0	0x3d27c58b	0.040959876
1	0x3e636fd3	0.22210626
2	0x3e79e39a	0.2440323
3	0xbc8c1fbb	-0.017104974
4	0x3dc826d1	0.09773029
5	0xbb3c1835	-0.0028700952
6	0xbda9d6eb	-0.082929455
7	0xbe4059d6	-0.1878427
8	0xbe8781ed	-0.26466313
9	0x3de8775c	0.11350891
10	0xbea75879	-0.32684687
11	0xbd46bf50	-0.048522294
12	0xbd9fe161	-0.078066595
13	0xbe2e462c	-0.17018956
14	0x3e2224c5	0.15834339
15	0xbdcb2093	-0.099183224
16	0x3ec629f4	0.38703883
17	0x3e02c696	0.12771067
18	0xbe3dd632	-0.1853874
19	0x3deb9a31	0.11504019
20	0xbd9846be	-0.07435368
21	0xbda20cf0	-0.07912624
22	0x3d904072	0.07043542
23	0x3d0a4ec9	0.03376654
24	0xbe9df8de	-0.30853933
25	0x3e56c70c	0.20974368
26	0x3dd11172	0.102084056
27	0x3de73fdf	0.11291479
28	0x3d2bd33a	0.04194949
29	0xbdb175cb	-0.08665045
30	0xbd64947a	-0.05580566
31	0x3d8a137a	0.06741996
32	0x3d9bb93b	0.07603689
33	0x3dd129cc	0.1021305
34	0xbe09a1b4	-0.13440591
35	0xbd037bc0	-0.03210044
36	0x375149d6	1.2474562e-05
37	0x3d629f00	0.055327415
38	0xbe43189f	-0.19052361
39	0xbd858bb2	-0.065207854
40	0x3d025cb4	0.03182669
41	0xbce228be	-0.027607318
42	0xbd0bbf36	-0.0341179
43	0x3d852fd5	0.06503264
44	0xbe73d70d	-0.23812504
45	0xbdfa6c75	-0.12227718
46	0x3df2830b	0.11841401
47	0xbbade904	-0.0053073186
48	0x3d9f7c07	0.07787328
49	0xbe20a3a2	-0.15687421
50	0xbda4ee63	-0.08053281
51	0x3e7ad601	0.24495699
52	0x3d617d26	0.05505099
53	0xbde2913f	-0.1106286
54	0xbcc07930	-0.023495287
55	0xbdbe8514	-0.093027264
56	0xbe1e9ccc	-0.15489501
57	0xbce04005	-0.027374277
58	0x3e1f0205	0.15528114
59	0xbdcf690f	-0.1012746
60	0xbe8c7a31	-0.27436975
61	0xbd9573db	-0.07297488
62	0x3d0140bc	0.031555876
63	0xbd3ef287	-0.04661801
64	0x3ddb0d88	0.1069594
65	0x3d9d5601	0.076824196
66	0x3e5a83c5	0.21339329
67	0x3f21f439	0.6326328
68	0xbef8d436	-0.48599404
69	0xbe5c5633	-0.21517257
70	0x3a4fc031	0.0007925062
71	0x3f3443ca	0.7041594
72	0xbe3cb681	-0.18428995
73	0x3f8268b3	1.0188202
74	0xbeb7038a	-0.35744888
75	0xbe414a82	-0.18876079
76	0xbf3494c2	-0.70539486
77	0x3ed86a15	0.42268434
78	0xbdf85532	-0.12125625
79	0xbf0c5a70	-0.54825497
80	0xbf865d7a	-1.0497277
81	0x3f1171b7	0.5681414
82	0x3f68d8ec	0.90955997
83	0x3e65f1fe	0.22455594
84	0x3f2b5619	0.6692825
85	0xbe047a0b	-0.1293718
86	0xbf439fc4	-0.7641566
87	0x3d47064c	0.04858999
88	0xbcd4f3a5	-0.025995085
89	0x3d58f3bd	0.052966822
90	0xbf30db49	-0.690846
91	0xbf68d711	-0.90953165
92	0x3e1ee747	0.15517913
93	0x3ca89ea2	0.020583455
94	0x3ed15078	0.40881705
95	0xbf1bbd16	-0.608354
96	0xbeb70621	-0.35746863
97	0x3e20a734	0.15688783
98	0x3d4ff5de	0.050771587
99	0x3ee57bc3	0.44820985
100	0x3d55a27e	0.052156918
101	0x3f134c98	0.5753875
102	0x3ec365ba	0.3816355
103	0xbefc0e1e	-0.4922952
104	0xbf44d488	-0.76886797
105	0xbf11cc3c	-0.5695226
106	0x3e1f5704	0.15560538
107	0xbf01155c	-0.50423217
108	0x3dd255e3	0.10270288
109	0x3f28ca24	0.6593344
110	0x3e8fdd4d	0.28098527
111	0x3d901ac2	0.07036354
112	0x3f0c66e1	0.5484448
113	0xbe8456fa	-0.25847608
114	0x3f312a15	0.6920484
115	0xbf2a8135	-0.66603404
116	0xbebda71c	-0.37041557
117	0xbebac9a3	-0.36481962
118	0x3f271e99	0.65281063
119	0x3f1e09c1	0.61733633
120	0x3ef032fd	0.469139
121	0xbe0d59d4	-0.13803798
122	0xbf204ef1	-0.62620455
123	0x3f1f5546	0.6223949
124	0xbeacf4ed	-0.33780614
125	0xbf07a09a	-0.52979434
126	0x3f5219d5	0.82070667
127	0xbeaf657e	-0.3425712
128	0x3e26a51e	0.16273925
129	0xbdbdcc1a	-0.09267445
130	0xbc8740e2	-0.01651043
131	0xbe8cd697	-0.2750747
132	0xbd2fcd61	-0.042920474
133	0x3c80d9af	0.0157288
134	0xbd0c9252	-0.03431923
135	0x3e21df8a	0.1580793
136	0xbe8aab6a	-0.27083904
137	0xbe096949	-0.1341907
138	0x3dc17dc9	0.0944782
139	0xbe6e9492	-0.23298863
140	0x3e0d70a5	0.13812502
141	0x3d9d1fc1	0.07672072
142	0x3eefd76f	0.4684405
143	0xbde8f3d0	-0.113746285
144	0xbe809dba	-0.25120336
145	0x3d25cfe8	0.040481478
146	0xbbe6987f	-0.007037222
147	0x3d800965	0.06251792
148	0xbd1957a5	-0.0374371
149	0xbc106895	-0.008813997
150	0x3db15a04	0.08659747
151	0x3ec8daee	0.3922953
152	0xbe30c139	-0.17261209
153	0xbe7a6bad	-0.24455138
154	0xbd0c012f	-0.034180816
155	0x3e5546c6	0.20827779
156	0xbd39a6ad	-0.04532497
157	0x3e18da20	0.14926958
158	0x3db8b06b	0.09018024
159	0x3d48229c	0.04886113
160	0xbeae6aa7	-0.34065744
161	0xbe91488b	-0.28375658
162	0xbe13ac8a	-0.14421287
163	0x3e584601	0.21120454
164	0xbeb0215f	-0.3440046
165	0x3dcef4d1	0.10105289
166	0xbe0c63ed	-0.13709994
167	0xbe508aa7	-0.20365392
168	0x3e5ba0df	0.21448086
169	0xbe2a2842	-0.1661692
170	0xbdc341d8	-0.09534043
171	0x3dbfae1a	0.09359379
172	0xbdf53fad	-0.11975036
173	0x3defcf48	0.11709458
174	0x3e6873f0	0.22700477
175	0xbe8879d3	-0.26655445
176	0x3ddf6152	0.10907234
177	0xbe00fa99	-0.12595595
178	0x3d97f233	0.07419243
179	0xbe796558	-0.24355066
180	0xbd7ed46b	-0.062214296
181	0x3dae516f	0.08511626
182	0xbd96d774	-0.07365313
183	0xbd89695a	-0.06709547
184	0x3eaf97e3	0.34295568
185	0xbdb1519a	-0.086581424
186	0xbe91cb5d	-0.28475466
187	0x3e4b15b0	0.19832492
188	0xbe1185be	-0.14211175
189	0xbeba765a	-0.3641842
190	0xbea3c154	-0.31983435
191	0xbc5b2bb3	-0.013377118
192	0x3e47d4ed	0.19514818
193	0xbe98cc25	-0.2984325
194	0xbe3057b4	-0.17220956
195	0xbdb1454a	-0.08655794
196	0xbdabe5eb	-0.08393463
197	0x3ea59c7b	0.32345948
198	0xbe1206ad	-0.14260359
199	0x3e0a3ad9	0.13499011
200	0x3d8de60e	0.06928645
201	0xbd88d683	-0.0668154
202	0xbe85807c	-0.26074588
203	0xbe596f53	-0.21233873
204	0x3aae8cd6	0.0013317119
205	0x3d2b24f9	0.041783307
206	0x3eed2a37	0.4632127
207	0x3e04959d	0.12947698
208	0x3a07e4c0	0.0005183928
209	0xbba66917	-0.0050784457
210	0x3e22b258	0.15888345
211	0xbdf0b22b	-0.11752733
212	0xbd96ffae	-0.07372986
213	0x3df79765	0.12089423
214	0x3dc5d53a	0.0965981
215	0xbec38674	-0.38188517
216	0xbf104636	-0.56357133
217	0xbde3ad8c	-0.11117086
218	0x3d9b7d9a	0.07592316
219	0x3c96a47e	0.018388983
220	0xbe3c97e7	-0.18417321
221	0xbeb526cd	-0.35381165
222	0xbd15741a	-0.036487676
223	0xbd8ccabf	-0.06874608
224	0x3e2fe45a	0.17176953
225	0xbd05a4a5	-0.03262772
226	0x3ea34dae	0.31895202
227	0xbe6d85e9	-0.23195614
228	0x3e9902f4	0.29885066
229	0x3de3292e	0.11091839
230	0xbe8b0cc4	-0.27158177
231	0x3ea0e91a	0.31427842
232	0x3d5a909c	0.053360566
233	0x3e41b985	0.18918426
234	0xbd21677c	-0.03940533
235	0x3ede4f6f	0.43419978
236	0xbd2ef511	-0.042714182
237	0x3e20f99a	0.15720215
238	0x3ef1c62a	0.472215
239	0x3e244c83	0.16044812
240	0xbec1ab15	-0.37825838
241	0x3dc6bf61	0.097044714
242	0xbdac9ce6	-0.084283635
243	0x3d211f82	0.03933669
244	0x3e185539	0.1487626
245	0xbe950e21	-0.29112342
246	0x3e3809e5	0.17972524
247	0x3dc5b2b2	0.09653224
248	0xbdbdd3f9	-0.09268946
249	0x3e3c23a5	0.18372972
250	0x3da31c5e	0.07964395
251	0x3de9f70b	0.11424073
252	0xbd11f59d	-0.035634626
253	0x3e18a702	0.14907458
254	0x3cdf454f	0.027254729
255	0x3d7b4288	0.061342746

net.3.bias f4 [64]
0	0x3db0747d	0.086159684
1	0x3bcbf8e2	0.0062247375
2	0xbc03b7d6	-0.008039435
3	0x3f009318	0.5022445
4	0x3db9813a	0.09057851
5	0x3d2c643e	0.042087786
6	0x3dd60477	0.1045007
7	0xbddaef6e	-0.10690199
8	0xbb6cb56c	-0.0036118878
9	0xbe84c0c1	-0.2592831
10	0x3ed38aab	0.41316733
11	0x3e08eb81	0.13371088
12	0xbdc3921c	-0.095493525
13	0x3ec5b650	0.38615656
14	0x3da90107	0.08252149
15	0xbe16f1e0	-0.14740705
16	0xbe948bc6	-0.2901289
17	0xbb410550	-0.002945263
18	0x3dc4a1bb	0.0960116
19	0x3ea8567c	0.32878482
20	0xbdb49a0b	-0.08818444
21	0xbe21bad8	-0.15793931
22	0xbcccc4bf	-0.02499616
23	0xbe18e683	-0.14931683
24	0xbd9edbd0	-0.0775677
25	0x3db03f2c	0.08605799
26	0xbeee52d3	-0.46547565
27	0xbe61bcf9	-0.22044744
28	0x3f1668eb	0.5875384
29	0xbea6fd8c	-0.32615316
30	0xbe23b3a7	-0.159865
31	0xbd1cf09c	-0.0383154
32	0x3e163549	0.14668764
33	0x3e6a1dd5	0.22862943
34	0xbed47610	-0.41496325
35	0xbda57caa	-0.080804184
36	0x3e9aba60	0.30220318
37	0xbdfd4484	-0.12366584
38	0xbe393b1b	-0.18088953
39	0x3d1ba6e2	0.03800095
40	0xbea34bcf	-0.31893775
41	0xbcc08bbe	-0.023504134
42	0xbd3a598c	-0.045495555
43	0xbdeb8f0f	-0.11501896
44	0xbd9925ab	-0.07477888
45	0x3c97e8f2	0.018543694
46	0xbd99cfe0	-0.07510352
47	0xbe11b4eb	-0.14229171
48	0x3d9722bf	0.07379674
49	0x3ed25ca8	0.41086316
50	0x3db986b8	0.09058899
51	0xbdb61b91	-0.088919766
52	0xbd12c08a	-0.03582815
53	0xbe895943	-0.26825914
54	0xbef07ec7	-0.46971723
55	0xbe720eb5	-0.23638423
56	0x3cc31531	0.023813816
57	0xbe6b801a	-0.22998086
58	0xbde010c7	-0.109407
59	0xbd5137e4	-0.051078692
60	0x3d95e109	0.07318313
61	0xbdea1e79	-0.114315934
62	0x3e915483	0.2838479
63	0x3ea84039	0.32861498

net.4.weight f4 [64]
0	0x3f5e18c1	0.8675652
1	0x3fc6ee46	1.5541465
2	0x3f0a5e92	0.5405055
3	0x3f547db6	0.8300432
4	0x3f58aca6	0.8463844
5	0x3fafddb2	1.3739531
6	0x3df3c674	0.11903086
7	0xbb21a203	-0.0024663217
8	0x3fa8acdb	1.3177751
9	0x3ef8c0c0	0.48584557
10	0x3f26d974	0.6517556
11	0x3e54d44a	0.20784107
12	0xbd0d4a27	-0.034494545
13	0x3f551157	0.83229584
14	0x3e86ae17	0.26304695
15	0x3f39d5a1	0.72591597
16	0x3f4f57e8	0.8099351
17	0x3e2233ee	0.15840122
18	0x3efc8df6	0.49327058
19	0x3ee7187d	0.4513587
20	0x3f8bf2dc	1.093349
21	0x3f4d5f33	0.8022339
22	0x3e212558	0.15736902
23	0x3f5b2f7c	0.8561933
24	0x3f8c89c9	1.0979549
25	0x3f269e64	0.65085435
26	0x3f64744c	0.89239955
27	0x3f504be2	0.8136579
28	0x3f8c4d8f	1.0961169
29	0x3f28c27b	0.65921754
30	0x3f41389e	0.75477016
31	0x3f167a62	0.5878049
32	0x3dfcd942	0.12346126
33	0x3f5e9f73	0.8696205
34	0x3ee48a9d	0.44637004
35	0x3f8b5a32	1.08869
36	0x3f3ed75f	0.7454738
37	0x3f3d7e09	0.7402044
38	0xbce92a64	-0.028462596
39	0x3efa24f5	0.4885632
40	0x3f0ef353	0.55840033
41	0x3fb3e494	1.4054132
42	0x3ec6a873	0.38800392
43	0x3f4de889	0.80432945
44	0x3f9a118b	1.2036604
45	0x3e1e32ef	0.15449117
46	0x3f2f07a9	0.68371063
47	0x3f3f001c	0.7460954
48	0x3ebe611a	0.37183458
49	0x3f17d185	0.59304076
50	0x3f5a4cab	0.85273236
51	0x3fd5777a	1.6677086
52	0x3e653373	0.22382908
53	0x3f52279e	0.820917
54	0x3f5c09b6	0.8595232
55	0x3f190afb	0.5978238
56	0x3f23a32e	0.6392087
57	0x3ed8c21c	0.42335594
58	0x3f86f69b	1.0544008
59	0x3f5f0fb9	0.87133366
60	0x3e17683a	0.14785853
61	0x3f2a5f7e	0.6655196
62	0x3f759eb6	0.959453
63	0x3ea39d8e	0.31956142

net.4.bias f4 [64]
0	0x3e2749cf	0.1633675
1	0xb8f56e41	-0.00011703047
2	0x3e55bd42	0.20872977
3	0x3f1da029	0.6157251
4	0x3e2ad099	0.16681136
5	0x3d93e71b	0.07221814
6	0x3f0f3305	0.55937225
7	0x3e8d7262	0.2762633
8	0x3c71ce72	0.014758693
9	0xbe8ba45c	-0.27273834
10	0x3f04e45a	0.51910937
11	0x3ed7857c	0.42094028
12	0x3d7eceac	0.062208816
13	0x3ee9bbc2	0.4565106
14	0x3e8cd5dc	0.27506912
15	0x3dc4ac7d	0.09603212
16	0xbe8d0c1b	-0.27548298
17	0x3e58f591	0.21187426
18	0x3e83b88b	0.25726733
19	0x3ef0bf57	0.4702098
20	0xbd8df9e8	-0.069324315
21	0xbdd898e2	-0.10576035
22	0x3ea701e1	0.3261862
23	0x3d36325b	0.044481616
24	0xbd69fa73	-0.057123613
25	0x3e409fdd	0.18810983
26	0xbefc81fc	-0.4931792
27	0x3dde5ce5	0.10857562
28	0x3f27bccb	0.6552245
29	0xbeb0a431	-0.34500268
30	0xbd99b612	-0.0750543
31	0x3e06468e	0.13112852
32	0x3ed3272e	0.4124083
33	0x3ea05665	0.31315914
34	0x3dd6053d	0.10450218
35	0xbd7cf756	-0.061759315
36	0x3ec0652f	0.37577197
37	0xbd831cc9	-0.06401975
38	0xbde9625f	-0.11395716
39	0x3e5608bc	0.2090177
40	0xbed09c82	-0.40744406
41	0x3c81dea6	0.015853237
42	0x3e12058d	0.1425993
43	0x3d1476a4	0.036245957
44	0xbd637dba	-0.055539824
45	0x3e62c736	0.22146305
46	0x3e0cfff4	0.13769513
47	0xbdb0847e	-0.08619021
48	0x3e507a3d	0.2035913
49	0x3f0b51c5	0.54421645
50	0x3e3047f4	0.17214948
51	0xbda1d1bf	-0.07901334
52	0x3e6f3f4f	0.23363994
53	0xbe7d1e83	-0.2471867
54	0xbefef1d0	-0.49793863
55	0x3d1dbd60	0.03851068
56	0x3e0dab25	0.13834818
57	0x3d9137d6	0.07090728
58	0xbdb0bfe0	-0.08630347
59	0x3e1a93ed	0.15095492
60	0x3e911496	0.28336018
61	0xbc3456ae	-0.011006994
62	0x3ed0f2e5	0.40810314
63	0x3f114106	0.5673984

out_mean.weight f4 [1, 64]
0	0xbe159a61	-0.14609672
1	0x3f0483a3	0.5176336
2	0x3d4379e4	0.047723666
3	0x3e3753a0	0.17902994
4	0xbe127207	-0.1430131
5	0xbeb2e4c9	-0.34940174
6	0x3e3ff721	0.18746616
7	0x3da562d3	0.0807549
8	0xbec86653	-0.39140567
9	0x3d43ffe5	0.047851462
10	0x3dba0da2	0.090846315
11	0x3df7a188	0.120913565
12	0xbc4b2916	-0.012399932
13	0xbd90b474	-0.07065669
14	0x3ca8af53	0.020591414
15	0x3cc322f5	0.02382038
16	0x3e828054	0.25488532
17	0x3d4ec34e	0.050479226
18	0xbd30af63	-0.04313601
19	0x3e4ea47c	0.20179933
20	0x3e97344c	0.29532087
21	0x3dad8d82	0.08474256
22	0x3d2b3ed3	0.04180796
23	0x3d292a95	0.041300375
24	0x3e91a697	0.2844741
25	0xbde47cc9	-0.111566134
26	0x3dd9b26b	0.10629734
27	0x3d8278dc	0.06370708
28	0x3ec743a9	0.38918808
29	0x3d867876	0.06565945
30	0x3d60eb8c	0.054912135
31	0x3aab1d93	0.0013055078
32	0x3e23e897	0.16006695
33	0xbdd263bd	-0.1027293
34	0x3d3ad114	0.04560955
35	0x3e90812f	0.2822356
36	0x3e799527	0.24373303
37	0x3dbdaf3f	0.09261941
38	0x3b199c1f	0.0023439003
39	0xbb3d96c7	-0.0028928982
40	0xbeac2a02	-0.336258
41	0x3f35920e	0.70925987
42	0x3acd4e3e	0.0015663577
43	0x3c1a5941	0.009420694
44	0x3ea789d4	0.32722342
45	0x3d6906b4	0.05689116
46	0x3c5470bd	0.012966332
47	0x3e04685f	0.1293044
48	0xbd8e4233	-0.0694622
49	0x3e1f40ec	0.1555211
50	0xbe0c496a	-0.1369988
51	0xbf361485	-0.7112506
52	0x3d724c3b	0.05915473
53	0x3e71f2fd	0.23627849
54	0x3e05ccbb	0.1306638
55	0x3b342901	0.002749026
56	0xbd8cd5b8	-0.06876701
57	0xbc000048	-0.007812567
58	0x3e85787c	0.26068485
59	0x3d31f1d9	0.043443535
60	0x3a89d6b2	0.0010516255
61	0x3d29ac64	0.04142417
62	0x3db05d7d	0.086115815
63	0x3e495a16	0.19663271

out_value.weight f4 [1, 64]
0	0x3e2415b9	0.16023912
1	0xba635ff5	-0.00086736615
2	0x3e3d8bfe	0.18510434
3	0x3f1bd5d2	0.6087314
4	0x3e20ed31	0.15715481
5	0xbd9060af	-0.07049691
6	0x3f0ad3a7	0.54229206
7	0x3e8bd755	0.27312723
8	0x3d355559	0.044270847
9	0xbe94d3ce	-0.29067844
10	0x3f02ee4b	0.51144856
11	0x3ecc7bf3	0.39938316
12	0x3d9246ce	0.07142411
13	0x3ef316d4	0.47478354
14	0x3e85e390	0.2615018
15	0x3d7a026c	0.061037466
16	0xbea7adb1	-0.32749704
17	0x3e50f231	0.20404889
18	0x3e6b1609	0.22957624
19	0x3efa043f	0.48831365
20	0xbd951c1c	-0.07280752
21	0xbe03dc0d	-0.12876911
22	0x3e9b6b75	0.3035542
23	0x3d854011	0.0650636
24	0xbd9093ef	-0.07059466
25	0x3e33caa6	0.17557773
26	0xbf149572	-0.58040535
27	0x3dae0976	0.08497898
28	0x3f3eaf6b	0.74486417
29	0xbebefcda	-0.37302285
30	0xbdbbcca5	-0.09169892
31	0x3dfa302c	0.12216219
32	0x3ecfec35	0.406099
33	0x3ea5e5ba	0.3240183
34	0x3db527ee	0.088455066
35	0xbd8d9492	-0.06913103
36	0x3ecbb962	0.39789873
37	0xbd89f115	-0.06735436
38	0xbdff6c98	-0.124718845
39	0x3e41031c	0.18848842
40	0xbef33d4b	-0.475077
41	0x3e01095f	0.12601231
42	0x3e0b4904	0.13602072
43	0x3d1a434f	0.037661847
44	0xbd4e498e	-0.050363116
45	0x3e5fd3f2	0.21858194
46	0x3ddad7b4	0.10685673
47	0xbdd3f709	-0.103498526
48	0x3e4001a7	0.1875063
49	0x3f055c35	0.5209382
50	0x3e2ee229	0.17078461
51	0x3d2b6dc0	0.041852713
52	0x3e5708b5	0.20999415
53	0xbe90daab	-0.2829183
54	0xbf1d4c1f	-0.61444277
55	0x3c9b1c8f	0.018934516
56	0x3e155f3d	0.14587112
57	0x3d40a405	0.04703142
58	0xbdbbaf02	-0.091642395
59	0x3e31146b	0.17292945
60	0x3e85916f	0.2608752
61	0xbc626af8	-0.013819449
62	0x3ecb272f	0.39678332
63	0x3f0a4341	0.5400887
