ppo_algorithm/data/Qube-v0_2019-03-08_11-37-00/best_policy/save_file.pt (torch_old, 252494 bytes, 28 tensors)

net.0.weight f4 [128, 6]
-0.1791938 -0.05427902 0.12681086 0.12547207 -0.003186933 -0.10575236 0.15033816 0.67491186
0.37194717 0.17520234 0.13956308 0.10614811 -0.1334386 0.07316067 0.13138221 -0.5794122
-0.84070486 0.21498425 -0.077289104 -0.05866314 0.20675145 -0.58717215 -0.23933707 0.24121353
-0.073065594 -0.4568454 0.10050906 -0.64821136 0.030288983 -0.0760918 -0.92104936 -0.7555592
-0.77719265 -0.63912606 -0.14061697 1.3528132 0.11692553 0.34691688 -0.29000604 0.262453
-0.011855344 -0.8086452 -0.03499545 -0.31845596 0.48025104 -0.55100274 0.04555044 0.60279405
-0.21975821 -0.052590214 0.07341649 0.019220438 -0.031062357 -0.0025729444 -0.16871525 -0.7996208
-0.1349147 -0.43461862 -0.35020962 0.91075766 -0.35063288 -0.24351358 0.09626578 -0.3491769
0.05474822 -0.071131766 0.3777648 -0.7272584 -0.003601987 -0.702224 -0.006394634 -0.08484174
0.16536674 0.6532315 0.08366838 0.43499044 0.24672861 -0.6208399 -0.19676927 -0.8181607
-0.1471625 -0.68976367 -0.3244289 0.7902272 0.2515622 -0.09265262 -0.65161395 0.053446744
-0.056595076 -0.064037114 0.03329639 -0.5493408 0.14548884 -0.47965333 -0.30525517 0.6054896
0.10407798 0.39421332 0.40072697 0.23039563 0.15301092 -0.23017095 0.14504659 0.064288676
-0.41661644 -0.45069662 0.010864774 0.1278097 0.83772665 -1.9082428 -0.63158363 0.8439786
0.12527315 -0.07606544 0.019873772 -0.5312625 0.076915726 -0.3270924 -0.27751556 0.72574705
0.16769254 -0.22705576 -0.49742374 -0.2645312 0.11558537 0.12838508 0.3574308 0.211554
0.089882456 0.13815212 0.0032773935 0.110858545 0.29973885 -0.035474982 -0.29750177 -0.00041832472
-0.040404208 0.0966957 0.074588455 0.6348502 -0.3798137 -0.481311 -0.045715746 0.08791381
0.31598735 -1.1760381 0.36765346 -0.16846177 -0.9987395 0.047934927 0.19632778 0.37220412
-0.16520861 0.55660254 0.13127884 -0.46713603 -0.35343006 -0.42625862 0.33778933 -0.7787609
-0.19468413 0.22788349 -0.1816379 -0.27529207 -0.27900246 -0.009280708 -0.035803884 -0.0072877635
0.25265288 0.90129536 0.25183064 0.44572207 0.42069808 -0.95596904 0.32022056 0.87661135
0.29825327 0.47970366 0.4427549 -0.96797925 -0.2976096 -0.84407395 -0.41124982 -0.48373353
-0.41263548 0.9191593 0.119444996 -0.22939089 0.0883941 -0.46877608 0.00083009043 -0.074671455
0.1642924 0.9657628 -0.6655707 -1.4986317 -0.05367733 0.03469073 0.0010132439 -0.6994037
0.13000353 -0.37197477 -0.28580448 0.72374624 0.25332472 0.74809253 0.24260435 0.47091714
0.39178142 -0.88591397 0.11711792 0.2956905 -0.44333568 0.4023099 0.031605154 -0.5884551
0.40747267 -0.20108517 -0.5169419 -0.85107934 -0.08387784 0.05212314 -0.47247145 -0.2165255
0.40771735 0.19643687 0.119581826 0.10226403 0.25823626 0.8412851 0.26627314 0.4830654
0.4259641 -0.9271838 -0.058218103 0.47310647 -0.32205707 0.43171105 0.1961825 -0.46276474
0.22726879 0.81451595 0.26103982 0.4391148 0.37258336 -0.85009384 0.0945733 0.5675059
-0.26220453 -0.49265492 -0.06610669 -0.12656604 -0.155777 -0.09454127 0.06975142 -0.17585151
00000000: 947e 37be ad53 5ebd b5da 013e c07b 003e
00000010: dddb 50bb b194 d8bd 3ff2 193e 06c7 2c3f
00000020: dc6f be3e 3e68 333e a0e9 0e3e 2e64 d93d
00000030: 21a4 08be 43d5 953d 0f89 063e 5c54 14bf
00000040: 6f38 57bf d524 5c3e c049 9ebd c348 70bd
00000050: a7b6 533e ea50 16bf c714 75be ae00 773e
00000060: 6aa3 95bd a4e7 e9be b2d7 cd3d 2ef1 25bf
00000070: 9a20 f83c 05d6 9bbd e4c9 6bbf 546c 41bf
00000080: 19f6 46bf c49d 23bf e5fd 0fbe fc28 ad3f
00000090: a776 ef3d 179f b13e ac7b 94be 3d60 863e
000000a0: eb3c 42bc 5f03 4fbf 6457 0fbd a90c a3be
000000b0: 77e3 f53e 840e 0dbf 1993 3a3d b650 1a3f
000000c0: 4c08 61be d668 57bd 625b 963d 2e74 9d3c
000000d0: 7c76 febc d89e 28bb b1c3 2cbe f3b3 4cbf
000000e0: 1427 0abe 5586 debe ad4e b3be 6a27 693f
000000f0: 2786 b3be a05b 79be fe26 c53d 51c7 b2be
00000100: ab3f 603d 88ad 91bd 636a c13e 9b2d 3abf
00000110: 500f 6cbb f4c4 33bf 148a d1bb 82c1 adbd
00000120: e655 293e 2e3a 273f 545a ab3d 11b7 de3e
00000130: 6da6 7c3e 5def 1ebf e27d 49be fb72 51bf
00000140: c4b1 16be 5a94 30bf 8b1b a6be 544c 4a3f
00000150: c3cc 803e a8c0 bdbd 2cd0 26bf f9ea 5a3d
00000160: 3dd0 67bd e425 83bd cc61 083d 99a1 0cbf
00000170: 07fb 143e 1f95 f5be 684a 9cbe 5e01 1b3f
00000180: d626 d53d 54d6 c93e 162c cd3e d5ec 6b3e
00000190: e5ae 1c3e efb1 6bbe 1887 143e c8a9 833d
000001a0: c04e d5be b5c1 e6be 2a02 323c 8ce0 023e
000001b0: 4175 563f 4d41 f4bf 77af 21bf fb0e 583f
000001c0: 9b47 003e 33c8 9bbd 52ce a23c d200 08bf
000001d0: fe85 9d3d a878 a7be 8516 8ebe 8fca 393f
000001e0: 98b7 2b3e 4e81 68be 53ae febe a270 87be
000001f0: 06b8 ec3d 6177 033e 2b01 b73e 9da1 583e
00000200: 4b14 b83d c077 0d3e 8ac9 563b ce09 e33d
00000210: 5f77 993e 374e 11bd 2752 98be 9852 dbb9
00000220: e27e 25bd 6508 c63d d5c1 983d 8b85 223f
00000230: f176 c2be 656e f6be 6f40 3bbd 280c b43d
00000240: 18c9 a13e 6b88 96bf 133d bc3e 3e81 2cbe
00000250: 64ad 7fbf 6a57 443d 260a 493e 8a91 be3e
00000260: 722c 29be 817d 0e3f f66d 063e 742c efbe
00000270: c9f4 b4be 923e dabe b9f2 ac3e e05c 47bf
00000280: 475b 47be 4a5a 693e 49ff 39be 15f3 8cbe
00000290: 69d9 8ebe 1c0e 18bc 18a7 12bd 31ce eebb
000002a0: b85b 813e 4bbb 663f f2ef 803e af35 e43e
000002b0: bd65 d73e 63ba 74bf f3f3 a33e 9a69 603f
000002c0: a7b4 983e b89b f53e c5b0 e23e 7dcd 77bf
000002d0: 4960 98be 3b15 58bf 568f d2be ecab f7be
000002e0: f544 d3be 064e 6b3f 949f f43d 72e5 6abe
000002f0: f707 b53d 6b03 f0be 6d9a 593a 59ed 98bd
00000300: 443c 283e 3b3c 773f d762 2abf 2ad3 bfbf
00000310: c3dc 5bbd de17 0e3d d3ce 843a 1f0c 33bf
00000320: a51f 053e 7a73 bebe f754 92be 6f47 393f
00000330: c7b3 813e fe82 3f3f 466d 783e 0d1c f13e
00000340: 9397 c83e 42cb 62bf 85db ef3d bf64 973e
00000350: e5fc e2be 90fb cd3e 6874 013d fea4 16bf
00000360: 42a0 d03e 45e9 4dbe 4e56 04bf 56e0 59bf
00000370: 25c8 abbd 137f 553d c7e7 f1be dcb8 5dbe
00000380: 54c0 d03e bf26 493e 51e7 f43d ce6f d13d
00000390: 8b37 843e 765e 573f f454 883e 5954 f73e
000003a0: f717 da3e eb5b 6dbf 1b76 6ebd 033b f23e
000003b0: aae4 a4be 3b09 dd3e 11e4 483e 80ef ecbe
000003c0: 26b9 683e 1e84 503f 03a7 853e a8d3 e03e
000003d0: 3fc3 be3e c09f 59bf a5af c13d 1148 113f
000003e0: ac3f 86be 443d fcbe f262 87bd 879a 01be
000003f0: 0284 1fbe da9e c1bd d5d9 8e3d 6b12 34be

net.0.bias f4 [128]
-0.17325343 -0.13713124 -0.26984024 -0.3654062 -0.08265825 -0.4193085 0.25389045 -0.11510666
0.08532829 -0.18467672 0.027019141 -0.25665095 0.15530182 -0.18630472 0.01565001 -0.1508911
0.28618887 0.35215905 0.8684031 -0.2428819 0.20625605 -0.023535592 0.10307106 -0.050680954
0.022257121 0.004774293 -0.19587038 0.14170258 0.20107016 0.23472737 -0.3162833 -0.25349528
-0.13117658 -0.1184437 0.24895827 0.16110316 0.3694146 -0.0065912087 0.24867542 0.1117996
0.23785244 -0.265163 0.08035886 0.32047263 0.16676769 -0.16002434 -0.26850313 0.22448395
-0.14990129 0.103757806 -0.17842032 0.15873556 0.14836338 0.1360764 0.3928606 0.22375856
0.09315819 0.2683119 0.052172914 0.2186228 0.29976177 -0.15916696 0.20358668 -0.12975615
-0.019771174 0.17913961 -0.23073429 -0.062152006 0.31934896 0.0657493 -0.25838688 -0.14619988
0.19155553 -0.24435282 0.2552142 0.19041876 0.15236357 -0.23738058 -0.31015027 0.24878545
0.19556387 -0.1767752 -0.08564917 -0.2764691 -0.19156799 0.24435717 0.1620696 -0.21315253
0.11210114 -0.2676966 -0.16986012 0.46394762 -0.25778538 -0.045370817 -0.18372047 -0.24252367
0.13181326 -0.33562693 0.16864406 -0.34256962 -0.16654012 0.22129117 -0.4035841 -0.2866798
0.08710356 -0.42481452 0.33634353 0.33708006 -0.38631 -0.22453037 -0.123379394 -0.057726104
-0.11490943 -0.07333629 -0.25721806 -0.21747388 -0.2864965 -0.24612482 0.18412694 -0.20617612
-0.049321484 -0.26958647 -0.17981617 0.30202913 0.35966647 0.041223045 -0.24795975 0.25479546
00000000: 5969 31be 226c 0cbe 8028 8abe 8516 bbbe
00000010: bb48 a9bd 9baf d6be eefd 813e 0abd ebbd
00000020: 99c0 ae3d e51b 3dbe 3f57 dd3c c167 83be
00000030: 7107 1f3e aac6 3ebe 7334 803c 3283 1abe
00000040: 5987 923e 314e b43e aa4f 5e3f 08b6 78be
00000050: c934 533e b7cd c0bc eb16 d33d d596 4fbd
00000060: 9154 b63c ac71 9c3b 3f92 48be 7b1a 113e
00000070: 56e5 4d3e 5f5c 703e e2ef a1be 22ca 81be
00000080: 2753 06be 9c92 f2bd ebee 7e3e 3af8 243e
00000090: e923 bd3e 11fb d7bb c5a4 7e3e 30f7 e43d
000000a0: 978f 733e 72c3 87be 3093 a43d fd14 a43e
000000b0: 26c5 2a3e 6cdd 23be 3e79 89be 1fdf 653e
000000c0: b97f 19be f97e d43d d1b3 36be 938b 223e
000000d0: 92ec 173e 9d57 0b3e 0625 c93e f720 653e
000000e0: b9c9 be3d 2d60 893e 44b3 553d a8de 5f3e
000000f0: 607a 993e aafc 22be 0779 503e ccde 04be
00000100: 28f7 a1bc 6070 373e 9c45 6cbe 1a93 7ebd
00000110: b581 a33e 92a7 863d 494b 84be 6cb5 15be
00000120: 2227 443e a037 7abe 70ab 823e 23fd 423e
00000130: 3205 1c3e e513 73be 04cc 9ebe 9dc1 7e3e
00000140: e541 483e 8f04 35be d568 afbd 5c8d 8dbe
00000150: 662a 44be c438 7a3e 93f5 253e a844 5abe
00000160: 4895 e53d 870f 89be d0ef 2dbe 8b8a ed3e
00000170: 72fc 83be c0d6 39bd 3821 3cbe 2058 78be
00000180: 0efa 063e 4bd7 abbe 07b1 2c3e 4965 afbe
00000190: 7e89 2abe 279a 623e 93a2 cebe b2c7 92be
000001a0: 5a63 b23d 4a81 d9be 3835 ac3e c295 ac3e
000001b0: 6dca c5be 4aeb 65be 56ae fcbd 3572 6cbd
000001c0: a355 ebbd 5631 96bd 16b2 83be 79b1 5ebe
000001d0: abaf 92be 2508 7cbe c68b 3c3e d51f 53be
000001e0: 5305 4abd 3d07 8abe bb21 38be 90a3 9a3e
000001f0: 3426 b83e 7fd9 283d 29e9 7dbe 8d74 823e

net.2.weight f4 [128, 128]
-0.014953079 -0.06527183 -0.03144753 0.17159218 -0.02202015 0.08941422 -0.010923034 -0.10377047
-0.051282525 0.092422545 0.12505135 -0.014079557 0.012239257 -0.071986064 -0.004398697 0.0579074
0.04435932 0.024144782 0.041333765 0.025300385 0.014827756 -0.11967454 0.023312405 0.12419797
-0.05888787 0.05089416 0.0070984 -0.033027556 -0.025680136 -0.10479534 0.023553165 -0.0066902637
0.056266423 0.10396569 -0.055242334 -0.15122224 -0.106443875 -0.0224574 -0.016904611 0.1634457
-0.109808356 -0.0033866644 -0.112261586 -0.030450495 0.12789829 0.05258938 -0.054696675 0.0068079364
0.010156017 -0.002858739 -0.08677263 -0.027003925 0.0066221277 -0.11853937 -0.085774384 0.020711873
0.016988738 0.115467906 0.13806894 0.005604943 -0.034225795 0.030915027 -0.060827825 0.034085814
0.046702575 0.09097286 0.014631461 0.057916604 -0.11360518 0.056643646 0.046224147 -0.028287388
-0.016491892 -0.10670722 -0.00020666384 -0.05693687 -0.0546048 -0.080974795 -0.1639689 0.035035234
0.04543381 -0.027224673 -0.05719324 -0.11924712 0.0008758736 0.07976375 0.005706336 0.008651716
0.00144635 -0.016089309 0.039133873 -0.026480647 -0.0034629079 0.079769835 0.0040245415 0.03369768
0.017283443 -0.078288354 0.06904998 -0.094559 0.012537139 -0.20696919 0.020724691 -0.10177366
0.013211749 -0.07751386 0.12018907 -0.030246364 0.008538641 -0.03483197 0.07174338 -0.06330608
-0.07719255 -0.043898296 -0.0955813 0.049374245 -0.025493914 -0.10161858 -0.04830495 0.13392141
-0.13809313 -0.004161789 0.048223324 0.0011971989 -0.12454582 0.0046786577 -0.023142138 -0.117140524
-0.4766261 0.052976474 -0.13233693 -0.050968938 -0.49137482 -0.16816826 0.20829323 -0.12384962
-0.031609893 -0.38866863 -0.3671907 -0.09995942 0.31301022 -0.06930572 -0.15591457 -0.049521066
-0.039377194 0.52550626 -2.0415847 -0.22216152 0.04570967 0.1296988 0.5826914 0.5699629
0.8582737 0.31843314 -0.104810625 -0.010671302 0.26566127 0.24123645 -0.294645 -0.38459438
0.7906786 -0.2281883 0.3062569 0.1217291 0.6982854 0.17885733 0.18792263 0.09647472
0.16441381 -0.8881186 -0.30915532 0.2291178 0.23923743 -0.2134157 -0.27328762 0.21694395
-0.6849402 0.19007032 -0.5610198 0.013007904 0.4612183 0.3100903 0.19469836 0.2542352
-0.047155727 0.30893248 0.44936824 0.1835514 0.2096366 -0.50313413 0.24249217 -0.21586382
0.0980578 0.15934433 -0.41162008 -0.17628255 0.1891874 0.21082067 -0.14980476 -0.24545328
0.5692235 0.041482583 0.3286759 0.5701789 0.24108516 -0.14672208 -0.32715082 0.27575806
0.29898542 -0.08912895 -0.1774582 -0.21869385 0.20321126 0.4111962 0.2081859 -0.2685203
0.08485226 -0.26258478 -0.41853744 0.48154685 -0.13873608 -0.20549949 -0.25531 -0.29305354
0.054659374 -0.3187347 0.40476424 -0.18771206 -0.43024525 0.41309914 -0.45081034 -0.3416774
-0.08254328 -0.21604742 0.2317745 0.12635747 -0.28988165 -0.29757243 -0.281925 -0.39144596
-0.2813278 -0.12743194 -0.31982037 -0.48109066 0.72406703 -0.1320097 0.29780805 -0.27426443
-0.2602417 -0.105889484 -0.41007003 0.35399866 0.29217827 0.45806935 -0.3385797 0.28415036
00000000: c2fd 74bc 3dad 85bd 20cf 00bd dcb5 2f3e
00000010: 9a63 b4bc cd1e b73d 86f6 32bc 9d85 d4bd
00000020: a00d 52bd 0848 bd3d 760d 003e f1ad 66bc
00000030: 2a87 483c 6e6d 93bd f222 90bb 4f30 6d3d
00000040: 1eb2 353d 47cb c53c 984d 293d c142 cf3c
00000050: 1ef0 723c ed17 f5bd a8f9 be3c 815b fe3d
00000060: 6834 71bd 6576 503d b299 e83b e747 07bd
00000070: 265f d2bc f09e d6bd 91f2 c03c 003a dbbb
00000080: 9f77 663d f7eb d43d c945 62bd 01da 1abe
00000090: 3fff d9bd 95f8 b7bc 8a7b 8abc 4f5e 273e
000000a0: 34e3 e0bd cdf2 5dbb 67e9 e5bd 5173 f9bc
000000b0: c5f7 023e f667 573d 9f09 60bd 1c15 df3b
000000c0: 6c65 263c af59 3bbb d9b5 b1bd 5637 ddbc
000000d0: 6ffe d83b c5c4 f2bd 7baa afbd f2ab a93c
000000e0: f72b 8b3c 707a ec3d f261 0d3e aba9 b73b
000000f0: 5930 0cbd 8341 fd3c 9926 79bd 919d 0b3d
00000100: 334b 3f3d fb4f ba3d ccb8 6f3c f639 6d3d
00000110: d5a9 e8bd 2b03 683d 8855 3d3d f4ba e7bc
00000120: 011a 87bc 5189 dabd e7b3 58b9 a336 69bd
00000130: 48a9 5fbd 1dd6 a5bd 77e7 27be 1b81 0f3d
00000140: ce18 3a3d 4706 dfbc 7543 6abd d637 f4bd
00000150: e29a 653a 2d5b a33d 37fc ba3b edbf 0d3c
00000160: 7493 bd3a bacd 83bc d74a 203d f1ed d8bc
00000170: f4f1 62bb 5e5e a33d 4de0 833b 9406 0a3d
00000180: 0296 8d3c a555 a0bd 136a 8d3d 26a8 c1bd
00000190: 9268 4d3c bbef 53be d4c6 a93c b56e d0bd
000001a0: 1776 583c 96bf 9ebd b025 f63d 39c7 f7bc
000001b0: a8e5 0b3c f8ab 0ebd 31ee 923d 9ea6 81bd
000001c0: 2117 9ebd b3ce 33bd 21c0 c3bd a63c 4a3d
000001d0: 9dd8 d0bc 671d d0bd 69db 45bd b222 093e
000001e0: 4968 0dbe 9e5f 88bb d285 453d 54eb 9c3a
000001f0: e111 ffbd 6d4f 993b 9594 bdbc 5fe7 efbd
00000200: 5608 f4be dcfd 583d 5583 07be cec4 50bd
00000210: 7b95 fbbe 4d34 2cbe d24a 553e dfa4 fdbd
00000220: 6079 01bd 93ff c6be 6b00 bcbe 86b7 ccbd
00000230: e042 a03e 28f0 8dbd 12a8 1fbe 9ad6 4abd
00000240: fb49 21bd 9487 063f 53a9 02c0 4f7e 63be
00000250: 103a 3b3d c3cf 043e 432b 153f 17e9 113f
00000260: d3b7 5b3f ab09 a33e f4a6 d6bd afd6 2ebc
00000270: c104 883e b006 773e b6db 96be 8ee9 c4be
00000280: ea69 4a3f 32aa 69be b4cd 9c3e 1b4d f93d
00000290: d5c2 323f 6026 373e ca6e 403e 8a94 c53d
000002a0: 185c 283e be5b 63bf 9b49 9ebe db9d 6a3e
000002b0: a8fa 743e a589 5abe 5bec 8bbe 8e26 5e3e
000002c0: 3e58 2fbf cba1 423e fe9e 0fbf 1b1f 553c
000002d0: ce24 ec3e 28c4 9e3e 025f 473e 1e2b 823e
000002e0: 5d26 41bd 662c 9e3e 9813 e63e e6f4 3b3e
000002f0: faaa 563e 66cd 00bf de4f 783e 680b 5dbe
00000300: 87d2 c83d 292b 233e debf d2be 6a83 34be
00000310: 57ba 413e 60e1 573e 6b66 19be 1b58 7bbe
00000320: a2b8 113f a4e9 293d 3548 a83e 3ff7 113f
00000330: 07df 763e 503e 16be 5080 a7be 2930 8d3e
00000340: 9e14 993e 3d89 b6bd 9ab7 35be 48f1 5fbe
00000350: 9d16 503e 4f88 d23e af2e 553e 7e7b 89be
00000360: 06c7 ad3d 8371 86be 8a4a d6be 4f8d f63e
00000370: d510 0ebe 756e 52be feb7 82be 1d0b 96be
00000380: 82e2 5f3d 3231 a3be 423d cf3e 9737 40be
00000390: 1b49 dcbe bb81 d33e 9dd0 e6be 57f0 aebe
000003a0: 740c a9bd 893b 5dbe 4b56 6d3e da63 013e
000003b0: 5e6b 94be 6a5b 98be 7958 90be 9b6b c8be
000003c0: 330a 90be 857d 02be 7fbf a3be 8451 f6be
000003d0: 755c 393f 8d2d 07be 4c7a 983e 636c 8cbe
000003e0: 663e 85be 96dc d8bd b3f4 d1be 503f b53e
000003f0: 6498 953e 1188 ea3e 525a adbe 287c 913e

net.2.bias f4 [128]
0.01977742 -0.12639375 -0.034227222 0.2523931 0.10528152 -0.038012516 -0.20520394 0.17119026
-0.3305787 -0.009198925 -0.013480519 -0.03164035 -0.48928106 0.050809376 -0.029157916 -0.00072525337
0.09084081 -0.24382128 0.5545131 0.025154177 -0.027730864 0.03550224 -0.16964133 -0.046643015
0.9588601 0.012415351 -0.017247478 -0.028304083 -0.023336144 -0.4575794 0.016737068 0.011357103
-0.031285565 -0.00974753 -0.011048591 0.021351082 0.6001494 -0.14279023 -0.027083138 -0.011344464
-0.014728532 0.13967262 -0.45912367 -0.50523275 0.19522284 0.17656529 0.03132194 0.0056850067
-0.10459619 0.3142232 0.10591661 0.15523571 0.32933038 -0.23777622 0.004154844 0.10931296
-0.010352357 -0.030801147 -0.16444695 0.04064023 0.05435046 0.027101133 0.34726104 0.025659438
-0.007155253 -0.043067783 -0.04528757 -0.015135912 0.018740123 0.018297285 0.43153426 0.041948397
-0.031011155 0.14901108 0.014960997 0.06326372 0.12684652 -0.19262941 0.008305622 -0.13585576
-0.017766837 -0.009763817 -0.2950889 0.5579036 -0.40574807 0.6007685 0.020427408 -0.019148504
-0.0159899 0.03617792 -0.8413182 -0.06605462 -0.38269693 0.001312115 -0.051506583 -0.2179633
-0.11788559 -0.06895584 -0.009852684 -0.0147367 0.023964418 0.09670505 -0.00011897758 0.018014433
0.18733653 0.47421527 0.00046861212 -0.006899386 0.21747349 0.006254234 0.29346943 0.010172644
-0.077055015 0.13384601 0.26032868 0.06517989 -0.024602434 0.016502995 0.02217881 -0.0068228175
0.018113948 -0.01137686 0.015163421 0.33167225 -0.2761983 -0.003598691 -0.011478724 -0.06596633
00000000: 4204 a23c 5d6d 01be d831 0cbd ab39 813e
00000010: d69d d73d 03b3 1bbd fb20 52be 804c 2f3e
00000020: 9d41 a9be 17b7 16bc 65dd 5cbc 5099 01bd
00000030: 0c83 fabe 7e1d 503d 95dc eebc ee1e 3eba
00000040: bf0a ba3d 49ac 79be 92f4 0d3f 2210 ce3c
00000050: d62b e3bc cc6a 113d 75b6 2dbe bf0c 3fbd
00000060: db77 753f c269 4b3c 954a 8dbc f7dd e7bc
00000070: 712b bfbc d947 eabe 2d1c 893c 2413 3a3c
00000080: 4b25 00bd 1bb4 1fbc 2605 35bc 77e8 ae3c
00000090: 64a3 193f 9a37 12be 75dd ddbc 21de 39bc
000000a0: f14f 71bc 5706 0f3e 4212 ebbe ef56 01bf
000000b0: 7fe8 473e 88cd 343e 6f4b 003d 4b49 ba3b
000000c0: 8736 d6bd dde1 a03e cfea d83d 1cf6 1e3e
000000d0: fe9d a83e 9c7b 73be 5c25 883b 79df df3d
000000e0: ef9c 29bc b052 fcbc c864 28be 5f76 263d
000000f0: 979e 5e3d 3203 de3c 33cc b13e be33 d23c
00000100: 9d76 eabb d867 30bd 767f 39bd 9efc 77bc
00000110: e384 993c 30e4 953c 0ff2 dc3e 15d2 2b3d
00000120: 1b0b febc 5c96 183e f81e 753c 6990 813d
00000130: 0ee4 013e a540 45be 4e14 083c c61d 0bbe
00000140: c28b 91bc 6bf8 1fbc e415 97be c5d2 0e3f
00000150: 36be cfbe f7cb 193f 6157 a73c 53dd 9cbc
00000160: 40fd 82bc 4c2f 143d a160 57bf a547 87bd
00000170: daf0 c3be 46fb ab3a 91f8 52bd c531 5fbe
00000180: 006e f1bd b838 8dbd 276d 21bc 3372 71bc
00000190: 0751 c43c 4c0d c63d 9a83 f9b8 0193 933c
000001a0: 26d5 3f3e 58cc f23e 0eb0 f539 3f14 e2bb
000001b0: 5fb1 5e3e 51f0 cc3b a041 963e 29ab 263c
000001c0: 05cf 9dbd ee0e 093e cd49 853e 097d 853d
000001d0: 0b8b c9bc 4a31 873c 56b0 b53c f191 dfbb
000001e0: b463 943c 0266 3abc ff6f 783c f2d0 a93e
000001f0: dd69 8dbe 04d8 6bbb 4211 3cbc 5b19 87bd

out_mean.weight f4 [1, 128]
0.0041934983 -0.4499856 0.05012053 0.11846628 -0.0006376804 -0.26343328 -0.09214215 -0.0071036597
0.022149311 0.000529064 0.0020502922 0.0015262361 0.059900716 0.012424778 0.0016902795 -0.00018558672
0.06416218 0.044738296 -0.016728178 0.0033561653 0.023739656 0.0071172207 -0.2650081 0.0074653644
-0.28384212 -0.0006949126 -0.12552157 -0.011659104 0.023593705 -0.2487621 6.622195e-05 -0.006411491
0.0020947051 -0.00664471 0.0004453861 0.0022454907 -0.07384232 0.12965746 -0.002988221 -0.0019997987
0.043705627 -0.056412134 0.04416309 0.05237539 -0.0038092933 -0.25683242 0.090662755 0.0052953805
0.018560745 0.50875425 -0.08692235 -0.44111067 -0.027431497 0.28497115 -0.00052169233 -0.010465982
-0.014756063 -0.0012393725 0.13791023 -0.0013716557 -0.017070414 0.002990531 0.06286385 -0.029518306
0.0032706708 -0.0042634835 -0.0026356664 -1.713157e-05 0.0023435096 0.004927444 -0.025727376 0.00042085283
-0.0074320803 0.18318585 0.014481504 -0.013827147 -0.07009809 -0.19412944 0.0016082248 -0.1087002
0.09152193 -0.00810569 0.0020480226 -0.0060613514 -0.16206834 -0.14227732 -0.005286735 0.005854659
0.0050992314 -0.15661258 0.09352828 0.004115589 0.006432461 -0.00056311686 0.0040063197 0.15355934
0.13676189 8.127579e-05 -0.0057924553 0.007222102 0.0019451572 -0.05125111 -0.0018003265 0.0059031094
-0.15350135 -0.13527198 0.043163206 0.00456197 -0.03734724 -0.10815204 -0.12179288 0.0026684564
0.16751336 -0.23976815 -0.020421164 -0.08828177 -0.0014734003 0.027504692 0.0088703465 0.054524258
-0.10314837 0.001705099 -0.0023443894 -0.008256865 0.1154241 -0.0043495 0.000932205 -0.33072865
00000000: 9d69 893b 8364 e6be 2f4b 4d3d 739e f23d
00000010: 022a 27ba bae0 86be 06b5 bcbd d1c5 e8bb
00000020: 7972 b53c e2b0 0a3a 325e 063b fc0b c83a
00000030: 745a 753d 4c91 4b3c 5e8c dd3a 0e9a 42b9
00000040: 7667 833d 813f 373d 8809 89bc 1cf3 5b3b
00000050: ab79 c23c 9337 e93b 24af 87be 04a0 f43b
00000060: c153 91be cc2a 36ba ba88 00be d405 3fbc
00000070: 9647 c13c 7ebb 7ebe a4e0 8a38 7c17 d2bb
00000080: 5247 093b debb d9bb b682 e939 1529 133b
00000090: a43a 97bd edc4 043e 07d6 43bb 0e0f 03bb
000000a0: ac04 333d 6910 67bd 5be4 343d 9487 563d
000000b0: 56a5 79bb 8a7f 83be 65ad b93d df84 ad3b
000000c0: b40c 983c b83d 023f 5804 b2bd 42d9 e1be
000000d0: 05b8 e0bc bde7 913e 2ec2 08ba 8379 2bbc
000000e0: 6ac3 71bc 7172 a2ba 5738 0d3e 21c9 b3ba
000000f0: 41d7 8bbc c9fc 433b c3be 803d 60d0 f1bc
00000100: c058 563b b1b4 8bbb 25bb 2cbb c4b5 8fb7
00000110: 9195 193b 6576 a13b 38c2 d2bc e9a5 dc39
00000120: cf88 f3bb 1295 3b3e d543 6d3c 428b 62bc
00000130: 968f 8fbd dec9 46be 12cb d23a 369e debd
00000140: da6f bb3d bacd 04bc 1e38 063b 4d9e c6bb
00000150: 3ef5 25be 25b1 11be 593c adbb 70d8 bf3b
00000160: 7417 a73b 0c5f 20be c18b bf3d 10dc 863b
00000170: 65c7 d23b 229e 13ba 7247 833b a93e 1d3e
00000180: 4f0b 0c3e 9c72 aa38 a3ce bdbb 62a7 ec3b
00000190: a5f4 fe3a afec 51bd eff8 ebba df6e c13b
000001a0: 752f 1dbe bd84 0abe e7cb 303d 947c 953b
000001b0: 6bf9 18bd d17e ddbd 8c6e f9bd 45e1 2e3b
000001c0: 9f88 2b3e c885 75be 494a a7bc 13cd b4bd
000001d0: 1c1f c1ba 8551 e13c ee54 113c d454 5f3d
000001e0: 743f d3bd a17d df3a 54a4 19bb cd47 07bc
000001f0: 7863 ec3d 4086 8ebb 385f 743a 4455 a9be

out_value.weight f4 [1, 128]
-7.070226e-05 -0.00023301193 -0.061702736 -0.00045089683 -0.00013276043 -0.000613155 -0.0003509197 -0.0002941373
-1.5749945e-05 -0.0002924709 0.00044176323 -0.00025462956 -8.2027225e-05 -0.0014561149 -0.0006436124 0.00019282519
7.962693e-05 -0.00022814334 -0.00024050742 -0.00043285903 0.0011267086 1.2397963e-05 0.00011613631 0.0012896148
-0.00046076757 -0.00045715275 -0.00047618226 -0.0005883934 -2.1644108e-05 0.00015226401 -0.0003168123 -0.00069422787
0.00015279547 0.0003820854 0.00065688 0.00041491506 -0.00014152894 0.00030759507 -0.0005207 -7.5685734e-06
0.0011628342 -5.603712e-05 0.000256841 -0.0005327715 -1.2790282e-05 -0.0004275601 -0.00046241045 7.006438e-05
-0.00044050932 0.00040875218 -9.5541955e-06 0.00011408446 0.00015859974 -3.464138e-05 0.00014789986 -0.00014681375
0.00024744612 0.0006970745 0.00051861355 -0.0003396168 5.9270064e-05 -0.0004877486 -8.8143766e-05 -0.011447137
-0.00029117567 0.00017378949 -0.00022506835 5.0256484e-05 -9.8218785e-05 0.00034991227 -0.00044461782 -3.7714548e-05
-0.00192029 -0.00019096179 0.00080144126 -0.0003111726 0.0021927576 -0.0001935469 -3.174893e-05 0.00030786122
0.0006397707 0.00020301531 7.8954e-05 0.00017209856 -0.00022251792 -0.0005539164 0.00037844706 -0.00050975074
-4.98742e-05 0.0008254215 -8.66221e-05 0.0011494097 0.00065333105 0.0011188379 9.654823e-05 -0.00017109704
-0.0052647465 -0.00011921271 -0.00015386537 -0.0006737777 0.00034591253 0.013798225 -0.00050926715 -0.00053847634
-0.00065124704 -0.00019247264 0.009466378 0.0009895132 0.00075130473 0.061429605 -0.001062649 3.4879286e-05
0.001862331 -6.134927e-05 -0.00041072414 0.06265353 -7.504384e-05 0.0006613439 0.00023915588 -0.069573276
0.00028450054 -0.000427876 0.00016860417 -0.0004027635 0.0015214974 0.000141217 5.719004e-05 -1.1480424e-05
00000000: fd45 94b8 aa54 74b9 02bc 7cbd 5966 ecb9
00000010: 9b35 0bb9 23bc 20ba a5fb b7b9 7136 9ab9
00000020: c01e 84b7 c856 99b9 759c e739 cd7f 85b9
00000030: 0806 acb8 1cdb beba 19b8 28ba 1e31 4a39
00000040: 62fd a638 c339 6fb9 b830 7cb9 5bf1 e2b9
00000050: 11ae 933a d800 5037 358e f338 4b08 a93a
00000060: 2d93 f1b9 01ae efb9 1aa8 f9b9 6a3e 1aba
00000070: 5e90 b5b7 0fa9 1f39 d419 a6b9 d8fc 35ba
00000080: b937 2039 a252 c839 7832 2c3a f588 d939
00000090: 6367 14b9 b644 a139 967f 08ba 8df5 fdb6
000000a0: 3e6a 983a 6609 6bb8 9ea8 8639 b1a9 0bba
000000b0: d895 56b7 252a e0b9 ae6f f2b9 87ef 9238
000000c0: 29f4 e6b9 ca4d d639 f54a 20b7 a140 ef38
000000d0: cb4d 2639 e64b 11b8 9115 1b39 04f2 19b9
000000e0: a8bb 8139 e1bb 363a 91f3 073a 980e b2b9
000000f0: bf98 7838 82b8 ffb9 d3d9 b8b8 c68c 3bbc
00000100: f0a8 98b9 433b 3639 5300 6cb9 7dca 5238
00000110: cffa cdb8 6e74 b739 981b e9b9 b02f 1eb8
00000120: 3db2 fbba ea3c 48b9 d017 523a e124 a3b9
00000130: 5eb4 0f3b daf2 4ab9 272a 05b8 6f68 a139
00000140: 49b6 273a 82e0 5439 1b94 a538 5b75 3439
00000150: b353 69b9 b334 11ba 4e6a c639 cba0 05ba
00000160: 0430 51b8 1961 583a e3a8 b5b8 caa7 963a
00000170: 4e44 2b3a f8a5 923a f079 ca38 8368 33b9
00000180: e583 acbb d601 fab8 ec56 21b9 75a0 30ba
00000190: 985b b539 f311 623c 5780 05ba 8928 0dba
000001a0: 73b8 2aba 7bd2 49b9 de18 1b3c 8eb2 813a
000001b0: 35f3 443a 9c9d 7b3d 9548 8bba 594b 1238
000001c0: 7519 f43a a3a8 80b8 7656 d7b9 7e50 803d
000001d0: db60 9db8 0a5e 2d3a ebc5 7a39 6f7c 8ebd
000001e0: 0429 9539 8b54 e0b9 56cb 3039 002a d3b9
000001f0: fb6c c73a a613 1439 56df 6f38 0c9c 40b7

weight f4 [128, 6]
-0.1791938 -0.05427902 0.12681086 0.12547207 -0.003186933 -0.10575236 0.15033816 0.67491186
0.37194717 0.17520234 0.13956308 0.10614811 -0.1334386 0.07316067 0.13138221 -0.5794122
-0.84070486 0.21498425 -0.077289104 -0.05866314 0.20675145 -0.58717215 -0.23933707 0.24121353
-0.073065594 -0.4568454 0.10050906 -0.64821136 0.030288983 -0.0760918 -0.92104936 -0.7555592
-0.77719265 -0.63912606 -0.14061697 1.3528132 0.11692553 0.34691688 -0.29000604 0.262453
-0.011855344 -0.8086452 -0.03499545 -0.31845596 0.48025104 -0.55100274 0.04555044 0.60279405
-0.21975821 -0.052590214 0.07341649 0.019220438 -0.031062357 -0.0025729444 -0.16871525 -0.7996208
-0.1349147 -0.43461862 -0.35020962 0.91075766 -0.35063288 -0.24351358 0.09626578 -0.3491769
0.05474822 -0.071131766 0.3777648 -0.7272584 -0.003601987 -0.702224 -0.006394634 -0.08484174
0.16536674 0.6532315 0.08366838 0.43499044 0.24672861 -0.6208399 -0.19676927 -0.8181607
-0.1471625 -0.68976367 -0.3244289 0.7902272 0.2515622 -0.09265262 -0.65161395 0.053446744
-0.056595076 -0.064037114 0.03329639 -0.5493408 0.14548884 -0.47965333 -0.30525517 0.6054896
0.10407798 0.39421332 0.40072697 0.23039563 0.15301092 -0.23017095 0.14504659 0.064288676
-0.41661644 -0.45069662 0.010864774 0.1278097 0.83772665 -1.9082428 -0.63158363 0.8439786
0.12527315 -0.07606544 0.019873772 -0.5312625 0.076915726 -0.3270924 -0.27751556 0.72574705
0.16769254 -0.22705576 -0.49742374 -0.2645312 0.11558537 0.12838508 0.3574308 0.211554
0.089882456 0.13815212 0.0032773935 0.110858545 0.29973885 -0.035474982 -0.29750177 -0.00041832472
-0.040404208 0.0966957 0.074588455 0.6348502 -0.3798137 -0.481311 -0.045715746 0.08791381
0.31598735 -1.1760381 0.36765346 -0.16846177 -0.9987395 0.047934927 0.19632778 0.37220412
-0.16520861 0.55660254 0.13127884 -0.46713603 -0.35343006 -0.42625862 0.33778933 -0.7787609
-0.19468413 0.22788349 -0.1816379 -0.27529207 -0.27900246 -0.009280708 -0.035803884 -0.0072877635
0.25265288 0.90129536 0.25183064 0.44572207 0.42069808 -0.95596904 0.32022056 0.87661135
0.29825327 0.47970366 0.4427549 -0.96797925 -0.2976096 -0.84407395 -0.41124982 -0.48373353
-0.41263548 0.9191593 0.119444996 -0.22939089 0.0883941 -0.46877608 0.00083009043 -0.074671455
0.1642924 0.9657628 -0.6655707 -1.4986317 -0.05367733 0.03469073 0.0010132439 -0.6994037
0.13000353 -0.37197477 -0.28580448 0.72374624 0.25332472 0.74809253 0.24260435 0.47091714
0.39178142 -0.88591397 0.11711792 0.2956905 -0.44333568 0.4023099 0.031605154 -0.5884551
0.40747267 -0.20108517 -0.5169419 -0.85107934 -0.08387784 0.05212314 -0.47247145 -0.2165255
0.40771735 0.19643687 0.119581826 0.10226403 0.25823626 0.8412851 0.26627314 0.4830654
0.4259641 -0.9271838 -0.058218103 0.47310647 -0.32205707 0.43171105 0.1961825 -0.46276474
0.22726879 0.81451595 0.26103982 0.4391148 0.37258336 -0.85009384 0.0945733 0.5675059
-0.26220453 -0.49265492 -0.06610669 -0.12656604 -0.155777 -0.09454127 0.06975142 -0.17585151
00000000: 947e 37be ad53 5ebd b5da 013e c07b 003e
00000010: dddb 50bb b194 d8bd 3ff2 193e 06c7 2c3f
00000020: dc6f be3e 3e68 333e a0e9 0e3e 2e64 d93d
00000030: 21a4 08be 43d5 953d 0f89 063e 5c54 14bf
00000040: 6f38 57bf d524 5c3e c049 9ebd c348 70bd
00000050: a7b6 533e ea50 16bf c714 75be ae00 773e
00000060: 6aa3 95bd a4e7 e9be b2d7 cd3d 2ef1 25bf
00000070: 9a20 f83c 05d6 9bbd e4c9 6bbf 546c 41bf
00000080: 19f6 46bf c49d 23bf e5fd 0fbe fc28 ad3f
00000090: a776 ef3d 179f b13e ac7b 94be 3d60 863e
000000a0: eb3c 42bc 5f03 4fbf 6457 0fbd a90c a3be
000000b0: 77e3 f53e 840e 0dbf 1993 3a3d b650 1a3f
000000c0: 4c08 61be d668 57bd 625b 963d 2e74 9d3c
000000d0: 7c76 febc d89e 28bb b1c3 2cbe f3b3 4cbf
000000e0: 1427 0abe 5586 debe ad4e b3be 6a27 693f
000000f0: 2786 b3be a05b 79be fe26 c53d 51c7 b2be
00000100: ab3f 603d 88ad 91bd 636a c13e 9b2d 3abf
00000110: 500f 6cbb f4c4 33bf 148a d1bb 82c1 adbd
00000120: e655 293e 2e3a 273f 545a ab3d 11b7 de3e
00000130: 6da6 7c3e 5def 1ebf e27d 49be fb72 51bf
00000140: c4b1 16be 5a94 30bf 8b1b a6be 544c 4a3f
00000150: c3cc 803e a8c0 bdbd 2cd0 26bf f9ea 5a3d
00000160: 3dd0 67bd e425 83bd cc61 083d 99a1 0cbf
00000170: 07fb 143e 1f95 f5be 684a 9cbe 5e01 1b3f
00000180: d626 d53d 54d6 c93e 162c cd3e d5ec 6b3e
00000190: e5ae 1c3e efb1 6bbe 1887 143e c8a9 833d
000001a0: c04e d5be b5c1 e6be 2a02 323c 8ce0 023e
000001b0: 4175 563f 4d41 f4bf 77af 21bf fb0e 583f
000001c0: 9b47 003e 33c8 9bbd 52ce a23c d200 08bf
000001d0: fe85 9d3d a878 a7be 8516 8ebe 8fca 393f
000001e0: 98b7 2b3e 4e81 68be 53ae febe a270 87be
000001f0: 06b8 ec3d 6177 033e 2b01 b73e 9da1 583e
00000200: 4b14 b83d c077 0d3e 8ac9 563b ce09 e33d
00000210: 5f77 993e 374e 11bd 2752 98be 9852 dbb9
00000220: e27e 25bd 6508 c63d d5c1 983d 8b85 223f
00000230: f176 c2be 656e f6be 6f40 3bbd 280c b43d
00000240: 18c9 a13e 6b88 96bf 133d bc3e 3e81 2cbe
00000250: 64ad 7fbf 6a57 443d 260a 493e 8a91 be3e
00000260: 722c 29be 817d 0e3f f66d 063e 742c efbe
00000270: c9f4 b4be 923e dabe b9f2 ac3e e05c 47bf
00000280: 475b 47be 4a5a 693e 49ff 39be 15f3 8cbe
00000290: 69d9 8ebe 1c0e 18bc 18a7 12bd 31ce eebb
000002a0: b85b 813e 4bbb 663f f2ef 803e af35 e43e
000002b0: bd65 d73e 63ba 74bf f3f3 a33e 9a69 603f
000002c0: a7b4 983e b89b f53e c5b0 e23e 7dcd 77bf
000002d0: 4960 98be 3b15 58bf 568f d2be ecab f7be
000002e0: f544 d3be 064e 6b3f 949f f43d 72e5 6abe
000002f0: f707 b53d 6b03 f0be 6d9a 593a 59ed 98bd
00000300: 443c 283e 3b3c 773f d762 2abf 2ad3 bfbf
00000310: c3dc 5bbd de17 0e3d d3ce 843a 1f0c 33bf
00000320: a51f 053e 7a73 bebe f754 92be 6f47 393f
00000330: c7b3 813e fe82 3f3f 466d 783e 0d1c f13e
00000340: 9397 c83e 42cb 62bf 85db ef3d bf64 973e
00000350: e5fc e2be 90fb cd3e 6874 013d fea4 16bf
00000360: 42a0 d03e 45e9 4dbe 4e56 04bf 56e0 59bf
00000370: 25c8 abbd 137f 553d c7e7 f1be dcb8 5dbe
00000380: 54c0 d03e bf26 493e 51e7 f43d ce6f d13d
00000390: 8b37 843e 765e 573f f454 883e 5954 f73e
000003a0: f717 da3e eb5b 6dbf 1b76 6ebd 033b f23e
000003b0: aae4 a4be 3b09 dd3e 11e4 483e 80ef ecbe
000003c0: 26b9 683e 1e84 503f 03a7 853e a8d3 e03e
000003d0: 3fc3 be3e c09f 59bf a5af c13d 1148 113f
000003e0: ac3f 86be 443d fcbe f262 87bd 879a 01be
000003f0: 0284 1fbe da9e c1bd d5d9 8e3d 6b12 34be

bias f4 [128]
-0.17325343 -0.13713124 -0.26984024 -0.3654062 -0.08265825 -0.4193085 0.25389045 -0.11510666
0.08532829 -0.18467672 0.027019141 -0.25665095 0.15530182 -0.18630472 0.01565001 -0.1508911
0.28618887 0.35215905 0.8684031 -0.2428819 0.20625605 -0.023535592 0.10307106 -0.050680954
0.022257121 0.004774293 -0.19587038 0.14170258 0.20107016 0.23472737 -0.3162833 -0.25349528
-0.13117658 -0.1184437 0.24895827 0.16110316 0.3694146 -0.0065912087 0.24867542 0.1117996
0.23785244 -0.265163 0.08035886 0.32047263 0.16676769 -0.16002434 -0.26850313 0.22448395
-0.14990129 0.103757806 -0.17842032 0.15873556 0.14836338 0.1360764 0.3928606 0.22375856
0.09315819 0.2683119 0.052172914 0.2186228 0.29976177 -0.15916696 0.20358668 -0.12975615
-0.019771174 0.17913961 -0.23073429 -0.062152006 0.31934896 0.0657493 -0.25838688 -0.14619988
0.19155553 -0.24435282 0.2552142 0.19041876 0.15236357 -0.23738058 -0.31015027 0.24878545
0.19556387 -0.1767752 -0.08564917 -0.2764691 -0.19156799 0.24435717 0.1620696 -0.21315253
0.11210114 -0.2676966 -0.16986012 0.46394762 -0.25778538 -0.045370817 -0.18372047 -0.24252367
0.13181326 -0.33562693 0.16864406 -0.34256962 -0.16654012 0.22129117 -0.4035841 -0.2866798
0.08710356 -0.42481452 0.33634353 0.33708006 -0.38631 -0.22453037 -0.123379394 -0.057726104
-0.11490943 -0.07333629 -0.25721806 -0.21747388 -0.2864965 -0.24612482 0.18412694 -0.20617612
-0.049321484 -0.26958647 -0.17981617 0.30202913 0.35966647 0.041223045 -0.24795975 0.25479546
00000000: 5969 31be 226c 0cbe 8028 8abe 8516 bbbe
00000010: bb48 a9bd 9baf d6be eefd 813e 0abd ebbd
00000020: 99c0 ae3d e51b 3dbe 3f57 dd3c c167 83be
00000030: 7107 1f3e aac6 3ebe 7334 803c 3283 1abe
00000040: 5987 923e 314e b43e aa4f 5e3f 08b6 78be
00000050: c934 533e b7cd c0bc eb16 d33d d596 4fbd
00000060: 9154 b63c ac71 9c3b 3f92 48be 7b1a 113e
00000070: 56e5 4d3e 5f5c 703e e2ef a1be 22ca 81be
00000080: 2753 06be 9c92 f2bd ebee 7e3e 3af8 243e
00000090: e923 bd3e 11fb d7bb c5a4 7e3e 30f7 e43d
000000a0: 978f 733e 72c3 87be 3093 a43d fd14 a43e
000000b0: 26c5 2a3e 6cdd 23be 3e79 89be 1fdf 653e
000000c0: b97f 19be f97e d43d d1b3 36be 938b 223e
000000d0: 92ec 173e 9d57 0b3e 0625 c93e f720 653e
000000e0: b9c9 be3d 2d60 893e 44b3 553d a8de 5f3e
000000f0: 607a 993e aafc 22be 0779 503e ccde 04be
00000100: 28f7 a1bc 6070 373e 9c45 6cbe 1a93 7ebd
00000110: b581 a33e 92a7 863d 494b 84be 6cb5 15be
00000120: 2227 443e a037 7abe 70ab 823e 23fd 423e
00000130: 3205 1c3e e513 73be 04cc 9ebe 9dc1 7e3e
00000140: e541 483e 8f04 35be d568 afbd 5c8d 8dbe
00000150: 662a 44be c438 7a3e 93f5 253e a844 5abe
00000160: 4895 e53d 870f 89be d0ef 2dbe 8b8a ed3e
00000170: 72fc 83be c0d6 39bd 3821 3cbe 2058 78be
00000180: 0efa 063e 4bd7 abbe 07b1 2c3e 4965 afbe
00000190: 7e89 2abe 279a 623e 93a2 cebe b2c7 92be
000001a0: 5a63 b23d 4a81 d9be 3835 ac3e c295 ac3e
000001b0: 6dca c5be 4aeb 65be 56ae fcbd 3572 6cbd
000001c0: a355 ebbd 5631 96bd 16b2 83be 79b1 5ebe
000001d0: abaf 92be 2508 7cbe c68b 3c3e d51f 53be
000001e0: 5305 4abd 3d07 8abe bb21 38be 90a3 9a3e
000001f0: 3426 b83e 7fd9 283d 29e9 7dbe 8d74 823e

weight f4 [128, 128]
-0.014953079 -0.06527183 -0.03144753 0.17159218 -0.02202015 0.08941422 -0.010923034 -0.10377047
-0.051282525 0.092422545 0.12505135 -0.014079557 0.012239257 -0.071986064 -0.004398697 0.0579074
0.04435932 0.024144782 0.041333765 0.025300385 0.014827756 -0.11967454 0.023312405 0.12419797
-0.05888787 0.05089416 0.0070984 -0.033027556 -0.025680136 -0.10479534 0.023553165 -0.0066902637
0.056266423 0.10396569 -0.055242334 -0.15122224 -0.106443875 -0.0224574 -0.016904611 0.1634457
-0.109808356 -0.0033866644 -0.112261586 -0.030450495 0.12789829 0.05258938 -0.054696675 0.0068079364
0.010156017 -0.002858739 -0.08677263 -0.027003925 0.0066221277 -0.11853937 -0.085774384 0.020711873
0.016988738 0.115467906 0.13806894 0.005604943 -0.034225795 0.030915027 -0.060827825 0.034085814
0.046702575 0.09097286 0.014631461 0.057916604 -0.11360518 0.056643646 0.046224147 -0.028287388
-0.016491892 -0.10670722 -0.00020666384 -0.05693687 -0.0546048 -0.080974795 -0.1639689 0.035035234
0.04543381 -0.027224673 -0.05719324 -0.11924712 0.0008758736 0.07976375 0.005706336 0.008651716
0.00144635 -0.016089309 0.039133873 -0.026480647 -0.0034629079 0.079769835 0.0040245415 0.03369768
0.017283443 -0.078288354 0.06904998 -0.094559 0.012537139 -0.20696919 0.020724691 -0.10177366
0.013211749 -0.07751386 0.12018907 -0.030246364 0.008538641 -0.03483197 0.07174338 -0.06330608
-0.07719255 -0.043898296 -0.0955813 0.049374245 -0.025493914 -0.10161858 -0.04830495 0.13392141
-0.13809313 -0.004161789 0.048223324 0.0011971989 -0.12454582 0.0046786577 -0.023142138 -0.117140524
-0.4766261 0.052976474 -0.13233693 -0.050968938 -0.49137482 -0.16816826 0.20829323 -0.12384962
-0.031609893 -0.38866863 -0.3671907 -0.09995942 0.31301022 -0.06930572 -0.15591457 -0.049521066
-0.039377194 0.52550626 -2.0415847 -0.22216152 0.04570967 0.1296988 0.5826914 0.5699629
0.8582737 0.31843314 -0.104810625 -0.010671302 0.26566127 0.24123645 -0.294645 -0.38459438
0.7906786 -0.2281883 0.3062569 0.1217291 0.6982854 0.17885733 0.18792263 0.09647472
0.16441381 -0.8881186 -0.30915532 0.2291178 0.23923743 -0.2134157 -0.27328762 0.21694395
-0.6849402 0.19007032 -0.5610198 0.013007904 0.4612183 0.3100903 0.19469836 0.2542352
-0.047155727 0.30893248 0.44936824 0.1835514 0.2096366 -0.50313413 0.24249217 -0.21586382
0.0980578 0.15934433 -0.41162008 -0.17628255 0.1891874 0.21082067 -0.14980476 -0.24545328
0.5692235 0.041482583 0.3286759 0.5701789 0.24108516 -0.14672208 -0.32715082 0.27575806
0.29898542 -0.08912895 -0.1774582 -0.21869385 0.20321126 0.4111962 0.2081859 -0.2685203
0.08485226 -0.26258478 -0.41853744 0.48154685 -0.13873608 -0.20549949 -0.25531 -0.29305354
0.054659374 -0.3187347 0.40476424 -0.18771206 -0.43024525 0.41309914 -0.45081034 -0.3416774
-0.08254328 -0.21604742 0.2317745 0.12635747 -0.28988165 -0.29757243 -0.281925 -0.39144596
-0.2813278 -0.12743194 -0.31982037 -0.48109066 0.72406703 -0.1320097 0.29780805 -0.27426443
-0.2602417 -0.105889484 -0.41007003 0.35399866 0.29217827 0.45806935 -0.3385797 0.28415036
00000000: c2fd 74bc 3dad 85bd 20cf 00bd dcb5 2f3e
00000010: 9a63 b4bc cd1e b73d 86f6 32bc 9d85 d4bd
00000020: a00d 52bd 0848 bd3d 760d 003e f1ad 66bc
00000030: 2a87 483c 6e6d 93bd f222 90bb 4f30 6d3d
00000040: 1eb2 353d 47cb c53c 984d 293d c142 cf3c
00000050: 1ef0 723c ed17 f5bd a8f9 be3c 815b fe3d
00000060: 6834 71bd 6576 503d b299 e83b e747 07bd
00000070: 265f d2bc f09e d6bd 91f2 c03c 003a dbbb
00000080: 9f77 663d f7eb d43d c945 62bd 01da 1abe
00000090: 3fff d9bd 95f8 b7bc 8a7b 8abc 4f5e 273e
000000a0: 34e3 e0bd cdf2 5dbb 67e9 e5bd 5173 f9bc
000000b0: c5f7 023e f667 573d 9f09 60bd 1c15 df3b
000000c0: 6c65 263c af59 3bbb d9b5 b1bd 5637 ddbc
000000d0: 6ffe d83b c5c4 f2bd 7baa afbd f2ab a93c
000000e0: f72b 8b3c 707a ec3d f261 0d3e aba9 b73b
000000f0: 5930 0cbd 8341 fd3c 9926 79bd 919d 0b3d
00000100: 334b 3f3d fb4f ba3d ccb8 6f3c f639 6d3d
00000110: d5a9 e8bd 2b03 683d 8855 3d3d f4ba e7bc
00000120: 011a 87bc 5189 dabd e7b3 58b9 a336 69bd
00000130: 48a9 5fbd 1dd6 a5bd 77e7 27be 1b81 0f3d
00000140: ce18 3a3d 4706 dfbc 7543 6abd d637 f4bd
00000150: e29a 653a 2d5b a33d 37fc ba3b edbf 0d3c
00000160: 7493 bd3a bacd 83bc d74a 203d f1ed d8bc
00000170: f4f1 62bb 5e5e a33d 4de0 833b 9406 0a3d
00000180: 0296 8d3c a555 a0bd 136a 8d3d 26a8 c1bd
00000190: 9268 4d3c bbef 53be d4c6 a93c b56e d0bd
000001a0: 1776 583c 96bf 9ebd b025 f63d 39c7 f7bc
000001b0: a8e5 0b3c f8ab 0ebd 31ee 923d 9ea6 81bd
000001c0: 2117 9ebd b3ce 33bd 21c0 c3bd a63c 4a3d
000001d0: 9dd8 d0bc 671d d0bd 69db 45bd b222 093e
000001e0: 4968 0dbe 9e5f 88bb d285 453d 54eb 9c3a
000001f0: e111 ffbd 6d4f 993b 9594 bdbc 5fe7 efbd
00000200: 5608 f4be dcfd 583d 5583 07be cec4 50bd
00000210: 7b95 fbbe 4d34 2cbe d24a 553e dfa4 fdbd
00000220: 6079 01bd 93ff c6be 6b00 bcbe 86b7 ccbd
00000230: e042 a03e 28f0 8dbd 12a8 1fbe 9ad6 4abd
00000240: fb49 21bd 9487 063f 53a9 02c0 4f7e 63be
00000250: 103a 3b3d c3cf 043e 432b 153f 17e9 113f
00000260: d3b7 5b3f ab09 a33e f4a6 d6bd afd6 2ebc
00000270: c104 883e b006 773e b6db 96be 8ee9 c4be
00000280: ea69 4a3f 32aa 69be b4cd 9c3e 1b4d f93d
00000290: d5c2 323f 6026 373e ca6e 403e 8a94 c53d
000002a0: 185c 283e be5b 63bf 9b49 9ebe db9d 6a3e
000002b0: a8fa 743e a589 5abe 5bec 8bbe 8e26 5e3e
000002c0: 3e58 2fbf cba1 423e fe9e 0fbf 1b1f 553c
000002d0: ce24 ec3e 28c4 9e3e 025f 473e 1e2b 823e
000002e0: 5d26 41bd 662c 9e3e 9813 e63e e6f4 3b3e
000002f0: faaa 563e 66cd 00bf de4f 783e 680b 5dbe
00000300: 87d2 c83d 292b 233e debf d2be 6a83 34be
00000310: 57ba 413e 60e1 573e 6b66 19be 1b58 7bbe
00000320: a2b8 113f a4e9 293d 3548 a83e 3ff7 113f
00000330: 07df 763e 503e 16be 5080 a7be 2930 8d3e
00000340: 9e14 993e 3d89 b6bd 9ab7 35be 48f1 5fbe
00000350: 9d16 503e 4f88 d23e af2e 553e 7e7b 89be
00000360: 06c7 ad3d 8371 86be 8a4a d6be 4f8d f63e
00000370: d510 0ebe 756e 52be feb7 82be 1d0b 96be
00000380: 82e2 5f3d 3231 a3be 423d cf3e 9737 40be
00000390: 1b49 dcbe bb81 d33e 9dd0 e6be 57f0 aebe
000003a0: 740c a9bd 893b 5dbe 4b56 6d3e da63 013e
000003b0: 5e6b 94be 6a5b 98be 7958 90be 9b6b c8be
000003c0: 330a 90be 857d 02be 7fbf a3be 8451 f6be
000003d0: 755c 393f 8d2d 07be 4c7a 983e 636c 8cbe
000003e0: 663e 85be 96dc d8bd b3f4 d1be 503f b53e
000003f0: 6498 953e 1188 ea3e 525a adbe 287c 913e

bias f4 [128]
0.01977742 -0.12639375 -0.034227222 0.2523931 0.10528152 -0.038012516 -0.20520394 0.17119026
-0.3305787 -0.009198925 -0.013480519 -0.03164035 -0.48928106 0.050809376 -0.029157916 -0.00072525337
0.09084081 -0.24382128 0.5545131 0.025154177 -0.027730864 0.03550224 -0.16964133 -0.046643015
0.9588601 0.012415351 -0.017247478 -0.028304083 -0.023336144 -0.4575794 0.016737068 0.011357103
-0.031285565 -0.00974753 -0.011048591 0.021351082 0.6001494 -0.14279023 -0.027083138 -0.011344464
-0.014728532 0.13967262 -0.45912367 -0.50523275 0.19522284 0.17656529 0.03132194 0.0056850067
-0.10459619 0.3142232 0.10591661 0.15523571 0.32933038 -0.23777622 0.004154844 0.10931296
-0.010352357 -0.030801147 -0.16444695 0.04064023 0.05435046 0.027101133 0.34726104 0.025659438
-0.007155253 -0.043067783 -0.04528757 -0.015135912 0.018740123 0.018297285 0.43153426 0.041948397
-0.031011155 0.14901108 0.014960997 0.06326372 0.12684652 -0.19262941 0.008305622 -0.13585576
-0.017766837 -0.009763817 -0.2950889 0.5579036 -0.40574807 0.6007685 0.020427408 -0.019148504
-0.0159899 0.03617792 -0.8413182 -0.06605462 -0.38269693 0.001312115 -0.051506583 -0.2179633
-0.11788559 -0.06895584 -0.009852684 -0.0147367 0.023964418 0.09670505 -0.00011897758 0.018014433
0.18733653 0.47421527 0.00046861212 -0.006899386 0.21747349 0.006254234 0.29346943 0.010172644
-0.077055015 0.13384601 0.26032868 0.06517989 -0.024602434 0.016502995 0.02217881 -0.0068228175
0.018113948 -0.01137686 0.015163421 0.33167225 -0.2761983 -0.003598691 -0.011478724 -0.06596633
00000000: 4204 a23c 5d6d 01be d831 0cbd ab39 813e
00000010: d69d d73d 03b3 1bbd fb20 52be 804c 2f3e
00000020: 9d41 a9be 17b7 16bc 65dd 5cbc 5099 01bd
00000030: 0c83 fabe 7e1d 503d 95dc eebc ee1e 3eba
00000040: bf0a ba3d 49ac 79be 92f4 0d3f 2210 ce3c
00000050: d62b e3bc cc6a 113d 75b6 2dbe bf0c 3fbd
00000060: db77 753f c269 4b3c 954a 8dbc f7dd e7bc
00000070: 712b bfbc d947 eabe 2d1c 893c 2413 3a3c
00000080: 4b25 00bd 1bb4 1fbc 2605 35bc 77e8 ae3c
00000090: 64a3 193f 9a37 12be 75dd ddbc 21de 39bc
000000a0: f14f 71bc 5706 0f3e 4212 ebbe ef56 01bf
000000b0: 7fe8 473e 88cd 343e 6f4b 003d 4b49 ba3b
000000c0: 8736 d6bd dde1 a03e cfea d83d 1cf6 1e3e
000000d0: fe9d a83e 9c7b 73be 5c25 883b 79df df3d
000000e0: ef9c 29bc b052 fcbc c864 28be 5f76 263d
000000f0: 979e 5e3d 3203 de3c 33cc b13e be33 d23c
00000100: 9d76 eabb d867 30bd 767f 39bd 9efc 77bc
00000110: e384 993c 30e4 953c 0ff2 dc3e 15d2 2b3d
00000120: 1b0b febc 5c96 183e f81e 753c 6990 813d
00000130: 0ee4 013e a540 45be 4e14 083c c61d 0bbe
00000140: c28b 91bc 6bf8 1fbc e415 97be c5d2 0e3f
00000150: 36be cfbe f7cb 193f 6157 a73c 53dd 9cbc
00000160: 40fd 82bc 4c2f 143d a160 57bf a547 87bd
00000170: daf0 c3be 46fb ab3a 91f8 52bd c531 5fbe
00000180: 006e f1bd b838 8dbd 276d 21bc 3372 71bc
00000190: 0751 c43c 4c0d c63d 9a83 f9b8 0193 933c
000001a0: 26d5 3f3e 58cc f23e 0eb0 f539 3f14 e2bb
000001b0: 5fb1 5e3e 51f0 cc3b a041 963e 29ab 263c
000001c0: 05cf 9dbd ee0e 093e cd49 853e 097d 853d
000001d0: 0b8b c9bc 4a31 873c 56b0 b53c f191 dfbb
000001e0: b463 943c 0266 3abc ff6f 783c f2d0 a93e
000001f0: dd69 8dbe 04d8 6bbb 4211 3cbc 5b19 87bd

weight f4 [1, 128]
0.0041934983 -0.4499856 0.05012053 0.11846628 -0.0006376804 -0.26343328 -0.09214215 -0.0071036597
0.022149311 0.000529064 0.0020502922 0.0015262361 0.059900716 0.012424778 0.0016902795 -0.00018558672
0.06416218 0.044738296 -0.016728178 0.0033561653 0.023739656 0.0071172207 -0.2650081 0.0074653644
-0.28384212 -0.0006949126 -0.12552157 -0.011659104 0.023593705 -0.2487621 6.622195e-05 -0.006411491
0.0020947051 -0.00664471 0.0004453861 0.0022454907 -0.07384232 0.12965746 -0.002988221 -0.0019997987
0.043705627 -0.056412134 0.04416309 0.05237539 -0.0038092933 -0.25683242 0.090662755 0.0052953805
0.018560745 0.50875425 -0.08692235 -0.44111067 -0.027431497 0.28497115 -0.00052169233 -0.010465982
-0.014756063 -0.0012393725 0.13791023 -0.0013716557 -0.017070414 0.002990531 0.06286385 -0.029518306
0.0032706708 -0.0042634835 -0.0026356664 -1.713157e-05 0.0023435096 0.004927444 -0.025727376 0.00042085283
-0.0074320803 0.18318585 0.014481504 -0.013827147 -0.07009809 -0.19412944 0.0016082248 -0.1087002
0.09152193 -0.00810569 0.0020480226 -0.0060613514 -0.16206834 -0.14227732 -0.005286735 0.005854659
0.0050992314 -0.15661258 0.09352828 0.004115589 0.006432461 -0.00056311686 0.0040063197 0.15355934
0.13676189 8.127579e-05 -0.0057924553 0.007222102 0.0019451572 -0.05125111 -0.0018003265 0.0059031094
-0.15350135 -0.13527198 0.043163206 0.00456197 -0.03734724 -0.10815204 -0.12179288 0.0026684564
0.16751336 -0.23976815 -0.020421164 -0.08828177 -0.0014734003 0.027504692 0.0088703465 0.054524258
-0.10314837 0.001705099 -0.0023443894 -0.008256865 0.1154241 -0.0043495 0.000932205 -0.33072865
00000000: 9d69 893b 8364 e6be 2f4b 4d3d 739e f23d
00000010: 022a 27ba bae0 86be 06b5 bcbd d1c5 e8bb
00000020: 7972 b53c e2b0 0a3a 325e 063b fc0b c83a
00000030: 745a 753d 4c91 4b3c 5e8c dd3a 0e9a 42b9
00000040: 7667 833d 813f 373d 8809 89bc 1cf3 5b3b
00000050: ab79 c23c 9337 e93b 24af 87be 04a0 f43b
00000060: c153 91be cc2a 36ba ba88 00be d405 3fbc
00000070: 9647 c13c 7ebb 7ebe a4e0 8a38 7c17 d2bb
00000080: 5247 093b debb d9bb b682 e939 1529 133b
00000090: a43a 97bd edc4 043e 07d6 43bb 0e0f 03bb
000000a0: ac04 333d 6910 67bd 5be4 343d 9487 563d
000000b0: 56a5 79bb 8a7f 83be 65ad b93d df84 ad3b
000000c0: b40c 983c b83d 023f 5804 b2bd 42d9 e1be
000000d0: 05b8 e0bc bde7 913e 2ec2 08ba 8379 2bbc
000000e0: 6ac3 71bc 7172 a2ba 5738 0d3e 21c9 b3ba
000000f0: 41d7 8bbc c9fc 433b c3be 803d 60d0 f1bc
00000100: c058 563b b1b4 8bbb 25bb 2cbb c4b5 8fb7
00000110: 9195 193b 6576 a13b 38c2 d2bc e9a5 dc39
00000120: cf88 f3bb 1295 3b3e d543 6d3c 428b 62bc
00000130: 968f 8fbd dec9 46be 12cb d23a 369e debd
00000140: da6f bb3d bacd 04bc 1e38 063b 4d9e c6bb
00000150: 3ef5 25be 25b1 11be 593c adbb 70d8 bf3b
00000160: 7417 a73b 0c5f 20be c18b bf3d 10dc 863b
00000170: 65c7 d23b 229e 13ba 7247 833b a93e 1d3e
00000180: 4f0b 0c3e 9c72 aa38 a3ce bdbb 62a7 ec3b
00000190: a5f4 fe3a afec 51bd eff8 ebba df6e c13b
000001a0: 752f 1dbe bd84 0abe e7cb 303d 947c 953b
000001b0: 6bf9 18bd d17e ddbd 8c6e f9bd 45e1 2e3b
000001c0: 9f88 2b3e c885 75be 494a a7bc 13cd b4bd
000001d0: 1c1f c1ba 8551 e13c ee54 113c d454 5f3d
000001e0: 743f d3bd a17d df3a 54a4 19bb cd47 07bc
000001f0: 7863 ec3d 4086 8ebb 385f 743a 4455 a9be
