ppo_algorithm/data/7/checkpoint/ppo_network.pt (torch_old, 35716 bytes, 10 tensors)

weight f4 [64, 5]
-2.693131 -0.16301449 0.28113782 -1.7126366 -0.05941493 -2.5484521 -1.6104189 1.3257418
-1.4378332 -0.030408628 2.267768 3.8205786 -1.8575345 -1.6904935 0.5960995 -3.4004815
-0.22081865 -0.2042863 -2.2095184 0.0007014124 -0.42711726 -1.7093269 2.5091064 -1.4153388
-0.07924856 -3.4753397 -0.8380122 0.7883663 -1.6507665 -0.06606184 -2.505303 0.18812458
-0.07208123 -2.4831622 -0.059602767 2.7458951 2.7495666 -1.5097775 -1.6942662 0.5206133
1.441019 1.40873 -1.0964237 -1.9778337 -0.08875717 2.5945716 4.0694413 -1.9218376
-1.6746589 0.5969193 -3.6912866 -0.6223672 0.19817834 -2.106288 -0.058574192 -2.8947415
-1.0583093 1.0176035 -0.0801492 0.0074052606 -2.2145386 0.123118736 -0.15581572 -2.9509168
-0.08916632 -1.4550138 -1.6970665 2.262203 -1.0569223 -0.09808876 -2.8253698 -1.119463
0.6417466 -1.1840397 -0.038902935 0.62582284 -2.0939324 1.3372658 -2.9759192 0.19806841
-2.5584 -0.39430377 0.04720442 -2.277403 -0.09927796 -1.2663767 -1.8463868 2.2308624
-1.2277478 0.2824324 -4.2383 -0.7045578 0.21309817 -1.9664859 -0.06538883 3.7816577
3.1356096 -1.7318903 -0.9180152 0.9102859 2.7007365 3.497582 -0.69791263 -1.3454441
0.52974254 -1.7979541 -1.1466793 0.54865175 -1.7099726 -0.042822503 -2.139709 -0.4833189
1.1852171 -1.6191983 -0.06168089 -0.9500629 1.6365943 -0.74893063 -2.2559266 -0.0153184505
-4.425397 -0.12967932 0.036070704 -1.9606416 0.04089299 -3.5331109 -0.96674615 1.9687926
-0.42844853 -0.015526709 -3.1603446 -1.3510807 1.314975 -0.74544495 -0.0046281754 0.556831
1.3999331 3.898557 -1.3821383 -0.2546911 -1.6788673 -1.3099138 2.3235419 -0.06253732
0.47829768 -3.827514 -0.60565305 0.24542464 -1.8762414 -0.05479181 -3.4984457 0.9348001
-1.4066867 -2.9617915 -0.060157187 -2.4730353 -3.487658 2.35367 1.1397612 -0.38102537
-2.4256375 0.06135189 0.08315522 -2.148153 -0.058936268 -2.9747264 -3.6187751 1.9384722
1.4746209 -0.3697729 -0.25384194 -2.0165129 0.32889247 3.9590054 -1.1928927 -2.3100607
-0.623979 0.36150587 -1.9139813 -0.07782912 -2.3130627 -3.6552513 1.723781 1.0149173
-0.36158744 -2.4410086 0.24125512 0.06434103 -2.0120087 -0.06462374 -1.6698098 -5.6507287
-2.340192 1.1781896 0.22371954 1.2097147 2.9164462 -1.5051231 -1.3534206 0.4782455
1.145841 -1.5950927 -5.0079584 1.5402654 0.27366778 2.0389931 3.8843124 -1.7898635
-2.1340086 0.551934 -3.7410114 -1.0811743 0.6613655 -0.988531 0.03551077 -1.2096372
-1.9477465 1.2191478 2.772302 -1.2616688 -3.2491014 -1.1289648 0.77432305 -1.2732188
-0.049026586 -3.3842862 -1.118284 0.37457407 -1.623311 -0.052017067 -2.1253774 -3.3900747
2.170395 1.2959937 -0.3013158 2.5038335 4.1113667 -1.4763225 -1.4748499 0.5603381
-3.5233023 -0.7518026 0.4553426 -1.0462391 -0.0656296 -0.8637306 1.8028734 -1.052019
-2.2446077 -0.062149633 -3.0158935 -0.7859067 0.6149925 -1.0646098 -0.06814064 0.6916109
00000000: 425c 2cc0 45ed 26be 4cf1 8f3e ad37 dbbf
00000010: 125d 73bd d719 23c0 3522 cebf e8b1 a93f
00000020: eb0a b8bf 841b f9bc 1c23 1140 5c84 7440
00000030: b1c3 edbf 1762 d8bf fa99 183f 7da1 59c0
00000040: 491e 62be 6e30 51be c068 0dc0 fdde 373a
00000050: 1daf dabe 39cb dabf 3395 2040 d229 b5bf
00000060: 124d a2bd f76b 5ec0 f887 56bf 60d2 493f
00000070: 514c d3bf 6e4b 87bd e256 20c0 bba3 403e
00000080: 539f 93bd 21ec 1ec0 0822 74bd bfbc 2f40
00000090: e6f8 2f40 6440 c1bf b7dd d8bf ea46 053f
000000a0: 5073 b83f 4451 b43f 9d57 8cbf a829 fdbf
000000b0: 52c6 b5bd 760d 2640 dd38 8240 c6fe f5bf
000000c0: 395b d6bf b4cf 183f 0a3e 6cc0 7553 1fbf
000000d0: 43ef 4a3e 6ccd 06c0 7eeb 6fbd 7243 39c0
000000e0: ae76 87bf d540 823f 4425 a4bd d4a7 f23b
000000f0: 00bb 0dc0 ad25 fc3d 288e 1fbe d2db 3cc0
00000100: d59c b6bd e43d babf 7a39 d9bf efc7 1040
00000110: 3b49 87bf c3e2 c8bd dcd2 34c0 904a 8fbf
00000120: 8149 243f 9d8e 97bf af58 1fbd ed35 203f
00000130: fd02 06c0 872b ab3f 7675 3ec0 72d2 4a3e
00000140: d3bc 23c0 2fe2 c9be 6c59 413d f9c0 11c0
00000150: 3e52 cbbd a218 a2bf 6756 ecbf 73c6 0e40
00000160: d726 9dbf fb9a 903e 27a0 87c0 e65d 34bf
00000170: 6836 5a3e cfb5 fbbf 94ea 85bd ae06 7240
00000180: d4ad 4840 95ae ddbf 0b03 6bbf 7f08 693f
00000190: ded8 2c40 62d8 5f40 67aa 32bf 8337 acbf
000001a0: 359d 073f 5c23 e6bf 63c6 92bf 7174 0c3f
000001b0: 62e0 dabf a666 2fbd fef0 08c0 9375 f7be
000001c0: 32b5 973f e441 cfbf 1aa5 7cbd 5237 73bf
000001d0: ec7b d13f ebb9 3fbf 1a61 10c0 3dfa 7abc
000001e0: da9c 8dc0 a8ca 04be e0be 133d 4ef6 fabf
000001f0: 687f 273d 7d1e 62c0 ad7c 77bf 6501 fc3f
00000200: 9b5d dbbe bd63 7ebc 1643 4ac0 36f0 acbf
00000210: 1a51 a83f 7bd5 3ebf f3a7 97bb 7a8c 0e3f
00000220: 0231 b33f f581 7940 e8e9 b0bf df66 82be
00000230: 20e5 d6bf 41ab a7bf e9b4 1440 9113 80bd
00000240: 6fe3 f43e fdf5 74c0 140c 1bbf 9950 7b3e
00000250: ae28 f0bf 616d 60bd 89e6 5fc0 0f4f 6f3f
00000260: 4f0e b4bf fe8d 3dc0 6267 76bd 3646 1ec0
00000270: ca35 5fc0 87a2 1640 b2e3 913f c215 c3be
00000280: a53d 1bc0 1f4c 7b3d 494d aa3d 577b 09c0
00000290: 2867 71bd eb61 3ec0 039a 67c0 db1f f83f
000002a0: 61c0 bc3f e052 bdbe 92f7 81be 8c0e 01c0
000002b0: 9864 a83e 5860 7d40 b5b0 98bf 09d8 13c0
000002c0: 16bd 1fbf 4c17 b93e 57fd f4bf e064 9fbd
000002d0: 3809 14c0 a3ef 69c0 dba4 dc3f cfe8 813f
000002e0: fd21 b9be 7c39 1cc0 950b 773e 3bc5 833d
000002f0: c0c4 00c0 7459 84bd 54bc d5bf c5d2 b4c0
00000300: b5c5 15c0 ebce 963f bc16 653e eed7 9a3f
00000310: 0ea7 3a40 e0a7 c0bf e33c adbf 98dc f43e
00000320: ebaa 923f ff2b ccbf 3241 a0c0 6b27 c53f
00000330: 2f1e 8c3e dd7e 0240 9398 7840 3f1a e5bf
00000340: 9993 08c0 8c4b 0d3f bb6c 6fc0 eb63 8abf
00000350: 404f 293f 5e10 7dbf be73 113d 64d5 9abf
00000360: c24f f9bf 090d 9c3f 656d 3140 5d7e a1bf
00000370: 47f1 4fc0 eb81 90bf 093a 463f d5f8 a2bf
00000380: 1ad0 48bd 2598 58c0 ee23 8fbf 2cc8 bf3e
00000390: a8c8 cfbf d90f 55bd 2f06 08c0 fcf6 58c0
000003a0: c0e7 0a40 1fe3 a53f 1146 9abe cf3e 2040
000003b0: 5190 8340 23f8 bcbf e2c7 bcbf 5172 0f3f
000003c0: c97d 61c0 2376 40bf aa22 e93e 2aeb 85bf
000003d0: d068 86bd 731d 5dbf 8ec4 e63f 8fa8 86bf
000003e0: a7a7 0fc0 9d90 7ebd 6604 41c0 2e31 49bf
000003f0: 2670 1d3f 2245 88bf 528d 8bbd 690d 313f

bias f4 [64]
0.36560133 -0.9068099 1.0351409 0.18371728 -0.52071476 -0.37966925 0.78667563 0.71792775
0.66567653 1.0339133 -0.29349446 -0.42651916 0.6045405 -0.45384368 -0.9068515 -0.2704158
0.07190275 -0.03454482 -0.27462876 1.1548349 1.0280205 -0.8577202 -0.056490876 1.162086
-0.20511955 0.17850992 -0.4279073 -0.15229799 0.44233382 -0.33377862 0.3667012 -0.8908802
0.6191866 -0.94761777 -0.4293257 -0.04318811 -0.8614121 0.44616395 -0.5944884 0.6828475
-0.022854727 1.0278491 -1.5582569 -0.382044 -1.0588322 -0.796291 -0.9198225 1.0505447
-0.5202514 0.794503 -0.59365565 1.508666 0.07637384 -0.28189903 -0.48650977 -0.011423762
0.75794935 -0.14346908 -0.060318444 -1.1985177 0.9471212 -0.257164 0.039313205 -1.0558567
00000000: 1930 bb3e b224 68bf 7f7f 843f 6220 3c3e
00000010: 904d 05bf 0264 c2be 9363 493f 1dca 373f
00000020: c769 2a3f 4557 843f e844 96be b860 dabe
00000030: 2bc3 1a3f 335e e8be 6b27 68bf f173 8abe
00000040: c041 933d df7e 0dbd 249c 8cbe a1d1 933f
00000050: 2d96 833f 8d93 5bbf fa62 67bd 3cbf 943f
00000060: dc0a 52be 4ecb 363e aa16 dbbe 01f4 1bbe
00000070: 9479 e23e 08e5 aabe 42c0 bb3e ba10 64bf
00000080: 0383 1e3f 1497 72bf 94d0 dbbe 04e6 30bd
00000090: 8185 5cbf 9a6f e43e 6430 18bf 18cf 2e3f
000000a0: d639 bbbc 8f90 833f f674 c7bf 459b c3be
000000b0: d087 87bf bad9 4bbf 7d79 6bbf 4078 863f
000000c0: 322f 05bf 8c64 4b3f d1f9 17bf f81b c13f
000000d0: e369 9c3d 1255 90be cf17 f9be bb2a 3bbc
000000e0: f808 423f 8fe9 12be 7910 77bd 0769 99bf
000000f0: 8976 723f 00ab 83be e206 213d 5026 87bf

weight f4 [64]
0.051891204 -0.3889681 2.385467 0.18536885 0.44217077 0.025452167 0.009529098 1.3874053
0.0077114003 2.6700163 -0.1563971 0.0033910233 0.005368809 0.36778054 0.22532678 1.2790201
0.013626676 0.73681587 -0.14657286 1.8141174 1.5234762 0.42158303 0.0055601024 -0.01660739
0.5214029 -0.0055080787 -0.014517324 1.100033 0.8334432 -0.14549325 0.5337599 2.8572311
0.0021873685 2.7527199 4.408812 0.042422533 2.149359 0.0086486265 3.800474 1.2275455
1.9070363 2.3316562 0.73664075 4.352752 -0.018118914 -0.7579759 2.276582 2.563465
0.021980744 0.00079926825 -0.020982014 1.2022909 0.027655357 0.61110896 2.7257311 -0.018924566
1.9786259 0.14983511 0.15039995 0.22688456 2.351758 0.01354454 0.6021122 0.008666982
00000000: df8b 543d d426 c7be 7eab 1840 55d1 3d3e
00000010: 3564 e23e 1081 d03c ef1f 1c3c 7f96 b13f
00000020: eaaf fc3b 8ce1 2a40 9026 20be ee3b 5e3b
00000030: d6ec af3b bb4d bc3e 10bc 663e eeb6 a33f
00000040: 6c42 5f3c f79f 3c3f 3217 16be 0035 e83f
00000050: 4501 c33f bbd9 d73e 8531 b63b 390c 88bc
00000060: a97a 053f 1d7d b4bb 12da 6dbc e2cd 8c3f
00000070: 895c 553f 2ffc 14be 7da4 083f e0dc 3640
00000080: f459 0f3b 902c 3040 fd14 8d40 40c3 2d3d
00000090: 198f 0940 f8b2 0d3c f73a 7340 3620 9d3f
000000a0: c419 f43f db39 1540 7d94 3c3f bf49 8b40
000000b0: 1e6e 94bc b50a 42bf 85b3 1140 d00f 2440
000000c0: f610 b43c fc85 513a 79e2 abbc abe4 993f
000000d0: 7d8d e23c a371 1c3f 6172 2e40 b107 9bbc
000000e0: 9d43 fd3f 606e 193e 7202 1a3e 6d54 683e
000000f0: 3483 1640 ebe9 5d3c 0624 1a3f f5ff 0d3c

bias f4 [64]
-0.0088536395 -0.05774146 0.63575125 0.84819794 -0.98033303 -0.002250375 -0.0027300494 0.29401743
-0.0012934826 0.6767134 -0.45262465 -0.0027950522 -0.0009893256 -0.8433206 0.01651987 0.26986733
-0.0013295359 0.2630893 -0.9402658 0.6379756 0.4404745 0.027177393 -0.0021729618 0.0044643194
0.14897735 0.0010801775 -0.003492774 -0.52294165 0.4245534 -0.44354224 0.8913361 -0.70094925
-0.0010632107 -0.6890935 -0.32357022 -0.0020100023 -0.60334367 -0.0026028792 -0.45964387 0.204518
0.50871205 0.61862725 0.1620716 -0.24331416 -0.0038195588 -0.04430552 -0.64723074 0.68419707
0.0001946309 0.0005631019 -0.001273625 0.43522918 -0.0008106719 0.20619002 0.19078554 0.003544159
1.1077803 0.8242618 0.6891412 0.023142602 0.60718536 -0.0019181587 0.24664728 -0.00032159474
00000000: db0e 11bc 4f82 6cbd 98c0 223f 8023 593f
00000010: 1bf7 7abf 077b 13bb a1ea 32bb 7489 963e
00000020: 138a a9ba 173d 2d3f 6bbe e7be 322d 37bb
00000030: 42ac 81ba dce3 57bf ae54 873c 0d2c 8a3e
00000040: d243 aeba a4b3 863e 42b5 70bf 5e52 233f
00000050: e085 e13e 20a3 de3c 4068 0ebb 6d49 923b
00000060: 858d 183e be94 8d3a 06e7 64bb 81df 05bf
00000070: 105f d93e f817 e3be 9a2e 643f 6971 33bf
00000080: 6e5b 8bba 6e68 30bf ffaa a5be 3eba 03bb
00000090: bb74 1abf 1195 2abb 7156 ebbe 2b6d 513e
000000a0: f43a 023f 5b5e 1e3f 19f6 253e 5927 79be
000000b0: 9051 7abb b479 35bd eab0 25bf 8a27 2f3f
000000c0: d615 4c39 219d 133a c3ef a6ba 5cd6 de3e
000000d0: 4583 54ba 7a23 533e 495d 433e 1f45 683b
000000e0: bfcb 8d3f d202 533f 8f6b 303f 8e95 bd3c
000000f0: 8070 1b3f ba6a fbba 1b91 7c3e b79b a8b9

weight f4 [64, 64]
-0.044575952 -0.33301872 0.96172976 -0.32851255 0.31090212 0.009681617 0.10857253 -0.12937658
0.2128734 1.2815679 0.48992038 -0.2502356 0.2034671 0.36160862 -0.01706422 0.6340453
0.2894775 0.48398158 0.30345985 1.5731597 -0.2973855 -0.19518216 0.044464532 0.3936353
-0.3849092 -0.09257947 -0.19361445 -0.04390815 0.6011817 0.5842452 -0.52700424 -1.0564369
0.19198535 -0.86670244 -2.6903887 0.22482681 -0.5318656 0.2803939 -0.2776496 0.21722823
0.42804006 1.0539662 0.17108095 -2.2647064 -0.3583917 -0.062427085 -0.755694 0.61958075
-0.34867778 0.30506602 -0.4276083 -0.3267477 0.25081688 0.19465914 0.20144917 0.17064974
0.5888684 -0.36096558 -0.44821414 -0.04178544 0.7451013 0.24800903 0.6284692 -0.09457968
0.3693548 1.119788 -0.9110568 -0.38501036 0.4206116 -0.17268468 -0.035506897 0.32892781
0.8126958 -0.88580304 0.5198406 0.068156 0.049571794 0.42036003 -0.6418831 0.49616057
0.021094784 0.70381826 0.40240243 0.6604746 0.7508202 -0.36724108 -0.30891067 0.53355193
-0.21574634 0.08081762 0.41674578 0.73639274 0.63190615 0.28209886 -0.37489352 1.0524104
0.13145478 0.59218055 2.146308 0.276872 0.103646085 0.16003856 -0.31208867 -0.13872872
-0.7065625 -0.8212643 -0.41560367 1.8842562 -0.7396208 0.17231187 0.60587054 -0.27417985
-0.23375644 -0.33364117 -0.30975127 1.1341712 0.07734351 0.38966125 -0.82639444 -0.02504695
0.45567378 -0.56098425 -0.5966285 -0.72052616 -0.38226995 0.30407792 0.46354768 -0.5802676
0.10440021 -0.054227516 -0.5055412 -0.21839143 0.32925683 -0.30589488 -0.22960798 0.35516083
0.7247943 -0.79930234 0.0043266094 -0.55122364 -0.12017487 0.18245634 -0.16111152 0.19572811
0.10284749 0.02206382 0.23110211 -0.3253411 0.27252674 -0.3277729 0.24428457 0.53298336
-0.060032893 -0.39143002 -0.19479579 0.32931557 0.06976024 0.14399068 -0.15832965 1.1772013
-0.042148743 1.0344723 1.205545 0.120297186 0.48591268 0.10254965 0.40616626 0.5154281
-0.48444372 -0.10031822 -0.3007789 1.1316078 -0.24679253 0.026886951 0.46446767 -0.5764475
-0.12579896 0.03333508 -0.38516608 0.09881426 0.048019167 -0.31059566 -0.56265855 0.005792743
0.029701326 -0.19058627 -0.25993466 -0.33634767 -0.5399101 0.2850491 0.14412189 -0.045030456
-0.02360736 -0.20867023 -0.53948915 -0.16794866 0.11565109 0.07323334 -0.118301794 -0.0038872242
0.28404906 -0.62977177 0.20005889 -0.1217081 0.20706555 0.19741188 -0.09465079 -0.058774445
0.23544261 -0.33829743 -0.028690517 -0.54919016 -0.06029575 -0.33429122 -0.07753479 0.17466657
-0.35512882 -0.0868835 -0.520548 0.5115599 -0.0043643573 0.2990501 -0.35169348 0.63487595
0.12514617 0.85395986 0.78343093 -0.29458064 0.42695147 0.015923008 0.4854284 0.11303335
-0.40018317 -0.23531078 -0.419367 0.8204194 -0.42624944 0.036410514 0.09808463 -0.72695047
-0.83385533 0.1994324 -0.15289989 0.14879568 -0.24253763 -0.420684 -0.51375675 -0.17022389
0.25101903 -0.14331053 -0.13402903 -0.561665 -0.7132781 0.1702599 -0.05011324 0.3624469
00000000: 4695 36bd 6e81 aabe ec33 763f cc32 a8be
00000010: 902e 9f3e a59f 1e3c 465b de3d 4b7b 04be
00000020: 7cfb 593e 6b0a a43f d8d6 fa3e e11e 80be
00000030: ae59 503e c424 b93e 43ca 8bbc cb50 223f
00000040: 6536 943e 6fcc f73e 175f 9b3e 4c5d c93f
00000050: ea42 98be d5dd 47be 7120 363d 918a c93e
00000060: d212 c5be 4e9a bdbd de42 46be 08d9 33bd
00000070: 0be7 193f 1891 153f c0e9 06bf 5339 87bf
00000080: cf97 443e 36e0 5dbf 542f 2cc0 0039 663e
00000090: 5828 08bf ca8f 8f3e 1728 8ebe 1471 5e3e
000000a0: 1128 db3e 5de8 863f d82f 2f3e f3f0 10c0
000000b0: 1e7f b7be 8bb3 7fbd 2975 41bf d89c 1e3f
000000c0: e585 b2be 9d31 9c3e 7aef dabe 794b a7be
000000d0: 126b 803e ba54 473e b148 4e3e cebe 2e3e
000000e0: 14c0 163f 7bd0 b8be 537c e5be 3627 2bbd
000000f0: f5be 3e3f 14f6 7d3e 5ce3 203f feb2 c1bd
00000100: 131c bd3e 3755 8f3f 053b 69bf 1420 c5be
00000110: 675a d73e 41d4 30be ae6f 11bd 3a69 a83e
00000120: d50c 503f fdc3 62bf 4614 053f 5f95 8b3d
00000130: cb0b 4b3d 6e39 d73e 7352 24bf c208 fe3e
00000140: f8ce ac3c 6f2d 343f b107 ce3e dd14 293f
00000150: c135 403f 0607 bcbe 8a29 9ebe dc96 083f
00000160: 9cec 5cbe b583 a53d b45f d53e 3c84 3c3f
00000170: 9ac4 213f 436f 903e 0bf2 bfbe 62b5 863f
00000180: 159c 063e 2599 173f 1c5d 0940 2bc2 8d3e
00000190: 6644 d43d 26e1 233e 16ca 9fbe e70e 0ebe
000001a0: 48e1 34bf 613e 52bf 01ca d4be 4f2f f13f
000001b0: ca57 3dbf 8672 303e 551a 1b3f 4d61 8cbe
000001c0: d95d 6fbe 04d3 aabe b897 9ebe 862c 913f
000001d0: 4666 9e3d ae81 c73e 968e 53bf 432f cdbc
000001e0: 134e e93e aa9c 0fbf a5bc 18bf 6774 38bf
000001f0: e3b8 c3be 1ab0 9b3e 1f56 ed3e 6b8c 14bf
00000200: c7cf d53d ac1d 5ebd 266b 01bf 01a2 5fbe
00000210: 5a94 a83e 419e 9cbe 5b1e 6bbe a4d7 b53e
00000220: 1f8c 393f 149f 4cbf 3bc6 8d3b fe1c 0dbf
00000230: 3e1e f6bd d6d5 3a3e 6bfa 24be f36c 483e
00000240: b4a1 d23d 2fbf b43c 08a6 6c3e 1c93 a6be
00000250: a088 8b3e d9d1 a7be bc25 7a3e 9971 083f
00000260: 0de5 75bd 8469 c8be 8c78 47be 0d9c a83e
00000270: 75de 8e3d 4b72 133e 2b21 22be 88ae 963f
00000280: 29a4 2cbd 9769 843f 4c4f 9a3f 5f5e f63d
00000290: 8cc9 f83e 8d05 d23d 06f5 cf3e 19f3 033f
000002a0: 0209 f8be a473 cdbd b1ff 99be 86d8 903f
000002b0: 2eb7 7cbe 0642 dc3c b5ce ed3e 1092 13bf
000002c0: 71d1 00be 5d8a 083d 7d34 c5be 215f ca3d
000002d0: bfaf 443d 6506 9fbe 640a 10bf 0dd1 bd3b
000002e0: 3250 f33c 0c29 43be 2816 85be c335 acbe
000002f0: 8c37 0abf f5f1 913e b094 133e db71 38bd
00000300: 3964 c1bc a6ad 55be f61b 0abf bcfa 2bbe
00000310: 7bda ec3d 5dfb 953d 3648 f2bd cdc0 7ebb
00000320: e16e 913e b938 21bf 3ddc 4c3e 1942 f9bd
00000330: fe08 543e 5726 4a3e 46d8 c1bd 79bd 70bd
00000340: de17 713e 5235 adbe 6008 ebbc ba97 0cbf
00000350: adf8 76bd 3828 abbe 8fca 9ebd cbdb 323e
00000360: 72d3 b5be faef b1bd a242 05bf 97f5 023f
00000370: e202 8fbb 181d 993e 2b11 b4be 3b87 223f
00000380: 5126 003e 1d9d 5a3f ee8e 483f 46d3 96be
00000390: 6299 da3e f870 823c 128a f83e 077e e73d
000003a0: cfe4 ccbe 4ff5 70be 45b7 d6be 0107 523f
000003b0: 5e3d dabe 3123 153d 98e0 c83d 6d19 3abf
000003c0: 8b77 55bf 0238 4c3e ca91 1cbe e55d 183e
000003d0: c95b 78be e563 d7be 9085 03bf 2c4f 2ebe
000003e0: 9185 803e ffbf 12be e83e 09be 47c9 0fbf
000003f0: 6599 36bf 9c58 2e3e 8a43 4dbd a492 b93e

bias f4 [64]
-0.42958578 -0.7616973 -0.21614923 -0.16511375 -0.35892498 -0.25571263 -0.23029989 -0.30398655
-0.46018627 -0.42369318 -0.34272328 -0.2572705 -0.5438787 2.2762244 -0.26120493 -0.83165663
-0.46093905 -0.23238234 -0.32785073 0.56469727 -0.19345713 2.3322527 -0.39328685 -0.29944852
0.5253548 -0.27030653 -0.38400587 -0.33542013 -0.34482458 -0.3337532 -0.69183606 -0.44446948
1.2009618 -0.30466053 0.01784254 -0.23289031 2.1146228 -0.27919677 -0.31142783 2.696995
0.25590834 -0.23185089 -1.3099431 -0.51528406 -0.46435633 -0.4329915 -0.4328532 -0.43151245
-0.26359928 -0.38480482 2.0458925 -0.17123312 -0.33348265 -2.4443355 0.40163085 -0.26399913
0.47562715 -3.896314 -0.29576492 -0.5298289 -3.9424543 -0.16190131 -1.457495 -0.3495591
00000000: abf2 dbbe 98fe 42bf 3956 5dbe 9413 29be
00000010: 04c5 b7be c4ec 82be bcd3 6bbe 20a4 9bbe
00000020: 899d ebbe 50ee d8be 6d79 afbe f5b8 83be
00000030: a23b 0bbf a9ad 1140 a7bc 85be 73e7 54bf
00000040: 3400 ecbe a3f5 6dbe 0ddc a7be 0090 103f
00000050: a019 46be a143 1540 e55c c9be 5151 99be
00000060: a77d 063f 9e65 8abe 6b9c c4be 30bc abbe
00000070: d98c b0be b3e1 aabe 2b1c 31bf 8191 e3be
00000080: 1eb9 993f 77fc 9bbe 852a 923c cc7a 6ebe
00000090: fb55 0740 e1f2 8ebe 7873 9fbe 919b 2c40
000000a0: 6b06 833e 526a 6dbe 37ac a7bf a8e9 03bf
000000b0: 1dc0 edbe 10b1 ddbe ef9e ddbe 33ef dcbe
000000c0: 7cf6 86be 2305 c5be e7ef 0240 bc57 2fbe
000000d0: 3dbe aabe fe6f 1cc0 8fa2 cd3e e52a 87be
000000e0: 6785 f33e 355d 79c0 806e 97be dea2 07bf
000000f0: 2c51 7cc0 75c9 25be 328f babf 69f9 b2be

weight f4 [64]
1.0518131 -0.02430484 0.027699785 -0.00048031815 -0.002834909 -0.005169439 0.08229588 0.04637131
0.038268287 -0.0032788431 -0.003579273 -0.0038460041 -0.0032789607 1.7211676 0.0031886843 -0.021341462
-0.00082927 0.013962416 -0.0011636736 0.017436167 0.012365106 1.5330149 -0.0042739646 0.014636361
1.5619946 -0.006689222 1.5364313 -0.0048368825 -0.0003358017 -0.020652508 -0.016312905 -0.004270814
1.1359099 -4.2037485e-05 -0.0005695042 -0.00097138644 1.7614094 0.08939348 -0.0039486005 1.6036478
0.27616355 0.018976752 0.6080297 -0.0017888146 0.011565178 0.022869391 -0.0017788323 -0.0077264127
-0.012588093 0.0053464076 1.7716049 0.034960683 0.009815387 1.5070549 -0.026413098 -0.007876251
-0.0010077778 2.778278 0.14513877 -0.0016455253 2.1456344 -2.4608198e-07 0.69919 0.07511673
00000000: d0a1 863f f21a c7bc a9ea e23c 36d3 fbb9
00000010: e1c9 39bb 6664 a9bb be8a a83d d8ef 3d3d
00000020: 35bf 1c3d dce1 56bb 3c92 6abb 3e0d 7cbb
00000030: d5e3 56bb 384f dc3f 3ff9 503b 4ad4 aebc
00000040: 5e63 59ba 9ec2 643c 6886 98ba 4bd6 8e3c
00000050: 0397 4a3c d539 c43f 9d0c 8cbb 59cd 6f3c
00000060: 70ef c73f 4331 dbbb c8a9 c43f b67e 9ebb
00000070: 8b0e b0b9 732f a9bc a4a2 85bc 2ff2 8bbb
00000080: 7f65 913f 6851 30b8 c84a 15ba a4a4 7eba
00000090: dd75 e13f ee13 b73d 4363 81bb 5544 cd3f
000000a0: 4f65 8d3e 2275 9b3c d6a7 1b3f a876 eaba
000000b0: df7b 3d3c 9758 bb3c b527 e9ba d92d fdbb
000000c0: 4a3e 4ebc eb30 af3b f3c3 e23f ef32 0f3d
000000d0: b8d0 203c 2de7 c03f 4860 d8bc 640b 01bc
000000e0: 6917 84ba 4fcf 3140 429f 143e abae d7ba
000000f0: 1352 0940 401d 84b4 1efe 323f cdd6 993d

bias f4 [64]
-0.094364695 -1.1942923 -0.053375956 0.4546142 -0.41028386 -8.9525354e-05 0.0003268907 0.00010488053
0.018538749 -0.00011512818 -0.5595374 -0.00013375786 -0.8695441 1.7493963 -0.06346705 -1.2562746
-0.08100238 0.024184847 -0.0001673384 1.2184577 -0.04747548 1.7049544 -0.15101135 0.0009513997
0.41408068 -0.35176054 -0.07261909 0.036420863 0.045534022 -0.06994996 -1.1593685 -0.44748
1.2252712 -0.1467666 0.28691334 4.9510243e-05 1.8632556 -0.0025964822 -0.20146547 1.5052891
0.6337851 0.00023224203 -1.4256941 -0.53929806 0.00073881523 0.0022547734 -0.45582584 -0.6772909
0.02236642 -0.7159885 1.7686849 -0.05333913 0.00038941836 -2.1578238 1.1539512 -0.00024817194
1.125306 -2.970325 -0.012364536 0.018871758 -2.205389 8.9210154e-08 -1.3681468 -0.0052101454
00000000: 4742 c1bd 92de 98bf bfa0 5abd 31c3 e83e
00000010: ba10 d2be 8fbf bbb8 8762 ab39 4ef3 db38
00000020: 93de 973c f970 f1b8 d83d 0fbf 5a41 0cb9
00000030: 719a 5ebf 38ec df3f 03fb 81bd 9bcd a0bf
00000040: 93e4 a5bd 4d1f c63c 8f77 2fb9 6cf6 9b3f
00000050: a675 42bd f23b da3f b8a2 1abe 5a67 793a
00000060: 6202 d43e f519 b4be 51b9 94bd 0b2e 153d
00000070: e281 3a3d ed41 8fbd 3066 94bf 191c e5be
00000080: b0d5 9c3f fc49 16be 4ee6 923e 38a9 4f38
00000090: 297f ee3f be29 2abb f74c 4ebe 50ad c03f
000000a0: be3f 223f ff85 7339 257d b6bf 700f 0abf
000000b0: 0dad 413a d2c4 133b 0162 e9be f062 2dbf
000000c0: c839 b73c 064b 37bf 4464 e23f 227a 5abd
000000d0: d92a cc39 c919 0ac0 acb4 933f 131d 82b9
000000e0: 070a 903f ce19 3ec0 9f94 4abc f298 9a3c
000000f0: 1825 0dc0 cd93 bf33 6f1f afbf deb9 aabb

weight f4 [1, 64]
-0.7818092 0.053141803 -0.009725859 0.022337524 0.017923955 -7.595676e-06 -0.002502158 -0.0021111555
0.005919582 -0.0011113695 0.040147524 -0.00022198175 -0.00042788492 0.17252868 -0.004906972 0.03090065
-0.010371621 0.005598021 0.00021486524 0.20732328 -0.008041187 -0.036453757 0.034387007 0.0025551869
-1.5830173 0.040733933 -1.4263697 0.009673036 0.003143256 0.015498818 -0.21008568 0.04093204
0.24465339 0.0028717155 0.09447856 0.00023116921 0.05926425 -0.0067812507 0.02588831 0.2179938
0.15277714 -0.0024578911 0.0987818 0.04384196 -0.0007395591 0.0013988488 -0.002812543 0.02507271
0.0072417953 0.028780127 0.18949382 -0.010077345 0.00072766305 0.1935477 0.096002296 -0.00021906855
0.13725351 0.11209744 -0.020135414 0.0031635505 -0.107046716 3.529432e-07 0.1141897 -0.013198647
00000000: a624 48bf 38ab 593d 3659 1fbc 2ffd b63c
00000010: 42d5 923c 5cde feb6 3ffb 23bb 505b 0abb
00000020: 0ef9 c13b 5fab 91ba bb71 243d c6c3 68b9
00000030: be55 e0b9 5cab 303e aaca a0bb 5c23 fd3c
00000040: bbed 29bc 9b6f b73b 734d 6139 8e4c 543e
00000050: 2fbf 03bc 8950 15bd 64d9 0c3d ec74 273b
00000060: 50a0 cabf a0d8 263d 4893 b6bf a77b 1e3c
00000070: 16ff 4d3b c1ee 7d3c b320 57be 5ba8 273d
00000080: 6b86 7a3e 6433 3c3b fa7d c13d 0366 7239
00000090: 12bf 723d 4135 debb b913 d43c c439 5f3e
000000a0: 9c71 1c3e 9214 21bb 1d4e ca3d a193 333d
000000b0: f9de 41ba 9459 b73a a452 38bb 4965 cd3c
000000c0: 954c ed3b 4dc4 eb3c ab0a 423e 731b 25bc
000000d0: a4c0 3e3a 5e31 463e da9c c43d c4b5 65b9
000000e0: 2f8c 0c3e 5893 e53d 06f3 a4bc 9253 4f3b
000000f0: 4f3b dbbd 257c bd34 4adc e93d 233f 58bc

weight f4 [1, 64]
0.045613375 -0.6862097 0.06837791 0.4756559 -0.48600763 -1.3286898e-05 0.00030568516 -6.042752e-05
-0.01465871 8.61827e-05 -0.5558695 6.258171e-06 -0.67320853 1.0088365 0.07748275 -0.6866905
0.09475182 -0.039758947 -1.6811477e-05 0.8698285 0.06627065 0.8639545 -0.23452942 0.0020234587
-0.0009392593 -0.37123835 -0.017902723 -0.054322343 -0.060798686 -0.12425277 -0.87488157 -0.49209887
1.0479672 -0.19339842 0.3553409 -0.0006104605 1.0882863 0.013219246 -0.23843686 0.9497826
0.48871893 7.559852e-05 -0.82594436 -0.5156916 -0.00013206126 0.0001107713 -0.4808501 -0.4522533
-0.03700975 -0.5578547 0.9612833 0.06836281 -8.574771e-05 -0.90731186 0.7607034 -1.51153945e-05
0.75079 -0.93627053 0.020583225 -0.03190784 -1.1879562 -6.24693e-07 -0.70051485 0.026557066
00000000: 17d5 3a3d 70ab 2fbf b809 8c3d 2c89 f33e
00000010: fed5 f8be cbea 5eb7 5e44 a039 8e73 7db8
00000020: 162b 70bc fcbc b438 774d 0ebf 48fd d136
00000030: 6557 2cbf 8e21 813f 47af 9e3d f3ca 2fbf
00000040: 3e0d c23d 47da 22bd 5f06 8db7 15ad 5e3f
00000050: e8b8 873d 1f2c 5d3f 7b28 70be 019c 043b
00000060: a038 76ba f412 bebe bba8 92bc 1b81 5ebd
00000070: 0b08 79bd 3c78 febd 3df8 5fbf 62f4 fbbe
00000080: ca23 863f 3c0a 46be 3eef b53e 5007 20ba
00000090: f74c 8b3f 8995 583c cb28 74be f424 733f
000000a0: 5e39 fa3e a58a 9e38 1771 53bf 5d04 04bf
000000b0: ed79 0ab9 e44d e838 fc31 f6be bf8d e7be
000000c0: 8997 17bd 91cf 0ebf aa16 763f cd01 8c3d
000000d0: 74d3 b3b8 9745 68bf 75bd 423f 2098 7db7
000000e0: c633 403f 6daf 6fbf 279e a83c ccb1 02bd
000000f0: f30e 98bf 93b0 27b5 f154 33bf 348e d93c
