ppo_algorithm/data/lols/checkpoint/save_file.pt (torch_old, 379988 bytes, 44 tensors)

net.0.weight f4 [100, 6]
0	0x3ef663a2	0.4812289
1	0x3e044fbc	0.12921041
2	0x3c9c5c70	0.019087046
3	0xc111901e	-9.097685
4	0x3f1daeda	0.6159493
5	0x401960aa	2.396525
6	0x3f371d3c	0.71528983
7	0x3fee7d81	1.8632051
8	0x3d279241	0.040910963
9	0xc1003111	-8.011979
10	0x3d9a616a	0.075381115
11	0xbda598a6	-0.08085756
12	0x3f7785ea	0.9668871
13	0x405f6656	3.490621
14	0xbfc5b72d	-1.5446526
15	0xc090abba	-4.5209627
16	0xbfd80eef	-1.6879557
17	0x3dae4f03	0.08511164
18	0xbf0d4323	-0.5518057
19	0x3f6924c9	0.91071755
20	0xbfd5bca9	-1.66982
21	0x3fe90484	1.8204503
22	0x3ecc8fe3	0.39953527
23	0x3e1dffa2	0.15429547
24	0xbf7de229	-0.9917322
25	0x4073766c	3.804103
26	0xbe3cb9ab	-0.18430202
27	0x4013bb37	2.3083017
28	0x3ea6509c	0.32483375
29	0x3e336cea	0.17522016
30	0xbe4078de	-0.18796107
31	0x3e2b242e	0.1671302
32	0x3f5b17b5	0.8558305
33	0xc11bb6f7	-9.732169
34	0xbde00d28	-0.10940009
35	0x3f95ad2f	1.1693476
36	0xbe6add45	-0.2293597
37	0xbe8271d7	-0.25477478
38	0xbe28516e	-0.16437313
39	0x41130459	9.188561
40	0x3f246f40	0.64232254
41	0xc010a181	-2.2598574
42	0xbe656e48	-0.2240535
43	0x407d31fd	3.956176
44	0x3f853a36	1.040839
45	0x4083a0b3	4.1133666
46	0x3f6c49c1	0.9230004
47	0x3de6adda	0.11263628
48	0xbf349724	-0.7054312
49	0xbfcb7fa4	-1.5898328
50	0x3e9d461c	0.30717552
51	0x4103557d	8.208371
52	0x3ed4a071	0.41528657
53	0x3ddfbb9d	0.10924456
54	0x3ec8d860	0.3922758
55	0x3f1679c3	0.58779544
56	0x3f856f78	1.0424643
57	0xc1190cf3	-9.565661
58	0x3e11f995	0.14255364
59	0x3e98be3f	0.29832646
60	0xbf94e8a9	-1.1633502
61	0xbf482976	-0.78188264
62	0xbf1a2451	-0.60211664
63	0x3fbb2ace	1.4622438
64	0x3e75ef1e	0.24016997
65	0xbd5044bc	-0.0508468
66	0xc003584d	-2.0522645
67	0x3fbb1809	1.461671
68	0xbde592e7	-0.1120966
69	0xc04371d8	-3.0538235
70	0xbb83e68f	-0.0040252875
71	0x3e4249dc	0.18973488
72	0xbf452e28	-0.77023554
73	0xbfb2399c	-1.3923831
74	0xbf6277b4	-0.884639
75	0x4107b327	8.481238
76	0x3e88cb87	0.2671778
77	0x3e68a6b4	0.22719842
78	0xbf2f483d	-0.684696
79	0x40025daf	2.036968
80	0x3f16792a	0.5877863
81	0x4117f4fc	9.497311
82	0xbd18f77b	-0.03734539
83	0x3e87235f	0.26394174
84	0xbf4a7b15	-0.7909406
85	0xbf762250	-0.96146107
86	0xbdcb3944	-0.09923032
87	0x40605361	3.505089
88	0x3eaac756	0.33355206
89	0xbcd174e7	-0.025568439
90	0x3f3aeebf	0.7302055
91	0xbf015922	-0.5052663
92	0x3fd2392a	1.6423695
93	0x40f273dd	7.5766435
94	0x3eb1c1f8	0.347183
95	0x3e87e110	0.26538897
96	0x3e6049de	0.21903178
97	0x4061c4fc	3.527648
98	0x3eb328a6	0.3499195
99	0x3e829603	0.25505075
100	0x3e043c56	0.12913641
101	0x3d4ffa33	0.050775718
102	0x3dc2b817	0.095077686
103	0x40660da4	3.5945826
104	0x3f916845	1.1359946
105	0x3de9c1c0	0.11413908
106	0x3e67688c	0.22598475
107	0x3d6c4468	0.057682425
108	0x3f7c0e53	0.9845936
109	0x3f04c18b	0.51857823
110	0x3fb3949c	1.4029727
111	0xc1178d1f	-9.471953
112	0x3ec4add7	0.3841388
113	0x3e93f81a	0.28900224
114	0xbf845213	-1.0337547
115	0x3eed38ba	0.4633234
116	0xbf77d0f9	-0.9680324
117	0x3f69b0db	0.91285485
118	0x3e8a60fc	0.27027118
119	0x3d3ca4b2	0.046055503
120	0xbf0f03eb	-0.55865353
121	0xc0231d49	-2.5486624
122	0xbf3f0eb9	-0.7463184
123	0x40eeda30	7.464134
124	0xbef6a6e5	-0.48174205
125	0xbf07c181	-0.5302964
126	0xbf0339e7	-0.51260227
127	0x3efb737c	0.49111545
128	0xbf9cf911	-1.2263509
129	0x3f94f9e0	1.1638756
130	0x3ed2c5dd	0.41166583
131	0x3de530b3	0.11190929
132	0xbf99e43e	-1.2022779
133	0xbea9953f	-0.33121678
134	0xbf9f3604	-1.2438359
135	0xbf877621	-1.0582925
136	0x3d411342	0.047137506
137	0xbda34509	-0.07972152
138	0xbf014b53	-0.5050556
139	0x3e9f6a8c	0.31135976
140	0x3f959fe8	1.1689425
141	0xc0faac6d	-7.833548
142	0xbe45573d	-0.1927156
143	0x3f77b025	0.9675315
144	0x3d911824	0.070846826
145	0xbfc2f698	-1.5231504
146	0x3c9a4a58	0.018834278
147	0xc0fbb639	-7.865994
148	0x3eb5c0f1	0.35498765
149	0xbf1506a3	-0.5821325
150	0xbfa42521	-1.2823831
151	0xbf56bb94	-0.8387997
152	0xbf85f2ce	-1.0464723
153	0x3f3635f9	0.71176106
154	0x3e59ef4d	0.21282692
155	0x3dfa5f94	0.12225261
156	0x3ed2e6b1	0.4119163
157	0x403d81a8	2.9610386
158	0x3fb29dc3	1.3954395
159	0xc07b9203	-3.9307868
160	0x3d48502c	0.048904583
161	0xbe28a084	-0.16467482
162	0xbf026e06	-0.5094913
163	0x3ebc2849	0.36749485
164	0xbfa2dfa0	-1.2724495
165	0x3fe3ee35	1.780707
166	0x3f03e84b	0.51526326
167	0x3e18efe5	0.14935263
168	0xbf2c6397	-0.6733946
169	0xc02d6047	-2.7090013
170	0xbfaa9a0e	-1.3328264
171	0xbf918082	-1.1367342
172	0xbea88fa8	-0.329221
173	0x3db7d031	0.08975256
174	0xbeeb1d45	-0.45920768
175	0xc02c11d7	-2.6885889
176	0xbf81f309	-1.0152293
177	0x40e37ecb	7.1092277
178	0xbedd2ec1	-0.43199733
179	0xbee30dd2	-0.44346482
180	0xbecf90c0	-0.40540123
181	0xbfdf9c21	-1.7469522
182	0xbfa9b51c	-1.3258395
183	0xc0e2a49a	-7.082593
184	0x3eadde31	0.3395858
185	0xbdc0a73b	-0.09406897
186	0xbee38f08	-0.44445062
187	0xbd336621	-0.04379857
188	0x3e93740f	0.28799483
189	0xc0c321f5	-6.097895
190	0x3d335226	0.043779515
191	0x3eee5d30	0.4655547
192	0xbf38db5a	-0.72209704
193	0x3f854d26	1.0414169
194	0xbf966d14	-1.1752038
195	0x3fb6fea2	1.4296458
196	0x3ea41640	0.32048225
197	0x3d944dfe	0.07241438
198	0x3c9365a3	0.0179928
199	0xbe3673c2	-0.17817596
200	0xbfbb27a0	-1.4621468
201	0x40c8f02d	6.2793183
202	0x3f1fc879	0.6241527
203	0xbf3d3c56	-0.7392019
204	0xbfbd0707	-1.476777
205	0xbf7a8b09	-0.978684
206	0xbf237e47	-0.6386456
207	0xc00757e5	-2.1147397
208	0x3e104bf1	0.1409147
209	0x3e784567	0.24245225
210	0xbedc650f	-0.43045852
211	0x40498cb1	3.1492121
212	0x3f10b93e	0.5653266
213	0xbf8403e9	-1.0313693
214	0x3c886ac5	0.016652474
215	0x3d0009a4	0.031259194
216	0xbf4927b2	-0.78576195
217	0x402d3dbe	2.7068934
218	0x3e63c14b	0.22241704
219	0x3ebe787e	0.37201303
220	0x3e93a218	0.28834605
221	0x3dfbdeed	0.12298379
222	0xbf12dcce	-0.5736817
223	0xbed7f020	-0.42175388
224	0xbf0ea28c	-0.55716777
225	0x412290e4	10.160374
226	0xbe410670	-0.18850112
227	0xbed5987f	-0.41717908
228	0xbf12f8d0	-0.5741091
229	0xc047a60f	-3.1195104
230	0xbfa0cf91	-1.2563344
231	0x4098909f	4.767654
232	0xbdb4670e	-0.088087186
233	0xbd27d4c2	-0.040974386
234	0xbe5655af	-0.20931123
235	0x3ca3d756	0.020000141
236	0xbf61d489	-0.8821493
237	0x4127a9e4	10.478977
238	0xbe496c4d	-0.1967022
239	0xbebb209a	-0.3654831
240	0xbe12072b	-0.14260547
241	0x40592c78	3.3933392
242	0xbefc5a8c	-0.49287832
243	0x3f274751	0.65343195
244	0x3e5ee7ed	0.2176816
245	0x3dd4ecb3	0.10396709
246	0xbe73b695	-0.23800118
247	0xbd51c79b	-0.05121575
248	0x3f53f14a	0.8279005
249	0xc12d1990	-10.818741
250	0xbe868253	-0.26271304
251	0x3f82572b	1.0182852
252	0xbe530c7e	-0.20610234
253	0x401e8df1	2.4774134
254	0xbffbf963	-1.9685482
255	0x3f8ebc87	1.1151284

net.0.bias f4 [100]
0	0x3f2ae334	0.66752934
1	0xbea18d83	-0.31553277
2	0x3ea5e70a	0.3240283
3	0xbf77eebe	-0.96848667
4	0xbf0bd083	-0.5461504
5	0x3e04ec1a	0.1298069
6	0xbf32405b	-0.6962945
7	0xbee20f7f	-0.44152448
8	0xbddec2d0	-0.10877001
9	0xbdb90ebd	-0.09036014
10	0xbf41f8b2	-0.75770104
11	0xbe56a01d	-0.20959516
12	0xbe88ec6b	-0.26742873
13	0x3c677597	0.014127157
14	0xbf3c9fd7	-0.73681396
15	0xbe856374	-0.2605244
16	0xbefed2e6	-0.49770278
17	0xbedb52bd	-0.42836562
18	0x3d9875c6	0.074443385
19	0xbf6d6646	-0.9273418
20	0xbdf7cebe	-0.1209998
21	0xbf77544c	-0.96613
22	0xbf413b8e	-0.754815
23	0xbdc85b25	-0.097830094
24	0x3ed65847	0.41864225
25	0xbf5bd54c	-0.8587234
26	0xbe359b63	-0.17735057
27	0xbf52bd41	-0.8232003
28	0xbed13c07	-0.4086611
29	0xbe4b8af9	-0.19877233
30	0xbeabb3cd	-0.33535615
31	0xbe3edccf	-0.1863892
32	0xbf7d1a8e	-0.98868644
33	0xbdc5bcc4	-0.09655145
34	0xbf25bb32	-0.6473876
35	0xbf025dd8	-0.50924444
36	0xbf32ae0a	-0.6979681
37	0xbe43cbcb	-0.1912071
38	0xbeb2d1db	-0.34925732
39	0xbea26abc	-0.31722057
40	0xbf5f414a	-0.87209
41	0x3cbcea26	0.02306087
42	0xbfbdea51	-1.4837133
43	0xbf3c7c54	-0.7362721
44	0xbf3d59cd	-0.7396515
45	0x3eeebc28	0.46627927
46	0xbefe8225	-0.49708667
47	0xbf2ea269	-0.6821657
48	0xbf1b3e73	-0.60642165
49	0x3d07ca7f	0.0331521
50	0xbf797181	-0.9743882
51	0xbe8d7306	-0.27626818
52	0xbeb32df0	-0.34995985
53	0x3f28dbfc	0.6596067
54	0xbf0b2c3b	-0.54364365
55	0xbf451b8c	-0.7699516
56	0xbf55bb03	-0.8348848
57	0xbed065ea	-0.40702754
58	0x3d8703b5	0.06592504
59	0xbde7b3bb	-0.11313578
60	0xbe5ba9cb	-0.2145149
61	0xbe97ad39	-0.29624346
62	0xbfd2155a	-1.6412766
63	0xbf46a157	-0.77589935
64	0x3cf30907	0.02966739
65	0x3e4f1a8d	0.20224972
66	0x3de902f8	0.11377519
67	0xbf5c06dc	-0.85947967
68	0xbf8423cf	-1.0323428
69	0xbf34458a	-0.7041861
70	0x3f15790e	0.5838784
71	0x3e0f5a61	0.1399932
72	0xbf6df418	-0.9295058
73	0xbf28a4a5	-0.6587623
74	0xbfac5fb6	-1.3466709
75	0x3e1a3ccc	0.15062255
76	0x3f27b270	0.6550665
77	0x3ec8b5ac	0.39201105
78	0xbea58e82	-0.32335287
79	0x3d7e8967	0.062142756
80	0xbec8558e	-0.39127773
81	0xbf57739b	-0.84160775
82	0xbf585131	-0.8449889
83	0xbe9b8d74	-0.30381358
84	0xbed06a18	-0.40705943
85	0xbf4ba49c	-0.7954805
86	0x3de0f963	0.10985067
87	0x3ca6bb7d	0.020353073
88	0x3ee6f22c	0.45106637
89	0xbd89e198	-0.06732482
90	0xbf2e0604	-0.6797793
91	0xbed3ea20	-0.4138956
92	0xbf331c5e	-0.6996516
93	0x3e803f6e	0.25048393
94	0xbefd3ac3	-0.49458894
95	0xbf147ef8	-0.5800624
96	0xbeaa0dcf	-0.3321366
97	0xbedce81a	-0.4314583
98	0xbf40ab45	-0.75261337
99	0x3f0de4f7	0.554275

net.1.weight f4 [100]
0	0x4091f1d1	4.5607686
1	0x40088e5a	2.1336884
2	0x402f03bf	2.7346036
3	0x3ca7983a	0.02045833
4	0xbd678218	-0.05652055
5	0x4028e437	2.6389291
6	0x408529d3	4.1613555
7	0x3fa86a47	1.3157433
8	0x3fbc20a6	1.4697464
9	0x403d81f3	2.9610565
10	0x3d2d8983	0.04236747
11	0x3c943ed8	0.018096372
12	0x3fee8193	1.8633293
13	0x406c4f75	3.6923497
14	0xbbf275f2	-0.007399314
15	0x4010e2b4	2.2638369
16	0x38aed245	8.336132e-05
17	0xbe210abf	-0.15726756
18	0x406d4752	3.707478
19	0x3cf123c9	0.029436009
20	0x40013264	2.0187006
21	0x3d0b6aa6	0.034037255
22	0xbd26afdb	-0.040695053
23	0x401506dd	2.328544
24	0x405aac3d	3.4167626
25	0x3cdd0346	0.0269791
26	0x3f7080fb	0.9394681
27	0x3cea5051	0.028602751
28	0x3e9cc2ad	0.30617276
29	0x3fdb74b3	1.7144989
30	0x4030a447	2.7600267
31	0x3e864d46	0.2623083
32	0xbd1da111	-0.038483683
33	0x3ffc9cd3	1.9735359
34	0x3ce0828f	0.027406005
35	0xbc03164e	-0.008000923
36	0xbaff3fc0	-0.0019473955
37	0x4056ed0d	3.3582184
38	0x3f0b005b	0.5429742
39	0x40616aa2	3.5221334
40	0x3bb40c29	0.0054946137
41	0x405ab6a0	3.4173965
42	0xbb5230c1	-0.0032072517
43	0x3a852746	0.0010158799
44	0x3fa21267	1.2661866
45	0x4075afc8	3.8388538
46	0xbb7a7133	-0.0038214445
47	0xbd3cc489	-0.046085868
48	0x403a1f53	2.9081619
49	0x406b0d2d	3.6726792
50	0xbd0f9643	-0.03505541
51	0x3fe3c009	1.779298
52	0x3f455575	0.7708352
53	0x4075f46a	3.8430429
54	0x403b633f	2.9279325
55	0xbd2d4a81	-0.04230738
56	0xbd02e60a	-0.031957664
57	0x4081b791	4.053658
58	0x404d23fb	3.205321
59	0x408f5eb0	4.4803085
60	0x3f5cab9f	0.86199373
61	0x3d43f7d4	0.04784377
62	0x3d0a178f	0.033713873
63	0xbc7426e4	-0.01490185
64	0x403f1eae	2.9862475
65	0x405c7bc0	3.445053
66	0x3fd92585	1.6964575
67	0x3cf2fae4	0.02966065
68	0x3c64654c	0.013940167
69	0xbb9df42a	-0.0048203664
70	0x4093615b	4.605634
71	0x405f46cd	3.4886963
72	0xbcce665e	-0.025195297
73	0x401d3cc4	2.4568338
74	0x3c6481d0	0.013946965
75	0x40269f78	2.6034832
76	0x404f25d5	3.236684
77	0x4064bf3a	3.5741715
78	0x405af107	3.4209611
79	0x405cdcf9	3.450987
80	0x400fe924	2.2486048
81	0x401c46e0	2.4418259
82	0x3d078e92	0.03309495
83	0x3f006228	0.50149775
84	0xbda6deb4	-0.08147946
85	0xbcdcff04	-0.02697707
86	0x3fd991c3	1.6997608
87	0x40603cd5	3.503713
88	0x41004ad7	8.018271
89	0x3f431ab5	0.76212627
90	0x3c4fc97d	0.012682316
91	0x401704fe	2.3596797
92	0x3b97eada	0.004636151
93	0x406cb2db	3.6984165
94	0x404b3855	3.1753132
95	0xbe177679	-0.14791287
96	0x3df3024f	0.11865675
97	0xbd134c7c	-0.035961613
98	0xbd6e3a33	-0.05816097
99	0x408a9479	4.330624

net.1.bias f4 [100]
0	0x3f0ae569	0.542563
1	0xbe050584	-0.12990385
2	0x3f1c784b	0.6112105
3	0xbc21afdf	-0.009868591
4	0x3bb6c52f	0.0055777053
5	0xbd42a200	-0.047517776
6	0xbf036d50	-0.5133867
7	0xbd13ccb2	-0.036083885
8	0x3d96e758	0.07368344
9	0x3e217699	0.15767898
10	0x3baaf12b	0.0052167377
11	0x3aefed49	0.0018304969
12	0xbe23341c	-0.15937847
13	0x3d15bb21	0.036555413
14	0xbbf3894d	-0.007432139
15	0x3e4a65f1	0.1976545
16	0x3adf6616	0.0017043974
17	0xbd7736f7	-0.060355153
18	0x3eafbeee	0.34325355
19	0x3b98bc90	0.0046611503
20	0xbd4b5422	-0.049640782
21	0xba64ab65	-0.00087230495
22	0x3c0e35a8	0.008679785
23	0xbe7f29af	-0.24918245
24	0x3f25170e	0.64488304
25	0x3be61bcc	0.0070223566
26	0x3e0283a3	0.12745528
27	0xba6a75eb	-0.0008943963
28	0x3bc27a3a	0.0059349807
29	0xbd4333de	-0.047656886
30	0xbe3b0567	-0.1826378
31	0x3b1f550c	0.0024312166
32	0x3aee0e29	0.0018162179
33	0x3e839e10	0.2570653
34	0xba725319	-0.000924395
35	0xbb8a011f	-0.0042115594
36	0x3b5b4aaf	0.0033461263
37	0xbe4c7d2e	-0.19969627
38	0xbd65727d	-0.056017388
39	0xbebb1e9f	-0.365468
40	0x3bd416bb	0.0064724362
41	0xbe2c1a9d	-0.16807027
42	0x3c6a424f	0.014298036
43	0xbb189c58	-0.0023286548
44	0xbe5a7ca2	-0.21336606
45	0x3f0e7fb2	0.556636
46	0xba76b480	-0.0009411052
47	0xbba8d9ae	-0.0051529026
48	0xbeab38d6	-0.334418
49	0x3e9b7a3d	0.30366698
50	0x3b90bf1a	0.0044173123
51	0x3d9a078e	0.07520972
52	0xbd47f199	-0.04881439
53	0x3f0900fc	0.5351713
54	0xbe9ef8cf	-0.310492
55	0x3cbb1f49	0.022842066
56	0xba6a17af	-0.0008929921
57	0xbe3acf2a	-0.1824309
58	0xbdc63331	-0.09677733
59	0xbdd752e6	-0.105138585
60	0x3d3061ee	0.043062143
61	0xbd2bcc68	-0.041942984
62	0xbbc4d54a	-0.0060068714
63	0x3bd27ae0	0.0064233392
64	0xbe3235ea	-0.17403379
65	0x3d5a506e	0.05329936
66	0x3e8f5c77	0.28000233
67	0x3b79886a	0.0038075694
68	0x3bb6ed2a	0.0055824714
69	0x3b21562c	0.0024618013
70	0x3f3befcf	0.73412794
71	0x3f0f6199	0.560083
72	0x3a586dbe	0.0008256099
73	0xbeb03900	-0.34418488
74	0xba58d082	-0.0008270816
75	0x3efc4e8a	0.4927867
76	0x3f311ddd	0.6918619
77	0x3e99469c	0.29936683
78	0x3d2767b2	0.040870376
79	0xbd94c454	-0.07264009
80	0xbe8b66cb	-0.27226862
81	0xbeb67831	-0.35638574
82	0x3ac1560a	0.0014750373
83	0xbcd61ce7	-0.026136829
84	0xbc28a94f	-0.010294273
85	0xbb170678	-0.0023044627
86	0x3e86d4b4	0.26334155
87	0xbe216c85	-0.15764053
88	0x3f168480	0.5879593
89	0x3d7cdf9e	0.061736695
90	0x3ab61bca	0.001389378
91	0xbe55d1f3	-0.2088087
92	0x3b436afa	0.0029818402
93	0x3e87eb82	0.26546866
94	0xbeb67410	-0.35635424
95	0x3d2fead5	0.042948563
96	0xbd09966a	-0.03359071
97	0xbb9b57ce	-0.0047406917
98	0xbb3ba0a7	-0.0028629692
99	0x3f31b990	0.6942377

net.3.weight f4 [100, 100]
0	0xbf4f07db	-0.8087136
1	0xbf550088	-0.83203936
2	0xbf0d37ea	-0.55163443
3	0xbe5a6241	-0.21326543
4	0xbd313338	-0.043261737
5	0x3d66c724	0.05634226
6	0x3f54b4a9	0.83088166
7	0x3a748500	0.000932768
8	0x3efcde5d	0.493884
9	0xbfbc893b	-1.472938
10	0x3d9995dc	0.074992865
11	0x3d5ecdb4	0.054395393
12	0x3f35236e	0.70757186
13	0x3fce40d9	1.611354
14	0xbc36d942	-0.011160197
15	0x3ef28eee	0.47374672
16	0xbdb6de27	-0.08929091
17	0xbeb455e7	-0.35221788
18	0xbfe524cc	-1.7901855
19	0x3dbd7785	0.09251312
20	0x3f4a76e7	0.7908768
21	0x3c9033d4	0.017602839
22	0x3dae35ab	0.0850633
23	0x3dee3c45	0.11632589
24	0xbff47954	-1.9099526
25	0xbd9df11c	-0.077120036
26	0xbe748be0	-0.23881483
27	0x3d4bc8bf	0.049751993
28	0x3e816717	0.25273964
29	0x3ed4f21b	0.41590962
30	0xbf30b5ca	-0.6902739
31	0xbce8f784	-0.028438337
32	0xbb9219bb	-0.0044586337
33	0xbe0e439b	-0.13892977
34	0x3ec386de	0.38188833
35	0xbe04b47a	-0.12959471
36	0xbb921193	-0.0044576614
37	0x3fcadd0d	1.5848709
38	0x3e898c5d	0.268649
39	0x3fef8070	1.8711071
40	0xbd954c0c	-0.072898954
41	0xbe945aa3	-0.289754
42	0xbeb82a90	-0.35969973
43	0x3d9f66f7	0.07783311
44	0xbebf80ad	-0.3740286
45	0xbf58dae8	-0.84709024
46	0xbd1bd920	-0.038048863
47	0xbda0d372	-0.0785283
48	0xbfa77192	-1.3081534
49	0x3f1e79c8	0.61904573
50	0x3e6576d0	0.22408605
51	0xbe928032	-0.2861343
52	0xbee86cc7	-0.4539549
53	0xbeda1ba7	-0.42599222
54	0xbf9adbcc	-1.2098327
55	0x3e8824da	0.26590616
56	0xbe6ce4d6	-0.23134169
57	0x3c472da4	0.012156878
58	0xbdda0b31	-0.10646666
59	0x3f5f45b2	0.8721572
60	0xbebdba24	-0.37056077
61	0xbe761e9e	-0.24035117
62	0x3bcb24ee	0.0061994707
63	0x3e5a7d06	0.21336755
64	0xbe157250	-0.14594388
65	0x3e864f54	0.26232398
66	0x3e4e2f5a	0.2013525
67	0x3e2d48e9	0.16922344
68	0xbe87abc3	-0.2649823
69	0xbd883264	-0.06650236
70	0xbfa33ae8	-1.2752352
71	0x3f75166d	0.95737344
72	0xbe8840b4	-0.26611865
73	0x3de37495	0.11106221
74	0xbec937bc	-0.39300334
75	0x3e914610	0.28373766
76	0x3f836b50	1.0267124
77	0xbe5b503b	-0.21417324
78	0x3f2b5640	0.6692848
79	0x3fc71fee	1.5556619
80	0x3f329330	0.6975584
81	0xbf0c5ea0	-0.54831886
82	0x3e27551d	0.16341062
83	0x3e8e4a85	0.2779123
84	0xbe2c2575	-0.16811164
85	0xbcf06651	-0.029345663
86	0xbedd8570	-0.43265867
87	0xbf10fa6e	-0.56632125
88	0xc00c2e64	-2.1903315
89	0x3dbb8006	0.09155278
90	0xbe6eae30	-0.23308635
91	0xbf59024f	-0.8476915
92	0x3ab356a1	0.0013682434
93	0x3fcc53a1	1.5963022
94	0x3f396084	0.72412896
95	0x3e9e4fee	0.30920357
96	0x3e28fbef	0.16502355
97	0x3c7a7d7c	0.015288707
98	0xbe5383f7	-0.2065581
99	0x3f4b801b	0.7949235
100	0xbf139b95	-0.57659274
101	0xbf6bd533	-0.9212219
102	0xbedb63b0	-0.42849493
103	0xbe0c3943	-0.13693719
104	0xbe875c2b	-0.26437506
105	0xbcad00df	-0.02111858
106	0x3f1cec41	0.61297995
107	0xbe881f30	-0.26586294
108	0x3f0ebfe4	0.5576155
109	0xbfaff47c	-1.3746486
110	0x3e0a6725	0.13515909
111	0x3e01d3dd	0.12678476
112	0x3f208216	0.62698495
113	0x3fcef0ad	1.6167198
114	0xb9ba8d3e	-0.00035581918
115	0x3f320cdc	0.6955087
116	0xbe290fbc	-0.16509908
117	0xbe1b77be	-0.15182397
118	0xbfb236e3	-1.3923
119	0x3db60891	0.08888353
120	0x3f23e0a2	0.6401464
121	0x3cdca033	0.026931858
122	0xbcac963e	-0.021067735
123	0xbe0cee7d	-0.13762851
124	0xbfb5617f	-1.4170378
125	0x3d456d89	0.048200164
126	0xbe05d134	-0.13068086
127	0xbd938d3a	-0.07204671
128	0x3ebfa58c	0.3743099
129	0x3f0be839	0.5465122
130	0xbf2fb908	-0.6864171
131	0xbd49a378	-0.04922816
132	0xbe2715c9	-0.16316904
133	0x3da7d2c2	0.08194496
134	0x3df49e98	0.11944312
135	0xbe02c624	-0.12770897
136	0x3e02407e	0.12719914
137	0x3fe793f4	1.8092027
138	0x3f037c57	0.513616
139	0x3ff1a3c2	1.88781
140	0xbe869e33	-0.2629257
141	0xbedb8b10	-0.42879534
142	0xbe1857fd	-0.14877315
143	0xbd93ae41	-0.07210971
144	0xbf0d30b2	-0.5515243
145	0xbf3f33a6	-0.74688184
146	0x3deff581	0.11716748
147	0x3c9f7d38	0.019468889
148	0xbfb26f44	-1.3940206
149	0x3f814ba4	1.0101209
150	0x3d774e46	0.06037738
151	0xbddf9cb9	-0.10918564
152	0xbece74ed	-0.40323582
153	0xbeb82aae	-0.35970062
154	0xbfaa9d49	-1.332925
155	0x3e92c6cf	0.28667304
156	0xbd86facd	-0.06590805
157	0x3d61f6a1	0.055166844
158	0xbe744fdc	-0.23858589
159	0x3f96efb0	1.1791897
160	0xbeefd43f	-0.46841618
161	0xbe93cc77	-0.28866932
162	0xbcb37333	-0.021905517
163	0xbe89b6ec	-0.2689737
164	0xbe4df6ac	-0.20113629
165	0x3e11a512	0.14223126
166	0x3f0c0696	0.5469755
167	0xbe109766	-0.14120254
168	0x3c61fc13	0.013793009
169	0xbccc7110	-0.024956256
170	0xbf94d699	-1.162799
171	0x3f8de6d1	1.1086065
172	0xbe1549bf	-0.14578913
173	0x3e4710a0	0.19439936
174	0x3c83db66	0.016095828
175	0x3ee038c6	0.43793315
176	0x3f7c9a32	0.98672783
177	0xbe8e89f8	-0.27839637
178	0x3f4805bc	0.7813375
179	0x3fd66eaa	1.6752522
180	0x3f0c325a	0.5476433
181	0xbf77d379	-0.96807057
182	0x3d1910e7	0.037369635
183	0x3ec0fabb	0.37691292
184	0xbd3c7474	-0.046009496
185	0x3b7a056d	0.0038150207
186	0xbe82f611	-0.2557836
187	0xbf524208	-0.82132006
188	0xc01d41b3	-2.457135
189	0xbe30f70f	-0.17281745
190	0xbcf7aa46	-0.03023256
191	0xbf5b42fa	-0.85649073
192	0xbeef14ac	-0.4669546
193	0x3fec5762	1.8464167
194	0x3ec621ed	0.38697758
195	0x3e70b7eb	0.23507659
196	0xbd156102	-0.036469467
197	0xbe0a48c8	-0.13504326
198	0xbd8a7a9f	-0.06761669
199	0x3fb5ea0c	1.421205
200	0xbf495094	-0.7863858
201	0xbf4b1278	-0.79325056
202	0xbea65b3c	-0.3249148
203	0xbc0f395a	-0.008741701
204	0xbe6dfb55	-0.23240407
205	0xbe8f6fcf	-0.2801499
206	0x3f1a63f5	0.6030877
207	0xbe6765c3	-0.22597413
208	0x3f11faa2	0.5702306
209	0xbfb39fe7	-1.4033173
210	0x3e0a4ec1	0.13506605
211	0x3e5bc9c6	0.21463689
212	0x3f358994	0.7091305
213	0x3fd41611	1.6569234
214	0xbe13f24d	-0.14447899
215	0x3ec62681	0.3870125
216	0xbdac7613	-0.08420958
217	0xbeaa9822	-0.33319193
218	0xbfd7c196	-1.6855953
219	0x3c6ea451	0.014565543
220	0x3f1685d8	0.5879798
221	0xbdc2b476	-0.095070764
222	0x3d2a89b2	0.041635223
223	0xbe24b0ff	-0.16083144
224	0xbfeaec19	-1.8353301
225	0xba984476	-0.0011617083
226	0xbe2da9a3	-0.16959243
227	0xbeb217d7	-0.34783813
228	0x3ee1402b	0.4399427
229	0x3f1a94bf	0.6038322
230	0xbf50c1b3	-0.8154556
231	0xbbc76c49	-0.0060859066
232	0xbe5e5366	-0.21711501
233	0x3e406b14	0.18790847
234	0x3da3e498	0.08002585
235	0xbd962d25	-0.073328294
236	0xbe62448b	-0.2209646
237	0x3fd9e83c	1.7023997
238	0x3e919696	0.284352
239	0x3ffd3850	1.978281
240	0xbd101427	-0.03517547
241	0xbf069bd0	-0.525815
242	0x3c203f4e	0.009780718
243	0xbe168571	-0.14699341
244	0xbf227093	-0.63453025
245	0xbf462324	-0.7739737
246	0xbdc3074c	-0.09522876
247	0x3da7a4c3	0.08185723
248	0xbfa79a43	-1.3093952
249	0x3f36fd2c	0.7148006
250	0x3bcc979f	0.0062436606
251	0xbe234daa	-0.15947595
252	0xbeea7cff	-0.4579849
253	0xbe8314a8	-0.25601697
254	0xbfb1f162	-1.3901789
255	0x3e5c4471	0.21510483

net.3.bias f4 [100]
0	0xbe73f513	-0.23823957
1	0xbe40dafb	-0.18833534
2	0xbe0bcc51	-0.1365216
3	0xbc841a66	-0.016125869
4	0xbec5cb36	-0.386316
5	0xbd814506	-0.06311993
6	0xbd0cde77	-0.034391847
7	0xbd8db586	-0.069193885
8	0xbe727cf0	-0.23680472
9	0xbed87fa5	-0.42284885
10	0xbe12c18a	-0.14331642
11	0xbe0ea21e	-0.1392903
12	0xbeb396e1	-0.3507605
13	0xbded0d50	-0.11574805
14	0xbe0850c9	-0.13312067
15	0x3d9388f5	0.07203857
16	0xbe032b1d	-0.12809415
17	0xbe8b0472	-0.2715183
18	0xbdb46814	-0.08808914
19	0xbe5f34ec	-0.21797532
20	0xbdb97f21	-0.09057451
21	0xbd8e2e79	-0.06942458
22	0xbec22771	-0.37920716
23	0xbd681306	-0.056658767
24	0xbd208b50	-0.03919536
25	0xbea1461c	-0.31498802
26	0xbe0e6e02	-0.13909152
27	0xbdacd4ca	-0.08439024
28	0xbeeb7f9f	-0.45995805
29	0xbe039249	-0.12848772
30	0xbeaea42e	-0.34109634
31	0xbecf7404	-0.405182
32	0xbdbfa496	-0.09357564
33	0xbe7c6e90	-0.24651551
34	0xbe7d97a4	-0.24764878
35	0xbe619776	-0.22030434
36	0xbe0a74e2	-0.1352115
37	0xbdc9cad7	-0.09853142
38	0xbe5e8c48	-0.217332
39	0xbdb8bbe2	-0.09020211
40	0xbe79e734	-0.24404603
41	0xbe2d809b	-0.1694359
42	0xbe19db75	-0.15025122
43	0xbdab098e	-0.08351432
44	0xbe5322d8	-0.2061876
45	0xbe978706	-0.29595202
46	0xbe536910	-0.20645547
47	0xbe4077ee	-0.1879575
48	0xbdd1ec46	-0.10250144
49	0xbe7111a1	-0.23541881
50	0xbde5dd64	-0.112238675
51	0x3e451a32	0.19248274
52	0xbde78f33	-0.1130661
53	0xbc828d57	-0.015936537
54	0xbdc421e8	-0.095767796
55	0xbe96c214	-0.29444945
56	0xbdb4d66f	-0.088299625
57	0xbed64c4f	-0.41855094
58	0xbde2da8e	-0.11076842
59	0xbda30a3f	-0.07960939
60	0xbdb46ce8	-0.08809835
61	0x3f2e50ef	0.68092245
62	0xbeaa8951	-0.3330789
63	0xbe336d0d	-0.17522068
64	0xbe21c610	-0.15798211
65	0xbe37348d	-0.1789114
66	0xbe2bbe55	-0.16771825
67	0xbe8528eb	-0.2600778
68	0xbeef092b	-0.46686682
69	0x3c5c37c8	0.013441034
70	0xbe703022	-0.23455861
71	0xbe3e1787	-0.18563662
72	0xbe77cf03	-0.24200062
73	0xbe7f142d	-0.2491004
74	0xbe2aa025	-0.16662653
75	0xbecb53c3	-0.39712343
76	0xbde2c954	-0.110735565
77	0xbec4f7bf	-0.38470265
78	0xbdb2f672	-0.08738412
79	0x3f8477ff	1.034912
80	0xbe334d24	-0.17509896
81	0xbea6f403	-0.3260804
82	0xbe72917a	-0.23688307
83	0xbdbdf440	-0.092751026
84	0xbdecfb63	-0.11571386
85	0xbe2b6289	-0.16736807
86	0xbe6347bb	-0.22195332
87	0xbd2a0f17	-0.041518297
88	0xbd911656	-0.07084338
89	0x402cb3c9	2.6984732
90	0xbe57a672	-0.21059588
91	0xbe58c238	-0.21167839
92	0xbe3996b5	-0.18123896
93	0xbe1dce50	-0.15410733
94	0xbe93760f	-0.2880101
95	0xbe5cc25e	-0.2155852
96	0xbe195ee5	-0.14977606
97	0xbe5194db	-0.2046694
98	0xbe43c0fe	-0.1911659
99	0xbe86adf1	-0.26304582

net.4.weight f4 [100]
0	0xbbc6af6f	-0.006063394
1	0xbd121d54	-0.0356725
2	0xbd2dcef3	-0.04243369
3	0xbd0d6010	-0.03451544
4	0x3c1d0176	0.009582868
5	0xbd0890a1	-0.033341054
6	0xbd493fd7	-0.049133148
7	0x3cb53a41	0.022122504
8	0xbcc7cecc	-0.0243906
9	0xbba480a4	-0.005020218
10	0xbcfc31bd	-0.030785436
11	0xbb215735	-0.002461863
12	0x3d682d1d	0.05668365
13	0x3d54f997	0.05199584
14	0xbac1bded	-0.0014781334
15	0x3f00cb5c	0.503103
16	0x3d0a862c	0.033819363
17	0x3c96289f	0.018329917
18	0x3ca2d215	0.019875566
19	0xbd27bf13	-0.040953707
20	0x3c528f95	0.012851615
21	0x3d593f45	0.053038854
22	0x3c60d581	0.013722778
23	0xbd437c2d	-0.047725845
24	0xbd16b86f	-0.036796983
25	0xbc92db8e	-0.017926957
26	0x3d01d277	0.031694856
27	0x3c827beb	0.01592823
28	0x3f5e23b2	0.86773217
29	0x3cc03816	0.023464244
30	0xb9ae088c	-0.00033194234
31	0xbba0d43e	-0.0049081137
32	0x3d10a108	0.03530982
33	0xbd6a5f9c	-0.057220086
34	0x3c8799a4	0.016552754
35	0x3cecbb66	0.028897952
36	0xbd2410df	-0.040055152
37	0x3f1bfc52	0.60931885
38	0xbc191f77	-0.009345881
39	0xbcdd55f6	-0.027018528
40	0xbbd92307	-0.00662649
41	0x3d27ca9f	0.04096472
42	0x3d5c8548	0.053838044
43	0x3ce7c3a3	0.028291529
44	0xbcd1f4ea	-0.02562948
45	0xbd304c9b	-0.043041807
46	0x3d1a5797	0.03768119
47	0x3c8b5b81	0.017011406
48	0xbb6d2c9d	-0.0036189922
49	0x3cf629fc	0.030049317
50	0x3d08c694	0.033392504
51	0x3b90a4b4	0.0044141654
52	0x3d24fc31	0.04027957
53	0xbc423a6c	-0.011854749
54	0xbc1b5ec3	-0.009483042
55	0x3d0aca2c	0.033884212
56	0xbd25c28a	-0.04046873
57	0x3ed257c9	0.410826
58	0xbd198a07	-0.03748515
59	0xbcfb61e3	-0.030686324
60	0x3d07eea1	0.03318656
61	0x3f97285e	1.1809194
62	0xbbfdf294	-0.007749865
63	0xbd052775	-0.032508332
64	0xbbab3a79	-0.0052254763
65	0x3ce6acaf	0.028158514
66	0x3caf5a3e	0.021405336
67	0x3c71d0a1	0.014759214
68	0xbc2cbe57	-0.010543427
69	0x3c2f271b	0.010690476
70	0xbc8d5fed	-0.017257655
71	0x3d3288b8	0.043587416
72	0xbd579bee	-0.05263894
73	0x3d255f10	0.04037386
74	0x3d335071	0.043777887
75	0x3f2dffe6	0.67968595
76	0x3aad01a9	0.0013199347
77	0x3f04ff7d	0.51952344
78	0x39e45a9e	0.00043555064
79	0xbb592796	-0.0033135167
80	0xbd22672a	-0.039649166
81	0x3c48f370	0.012265071
82	0xbc3ae14d	-0.011406255
83	0xbed0e564	-0.4080001
84	0xbb0559c7	-0.00203477
85	0x3d066204	0.03280832
86	0x3d0f0a68	0.034922034
87	0xbd0baa9b	-0.03409825
88	0xbd028b87	-0.031871345
89	0xbf61dbe6	-0.88226163
90	0x3c7be0a8	0.015373386
91	0x3d0ab91e	0.033867948
92	0xbce2ec09	-0.027700441
93	0xbade6bcb	-0.0016969381
94	0xbcbab81d	-0.02279287
95	0x3d2c3dac	0.042051002
96	0xbc032ecf	-0.0080067655
97	0xbce78739	-0.028262721
98	0xbd1856ae	-0.03719204
99	0x3c80640e	0.01567271

net.4.bias f4 [100]
0	0xba63bf1e	-0.00086878415
1	0x3a80aafb	0.0009816581
2	0x38ad256c	8.256253e-05
3	0xba096bb1	-0.00052421825
4	0x3ab208c1	0.0013582931
5	0x3a98b2a4	0.0011649919
6	0xb90226f6	-0.0001241228
7	0x39907b58	0.0002755772
8	0x3a252573	0.0006299831
9	0xbaaee918	-0.0013344614
10	0x39923c94	0.00027892424
11	0x3ae69664	0.0017592427
12	0x3a1d55d8	0.00060018664
13	0x3b8604cf	0.0040899287
14	0x380ec582	3.403938e-05
15	0x3c718ef6	0.014743557
16	0xb99df34d	-0.00030126647
17	0x3b2c3a8e	0.0026280019
18	0x3b45aa12	0.0030161184
19	0xbacd062b	-0.0015642097
20	0x3a09a72e	0.0005251047
21	0x3ab47fa2	0.0013770948
22	0x3aa1b0ef	0.0012336056
23	0xba2326c3	-0.00062237325
24	0x3a722d04	0.0009238275
25	0xbb2bc800	-0.0026211739
26	0x3b4c9a59	0.0031219928
27	0xb8ca1ce5	-9.6374926e-05
28	0xbe8a99f2	-0.27070576
29	0xb9cb98e5	-0.00038833093
30	0xb824509f	-3.917573e-05
31	0xbaa087b3	-0.0012247473
32	0xba06ae3e	-0.00051376584
33	0xba0c4545	-0.0005350898
34	0xb9de8295	-0.0004244043
35	0xba471d35	-0.00075956
36	0xb8587222	-5.1604708e-05
37	0xbd3fb29d	-0.0468012
38	0xba8d4f5e	-0.00107811
39	0x378f972a	1.711732e-05
40	0xba460b04	-0.0007554742
41	0xba2597db	-0.0006316879
42	0x3a18e3ff	0.0005832314
43	0x3b8e293b	0.004338411
44	0x38669358	5.4973498e-05
45	0xbb9b721a	-0.0047438266
46	0xbaabeb5d	-0.0013116408
47	0x3acb2326	0.0015498146
48	0xb9d2ceb5	-0.0004020833
49	0x3ab412eb	0.0013738548
50	0xb9821ee1	-0.0002481854
51	0x39ebc03b	0.00044965916
52	0x3ba4a877	0.0050249654
53	0xba473ccf	-0.0007600309
54	0xb8424f9b	-4.6327343e-05
55	0x39e67c07	0.00043961426
56	0x39954a22	0.00028474728
57	0xbd7d3608	-0.061819106
58	0xb976f3b6	-0.00023551178
59	0x39bbe8a8	0.00035840762
60	0xb98d2040	-0.00026917644
61	0x3f0f4011	0.5595713
62	0xbb08f23f	-0.0020896343
63	0x3a049989	0.0005058279
64	0xb896d3ce	-7.192009e-05
65	0xba164690	-0.00057325605
66	0xb9fd0175	-0.00048257006
67	0x3b08fab9	0.0020901395
68	0xbaeaf300	-0.0017925203
69	0x39519015	0.00019985468
70	0xbaf1ae56	-0.0018438797
71	0xb9d487a3	-0.00040536848
72	0x3a059473	0.0005095668
73	0xb9a70488	-0.00031856098
74	0x39b4fc38	0.00034520193
75	0xbe434e33	-0.190728
76	0xb7a60183	-1.9789446e-05
77	0xbde8c8c0	-0.11366415
78	0xb93285b3	-0.0001702521
79	0x3a75b6de	0.00093732576
80	0xbb8e0ac1	-0.004334778
81	0x3b15519e	0.0022784243
82	0x3b131e59	0.0022448509
83	0x3daaf0e1	0.08346725
84	0xb906713d	-0.0001282142
85	0xba4c9b93	-0.0007805165
86	0x3901861d	0.0001235236
87	0x3a4e12c3	0.0007861072
88	0x39b0e431	0.00033739352
89	0xc008f62c	-2.1400251
90	0x3aa0db09	0.0012272309
91	0xba452c09	-0.00075215154
92	0x398b9336	0.00026621827
93	0xb902d99f	-0.00012478836
94	0xbafcf123	-0.0019297939
95	0xb999df60	-0.0002934886
96	0xbafff5a7	-0.0019528166
97	0x3a0ec634	0.00054464047
98	0xba363f27	-0.00069521595
99	0xb94d987c	-0.00019607128

out_mean.weight f4 [1, 100]
0	0xbab95700	-0.0014140308
1	0x3aec9388	0.0018049339
2	0x3a774194	0.0009432074
3	0x38e4e347	0.00010914221
4	0xb99849a3	-0.00029046563
5	0x3a12f4b9	0.00056059245
6	0xb99b595d	-0.00029630485
7	0xbaa9c94c	-0.0012953668
8	0x3b30c10e	0.0026970538
9	0x395219f0	0.00020036823
10	0x3a999dc8	0.0011719996
11	0x3956c945	0.00020483609
12	0xbbcc56bc	-0.0062359255
13	0xbb3948ad	-0.0028272078
14	0x39149cc3	0.00014172778
15	0x3fba2e6b	1.4545416
16	0xb9cd7134	-0.0003918499
17	0xbab7b174	-0.0014014677
18	0xbac15e4d	-0.0014752835
19	0x3ace8083	0.0015754852
20	0x39864b02	0.00025614357
21	0xbb3bd615	-0.0028661538
22	0xb8c39f84	-9.328037e-05
23	0xb92e4ce7	-0.00016622581
24	0x3a05b24e	0.0005100117
25	0xbaa7ba4a	-0.0012796607
26	0x3b569c45	0.0032746952
27	0xb9829253	-0.00024904552
28	0xbfa19135	-1.2622439
29	0xba498916	-0.0007687969
30	0x3b144486	0.002262385
31	0x3a78f51d	0.0009496974
32	0xba763eac	-0.0009393494
33	0x3b800e8f	0.0039079855
34	0xb928bcf0	-0.00016092113
35	0xba8c5742	-0.0010707157
36	0x39f9b224	0.00047625706
37	0x3f870337	1.0547856
38	0xbb003222	-0.0019561131
39	0x3a43d3fa	0.00074702466
40	0xb985d7c7	-0.00025528503
41	0xbab61047	-0.0013890349
42	0xbb28ec5c	-0.0025775647
43	0xbb9908f1	-0.0046702554
44	0x3ab08606	0.0013467676
45	0x3a9ddef7	0.0012044598
46	0xbb546b64	-0.0032412643
47	0x3a94708b	0.0011325044
48	0xb9c4f2fd	-0.00037565074
49	0xba5a1b88	-0.00083201425
50	0xbaa73e23	-0.0012759607
51	0x38362b0e	4.343228e-05
52	0xbb86debc	-0.0041159075
53	0x39133729	0.00014039561
54	0xba1d643f	-0.00060040125
55	0xbb9e7fbf	-0.004837006
56	0x3ac072d8	0.0014682664
57	0xbea5aeda	-0.32359964
58	0xba09dc52	-0.00052589655
59	0x3a0d866d	0.0005398754
60	0x3a37ba41	0.000700865
61	0xbfb7fa20	-1.4373207
62	0x3a6bc5b3	0.0008993998
63	0x3b657b27	0.0035016031
64	0xba0617eb	-0.00051152584
65	0xba9bf1f7	-0.0011897673
66	0xbb0c8fd3	-0.002144803
67	0xba040861	-0.0005036649
68	0xba59f402	-0.0008314253
69	0x3a53c827	0.0008078836
70	0xb9c873b7	-0.00038233187
71	0xbac45b2c	-0.0014980785
72	0x3b804b68	0.003915239
73	0xbac9407b	-0.00153543
74	0xba8250a5	-0.0009942247
75	0xbe92e2c1	-0.28688625
76	0xb9635e9c	-0.00021683652
77	0xbf1e648c	-0.6187217
78	0xba945b01	-0.0011318625
79	0x3a7321ae	0.0009274733
80	0x3a889a0c	0.0010421886
81	0xba9803e8	-0.0011597844
82	0x3a92d39d	0.0011201982
83	0xbca8620d	-0.020554567
84	0x382ecc44	4.167507e-05
85	0xbaff5c8c	-0.0019482537
86	0xba83fb60	-0.0010069422
87	0x38d2bc6d	0.00010048677
88	0x3a2c8004	0.0006580355
89	0xbf82e0fd	-1.0224911
90	0xbc5ea41d	-0.013588932
91	0xbac707f5	-0.0015184866
92	0x3a743a3c	0.0009316539
93	0x38d36b08	0.000100812
94	0x3a68c5aa	0.0008879552
95	0xbb85d873	-0.0040846406
96	0x3a214a4e	0.0006152735
97	0x3a723a35	0.0009240241
98	0x3ae0c459	0.001714836
99	0xb803db77	-3.1437226e-05

out_value.weight f4 [1, 100]
0	0x3a6ba90e	0.00089897297
1	0xb9265cb0	-0.00015865522
2	0x3a1a3b9a	0.0005883515
3	0x3b3649aa	0.0027814903
4	0xb93956fb	-0.00017675378
5	0x391f150a	0.0001517126
6	0x3b26c5e4	0.0025447542
7	0xb92ffea7	-0.00016784166
8	0xb92f3e0b	-0.00016712413
9	0x39d790e1	0.0004111594
10	0x397994e2	0.00023801954
11	0xbb5f26d9	-0.0034050255
12	0x3ab79efd	0.0014009174
13	0xbbe94523	-0.0071188374
14	0x38c82bc8	9.544898e-05
15	0xbaa71d2b	-0.0012749782
16	0xba8d5f14	-0.0010785782
17	0xbbc0d122	-0.0058843056
18	0xbbd30500	-0.006439805
19	0x3ba5e855	0.0050630965
20	0xba8e1a81	-0.0010841639
21	0xbb6c06ec	-0.0036014868
22	0xb77d7554	-1.5107293e-05
23	0x3b103e3e	0.0022009755
24	0x38e7aaa5	0.000110467234
25	0x3a86e55d	0.0010291744
26	0xbb3cd1fe	-0.0028811689
27	0xbae060ba	-0.001711867
28	0xbb3f7d03	-0.00292188
29	0xb9eaa3fc	-0.00044754136
30	0xb9ea2182	-0.00044656923
31	0x3986e70b	0.00025730612
32	0xb9baf528	-0.0003565934
33	0x3a904ff2	0.0011010154
34	0xb8b84490	-8.7865745e-05
35	0x38114f3e	3.4644494e-05
36	0x3ad4f3b9	0.0016246951
37	0x3c2a94f1	0.010411487
38	0x3a7afbc7	0.0009574261
39	0x39ffffeb	0.00048828064
40	0xb6d3124a	-6.290419e-06
41	0xb940be50	-0.00018381444
42	0xba912ee4	-0.0011076597
43	0xbbfab7c9	-0.0076513034
44	0x3adfc59e	0.0017072444
45	0x3c1c32bd	0.009533581
46	0x39b34fad	0.00034200904
47	0xba907960	-0.0011022501
48	0x39c78821	0.00038057662
49	0xbb87d279	-0.0041449633
50	0xb99b1689	-0.00029580694
51	0x3ac7c7ce	0.0015242042
52	0xbc0cd10f	-0.008594765
53	0x39f8dae2	0.00047465326
54	0x393d8db2	0.0001807723
55	0xbb42e202	-0.0029736762
56	0x3a624b86	0.00086324697
57	0x3c844818	0.016147658
58	0x3b1946a2	0.0023388048
59	0x3967ba7f	0.00022099352
60	0xba429ac0	-0.0007423572
61	0xbb88ee20	-0.0041787773
62	0x3b1f733d	0.0024330162
63	0x397209bb	0.00023082543
64	0x3a7e714a	0.00097062124
65	0xb910c505	-0.00013806306
66	0x3849058e	4.7927308e-05
67	0xbbb03a6c	-0.005378058
68	0x39dd074a	0.00042157836
69	0xb98fb271	-0.00027408035
70	0x3a045cbe	0.000504922
71	0xba6dc3f3	-0.0009070031
72	0x38db19fa	0.00010447572
73	0xba89add3	-0.0010504074
74	0xbb16dd89	-0.002302023
75	0x3bf73e0c	0.0075452384
76	0xb7ce7de9	-2.4615745e-05
77	0xbc49321f	-0.012280016
78	0x3a5c4b50	0.00084035564
79	0x3a3c3294	0.00071791676
80	0x3c05bfdd	0.00816342
81	0xbb91e1cd	-0.0044519664
82	0xbb42b645	-0.0029710692
83	0xbd751d05	-0.05984213
84	0xb8b90607	-8.82261e-05
85	0x37940fc2	1.7650313e-05
86	0xbb041fd4	-0.0020160573
87	0x38423e8d	4.631146e-05
88	0x3ab04933	0.001344955
89	0xbc86c382	-0.016450647
90	0x3a3a29e7	0.0007101581
91	0xbabf7c33	-0.0014609158
92	0x3a47c8f6	0.0007621193
93	0xb9dcedd1	-0.00042138857
94	0x3ba0c505	0.004906299
95	0x3ab629e2	0.001389798
96	0x3ba93d03	0.005164744
97	0x3976a568	0.00023522007
98	0x3b662824	0.003511914
99	0xb94b96c4	-0.00019415753

weight f4 [100, 6]
0	0x3ef663a2	0.4812289
1	0x3e044fbc	0.12921041
2	0x3c9c5c70	0.019087046
3	0xc111901e	-9.097685
4	0x3f1daeda	0.6159493
5	0x401960aa	2.396525
6	0x3f371d3c	0.71528983
7	0x3fee7d81	1.8632051
8	0x3d279241	0.040910963
9	0xc1003111	-8.011979
10	0x3d9a616a	0.075381115
11	0xbda598a6	-0.08085756
12	0x3f7785ea	0.9668871
13	0x405f6656	3.490621
14	0xbfc5b72d	-1.5446526
15	0xc090abba	-4.5209627
16	0xbfd80eef	-1.6879557
17	0x3dae4f03	0.08511164
18	0xbf0d4323	-0.5518057
19	0x3f6924c9	0.91071755
20	0xbfd5bca9	-1.66982
21	0x3fe90484	1.8204503
22	0x3ecc8fe3	0.39953527
23	0x3e1dffa2	0.15429547
24	0xbf7de229	-0.9917322
25	0x4073766c	3.804103
26	0xbe3cb9ab	-0.18430202
27	0x4013bb37	2.3083017
28	0x3ea6509c	0.32483375
29	0x3e336cea	0.17522016
30	0xbe4078de	-0.18796107
31	0x3e2b242e	0.1671302
32	0x3f5b17b5	0.8558305
33	0xc11bb6f7	-9.732169
34	0xbde00d28	-0.10940009
35	0x3f95ad2f	1.1693476
36	0xbe6add45	-0.2293597
37	0xbe8271d7	-0.25477478
38	0xbe28516e	-0.16437313
39	0x41130459	9.188561
40	0x3f246f40	0.64232254
41	0xc010a181	-2.2598574
42	0xbe656e48	-0.2240535
43	0x407d31fd	3.956176
44	0x3f853a36	1.040839
45	0x4083a0b3	4.1133666
46	0x3f6c49c1	0.9230004
47	0x3de6adda	0.11263628
48	0xbf349724	-0.7054312
49	0xbfcb7fa4	-1.5898328
50	0x3e9d461c	0.30717552
51	0x4103557d	8.208371
52	0x3ed4a071	0.41528657
53	0x3ddfbb9d	0.10924456
54	0x3ec8d860	0.3922758
55	0x3f1679c3	0.58779544
56	0x3f856f78	1.0424643
57	0xc1190cf3	-9.565661
58	0x3e11f995	0.14255364
59	0x3e98be3f	0.29832646
60	0xbf94e8a9	-1.1633502
61	0xbf482976	-0.78188264
62	0xbf1a2451	-0.60211664
63	0x3fbb2ace	1.4622438
64	0x3e75ef1e	0.24016997
65	0xbd5044bc	-0.0508468
66	0xc003584d	-2.0522645
67	0x3fbb1809	1.461671
68	0xbde592e7	-0.1120966
69	0xc04371d8	-3.0538235
70	0xbb83e68f	-0.0040252875
71	0x3e4249dc	0.18973488
72	0xbf452e28	-0.77023554
73	0xbfb2399c	-1.3923831
74	0xbf6277b4	-0.884639
75	0x4107b327	8.481238
76	0x3e88cb87	0.2671778
77	0x3e68a6b4	0.22719842
78	0xbf2f483d	-0.684696
79	0x40025daf	2.036968
80	0x3f16792a	0.5877863
81	0x4117f4fc	9.497311
82	0xbd18f77b	-0.03734539
83	0x3e87235f	0.26394174
84	0xbf4a7b15	-0.7909406
85	0xbf762250	-0.96146107
86	0xbdcb3944	-0.09923032
87	0x40605361	3.505089
88	0x3eaac756	0.33355206
89	0xbcd174e7	-0.025568439
90	0x3f3aeebf	0.7302055
91	0xbf015922	-0.5052663
92	0x3fd2392a	1.6423695
93	0x40f273dd	7.5766435
94	0x3eb1c1f8	0.347183
95	0x3e87e110	0.26538897
96	0x3e6049de	0.21903178
97	0x4061c4fc	3.527648
98	0x3eb328a6	0.3499195
99	0x3e829603	0.25505075
100	0x3e043c56	0.12913641
101	0x3d4ffa33	0.050775718
102	0x3dc2b817	0.095077686
103	0x40660da4	3.5945826
104	0x3f916845	1.1359946
105	0x3de9c1c0	0.11413908
106	0x3e67688c	0.22598475
107	0x3d6c4468	0.057682425
108	0x3f7c0e53	0.9845936
109	0x3f04c18b	0.51857823
110	0x3fb3949c	1.4029727
111	0xc1178d1f	-9.471953
112	0x3ec4add7	0.3841388
113	0x3e93f81a	0.28900224
114	0xbf845213	-1.0337547
115	0x3eed38ba	0.4633234
116	0xbf77d0f9	-0.9680324
117	0x3f69b0db	0.91285485
118	0x3e8a60fc	0.27027118
119	0x3d3ca4b2	0.046055503
120	0xbf0f03eb	-0.55865353
121	0xc0231d49	-2.5486624
122	0xbf3f0eb9	-0.7463184
123	0x40eeda30	7.464134
124	0xbef6a6e5	-0.48174205
125	0xbf07c181	-0.5302964
126	0xbf0339e7	-0.51260227
127	0x3efb737c	0.49111545
128	0xbf9cf911	-1.2263509
129	0x3f94f9e0	1.1638756
130	0x3ed2c5dd	0.41166583
131	0x3de530b3	0.11190929
132	0xbf99e43e	-1.2022779
133	0xbea9953f	-0.33121678
134	0xbf9f3604	-1.2438359
135	0xbf877621	-1.0582925
136	0x3d411342	0.047137506
137	0xbda34509	-0.07972152
138	0xbf014b53	-0.5050556
139	0x3e9f6a8c	0.31135976
140	0x3f959fe8	1.1689425
141	0xc0faac6d	-7.833548
142	0xbe45573d	-0.1927156
143	0x3f77b025	0.9675315
144	0x3d911824	0.070846826
145	0xbfc2f698	-1.5231504
146	0x3c9a4a58	0.018834278
147	0xc0fbb639	-7.865994
148	0x3eb5c0f1	0.35498765
149	0xbf1506a3	-0.5821325
150	0xbfa42521	-1.2823831
151	0xbf56bb94	-0.8387997
152	0xbf85f2ce	-1.0464723
153	0x3f3635f9	0.71176106
154	0x3e59ef4d	0.21282692
155	0x3dfa5f94	0.12225261
156	0x3ed2e6b1	0.4119163
157	0x403d81a8	2.9610386
158	0x3fb29dc3	1.3954395
159	0xc07b9203	-3.9307868
160	0x3d48502c	0.048904583
161	0xbe28a084	-0.16467482
162	0xbf026e06	-0.5094913
163	0x3ebc2849	0.36749485
164	0xbfa2dfa0	-1.2724495
165	0x3fe3ee35	1.780707
166	0x3f03e84b	0.51526326
167	0x3e18efe5	0.14935263
168	0xbf2c6397	-0.6733946
169	0xc02d6047	-2.7090013
170	0xbfaa9a0e	-1.3328264
171	0xbf918082	-1.1367342
172	0xbea88fa8	-0.329221
173	0x3db7d031	0.08975256
174	0xbeeb1d45	-0.45920768
175	0xc02c11d7	-2.6885889
176	0xbf81f309	-1.0152293
177	0x40e37ecb	7.1092277
178	0xbedd2ec1	-0.43199733
179	0xbee30dd2	-0.44346482
180	0xbecf90c0	-0.40540123
181	0xbfdf9c21	-1.7469522
182	0xbfa9b51c	-1.3258395
183	0xc0e2a49a	-7.082593
184	0x3eadde31	0.3395858
185	0xbdc0a73b	-0.09406897
186	0xbee38f08	-0.44445062
187	0xbd336621	-0.04379857
188	0x3e93740f	0.28799483
189	0xc0c321f5	-6.097895
190	0x3d335226	0.043779515
191	0x3eee5d30	0.4655547
192	0xbf38db5a	-0.72209704
193	0x3f854d26	1.0414169
194	0xbf966d14	-1.1752038
195	0x3fb6fea2	1.4296458
196	0x3ea41640	0.32048225
197	0x3d944dfe	0.07241438
198	0x3c9365a3	0.0179928
199	0xbe3673c2	-0.17817596
200	0xbfbb27a0	-1.4621468
201	0x40c8f02d	6.2793183
202	0x3f1fc879	0.6241527
203	0xbf3d3c56	-0.7392019
204	0xbfbd0707	-1.476777
205	0xbf7a8b09	-0.978684
206	0xbf237e47	-0.6386456
207	0xc00757e5	-2.1147397
208	0x3e104bf1	0.1409147
209	0x3e784567	0.24245225
210	0xbedc650f	-0.43045852
211	0x40498cb1	3.1492121
212	0x3f10b93e	0.5653266
213	0xbf8403e9	-1.0313693
214	0x3c886ac5	0.016652474
215	0x3d0009a4	0.031259194
216	0xbf4927b2	-0.78576195
217	0x402d3dbe	2.7068934
218	0x3e63c14b	0.22241704
219	0x3ebe787e	0.37201303
220	0x3e93a218	0.28834605
221	0x3dfbdeed	0.12298379
222	0xbf12dcce	-0.5736817
223	0xbed7f020	-0.42175388
224	0xbf0ea28c	-0.55716777
225	0x412290e4	10.160374
226	0xbe410670	-0.18850112
227	0xbed5987f	-0.41717908
228	0xbf12f8d0	-0.5741091
229	0xc047a60f	-3.1195104
230	0xbfa0cf91	-1.2563344
231	0x4098909f	4.767654
232	0xbdb4670e	-0.088087186
233	0xbd27d4c2	-0.040974386
234	0xbe5655af	-0.20931123
235	0x3ca3d756	0.020000141
236	0xbf61d489	-0.8821493
237	0x4127a9e4	10.478977
238	0xbe496c4d	-0.1967022
239	0xbebb209a	-0.3654831
240	0xbe12072b	-0.14260547
241	0x40592c78	3.3933392
242	0xbefc5a8c	-0.49287832
243	0x3f274751	0.65343195
244	0x3e5ee7ed	0.2176816
245	0x3dd4ecb3	0.10396709
246	0xbe73b695	-0.23800118
247	0xbd51c79b	-0.05121575
248	0x3f53f14a	0.8279005
249	0xc12d1990	-10.818741
250	0xbe868253	-0.26271304
251	0x3f82572b	1.0182852
252	0xbe530c7e	-0.20610234
253	0x401e8df1	2.4774134
254	0xbffbf963	-1.9685482
255	0x3f8ebc87	1.1151284

bias f4 [100]
0	0x3f2ae334	0.66752934
1	0xbea18d83	-0.31553277
2	0x3ea5e70a	0.3240283
3	0xbf77eebe	-0.96848667
4	0xbf0bd083	-0.5461504
5	0x3e04ec1a	0.1298069
6	0xbf32405b	-0.6962945
7	0xbee20f7f	-0.44152448
8	0xbddec2d0	-0.10877001
9	0xbdb90ebd	-0.09036014
10	0xbf41f8b2	-0.75770104
11	0xbe56a01d	-0.20959516
12	0xbe88ec6b	-0.26742873
13	0x3c677597	0.014127157
14	0xbf3c9fd7	-0.73681396
15	0xbe856374	-0.2605244
16	0xbefed2e6	-0.49770278
17	0xbedb52bd	-0.42836562
18	0x3d9875c6	0.074443385
19	0xbf6d6646	-0.9273418
20	0xbdf7cebe	-0.1209998
21	0xbf77544c	-0.96613
22	0xbf413b8e	-0.754815
23	0xbdc85b25	-0.097830094
24	0x3ed65847	0.41864225
25	0xbf5bd54c	-0.8587234
26	0xbe359b63	-0.17735057
27	0xbf52bd41	-0.8232003
28	0xbed13c07	-0.4086611
29	0xbe4b8af9	-0.19877233
30	0xbeabb3cd	-0.33535615
31	0xbe3edccf	-0.1863892
32	0xbf7d1a8e	-0.98868644
33	0xbdc5bcc4	-0.09655145
34	0xbf25bb32	-0.6473876
35	0xbf025dd8	-0.50924444
36	0xbf32ae0a	-0.6979681
37	0xbe43cbcb	-0.1912071
38	0xbeb2d1db	-0.34925732
39	0xbea26abc	-0.31722057
40	0xbf5f414a	-0.87209
41	0x3cbcea26	0.02306087
42	0xbfbdea51	-1.4837133
43	0xbf3c7c54	-0.7362721
44	0xbf3d59cd	-0.7396515
45	0x3eeebc28	0.46627927
46	0xbefe8225	-0.49708667
47	0xbf2ea269	-0.6821657
48	0xbf1b3e73	-0.60642165
49	0x3d07ca7f	0.0331521
50	0xbf797181	-0.9743882
51	0xbe8d7306	-0.27626818
52	0xbeb32df0	-0.34995985
53	0x3f28dbfc	0.6596067
54	0xbf0b2c3b	-0.54364365
55	0xbf451b8c	-0.7699516
56	0xbf55bb03	-0.8348848
57	0xbed065ea	-0.40702754
58	0x3d8703b5	0.06592504
59	0xbde7b3bb	-0.11313578
60	0xbe5ba9cb	-0.2145149
61	0xbe97ad39	-0.29624346
62	0xbfd2155a	-1.6412766
63	0xbf46a157	-0.77589935
64	0x3cf30907	0.02966739
65	0x3e4f1a8d	0.20224972
66	0x3de902f8	0.11377519
67	0xbf5c06dc	-0.85947967
68	0xbf8423cf	-1.0323428
69	0xbf34458a	-0.7041861
70	0x3f15790e	0.5838784
71	0x3e0f5a61	0.1399932
72	0xbf6df418	-0.9295058
73	0xbf28a4a5	-0.6587623
74	0xbfac5fb6	-1.3466709
75	0x3e1a3ccc	0.15062255
76	0x3f27b270	0.6550665
77	0x3ec8b5ac	0.39201105
78	0xbea58e82	-0.32335287
79	0x3d7e8967	0.062142756
80	0xbec8558e	-0.39127773
81	0xbf57739b	-0.84160775
82	0xbf585131	-0.8449889
83	0xbe9b8d74	-0.30381358
84	0xbed06a18	-0.40705943
85	0xbf4ba49c	-0.7954805
86	0x3de0f963	0.10985067
87	0x3ca6bb7d	0.020353073
88	0x3ee6f22c	0.45106637
89	0xbd89e198	-0.06732482
90	0xbf2e0604	-0.6797793
91	0xbed3ea20	-0.4138956
92	0xbf331c5e	-0.6996516
93	0x3e803f6e	0.25048393
94	0xbefd3ac3	-0.49458894
95	0xbf147ef8	-0.5800624
96	0xbeaa0dcf	-0.3321366
97	0xbedce81a	-0.4314583
98	0xbf40ab45	-0.75261337
99	0x3f0de4f7	0.554275

weight f4 [100]
0	0x4091f1d1	4.5607686
1	0x40088e5a	2.1336884
2	0x402f03bf	2.7346036
3	0x3ca7983a	0.02045833
4	0xbd678218	-0.05652055
5	0x4028e437	2.6389291
6	0x408529d3	4.1613555
7	0x3fa86a47	1.3157433
8	0x3fbc20a6	1.4697464
9	0x403d81f3	2.9610565
10	0x3d2d8983	0.04236747
11	0x3c943ed8	0.018096372
12	0x3fee8193	1.8633293
13	0x406c4f75	3.6923497
14	0xbbf275f2	-0.007399314
15	0x4010e2b4	2.2638369
16	0x38aed245	8.336132e-05
17	0xbe210abf	-0.15726756
18	0x406d4752	3.707478
19	0x3cf123c9	0.029436009
20	0x40013264	2.0187006
21	0x3d0b6aa6	0.034037255
22	0xbd26afdb	-0.040695053
23	0x401506dd	2.328544
24	0x405aac3d	3.4167626
25	0x3cdd0346	0.0269791
26	0x3f7080fb	0.9394681
27	0x3cea5051	0.028602751
28	0x3e9cc2ad	0.30617276
29	0x3fdb74b3	1.7144989
30	0x4030a447	2.7600267
31	0x3e864d46	0.2623083
32	0xbd1da111	-0.038483683
33	0x3ffc9cd3	1.9735359
34	0x3ce0828f	0.027406005
35	0xbc03164e	-0.008000923
36	0xbaff3fc0	-0.0019473955
37	0x4056ed0d	3.3582184
38	0x3f0b005b	0.5429742
39	0x40616aa2	3.5221334
40	0x3bb40c29	0.0054946137
41	0x405ab6a0	3.4173965
42	0xbb5230c1	-0.0032072517
43	0x3a852746	0.0010158799
44	0x3fa21267	1.2661866
45	0x4075afc8	3.8388538
46	0xbb7a7133	-0.0038214445
47	0xbd3cc489	-0.046085868
48	0x403a1f53	2.9081619
49	0x406b0d2d	3.6726792
50	0xbd0f9643	-0.03505541
51	0x3fe3c009	1.779298
52	0x3f455575	0.7708352
53	0x4075f46a	3.8430429
54	0x403b633f	2.9279325
55	0xbd2d4a81	-0.04230738
56	0xbd02e60a	-0.031957664
57	0x4081b791	4.053658
58	0x404d23fb	3.205321
59	0x408f5eb0	4.4803085
60	0x3f5cab9f	0.86199373
61	0x3d43f7d4	0.04784377
62	0x3d0a178f	0.033713873
63	0xbc7426e4	-0.01490185
64	0x403f1eae	2.9862475
65	0x405c7bc0	3.445053
66	0x3fd92585	1.6964575
67	0x3cf2fae4	0.02966065
68	0x3c64654c	0.013940167
69	0xbb9df42a	-0.0048203664
70	0x4093615b	4.605634
71	0x405f46cd	3.4886963
72	0xbcce665e	-0.025195297
73	0x401d3cc4	2.4568338
74	0x3c6481d0	0.013946965
75	0x40269f78	2.6034832
76	0x404f25d5	3.236684
77	0x4064bf3a	3.5741715
78	0x405af107	3.4209611
79	0x405cdcf9	3.450987
80	0x400fe924	2.2486048
81	0x401c46e0	2.4418259
82	0x3d078e92	0.03309495
83	0x3f006228	0.50149775
84	0xbda6deb4	-0.08147946
85	0xbcdcff04	-0.02697707
86	0x3fd991c3	1.6997608
87	0x40603cd5	3.503713
88	0x41004ad7	8.018271
89	0x3f431ab5	0.76212627
90	0x3c4fc97d	0.012682316
91	0x401704fe	2.3596797
92	0x3b97eada	0.004636151
93	0x406cb2db	3.6984165
94	0x404b3855	3.1753132
95	0xbe177679	-0.14791287
96	0x3df3024f	0.11865675
97	0xbd134c7c	-0.035961613
98	0xbd6e3a33	-0.05816097
99	0x408a9479	4.330624

bias f4 [100]
0	0x3f0ae569	0.542563
1	0xbe050584	-0.12990385
2	0x3f1c784b	0.6112105
3	0xbc21afdf	-0.009868591
4	0x3bb6c52f	0.0055777053
5	0xbd42a200	-0.047517776
6	0xbf036d50	-0.5133867
7	0xbd13ccb2	-0.036083885
8	0x3d96e758	0.07368344
9	0x3e217699	0.15767898
10	0x3baaf12b	0.0052167377
11	0x3aefed49	0.0018304969
12	0xbe23341c	-0.15937847
13	0x3d15bb21	0.036555413
14	0xbbf3894d	-0.007432139
15	0x3e4a65f1	0.1976545
16	0x3adf6616	0.0017043974
17	0xbd7736f7	-0.060355153
18	0x3eafbeee	0.34325355
19	0x3b98bc90	0.0046611503
20	0xbd4b5422	-0.049640782
21	0xba64ab65	-0.00087230495
22	0x3c0e35a8	0.008679785
23	0xbe7f29af	-0.24918245
24	0x3f25170e	0.64488304
25	0x3be61bcc	0.0070223566
26	0x3e0283a3	0.12745528
27	0xba6a75eb	-0.0008943963
28	0x3bc27a3a	0.0059349807
29	0xbd4333de	-0.047656886
30	0xbe3b0567	-0.1826378
31	0x3b1f550c	0.0024312166
32	0x3aee0e29	0.0018162179
33	0x3e839e10	0.2570653
34	0xba725319	-0.000924395
35	0xbb8a011f	-0.0042115594
36	0x3b5b4aaf	0.0033461263
37	0xbe4c7d2e	-0.19969627
38	0xbd65727d	-0.056017388
39	0xbebb1e9f	-0.365468
40	0x3bd416bb	0.0064724362
41	0xbe2c1a9d	-0.16807027
42	0x3c6a424f	0.014298036
43	0xbb189c58	-0.0023286548
44	0xbe5a7ca2	-0.21336606
45	0x3f0e7fb2	0.556636
46	0xba76b480	-0.0009411052
47	0xbba8d9ae	-0.0051529026
48	0xbeab38d6	-0.334418
49	0x3e9b7a3d	0.30366698
50	0x3b90bf1a	0.0044173123
51	0x3d9a078e	0.07520972
52	0xbd47f199	-0.04881439
53	0x3f0900fc	0.5351713
54	0xbe9ef8cf	-0.310492
55	0x3cbb1f49	0.022842066
56	0xba6a17af	-0.0008929921
57	0xbe3acf2a	-0.1824309
58	0xbdc63331	-0.09677733
59	0xbdd752e6	-0.105138585
60	0x3d3061ee	0.043062143
61	0xbd2bcc68	-0.041942984
62	0xbbc4d54a	-0.0060068714
63	0x3bd27ae0	0.0064233392
64	0xbe3235ea	-0.17403379
65	0x3d5a506e	0.05329936
66	0x3e8f5c77	0.28000233
67	0x3b79886a	0.0038075694
68	0x3bb6ed2a	0.0055824714
69	0x3b21562c	0.0024618013
70	0x3f3befcf	0.73412794
71	0x3f0f6199	0.560083
72	0x3a586dbe	0.0008256099
73	0xbeb03900	-0.34418488
74	0xba58d082	-0.0008270816
75	0x3efc4e8a	0.4927867
76	0x3f311ddd	0.6918619
77	0x3e99469c	0.29936683
78	0x3d2767b2	0.040870376
79	0xbd94c454	-0.07264009
80	0xbe8b66cb	-0.27226862
81	0xbeb67831	-0.35638574
82	0x3ac1560a	0.0014750373
83	0xbcd61ce7	-0.026136829
84	0xbc28a94f	-0.010294273
85	0xbb170678	-0.0023044627
86	0x3e86d4b4	0.26334155
87	0xbe216c85	-0.15764053
88	0x3f168480	0.5879593
89	0x3d7cdf9e	0.061736695
90	0x3ab61bca	0.001389378
91	0xbe55d1f3	-0.2088087
92	0x3b436afa	0.0029818402
93	0x3e87eb82	0.26546866
94	0xbeb67410	-0.35635424
95	0x3d2fead5	0.042948563
96	0xbd09966a	-0.03359071
97	0xbb9b57ce	-0.0047406917
98	0xbb3ba0a7	-0.0028629692
99	0x3f31b990	0.6942377
