ppo_algorithm/data/Qube-v0_2019-03-07_15-06-40/checkpoint/ppo_network.pt (torch_old, 30485 bytes, 6 tensors)

weight f4 [64, 6]
000000 76 a4 c2 3e f9 dd 59 be ba cd d2 3c b7 42 69 be
       0.380161 -0.21276082 0.025732864 -0.22779356
000010 85 e0 c3 3d ec 90 40 be bf 11 8b 3e d2 df 4f be
       0.09564308 -0.18805283 0.27161977 -0.20300224
000020 e3 6b 85 3d ef da a1 3d 18 dd 11 3d b8 a2 c9 bd
       0.065147184 0.079030864 0.035611242 -0.09845489
000030 91 82 5f bd 59 f4 0c 3c 49 a9 d0 3d d8 0d 32 3e
       -0.054567877 0.008603179 0.101885386 0.17388093
000040 1e 3a f1 bd 92 4f 12 be fa d5 1a 3e 40 ba d2 bc
       -0.11778663 -0.14288166 0.15120688 -0.025723577
000050 11 3b 1b 3d ec 42 86 be 54 38 e7 3d 5e 39 65 be
       0.037898127 -0.26222932 0.112900406 -0.22385165
000060 a0 08 0f 3b 1c 03 3a be 52 bf e6 bd 78 4b b1 3e
       0.002182521 -0.18165249 -0.1126696 0.3462789
000070 e1 13 8e 3e cf 50 ea bc 82 9c 27 3c b7 33 ae 3d
       0.2774954 -0.028602986 0.010230185 0.085059576
000080 f5 b7 0f be 67 5a ca 3d 71 89 04 3e 6f 97 de bd
       -0.14035018 0.09880524 0.12943055 -0.108687274
000090 1f f6 8d 3d e7 f7 83 3d ed 69 5b bd b9 05 80 3d
       0.069317095 0.06443768 -0.053567816 0.062510915
0000a0 18 45 95 be ed e8 87 be ca 39 20 be de 1f 54 3d
       -0.29154277 -0.26544896 -0.15647045 0.051788203
0000b0 05 aa 3f bd 63 33 25 bd a1 33 a1 3d b7 9c 08 be
       -0.046793003 -0.04033221 0.078711756 -0.13341032
0000c0 74 94 16 be d6 9a 18 bd c9 36 e3 3d 32 cf 0a 3e
       -0.14705068 -0.037257038 0.11094434 0.13555601
0000d0 a5 25 c4 3d 77 fc 2e 3e a0 a5 50 3d bd ef d7 bd
       0.095774926 0.17088495 0.050939202 -0.10543773
0000e0 e9 85 5b 3e 74 f2 83 bc 24 23 53 bd b6 09 de bd
       0.21437801 -0.016106822 -0.051547185 -0.10841696
0000f0 e9 8b 31 be 2c 7f be 3d e0 7b e1 3c 43 cc ed 3d
       -0.17338528 0.093016 0.027524889 0.116112255
000100 5c 1b 87 3c b2 ce 8c bd 79 6e 87 bd 60 fb 26 be
       0.016492538 -0.068753615 -0.06612868 -0.1630683
000110 ea 4d e0 bc 9f 83 8f bd a1 56 db 3d 38 2b 1d 3e
       -0.027380902 -0.070075266 0.107098825 0.15348518
000120 bc 37 29 3e 91 8d 38 3e 56 5d 9e be d0 15 47 3d
       0.16525167 0.18022753 -0.30930585 0.048604786
000130 0a 06 b4 3c 6a 1a 10 be 24 66 fa 3d 92 08 a0 be
       0.021975536 -0.14072576 0.12226513 -0.3125654
000140 37 a6 38 3e ed 36 81 3c 30 94 f4 bc c4 54 b0 bd
       0.18032156 0.015773261 -0.029855818 -0.08609918
000150 e1 2c 64 be 56 bc 93 bd 41 c2 80 be 56 d2 c0 3d
       -0.22282745 -0.072136566 -0.25148204 0.094151184
000160 1d 56 89 3e dc c5 de bd ea 72 88 be 60 cf a6 bd
       0.26823512 -0.108775824 -0.26650172 -0.081450224
000170 b6 2c 8a 3e b8 60 26 3e 75 5a 87 bd 67 98 6c 3c
       0.26987237 0.16247833 -0.0660905 0.014440632
000180 3a aa 5e 3b e5 c6 cf bd 52 2e 6b 3d 76 fa ad bd
       0.0033975975 -0.10145358 0.05741722 -0.08495037
000190 ab 2c fb 3d c8 a1 06 3e 6f bd 83 3e 49 17 b0 3d
       0.12264379 0.13147652 0.25730464 0.08598191
0001a0 7a 7f d6 be a3 1f 78 bd 7a 64 88 3d f8 9e 0d 3e
       -0.41894132 -0.060577046 0.066597894 0.13830173
0001b0 80 b0 93 be 93 3d 7d be 80 a7 bb be 0d 6e 60 bc
       -0.28845596 -0.2473052 -0.3665123 -0.013698113
0001c0 3f 10 27 3e 2a b9 03 be 6c 61 af be 81 6c 0f be
       0.16314791 -0.12863603 -0.34254014 -0.14006235
0001d0 cb df 14 be e7 7b 01 3e da 9e 4b bd 99 41 eb bd
       -0.14538495 0.12644921 -0.04971204 -0.11487121
0001e0 5f 42 65 bd 50 82 11 be 65 cf 99 3c 68 3e 25 3e
       -0.0559715 -0.14209867 0.018775651 0.16137087
0001f0 7e be 54 bd fc df 18 bc 98 5b b2 bd 71 34 90 be
       -0.05193948 -0.009330746 -0.08708876 -0.2816501
000200 4e 09 e8 bc 47 c0 2b 3c e4 bf 2d be c6 fc 38 bd
       -0.02832475 0.010482854 -0.16967732 -0.04516294
000210 ee 2b db 3d 82 dc 06 3e b5 23 a5 bc 03 6a 6f be
       0.10701738 0.13170055 -0.020158628 -0.23380284
000220 f6 cb 87 3e 5f db 70 3d bd a8 85 3d 3a 41 07 3c
       0.26522797 0.05880296 0.06526325 0.008255297
000230 ae 10 e9 3d c7 af b6 3e 69 60 89 be ee 03 8d be
       0.113801345 0.35680982 -0.26831368 -0.2754206
000240 53 ed b2 3c 34 c9 03 bd 69 67 d8 bd d7 98 f0 3d
       0.02184168 -0.032174304 -0.10566599 0.11747902
000250 78 6b 1e be 7c 3b c3 3e 82 ce 71 3e d1 a8 41 3e
       -0.15470684 0.3813132 0.23613933 0.18912055
000260 73 9e b7 bc 19 5b b4 bd cb 9f d0 bd c0 78 62 be
       -0.022414422 -0.08806438 -0.10186728 -0.22116375
000270 bd 71 91 3a 8e 77 58 3d df 06 15 3e 3d da e8 3d
       0.0011096519 0.05284839 0.14553402 0.11369751
000280 be 81 ba bc 59 03 d1 bc 15 ce 6a 3d fa b7 8a 3d
       -0.022766944 -0.025514292 0.05732544 0.06773372
000290 8f f4 a5 bd 51 5b 2b be e6 a0 88 3e f8 5b 8b bd
       -0.081032865 -0.16734053 0.26685256 -0.06804651
0002a0 de af 9b 3e 7d 50 f0 3d b6 9e 10 be 4b 44 c0 bd
       0.30407614 0.11734102 -0.14123043 -0.09388026
0002b0 a1 51 3c be 89 91 fa 3d 5d 05 61 bd 5c 5f 70 be
       -0.18390514 0.1223479 -0.054936755 -0.23473877
0002c0 63 12 36 bd ee ca c2 be 49 fa ac 3d a6 68 cd 3c
       -0.04445113 -0.38045448 0.084461756 0.025074314
0002d0 da 29 f8 bd 1e 02 2c 3d 65 1f 8c 3d 5c 10 92 be
       -0.121173576 0.041994207 0.068419255 -0.28528106
0002e0 0b b9 8c 3e d5 0c a5 be 21 17 06 3e 8f c8 25 3e
       0.27484927 -0.32236353 0.1309476 0.16189788
0002f0 cd 71 b7 3d 63 15 6d 3c 90 83 83 3d 39 56 b5 3c
       0.08957253 0.014470431 0.06421578 0.02213584
000300 72 57 20 be 35 3f a1 bb 92 3d 47 3e f3 ae de 3d
       -0.15658358 -0.004920865 0.19457081 0.10873213
000310 03 4d 81 3e 8c 31 08 3f c1 12 2d 3e 70 a2 8d bc
       0.25254068 0.532006 0.16901685 -0.01728937
000320 89 f9 4a 3d 75 fd d9 3c 02 22 68 3e 35 e0 bc 3d
       0.04955438 0.026610116 0.22669223 0.092224516
000330 59 64 dc 3d 75 9c d2 bd d5 a7 5a be cf 7c 75 bc
       0.10761327 -0.10283748 -0.21353085 -0.01498337
000340 34 c6 5f bd 91 e5 d3 3d 2b 22 4a be 4a f1 2f 3d
       -0.05463238 0.10346521 -0.19739597 0.04295472
000350 ce 6f b7 bd 08 34 78 3e 7b d8 f4 3c 86 13 b7 3d
       -0.08956872 0.24238598 0.029888382 0.08939271
000360 09 a5 2d bc 2b fa 0a 3e 39 c6 75 3d 8d ed ce 3d
       -0.0105984295 0.13571994 0.060003493 0.10103903
000370 32 61 0c 3d 63 b7 42 bd 93 61 83 3d b1 b8 68 bd
       0.03427238 -0.047538172 0.06415095 -0.05681676
000380 86 1b 84 be 8d a9 5f bd b9 93 ab 3d e3 b4 e7 3d
       -0.2580225 -0.054605056 0.08377785 0.11313798
000390 aa 74 18 bd 5f 73 b2 bd 53 ce 36 bd 15 16 9d 3c
       -0.037220635 -0.087134115 -0.04463036 0.019175569
0003a0 c3 7f 13 3e 38 67 3e bb b0 32 e1 3a 53 d5 17 3d
       0.14404206 -0.0029053222 0.0017181244 0.037068676
0003b0 79 a7 9c 3e 6d 43 92 3c b0 8c 81 be 00 b2 89 bc
       0.30596521 0.017854417 -0.2530265 -0.01680851
0003c0 65 13 23 be c2 2d 39 be 9c 2a 2f 3e 4c 5a 0b 3e
       -0.15925367 -0.18083861 0.17106098 0.13608664
0003d0 15 ae d1 3d 8e c1 87 bd 98 63 32 3e d4 9c 9a be
       0.10238282 -0.066287145 0.17420805 -0.30197775
0003e0 42 c8 4e be e3 4e 42 bd 2b 7b 33 be e8 9e 13 be
       -0.2019358 -0.047438513 -0.17527454 -0.14416087
0003f0 b6 58 a9 3d 16 29 7b 3e ba c5 5c 3e 9a 62 92 be
       0.082688734 0.24527392 0.21559802 -0.28590852

bias f4 [64]
000000 5e 82 89 bc 8c 8e b4 3a 64 b3 2c 3c 1f 34 36 bb
       -0.016785797 0.0013775392 0.010540817 -0.0027802063
000010 07 12 51 3b d8 c0 a7 bb 99 c4 02 3d 73 9c c9 ba
       0.0031901614 -0.0051194243 0.03192577 -0.0015381709
000020 cd cd cb 3b 41 83 ec bb a6 da 25 3b 07 0c 14 bc
       0.0062196017 -0.007217795 0.0025307327 -0.009036071
000030 27 d2 6e 3b 48 d8 9a 3b 1a 16 f3 ba a2 d2 0a bc
       0.0036441179 0.0047254898 -0.0018546015 -0.00847307
000040 21 ee 68 3b b9 7c 2c 3c 29 ef 73 bc 98 59 66 3a
       0.0035542327 0.010527783 -0.014888563 0.0008787154
000050 bb ef b5 ba 82 85 79 bb 64 b7 2a 3b 7e 67 af bc
       -0.0013880649 -0.0038073962 0.002604925 -0.021411654
000060 ef 1a 48 3c ab 92 47 3c 7c 14 d2 bb 56 95 75 3b
       0.012213453 0.012180964 -0.0064111333 0.0037473044
000070 02 5f 68 3c d7 03 7d bc 17 30 44 bc bb 13 f2 3a
       0.014182808 -0.01544281 -0.011974356 0.0018469015
000080 b0 e7 3f 3c bb 4c be 3a c5 4b e7 3b a4 2e a6 bb
       0.011712953 0.0014518717 0.007058593 -0.005071478
000090 1b fd c3 ba 38 e7 2b 3a 6b b2 02 3c 21 e4 d8 bb
       -0.0014952751 0.00065575866 0.0079771085 -0.006618992
0000a0 eb 25 73 bb 15 0d 41 3a 53 24 c2 ba 03 4e 93 3a
       -0.0037101458 0.0007364315 -0.0014811851 0.0011238459
0000b0 bd 4f ad 3b 08 dd b9 bb 4d eb 88 3a 33 02 22 38
       0.0052890466 -0.005672101 0.0010446102 3.8625858e-05
0000c0 d7 67 43 3b 94 7a ae 3c 80 c9 43 37 d9 6e 2c 3c
       0.0029816532 0.021298684 1.1669821e-05 0.010524475
0000d0 ee 7b 86 bc fd 38 e3 3b 17 da a6 3b 22 80 a7 bc
       -0.016416516 0.0069342838 0.0050919163 -0.02044684
0000e0 dc 65 25 bc 1c a2 1c bb 74 d0 0d 3d be 80 1e 3b
       -0.010095086 -0.0023900336 0.034622625 0.0024185623
0000f0 e9 3f e5 3b ca 60 df 3b 90 aa 0f bd c7 fb 70 bb
       0.006996144 0.006816958 -0.03507477 -0.0036771165

weight f4 [64, 64]
000000 da 88 0d 3e 4e 97 c4 3c 93 c6 83 bd 77 b5 1c 3e
       0.13821736 0.023997929 -0.064343594 0.15303598
000010 02 b9 66 be 1f 5d 35 bd 94 ef 09 3e d3 4b c9 3d
       -0.22531512 -0.04427826 0.13470298 0.098289154
000020 55 b6 13 be a6 c1 36 3e c6 21 80 bd 7b 99 bb bc
       -0.14425023 0.17847309 -0.06256442 -0.022900334
000030 47 9f 1e 3d bf 12 0c 3e 47 0b 0a bc 22 b1 9e bd
       0.038726117 0.13679026 -0.00842554 -0.07748629
000040 97 b3 b1 3d 02 cc 40 bd 3e 5b 44 3d ac 57 da 3d
       0.08676832 -0.047069557 0.047938578 0.10661253
000050 de 1e 17 be e5 ca 39 be 64 18 05 bd 09 bc bc 3d
       -0.14757869 -0.18143804 -0.032493964 0.09215552
000060 e5 11 d1 bd 00 23 90 3d bd 59 ad 3a e4 69 5a 3e
       -0.10208491 0.07037926 0.0013225597 0.21329457
000070 69 bb a1 3d 3d 54 08 be 52 a0 a1 bc d4 fa 94 be
       0.07897074 -0.13313384 -0.019729767 -0.29097617
000080 10 ad 6a 3d 7c 6f e4 3d 25 50 17 bd 65 19 90 bd
       0.05729395 0.111540765 -0.036941666 -0.070360936
000090 b4 c5 b0 be 09 f3 81 3d 9b 0f 01 3e 37 0e 32 3e
       -0.34525836 0.063451834 0.1260361 0.17388235
0000a0 26 34 53 3d 45 c0 81 3d 43 56 28 be a3 1d 5c 3e
       0.051563405 0.06335501 -0.16439156 0.2149568
0000b0 e0 39 ed bd 6f 8e 20 be d9 77 a9 bc 15 f4 a9 39
       -0.115833044 -0.15679334 -0.02068703 0.00032416047
0000c0 2a 42 bb 3d 26 1b 31 be db 83 b2 bd dc 06 fe 3d
       0.09143479 -0.17295513 -0.08716556 0.12403652
0000d0 7c 00 8a 3d 58 41 e8 3d 5a dc 9b bd fa a7 b5 bd
       0.06738374 0.11340588 -0.07610388 -0.088699296
0000e0 f7 40 7f 3d 52 09 e7 bd ac 0d 66 3c b3 9e 40 bd
       0.062317815 -0.112810746 0.014041346 -0.047026347
0000f0 5c 65 16 be b8 fd 12 3e 03 46 49 3c dd 8d a4 bd
       -0.14687103 0.14354599 0.0122847585 -0.08034871
000100 4b 47 0c 3e fc b6 e1 bc b8 4a 64 3d eb 40 15 3d
       0.13699071 -0.027553074 0.05573532 0.036438864
000110 4a 72 f9 bc ee ca ef bd 80 20 ea bc 08 47 5a bd
       -0.030450005 -0.11708628 -0.02857995 -0.053290397
000120 fe 09 6f 3d 5c 57 0b 3e 17 92 d3 bc 36 af 4e be
       0.05835914 0.13607544 -0.025826497 -0.20184025
000130 0a 2d cb bc ea 2b e5 39 8e dd ec 3b 89 4b 0a bd
       -0.02480175 0.00043711002 0.00722856 -0.033763442
000140 af ec 60 3e 1f 1c 80 bc c0 04 e1 bd d0 fc 54 bc
       0.21965288 -0.01563841 -0.10987234 -0.012999728
000150 b0 00 c3 3d 6f d2 dd 3c 02 4d 74 bd 05 68 d8 ba
       0.095216155 0.027077882 -0.059643753 -0.0016510492
000160 8e 9a 95 3d 55 73 2f be b0 29 81 bd 6e 08 37 3d
       0.073048696 -0.1713384 -0.063067794 0.044685774
000170 97 a0 07 be 05 0b 14 bc 2e 06 d4 3d 4a 3d 85 bd
       -0.13244854 -0.00903583 0.10352741 -0.065058306
000180 f1 67 ea bd a9 0a a0 bd 25 00 b3 3e d1 cc a6 3d
       -0.114456065 -0.07814533 0.34961048 0.081445344
000190 e6 58 d2 3d a9 bd 2b bd 95 6a e2 3c 3b 72 d1 bd
       0.10270862 -0.04192892 0.027638713 -0.10226866
0001a0 9d 7f 6a bd 8a 64 b6 3d 40 5c 91 3e 83 bb fe 3d
       -0.057250608 0.08905895 0.28390694 0.12438109
0001b0 b8 5f 2d 3e 0d 71 46 be 7d c3 52 bd e4 38 ef 3d
       0.16931045 -0.19379063 -0.051455963 0.11680773
0001c0 d3 fe 18 bc b8 0a 0c be e3 d0 14 3e bc 43 3a 3d
       -0.009338099 -0.13675964 0.14532809 0.045474753
0001d0 31 63 5b be 3c c6 20 3e d1 8c 9f 3d 96 3b c4 bd
       -0.21424557 0.1570062 0.077905305 -0.095816776
0001e0 d5 13 5e 3e c8 10 05 3d a5 a9 4f 3e 10 90 3e bd
       0.21687253 0.032486707 0.20279558 -0.046524107
0001f0 c0 03 12 be 3e cc 91 bc 45 29 f7 bd 25 02 9f 3d
       -0.14259243 -0.017797586 -0.120684184 0.07764081
000200 83 21 30 be 1f 4d 25 be d2 02 a0 be 33 8d 0d bd
       -0.17200284 -0.161427 -0.31252152 -0.034558486
000210 ef 80 65 bd 8f c4 03 be 1d c2 66 be dd f2 05 3d
       -0.056031164 -0.1286795 -0.22534986 0.032702316
000220 aa d0 0d bd 26 a1 0b be 29 c5 8a 3d 6c 79 37 3e
       -0.034622826 -0.13635692 0.067758866 0.17917413
000230 66 4c 30 3d a3 14 fd bd 11 5b b6 bd 92 0c 63 3d
       0.04304161 -0.12357452 -0.08904088 0.05543191
000240 4b e8 9b bc 30 ba 2d be 1c 76 fb bd 84 a3 4e bc
       -0.019031664 -0.16965556 -0.12278387 -0.012612227
000250 f0 15 12 be b6 0c 45 bd 29 7e 9d be 51 0f 84 3e
       -0.14266181 -0.048107825 -0.30760315 0.25792935
000260 c6 88 a9 3d 41 94 ed bd 56 a2 d1 3d 59 ab f0 bd
       0.082780406 -0.11600543 0.10236041 -0.11751432
000270 97 b3 5f 3c c9 96 48 3e 0b 6a 04 be 1d 61 f5 39
       0.013653657 0.1958877 -0.12931077 0.00046802397
000280 a4 6d 80 3e 42 15 44 bd 37 93 a1 bd e1 5a 25 3e
       0.2508365 -0.047871836 -0.07889407 0.16147949
000290 01 20 71 bd 81 49 af 3d 9a 6c 10 3e e6 57 03 be
       -0.058868412 0.08558942 0.14103928 -0.128265
0002a0 77 d8 1d 3e eb 36 9a 3c 85 b1 2c bc a8 68 47 3c
       0.15414606 0.018825015 -0.010540371 0.012170948
0002b0 33 ea c1 3c 2f 60 88 bc 3b 55 07 3d 39 d0 02 3e
       0.023671245 -0.016647426 0.033040266 0.12774743
0002c0 45 c7 08 be 9f 70 ee bd 5b a0 ac 3d f5 65 95 bd
       -0.13357265 -0.116425745 0.08429023 -0.072948374
0002d0 d1 eb 29 3e b9 aa 3a be fb 50 67 be dc 74 ef bd
       0.16593863 -0.18229188 -0.22589485 -0.11692211
0002e0 21 7b bb 3d 36 85 ef bd fc 01 4a be 45 16 a3 bc
       0.09154344 -0.1169533 -0.1972732 -0.01990808
0002f0 d1 ec 11 3b df 81 b9 3d 9b d0 00 3e 7e 17 93 3b
       0.0022266398 0.09057974 0.12579577 0.0044888845
000300 4d 09 82 bd 04 63 a1 bc 5b d2 a7 bd 1d df 3c bc
       -0.0634943 -0.019700535 -0.08194419 -0.011527804
000310 49 12 e9 bc e5 ee 18 3d 06 74 2e be cb ca 83 3b
       -0.028451102 0.037337203 -0.17036447 0.0040219775
000320 30 97 5c be 09 c4 a9 bd 32 f7 84 3d 4a d6 53 3e
       -0.21542048 -0.08289344 0.06492461 0.20687214
000330 81 b8 7a 3e ab 1a da bd 67 08 16 be 40 ce ac 3d
       0.24484445 -0.10649618 -0.14651643 0.084377766
000340 7e 64 c3 3d 0d 5e 68 bd 92 f9 08 3c 9d 5f 03 be
       0.09540652 -0.05673032 0.008360283 -0.12829442
000350 5a 69 b9 bd 81 f9 62 be b9 ab bf bd 25 e9 55 be
       -0.09053297 -0.2216549 -0.09358925 -0.20889719
000360 15 6f bc bd c9 4d 22 3e 58 92 4f bd 69 52 ad bd
       -0.09200875 0.15849985 -0.050676674 -0.08462984
000370 48 92 99 bc 72 f0 fa bd 92 27 fd bd 2e 85 22 be
       -0.01874651 -0.122528926 -0.12361063 -0.15871117
000380 b5 c5 ae 3d ed ad f6 bd ef c4 0c 3c 2e 8f 7d be
       0.085338034 -0.120448925 0.0085918745 -0.2476165
000390 5e 47 1f 3d 97 3d 06 bc bc ef ff bc 00 46 4f be
       0.03888642 -0.008193395 -0.031242244 -0.20241547
0003a0 76 b9 e6 3d 4c aa 37 3d 31 63 83 bd 35 2d 7c bc
       0.112658426 0.044840142 -0.06415404 -0.015391638
0003b0 12 39 2a 3e 0e 8a 97 be 1e d9 8b bd a0 8c 6e be
       0.16623333 -0.29597515 -0.06828521 -0.23295832
0003c0 3e b5 94 3b f0 5f b7 bc 20 40 ea bc 02 64 da bd
       0.0045382073 -0.022384614 -0.02859503 -0.10663606
0003d0 27 24 9e 3d d5 01 8d bd b3 02 dc bd 3d 87 5e bd
       0.07721739 -0.06885115 -0.10742702 -0.054328192
0003e0 86 05 bb 3d 37 c8 15 3e 82 2f 0b 3d 8e cc ee 3c
       0.09131913 0.14627157 0.033980854 0.029150274
0003f0 1d 04 42 3e 87 95 89 3c a9 8d 05 3e 0a 97 2b 3d
       0.18946882 0.016794933 0.1304232 0.04189209

bias f4 [64]
000000 fe ad 5a 3c 44 d7 08 bb 36 b2 5c bc 54 0b 50 3b
       0.013347147 -0.0020880261 -0.013470223 0.0031745033
000010 be 73 0d bc c4 09 4e b8 ab ba c8 3a 53 ed 48 bb
       -0.008633552 -4.9123322e-05 0.001531442 -0.0030659034
000020 51 74 36 3b 0d 3a ae bb b6 d9 26 bc d9 1a e7 bb
       0.0027840326 -0.005316979 -0.010183742 -0.007052761
000030 8e 41 37 ba 8d 56 36 bc 9b dc 9c bb 8a bd ea 3a
       -0.00069906644 -0.011129034 -0.0047870404 0.001790927
000040 6a e7 4b 3b d8 9c 3e 3a d8 f3 6c 3c 52 d1 be 3b
       0.0031113275 0.00072712963 0.014462434 0.005823293
000050 92 48 15 ba ed f6 80 bb 76 e6 97 b9 b9 70 c5 bb
       -0.0005694713 -0.003935686 -0.0002897267 -0.0060254005
000060 a3 db 1c bc 76 29 c3 ba 5f e2 09 3c a6 28 02 3c
       -0.00957385 -0.0014889676 0.0084157875 0.007944262
000070 b7 1c d7 3b 32 7d d6 3a ce 71 8c 3b ca af 15 bc
       0.0065647024 0.0016364215 0.0042860275 -0.00913615
000080 c3 05 11 3b 51 5e 89 39 9e ab 75 bc 19 5f b9 3b
       0.0022128678 0.00026200947 -0.01499453 0.0056570885
000090 f8 33 c4 b9 95 f2 12 3b 72 d3 f8 bb c1 67 1c bb
       -0.00037422753 0.0022422422 -0.0075935656 -0.0023865553
0000a0 ad e2 2a 3b c3 7e 2b 3b 3a 0f 8f 3b 37 86 a0 3c
       0.002607505 0.0026168085 0.004365829 0.019595249
0000b0 7f f9 13 3c 4b 77 dd 3a 84 c4 ef 39 2b df bf b9
       0.0090316525 0.0016896514 0.00045732048 -0.00036596632
0000c0 72 c4 5d 3a dd 53 86 ba ec ee 24 bc be e6 f9 bb
       0.00084597536 -0.0010248382 -0.010066729 -0.0076263836
0000d0 31 65 9a 3a 75 17 26 bc df 2e f4 ba 0d 72 51 ba
       0.0011779425 -0.0101374285 -0.0018629691 -0.0007989712
0000e0 a2 ef 78 39 df a5 b6 39 20 e0 8a 3b de a8 11 3b
       0.00023740393 0.0003483733 0.0042381436 0.0022225897
0000f0 bf 5c 94 bb d5 61 0f bb ca fc f0 ba 10 e8 36 3c
       -0.0045276578 -0.002187838 -0.0018385884 0.011163726

weight f4 [1, 64]
000000 51 bd 9a 3d ba f3 06 3e 6d 74 79 bc 51 4f 9c 3d
       0.075556405 0.13178912 -0.015225512 0.07632316
000010 73 78 8f be ed 0c a7 3d a8 1c 95 bd 3c 8e 57 be
       -0.28021583 0.08156762 -0.07280856 -0.21050352
000020 46 5b 41 3e 22 c6 06 3d 5d f4 e1 3b 8c ae 94 be
       0.18882474 0.032903798 0.0068955855 -0.2903942
000030 bf b5 03 bd 15 16 ad bc f7 67 93 3e 55 08 65 3e
       -0.03215575 -0.021128694 0.28790256 0.2236646
000040 44 83 96 be b6 6c 47 3e de 7e 12 3e 9f f3 cb bc
       -0.29397023 0.19475064 0.14306208 -0.024896441
000050 80 ff e0 3d b2 d2 ef bd fd a6 96 be 66 d1 b0 3e
       0.10986233 -0.11710109 -0.29424277 0.34534758
000060 a1 2e b7 be 1a 6b 8a bd 91 6c 07 3d ae 03 2f be
       -0.35777763 -0.06758709 0.03306252 -0.17091247
000070 25 bc 13 be 1b 83 38 3e 3c da bf 3e 4a b0 aa 3d
       -0.1442724 0.18018763 0.37471187 0.08334406
000080 84 26 cb bd 08 72 60 3d 82 32 10 3d 4f f5 8e bd
       -0.09919456 0.05479625 0.035204418 -0.06980383
000090 a1 2f 1b 3e 36 eb c5 3c 85 be ca 3d 45 08 9e be
       0.15154888 0.024160009 0.0989962 -0.30865684
0000a0 6c d9 9f be 8a 5d d6 bc 46 87 6e be b6 29 bb bc
       -0.31220567 -0.02616765 -0.2329379 -0.022847038
0000b0 04 9c 0e 3e 52 91 bc ba 59 2a 98 be c2 60 88 be
       0.13926703 -0.001438657 -0.2971981 -0.2663632
0000c0 8b 34 5f 3e a2 bc 4b bd da 13 3d bd c7 5a 04 3e
       0.21797387 -0.04974044 -0.04616151 0.12925254
0000d0 34 e0 69 be 52 33 91 bc c1 ae a3 3e b7 64 28 3e
       -0.22839433 -0.017724667 0.31969264 0.1644467
0000e0 a3 0b 4e bd 44 27 84 be 2f 04 45 bd 2a bc ab be
       -0.050304066 -0.25811207 -0.048099693 -0.33541995
0000f0 8f a0 9b bd 4d b5 98 bd 94 9c 77 be eb 74 07 3e
       -0.075989835 -0.074564554 -0.24180824 0.13228194

weight f4 [1, 64]
000000 72 a2 11 3e 7a e2 36 3e a6 46 9f bd fc 85 9e be
       0.14222124 0.17859831 -0.07777147 -0.30961597
000010 fa fa db 3d 9e dc a8 bc 73 2c b4 bd 47 57 16 be
       0.10741229 -0.020613011 -0.087975405 -0.14681731
000020 22 bf 58 be 79 f8 2a 3e 01 93 ad 3d 0d 7a 81 3e
       -0.21166661 0.16696347 0.084753044 0.2528843
000030 00 cf 3a be e0 be b0 3d 27 cf 39 bb 75 81 4c be
       -0.18243027 0.086301565 -0.0028352232 -0.19971259
000040 59 5a 01 be f5 13 3b be ad af d1 be 7d 88 15 be
       -0.12632121 -0.18269332 -0.40954342 -0.14602847
000050 27 60 27 bd 4e a5 7b bd b3 c9 64 bd b1 df 15 be
       -0.040863182 -0.061436944 -0.055856418 -0.14636113
000060 68 01 1b 3f 64 3c bf bd aa 48 e3 bc d5 59 bb be
       0.6054902 -0.093376905 -0.02774461 -0.36591974
000070 65 2a 34 be 36 99 06 3e d1 3a 1a 3e 51 84 cb 3e
       -0.17594297 0.13144383 0.15061499 0.39749387
000080 9a e0 9d bd 82 7f 85 3d af b9 13 3e 1d 50 46 bd
       -0.07708855 0.06518461 0.14426301 -0.048416246
000090 f9 a2 0f 3c 90 ca 5c 3b 22 41 99 3d b4 a1 a4 3d
       0.008766883 0.0033690073 0.07483126 0.08038655
0000a0 ba d0 18 be 51 b2 9a bc 5c 46 8a 3d fa bb 6f 3d
       -0.14923373 -0.018883856 0.06751701 0.058528878
0000b0 e7 86 08 bd bb a3 b8 bc a3 ce 6c 3d 6f 1c b4 3b
       -0.033331778 -0.02253901 0.05781425 0.0054965536
0000c0 69 87 46 bd 80 f1 a6 3d ad 30 d7 bd fc 80 0b 3e
       -0.04846898 0.08151531 -0.10507331 0.13623422
0000d0 2e 3e 02 bd 0f 81 be 3c 9d 3e 52 3d 1f d3 06 3f
       -0.03179758 0.0232549 0.051329244 0.52665895
0000e0 67 c3 33 3c c2 f2 2d 3c b0 79 7f be 1d 10 b5 3d
       0.0109718805 0.01061696 -0.24948764 0.08840964
0000f0 85 56 30 be 4f 93 fd 3d 22 54 04 3c 42 8c 2d be
       -0.17220505 0.123816125 0.008076699 -0.16948035
