ppo_algorithm/data/1/ppo_network.pt (torch_old, 35715 bytes, 10 tensors)

weight f4 [64, 5]
000000 e4 db da 3f 86 7d 47 3f bc b2 43 3e 23 65 b8 be
       1.7098355 0.7792591 0.1911115 -0.3601466
000010 77 73 4f bd d9 5e 04 40 64 af e4 3f ef e2 06 3f
       -0.050647225 2.068289 1.7866025 0.52690023
000020 ce bc 81 bd d2 7b 1a be 24 aa d4 3f 3c 25 ba 3f
       -0.0633484 -0.15086296 1.6614423 1.4542613
000030 52 e7 e4 3e 1c d3 b3 be 66 ed 0e be d8 93 49 bf
       0.44707733 -0.35122 -0.13957748 -0.78741217
000040 0d 3f e8 be c2 cc fd bd 8b d4 ed bd 7e e7 4c 3e
       -0.45360604 -0.1239257 -0.11612805 0.20010182
000050 c6 f6 16 40 42 7e fe 3f 90 72 15 3f c0 ba bd bf
       2.3588119 1.9882281 0.58377934 -1.4822617
000060 fb 36 6c 3f 42 00 d6 3e fd 9e ae 3e 5d 1e 57 3e
       0.92271394 0.41797072 0.34105673 0.21007676
000070 0d 89 1b bf 2d 4b 7b 3d 33 9f a9 3f 40 87 c6 3f
       -0.60756 0.06135099 1.3251709 1.5510025
000080 70 aa 33 3f 64 b3 62 bd 0c 1e 93 bd 97 f3 91 3f
       0.7018194 -0.05534686 -0.07183465 1.1402463
000090 2f 98 a8 3f aa b6 9a 3e 53 35 c3 3b 4d c3 59 bd
       1.3171443 0.30217487 0.0059572845 -0.05316477
0000a0 ee 81 88 3f 49 9a ce 3f 84 2f 2e 3f 39 a4 03 bf
       1.0664651 1.6140834 0.68041253 -0.5142246
0000b0 68 fb 12 be 3b c2 3f 3f 01 b8 3e 3f e6 c9 25 3f
       -0.14353716 0.7490575 0.7449952 0.647612
0000c0 64 b9 77 bf 5b 4e b3 bd 44 af d9 3e 7d bf c1 3e
       -0.9676726 -0.087551795 0.4251653 0.37841406
0000d0 d0 31 b3 3e 52 6d 2b bf 10 19 d9 3c 43 75 dd 3f
       0.3499894 -0.66963685 0.026501209 1.730141
0000e0 4f 6a ed 3f 29 f3 50 3f d6 9e 21 be eb fd 33 be
       1.8548068 0.8162103 -0.15783247 -0.17577331
0000f0 55 f2 70 3f 20 fc 56 3f cc 1f 0d 3f f3 e3 41 bf
       0.9411977 0.8397846 0.55126643 -0.7573845
000100 0d cf a8 bd b5 5a 16 bf 84 74 49 3e f8 11 2b bc
       -0.08242617 -0.5873216 0.19673353 -0.010441296
000110 39 56 c9 bd 08 45 1c 3e a7 2e c9 3f 65 3d b2 3f
       -0.09830899 0.15260708 1.5717362 1.3924986
000120 ca 80 ab 3e cb c4 97 3d 0a 65 70 bd 85 fd f5 3f
       0.33496696 0.07410582 -0.05869011 1.9217993
000130 50 39 68 3f ae 3f 33 3e 9b 90 55 be 42 64 7e bd
       0.9071245 0.1750476 -0.20855944 -0.062107332
000140 11 cd 86 3f 7e 88 cf 3f 0e 40 ab be 9f ad 38 bf
       1.0531331 1.6213529 -0.33447307 -0.72139925
000150 ab e0 78 3f 8c 27 b7 3f 6a aa e8 3f 01 1b 28 3f
       0.97217816 1.4308944 1.8177006 0.65666205
000160 3b ea 24 be e4 92 29 be ae 42 23 be 80 47 2b 3e
       -0.16104977 -0.1655994 -0.15943405 0.16726494
000170 6f 60 01 c0 55 ef bb be e9 61 96 bd d8 e5 cd 3f
       -2.0215108 -0.36706033 -0.07342894 1.6085768
000180 96 92 e5 3f 89 2d 8c 3e a6 73 73 bf 14 57 b6 3e
       1.793536 0.2737849 -0.9509834 0.3561331
000190 f5 af 09 40 54 41 ba 3f 62 7e dc 3e b2 cd b4 be
       2.1513646 1.4551187 0.43065172 -0.35313183
0001a0 57 cf 00 be 1c 85 04 3f 28 52 ef 3f c6 d9 cc 3f
       -0.12579094 0.5176561 1.8696947 1.6003959
0001b0 1f 50 af 3c 2f aa e9 bd f7 1e f9 3f 85 04 4c 3f
       0.02140051 -0.11409413 1.9462575 0.79694396
0001c0 fe 64 17 3e 8c b7 a3 be 61 ef 82 bd c9 e3 95 3f
       0.14784619 -0.31975973 -0.06393314 1.171014
0001d0 c1 d1 8c 3f a7 1c f9 3e 29 7b 29 bf 5f 9b 7b bd
       1.1001512 0.48654673 -0.6620355 -0.06142747
0001e0 fc ac a4 3f 8f 27 73 3f 97 dd 30 3f 5e b7 87 bf
       1.2865291 0.94982237 0.6908812 -1.0602834
0001f0 c4 c8 e3 bd 21 c6 d7 bf 0f f3 f9 bf 16 42 78 bf
       -0.111222774 -1.6857339 -1.9527301 -0.9697584
000200 9e 24 f8 3e b8 5c fa be df e1 de be c1 3c 1a c0
       0.48465437 -0.48898864 -0.435317 -2.4099581
000210 22 78 f5 3f 8b 9d 88 3f 9c 8f 35 3e 3f 30 fa 3f
       1.9177287 1.0673078 0.17730564 1.9545974
000220 3b cb cb 3f 94 5f d3 3e 1b 1e c7 be 3c 9d 00 be
       1.5921396 0.41283858 -0.38890156 -0.1255998
000230 ae 85 c0 3e fd f3 24 3f c4 82 19 3f 66 f4 6d bf
       0.3760199 0.64434797 0.5996516 -0.9295105
000240 d3 2f 86 bd 5d 3b 32 3f 09 8f bb 3f 04 d8 14 3f
       -0.065520905 0.6962183 1.4653026 0.58142114
000250 d5 14 2c 3e e9 e1 3a bd fd ac e6 3f ee da d2 3f
       0.16804822 -0.0456256 1.8021542 1.6473062
000260 ca a1 ae 3e ab e2 98 be 06 f9 03 be a5 3e 28 40
       0.3410781 -0.29860434 -0.12887964 2.6288235
000270 51 1c c4 3f db 77 3d 3e 53 a0 b5 3d 1c 27 bb bd
       1.5321141 0.18502752 0.0886847 -0.09138319
000280 e6 c2 18 be 57 41 d2 ba 33 e8 fa 3d 7b 09 01 bf
       -0.14918098 -0.0016041201 0.1225132 -0.5040509
000290 94 7a f6 3d 5e 63 cb 3f 3d 02 83 3f 13 8e eb 3e
       0.12035099 1.58897 1.0235058 0.46006832
0002a0 1d 70 2e bf cf 37 b6 bd d9 aa f3 3f 26 59 e3 3f
       -0.6813982 -0.088973634 1.9036514 1.7761581
0002b0 c8 7f 34 3f af 11 23 be f1 37 24 be 5d 89 d1 3f
       0.7050748 -0.15924715 -0.16036965 1.6370045
0002c0 f3 9b 09 40 da 9d b8 bf 26 10 e5 be 1d e9 a6 bd
       2.1501434 -1.4423172 -0.44738883 -0.081499316
0002d0 a7 74 0f 40 c0 3a d9 3f ed 54 0d 3f 44 70 6a 3d
       2.241495 1.6971054 0.5520771 0.05723597
0002e0 93 a2 05 be e1 48 e7 bf 09 50 e9 bf d5 3c 85 be
       -0.13050298 -1.8069116 -1.822755 -0.26022974
0002f0 25 b3 1d 3f 6e dc 36 bf 2d 2e 14 c0 cb 75 08 c0
       0.6160148 -0.714301 -2.3153183 -2.1321895
000300 d4 a6 39 bf d1 f1 79 3f 09 f4 35 bf 10 d7 02 40
       -0.72520185 0.9763461 -0.71075493 2.0443764
000310 f4 14 f2 3f ff 8c 4f 3f a0 77 3a bf c0 b9 a3 3e
       1.8912644 0.8107452 -0.72838783 0.31977654
000320 a3 91 0e 40 c9 22 cc 3f c1 4e 02 3f 88 31 f5 be
       2.227639 1.5948116 0.5090142 -0.47889352
000330 b3 83 2b be dc f2 c7 3f 32 cd c5 3f 67 da 06 3f
       -0.16749458 1.562099 1.5453246 0.52677006
000340 5a bb 43 be b9 60 e8 bd 73 9c 53 3c a8 01 1a bf
       -0.19114438 -0.113465734 0.012915718 -0.6015878
000350 3e 28 dd bd f6 7f 22 bf a2 72 1a 3e ad 24 1b bf
       -0.10798691 -0.634765 0.15082791 -0.6060284
000360 b0 38 0e c0 fb 75 de bf 6a ba 17 3d 32 48 90 3e
       -2.22221 -1.7379755 0.037043013 0.2818008
000370 b4 c3 00 40 33 07 c1 3f 82 e8 8f 3e c2 d4 9f be
       2.0119448 1.5080322 0.28107077 -0.3121701
000380 d4 83 f9 bd 70 3d ef 3f 30 bf dd 3f 68 df 12 3f
       -0.12183347 1.8690624 1.7323971 0.5737214
000390 e6 b7 82 be 41 e1 21 3e f4 62 a1 3f 00 e8 71 3f
       -0.25530928 0.15808584 1.2608323 0.9449463
0003a0 fd 97 7a 3e 04 73 e8 bd 2e ab 0b bd 03 6a de bf
       0.24472041 -0.113500625 -0.034098797 -1.7376102
0003b0 7e fe ca bf 1a 02 64 bd f6 7e 96 3f 3b 8a ba bf
       -1.5858915 -0.055666067 1.1757495 -1.4573435
0003c0 4c fe db 3f 3c 61 b5 3f b5 89 0a 3f 5b b5 b3 be
       1.718698 1.4170299 0.54116374 -0.350993
0003d0 13 61 f7 bd 2c 23 e9 3f e3 94 bf 3f d5 7c 61 3e
       -0.12079062 1.8213859 1.4967312 0.22020276
0003e0 ae 16 cb bd 2b e1 9c bd b6 27 b9 3f b6 6c 9f 3f
       -0.09916435 -0.07660135 1.4465244 1.2455051
0003f0 3f 70 d0 3e 47 e4 2b be e0 7b 88 bd bf 7b 7a bf
       0.40710637 -0.167863 -0.06664252 -0.9784507

bias f4 [64]
000000 a9 9a f6 3c d5 7a 8e bd bb 79 9b 3e 62 2c 53 3e
       0.030103045 -0.06957022 0.3036631 0.206224
000010 23 3f e7 be 09 b9 4b 3e 33 83 14 be e5 56 e2 bc
       -0.45165357 0.19894804 -0.14503174 -0.027629325
000020 15 a2 cc bd 9a 7f 07 3e 3b 31 01 3e 51 e9 61 be
       -0.09991852 0.1323227 0.12616436 -0.2206166
000030 b1 c9 10 3e fa f6 df 3e 33 7f 22 bc 4d ff 4c 3d
       0.14139439 0.43743116 -0.009918022 0.05004816
000040 c4 e9 01 bf 89 f4 c6 3d 9e 7d b7 3e a1 62 96 be
       -0.50747323 0.0971461 0.35838026 -0.29372123
000050 77 4d 5f bd 74 9e 00 bf 3c bd 6e 3d a5 9d f9 bd
       -0.054517236 -0.5024178 0.058285937 -0.121882714
000060 8f b4 94 bd fe 74 89 3e 06 42 ee be d1 11 b9 bd
       -0.07261001 0.2684707 -0.46534747 -0.09036601
000070 02 65 55 3e 1b 99 fb bd b9 9d 62 3c 13 a4 d7 3c
       0.20839313 -0.12285062 0.013831549 0.026323354
000080 af 52 a1 3e b8 15 24 bb c9 0f bc bd 16 99 62 bb
       0.31508395 -0.002503736 -0.09182698 -0.003457611
000090 a0 b9 a5 bd 65 bb d4 3e 72 33 cd 3e 6c 1e 6d be
       -0.08092046 0.4154922 0.40078312 -0.23156136
0000a0 4b db 54 bc 2d a8 64 3d d6 d0 49 3e e5 9b e3 3e
       -0.012991737 0.055824447 0.19708571 0.44454876
0000b0 e0 87 91 3d 9e b2 ff bd 07 d4 6b 3c 95 e5 f8 3e
       0.07105994 -0.124852404 0.014393813 0.48612657
0000c0 38 31 b1 3c d5 41 36 bd f3 97 e9 bc d5 97 54 3f
       0.021629915 -0.044496376 -0.028514838 0.8304418
0000d0 dd 2c 00 bf 29 fc 0b be da 23 6b be 49 3f 8b be
       -0.50068456 -0.1367041 -0.22962895 -0.2719672
0000e0 34 ae a9 bc 25 98 a8 bd ba 74 37 be 65 45 80 bc
       -0.02071295 -0.08232144 -0.17915621 -0.01565809
0000f0 82 4f 2b 3d 28 90 8a 3e 45 b8 c7 3e 41 a9 ff 3d
       0.04182387 0.27063107 0.39007774 0.124834545

weight f4 [64]
000000 ef a9 bb bc 1c aa 96 3a 50 0b c1 3b fe af 23 3a
       -0.02290818 0.0011494788 0.005891241 0.00062441814
000010 48 d4 02 40 c1 2d cb bb 7b e2 31 3a 19 25 57 3c
       2.0442066 -0.0062005227 0.00067857624 0.013131403
000020 74 12 72 b9 cb f0 96 bb aa 58 81 3a ce 0f 6f 3b
       -0.00023085793 -0.0046063415 0.0009868343 0.0036477926
000030 d3 c7 f6 3b d4 66 61 bb 38 25 fc 39 5d 1b 7b bc
       0.007531145 -0.0034393566 0.00048092916 -0.015326348
000040 7b e2 d7 3f 9f 00 42 b9 18 7e 03 3f 86 e9 a1 3f
       1.6865991 -0.00018501513 0.5136428 1.2649391
000050 4b 18 c8 3b 41 92 5c 3f bc 18 6b bd 37 16 a6 bb
       0.0061064116 0.86160666 -0.057396635 -0.005068566
000060 5c 15 97 bb 0d f1 b6 3f 77 63 9f 3f b8 06 f6 3a
       -0.0046107005 1.4292313 1.2452229 0.0018770313
000070 15 38 3c 39 63 33 d5 bd c1 e2 45 ba 68 85 3e bb
       0.0001794997 -0.10410192 -0.00075487426 -0.0029071216
000080 78 53 39 ba d3 0b 7a 3c da 1d 19 3b 03 86 b2 3f
       -0.0007069628 0.015261608 0.002336374 1.3947147
000090 bc 75 49 bb e5 b2 b7 3f 19 f0 e9 3f 6a 4d c5 3f
       -0.0030740341 1.4351469 1.8276397 1.541425
0000a0 23 be 07 3c 7a a8 81 3b 26 86 a1 39 93 db 97 3f
       0.008285078 0.0039568515 0.0003080826 1.1863884
0000b0 34 cb d0 ba b2 55 9e 3f b5 20 a2 3c 51 bb 03 40
       -0.00159297 1.2369902 0.019790987 2.058308
0000c0 4b b2 dd 3a 1d e3 fd 3b 28 30 9c bb 1a 7c db 3f
       0.0016914097 0.0077480213 -0.004766483 1.7147248
0000d0 66 e3 e4 3f 33 a0 07 bc 74 5f bc 3c 37 1f 11 3f
       1.7881896 -0.008277941 0.022994734 0.56688255
0000e0 f2 40 b8 bd c2 bd fe 3a 2d b4 90 3b 85 ed 8d bd
       -0.08996762 0.0019435214 0.00441601 -0.06930069
0000f0 fe 14 6b bb ab 6f c6 3f 48 a3 23 bb f5 4d d6 3b
       -0.0035870667 1.5502828 -0.002496915 0.006540055

bias f4 [64]
000000 bb f9 87 ba 00 9c 22 3a 21 2f 0a 3a bb 39 b7 3a
       -0.0010374108 0.00062030554 0.0005271305 0.0013978997
000010 a1 61 bf be 63 f7 24 3a 5e a4 01 ba 72 15 3f 3a
       -0.37379172 0.0006292967 -0.0004945452 0.00072892674
000020 7e 6e 98 39 d7 dd e6 b9 cd 38 5f 39 9b 46 a1 3a
       0.00029074022 -0.00044034302 0.00021288097 0.0012304367
000030 b9 d5 e5 ba c3 e9 bd 39 f0 e9 94 39 da d0 a2 3e
       -0.0017535008 0.00036223055 0.00028403057 0.31799966
000040 a3 43 d9 be f3 f3 db 38 d6 16 0e 3f 7b 6b 49 be
       -0.42434415 0.00010488173 0.55503595 -0.19669907
000050 d8 94 a2 3a 2f 6b 4b bf fd e5 b4 3d ad 52 43 3a
       0.0012403978 -0.79460424 0.08832929 0.00074509793
000060 b5 26 cf b9 f2 1a 6c 3e 38 47 2e bf 13 9f 08 ba
       -0.00039510956 0.23057154 -0.6807742 -0.0005211692
000070 ad e5 a1 39 01 55 23 bc 5e 7e c8 b9 23 8e b9 3a
       0.00030879435 -0.009968997 -0.00038241124 0.001415674
000080 06 7f ae b9 ed 48 20 ba 43 8a a0 ba a9 ab 33 3e
       -0.00033282506 -0.00061143824 -0.0012248236 0.17545952
000090 59 da 40 39 8b 0a b2 3e 77 07 b5 3e 09 46 54 be
       0.00018391888 0.3477367 0.35357258 -0.20729841
0000a0 b3 2b 1b ba 19 a3 a8 ba e4 52 16 ba 83 fe 13 3f
       -0.00059192925 -0.001286599 -0.00057343976 0.5781023
0000b0 d0 b1 8e bb 9e 5f bd bd 03 d4 81 3a fa 53 cf 3e
       -0.004354693 -0.09246753 0.0009905103 0.40493757
0000c0 8c a2 6d 3a fe f9 c1 3a bf 2d 87 3a 4d 49 2a 3f
       0.0009065054 0.0014799235 0.0010313316 0.665181
0000d0 39 5f d4 be 69 a3 a3 39 05 3c a6 3a 79 c1 d6 be
       -0.414789 0.00031211533 0.0012682682 -0.41944483
0000e0 ce eb 47 be cf fa 56 39 af e2 95 3a c3 2c b4 be
       -0.19523546 0.00020502064 0.0011435355 -0.351904
0000f0 12 24 f3 39 ad f8 7d 3e a4 56 ab b9 09 ec 5b 3a
       0.00046375446 0.24801894 -0.00032680214 0.0008389359

weight f4 [64, 64]
000000 bc 8c 67 bd f7 37 04 3d 4f 25 10 3e 1b 3d 1e 3e
       -0.0565307 0.032279935 0.14076732 0.15452997
000010 5a 2e f3 bd 13 49 ee 3c fa d1 02 3b e1 4b a2 bc
       -0.11874075 0.029087579 0.0019961582 -0.019811573
000020 f9 86 d8 bc e5 9b 3c 3d 55 d9 97 bc 58 f6 3d ba
       -0.026431547 0.04604711 -0.01853625 -0.0007246486
000030 c1 46 75 3d 43 23 ca 3d c4 42 74 be 16 24 f6 3e
       0.05988193 0.09870007 -0.23853594 0.48074406
000040 64 6b 4b 3e c5 e2 29 bd 02 af 42 3f 14 28 49 be
       0.19865185 -0.04147603 0.7604829 -0.19644195
000050 50 d2 fa bd 9f 79 80 bf 84 a0 9b 3e 0b ef d6 3c
       -0.12247145 -1.0037116 0.303959 0.026237031
000060 4c 8b 45 be 88 cb ea 3e 54 98 59 bf b7 ff 25 3d
       -0.19291419 0.45858407 -0.8499806 0.04052707
000070 a0 ce 69 3e e6 ea db 3b 37 d6 44 be 1b 5a 04 be
       0.22832727 0.0067113517 -0.19222341 -0.12924998
000080 90 e4 0d 3d 57 86 28 3d 23 58 69 3d d9 01 12 3f
       0.034641802 0.04114374 0.05696882 0.5703407
000090 e4 af ea 3c 37 99 c6 3d 59 d0 ae 3e 62 cc e0 be
       0.028648324 0.09697192 0.34143332 -0.43905932
0000a0 9e d3 e9 3c a9 4d 52 3c 9d 14 53 3e 6d 7c 3c 3f
       0.02854329 0.012835898 0.20613332 0.7362736
0000b0 01 e7 59 bd e0 95 8e be 37 d4 16 be 6b 23 af be
       -0.053198818 -0.2784872 -0.14729391 -0.3420671
0000c0 90 4e c0 bd cb 96 08 3d dc bc 86 3e 3f 51 b0 be
       -0.093899846 0.033346932 0.26315963 -0.34436986
0000d0 da 73 96 3e 42 37 05 3d c9 30 41 3e ea 12 08 bf
       0.29385263 0.0325234 0.18866266 -0.5315386
0000e0 e0 eb 87 be 34 d1 fe 3d e3 63 be bd 7d 02 3f bf
       -0.26547146 0.12442246 -0.09296396 -0.7461317
0000f0 2d 85 af bd 62 19 21 3f 64 53 4d 3e 90 a6 6a be
       -0.08570323 0.62929356 0.20051342 -0.22915101
000100 18 a3 98 3d fa c8 d0 bd 16 9a 68 bc d7 df 33 bf
       0.07452983 -0.10194583 -0.014196893 -0.7026343
000110 ad ea 98 bf 20 a7 b4 be fe 1f a8 be 9c 87 6a bc
       -1.1946617 -0.35283756 -0.32836908 -0.014314558
000120 80 b4 02 be 45 6d 2d bd 90 7d 2b be 12 00 00 3e
       -0.12764168 -0.042340536 -0.16747117 0.12500027
000130 2b 13 af be 08 53 46 be 8d 3e 93 3e 07 0b 33 bf
       -0.34194311 -0.19367611 0.2875866 -0.699387
000140 59 a4 22 bf c4 44 58 3e 3a b1 20 bf d2 a5 33 3f
       -0.63532025 0.21119982 -0.62770426 0.70174897
000150 b4 2b 5e 3e 5b 81 4c 3f a4 97 6b bf 2a 6a 3f 3e
       0.21696359 0.7988488 -0.9202826 0.18692842
000160 d9 02 1a 3e 98 00 0a bf f2 f8 09 3f cb 8c 72 3e
       0.15040149 -0.53907156 0.53895485 0.23686521
000170 a1 df 82 be 78 d8 43 3f 62 1e 0c 3d 13 ba 10 3e
       -0.2556124 0.7650218 0.034208663 0.14133482
000180 d4 04 8f be cf 69 ea be e5 bd ab 3d 3f 05 2e bf
       -0.2793337 -0.4578385 0.08385829 -0.67976755
000190 e7 78 b3 3e 02 5b a0 3c 81 73 db 3e 6d f0 47 3f
       0.3505318 0.019574646 0.4286156 0.78101236
0001a0 ef 2c 49 3e b1 3e b0 3e a2 96 ac be 47 08 ea be
       0.19646047 0.3442283 -0.33708674 -0.4570944
0001b0 8b 9e ec bd db 05 80 3f a5 b7 68 bd 13 1f a7 3f
       -0.11553677 1.0001787 -0.056815762 1.3056358
0001c0 fc 85 2c 3f 1b cd 84 3e 52 14 32 be 9b 44 3a bf
       0.67391944 0.25937733 -0.17390564 -0.72760934
0001d0 e7 f5 1c bf 08 c5 74 bd 56 51 c2 3e bf 26 42 3f
       -0.6131272 -0.059758216 0.3795268 0.7584037
0001e0 42 3c 41 3f fc bc 1c 3e a6 86 45 bc c6 5c 2e 3f
       0.7548257 0.15306467 -0.0120560285 0.6811031
0001f0 b0 9a ab 3d 01 96 7f be c7 cd 10 be 02 fe 6d be
       0.08379114 -0.24959566 -0.14140998 -0.23241428
000200 bb 35 02 be 34 bb 1a be 79 c0 65 bd bc e4 b3 be
       -0.12715809 -0.15110475 -0.05609176 -0.35135448
000210 a5 fb 32 bf fc 7d e8 be 29 74 51 3e 21 cc 0f 3e
       -0.6991523 -0.45408618 0.20454468 0.14042713
000220 4b a6 91 be 10 ff 72 be 11 6e 3d be 58 87 a9 3d
       -0.28447184 -0.23730111 -0.18499018 0.08277768
000230 b9 69 99 be 13 6f f4 bd c0 2a 49 3e 67 a8 64 be
       -0.29963472 -0.11935248 0.19645214 -0.22329865
000240 f0 28 f3 3d 3e 14 86 3e 5f c5 31 3e 9c 0d 88 3e
       0.118730426 0.2618732 0.17360447 0.26572883
000250 cb 66 b9 3d 22 e9 8d be f2 92 57 be 55 e0 b7 bd
       0.09052809 -0.2771693 -0.21052149 -0.08978335
000260 33 7a ff 3d b1 47 94 3c e8 3a 83 3e 6c a5 18 3e
       0.124744795 0.018100591 0.2563088 0.14906853
000270 6d b6 8e be 35 8a 97 3e f0 8b 71 3e 2f fc c1 3e
       -0.27873555 0.2959763 0.23588538 0.37887713
000280 0b b2 d1 be 96 6d 92 bd 08 fb dd 3e 84 aa 95 3e
       -0.40956149 -0.07149808 0.43355584 0.29231656
000290 dc 35 13 3d bc 66 c3 3d bf 79 0e 3f 01 d3 cf 3b
       0.035940036 0.095410794 0.5565452 0.0063422923
0002a0 f4 10 41 3d dc a5 51 3e d6 cb a8 be 78 4a 9c bd
       0.04713531 0.20473427 -0.32968014 -0.07631391
0002b0 48 9c 5b be db f5 ef 3e 09 2a a5 3e 7a 12 22 3f
       -0.21446335 0.4686726 0.32258633 0.63309443
0002c0 22 fc 9f 3e b6 ad 99 3e 5e 18 2c 3e 0b 89 cf be
       0.3124705 0.30015343 0.1680617 -0.40534243
0002d0 36 38 3c be f2 00 4b 3e 4d 9f 2f 3e 66 26 97 bd
       -0.18380818 0.1982458 0.17150612 -0.07380371
0002e0 9a 35 86 3e 76 b2 2c 3e 2f db a1 3c 46 63 9f bd
       0.2621277 0.16864952 0.019757835 -0.07782607
0002f0 64 8a ef 3d 4d 68 32 3c 69 85 8d be c0 67 91 3e
       0.11696318 0.010889125 -0.27640846 0.28399467
000300 df ae b3 be 6a 58 b2 3e c2 8c 39 3d 00 b0 1a be
       -0.35094354 0.3483308 0.045300253 -0.15106201
000310 86 7a ae bd 59 35 99 be 7d d4 29 3d 62 0f ab 3e
       -0.08519463 -0.29923514 0.04146241 0.33410174
000320 cc c8 0e bd 64 dc 90 be ee 49 9a 3d a3 db 09 3d
       -0.034859464 -0.28293145 0.07533632 0.033656728
000330 3e d7 c1 bd 42 fb 40 be ee ec d1 3d 4f 98 86 bf
       -0.09464882 -0.18845847 0.10250269 -1.0515231
000340 e1 34 11 bf a6 9f 07 3e 80 c3 b0 bf 54 57 e8 3d
       -0.5672131 0.13244495 -1.3809662 0.113447815
000350 af 0a 6f 3d 76 84 bf 3f 80 32 67 bf 23 f1 a6 3b
       0.058359798 1.4962299 -0.9031143 0.0050946637
000360 9f c4 b4 bc a3 11 bb bd bb f4 98 3f 0e 41 d4 bd
       -0.022066412 -0.09134223 1.1949686 -0.10363971
000370 16 28 3f be 29 52 f1 3e f0 12 3e be 9d f4 56 3e
       -0.18667635 0.47132996 -0.18561912 0.2099175
000380 4e 06 a2 bc c4 25 09 be 2e cb 53 bc 51 80 81 bf
       -0.019778397 -0.13393313 -0.01292686 -1.0117284
000390 36 72 ce 3d f5 1a 45 bd 1a f3 54 3d a5 86 d5 3e
       0.10080378 -0.04812141 0.051989652 0.41704288
0003a0 6f 9f 82 be fd dc 00 3c ac a4 15 3c 23 f1 a6 bf
       -0.25512263 0.007865188 0.009133499 -1.3042339
0003b0 21 90 a1 be e5 38 5a bd 0a 3a 56 3e 5b ef 3d 3e
       -0.31555274 -0.053276915 0.20920578 0.18548338
0003c0 61 f5 8a 3e 93 e9 3c be a4 1f a7 3d af a2 93 be
       0.27140334 -0.18448476 0.08160332 -0.28835055
0003d0 c2 37 aa be 7a fb cb 3e f8 16 15 3e 3c e1 67 3f
       -0.33245665 0.398403 0.14559543 0.90578055
0003e0 c3 83 48 3f 44 5e 37 3e 0d aa 38 be 3a 85 68 3f
       0.7832605 0.17907053 -0.18033619 0.9082829
0003f0 69 1b ac 3e bf d4 bc be 57 2b 46 bd b2 e5 6d 3e
       0.33614662 -0.36881062 -0.048381176 0.23232153

bias f4 [64]
000000 88 c9 83 3f 31 92 15 bf a8 61 e7 3d a8 3a b7 bf
       1.0295877 -0.58426195 0.11297923 -1.4314775
000010 fe 37 98 be 42 19 07 bb 2f 8a b6 3f 12 9c ba bd
       -0.2973022 -0.002061442 1.426092 -0.09111799
000020 3e 38 04 40 cb fe 9f be e7 da c3 be 75 6d 04 40
       2.0659328 -0.3124908 -0.38252947 2.0691807
000030 48 6f ff be bd bd 75 bf ab ab a4 bf 2d 9c 94 3f
       -0.49889588 -0.9599264 -1.2864889 1.1610161
000040 40 cc 38 bf 5d 48 3f bf e6 33 2b 3f 79 80 02 bf
       -0.7218666 -0.7471979 0.66876066 -0.50977284
000050 3d e5 93 be af 2b d7 be 71 7e 36 3f ce 16 34 3f
       -0.28885832 -0.42025515 0.71286684 0.703473
000060 9f 4e 5d 3e f4 86 63 3f ff fb a1 3f 02 79 4e bf
       0.21612023 0.888778 1.2655028 -0.80653393
000070 0a a4 a3 be 2c fb 07 40 7c d2 97 3e 43 fa 04 40
       -0.3196109 2.1247053 0.29652774 2.0777748
000080 e6 cf 1d bd 8b 22 94 be 0e bb 4a be cd 01 0a 3c
       -0.038528346 -0.28932604 -0.19797918 0.008423281
000090 dc b8 71 be 32 21 13 c0 f6 19 d3 3d fb d5 e3 be
       -0.23605675 -2.298901 0.10307686 -0.44499192
0000a0 02 e8 77 bf da 49 ec bd ff a6 b9 3d 2a bc a4 3e
       -0.9683839 -0.115375236 0.09065055 0.32174808
0000b0 79 a8 bb be 0b 39 e6 3e 4b 5e e7 3e df fe 87 bf
       -0.36651972 0.44965395 0.45189127 -1.0624655
0000c0 91 b7 83 be 13 cd 8a bf b0 2f f5 3d cc d0 99 3d
       -0.25725988 -1.0843834 0.11971986 0.07510528
0000d0 84 68 3b bd 61 42 39 be 84 09 2f be 84 34 30 be
       -0.04575397 -0.18091728 -0.17093474 -0.17207533
0000e0 9a 8d f6 bd fb 97 c9 3c c8 54 6f bf 11 e6 08 40
       -0.12038727 0.024608603 -0.9348874 2.1390421
0000f0 1d 7e 30 bf 3f 54 1d be 08 73 6e bf 6f b4 c6 3f
       -0.68942434 -0.15364169 -0.93144274 1.5523814

weight f4 [64]
000000 c8 b5 4e 3f 62 90 f7 3a f4 9e 04 3a 3a 84 a1 3f
       0.80746126 0.0018887634 0.0005059086 1.2618477
000010 31 7c 2d b9 72 79 ba 3f 60 17 94 3f c8 fd b0 3f
       -0.0001654483 1.4568312 1.1569633 1.3827448
000020 c2 3d dc 3f 38 e0 9d 3d 98 13 53 3b 5c e8 da 3f
       1.7206347 0.07708782 0.0032207724 1.710216
000030 67 98 43 ba 55 83 48 3f 8b ec 59 3e f0 ab 65 3f
       -0.00074613694 0.78325397 0.2128164 0.8971548
000040 35 3f 07 bb 70 d3 04 3f 75 14 08 3f 43 bb 14 ba
       -0.002063704 0.5188513 0.53156215 -0.0005673656
000050 40 bc 24 3b 0a 81 0e 3e 89 31 28 3f 24 0a 0a 3f
       0.002513662 0.13916412 0.65700585 0.53921723
000060 ad d9 11 3b a3 2a 5c 3f 9e 3e 87 3f e1 36 d3 ba
       0.002225499 0.8600256 1.0565984 -0.0016114378
000070 ab 38 69 ba 39 75 ce 3f 21 7b a6 3a 79 16 c9 3f
       -0.0008896689 1.6129524 0.001270149 1.5709983
000080 f9 01 88 3f 2d 23 02 bc cf 7f b5 3c e5 29 23 bb
       1.0625602 -0.007942957 0.02215567 -0.0024896797
000090 f8 ec 78 3a d4 73 eb 3f 1d 88 0b 3d c4 2f 01 3e
       0.00094957603 1.8394723 0.034065355 0.12615877
0000a0 78 41 48 3b 0e 68 b1 3f 49 68 2c 3d d4 0e 4f 3c
       0.00305566 1.385988 0.04209164 0.012637813
0000b0 b8 eb 36 bc 8e fe 45 3e 3a 0a 81 3e e5 18 60 3f
       -0.011164598 0.19335386 0.25203115 0.87537986
0000c0 15 dd 17 ba a9 df 78 3f 45 38 29 3d 72 54 90 3b
       -0.00057931367 0.9721628 0.04131343 0.004404598
0000d0 91 47 aa 3f b5 d7 3c bb 6a ab 07 bb d3 ff cd 3c
       1.330309 -0.0028815095 -0.0020701536 0.0251464
0000e0 c4 e4 b2 3f b2 ee c7 3f 51 d4 23 3f 7e a6 d7 3f
       1.3976064 1.5619719 0.63995844 1.6847684
0000f0 17 2e df 3e d1 f8 b5 3f 14 2a 57 3f d8 1e a0 3f
       0.4358985 1.4216558 0.8404858 1.2509413

bias f4 [64]
000000 fb 82 98 3f fc 80 3d 3a d2 36 5e b7 be fd b1 bf
       1.1914972 0.0007228998 -1.3244995e-05 -1.3905561
000010 30 e4 08 b8 fe e4 9b 3d 50 47 ab 3f c3 79 6f bc
       -3.2637443e-05 0.07612036 1.3381138 -0.014616433
000020 2a bf ba 3f e3 a9 2b bf a0 2c f0 3a 5a da cd 3f
       1.4589589 -0.670561 0.0018323846 1.6082261
000030 8e 0e 87 b9 42 2f 8a bf 66 c8 ff 3d e9 4f a7 3f
       -0.0002576005 -1.0795672 0.12489395 1.3071262
000040 b0 fc 39 ba 6e 2f 76 bf 4e cf 5d 3f ac 52 38 b9
       -0.00070948433 -0.9616612 0.86644447 -0.00017578405
000050 d4 4a 0a bf 80 c1 3c bf cb fc 23 3f 80 9d 5c 3f
       -0.5402043 -0.7373276 0.64057606 0.86177826
000060 fa ce c6 3e 11 bb 81 3f d9 11 a7 3f 9b 20 2e ba
       0.38829786 1.0135213 1.3052322 -0.0006642432
000070 c4 8e 75 b9 e8 f6 cd 3f be 50 3e 3f 5a d2 cd 3f
       -0.00023418205 1.6090975 0.7434195 1.6079819
000080 aa 5a 51 3d 34 9f 56 ba fb c8 21 bf de f7 aa b8
       0.051111855 -0.0008187175 -0.63197297 -8.1524006e-05
000090 95 c5 2e 38 3f 7c f2 bf 47 b8 58 3e 15 e8 32 bf
       4.1668845e-05 -1.8944167 0.21164046 -0.6988538
0000a0 02 7c c4 3a 2b ac 22 bd be 88 2f 3e 14 0e 47 3f
       0.001499057 -0.039714973 0.17142007 0.77755857
0000b0 57 fc 1f bf 79 1d 43 3f b8 8c 4a 3f 37 9a 99 bf
       -0.62494415 0.76216847 0.7912097 -1.2000188
0000c0 bf 67 16 b8 36 4f 9a bf 01 04 d0 3d ec c1 d8 38
       -3.5859408e-05 -1.2055423 0.10157014 0.000103358034
0000d0 d2 da c5 3c f3 47 02 b9 98 bf 9f 37 f4 91 2b bf
       0.024152193 -0.0001242457 1.9043495e-05 -0.6701958
0000e0 5d e9 1b bd 15 14 b0 3d 29 85 91 bf 25 54 d1 3f
       -0.03806435 0.0859758 -1.1368762 1.6353804
0000f0 d4 75 6d bf 02 85 95 bd 79 ba 86 bf d5 cf b9 3f
       -0.92757916 -0.0730076 -1.0525657 1.451655

weight f4 [1, 64]
000000 26 48 8a be 2e 2f 2f 39 d7 f3 0e b8 e7 8d 7d 3c
       -0.2700817 0.00016706876 -3.408253e-05 0.015475727
000010 2e b4 18 b7 29 97 60 3f 36 0b b5 bd a8 20 6d bf
       -9.101857e-06 0.8773065 -0.08840029 -0.92627954
000020 2b cf b0 3d df 39 99 3c 92 80 16 b9 86 d2 f7 3c
       0.08633264 0.018704353 -0.00014353011 0.030251753
000030 e6 21 85 b8 05 cb 54 3d 5f 8f e6 b9 8c 24 83 be
       -6.348248e-05 0.051951427 -0.00043975838 -0.2561382
000040 8d 66 39 b9 67 d0 f5 3c a0 4f 9a 3c 66 37 14 b8
       -0.00017681178 0.0300066 0.018836796 -3.5337544e-05
000050 6d 48 09 3c 29 e1 35 3d 6a 76 00 3e a2 4b 76 3d
       0.008379084 0.044404183 0.12545171 0.060130723
000060 6e 5d a7 3d ef 3b b9 3d d5 64 05 bd b9 39 35 39
       0.08172117 0.090446346 -0.032566864 0.00017283008
000070 e5 12 16 3a 62 bd 8f 3c 59 90 a0 3d dc de 51 bb
       0.00057248614 0.01754636 0.07840032 -0.0032023704
000080 cb 0e d5 3e 0a 10 a0 b7 9b 91 0e 3e 8e 3b b7 b8
       0.4161285 -1.9080955e-05 0.13922732 -8.737213e-05
000090 c2 07 cc b7 4d df 9d 3e b6 8b e8 3c 49 77 45 3d
       -2.4322308e-05 0.30834427 0.028386932 0.048209462
0000a0 88 a6 54 b8 23 2e 60 bf e8 c8 16 bb 25 33 ac bd
       -5.0699833e-05 -0.875704 -0.0023007933 -0.084081925
0000b0 13 ba da bd ac b2 f7 3d 1a c5 ad bd c2 49 c7 3e
       -0.10680022 0.12094626 -0.0848486 0.3892346
0000c0 60 56 94 b6 17 a9 ab 3c a7 77 15 be 99 d2 13 37
       -4.420799e-06 0.020954652 -0.14596425 8.810916e-06
0000d0 35 75 48 bf 4b e0 bf 37 1a fe 22 ba fd ba 25 3e
       -0.78303844 2.2873419e-05 -0.00062176737 0.16184612
0000e0 42 57 59 bf 7f 83 71 3f db 68 ff 3d 18 dc 3f 3d
       -0.8489877 0.9434127 0.124711715 0.046840757
0000f0 14 65 ba 3d 3a eb 5f bf 13 21 bc 3d 2b f7 ca bd
       0.0910131 -0.874683 0.09185996 -0.09910425

weight f4 [1, 64]
000000 1b 11 41 3f f8 31 8e b9 f7 76 9b 37 bb 86 24 bf
       0.75416726 -0.0002712158 1.8532837e-05 -0.6426808
000010 48 50 cc 37 1d e3 2b 3b 1a aa 29 3f 3c c6 65 bb
       2.4356079e-05 0.00262279 0.6627518 -0.0035060784
000020 25 ff 29 3f e6 1f e0 be 63 eb bb 3a f6 34 42 3f
       0.66404945 -0.43774337 0.0014337118 0.7586206
000030 d9 7b 4f 38 f4 b6 14 bf 55 e8 38 bc 04 11 52 3f
       4.9467988e-05 -0.58091664 -0.011285861 0.82057214
000040 49 fa f9 39 4c a1 16 bf 9b 48 fb 3e 6c 14 93 38
       0.00047679458 -0.5883987 0.4907883 7.01331e-05
000050 9c b3 ca be f9 98 f7 be 26 40 b0 3e c9 0d ff 3e
       -0.39590156 -0.48358896 0.3442394 0.49815205
000060 51 ac 9f 3e 3c 5f 12 3f fc cd 2f 3f b3 15 67 39
       0.31186154 0.57176566 0.6867368 0.0002203796
000070 be be a5 38 16 bc 43 3f b6 e7 09 3f 51 c8 47 3f
       7.9033416e-05 0.7645887 0.5386919 0.78040034
000080 3c 9d 85 bb 95 60 67 39 7b 69 fe be 82 06 18 39
       -0.0040775817 0.00022065856 -0.4968985 0.00014498274
000090 cd c6 0a 38 cd 63 89 bf cb fb 80 3e 6e c0 e3 be
       3.308691e-05 -1.0733582 0.25192103 -0.4448275
0000a0 2b 30 94 b9 ed 11 4b 3c d6 3c 5f 3e 66 fa 15 3f
       -0.00028264648 0.012394411 0.21800551 0.585852
0000b0 e9 8c d0 be 69 2b fa 3e c5 fb 02 3f c5 7c 43 bf
       -0.40732506 0.48861244 0.5116542 -0.7636226
0000c0 c1 61 17 38 e3 47 26 bf b2 8a 2f 3e 80 a5 01 b9
       3.6092246e-05 -0.6495344 0.17142752 -0.00012364052
0000d0 d8 e3 59 3c e9 67 11 b9 81 b7 97 ba eb 3e fd be
       0.013298951 -0.00013866987 -0.0011575074 -0.49462065
0000e0 b4 27 f4 37 bd 24 19 3d 2c 9e 2e bf 13 65 47 3f
       2.9105555e-05 0.037388552 -0.682101 0.778886
0000f0 b8 bf 15 bf 83 e9 aa ba 59 af 0c bf 1a bb 3c 3f
       -0.58495665 -0.0013039563 -0.5495506 0.73722994
