ppo_algorithm/data/Qube-v0_2019-03-13_08-39-06/best_policy/save_file.pt (torch_old, 75522 bytes, 24 tensors)

net.0.weight f4 [64, 6]
00000000: 7889 d93c f7f5 afbd dd1e 283e 2206 9e3e
00000010: 4e28 e4bd e4c9 bb3d 4c2b 673d 28fe 543d
00000020: a071 0e3e f949 85be cf82 78bc 41b2 3abe
00000030: 17c7 3cbe 0c6d 473d a48c 813e fdeb 07bc
00000040: 3ce9 893d 1871 863e 0203 56bc 208e 793d
00000050: 3ae3 063e b47c 01be 9506 d63d 0666 e13e
00000060: 0b2d 113c 2c94 113f 35e2 c13e 1623 b03e
00000070: ee34 9dbe 7829 193e 698b 37be 45ad cdbd
00000080: 27d7 7ebe 06fa 01bf 9d93 de3d b357 1ebd
00000090: db92 8a3e f120 263c 1d8c c1be e1e0 bebe
000000a0: bdfc e9bd b0c9 303d 909d 5a3e fabc 3bbd
000000b0: e9a3 e6bd c584 323e eecf b4be 5acf be3c
000000c0: dc10 873d 03e8 23bc 7449 72be de54 e13d
000000d0: a9eb e5be ee73 6d3c 2ea4 7fbd 6274 5a3e
000000e0: fd8b 01be b987 60be 52c2 e23d a563 72be
000000f0: 0d12 6dbe 0e56 983e 8240 833d 39f4 d4bd
00000100: ada1 483e 217b 083e e14e c1be 5ed5 e63d
00000110: 7229 a43e 97fe b7bc d254 f5bd a429 be3e
00000120: 7437 293e da08 593d 05aa 79be b350 113e
00000130: 8fef 78bd 03ba dcbe 5ece 94bd d4e5 94be
00000140: cd78 f3be 1857 0d3e 8b77 563e 3a92 1cbd
00000150: dfd2 eb3d dd09 dabd 0871 ac3d 5c92 94be
00000160: 8f7e b63d 6c7f fb3e 79de 8cbe c135 b53d
00000170: e871 df3d 6244 a3be b547 573d 8672 84be
00000180: 4350 833e 3eeb 473e c14f f13d 71da 373f
00000190: 59b6 d3bd 7e13 033d d7aa 20bf 527d 923e
000001a0: 3758 72be 4cb4 acbd 99ce d23d 36b1 d0bd
000001b0: 3de3 023f 16a2 163e 91e3 513e 7d35 aebd
000001c0: 7ea6 11be 42c7 a0bb 46ae 0fbc 8bf2 b0bd
000001d0: e254 24bf 1745 953b 10a6 fe3d 84eb 1a3d
000001e0: 0bdb 64be d48f 8a3a 1080 9b3e 597e 90be
000001f0: 32e7 5d3d a038 9bbe bc7a d53e a91c 59bd
00000200: cbcf 1dbd e1fe bf3e b6a5 20be fd9e e03c
00000210: 4707 07be 8858 14be 4f25 88bc 05ff 92be
00000220: 9300 2bbc ee13 c0bd 3a74 b53e 3d14 73bd
00000230: 4f01 d23d 63e4 a0be dcf7 8dbd 2595 bb3e
00000240: e36f 733e 6fe8 49bd f525 3f3e e32d e83e
00000250: 9abc 023f 8f02 22be 1a56 823e c80f 30be
00000260: cea0 2ebe 7275 ba3e 3c66 33bd 3b5f d03e
00000270: f86a 0dbe 6eb5 ec3e 8244 5dbe 66c0 3b3d
00000280: 9cea 8fbd 60a4 46bd 0d65 b4be 0967 9ebd
00000290: 1152 803e fa38 003f 0213 ba3e 15ed 00be
000002a0: 37c0 9cbe 71ae f93d 1f84 99be 1a70 80be
000002b0: c819 ef3d 35f3 abbd 9816 863d c8cc 953e
000002c0: fbdd 3fbe db14 1abe 6bba 893d a624 843e
000002d0: 21a1 fcbc 6020 483e 68bf ad3d b62b 7c3e
000002e0: a414 98bd e805 3a3d 6c51 253e feae a4be
000002f0: ef2f bbbd 00e2 c03e 1a8f b0be c85f 41be
00000300: edad 53be 0d98 12bf 9b3a 0fbf 2972 f1be
00000310: 0b42 5a3e 3382 e9bc 7417 10bd 6a8f 9fbe
00000320: e70d cf3e 210a 883d 7936 b1be bc68 233e
00000330: b5b2 483d fb7d 3fbd b249 0f3e ab9d d23d
00000340: 5ac5 053e 04d5 133e bd2f 88be 4374 2a3d
00000350: 2eac c63e 6fd5 da3e df94 0ebe 26e8 5d3e
00000360: 492d 2fbe dda0 fd3d c8f0 f63d 5ef8 de3e
00000370: 58b6 83bc 69dc 763d fe9c 20be a249 f0bd
00000380: c28e 133d a0cc 153d 2849 a2be 772c 473e
00000390: 3400 793d 10f3 fa3d 0724 e43e 0c83 173f
000003a0: 933b ccbd f5ff 3c3d 2eb1 863e b3c0 8dbe
000003b0: 77ed 143d cd0e 543e 4f43 36be 35d7 babd
000003c0: 29bd e0bd cf64 bc3e b0d1 aebe 795d 1fbe
000003d0: d594 6ebb 05ce 6fbd eeb4 193e f70a a2be
000003e0: 48d4 d3bd 1e29 4dbe 043d efbd b1b0 d13e
000003f0: bbdd 9c3e ff68 48bd 9761 bb3e 5b4d 8d3e
0.026554808 -0.08591836 0.16418023 0.30864054 -0.111405 0.09169367 0.056437775 0.052000195
0.13910532 -0.26033 -0.015167906 -0.18232061 -0.18435322 0.04868798 0.25302613 -0.00829601
0.06733939 0.2625816 -0.013062241 0.060926557 0.13172618 -0.12645227 0.10450474 0.4402315
0.008860837 0.5686672 0.37867895 0.34401768 -0.30704445 0.14957225 -0.17924275 -0.10042814
-0.24886762 -0.5077213 0.10867999 -0.038657855 0.27065167 0.01013969 -0.3780221 -0.37280944
-0.11425159 0.043161094 0.21349168 -0.04583452 -0.11261732 0.1743346 -0.35314888 0.023292232
0.065950125 -0.010004046 -0.23660833 0.11002515 -0.44906357 0.014492972 -0.062412433 0.21333459
-0.12651058 -0.21926774 0.1107222 -0.23670824 -0.23151417 0.29753155 0.06408788 -0.10398144
0.19592924 0.1332822 -0.37755492 0.11271165 0.3206287 -0.022460265 -0.11979069 0.37141144
0.1652506 0.052986957 -0.24381264 0.1419094 -0.060775336 -0.43110666 -0.07265924 -0.29081595
-0.475531 0.13802755 0.2094404 -0.03822539 0.1151483 -0.106464125 0.084199965 -0.29017913
0.08910858 0.49120653 -0.27513483 0.08848143 0.10910398 -0.3188811 0.05255862 -0.25868624
0.25647172 0.19523332 0.1178279 0.7181769 -0.103375144 0.03200101 -0.6276068 0.28611237
-0.23666464 -0.084328264 0.102933116 -0.1019005 0.5112799 0.14710268 0.20496966 -0.08506296
-0.14223668 -0.004906566 -0.008769577 -0.086400114 -0.6419202 0.0045553553 0.12434018 0.03782226
-0.22349183 0.0010571429 0.3037114 -0.28221396 0.054175563 -0.3031664 0.416952 -0.053005848
-0.038528245 0.37499145 -0.15688214 0.027419562 -0.1318637 -0.14486897 -0.016619353 -0.2871019
-0.010437149 -0.09378801 0.35440236 -0.059345473 0.10254156 -0.31424245 -0.06932041 0.36637226
0.2377315 -0.04929393 0.18666823 0.4534751 0.51069033 -0.15821289 0.25456315 -0.1719352
-0.1705353 0.3641773 -0.04379867 0.40697655 -0.13810337 0.4623217 -0.21608165 0.045837782
-0.0702717 -0.048496604 -0.35233346 -0.07734496 0.25062612 0.5008694 0.36342627 -0.1259044
-0.30615398 0.12191475 -0.29983613 -0.25085527 0.11674839 -0.083959974 0.06547278 0.29257798
-0.18737023 -0.15047018 0.067250095 0.2580921 -0.030838551 0.195436 0.084837735 0.2462605
-0.07425812 0.04541579 0.16144341 -0.32164758 -0.09140002 0.37672424 -0.34484178 -0.18884194
-0.20671816 -0.5726326 -0.559488 -0.4715741 0.21314256 -0.028504467 -0.035178617 -0.31164104
0.40440294 0.06642557 -0.34611872 0.15957922 0.048998553 -0.046751004 0.13992956 0.10283979
0.13063565 0.14436728 -0.2659892 0.041614782 0.38803238 0.42740962 -0.13923977 0.21670589
-0.17107119 0.12384198 0.12057644 0.43548864 -0.01607816 0.060268793 -0.15684888 -0.11732794
0.036024816 0.0365721 -0.3169644 0.19450556 0.06079121 0.12253392 0.44558737 0.59184337
-0.099723004 0.046142537 0.26307052 -0.2768608 0.036359277 0.20708771 -0.17799114 -0.09123079
-0.109735794 0.3679566 -0.34144354 -0.15563 -0.0036404629 -0.058546085 0.15010425 -0.3164899
-0.10343224 -0.20035216 -0.1168156 0.40955117 0.30637917 -0.048928257 0.36597893 0.2759808

net.0.bias f4 [64]
00000000: 7054 e13d f7eb a2bd 4630 853d 5669 d0bd
00000010: da0d 9c3d fba6 15be 2871 60be 5c78 5b3e
00000020: 94a0 443e 6a98 2dbe e8ff 9cbe a61d 02be
00000030: 249c 0bbd 433c a2bd 62dd 7dbb 92c5 4dbd
00000040: f7b9 a33e 31c7 6dbe 14a0 603e 81a5 a5be
00000050: b27c a6bc 0656 9f3e 866d 96bd 7823 223c
00000060: fc50 403e bb2d c8bd 5665 86be 701e 4d3e
00000070: e0fe 86bd 86f1 97bd c6a2 4b3e a671 6f3e
00000080: f3fe 11be bd14 37bd 9a83 9abc 7189 ba3d
00000090: 7948 223e a379 2c3a 5dd6 2f3e 1f9a 853e
000000a0: d7dc a9be e1aa 40be 378e 533e 1344 d4bd
000000b0: 70a8 a03e 3155 78bc 1b56 8ebd 0a81 703e
000000c0: cf7a ab3d 8752 713e 4258 04be d2dc 393b
000000d0: 1dff 1c3e 56b2 823d bdbb 693e e0cf 3f3d
000000e0: 1e5a 16be a298 1ebe 1cb2 893d 1439 9d3e
000000f0: ff16 543e e7ff 6f3d 6265 803e b0fc a03e
0.11002433 -0.07955163 0.06503348 -0.10176341 0.076198295 -0.14614479 -0.21918166 0.21432632
0.1920188 -0.16952673 -0.3066399 -0.12706622 -0.034084454 -0.0792165 -0.003873669 -0.050237246
0.31977817 -0.23220517 0.21936065 -0.32352832 -0.020323131 0.31120318 -0.07345109 0.009896152
0.18780893 -0.097743474 -0.26249188 0.20031142 -0.06591582 -0.07419114 0.19886312 0.23383197
-0.14257412 -0.044697512 -0.01886158 0.09108246 0.15847959 0.00065794046 0.17171617 0.26094148
-0.331763 -0.18815185 0.2065972 -0.103645466 0.31378508 -0.01515703 -0.06950017 0.23486724
0.08373033 0.23566638 -0.12924293 0.002836038 0.15331693 0.06381671 0.22825523 0.046829104
-0.14682814 -0.15487912 0.06723425 0.3070761 0.20711897 0.058593657 0.2507735 0.31442785

net.2.weight f4 [64, 64]
00000000: 580e d43c 3e15 013e 24ab cdbd 5251 cdbd
00000010: 2871 cdbd 3d2f 0abe 71b0 8c3d 840e 333e
00000020: df61 edbc ee8f 58bd 4469 853e 6403 103d
00000030: 83bb 053e 2582 303d c671 3bbe cdca 353d
00000040: cb32 3d3d e17b 44be 3030 d0bc e5a6 843e
00000050: 5a97 6b3d 8ed1 9d3d fd87 8cbc ef68 303d
00000060: 0bdf 5b3e 76aa 1cbe 53e6 98be 4143 463d
00000070: 0398 5bbe 0e81 383c cb9e eebd 7928 7ebd
00000080: 6ccf 85bd 24e2 143e 53ee d33c c539 e9bb
00000090: 4404 a23e 485d 86be 97ca bb3e 5763 89be
000000a0: d83e 8bbd 440b 0cbe 60e1 00be 6174 55bc
000000b0: ef3f 0c3d 6e46 bf3d 1e02 7b3d 9d3d d8bd
000000c0: 17cd 313d 873b 913d f2db a13d 7ca4 e13b
000000d0: f7e7 073e 5bd3 303e 986d 2c3e 4330 2e3b
000000e0: 657d 84bd fcdd 88be 7792 5a3e acaf 9d3d
000000f0: 5c4e 943e a172 663e 9734 0f3d a65b bf3e
00000100: 17de b2bd 6ad6 f93d f474 ccbd 2878 bb3d
00000110: ad06 c2bd d98a 733e 26e2 6bbe 3a3b aabe
00000120: c8eb 40be 305c b6bc 9b79 cbbc 1960 25be
00000130: b88a 3d3e 5ed6 823e 871c d03c d3c3 d8bd
00000140: 58ff 84be 1433 473d dbb3 95be 51d4 ea3d
00000150: fa23 ec3d 63dd 1bbe 4f88 47be 7c7c d13d
00000160: 6a80 433e a015 3cbe 7626 46be 5f22 cf3d
00000170: fefe d43c 09b2 75bd 65a5 71be f53e cfbe
00000180: 7f7b 053f f6ee 0b3d a2bf c23e e2c0 0a3d
00000190: 2458 3cbd deec 8b3b 94a5 0bbf 381e 0f3d
000001a0: 8c91 23be 6b23 6c3d 802c 99be 459f bb3d
000001b0: 3fdb 6bbe be21 583e 7f77 343d 7cb7 1ebd
000001c0: e69a c3be b8a1 bcbe 5f74 96bb a28f ba3d
000001d0: 3d38 75be 4ef0 08be 8960 5c3e e2db 93be
000001e0: 1f30 b03e 1324 2d3d f210 1a3e a262 b0be
000001f0: 44bf a1be eae7 d83d 163d 513d 6189 2ebe
00000200: 598d e6bd 3ccf 813e df97 90b8 5d4f 2abe
00000210: cbe3 3c3e 52a7 b5bd d6e7 273e 5569 213e
00000220: a677 ba3d 26d8 31be 5096 a5bd f117 8ebe
00000230: 16f6 b33d 539c c33c 5bf5 16bd 8b39 c93e
00000240: 333b 223e c81c 5d3d 1f65 193e 1e00 573d
00000250: 5221 4c3e 9474 8b3c 115f df3e bc6d b43d
00000260: 562d 533d 1171 143d 66e1 63bd 63c5 7a3c
00000270: 1990 32be 07ca 9bbe d2cf 163c 4d7f fbbd
00000280: db9f 633e 9f65 d6bd c592 a4bd c20a 68bd
00000290: 385d 58be d125 adbd 966d 1a3d 578a 053e
000002a0: 0532 3a3e fd06 533c 431f a1bc d597 043e
000002b0: bd05 d3bd a62f 37bc ea00 953d bd23 0cbe
000002c0: d45a d73d deca 36be 6742 163e 1b4c a3be
000002d0: 5125 32be 16e8 803d a018 83bd b4cd 0cbe
000002e0: af1c 41be 933c 2ebd 276d 7ebd d388 3a3e
000002f0: 950d a5bd f68c 93bc f2bc a5be 264f e8bd
00000300: dc65 3dbe 8abe 05be 8b34 9f3e edc3 2a3d
00000310: 1e0f 123e 82c9 5dbd b0d1 703d e168 993c
00000320: 0e8d 133e 58b6 013e 27c3 adbe 87c6 a2bd
00000330: 8605 e93b 3022 c5bd 4842 06be 88bf aebd
00000340: efd8 dfbc 17f9 513d c31e 6abe 59d7 f1bd
00000350: 9a9d 06bc 135a 2bbe 7810 26bd 28b5 3c3a
00000360: 3423 a1bd ace8 34be dcdb 33be 8cae bb3d
00000370: 6bf1 653d 6b96 283e 5ab7 f33d ae31 babd
00000380: f050 31be 8e53 8abd 89d5 e23d c9b2 91bd
00000390: 7e17 60bd a1d0 873d cdb4 ac3c 87da f33d
000003a0: 63a6 4ebe c405 233d 5096 c33d e134 9cbd
000003b0: 624f ba3e ba85 c03d a41d 8139 65a0 123e
000003c0: 8f0e a8bd 73ba 103e 56a4 053d 128f 833e
000003d0: c498 85be 8925 ecbb b4af 053d 5f81 f0bd
000003e0: c5ba e7bd 6c6e 98bc 4c01 0abd 447a a03d
000003f0: 3243 b43d ac66 c6bd bfec 3cbe 4f23 75be
0.025885746 0.1260576 -0.10042408 -0.10025276 -0.100313485 -0.13494582 0.06869591 0.17486006
-0.028977333 -0.052871637 0.26056874 0.035159484 0.13059811 0.043092865 -0.1830512 0.04438286
0.046191018 -0.19187881 -0.025413603 0.2590858 0.057517387 0.07705985 -0.017154688 0.043068822
0.21471803 -0.152994 -0.29863223 0.048403982 -0.21444707 0.011261238 -0.11651381 -0.062050316
-0.06533703 0.14539391 0.025870478 -0.0071174824 0.3164388 -0.26243043 0.36678 -0.26833603
-0.06799096 -0.13676172 -0.12585974 -0.013028235 0.03424066 0.09339605 0.061281316 -0.10558627
0.04340848 0.07091432 0.07903279 0.006886063 0.13272081 0.17268126 0.16838682 0.002657906
-0.064692296 -0.2673186 0.21344934 0.076995224 0.28966033 0.22504665 0.034962263 0.3737461
-0.087337665 0.12199099 -0.099832445 0.09153777 -0.094739296 0.23783435 -0.23035488 -0.3324831
-0.18839943 -0.022260755 -0.02483826 -0.1614994 0.18509948 0.25554174 0.025404228 -0.105842255
-0.25976062 0.048632696 -0.2923878 0.114662774 0.115302995 -0.15221171 -0.19485591 0.10228822
0.19091955 -0.18367624 -0.19350609 0.10113978 0.026000496 -0.05998424 -0.2359825 -0.4047772
0.52141565 0.034163438 0.3803683 0.033875354 -0.045982495 0.00427018 -0.5454953 0.03494093
-0.1597349 0.057650965 -0.29916763 0.091612376 -0.23032854 0.21106622 0.044059273 -0.038749203
-0.38204116 -0.36842132 -0.0045915092 0.09109427 -0.23947234 -0.13372919 0.215212 -0.28878695
0.34411713 0.04227073 0.15045527 -0.3445025 -0.31591237 0.10591109 0.051083647 -0.17044593
-0.11257429 0.2535342 -6.894743e-05 -0.16631837 0.18446271 -0.088698044 0.16397032 0.15762837
0.091048524 -0.1736761 -0.080853105 -0.2775264 0.087871715 0.023878252 -0.036855083 0.39301714
0.15842895 0.053982526 0.14979981 0.052490346 0.19934586 0.017023362 0.43627217 0.08809993
0.051556908 0.03624064 -0.05563488 0.01530585 -0.17437781 -0.30427572 0.009204822 -0.1228014
0.22228949 -0.104686014 -0.080358066 -0.056650884 -0.2112931 -0.084544785 0.037702166 0.13041054
0.18183143 0.012880084 -0.019668227 0.12948544 -0.10303829 -0.011180794 0.07275565 -0.13685508
0.10515371 -0.17850825 0.14673768 -0.31894 -0.17397048 0.06294267 -0.06401181 -0.13750345
-0.18858598 -0.042538237 -0.062115815 0.18216257 -0.08059231 -0.018011551 -0.32370716 -0.11343221
-0.18495888 -0.13060966 0.31094775 0.041690756 0.14263579 -0.05414725 0.058793724 0.018726768
0.14409277 0.12667215 -0.33937952 -0.07948022 0.007111254 -0.096256614 -0.13111222 -0.085326254
-0.027325122 0.05126294 -0.22863297 -0.118086524 -0.008216286 -0.1673358 -0.04054305 0.0007198625
-0.078680426 -0.17666882 -0.17564338 0.091641515 0.056138437 0.1646363 0.11900206 -0.09091507
-0.17316031 -0.06754218 0.11075885 -0.07114179 -0.054709904 0.0663159 0.021082306 0.11906915
-0.20180659 0.03980042 0.09550154 -0.07627273 0.3638869 0.09400506 0.0002462688 0.14318998
-0.08205902 0.14133625 0.032627426 0.2569509 -0.26093113 -0.007206623 0.032638267 -0.117434256
-0.1131492 -0.01860734 -0.033692643 0.0783582 0.08801879 -0.09687552 -0.18449686 -0.2393925

net.2.bias f4 [64]
00000000: 1d94 5b3e 54dd 18be b931 75bb f3f7 713e
00000010: a654 bebc 1e4c 283d 51cf 2fbd b016 8f3d
00000020: 88f2 ecbc 0262 bfbd a310 1a3e f41a 4fbd
00000030: 77c6 233e b1f9 bbbc 67e7 19bc ec49 04be
00000040: f981 abbe 1f9a d9bc 3071 b13c 6da6 d13d
00000050: dfba c13c 49fd 643e 09e6 903c 26e2 aabd
00000060: 4d8c d83c 531a c9bd ca23 8dbd 26ce d33d
00000070: 7150 6c3d 4888 a43d ad85 a63e a5e2 a73c
00000080: 51cc 9b3e d915 30be 2493 6c3e a997 8bbe
00000090: d85b e03c aa9b d63c 3f3d 9dbd 1c24 af3e
000000a0: b01d 27bc d22e 063e 921c 223e 3044 7f3e
000000b0: eb04 843e 33e4 fc3c cd33 45be cde6 11be
000000c0: 64da 7f3d 8d3a b83c 1ad9 89bd 758f 193c
000000d0: 6b24 08be cbc5 b63d a48b b2bc c3b0 b7bc
000000e0: fd9e 9dbd 66fb 773d 7d35 d13d aaf5 2c3e
000000f0: 3c58 003e 7e71 fcbc e8c9 8dbe 85b2 85be
0.2144322 -0.1492818 -0.003741367 0.23629741 -0.023233723 0.041088216 -0.04292232 0.06986749
-0.028924242 -0.093448654 0.15045409 -0.050562814 0.15993677 -0.02294621 -0.0093935495 -0.12918824
-0.334976 -0.026562748 0.021660417 0.10236821 0.023648677 0.22362246 0.017687814 -0.08343916
0.026434088 -0.09819474 -0.06891592 0.10342054 0.057693902 0.08033806 0.32523862 0.020493815
0.3042932 -0.17195834 0.23103005 -0.27264145 0.027387545 0.026197273 -0.076776974 0.34207237
-0.010199949 0.13103798 0.15831211 0.24928355 0.25785002 0.030870533 -0.19258042 -0.142482
0.062464133 0.022488857 -0.06730862 0.009372582 -0.13295142 0.08924445 -0.021795101 -0.022423154
-0.0769634 0.060542487 0.1021528 0.16890588 0.12533659 -0.030815836 -0.27693105 -0.26112762

out_mean.weight f4 [1, 64]
00000000: bda3 8dbd 4223 d23e b02d 9dbc db90 1b3d
00000010: 7b1c 893d c23a 82bd 6acf 93bd c995 9fbd
00000020: 5e80 2a3d f9cf 5fbe e67f 9abd 7579 66be
00000030: 4d43 10be 14f7 a8be 85b5 97be 51fb 40be
00000040: e66f 963e 7112 87bd 26a8 8b3d bb6f 20bd
00000050: b92f 56bd dde1 2fbe 0031 aabe 4eea 0c3c
00000060: 1945 4f3e 3aaf 17bd 2b13 383d 02fd cebc
00000070: cd3e a5bd 79ce 5e3d f1f9 2f3e af3a 2dbc
00000080: 9c0e dc3d 206b 5b3e 2137 4dbd 218b a83d
00000090: 222b 4abc 8220 d8bc bb15 f23c c5e2 4c3e
000000a0: 4e97 6ebd c364 943d 62f1 f7bd 23fd 01be
000000b0: 025c e5be eb32 f63d 2bc3 c4bd 29e3 3dbe
000000c0: ceb6 b93d d8b3 9abc f7ef 3cbe 09a2 e13d
000000d0: e4af 873d 20a8 253d 4275 7dbe 8c97 66be
000000e0: f37c 6fbd 9b55 843d 981c 0abe fdb3 e1be
000000f0: 86be 113e 9a5d 623e c1bb e23b a352 2e3d
-0.06915996 0.41042525 -0.019186825 0.03797994 0.06694885 -0.063588634 -0.072172955 -0.07792241
0.041626327 -0.21856679 -0.07543926 -0.2250727 -0.14088173 -0.33001006 -0.29630676 -0.1884587
0.29382247 -0.06595314 0.06819181 -0.039169054 -0.052291606 -0.17176004 -0.3324051 0.0086007845
0.20241202 -0.037032343 0.044940155 -0.025267128 -0.08068619 0.054396126 0.17185189 -0.010573073
0.10744974 0.21427584 -0.050101403 0.08229662 -0.012339385 -0.026382688 0.029551378 0.2000838
-0.058249764 0.07245781 -0.12106587 -0.1269422 -0.4479676 0.120214306 -0.09607538 -0.18543686
0.0906807 -0.018884584 -0.18450914 0.11017234 0.06625345 0.04044354 -0.24751762 -0.22518748
-0.05846877 0.064616404 -0.1348747 -0.44082633 0.14232835 0.22106019 0.0069193547 0.042559277

out_value.weight f4 [1, 64]
00000000: 6372 a0bc bc65 903c cbbe d63d 7e80 e1bc
00000010: 133d 19be 7302 693e a920 2bbe bc0d 663e
00000020: 85fb 41be ac85 fe3b b39e d4bb 6f66 be3d
00000030: 7591 bdbc 4c36 51bd cc7a f93c bb8d 24ba
00000040: 74ff abbb 77fa b4be e27b 3b3d 19bf 3d3d
00000050: 435a f9be 4b3e 2e3d 18ec 413c 698f 1e3d
00000060: b97b 843b c2e1 553d 3ada 963b 8693 aabc
00000070: 9b01 e33b 4704 11bd 4483 063b 449b bdbc
00000080: 769f 39bc 01b1 16be a42a c23c 4fde d5bc
00000090: a9f9 a53d 5b5f 0fbd 0c2e e5bc 22e5 b73c
000000a0: a17e 90bc 3f5e 14bc c7d5 8a3c 09c7 c7bc
000000b0: 538f 8cbd 38a6 b13c d97f 6d3c e092 dabc
000000c0: fa84 8bbe 8e2d e6bb 6a0f 69bd 521d 1f3e
000000d0: 5aab 3b3e 6626 55bd d10d 923c e6df 123e
000000e0: 4e82 2dbd cbc7 8ebe 6ff4 12bd 5db7 23be
000000f0: 7248 edbc 3c8a 7a3e fed2 27bd 76dd 9dbb
-0.019585794 0.017626636 0.104856096 -0.02752709 -0.14964704 0.2275484 -0.16711678 0.22466177
-0.18943603 0.0077674 -0.006488645 0.092968814 -0.023140648 -0.051077172 0.030454062 -0.0006277223
-0.0052489582 -0.3534734 0.04577244 0.046324823 -0.48701677 0.042539876 0.011836074 0.038710985
0.004043069 0.052217253 0.0046036514 -0.020822298 0.0069276816 -0.03540447 0.0020525018 -0.023145325
-0.011329522 -0.14715959 0.023701973 -0.026106982 0.081042595 -0.035003047 -0.027976058 0.022448126
-0.017638506 -0.009055673 0.01694764 -0.0243869 -0.068632744 0.021685705 0.014495813 -0.026681364
-0.2724989 -0.0070244735 -0.056899466 0.15538529 0.18327084 -0.052038573 0.017828854 0.14343223
-0.042360596 -0.27886805 -0.03587764 -0.15987916 -0.028965209 0.24466795 -0.040972702 -0.00481766

weight f4 [64, 6]
00000000: 7889 d93c f7f5 afbd dd1e 283e 2206 9e3e
00000010: 4e28 e4bd e4c9 bb3d 4c2b 673d 28fe 543d
00000020: a071 0e3e f949 85be cf82 78bc 41b2 3abe
00000030: 17c7 3cbe 0c6d 473d a48c 813e fdeb 07bc
00000040: 3ce9 893d 1871 863e 0203 56bc 208e 793d
00000050: 3ae3 063e b47c 01be 9506 d63d 0666 e13e
00000060: 0b2d 113c 2c94 113f 35e2 c13e 1623 b03e
00000070: ee34 9dbe 7829 193e 698b 37be 45ad cdbd
00000080: 27d7 7ebe 06fa 01bf 9d93 de3d b357 1ebd
00000090: db92 8a3e f120 263c 1d8c c1be e1e0 bebe
000000a0: bdfc e9bd b0c9 303d 909d 5a3e fabc 3bbd
000000b0: e9a3 e6bd c584 323e eecf b4be 5acf be3c
000000c0: dc10 873d 03e8 23bc 7449 72be de54 e13d
000000d0: a9eb e5be ee73 6d3c 2ea4 7fbd 6274 5a3e
000000e0: fd8b 01be b987 60be 52c2 e23d a563 72be
000000f0: 0d12 6dbe 0e56 983e 8240 833d 39f4 d4bd
00000100: ada1 483e 217b 083e e14e c1be 5ed5 e63d
00000110: 7229 a43e 97fe b7bc d254 f5bd a429 be3e
00000120: 7437 293e da08 593d 05aa 79be b350 113e
00000130: 8fef 78bd 03ba dcbe 5ece 94bd d4e5 94be
00000140: cd78 f3be 1857 0d3e 8b77 563e 3a92 1cbd
00000150: dfd2 eb3d dd09 dabd 0871 ac3d 5c92 94be
00000160: 8f7e b63d 6c7f fb3e 79de 8cbe c135 b53d
00000170: e871 df3d 6244 a3be b547 573d 8672 84be
00000180: 4350 833e 3eeb 473e c14f f13d 71da 373f
00000190: 59b6 d3bd 7e13 033d d7aa 20bf 527d 923e
000001a0: 3758 72be 4cb4 acbd 99ce d23d 36b1 d0bd
000001b0: 3de3 023f 16a2 163e 91e3 513e 7d35 aebd
000001c0: 7ea6 11be 42c7 a0bb 46ae 0fbc 8bf2 b0bd
000001d0: e254 24bf 1745 953b 10a6 fe3d 84eb 1a3d
000001e0: 0bdb 64be d48f 8a3a 1080 9b3e 597e 90be
000001f0: 32e7 5d3d a038 9bbe bc7a d53e a91c 59bd
00000200: cbcf 1dbd e1fe bf3e b6a5 20be fd9e e03c
00000210: 4707 07be 8858 14be 4f25 88bc 05ff 92be
00000220: 9300 2bbc ee13 c0bd 3a74 b53e 3d14 73bd
00000230: 4f01 d23d 63e4 a0be dcf7 8dbd 2595 bb3e
00000240: e36f 733e 6fe8 49bd f525 3f3e e32d e83e
00000250: 9abc 023f 8f02 22be 1a56 823e c80f 30be
00000260: cea0 2ebe 7275 ba3e 3c66 33bd 3b5f d03e
00000270: f86a 0dbe 6eb5 ec3e 8244 5dbe 66c0 3b3d
00000280: 9cea 8fbd 60a4 46bd 0d65 b4be 0967 9ebd
00000290: 1152 803e fa38 003f 0213 ba3e 15ed 00be
000002a0: 37c0 9cbe 71ae f93d 1f84 99be 1a70 80be
000002b0: c819 ef3d 35f3 abbd 9816 863d c8cc 953e
000002c0: fbdd 3fbe db14 1abe 6bba 893d a624 843e
000002d0: 21a1 fcbc 6020 483e 68bf ad3d b62b 7c3e
000002e0: a414 98bd e805 3a3d 6c51 253e feae a4be
000002f0: ef2f bbbd 00e2 c03e 1a8f b0be c85f 41be
00000300: edad 53be 0d98 12bf 9b3a 0fbf 2972 f1be
00000310: 0b42 5a3e 3382 e9bc 7417 10bd 6a8f 9fbe
00000320: e70d cf3e 210a 883d 7936 b1be bc68 233e
00000330: b5b2 483d fb7d 3fbd b249 0f3e ab9d d23d
00000340: 5ac5 053e 04d5 133e bd2f 88be 4374 2a3d
00000350: 2eac c63e 6fd5 da3e df94 0ebe 26e8 5d3e
00000360: 492d 2fbe dda0 fd3d c8f0 f63d 5ef8 de3e
00000370: 58b6 83bc 69dc 763d fe9c 20be a249 f0bd
00000380: c28e 133d a0cc 153d 2849 a2be 772c 473e
00000390: 3400 793d 10f3 fa3d 0724 e43e 0c83 173f
000003a0: 933b ccbd f5ff 3c3d 2eb1 863e b3c0 8dbe
000003b0: 77ed 143d cd0e 543e 4f43 36be 35d7 babd
000003c0: 29bd e0bd cf64 bc3e b0d1 aebe 795d 1fbe
000003d0: d594 6ebb 05ce 6fbd eeb4 193e f70a a2be
000003e0: 48d4 d3bd 1e29 4dbe 043d efbd b1b0 d13e
000003f0: bbdd 9c3e ff68 48bd 9761 bb3e 5b4d 8d3e
0.026554808 -0.08591836 0.16418023 0.30864054 -0.111405 0.09169367 0.056437775 0.052000195
0.13910532 -0.26033 -0.015167906 -0.18232061 -0.18435322 0.04868798 0.25302613 -0.00829601
0.06733939 0.2625816 -0.013062241 0.060926557 0.13172618 -0.12645227 0.10450474 0.4402315
0.008860837 0.5686672 0.37867895 0.34401768 -0.30704445 0.14957225 -0.17924275 -0.10042814
-0.24886762 -0.5077213 0.10867999 -0.038657855 0.27065167 0.01013969 -0.3780221 -0.37280944
-0.11425159 0.043161094 0.21349168 -0.04583452 -0.11261732 0.1743346 -0.35314888 0.023292232
0.065950125 -0.010004046 -0.23660833 0.11002515 -0.44906357 0.014492972 -0.062412433 0.21333459
-0.12651058 -0.21926774 0.1107222 -0.23670824 -0.23151417 0.29753155 0.06408788 -0.10398144
0.19592924 0.1332822 -0.37755492 0.11271165 0.3206287 -0.022460265 -0.11979069 0.37141144
0.1652506 0.052986957 -0.24381264 0.1419094 -0.060775336 -0.43110666 -0.07265924 -0.29081595
-0.475531 0.13802755 0.2094404 -0.03822539 0.1151483 -0.106464125 0.084199965 -0.29017913
0.08910858 0.49120653 -0.27513483 0.08848143 0.10910398 -0.3188811 0.05255862 -0.25868624
0.25647172 0.19523332 0.1178279 0.7181769 -0.103375144 0.03200101 -0.6276068 0.28611237
-0.23666464 -0.084328264 0.102933116 -0.1019005 0.5112799 0.14710268 0.20496966 -0.08506296
-0.14223668 -0.004906566 -0.008769577 -0.086400114 -0.6419202 0.0045553553 0.12434018 0.03782226
-0.22349183 0.0010571429 0.3037114 -0.28221396 0.054175563 -0.3031664 0.416952 -0.053005848
-0.038528245 0.37499145 -0.15688214 0.027419562 -0.1318637 -0.14486897 -0.016619353 -0.2871019
-0.010437149 -0.09378801 0.35440236 -0.059345473 0.10254156 -0.31424245 -0.06932041 0.36637226
0.2377315 -0.04929393 0.18666823 0.4534751 0.51069033 -0.15821289 0.25456315 -0.1719352
-0.1705353 0.3641773 -0.04379867 0.40697655 -0.13810337 0.4623217 -0.21608165 0.045837782
-0.0702717 -0.048496604 -0.35233346 -0.07734496 0.25062612 0.5008694 0.36342627 -0.1259044
-0.30615398 0.12191475 -0.29983613 -0.25085527 0.11674839 -0.083959974 0.06547278 0.29257798
-0.18737023 -0.15047018 0.067250095 0.2580921 -0.030838551 0.195436 0.084837735 0.2462605
-0.07425812 0.04541579 0.16144341 -0.32164758 -0.09140002 0.37672424 -0.34484178 -0.18884194
-0.20671816 -0.5726326 -0.559488 -0.4715741 0.21314256 -0.028504467 -0.035178617 -0.31164104
0.40440294 0.06642557 -0.34611872 0.15957922 0.048998553 -0.046751004 0.13992956 0.10283979
0.13063565 0.14436728 -0.2659892 0.041614782 0.38803238 0.42740962 -0.13923977 0.21670589
-0.17107119 0.12384198 0.12057644 0.43548864 -0.01607816 0.060268793 -0.15684888 -0.11732794
0.036024816 0.0365721 -0.3169644 0.19450556 0.06079121 0.12253392 0.44558737 0.59184337
-0.099723004 0.046142537 0.26307052 -0.2768608 0.036359277 0.20708771 -0.17799114 -0.09123079
-0.109735794 0.3679566 -0.34144354 -0.15563 -0.0036404629 -0.058546085 0.15010425 -0.3164899
-0.10343224 -0.20035216 -0.1168156 0.40955117 0.30637917 -0.048928257 0.36597893 0.2759808

bias f4 [64]
00000000: 7054 e13d f7eb a2bd 4630 853d 5669 d0bd
00000010: da0d 9c3d fba6 15be 2871 60be 5c78 5b3e
00000020: 94a0 443e 6a98 2dbe e8ff 9cbe a61d 02be
00000030: 249c 0bbd 433c a2bd 62dd 7dbb 92c5 4dbd
00000040: f7b9 a33e 31c7 6dbe 14a0 603e 81a5 a5be
00000050: b27c a6bc 0656 9f3e 866d 96bd 7823 223c
00000060: fc50 403e bb2d c8bd 5665 86be 701e 4d3e
00000070: e0fe 86bd 86f1 97bd c6a2 4b3e a671 6f3e
00000080: f3fe 11be bd14 37bd 9a83 9abc 7189 ba3d
00000090: 7948 223e a379 2c3a 5dd6 2f3e 1f9a 853e
000000a0: d7dc a9be e1aa 40be 378e 533e 1344 d4bd
000000b0: 70a8 a03e 3155 78bc 1b56 8ebd 0a81 703e
000000c0: cf7a ab3d 8752 713e 4258 04be d2dc 393b
000000d0: 1dff 1c3e 56b2 823d bdbb 693e e0cf 3f3d
000000e0: 1e5a 16be a298 1ebe 1cb2 893d 1439 9d3e
000000f0: ff16 543e e7ff 6f3d 6265 803e b0fc a03e
0.11002433 -0.07955163 0.06503348 -0.10176341 0.076198295 -0.14614479 -0.21918166 0.21432632
0.1920188 -0.16952673 -0.3066399 -0.12706622 -0.034084454 -0.0792165 -0.003873669 -0.050237246
0.31977817 -0.23220517 0.21936065 -0.32352832 -0.020323131 0.31120318 -0.07345109 0.009896152
0.18780893 -0.097743474 -0.26249188 0.20031142 -0.06591582 -0.07419114 0.19886312 0.23383197
-0.14257412 -0.044697512 -0.01886158 0.09108246 0.15847959 0.00065794046 0.17171617 0.26094148
-0.331763 -0.18815185 0.2065972 -0.103645466 0.31378508 -0.01515703 -0.06950017 0.23486724
0.08373033 0.23566638 -0.12924293 0.002836038 0.15331693 0.06381671 0.22825523 0.046829104
-0.14682814 -0.15487912 0.06723425 0.3070761 0.20711897 0.058593657 0.2507735 0.31442785

weight f4 [64, 64]
00000000: 580e d43c 3e15 013e 24ab cdbd 5251 cdbd
00000010: 2871 cdbd 3d2f 0abe 71b0 8c3d 840e 333e
00000020: df61 edbc ee8f 58bd 4469 853e 6403 103d
00000030: 83bb 053e 2582 303d c671 3bbe cdca 353d
00000040: cb32 3d3d e17b 44be 3030 d0bc e5a6 843e
00000050: 5a97 6b3d 8ed1 9d3d fd87 8cbc ef68 303d
00000060: 0bdf 5b3e 76aa 1cbe 53e6 98be 4143 463d
00000070: 0398 5bbe 0e81 383c cb9e eebd 7928 7ebd
00000080: 6ccf 85bd 24e2 143e 53ee d33c c539 e9bb
00000090: 4404 a23e 485d 86be 97ca bb3e 5763 89be
000000a0: d83e 8bbd 440b 0cbe 60e1 00be 6174 55bc
000000b0: ef3f 0c3d 6e46 bf3d 1e02 7b3d 9d3d d8bd
000000c0: 17cd 313d 873b 913d f2db a13d 7ca4 e13b
000000d0: f7e7 073e 5bd3 303e 986d 2c3e 4330 2e3b
000000e0: 657d 84bd fcdd 88be 7792 5a3e acaf 9d3d
000000f0: 5c4e 943e a172 663e 9734 0f3d a65b bf3e
00000100: 17de b2bd 6ad6 f93d f474 ccbd 2878 bb3d
00000110: ad06 c2bd d98a 733e 26e2 6bbe 3a3b aabe
00000120: c8eb 40be 305c b6bc 9b79 cbbc 1960 25be
00000130: b88a 3d3e 5ed6 823e 871c d03c d3c3 d8bd
00000140: 58ff 84be 1433 473d dbb3 95be 51d4 ea3d
00000150: fa23 ec3d 63dd 1bbe 4f88 47be 7c7c d13d
00000160: 6a80 433e a015 3cbe 7626 46be 5f22 cf3d
00000170: fefe d43c 09b2 75bd 65a5 71be f53e cfbe
00000180: 7f7b 053f f6ee 0b3d a2bf c23e e2c0 0a3d
00000190: 2458 3cbd deec 8b3b 94a5 0bbf 381e 0f3d
000001a0: 8c91 23be 6b23 6c3d 802c 99be 459f bb3d
000001b0: 3fdb 6bbe be21 583e 7f77 343d 7cb7 1ebd
000001c0: e69a c3be b8a1 bcbe 5f74 96bb a28f ba3d
000001d0: 3d38 75be 4ef0 08be 8960 5c3e e2db 93be
000001e0: 1f30 b03e 1324 2d3d f210 1a3e a262 b0be
000001f0: 44bf a1be eae7 d83d 163d 513d 6189 2ebe
00000200: 598d e6bd 3ccf 813e df97 90b8 5d4f 2abe
00000210: cbe3 3c3e 52a7 b5bd d6e7 273e 5569 213e
00000220: a677 ba3d 26d8 31be 5096 a5bd f117 8ebe
00000230: 16f6 b33d 539c c33c 5bf5 16bd 8b39 c93e
00000240: 333b 223e c81c 5d3d 1f65 193e 1e00 573d
00000250: 5221 4c3e 9474 8b3c 115f df3e bc6d b43d
00000260: 562d 533d 1171 143d 66e1 63bd 63c5 7a3c
00000270: 1990 32be 07ca 9bbe d2cf 163c 4d7f fbbd
00000280: db9f 633e 9f65 d6bd c592 a4bd c20a 68bd
00000290: 385d 58be d125 adbd 966d 1a3d 578a 053e
000002a0: 0532 3a3e fd06 533c 431f a1bc d597 043e
000002b0: bd05 d3bd a62f 37bc ea00 953d bd23 0cbe
000002c0: d45a d73d deca 36be 6742 163e 1b4c a3be
000002d0: 5125 32be 16e8 803d a018 83bd b4cd 0cbe
000002e0: af1c 41be 933c 2ebd 276d 7ebd d388 3a3e
000002f0: 950d a5bd f68c 93bc f2bc a5be 264f e8bd
00000300: dc65 3dbe 8abe 05be 8b34 9f3e edc3 2a3d
00000310: 1e0f 123e 82c9 5dbd b0d1 703d e168 993c
00000320: 0e8d 133e 58b6 013e 27c3 adbe 87c6 a2bd
00000330: 8605 e93b 3022 c5bd 4842 06be 88bf aebd
00000340: efd8 dfbc 17f9 513d c31e 6abe 59d7 f1bd
00000350: 9a9d 06bc 135a 2bbe 7810 26bd 28b5 3c3a
00000360: 3423 a1bd ace8 34be dcdb 33be 8cae bb3d
00000370: 6bf1 653d 6b96 283e 5ab7 f33d ae31 babd
00000380: f050 31be 8e53 8abd 89d5 e23d c9b2 91bd
00000390: 7e17 60bd a1d0 873d cdb4 ac3c 87da f33d
000003a0: 63a6 4ebe c405 233d 5096 c33d e134 9cbd
000003b0: 624f ba3e ba85 c03d a41d 8139 65a0 123e
000003c0: 8f0e a8bd 73ba 103e 56a4 053d 128f 833e
000003d0: c498 85be 8925 ecbb b4af 053d 5f81 f0bd
000003e0: c5ba e7bd 6c6e 98bc 4c01 0abd 447a a03d
000003f0: 3243 b43d ac66 c6bd bfec 3cbe 4f23 75be
0.025885746 0.1260576 -0.10042408 -0.10025276 -0.100313485 -0.13494582 0.06869591 0.17486006
-0.028977333 -0.052871637 0.26056874 0.035159484 0.13059811 0.043092865 -0.1830512 0.04438286
0.046191018 -0.19187881 -0.025413603 0.2590858 0.057517387 0.07705985 -0.017154688 0.043068822
0.21471803 -0.152994 -0.29863223 0.048403982 -0.21444707 0.011261238 -0.11651381 -0.062050316
-0.06533703 0.14539391 0.025870478 -0.0071174824 0.3164388 -0.26243043 0.36678 -0.26833603
-0.06799096 -0.13676172 -0.12585974 -0.013028235 0.03424066 0.09339605 0.061281316 -0.10558627
0.04340848 0.07091432 0.07903279 0.006886063 0.13272081 0.17268126 0.16838682 0.002657906
-0.064692296 -0.2673186 0.21344934 0.076995224 0.28966033 0.22504665 0.034962263 0.3737461
-0.087337665 0.12199099 -0.099832445 0.09153777 -0.094739296 0.23783435 -0.23035488 -0.3324831
-0.18839943 -0.022260755 -0.02483826 -0.1614994 0.18509948 0.25554174 0.025404228 -0.105842255
-0.25976062 0.048632696 -0.2923878 0.114662774 0.115302995 -0.15221171 -0.19485591 0.10228822
0.19091955 -0.18367624 -0.19350609 0.10113978 0.026000496 -0.05998424 -0.2359825 -0.4047772
0.52141565 0.034163438 0.3803683 0.033875354 -0.045982495 0.00427018 -0.5454953 0.03494093
-0.1597349 0.057650965 -0.29916763 0.091612376 -0.23032854 0.21106622 0.044059273 -0.038749203
-0.38204116 -0.36842132 -0.0045915092 0.09109427 -0.23947234 -0.13372919 0.215212 -0.28878695
0.34411713 0.04227073 0.15045527 -0.3445025 -0.31591237 0.10591109 0.051083647 -0.17044593
-0.11257429 0.2535342 -6.894743e-05 -0.16631837 0.18446271 -0.088698044 0.16397032 0.15762837
0.091048524 -0.1736761 -0.080853105 -0.2775264 0.087871715 0.023878252 -0.036855083 0.39301714
0.15842895 0.053982526 0.14979981 0.052490346 0.19934586 0.017023362 0.43627217 0.08809993
0.051556908 0.03624064 -0.05563488 0.01530585 -0.17437781 -0.30427572 0.009204822 -0.1228014
0.22228949 -0.104686014 -0.080358066 -0.056650884 -0.2112931 -0.084544785 0.037702166 0.13041054
0.18183143 0.012880084 -0.019668227 0.12948544 -0.10303829 -0.011180794 0.07275565 -0.13685508
0.10515371 -0.17850825 0.14673768 -0.31894 -0.17397048 0.06294267 -0.06401181 -0.13750345
-0.18858598 -0.042538237 -0.062115815 0.18216257 -0.08059231 -0.018011551 -0.32370716 -0.11343221
-0.18495888 -0.13060966 0.31094775 0.041690756 0.14263579 -0.05414725 0.058793724 0.018726768
0.14409277 0.12667215 -0.33937952 -0.07948022 0.007111254 -0.096256614 -0.13111222 -0.085326254
-0.027325122 0.05126294 -0.22863297 -0.118086524 -0.008216286 -0.1673358 -0.04054305 0.0007198625
-0.078680426 -0.17666882 -0.17564338 0.091641515 0.056138437 0.1646363 0.11900206 -0.09091507
-0.17316031 -0.06754218 0.11075885 -0.07114179 -0.054709904 0.0663159 0.021082306 0.11906915
-0.20180659 0.03980042 0.09550154 -0.07627273 0.3638869 0.09400506 0.0002462688 0.14318998
-0.08205902 0.14133625 0.032627426 0.2569509 -0.26093113 -0.007206623 0.032638267 -0.117434256
-0.1131492 -0.01860734 -0.033692643 0.0783582 0.08801879 -0.09687552 -0.18449686 -0.2393925

bias f4 [64]
00000000: 1d94 5b3e 54dd 18be b931 75bb f3f7 713e
00000010: a654 bebc 1e4c 283d 51cf 2fbd b016 8f3d
00000020: 88f2 ecbc 0262 bfbd a310 1a3e f41a 4fbd
00000030: 77c6 233e b1f9 bbbc 67e7 19bc ec49 04be
00000040: f981 abbe 1f9a d9bc 3071 b13c 6da6 d13d
00000050: dfba c13c 49fd 643e 09e6 903c 26e2 aabd
00000060: 4d8c d83c 531a c9bd ca23 8dbd 26ce d33d
00000070: 7150 6c3d 4888 a43d ad85 a63e a5e2 a73c
00000080: 51cc 9b3e d915 30be 2493 6c3e a997 8bbe
00000090: d85b e03c aa9b d63c 3f3d 9dbd 1c24 af3e
000000a0: b01d 27bc d22e 063e 921c 223e 3044 7f3e
000000b0: eb04 843e 33e4 fc3c cd33 45be cde6 11be
000000c0: 64da 7f3d 8d3a b83c 1ad9 89bd 758f 193c
000000d0: 6b24 08be cbc5 b63d a48b b2bc c3b0 b7bc
000000e0: fd9e 9dbd 66fb 773d 7d35 d13d aaf5 2c3e
000000f0: 3c58 003e 7e71 fcbc e8c9 8dbe 85b2 85be
0.2144322 -0.1492818 -0.003741367 0.23629741 -0.023233723 0.041088216 -0.04292232 0.06986749
-0.028924242 -0.093448654 0.15045409 -0.050562814 0.15993677 -0.02294621 -0.0093935495 -0.12918824
-0.334976 -0.026562748 0.021660417 0.10236821 0.023648677 0.22362246 0.017687814 -0.08343916
0.026434088 -0.09819474 -0.06891592 0.10342054 0.057693902 0.08033806 0.32523862 0.020493815
0.3042932 -0.17195834 0.23103005 -0.27264145 0.027387545 0.026197273 -0.076776974 0.34207237
-0.010199949 0.13103798 0.15831211 0.24928355 0.25785002 0.030870533 -0.19258042 -0.142482
0.062464133 0.022488857 -0.06730862 0.009372582 -0.13295142 0.08924445 -0.021795101 -0.022423154
-0.0769634 0.060542487 0.1021528 0.16890588 0.12533659 -0.030815836 -0.27693105 -0.26112762

weight f4 [1, 64]
00000000: bda3 8dbd 4223 d23e b02d 9dbc db90 1b3d
00000010: 7b1c 893d c23a 82bd 6acf 93bd c995 9fbd
00000020: 5e80 2a3d f9cf 5fbe e67f 9abd 7579 66be
00000030: 4d43 10be 14f7 a8be 85b5 97be 51fb 40be
00000040: e66f 963e 7112 87bd 26a8 8b3d bb6f 20bd
00000050: b92f 56bd dde1 2fbe 0031 aabe 4eea 0c3c
00000060: 1945 4f3e 3aaf 17bd 2b13 383d 02fd cebc
00000070: cd3e a5bd 79ce 5e3d f1f9 2f3e af3a 2dbc
00000080: 9c0e dc3d 206b 5b3e 2137 4dbd 218b a83d
00000090: 222b 4abc 8220 d8bc bb15 f23c c5e2 4c3e
000000a0: 4e97 6ebd c364 943d 62f1 f7bd 23fd 01be
000000b0: 025c e5be eb32 f63d 2bc3 c4bd 29e3 3dbe
000000c0: ceb6 b93d d8b3 9abc f7ef 3cbe 09a2 e13d
000000d0: e4af 873d 20a8 253d 4275 7dbe 8c97 66be
000000e0: f37c 6fbd 9b55 843d 981c 0abe fdb3 e1be
000000f0: 86be 113e 9a5d 623e c1bb e23b a352 2e3d
-0.06915996 0.41042525 -0.019186825 0.03797994 0.06694885 -0.063588634 -0.072172955 -0.07792241
0.041626327 -0.21856679 -0.07543926 -0.2250727 -0.14088173 -0.33001006 -0.29630676 -0.1884587
0.29382247 -0.06595314 0.06819181 -0.039169054 -0.052291606 -0.17176004 -0.3324051 0.0086007845
0.20241202 -0.037032343 0.044940155 -0.025267128 -0.08068619 0.054396126 0.17185189 -0.010573073
0.10744974 0.21427584 -0.050101403 0.08229662 -0.012339385 -0.026382688 0.029551378 0.2000838
-0.058249764 0.07245781 -0.12106587 -0.1269422 -0.4479676 0.120214306 -0.09607538 -0.18543686
0.0906807 -0.018884584 -0.18450914 0.11017234 0.06625345 0.04044354 -0.24751762 -0.22518748
-0.05846877 0.064616404 -0.1348747 -0.44082633 0.14232835 0.22106019 0.0069193547 0.042559277

weight f4 [1, 64]
00000000: 6372 a0bc bc65 903c cbbe d63d 7e80 e1bc
00000010: 133d 19be 7302 693e a920 2bbe bc0d 663e
00000020: 85fb 41be ac85 fe3b b39e d4bb 6f66 be3d
00000030: 7591 bdbc 4c36 51bd cc7a f93c bb8d 24ba
00000040: 74ff abbb 77fa b4be e27b 3b3d 19bf 3d3d
00000050: 435a f9be 4b3e 2e3d 18ec 413c 698f 1e3d
00000060: b97b 843b c2e1 553d 3ada 963b 8693 aabc
00000070: 9b01 e33b 4704 11bd 4483 063b 449b bdbc
00000080: 769f 39bc 01b1 16be a42a c23c 4fde d5bc
00000090: a9f9 a53d 5b5f 0fbd 0c2e e5bc 22e5 b73c
000000a0: a17e 90bc 3f5e 14bc c7d5 8a3c 09c7 c7bc
000000b0: 538f 8cbd 38a6 b13c d97f 6d3c e092 dabc
000000c0: fa84 8bbe 8e2d e6bb 6a0f 69bd 521d 1f3e
000000d0: 5aab 3b3e 6626 55bd d10d 923c e6df 123e
000000e0: 4e82 2dbd cbc7 8ebe 6ff4 12bd 5db7 23be
000000f0: 7248 edbc 3c8a 7a3e fed2 27bd 76dd 9dbb
-0.019585794 0.017626636 0.104856096 -0.02752709 -0.14964704 0.2275484 -0.16711678 0.22466177
-0.18943603 0.0077674 -0.006488645 0.092968814 -0.023140648 -0.051077172 0.030454062 -0.0006277223
-0.0052489582 -0.3534734 0.04577244 0.046324823 -0.48701677 0.042539876 0.011836074 0.038710985
0.004043069 0.052217253 0.0046036514 -0.020822298 0.0069276816 -0.03540447 0.0020525018 -0.023145325
-0.011329522 -0.14715959 0.023701973 -0.026106982 0.081042595 -0.035003047 -0.027976058 0.022448126
-0.017638506 -0.009055673 0.01694764 -0.0243869 -0.068632744 0.021685705 0.014495813 -0.026681364
-0.2724989 -0.0070244735 -0.056899466 0.15538529 0.18327084 -0.052038573 0.017828854 0.14343223
-0.042360596 -0.27886805 -0.03587764 -0.15987916 -0.028965209 0.24466795 -0.040972702 -0.00481766

exp_avg f4 [64, 6]
00000000: a330 df39 6729 51b9 71e4 14b7 ed9c 0fba
00000010: 1d32 973b d195 c83b f38d cf37 152b f938
00000020: 36fa a137 77e9 5437 e12e 2b3a f96b 4ab9
00000030: 2909 83b9 b300 0ab9 e56e 0539 b839 30b9
00000040: a2eb aaba d8b2 1839 95a5 bdb8 973f 8eb9
00000050: 087d 1f39 b25f 7cb9 6150 68b9 10a4 ecb8
00000060: 0b96 54b9 5a7b 783a 2b96 4dba e326 6638
00000070: f9df ab3b 7996 113c da61 973a 94d3 85ba
00000080: 4248 7e39 8e32 b2b9 b224 a3ba e313 b6bb
00000090: c5ef 96b9 6092 043a 6bf0 90b9 ec77 213a
000000a0: e13c 57bb 296c dcba 629f dbba c54c a63a
000000b0: 0013 1ab8 ceac a73a cae6 3cba 85c9 e83b
000000c0: b540 92b8 5493 02b9 cb65 9737 c1e6 ec39
000000d0: d217 763a 6cf7 693c 13bd 3bba f594 c139
000000e0: 7b47 e438 602f 233a 6383 e1bb 6ae4 c3bb
000000f0: 79a6 50b9 2271 bd39 73c4 ca37 9194 c8b8
00000100: 952e 803a 390a 5dbb 0717 9238 f236 13b9
00000110: 9de4 f1b7 a9e7 4cb9 85ab 903a c500 023a
00000120: 0122 3d39 7c16 7439 0492 24b9 1829 4639
00000130: 0530 b73a c9d0 1938 3dc1 bc38 9b17 26ba
00000140: f5a4 8139 f444 73b9 26d4 2dbb 8687 23bc
00000150: 256e 9eb8 e02f 72b9 9e70 9138 4e78 61b9
00000160: 0b52 b4b8 8c7f 96b8 7717 0ab9 e9b9 0439
00000170: b07a 6038 25ab 3936 ac40 28ba 5266 97ba
00000180: 9e99 25bb ca06 af3a 55ca 6cb8 5024 5f35
00000190: ccc6 39ba f4ee 0b3c 714e 15b9 babd 1cb9
000001a0: 4df9 7eb9 d173 c439 89be 4abb 11a4 0cbc
000001b0: 1dc7 ac39 5326 6e39 f8fb 18b9 92dc af39
000001c0: 7a6f 6d3b 448e 853c 49bf e6ba 7ecb f83a
000001d0: 60f5 6bb9 b40e 83b9 91a1 7ebb fa7b 92bc
000001e0: 7fda 4eb8 9449 e338 00f2 e638 01c6 33b9
000001f0: 3e2b 1e3a 86aa e6b9 3a34 91ba 41a3 963a
00000200: 307b 15b9 c8fe 183a 4f14 213b 58f1 8e3c
00000210: 6176 3339 a940 5037 8ad9 87b9 d0d5 6139
00000220: 5217 143a 087a c5ba 427a a8b8 f5fb c3b6
00000230: 557e c6b6 4dca 4e38 4955 14ba fe03 0538
00000240: e03a beb9 a5bf f6b9 dc19 7c3a ba1d 27b8
00000250: 5223 d23a dcd1 943b 08b8 81b8 fff9 04b9
00000260: 2212 b2b6 f94e 1139 a03f aeba f9bd bdb9
00000270: af4f 29b9 dd19 dc39 1fbb 3db9 4505 6038
00000280: b754 2939 e3cd 013b 55c3 0eb9 ad1a 0cba
00000290: 4740 813a 95ee d638 1987 9139 820f f63a
000002a0: 371c 0fba 52a1 2e39 ab72 5838 56d9 703a
000002b0: 4d9a d8bb 8cbb 36bc 9ca4 75b9 7dd0 8837
000002c0: baf3 1db8 15b4 3fb7 5028 09ba 5f2e 6db9
000002d0: 4508 98b9 9bea 123a d788 71b9 e5d1 ae36
000002e0: 6557 c83b d6af 1b3c afed 1b39 2e72 b6b9
000002f0: d346 efb8 5b8c ad38 5f01 a73a 2950 0d39
00000300: bf60 013b 5659 f3ba 34ac 6d3a bd77 f2ba
00000310: 1392 48bb 3e7f 38bc 3e4f 9837 dbec 093a
00000320: dd77 0eba e84c 6938 da12 5e3b 5072 f63b
00000330: 80b0 0cb9 7022 6739 20e6 1734 19dd 1638
00000340: 7242 24b9 bc8a 2039 f0cd 383a 1233 dab9
00000350: 8797 2cb9 d893 3fba 383f e03b adba b63b
00000360: 1be1 2d39 cb11 e638 cff8 d0b8 57ea 36ba
00000370: f89b d33b 3227 173b 9355 3438 ed22 cc39
00000380: 5faf 10ba 1386 13b8 38c9 b23b 49ad 173c
00000390: ca9d 9cba a01e b63a 6713 a339 754f 1fba
000003a0: 39ea 323a c785 973b 2e77 543a b634 81ba
000003b0: 10d1 0bb9 8177 d739 deaa a33a d47b 423c
000003c0: ab0e 33b9 417f 07b9 689b 5db9 6ed5 4a3a
000003d0: c5a4 8fbb 324f 07bc f840 fbb7 bb91 0d38
000003e0: afb6 25b8 1a9f 7d38 ed56 7939 dd5f 5439
000003f0: a855 4dba 266c 153a 7730 2138 a1a8 473a
0.00042570112 -0.00019947217 -8.874676e-06 -0.0005478401 0.0046141283 0.006121375 2.4742423e-05 0.0001188127
1.930921e-05 1.26905425e-05 0.0006530118 -0.00019304444 -0.00024993092 -0.00013160966 0.0001272518 -0.0001680617
-0.0013040195 0.00014562474 -9.043064e-05 -0.0002713173 0.0001521 -0.00024068242 -0.00022155188 -0.00011283916
-0.00020273791 0.000947883 -0.0007842506 5.487249e-05 0.0052452055 0.008885973 0.0011549548 -0.001021015
0.00024250246 -0.00033988472 -0.0012446849 -0.00555657 -0.00028788872 0.0005057212 -0.00027644946 0.00061595323
-0.0032842683 -0.0016816902 -0.0016755874 0.0012687674 -3.6734156e-05 0.0012792589 -0.0007206021 0.007104101
-6.973875e-05 -0.0001245265 1.8048004e-05 0.00045185353 0.0009387705 0.014280181 -0.0007161658 0.0003692281
0.000108852015 0.0006225016 -0.0068821176 -0.005978157 -0.00019898442 0.0003613318 2.4171755e-05 -9.564416e-05
0.0009779508 -0.0033728017 6.966112e-05 -0.00014039481 -2.8835895e-05 -0.00019541256 0.0011037445 0.0004959221
0.00018037112 0.0002327803 -0.00015694654 0.0001889806 0.0013976103 3.667249e-05 9.000532e-05 -0.0006335915
0.000247277 -0.00023199973 -0.0026524155 -0.009981042 -7.554543e-05 -0.00023096753 6.9351154e-05 -0.00021502489
-8.5983505e-05 -7.176315e-05 -0.00013169447 0.00012657758 5.3520023e-05 2.7666767e-06 -0.0006418328 -0.001155088
-0.0025268565 0.0013353464 -5.645522e-05 8.3126815e-07 -0.0007086813 0.008540858 -0.00014238969 -0.00014947998
-0.000243162 0.00037470323 -0.0030936322 -0.008584038 0.00032954747 0.00022711726 -0.00014589715 0.0003354294
0.0036229775 0.01630319 -0.0017604615 0.0018981544 -0.00022502756 -0.00024997222 -0.0038853625 -0.017881382
-4.9317718e-05 0.000108379085 0.00011012331 -0.00017144532 0.0006033665 -0.00043996068 -0.0011078187 0.0011492745
-0.00014255638 0.0005836305 0.0024578755 0.017449066 0.0001711487 1.2412821e-05 -0.00025911286 0.00021537323
0.0005649227 -0.0015066275 -8.0336365e-05 -5.8407845e-06 -5.915567e-06 4.9302635e-05 -0.00056584604 3.171339e-05
-0.0003628349 -0.00047063563 0.00096168905 -3.9843588e-05 0.0016032255 0.0045416187 -6.185478e-05 -0.00012681632
-5.3069243e-06 0.00013857697 -0.0013294108 -0.0003619043 -0.0001614678 0.0004198094 -0.00018094153 5.341067e-05
0.00016148655 0.0019806556 -0.00013614942 -0.0005344551 0.0009861075 0.000102487546 0.0002775721 0.0018772932
-0.00054592214 0.0001665403 5.1605206e-05 0.0009187659 -0.006610191 -0.011153113 -0.00023426343 1.6309548e-05
-3.7658705e-05 -1.1426416e-05 -0.0005232142 -0.00022619356 -0.0002899786 0.0005604417 -0.00023034528 5.210039e-06
0.006113934 0.009502372 0.00014870496 -0.00034798816 -0.000114096 8.275426e-05 0.0012741497 0.0001347667
0.0019741503 -0.0018566053 0.0009066493 -0.001849882 -0.0030604645 -0.011260806 1.8156712e-05 0.00052614295
-0.0005434731 5.5623153e-05 0.0033885748 0.0075209513 -0.00013417192 0.00022042706 1.414669e-07 3.59687e-05
-0.00015665012 0.00015310472 0.000704973 -0.0004161825 -0.00016459647 -0.0007308102 0.0068434738 0.0055764527
0.00016582424 0.00010970569 -9.964557e-05 -0.00069776684 0.006457802 0.0023064134 4.299504e-05 0.00038935934
-0.00055192964 -3.5172397e-05 0.005456116 0.009257623 -0.001194888 0.0013894625 0.0003110424 -0.00060772087
0.0006825063 0.004624102 0.00081049174 -0.0009857628 -0.00013333955 0.00041097033 0.0012486835 0.011870343
-0.00017076235 -0.00012922009 -0.00021134096 0.0007737492 -0.0043836557 -0.008258628 -2.9951785e-05 3.375274e-05
-3.9509203e-05 6.0468075e-05 0.00023778873 0.00020253607 -0.0007832893 0.00057000143 3.8430528e-05 0.0007616375
