ppo_algorithm/data/Levitation-v1_2019-03-13_16-51-54/checkpoint/save_file.pt (torch_old, 53779 bytes, 24 tensors)

net.0.weight f4 [32, 4]
0	0xbda20a85	-0.07912163
1	0x3ff1f9ca	1.8904355
2	0x3e8e8f3f	0.27843663
3	0xbe06cf43	-0.13165002
4	0x3ec0c960	0.37653637
5	0x3fa64c3b	1.2992014
6	0x3f3eceb6	0.74534166
7	0xbe4e7026	-0.20159969
8	0x3ecafb3e	0.39644808
9	0x3fb09e25	1.3798262
10	0x3f79e549	0.97615486
11	0xbe0d0d8b	-0.13774697
12	0x3f734d6b	0.95040005
13	0x3e98fb06	0.29879016
14	0x3ebd0008	0.36914086
15	0x3f0aa33e	0.5415534
16	0xbebccbad	-0.36874142
17	0x3ef8c9b4	0.48591387
18	0x3e37a3b5	0.17933543
19	0x3fb8dd39	1.4442512
20	0xbf0ce498	-0.55036306
21	0xbfc2efbb	-1.522941
22	0xbf1c50c7	-0.61060756
23	0x3e0b7558	0.13618982
24	0x3ed7fbfc	0.42184436
25	0xbfe466fe	-1.7843931
26	0xbe6f7d95	-0.2338775
27	0x3de6a17c	0.112612695
28	0xbf8be855	-1.0930277
29	0xbfe23e09	-1.7675182
30	0xbf909225	-1.12946
31	0x3e1c7010	0.15277123
32	0x3f02d0af	0.51099676
33	0xbfd11fb0	-1.6337795
34	0x3e35d791	0.17758013
35	0x3cac7dd5	0.021056095
36	0x3eb9acb6	0.3626458
37	0x3fd89545	1.6920553
38	0x3f6e202d	0.93017846
39	0xbe4b007a	-0.198244
40	0x3f1e9f18	0.6196151
41	0xbe328221	-0.17432453
42	0xbf0e9f67	-0.5571198
43	0xbf4d1a4a	-0.8011824
44	0xbe442e1d	-0.19158216
45	0xbf09936c	-0.5374057
46	0xbf826954	-1.0188394
47	0xbeb09554	-0.34488928
48	0x3dcd9ece	0.10040055
49	0x3f9d9e07	1.2313851
50	0x3daf9c24	0.08574703
51	0xbe4d4b3e	-0.20048234
52	0x3e3e7171	0.18597962
53	0x3f60f5a7	0.87874836
54	0x3f070893	0.5274746
55	0x3ea0ffb3	0.31445083
56	0xbea6da18	-0.32588267
57	0xbe14714c	-0.14496344
58	0xbf2cf88c	-0.6756675
59	0xbed78a59	-0.42097738
60	0xbd8f0b0b	-0.06984528
61	0x3fc6f400	1.5543213
62	0x3f50fcce	0.8163575
63	0xbe635615	-0.22200806
64	0xbe4d70b6	-0.20062527
65	0xbfd978f1	-1.6990033
66	0xbe99ccc1	-0.30039027
67	0x3d44bd45	0.048032064
68	0xbe700242	-0.23438361
69	0xbfdc15fd	-1.719421
70	0xbf510886	-0.8165363
71	0x3e8377e8	0.2567742
72	0xbead0da1	-0.3379946
73	0xbfb14c23	-1.385136
74	0x3eb45258	0.35219073
75	0xbe0e41fc	-0.13892359
76	0x3eb89de4	0.3605796
77	0x3fdb082b	1.7111868
78	0x3ea46174	0.321056
79	0xbd8949a5	-0.067035
80	0x3e5a3ac2	0.21311477
81	0xbc34bb3c	-0.011030968
82	0x3f07fb5c	0.5311792
83	0xbecc4107	-0.39893362
84	0x3e704dd0	0.23467183
85	0x3f02aaa3	0.5104162
86	0x3eafde6c	0.34349382
87	0x3ee9bffa	0.4565428
88	0xbf0d2cbd	-0.5514639
89	0xbf1d7652	-0.6150867
90	0xbdce047a	-0.100594476
91	0xbf0b3b55	-0.5438741
92	0x3cfaef69	0.030631738
93	0x3f9b55c8	1.2135553
94	0x3f6a42ea	0.9150835
95	0xbd8aa8bd	-0.067704655
96	0xbf2655d5	-0.6497472
97	0xbec51ac0	-0.3849697
98	0xbf82dbfb	-1.0223383
99	0xbf074c5f	-0.5285091
100	0xbdb7046d	-0.08936391
101	0x3fd44459	1.6583358
102	0x3f0c6fb5	0.5485795
103	0xbe169ba5	-0.14707811
104	0xbe655c89	-0.2239858
105	0x3ef858a0	0.48505116
106	0x3e06bb69	0.13157429
107	0x3ea5e944	0.3240453
108	0xbc7951db	-0.01521727
109	0xbf0a8f30	-0.54124737
110	0x3e82a5f9	0.25517252
111	0xbf4779dd	-0.77920324
112	0xbf04d65f	-0.51889604
113	0xbf5f9e33	-0.8735077
114	0xbf6a6d9e	-0.9157351
115	0xbea87540	-0.32901955
116	0xbe1df37b	-0.15424912
117	0xbf39150b	-0.72297734
118	0xbf3949c1	-0.72378165
119	0xbef2e4a7	-0.47440073
120	0xbf0913f8	-0.53546095
121	0xbfcf644a	-1.6202481
122	0xbe2e089f	-0.16995476
123	0x3e084df3	0.13310985
124	0x3e61c406	0.22047433
125	0x3f560366	0.83598936
126	0x3e2b286b	0.16714637
127	0xbdfae9dc	-0.122516364

net.0.bias f4 [32]
0	0xbd86bbcc	-0.06578788
1	0x3ef37342	0.47548872
2	0x3ec8008b	0.39062914
3	0x3f0e5376	0.555961
4	0xbeed0355	-0.46291605
5	0xbee5739a	-0.4481476
6	0x3c00b855	0.007856448
7	0xbee1adf7	-0.44078037
8	0x3e180c44	0.14848429
9	0x3e0ad18d	0.135565
10	0x3dde6aee	0.10860239
11	0xbdaa17dd	-0.08305333
12	0x3e8444f6	0.25833863
13	0x3e171ae1	0.14756347
14	0xbeedf9d3	-0.46479663
15	0x3f09e056	0.53857934
16	0x3d1a0f03	0.037611973
17	0xbe937253	-0.2879816
18	0xbe325665	-0.1741577
19	0x3d9b568c	0.07584867
20	0x3c8131d1	0.015770825
21	0x3edabbc0	0.42721367
22	0xbe626871	-0.22110154
23	0x3ec77148	0.38953614
24	0xbf0165d0	-0.5054598
25	0xbdb893c4	-0.09012559
26	0xbd42a67d	-0.047522057
27	0xbda8b3bd	-0.08237407
28	0xbe873603	-0.26408395
29	0xbef69a9e	-0.4816484
30	0xbef515a8	-0.47868085
31	0x3dbbff71	0.09179581

net.2.weight f4 [32, 32]
0	0xbee37edc	-0.44432724
1	0xbf32c35c	-0.69829345
2	0xbcc4022a	-0.023926813
3	0x3ec0d8de	0.37665457
4	0xbe31d093	-0.17364721
5	0x3ef3bd71	0.4760547
6	0x3a8311d6	0.0009999822
7	0x3f4fb750	0.8113909
8	0x3eaa1a50	0.332232
9	0xbfbf2891	-1.4934255
10	0xbb020679	-0.0019840284
11	0x3ecb87a2	0.39751917
12	0xbfc12afb	-1.5091242
13	0x3cd5a2a7	0.026078535
14	0xbd8aba28	-0.06773788
15	0xbfe3d6ef	-1.7799968
16	0x3e6946d5	0.22780927
17	0x3f858e10	1.0433979
18	0x3e1a3f44	0.15063196
19	0xbe4a09a0	-0.19730234
20	0xbe823602	-0.2543183
21	0x3e9e5b7a	0.30929166
22	0x3d342f20	0.043990254
23	0xbe703488	-0.23457539
24	0x3d0914e8	0.033467203
25	0xbf0cdc90	-0.5502405
26	0xbd70ebd0	-0.05881864
27	0xbdc1fc0b	-0.094719015
28	0xbdd94753	-0.10609307
29	0xbdcb78d8	-0.099351585
30	0x3da1de19	0.0790369
31	0xbf8d0325	-1.1016585
32	0xbe9da669	-0.30791023
33	0xbeacced4	-0.33751547
34	0x3f983c1e	1.1893346
35	0xbcb64f90	-0.022254735
36	0x3f1b02fc	0.6055143
37	0xbed387d4	-0.41314566
38	0xbe80cbd7	-0.25155517
39	0x3f3d8b42	0.74040616
40	0x3f7596dc	0.9593332
41	0xbe94377d	-0.28948584
42	0xbfb6b37e	-1.4273527
43	0xbf276c36	-0.6539949
44	0xbec72a63	-0.38899526
45	0xbf109784	-0.56481194
46	0xbe6ba942	-0.23013785
47	0xbf90f962	-1.1326106
48	0x3f15fc4a	0.5858809
49	0x4020e2ee	2.5138507
50	0xbe23ee56	-0.16008887
51	0xbfb53755	-1.4157511
52	0xbef382b9	-0.4756067
53	0xbd0b5434	-0.03401585
54	0xbf469543	-0.77571505
55	0x3e959c30	0.29220724
56	0xbf0909b5	-0.53530437
57	0xbf03bd5c	-0.51460814
58	0xbd951002	-0.07278444
59	0xbf0e6853	-0.55627936
60	0xbd622e4a	-0.055219926
61	0x3f0a198a	0.5394522
62	0x3f647866	0.89246213
63	0xbf6d5376	-0.92705476
64	0x3f128aea	0.57243216
65	0x3f3b2cec	0.7311542
66	0x3ff924b7	1.946433
67	0xbd76ac14	-0.0602227
68	0xbf27aef9	-0.6550136
69	0xbfb986f7	-1.4494313
70	0xbfc5ac27	-1.5443162
71	0xbf24033b	-0.6406743
72	0xbf43df4b	-0.76512593
73	0x3e9d92ab	0.3077596
74	0x3e90d137	0.28284618
75	0xbedef57a	-0.4354666
76	0x3f0114bb	0.5042226
77	0xbcce0bfd	-0.0251522
78	0x3e0edb07	0.1395074
79	0xbcc5837e	-0.024110552
80	0xbf08d998	-0.5345702
81	0xb969d7fe	-0.00022301075
82	0xbf8e4cf6	-1.1117237
83	0x3d86712d	0.06564555
84	0x3dbebc17	0.09313219
85	0xbdb63306	-0.08896451
86	0x3ebc1567	0.3673508
87	0x3f6a57c3	0.91540164
88	0xbd36a795	-0.044593412
89	0x3f4b7c83	0.79486865
90	0xbe1cc03d	-0.15307708
91	0x3ea3d5d7	0.31999084
92	0xbec408a2	-0.38287836
93	0xbe98f66f	-0.29875514
94	0xbf259368	-0.6467805
95	0x3ec33e61	0.3813353
96	0xbf00388f	-0.500863
97	0xbf2389a0	-0.63881874
98	0xbfced879	-1.6159812
99	0xbd3eefe6	-0.046615504
100	0x3e031233	0.12799911
101	0x3fc97525	1.5738875
102	0x3ecbff50	0.39843225
103	0x3f398ad3	0.72477454
104	0x3ece6b83	0.403164
105	0xbea80f8d	-0.32824364
106	0xbee3ed23	-0.44516858
107	0x3d85f678	0.06541151
108	0xbf0000be	-0.5000113
109	0xbe8e8923	-0.27839002
110	0xbdc3bd24	-0.0955756
111	0xbe837abb	-0.25679573
112	0x3eeb2ad3	0.4593111
113	0x3ecb8a16	0.3975379
114	0x3f38934a	0.72099745
115	0xbf41f93a	-0.75770915
116	0xbf405a03	-0.75137347
117	0xbe67bbf1	-0.22630288
118	0xbee18f70	-0.44054747
119	0xbf3c263b	-0.73495835
120	0xbeab1276	-0.33412522
121	0xbe6cb238	-0.2311486
122	0x3e82425f	0.25441262
123	0xbe89fcc2	-0.2695065
124	0x3db55fac	0.088561386
125	0x3e1de833	0.15420608
126	0x3f840e50	1.0316868
127	0xbe838f97	-0.25695488
128	0xbe4bcf1f	-0.19903229
129	0x3e19caa4	0.15018708
130	0xbf8b78a7	-1.0896195
131	0x3ed14385	0.40871826
132	0x3ee31d69	0.44358376
133	0xbe7b3704	-0.24532706
134	0xbea7f964	-0.32807457
135	0xbeb19c36	-0.34689492
136	0xbfa4cd78	-1.2875204
137	0xbed9fc85	-0.4257547
138	0x3f40cef0	0.7531576
139	0x3e03339a	0.12812653
140	0xbe0e6e69	-0.13909306
141	0x3eb082ee	0.3447489
142	0xbcb23a5b	-0.021756342
143	0x3e6bb6a5	0.23018892
144	0xbf9a23a9	-1.2042133
145	0xbfb27a41	-1.3943559
146	0x3e2417d9	0.16024722
147	0x3ff41b3f	1.9070815
148	0xbed58d1e	-0.41709226
149	0x3ed451e2	0.41468722
150	0xbe022800	-0.12710571
151	0x3f18bdec	0.596648
152	0xbedb2bd5	-0.4280688
153	0xbf0631be	-0.5241965
154	0x3eb398e7	0.35077593
155	0x3e5124b7	0.20424162
156	0xbf3bb43a	-0.7332188
157	0xbf24d7d6	-0.6439184
158	0xbf86845c	-1.0509143
159	0x3ee90c2c	0.455171
160	0x3e6f0e45	0.23345287
161	0x3e9050b8	0.28186584
162	0x3e12531e	0.14289519
163	0x3fa9f1fd	1.3276974
164	0x3e8e876e	0.278377
165	0xbe71a432	-0.23597792
166	0xbe910c46	-0.28329676
167	0xbd8e9953	-0.06962838
168	0xbd25faf0	-0.040522516
169	0xbd6503a9	-0.055911694
170	0xbf10360b	-0.56332463
171	0xbe7f75cd	-0.24947281
172	0xbf08f369	-0.53496414
173	0x3f14dc80	0.58148956
174	0xbf81a99c	-1.0129886
175	0xbdb61a2b	-0.0889171
176	0xbe17e7a3	-0.14834456
177	0xbe1de93e	-0.15421006
178	0xbe50adf8	-0.20378864
179	0x3ddc8c10	0.10768902
180	0xbe601bf5	-0.21885665
181	0x3f90023c	1.1250682
182	0xbf3b827c	-0.7324598
183	0x3ef1ce47	0.4722769
184	0xbf90c994	-1.1311517
185	0x3e9fb919	0.31195906
186	0x3f8e6aeb	1.1126379
187	0xbf540b75	-0.8282998
188	0xbf784b47	-0.96989864
189	0xbf3809cf	-0.71889967
190	0x3ef8d981	0.48603442
191	0xbe9095bc	-0.28239238
192	0xbf52e456	-0.82379663
193	0xbf326c26	-0.6969627
194	0xbe7658d1	-0.24057318
195	0x3e2c84ec	0.1684758
196	0x3e568334	0.20948488
197	0x3dcd6e18	0.10030764
198	0x3f171b12	0.5902568
199	0x3f5bef62	0.85912144
200	0x3f2dee42	0.6794168
201	0xbff2cd99	-1.8968993
202	0xbdaf2382	-0.085516945
203	0x3e95bde5	0.2924644
204	0xbfda1f10	-1.704073
205	0x3e1db0d1	0.15399481
206	0xbe41e7a4	-0.1893602
207	0xc016fda0	-2.35923
208	0x3e9c08f2	0.30475575
209	0x3f772569	0.9654146
210	0xbdfdf532	-0.12400283
211	0xbe881b17	-0.26583168
212	0xbe97482f	-0.2954726
213	0x3e6d5a8d	0.23179074
214	0x3e0a00e6	0.13476905
215	0x3d051ed3	0.0325001
216	0xbcbaae97	-0.022788329
217	0xbf67d47f	-0.9055862
218	0x3e63dbc5	0.22251804
219	0x3d17cc60	0.03706014
220	0x3e808db6	0.25108117
221	0xbe23a15e	-0.15979525
222	0x3ec2d196	0.38050526
223	0xbf5f7342	-0.87285244
224	0xbe8bcade	-0.27303213
225	0xbe771e43	-0.24132638
226	0x3efacb37	0.48983166
227	0xbef2bb40	-0.47408485
228	0xbeaa9ed0	-0.3332429
229	0xbe97779c	-0.29583442
230	0x3d9f47bc	0.07777354
231	0xbea0392c	-0.3129362
232	0x3e3f2d83	0.18669705
233	0x3e6e9527	0.23299085
234	0x3e188512	0.14894512
235	0x3fad2b9b	1.3528932
236	0x3e90ebf6	0.28305024
237	0xbee15d62	-0.44016558
238	0x3f4118d3	0.75428504
239	0x3dfa7bb4	0.12230626
240	0x3e364e95	0.17803414
241	0x3f017e1c	0.5058305
242	0x3da7f0b9	0.08200211
243	0xbec6b271	-0.38808015
244	0x3f450da7	0.76973957
245	0xbf80baec	-1.0057044
246	0x3f6b948b	0.92023534
247	0xbef3072d	-0.47466412
248	0x3eee7a3a	0.46577626
249	0xbe34ce15	-0.17656739
250	0xbee7c4fc	-0.45267475
251	0x3e53fbe8	0.20701563
252	0x3f0150e1	0.50514036
253	0x3f8d1a5e	1.1023672
254	0x3e8e8a70	0.27839994
255	0x3e1f6094	0.15564185

net.2.bias f4 [32]
0	0xbe2cfd30	-0.16893458
1	0xc01b1fac	-2.423808
2	0xbebc74a0	-0.36807728
3	0xbedb0c33	-0.42782745
4	0x403d0fc5	2.9540875
5	0x3dd737b7	0.10508674
6	0xbe0c3bf5	-0.13694747
7	0xbf07efab	-0.5310008
8	0xbf9025d8	-1.1261549
9	0xbe2e78d0	-0.17038274
10	0x3ec4cd6c	0.38437974
11	0xbf1c0b6f	-0.60954946
12	0x3e838129	0.2568448
13	0xbebac9e6	-0.3648216
14	0x404a3f5c	3.1601171
15	0x3f108b71	0.5646277
16	0x3e1db77a	0.15402022
17	0xc061f433	-3.5305297
18	0x3f391204	0.72293115
19	0xbf6b396a	-0.9188448
20	0x3d648a1a	0.055795766
21	0x3ea20290	0.3164258
22	0xbd9a92a6	-0.07547502
23	0x3eeb8a1d	0.4600381
24	0xbf297ec2	-0.6620904
25	0xbe997f84	-0.299801
26	0xbf40c3c3	-0.7529871
27	0xbe64ef37	-0.22356878
28	0xbe82b024	-0.2552501
29	0xbd8a2a20	-0.06746316
30	0x403b7388	2.9289265
31	0x3f0018bf	0.5003776

out_mean.weight f4 [1, 32]
0	0xbf0d776f	-0.55260366
1	0xbea27c0e	-0.3173527
2	0xbea85106	-0.32874316
3	0x3df76d1f	0.1208136
4	0x3dd38e06	0.10329823
5	0xbe9c5384	-0.30532467
6	0xbf4c4689	-0.7979513
7	0x3e19bc34	0.150132
8	0x3edf4269	0.43605354
9	0xbe3059f0	-0.17221808
10	0xbed1fb8c	-0.41012228
11	0x3e89acda	0.26889688
12	0xbec2bfbd	-0.3803691
13	0x3e256c69	0.16154636
14	0x3db2e065	0.08734206
15	0xbe8dd282	-0.27699667
16	0xbe4ed765	-0.20199354
17	0xbd6ad3fc	-0.05733107
18	0x3eb02911	0.3440633
19	0xbef33e2e	-0.47508377
20	0xbeeab8e5	-0.45844188
21	0xbe89152a	-0.2677396
22	0xb90d1d0a	-0.00013457626
23	0xbe88d992	-0.26728493
24	0x3ebf0971	0.3731189
25	0x3e385394	0.18000633
26	0x3e449938	0.19199073
27	0xbe9b719f	-0.30360124
28	0x3d96b786	0.07359223
29	0x3ed5ebff	0.41781613
30	0x3e088e8c	0.13335627
31	0x3f05c47c	0.52252936

out_value.weight f4 [1, 32]
0	0xbc2e2d17	-0.010630867
1	0x3e2d6f03	0.16936879
2	0x3d923491	0.071389325
3	0xbcd30b84	-0.025762327
4	0xbf5d7abd	-0.8651541
5	0x39888f6b	0.00026046796
6	0xbc4e55f5	-0.012593736
7	0xb9a285f5	-0.00030998854
8	0x3e2923e9	0.16517605
9	0x38246cd6	3.920201e-05
10	0x3b474930	0.0030408613
11	0xbd75c24f	-0.05999976
12	0x37b2bf4a	2.130833e-05
13	0xb9965fc4	-0.0002868158
14	0xbf8e8a8d	-1.1136032
15	0x3ce0e017	0.027450604
16	0xbae629f9	-0.0017560116
17	0x3faa4420	1.330204
18	0x3e0986da	0.13430348
19	0xb9dba903	-0.0004189686
20	0xbcae49cd	-0.021275425
21	0xbc004bc5	-0.007830565
22	0x3c62248d	0.01380266
23	0xbcf9c863	-0.03049106
24	0xbb4e0a6f	-0.0031439324
25	0x3cbdbd08	0.023161426
26	0xbce0a3da	-0.02742188
27	0xbaff5cb1	-0.001948258
28	0xbcc87dc7	-0.024474038
29	0x3a17b323	0.00057868863
30	0xbf9caf5c	-1.2241015
31	0xb9fd1148	-0.00048268796

weight f4 [32, 4]
0	0xbda20a85	-0.07912163
1	0x3ff1f9ca	1.8904355
2	0x3e8e8f3f	0.27843663
3	0xbe06cf43	-0.13165002
4	0x3ec0c960	0.37653637
5	0x3fa64c3b	1.2992014
6	0x3f3eceb6	0.74534166
7	0xbe4e7026	-0.20159969
8	0x3ecafb3e	0.39644808
9	0x3fb09e25	1.3798262
10	0x3f79e549	0.97615486
11	0xbe0d0d8b	-0.13774697
12	0x3f734d6b	0.95040005
13	0x3e98fb06	0.29879016
14	0x3ebd0008	0.36914086
15	0x3f0aa33e	0.5415534
16	0xbebccbad	-0.36874142
17	0x3ef8c9b4	0.48591387
18	0x3e37a3b5	0.17933543
19	0x3fb8dd39	1.4442512
20	0xbf0ce498	-0.55036306
21	0xbfc2efbb	-1.522941
22	0xbf1c50c7	-0.61060756
23	0x3e0b7558	0.13618982
24	0x3ed7fbfc	0.42184436
25	0xbfe466fe	-1.7843931
26	0xbe6f7d95	-0.2338775
27	0x3de6a17c	0.112612695
28	0xbf8be855	-1.0930277
29	0xbfe23e09	-1.7675182
30	0xbf909225	-1.12946
31	0x3e1c7010	0.15277123
32	0x3f02d0af	0.51099676
33	0xbfd11fb0	-1.6337795
34	0x3e35d791	0.17758013
35	0x3cac7dd5	0.021056095
36	0x3eb9acb6	0.3626458
37	0x3fd89545	1.6920553
38	0x3f6e202d	0.93017846
39	0xbe4b007a	-0.198244
40	0x3f1e9f18	0.6196151
41	0xbe328221	-0.17432453
42	0xbf0e9f67	-0.5571198
43	0xbf4d1a4a	-0.8011824
44	0xbe442e1d	-0.19158216
45	0xbf09936c	-0.5374057
46	0xbf826954	-1.0188394
47	0xbeb09554	-0.34488928
48	0x3dcd9ece	0.10040055
49	0x3f9d9e07	1.2313851
50	0x3daf9c24	0.08574703
51	0xbe4d4b3e	-0.20048234
52	0x3e3e7171	0.18597962
53	0x3f60f5a7	0.87874836
54	0x3f070893	0.5274746
55	0x3ea0ffb3	0.31445083
56	0xbea6da18	-0.32588267
57	0xbe14714c	-0.14496344
58	0xbf2cf88c	-0.6756675
59	0xbed78a59	-0.42097738
60	0xbd8f0b0b	-0.06984528
61	0x3fc6f400	1.5543213
62	0x3f50fcce	0.8163575
63	0xbe635615	-0.22200806
64	0xbe4d70b6	-0.20062527
65	0xbfd978f1	-1.6990033
66	0xbe99ccc1	-0.30039027
67	0x3d44bd45	0.048032064
68	0xbe700242	-0.23438361
69	0xbfdc15fd	-1.719421
70	0xbf510886	-0.8165363
71	0x3e8377e8	0.2567742
72	0xbead0da1	-0.3379946
73	0xbfb14c23	-1.385136
74	0x3eb45258	0.35219073
75	0xbe0e41fc	-0.13892359
76	0x3eb89de4	0.3605796
77	0x3fdb082b	1.7111868
78	0x3ea46174	0.321056
79	0xbd8949a5	-0.067035
80	0x3e5a3ac2	0.21311477
81	0xbc34bb3c	-0.011030968
82	0x3f07fb5c	0.5311792
83	0xbecc4107	-0.39893362
84	0x3e704dd0	0.23467183
85	0x3f02aaa3	0.5104162
86	0x3eafde6c	0.34349382
87	0x3ee9bffa	0.4565428
88	0xbf0d2cbd	-0.5514639
89	0xbf1d7652	-0.6150867
90	0xbdce047a	-0.100594476
91	0xbf0b3b55	-0.5438741
92	0x3cfaef69	0.030631738
93	0x3f9b55c8	1.2135553
94	0x3f6a42ea	0.9150835
95	0xbd8aa8bd	-0.067704655
96	0xbf2655d5	-0.6497472
97	0xbec51ac0	-0.3849697
98	0xbf82dbfb	-1.0223383
99	0xbf074c5f	-0.5285091
100	0xbdb7046d	-0.08936391
101	0x3fd44459	1.6583358
102	0x3f0c6fb5	0.5485795
103	0xbe169ba5	-0.14707811
104	0xbe655c89	-0.2239858
105	0x3ef858a0	0.48505116
106	0x3e06bb69	0.13157429
107	0x3ea5e944	0.3240453
108	0xbc7951db	-0.01521727
109	0xbf0a8f30	-0.54124737
110	0x3e82a5f9	0.25517252
111	0xbf4779dd	-0.77920324
112	0xbf04d65f	-0.51889604
113	0xbf5f9e33	-0.8735077
114	0xbf6a6d9e	-0.9157351
115	0xbea87540	-0.32901955
116	0xbe1df37b	-0.15424912
117	0xbf39150b	-0.72297734
118	0xbf3949c1	-0.72378165
119	0xbef2e4a7	-0.47440073
120	0xbf0913f8	-0.53546095
121	0xbfcf644a	-1.6202481
122	0xbe2e089f	-0.16995476
123	0x3e084df3	0.13310985
124	0x3e61c406	0.22047433
125	0x3f560366	0.83598936
126	0x3e2b286b	0.16714637
127	0xbdfae9dc	-0.122516364

bias f4 [32]
0	0xbd86bbcc	-0.06578788
1	0x3ef37342	0.47548872
2	0x3ec8008b	0.39062914
3	0x3f0e5376	0.555961
4	0xbeed0355	-0.46291605
5	0xbee5739a	-0.4481476
6	0x3c00b855	0.007856448
7	0xbee1adf7	-0.44078037
8	0x3e180c44	0.14848429
9	0x3e0ad18d	0.135565
10	0x3dde6aee	0.10860239
11	0xbdaa17dd	-0.08305333
12	0x3e8444f6	0.25833863
13	0x3e171ae1	0.14756347
14	0xbeedf9d3	-0.46479663
15	0x3f09e056	0.53857934
16	0x3d1a0f03	0.037611973
17	0xbe937253	-0.2879816
18	0xbe325665	-0.1741577
19	0x3d9b568c	0.07584867
20	0x3c8131d1	0.015770825
21	0x3edabbc0	0.42721367
22	0xbe626871	-0.22110154
23	0x3ec77148	0.38953614
24	0xbf0165d0	-0.5054598
25	0xbdb893c4	-0.09012559
26	0xbd42a67d	-0.047522057
27	0xbda8b3bd	-0.08237407
28	0xbe873603	-0.26408395
29	0xbef69a9e	-0.4816484
30	0xbef515a8	-0.47868085
31	0x3dbbff71	0.09179581

weight f4 [32, 32]
0	0xbee37edc	-0.44432724
1	0xbf32c35c	-0.69829345
2	0xbcc4022a	-0.023926813
3	0x3ec0d8de	0.37665457
4	0xbe31d093	-0.17364721
5	0x3ef3bd71	0.4760547
6	0x3a8311d6	0.0009999822
7	0x3f4fb750	0.8113909
8	0x3eaa1a50	0.332232
9	0xbfbf2891	-1.4934255
10	0xbb020679	-0.0019840284
11	0x3ecb87a2	0.39751917
12	0xbfc12afb	-1.5091242
13	0x3cd5a2a7	0.026078535
14	0xbd8aba28	-0.06773788
15	0xbfe3d6ef	-1.7799968
16	0x3e6946d5	0.22780927
17	0x3f858e10	1.0433979
18	0x3e1a3f44	0.15063196
19	0xbe4a09a0	-0.19730234
20	0xbe823602	-0.2543183
21	0x3e9e5b7a	0.30929166
22	0x3d342f20	0.043990254
23	0xbe703488	-0.23457539
24	0x3d0914e8	0.033467203
25	0xbf0cdc90	-0.5502405
26	0xbd70ebd0	-0.05881864
27	0xbdc1fc0b	-0.094719015
28	0xbdd94753	-0.10609307
29	0xbdcb78d8	-0.099351585
30	0x3da1de19	0.0790369
31	0xbf8d0325	-1.1016585
32	0xbe9da669	-0.30791023
33	0xbeacced4	-0.33751547
34	0x3f983c1e	1.1893346
35	0xbcb64f90	-0.022254735
36	0x3f1b02fc	0.6055143
37	0xbed387d4	-0.41314566
38	0xbe80cbd7	-0.25155517
39	0x3f3d8b42	0.74040616
40	0x3f7596dc	0.9593332
41	0xbe94377d	-0.28948584
42	0xbfb6b37e	-1.4273527
43	0xbf276c36	-0.6539949
44	0xbec72a63	-0.38899526
45	0xbf109784	-0.56481194
46	0xbe6ba942	-0.23013785
47	0xbf90f962	-1.1326106
48	0x3f15fc4a	0.5858809
49	0x4020e2ee	2.5138507
50	0xbe23ee56	-0.16008887
51	0xbfb53755	-1.4157511
52	0xbef382b9	-0.4756067
53	0xbd0b5434	-0.03401585
54	0xbf469543	-0.77571505
55	0x3e959c30	0.29220724
56	0xbf0909b5	-0.53530437
57	0xbf03bd5c	-0.51460814
58	0xbd951002	-0.07278444
59	0xbf0e6853	-0.55627936
60	0xbd622e4a	-0.055219926
61	0x3f0a198a	0.5394522
62	0x3f647866	0.89246213
63	0xbf6d5376	-0.92705476
64	0x3f128aea	0.57243216
65	0x3f3b2cec	0.7311542
66	0x3ff924b7	1.946433
67	0xbd76ac14	-0.0602227
68	0xbf27aef9	-0.6550136
69	0xbfb986f7	-1.4494313
70	0xbfc5ac27	-1.5443162
71	0xbf24033b	-0.6406743
72	0xbf43df4b	-0.76512593
73	0x3e9d92ab	0.3077596
74	0x3e90d137	0.28284618
75	0xbedef57a	-0.4354666
76	0x3f0114bb	0.5042226
77	0xbcce0bfd	-0.0251522
78	0x3e0edb07	0.1395074
79	0xbcc5837e	-0.024110552
80	0xbf08d998	-0.5345702
81	0xb969d7fe	-0.00022301075
82	0xbf8e4cf6	-1.1117237
83	0x3d86712d	0.06564555
84	0x3dbebc17	0.09313219
85	0xbdb63306	-0.08896451
86	0x3ebc1567	0.3673508
87	0x3f6a57c3	0.91540164
88	0xbd36a795	-0.044593412
89	0x3f4b7c83	0.79486865
90	0xbe1cc03d	-0.15307708
91	0x3ea3d5d7	0.31999084
92	0xbec408a2	-0.38287836
93	0xbe98f66f	-0.29875514
94	0xbf259368	-0.6467805
95	0x3ec33e61	0.3813353
96	0xbf00388f	-0.500863
97	0xbf2389a0	-0.63881874
98	0xbfced879	-1.6159812
99	0xbd3eefe6	-0.046615504
100	0x3e031233	0.12799911
101	0x3fc97525	1.5738875
102	0x3ecbff50	0.39843225
103	0x3f398ad3	0.72477454
104	0x3ece6b83	0.403164
105	0xbea80f8d	-0.32824364
106	0xbee3ed23	-0.44516858
107	0x3d85f678	0.06541151
108	0xbf0000be	-0.5000113
109	0xbe8e8923	-0.27839002
110	0xbdc3bd24	-0.0955756
111	0xbe837abb	-0.25679573
112	0x3eeb2ad3	0.4593111
113	0x3ecb8a16	0.3975379
114	0x3f38934a	0.72099745
115	0xbf41f93a	-0.75770915
116	0xbf405a03	-0.75137347
117	0xbe67bbf1	-0.22630288
118	0xbee18f70	-0.44054747
119	0xbf3c263b	-0.73495835
120	0xbeab1276	-0.33412522
121	0xbe6cb238	-0.2311486
122	0x3e82425f	0.25441262
123	0xbe89fcc2	-0.2695065
124	0x3db55fac	0.088561386
125	0x3e1de833	0.15420608
126	0x3f840e50	1.0316868
127	0xbe838f97	-0.25695488
128	0xbe4bcf1f	-0.19903229
129	0x3e19caa4	0.15018708
130	0xbf8b78a7	-1.0896195
131	0x3ed14385	0.40871826
132	0x3ee31d69	0.44358376
133	0xbe7b3704	-0.24532706
134	0xbea7f964	-0.32807457
135	0xbeb19c36	-0.34689492
136	0xbfa4cd78	-1.2875204
137	0xbed9fc85	-0.4257547
138	0x3f40cef0	0.7531576
139	0x3e03339a	0.12812653
140	0xbe0e6e69	-0.13909306
141	0x3eb082ee	0.3447489
142	0xbcb23a5b	-0.021756342
143	0x3e6bb6a5	0.23018892
144	0xbf9a23a9	-1.2042133
145	0xbfb27a41	-1.3943559
146	0x3e2417d9	0.16024722
147	0x3ff41b3f	1.9070815
148	0xbed58d1e	-0.41709226
149	0x3ed451e2	0.41468722
150	0xbe022800	-0.12710571
151	0x3f18bdec	0.596648
152	0xbedb2bd5	-0.4280688
153	0xbf0631be	-0.5241965
154	0x3eb398e7	0.35077593
155	0x3e5124b7	0.20424162
156	0xbf3bb43a	-0.7332188
157	0xbf24d7d6	-0.6439184
158	0xbf86845c	-1.0509143
159	0x3ee90c2c	0.455171
160	0x3e6f0e45	0.23345287
161	0x3e9050b8	0.28186584
162	0x3e12531e	0.14289519
163	0x3fa9f1fd	1.3276974
164	0x3e8e876e	0.278377
165	0xbe71a432	-0.23597792
166	0xbe910c46	-0.28329676
167	0xbd8e9953	-0.06962838
168	0xbd25faf0	-0.040522516
169	0xbd6503a9	-0.055911694
170	0xbf10360b	-0.56332463
171	0xbe7f75cd	-0.24947281
172	0xbf08f369	-0.53496414
173	0x3f14dc80	0.58148956
174	0xbf81a99c	-1.0129886
175	0xbdb61a2b	-0.0889171
176	0xbe17e7a3	-0.14834456
177	0xbe1de93e	-0.15421006
178	0xbe50adf8	-0.20378864
179	0x3ddc8c10	0.10768902
180	0xbe601bf5	-0.21885665
181	0x3f90023c	1.1250682
182	0xbf3b827c	-0.7324598
183	0x3ef1ce47	0.4722769
184	0xbf90c994	-1.1311517
185	0x3e9fb919	0.31195906
186	0x3f8e6aeb	1.1126379
187	0xbf540b75	-0.8282998
188	0xbf784b47	-0.96989864
189	0xbf3809cf	-0.71889967
190	0x3ef8d981	0.48603442
191	0xbe9095bc	-0.28239238
192	0xbf52e456	-0.82379663
193	0xbf326c26	-0.6969627
194	0xbe7658d1	-0.24057318
195	0x3e2c84ec	0.1684758
196	0x3e568334	0.20948488
197	0x3dcd6e18	0.10030764
198	0x3f171b12	0.5902568
199	0x3f5bef62	0.85912144
200	0x3f2dee42	0.6794168
201	0xbff2cd99	-1.8968993
202	0xbdaf2382	-0.085516945
203	0x3e95bde5	0.2924644
204	0xbfda1f10	-1.704073
205	0x3e1db0d1	0.15399481
206	0xbe41e7a4	-0.1893602
207	0xc016fda0	-2.35923
208	0x3e9c08f2	0.30475575
209	0x3f772569	0.9654146
210	0xbdfdf532	-0.12400283
211	0xbe881b17	-0.26583168
212	0xbe97482f	-0.2954726
213	0x3e6d5a8d	0.23179074
214	0x3e0a00e6	0.13476905
215	0x3d051ed3	0.0325001
216	0xbcbaae97	-0.022788329
217	0xbf67d47f	-0.9055862
218	0x3e63dbc5	0.22251804
219	0x3d17cc60	0.03706014
220	0x3e808db6	0.25108117
221	0xbe23a15e	-0.15979525
222	0x3ec2d196	0.38050526
223	0xbf5f7342	-0.87285244
224	0xbe8bcade	-0.27303213
225	0xbe771e43	-0.24132638
226	0x3efacb37	0.48983166
227	0xbef2bb40	-0.47408485
228	0xbeaa9ed0	-0.3332429
229	0xbe97779c	-0.29583442
230	0x3d9f47bc	0.07777354
231	0xbea0392c	-0.3129362
232	0x3e3f2d83	0.18669705
233	0x3e6e9527	0.23299085
234	0x3e188512	0.14894512
235	0x3fad2b9b	1.3528932
236	0x3e90ebf6	0.28305024
237	0xbee15d62	-0.44016558
238	0x3f4118d3	0.75428504
239	0x3dfa7bb4	0.12230626
240	0x3e364e95	0.17803414
241	0x3f017e1c	0.5058305
242	0x3da7f0b9	0.08200211
243	0xbec6b271	-0.38808015
244	0x3f450da7	0.76973957
245	0xbf80baec	-1.0057044
246	0x3f6b948b	0.92023534
247	0xbef3072d	-0.47466412
248	0x3eee7a3a	0.46577626
249	0xbe34ce15	-0.17656739
250	0xbee7c4fc	-0.45267475
251	0x3e53fbe8	0.20701563
252	0x3f0150e1	0.50514036
253	0x3f8d1a5e	1.1023672
254	0x3e8e8a70	0.27839994
255	0x3e1f6094	0.15564185

bias f4 [32]
0	0xbe2cfd30	-0.16893458
1	0xc01b1fac	-2.423808
2	0xbebc74a0	-0.36807728
3	0xbedb0c33	-0.42782745
4	0x403d0fc5	2.9540875
5	0x3dd737b7	0.10508674
6	0xbe0c3bf5	-0.13694747
7	0xbf07efab	-0.5310008
8	0xbf9025d8	-1.1261549
9	0xbe2e78d0	-0.17038274
10	0x3ec4cd6c	0.38437974
11	0xbf1c0b6f	-0.60954946
12	0x3e838129	0.2568448
13	0xbebac9e6	-0.3648216
14	0x404a3f5c	3.1601171
15	0x3f108b71	0.5646277
16	0x3e1db77a	0.15402022
17	0xc061f433	-3.5305297
18	0x3f391204	0.72293115
19	0xbf6b396a	-0.9188448
20	0x3d648a1a	0.055795766
21	0x3ea20290	0.3164258
22	0xbd9a92a6	-0.07547502
23	0x3eeb8a1d	0.4600381
24	0xbf297ec2	-0.6620904
25	0xbe997f84	-0.299801
26	0xbf40c3c3	-0.7529871
27	0xbe64ef37	-0.22356878
28	0xbe82b024	-0.2552501
29	0xbd8a2a20	-0.06746316
30	0x403b7388	2.9289265
31	0x3f0018bf	0.5003776

weight f4 [1, 32]
0	0xbf0d776f	-0.55260366
1	0xbea27c0e	-0.3173527
2	0xbea85106	-0.32874316
3	0x3df76d1f	0.1208136
4	0x3dd38e06	0.10329823
5	0xbe9c5384	-0.30532467
6	0xbf4c4689	-0.7979513
7	0x3e19bc34	0.150132
8	0x3edf4269	0.43605354
9	0xbe3059f0	-0.17221808
10	0xbed1fb8c	-0.41012228
11	0x3e89acda	0.26889688
12	0xbec2bfbd	-0.3803691
13	0x3e256c69	0.16154636
14	0x3db2e065	0.08734206
15	0xbe8dd282	-0.27699667
16	0xbe4ed765	-0.20199354
17	0xbd6ad3fc	-0.05733107
18	0x3eb02911	0.3440633
19	0xbef33e2e	-0.47508377
20	0xbeeab8e5	-0.45844188
21	0xbe89152a	-0.2677396
22	0xb90d1d0a	-0.00013457626
23	0xbe88d992	-0.26728493
24	0x3ebf0971	0.3731189
25	0x3e385394	0.18000633
26	0x3e449938	0.19199073
27	0xbe9b719f	-0.30360124
28	0x3d96b786	0.07359223
29	0x3ed5ebff	0.41781613
30	0x3e088e8c	0.13335627
31	0x3f05c47c	0.52252936

weight f4 [1, 32]
0	0xbc2e2d17	-0.010630867
1	0x3e2d6f03	0.16936879
2	0x3d923491	0.071389325
3	0xbcd30b84	-0.025762327
4	0xbf5d7abd	-0.8651541
5	0x39888f6b	0.00026046796
6	0xbc4e55f5	-0.012593736
7	0xb9a285f5	-0.00030998854
8	0x3e2923e9	0.16517605
9	0x38246cd6	3.920201e-05
10	0x3b474930	0.0030408613
11	0xbd75c24f	-0.05999976
12	0x37b2bf4a	2.130833e-05
13	0xb9965fc4	-0.0002868158
14	0xbf8e8a8d	-1.1136032
15	0x3ce0e017	0.027450604
16	0xbae629f9	-0.0017560116
17	0x3faa4420	1.330204
18	0x3e0986da	0.13430348
19	0xb9dba903	-0.0004189686
20	0xbcae49cd	-0.021275425
21	0xbc004bc5	-0.007830565
22	0x3c62248d	0.01380266
23	0xbcf9c863	-0.03049106
24	0xbb4e0a6f	-0.0031439324
25	0x3cbdbd08	0.023161426
26	0xbce0a3da	-0.02742188
27	0xbaff5cb1	-0.001948258
28	0xbcc87dc7	-0.024474038
29	0x3a17b323	0.00057868863
30	0xbf9caf5c	-1.2241015
31	0xb9fd1148	-0.00048268796

exp_avg f4 [32, 4]
0	0x381ef080	3.789412e-05
1	0x39f93d3e	0.0004753861
2	0x37cc4790	2.4352019e-05
3	0x3c27a456	0.010232052
4	0x37da8e15	2.6053787e-05
5	0x39682748	0.00022139878
6	0x3768c699	1.3874517e-05
7	0x3be58bec	0.0070052054
8	0x3808bd60	3.2601296e-05
9	0x3a33feea	0.0006866293
10	0x380bd31e	3.33368e-05
11	0x3c3ca0c8	0.011512943
12	0x34eaa0ed	4.3702985e-07
13	0x38f86da4	0.00011845984
14	0xb48737c2	-2.518628e-07
15	0xb91d31b3	-0.00014991201
16	0xb62d1a51	-2.5794327e-06
17	0x39c0bf3f	0.00036763583
18	0x3453a091	1.970932e-07
19	0x38a71e0e	7.968779e-05
20	0xb7c9ba99	-2.4047959e-05
21	0xb9adbe53	-0.00033138934
22	0xb7a42eae	-1.957206e-05
23	0xbbe94685	-0.0071190023
24	0xb7fd6adf	-3.0209716e-05
25	0xb9c2b784	-0.00037139293
26	0xb7a6b919	-1.9874935e-05
27	0xbbf8c62c	-0.0075919833
28	0xb857b8ab	-5.143198e-05
29	0xba488ec2	-0.0007650667
30	0xb81f442e	-3.797205e-05
31	0xbc82a7d4	-0.015949167
32	0xb80076e8	-3.062832e-05
33	0xb9a82de3	-0.00032077645
34	0xb7a3fd21	-1.9548987e-05
35	0xbc058289	-0.008148798
36	0x3786aedc	1.605547e-05
37	0xb9cda68a	-0.00039224728
38	0xb68dbcba	-4.224098e-06
39	0x3a95f55a	0.0011440918
40	0x36413585	2.8790394e-06
41	0xb99e76cc	-0.0003022462
42	0xb5945d6c	-1.1054049e-06
43	0xb8bb7352	-8.938335e-05
44	0x362ef014	2.6067764e-06
45	0xb92ab40b	-0.00016279535
46	0xb5bae55c	-1.3924832e-06
47	0x38737499	5.8044305e-05
48	0x37150b1f	8.883681e-06
49	0xba1065ef	-0.00055083534
50	0xb73bc5f2	-1.1192156e-05
51	0xba77c336	-0.0009451391
52	0x3459b082	2.0273913e-07
53	0xb871e730	-5.7674188e-05
54	0x3460110b	2.0867826e-07
55	0x39cf7668	0.00039570336
56	0x35a44302	1.2238454e-06
57	0xb910be52	-0.0001380381
58	0xb4740ba9	-2.2728513e-07
59	0x394aee84	0.00019353075
60	0x372a07aa	1.0134574e-05
61	0xba11b4cc	-0.0005558252
62	0xb714f310	-8.87808e-06
63	0xba5051df	-0.000794677
64	0xb8122302	-3.4841716e-05
65	0xb9f72d75	-0.0004714538
66	0xb7d8fec5	-2.5867843e-05
67	0xbc1ffc74	-0.009764779
68	0xb735dc11	-1.0839679e-05
69	0x3a49c618	0.000769706
70	0x37805cfe	1.5302092e-05
71	0x3b23e334	0.002500725
72	0xb701bd77	-7.733112e-06
73	0x385de5f2	5.290466e-05
74	0xb6d3bcfa	-6.31029e-06
75	0xbb8e26fb	-0.004338143
76	0x384ff67a	4.9582195e-05
77	0x3a310589	0.0006752839
78	0x3817c1a3	3.6181544e-05
79	0x3c69a412	0.014260309
80	0x35c63660	1.4767975e-06
81	0xb931dca8	-0.00016962236
82	0xb570e440	-8.9739115e-07
83	0x39306651	0.00016822784
84	0xb61640fa	-2.2389563e-06
85	0xb83af24e	-4.457152e-05
86	0x354e0712	7.675127e-07
87	0x3875f0a2	5.863666e-05
88	0x3601da33	1.9349507e-06
89	0xb8ca1137	-9.635317e-05
90	0xb4aef9b2	-3.2591703e-07
91	0x388ed9b2	6.8116366e-05
92	0x3787c8b5	1.6186716e-05
93	0x39c2e920	0.00037176255
94	0x37971e2d	1.8014654e-05
95	0x3bc9a5d2	0.0061538005
96	0x36830c74	3.905554e-06
97	0xb87e072f	-6.056501e-05
98	0xb53c11e3	-7.0061486e-07
99	0x3819b139	3.6643094e-05
100	0x37f11a04	2.8741553e-05
101	0xb908b916	-0.0001303892
102	0x35b45773	1.3436496e-06
103	0x3b81d754	0.0039624367
104	0xb61b53d9	-2.3145606e-06
105	0x391d96a9	0.00015028812
106	0x35704c5f	8.95181e-07
107	0xb92197db	-0.00015410727
108	0x36e1efff	6.7334618e-06
109	0xb9182916	-0.00014511155
110	0xb5872f12	-1.0071983e-06
111	0xb7c3e75a	-2.3353543e-05
112	0x360032df	1.9103097e-06
113	0x384f10e2	4.936837e-05
114	0xb4bc4084	-3.506467e-07
115	0xb99aea29	-0.00029547632
116	0x362e0e87	2.5936477e-06
117	0x38bbbc46	8.9519235e-05
118	0xb551c311	-7.8142426e-07
119	0xb912af5a	-0.00013988969
120	0xb821dc90	-3.8590806e-05
121	0xba07ddef	-0.0005182912
122	0xb7ea5631	-2.793511e-05
123	0xbc3ab6e1	-0.011396141
124	0x37108e80	8.616247e-06
125	0xb9f3d79c	-0.00046509213
126	0xb73f65eb	-1.1408217e-05
127	0xba4e3522	-0.0007866194

exp_avg_sq f4 [32, 4]
0	0x31d3d6f9	6.165348e-09
1	0x3717cb28	9.047602e-06
2	0x32d392a3	2.4630316e-08
3	0x3a91c236	0.0011120501
4	0x31a7a4f1	4.8790914e-09
5	0x370e5e8d	8.485874e-06
6	0x32f25078	2.82091e-08
7	0x3a582524	0.00082452805
8	0x31930a31	4.2794217e-09
9	0x363a5958	2.7768165e-06
10	0x331a65cb	3.59485e-08
11	0x3a0c7b75	0.00053589727
12	0x309d47a0	1.144361e-09
13	0x36b11c73	5.278323e-06
14	0x2fe06e44	4.082371e-10
15	0x37ba8c5e	2.2238291e-05
16	0x3204918f	7.716507e-09
17	0x37249889	9.810677e-06
18	0x318c6285	4.0857366e-09
19	0x36b0823b	5.2603696e-06
20	0x313a9bd1	2.7155134e-09
21	0x35c14987	1.440102e-06
22	0x324e443f	1.20062955e-08
23	0x399d3096	0.00029981573
24	0x317bd7c8	3.6647965e-09
25	0x36184fd7	2.2696238e-06
26	0x32a2bb9b	1.8944595e-08
27	0x39cf4586	0.00039533916
28	0x325d258d	1.2872431e-08
29	0x37647a96	1.3618401e-05
30	0x339594e8	6.965439e-08
31	0x3afa98c2	0.0019119012
32	0x31bf497e	5.5671867e-09
33	0x364cb6df	3.0504814e-06
34	0x33198028	3.5739646e-08
35	0x3a1237b0	0.0005577756
36	0x32c8ae54	2.336234e-08
37	0x386e181f	5.6766086e-05
38	0x34880c28	2.534082e-07
39	0x3b94844e	0.0045323735
40	0x31ac3aea	5.0125566e-09
41	0x36dc11f9	6.558603e-06
42	0x31266ff5	2.421982e-09
43	0x3667357f	3.4452821e-06
44	0x31256d14	2.4072664e-09
45	0x363da157	2.8257107e-06
46	0x30c4e531	1.4326017e-09
47	0x376c5d24	1.4088382e-05
48	0x32c3b94b	2.278525e-08
49	0x3852f039	5.0291626e-05
50	0x34950352	2.7755829e-07
51	0x3b6d34f4	0.0036194893
52	0x3127ee94	2.4437314e-09
53	0x373398b4	1.0704785e-05
54	0x30829dfc	9.503647e-10
55	0x38e920b4	0.00011116397
56	0x30adfd12	1.2659334e-09
57	0x3693b7a6	4.402321e-06
58	0x2fec1dfc	4.2949455e-10
59	0x37a42951	1.9569563e-05
60	0x3303f768	3.072583e-08
61	0x38935be5	7.026623e-05
62	0x34c2d793	3.6292167e-07
63	0x3bba4373	0.00568431
64	0x31da59c3	6.3548398e-09
65	0x36582a55	3.2211149e-06
66	0x32ee230b	2.7722782e-08
67	0x3a38ba7f	0.0007046833
68	0x32e7e74d	2.6997123e-08
69	0x3892c0e4	6.997751e-05
70	0x34d41265	3.950146e-07
71	0x3ba6b6a7	0.005087692
72	0x31cd3789	5.972599e-09
73	0x3792c071	1.7494169e-05
74	0x32336104	1.044123e-08
75	0x3ab3cb13	0.0013717137
76	0x32733cfc	1.4158328e-08
77	0x37151348	8.885581e-06
78	0x33adca08	8.0926895e-08
79	0x3aec3519	0.0018021195
80	0x30ccba4c	1.4895902e-09
81	0x3608db2f	2.039316e-06
82	0x3149062a	2.9252853e-09
83	0x36b57aec	5.4085303e-06
84	0x316958bb	3.39564e-09
85	0x378562d5	1.5900858e-05
86	0x3082d8cb	9.520361e-10
87	0x38d296b3	0.0001004165
88	0x30afb20b	1.2783529e-09
89	0x3678a5ab	3.7051311e-06
90	0x2fefedf3	4.364292e-10
91	0x37979a8f	1.8072575e-05
92	0x30dd282a	1.6091282e-09
93	0x3575685a	9.1421464e-07
94	0x324d97b7	1.19670664e-08
95	0x394467af	0.00018730642
96	0x31203b57	2.3316795e-09
97	0x3705d1ed	7.976295e-06
98	0x302c676d	6.272021e-10
99	0x3844da28	4.6933215e-05
100	0x3229002f	9.837136e-09
101	0x37bb9cc6	2.236514e-05
102	0x336eec6b	5.5628714e-08
103	0x3ad7ca16	0.0016463425
104	0x31196abd	2.2325104e-09
105	0x36bae2d9	5.5696405e-06
106	0x30b119a7	1.2885736e-09
107	0x3817efb7	3.6224457e-05
108	0x313fd7a2	2.7916731e-09
109	0x35d436ca	1.5811177e-06
110	0x307b5f42	9.144864e-10
111	0x3667f2bc	3.4562972e-06
112	0x311443b3	2.1575317e-09
113	0x370b960d	8.319982e-06
114	0x305863bd	7.872208e-10
115	0x392fc6ff	0.00016763432
116	0x317b0732	3.6529397e-09
117	0x37918a18	1.7349652e-05
118	0x3087a6be	9.869934e-10
119	0x38e957a4	0.0001112663
120	0x321777eb	8.816623e-09
121	0x37012e71	7.699812e-06
122	0x33436fa9	4.550353e-08
123	0x3a9ac9e5	0.0011809437
124	0x3250eb3e	1.2160681e-08
125	0x37fb4a5f	2.9956163e-05
126	0x3424207f	1.5285512e-07
127	0x3b079b4a	0.0020691925

exp_avg f4 [32]
0	0x3b316347	0.002706723
1	0x3af3ec42	0.0018609839
2	0x3b189c81	0.0023286643
3	0x3802ee56	3.1216383e-05
4	0xb94131e3	-0.00018424499
5	0xbae124d4	-0.0017177113
6	0xbb0d6a7d	-0.0021578365
7	0xbb70c2ae	-0.0036737132
8	0xbb0f6026	-0.0021877377
9	0x3a9650dc	0.001146819
10	0x3957a28f	0.00020564556
11	0x39433e44	0.00018619845
12	0x3a2657db	0.0006345489
13	0x3772f53d	1.4481423e-05
14	0x38b753f5	8.741758e-05
15	0x3a3dc3f8	0.00072389795
16	0xbb231960	-0.002488695
17	0xba4af7e3	-0.00077426265
18	0xba10cc9d	-0.0005523654
19	0x3b6819f2	0.0035415855
20	0x38dd381c	0.000105485524
21	0xb927b1a5	-0.00015992539
22	0x3910eca5	0.00013821067
23	0x3a978b6c	0.0011561937
24	0x3992427c	0.00027896825
25	0x3b068b17	0.0020529681
26	0xb92d5b4c	-0.00016532576
27	0x39fc2993	0.0004809616
28	0x390f1435	0.0001364507
29	0x39424284	0.00018526061
30	0xbb34a62a	-0.0027564862
31	0x3a2155ed	0.00061544665

exp_avg_sq f4 [32]
0	0x3803ef7c	3.145587e-05
1	0x37d0d20e	2.4893347e-05
2	0x37b727a6	2.1833763e-05
3	0x36c3e91b	5.83859e-06
4	0x38252142	3.937004e-05
5	0x3768715b	1.385467e-05
6	0x379cd996	1.869797e-05
7	0x3889bb4e	6.567557e-05
8	0x37ee4517	2.8403983e-05
9	0x38f9f8a6	0.000119195596
10	0x37d6885c	2.5574285e-05
11	0x374e0ea5	1.22819665e-05
12	0x38f3cbc7	0.000116250994
13	0x37512da6	1.2467999e-05
14	0x36d8b90b	6.4588435e-06
15	0x3924612d	0.0001567646
16	0x3807fd9e	3.2422708e-05
17	0x39106e61	0.0001377403
18	0x37ff9f18	3.0472453e-05
19	0x38977d9a	7.223636e-05
20	0x36ff031a	7.5999533e-06
21	0x37915476	1.7324677e-05
22	0x36dad963	6.5222134e-06
23	0x3709bcfe	8.2098395e-06
24	0x3747964a	1.1896316e-05
25	0x3852828b	5.018948e-05
26	0x373f194a	1.1390375e-05
27	0x376ef63c	1.4243236e-05
28	0x3738ae47	1.1007832e-05
29	0x379c5791	1.8637425e-05
30	0x383cabcd	4.4982695e-05
31	0x38821dc4	6.204427e-05

exp_avg f4 [32, 32]
0	0x382c2462	4.104188e-05
1	0x3735250a	1.07970645e-05
2	0x38870870	6.438873e-05
3	0x391459e0	0.00014147861
4	0x38e27fa6	0.00010800296
5	0xb8a8466d	-8.023982e-05
6	0xb86333b7	-5.416918e-05
7	0xb8b157e3	-8.456388e-05
8	0xb8a2283c	-7.732256e-05
9	0xb4d3f34d	-3.9478837e-07
10	0xb8faf3ed	-0.00011966364
11	0xb905245e	-0.00012697416
12	0xb7fc39ea	-3.006771e-05
13	0x3907a3c3	0.00012935609
14	0xb911a161	-0.00013888396
15	0x37c8f612	2.3956443e-05
16	0xb8a997f8	-8.086854e-05
17	0x37f55304	2.9244933e-05
18	0xb90485c7	-0.00012638337
19	0x38b13f0f	8.451763e-05
20	0xb90140df	-0.00012326565
21	0x3910a218	0.00013793295
22	0xb90a29d1	-0.00013176283
23	0x38c74090	9.501085e-05
24	0xb912d9ae	-0.00014004737
25	0x36e16da1	6.718285e-06
26	0x38ff9d63	0.00012188663
27	0xb9047e94	-0.00012635655
28	0xb90bc209	-0.00013328357
29	0xb91226c4	-0.00013938086
30	0xb8bb17a0	-8.921255e-05
31	0xb7b31ae4	-2.1350985e-05
32	0x39085b56	0.00013003996
33	0xb68d148c	-4.2045194e-06
34	0x38fa01ad	0.00011921241
35	0x3964f37d	0.00021834481
36	0x396373b7	0.00021691514
37	0xb9189c55	-0.00014554088
38	0xb91ac387	-0.00014759424
39	0xb9243160	-0.00015658652
40	0xb94a8610	-0.00019314163
41	0x378b61aa	1.661557e-05
42	0xb96589a0	-0.00021890411
43	0xb96826b3	-0.0002213966
44	0xb892822d	-6.98607e-05
45	0x396774ef	0.00022073438
46	0xb96607a5	-0.00021937357
47	0x37c84f37	2.3878745e-05
48	0xb9470441	-0.00018979704
49	0x388433bb	6.303886e-05
50	0xb966b572	-0.00022002103
51	0x394308e7	0.00018599966
52	0xb969c964	-0.00022295635
53	0x39659404	0.00021894282
54	0xb9659f45	-0.00021898474
55	0x39345922	0.00017199342
56	0xb96507ff	-0.0002184212
57	0x38726314	5.778957e-05
58	0x3969a730	0.00022282894
59	0xb964c9d1	-0.00021818957
60	0xb9669f80	-0.00021993928
61	0xb9651c7d	-0.00021849755
62	0xb927833e	-0.00015975253
63	0xb82a9897	-4.067327e-05
64	0xb8bf1e4b	-9.113232e-05
65	0xb86624f7	-5.48707e-05
66	0x388b4a97	6.64193e-05
67	0x3a0397d9	0.00050198805
68	0x3a00e4e6	0.0004916921
69	0xb8f124f8	-0.000114986615
70	0x380de58d	3.3830805e-05
71	0xb8e957d0	-0.00011126662
72	0xb8b69ea9	-8.707989e-05
73	0xb929f983	-0.00016210046
74	0xba01f1e4	-0.0004957004
75	0xb9fac3b3	-0.00047829523
76	0xb934146e	-0.00017173748
77	0x39fb5288	0.0004793594
78	0xba023944	-0.00049676397
79	0xb8310458	-4.2204134e-05
80	0xb8c99679	-9.6124546e-05
81	0x395f1f54	0.00021278608
82	0xb9dc5835	-0.0004202739
83	0x38e8ccb1	0.00011100749
84	0xb9f9ea66	-0.0004766762
85	0x3a02bb3a	0.00049870054
86	0xba029a5d	-0.00049821084
87	0x394dc5c8	0.00019624003
88	0xba036a4c	-0.0005013093
89	0xb92d1504	-0.00016506395
90	0x39f28d08	0.00046262913
91	0xba028b30	-0.0004979847
92	0xb9ff6432	-0.00048712041
93	0xba032c5e	-0.00050038646
94	0xb9187458	-0.00014539191
95	0xb9057822	-0.00012728621
96	0x37fb7df3	2.9980181e-05
97	0x37b71b35	2.182797e-05
98	0xb7bab36d	-2.225648e-05
99	0xb9369080	-0.00017410703
100	0xb935c8f8	-0.00017336372
101	0x38256362	3.9431623e-05
102	0xb72836d5	-1.0026347e-05
103	0x3821e05e	3.859435e-05
104	0x38110579	3.457579e-05
105	0x38701c31	5.7246714e-05
106	0x3936808e	0.00017404763
107	0x3931242e	0.00016893513
108	0x38825be7	6.216001e-05
109	0xb9315c25	-0.00016914362
110	0x3935538a	0.00017292626
111	0x3792407a	1.743458e-05
112	0x381af711	3.694656e-05
113	0xb8a05f43	-7.6471384e-05
114	0x391cead4	0.000149648
115	0xb82db0cb	-4.1411065e-05
116	0x3930cc50	0.0001686078
117	0xb9361718	-0.00017365476
118	0x39368b1c	0.00017408695
119	0xb8905d79	-6.883866e-05
120	0x39368909	0.00017407922
121	0x386d96cd	5.6645647e-05
122	0xb92c9ac8	-0.00016460859
123	0x39368e8e	0.00017409978
124	0x39334936	0.00017098043
125	0x39366fd5	0.00017398533
126	0x385359af	5.0389845e-05
127	0x383e51b8	4.5375637e-05
128	0x33463bf0	4.615498e-08
129	0x332f46a0	4.0809596e-08
130	0x331431fa	3.450439e-08
131	0xb3c0e680	-8.9826244e-08
132	0xb36a3331	-5.452893e-08
133	0xb30e0ee8	-3.307551e-08
134	0xb32de6e4	-4.0489695e-08
135	0xb31a5182	-3.593005e-08
136	0xb28af91d	-1.6178598e-08
137	0x335f9b83	5.206267e-08
138	0x3392fe7b	6.8449445e-08
139	0x338f1482	6.662687e-08
140	0x334e3cfb	4.8018574e-08
141	0xb3896e0f	-6.399579e-08
142	0x33ae3e79	8.11387e-08
143	0x33307c59	4.1091287e-08
144	0xb2d1c78a	-2.4421542e-08
145	0xb363d0ae	-5.304235e-08
146	0x32f6a3f6	2.871273e-08
147	0x32f79c4e	2.8825664e-08
148	0x3391d7ed	6.791365e-08
149	0xb3b07fb4	-8.218868e-08
150	0x33abfcc7	8.008788e-08
151	0x32bf7c9b	2.229199e-08
152	0x33bcba71	8.788346e-08
153	0x3351a118	4.880812e-08
154	0xb384b79e	-6.180129e-08
155	0x33a4d5d1	7.675738e-08
156	0x33901c83	6.710709e-08
157	0x33b3d348	8.373769e-08
158	0xb30b6274	-3.2453002e-08
159	0x33232704	3.798688e-08
160	0x3856c3e7	5.1204024e-05
161	0x3861a771	5.3800122e-05
162	0x385eb179	5.309421e-05
163	0xb66f5dbe	-3.566834e-06
164	0xb86415cc	-5.4379736e-05
165	0xb8622d47	-5.3924767e-05
166	0xb8567ed3	-5.113969e-05
167	0xb864204f	-5.4389526e-05
168	0xb847ba54	-4.761883e-05
169	0x385bfaf2	5.244738e-05
170	0x38480164	4.768501e-05
171	0x34b7e8e0	3.4255845e-07
172	0x38593532	5.1786374e-05
173	0x37bfdbfa	2.2871409e-05
174	0x36c09c2d	5.740227e-06
175	0x386563fd	5.4690976e-05
176	0xb851734b	-4.9936858e-05
177	0xb860ec49	-5.362582e-05
178	0xb843ecab	-4.6712037e-05
179	0x38571a61	5.128456e-05
180	0x380b85dd	3.3264852e-05
181	0x36fc2618	7.51462e-06
182	0x36e4bab2	6.8166637e-06
183	0x38586ba1	5.159865e-05
184	0x35ae2b13	1.2976546e-06
185	0x38525967	5.0151164e-05
186	0xb7110324	-8.643405e-06
187	0x38125fbc	3.4898272e-05
188	0xb7e3bf91	-2.7149714e-05
189	0xb7a0ca35	-1.9167646e-05
190	0xb863b5dc	-5.4290387e-05
191	0x3837da19	4.383372e-05
192	0x37d33331	2.5176998e-05
193	0x370dda6f	8.455113e-06
194	0x3811d5ac	3.476969e-05
195	0x388aa1b4	6.610472e-05
196	0x3844a7fe	4.6886496e-05
197	0xb83126f6	-4.2236374e-05
198	0xb801eadd	-3.097473e-05
199	0xb83aec06	-4.456567e-05
200	0xb826864b	-3.9702554e-05
201	0x369927ed	4.5644033e-06
202	0xb8604d2a	-5.3477626e-05
203	0xb8713356	-5.7506688e-05
204	0xb7405500	-1.1463882e-05
205	0x3876c828	5.883738e-05
206	0xb8876461	-6.455999e-05
207	0x37827590	1.5551952e-05
208	0xb82ee224	-4.1695443e-05
209	0x3725487a	9.851641e-06
210	0xb87474ce	-5.8282916e-05
211	0x3836b33f	4.3559117e-05
212	0xb86898c0	-5.545537e-05
213	0x388623f4	6.396315e-05
214	0xb87d270d	-6.035627e-05
215	0x3848e321	4.7895246e-05
216	0xb888d78d	-6.525135e-05
217	0x370969b0	8.190444e-06
218	0x38654dce	5.4670316e-05
219	0xb870a45f	-5.737354e-05
220	0xb8803a40	-6.1143655e-05
221	0xb887ec5e	-6.4813285e-05
222	0xb8421233	-4.6270154e-05
223	0xb7097381	-8.192729e-06
224	0xb7b09862	-2.1051794e-05
225	0xb7d29346	-2.510253e-05
226	0xb7cce35a	-2.4424564e-05
227	0x3588c0cf	1.0188904e-06
228	0x37d333c7	2.517727e-05
229	0x37d1f1ec	2.5027395e-05
230	0x37b33aca	2.1365839e-05
231	0x37d30f9d	2.516043e-05
232	0x37a0e660	1.9180763e-05
233	0xb7be87d1	-2.271301e-05
234	0xb7b1d0dc	-2.1197302e-05
235	0xb5a53a76	-1.2310472e-06
236	0xb7c2a6e7	-2.3204322e-05
237	0xb71b72bb	-9.265433e-06
238	0xb5fd92b7	-1.8892669e-06
239	0xb7d75495	-2.5669384e-05
240	0x37ae41c3	2.0773039e-05
241	0x37c92f02	2.3982957e-05
242	0x37ac43c3	2.0535552e-05
243	0xb7b82e06	-2.195594e-05
244	0xb77d3830	-1.5093057e-05
245	0xb660f242	-3.3519614e-06
246	0xb68244d6	-3.8823155e-06
247	0xb7c7aadd	-2.3802213e-05
248	0xb4983af6	-2.8355106e-07
249	0xb7ac5cd8	-2.0547232e-05
250	0x36b341c1	5.3422705e-06
251	0xb784467b	-1.5768446e-05
252	0x3744afdd	1.1723457e-05
253	0x370fc30d	8.568878e-06
254	0x37d42d30	2.5293411e-05
255	0xb7a0e495	-1.9179928e-05

exp_avg_sq f4 [32, 32]
0	0x342e7bfd	1.625012e-07
1	0x33cc4531	9.512076e-08
2	0x34db32c5	4.0828868e-07
3	0x360c2bae	2.088705e-06
4	0x36118517	2.1684152e-06
5	0x35190256	5.700034e-07
6	0x34ec37d6	4.3999052e-07
7	0x34c5d858	3.685152e-07
8	0x3568a763	8.6670315e-07
9	0x33455807	4.5947697e-08
10	0x360989f7	2.0494897e-06
11	0x35e84c50	1.7307557e-06
12	0x3414b0f6	1.3847952e-07
13	0x35e656cd	1.7161598e-06
14	0x3604c8d2	1.9786426e-06
15	0x33b335d0	8.3451255e-08
16	0x3538b108	6.8802956e-07
17	0x3416913c	1.4022675e-07
18	0x35d04a79	1.5518882e-06
19	0x3522e40b	6.068155e-07
20	0x35dcb6f3	1.6444523e-06
21	0x36065c92	2.002144e-06
22	0x3605ba02	1.9926815e-06
23	0x355cfee4	8.23273e-07
24	0x360ad174	2.068552e-06
25	0x339648ac	6.998138e-08
26	0x35d37fbc	1.5757901e-06
27	0x360bc080	2.0824664e-06
28	0x35f23102	1.8044668e-06
29	0x3608f704	2.0409361e-06
30	0x34ee9c43	4.444465e-07
31	0x33969eb8	7.01379e-08
32	0x34ca2c7b	3.7657796e-07
33	0x3443d92a	1.8239794e-07
34	0x35825c22	9.712569e-07
35	0x36753458	3.6538313e-06
36	0x367c25cd	3.757293e-06
37	0x35a8b4d3	1.2569602e-06
38	0x35657624	8.5481065e-07
39	0x358e3ca2	1.0597471e-06
40	0x35b357b7	1.3362068e-06
41	0x334b1c57	4.7290396e-08
42	0x3674cba3	3.6477365e-06
43	0x36547f7e	3.1664672e-06
44	0x33955169	6.9531616e-08
45	0x36554d8b	3.178461e-06
46	0x366a6787	3.4928978e-06
47	0x34b4c186	3.366842e-07
48	0x359aed75	1.1543003e-06
49	0x339267a3	6.817506e-08
50	0x363a148d	2.7728122e-06
51	0x35989246	1.1367454e-06
52	0x364581dc	2.9430876e-06
53	0x366e9d4a	3.5556318e-06
54	0x366ef9a9	3.5610085e-06
55	0x35c104ee	1.4381055e-06
56	0x36746f14	3.642349e-06
57	0x33ca072c	9.4076626e-08
58	0x36401915	2.862483e-06
59	0x36768eb6	3.6739925e-06
60	0x365f80c5	3.3304543e-06
61	0x36729406	3.614697e-06
62	0x359924a7	1.1410056e-06
63	0x3306d5c7	3.1393736e-08
64	0x3406271d	1.2493952e-07
65	0x338fffd4	6.705491e-08
66	0x3318c07b	3.5565318e-08
67	0x359b8f16	1.1590043e-06
68	0x35a05266	1.194491e-06
69	0x33836dc2	6.120128e-08
70	0x32a28ce2	1.8923348e-08
71	0x331dc525	3.6733713e-08
72	0x3350d156	4.8619164e-08
73	0x343b2d91	1.7432309e-07
74	0x359ad5db	1.1536134e-06
75	0x357f1068	9.5018777e-07
76	0x341aa216	1.4401334e-07
77	0x3578921a	9.2599805e-07
78	0x3593c861	1.1010671e-06
79	0x3392d955	6.838187e-08
80	0x32c04b8e	2.23861e-08
81	0x3468fbe2	2.1698318e-07
82	0x353ce75e	7.037214e-07
83	0x3298211e	1.7710189e-08
84	0x357883a9	9.257879e-07
85	0x359607ec	1.1178176e-06
86	0x3596b050	1.1227185e-06
87	0x34127977	1.3641498e-07
88	0x359a6d8f	1.150578e-06
89	0x3436d7dd	1.7028601e-07
90	0x35611732	8.3852785e-07
91	0x359c35ba	1.1638542e-06
92	0x35843a99	9.85182e-07
93	0x35987419	1.1358671e-06
94	0x3362a79f	5.2772176e-08
95	0x33abd53a	8.001594e-08
96	0x323954ea	1.07877245e-08
97	0x321ff8c0	9.311577e-09
98	0x31ca3eb3	5.886102e-09
99	0x341805b3	1.4158176e-07
100	0x341d9fd2	1.4679907e-07
101	0x3231cd6e	1.0349465e-08
102	0x31a09b27	4.6742517e-09
103	0x317dfb85	3.6959318e-09
104	0x32905d3a	1.68062e-08
105	0x329e6f15	1.8444135e-08
106	0x341788c4	1.4112726e-07
107	0x33f55f1c	1.1426002e-07
108	0x329d073b	1.8280494e-08
109	0x33effb78	1.1175047e-07
110	0x340fd909	1.339687e-07
111	0x3202319b	7.578275e-09
112	0x322e2484	1.0136436e-08
113	0x32df304a	2.5982576e-08
114	0x33ba6ca7	8.681064e-08
115	0x31fc4ab5	7.3426585e-09
116	0x33ee6a78	1.1102105e-07
117	0x3411f1ce	1.3592145e-07
118	0x3412af19	1.366101e-07
119	0x32d4f69e	2.4792197e-08
120	0x3416ad65	1.4032919e-07
121	0x3298531d	1.7732924e-08
122	0x33d81a06	1.00630174e-07
123	0x341924c7	1.4262615e-07
124	0x33ffb958	1.1908077e-07
125	0x3414755f	1.3826273e-07
126	0x31edfeeb	6.9265886e-09
127	0x3235b3cb	1.0576467e-08
128	0x332fcd7b	4.0932246e-08
129	0x333f0bf4	4.4481524e-08
130	0x3304c948	3.091671e-08
131	0x3350881b	4.855256e-08
132	0x33508e18	4.8558007e-08
133	0x33022478	3.0301152e-08
134	0x3313b356	3.438921e-08
135	0x33211ab9	3.7510038e-08
136	0x323bbdf1	1.092802e-08
137	0x3344b113	4.5795854e-08
138	0x33508de7	4.8557833e-08
139	0x33505efe	4.851517e-08
140	0x3342cc71	4.5355083e-08
141	0x33503632	4.8478064e-08
142	0x33507e61	4.8543715e-08
143	0x3342c6e8	4.535005e-08
144	0x32ae070c	2.025947e-08
145	0x334c0c9e	4.7508927e-08
146	0x33447b10	4.574673e-08
147	0x32ccf595	2.3860403e-08
148	0x335075d1	4.8535927e-08
149	0x33508396	4.854845e-08
150	0x33508a92	4.8554803e-08
151	0x325fd7a2	1.3029338e-08
152	0x335087a1	4.8552128e-08
153	0x3336a444	4.2524576e-08
154	0x33502912	4.8466127e-08
155	0x33508dba	4.8557673e-08
156	0x335053f6	4.8505136e-08
157	0x33508426	4.8548962e-08
158	0x330c0aa6	3.2605975e-08
159	0x331a6055	3.5943533e-08
160	0x3547afe4	7.438923e-07
161	0x354c6c1e	7.6153253e-07
162	0x35476917	7.42862e-07
163	0x32c71933	2.3178108e-08
164	0x355637e9	7.980257e-07
165	0x354d005a	7.636896e-07
166	0x35452dc7	7.3454834e-07
167	0x3551c3b7	7.814337e-07
168	0x353052fd	6.5685873e-07
169	0x354b84bb	7.581654e-07
170	0x3531e234	6.6266807e-07
171	0x3222907c	9.462493e-09
172	0x3542757b	7.244159e-07
173	0x344bed08	1.899208e-07
174	0x32c2dd10	2.26851e-08
175	0x35521321	7.825893e-07
176	0x353c842d	7.02278e-07
177	0x35512abc	7.7920754e-07
178	0x351bbf77	5.802062e-07
179	0x354366cf	7.2792767e-07
180	0x34af6320	3.2668413e-07
181	0x32b812d7	2.1428987e-08
182	0x330f3466	3.3342438e-08
183	0x353b99de	6.9886835e-07
184	0x325275c5	1.22503865e-08
185	0x35412b57	7.196117e-07
186	0x32a6f6dc	1.9437202e-08
187	0x34eb7ee3	4.3864483e-07
188	0x3488798a	2.5420405e-07
189	0x33e1750d	1.04986704e-07
190	0x354fa8d0	7.7359164e-07
191	0x35111a14	5.405466e-07
192	0x3486406f	2.5006327e-07
193	0x34886127	2.5402662e-07
194	0x355661bc	7.9863435e-07
195	0x369f1cfb	4.741943e-06
196	0x36a90e2e	5.038243e-06
197	0x3594eb42	1.1095328e-06
198	0x351f8efc	5.9440185e-07
199	0x35576bf4	8.0250834e-07
200	0x35974293	1.1269752e-06
201	0x332078c4	3.736274e-08
202	0x369a4ef1	4.5987476e-06
203	0x366af9b4	3.5014064e-06
204	0x342c1307	1.602567e-07
205	0x366a35b0	3.4899967e-06
206	0x369209eb	4.3522937e-06
207	0x34ad1590	3.223945e-07
208	0x3571d39e	9.008744e-07
209	0x342b50b0	1.595497e-07
210	0x3641c531	2.8874022e-06
211	0x356214aa	8.422163e-07
212	0x3654d1bf	3.171255e-06
213	0x3695575e	4.450717e-06
214	0x3693c591	4.403941e-06
215	0x35bb4236	1.3951856e-06
216	0x369d2fba	4.6845207e-06
217	0x3402e023	1.2188734e-07
218	0x3645df77	2.9485361e-06
219	0x369e1387	4.71104e-06
220	0x368009c3	3.8158337e-06
221	0x369a2f41	4.5950587e-06
222	0x3579e229	9.3088835e-07
223	0x33a31626	7.594308e-08
224	0x34ae68ff	3.248642e-07
225	0x34b7f284	3.426286e-07
226	0x34b168ef	3.3045168e-07
227	0x3353a6b3	4.9278878e-08
228	0x34c6ec88	3.7052473e-07
229	0x34b68cb3	3.4002514e-07
230	0x34abc3ce	3.19937e-07
231	0x34bb74f6	3.4916565e-07
232	0x349714e8	2.8141153e-07
233	0x34b39766	3.3451505e-07
234	0x34adf90d	3.240497e-07
235	0x31d3d634	6.1652603e-09
236	0x34ad3e49	3.226908e-07
237	0x33805966	5.976726e-08
238	0x331988ce	3.574751e-08
239	0x34bcd004	3.516908e-07
240	0x34a2fe41	3.0359845e-07
241	0x34ba3c2b	3.4688978e-07
242	0x3480dbef	2.400188e-07
243	0x34aaabc6	3.178995e-07
244	0x343fd490	1.7865591e-07
245	0x3211f09a	8.494817e-09
246	0x336f36c1	5.5696322e-08
247	0x34a4fec6	3.0732753e-07
248	0x3314271f	3.4494516e-08
249	0x34a93735	3.1518871e-07
250	0x32fd0c7e	2.9458757e-08
251	0x34896315	2.559033e-07
252	0x33ba67f0	8.680206e-08
253	0x32b65fb9	2.1231118e-08
254	0x34b9a7c8	3.4581012e-07
255	0x3482a04e	2.4331024e-07
