ppo_algorithm/data/test/ppo_network.pt (torch_old, 88843 bytes, 10 tensors)

weight f4 [128, 6]
-1.537088 2.214162 -2.79642 12.784422 1.558769 -0.4084404 -0.56636304 2.885846
-1.3485302 14.172355 1.643357 -0.30177742 0.06254005 2.6123304 -0.77281994 13.932927
1.6596221 -0.31621742 -1.5044991 4.3621435 -3.6440895 9.948305 1.4268428 -0.59106416
-1.3075904 4.4796433 0.7510713 12.884917 1.3121035 -0.16724764 2.6211483 -1.9371588
3.7399201 -16.428635 0.41977817 -0.42183715 -0.5491302 0.16372839 1.0410465 -27.485767
-0.050360005 1.6648078 -0.91890246 4.876048 -2.2705414 -1.01586 0.92117894 -1.2327646
-0.073655255 -2.2955377 -7.715018 5.7932267 -6.1013284 -0.11081424 -0.90511423 5.4650617
0.1491024 15.820527 1.8375986 0.14874189 -1.1705003 4.050924 -5.106746 10.069761
1.7439706 -0.7966434 -1.6361953 -8.772076 6.36417 -14.533632 0.42446172 -1.0181675
-0.48071542 3.7518616 -6.3396077 10.208903 2.009892 -0.91080916 -1.3293191 2.6478374
-1.0005037 11.66525 1.4740461 -0.32925984 -1.6228553 4.2816215 -3.8136435 9.645555
1.4343773 -0.6371662 -0.8746015 1.000754 -0.8089218 14.1753025 1.5542052 -0.35769877
0.82403475 1.1346345 2.6283212 -23.431309 -0.035378773 2.5907314 -1.8556279 4.6155934
-3.522849 10.194801 1.3908545 -0.53165966 -2.2940023 1.8992584 -0.28927696 12.680653
1.0879822 -0.2511305 -0.29800418 4.1582475 -6.7264237 8.9861765 2.0011408 -1.0600795
-2.0323792 3.9489968 -2.5081425 9.909261 1.2865311 -0.5127866 -0.40189266 3.8276517
-6.2135067 9.072767 1.9513843 -1.0089521 -2.1264348 3.8945627 -1.391717 11.497206
1.2366418 -0.3605855 1.8770764 -0.13792275 0.6911632 14.852852 -0.6805938 6.847533
2.1983783 1.1152511 0.8933468 8.802299 -2.6548467 3.25715 -1.1457214 3.6140554
-2.5672479 12.837302 1.552511 -0.40196845 -2.0238152 4.0531588 -2.841569 10.328836
1.3365959 -0.50858426 -1.475397 -0.79939187 -1.4871857 11.226919 1.1566 -0.81245536
-0.73712534 2.6943378 1.4087065 12.608232 1.307097 -0.21134178 -1.5434369 2.478905
-3.8407707 13.428856 1.6941415 -0.40380424 -1.5844742 3.9283566 2.3683836 11.774886
0.9506654 -0.19635536 -1.3481036 1.1057462 -2.1004658 16.107674 1.7688594 -0.19143812
-1.8542589 4.476444 -3.3694599 9.722058 1.3812867 -0.5274249 -1.8126302 4.608113
-2.7755182 8.551032 1.2334621 -0.61561257 -0.9253467 0.77801806 0.04523286 12.631103
1.4051342 -0.40457937 0.7389306 -2.8010008 -1.8633643 27.013603 -2.6616514 -2.5835178
-1.4207214 2.7593906 -1.2892318 11.737572 1.436297 -0.36423305 -1.2710308 2.2330396
-2.3500893 13.321721 1.5424241 -0.35834464 -1.5841801 4.34051 -3.1919806 9.280017
1.3727058 -0.5530347 -1.925408 -1.4062142 -1.7545657 22.162962 0.243831 -3.7572289
-1.4983044 4.0539856 0.9129694 13.57505 1.202988 -0.14585441 -1.6177102 1.6838645
-4.35003 2.1160438 1.1212854 -1.3730875 -1.940828 4.165083 -3.2642002 9.576957
00000000: 4dbf c4bf d5b4 0d40 8cf8 32c0 fe8c 4c41
00000010: be85 c73f 1a1f d1be 2bfd 10bf b3b1 3840
00000020: a39c acbf f7c1 6241 8659 d23f 9282 9abe
00000030: ff14 803d 6c30 2740 87d7 45bf 45ed 5e41
00000040: 7f6e d43f 40e7 a1be 6d93 c0bf ae96 8b40
00000050: c338 69c0 422c 1f41 c9a2 b63f fb4f 17bf
00000060: 1f5f a7bf 3d59 8f40 3546 403f 9f28 4e41
00000070: 02f3 a73f f742 2bbe e5c0 2740 d2f4 f7bf
00000080: da5a 6f40 d86d 83c1 2aed d63e 0afb d7be
00000090: cc93 0cbf 6aa8 273e 0341 853f dae2 dbc1
000000a0: 4b46 4ebd 6c18 d53f 313d 6bbf 9608 9c40
000000b0: 8d50 11c0 b307 82bf 62d2 6b3f 3bcb 9dbf
000000c0: 91d8 96bd 17ea 12c0 6de1 f6c0 1d62 b940
000000d0: 153e c3c0 94f2 e2bd 91b5 67bf c9e1 ae40
000000e0: 4dae 183e e120 7d41 6e36 eb3f cb4f 183e
000000f0: f4d2 95bf 2ba1 8140 776a a3c0 be1d 2141
00000100: 6e3a df3f d2f0 4bbf d96e d1bf 6c5a 0cc1
00000110: 48a7 cb40 c289 68c1 0c53 d93e 5053 82bf
00000120: 5520 f6be 801e 7040 11de cac0 ab57 2341
00000130: 12a2 0040 ca2a 69bf 2127 aabf 2b76 2940
00000140: 8110 80bf dda4 3a41 8bad bc3f bf94 a8be
00000150: b9b9 cfbf 0b03 8940 bc12 74c0 3154 1a41
00000160: ad99 b73f 531d 23bf e2e5 5fbf b518 803f
00000170: 8015 4fbf 0ace 6241 32f0 c63f 4b24 b7be
00000180: f1f3 523f b43b 913f 6a36 2840 5273 bbc1
00000190: 55e9 10bd 8bce 2540 3785 edbf f1b2 9340
000001a0: 5c76 61c0 e81d 2341 8507 b23f d91a 08bf
000001b0: efd0 12c0 e61a f33f 1c1c 94be f4e3 4a41
000001c0: 0043 8b3f 2d94 80be 0194 98be 5d10 8540
000001d0: dd3e d7c0 61c7 0f41 b112 0040 afb0 87bf
000001e0: 8012 02c0 5dbc 7c40 6885 20c0 558c 1e41
000001f0: 0dad a43f fc45 03bf e0c4 cdbe 3ff8 7440
00000200: 0cd5 c6c0 0e2a 1141 f6c6 f93f 5825 81bf
00000210: 8217 08c0 8440 7940 c823 b2bf 8ef4 3741
00000220: 474a 9e3f aa9e b8be 0a44 f03f 9f3b 0dbe
00000230: 12f0 303f 48a5 6d41 653b 2ebf fe1e db40
00000240: 3bb2 0c40 8cc0 8e3f 60b2 643f 37d6 0c41
00000250: 02e9 29c0 2575 5040 00a7 92bf af4c 6740
00000260: ca4d 24c0 9765 4d41 aeb8 c63f cfce cdbe
00000270: 3086 01c0 7ab3 8140 44dc 35c0 ea42 2541
00000280: 9315 ab3f 9432 02bf cfd9 bcbf f2a4 4cbf
00000290: 1a5c bebf 76a1 3341 780b 943f 13fd 4fbf
000002a0: 3fb4 3cbf 0870 2c40 7f50 b43f 51bb 4941
000002b0: f44e a73f fb69 58be 578f c5bf 61a6 1e40
000002c0: 30cf 75c0 98dc 5641 a1d9 d83f 6ebf cebe
000002d0: 0dd0 cabf 326a 7b40 9993 1740 ef65 3c41
000002e0: cf5e 733f 6111 49be a98e acbf 1789 8d3f
000002f0: 086e 06c0 84dc 8041 fc69 e23f 5b08 44be
00000300: 5b58 edbf 073f 8f40 3ba5 57c0 8d8d 1b41
00000310: 01ce b03f 5105 07bf 4404 e8bf a975 9340
00000320: 17a2 31c0 07d1 0841 16e2 9d3f c998 1dbf
00000330: 85e3 6cbf 312c 473f 1746 393d ff18 4a41
00000340: 70db b33f 0725 cfbe 8e2a 3d3f 9943 33c0
00000350: b982 eebf dc1b d841 7f58 2ac0 5b58 25c0
00000360: 33da b5bf db99 3040 8c05 a5bf 18cd 3b41
00000370: 95d8 b73f c17c babe 23b1 a2bf 1fea 0e40
00000380: dd67 16c0 c525 5541 276e c53f f378 b7be
00000390: 6ac6 cabf 75e5 8a40 6949 4cc0 f37a 1441
000003a0: d3b4 af3f af93 0dbf c573 f6bf d4fe b3bf
000003b0: 9c95 e0bf bf4d b141 d5ae 793e 7076 70c0
000003c0: 70c8 bfbf 40ba 8140 5db8 693f 6833 5941
000003d0: 83fb 993f dc5a 15be 2111 cfbf df88 d73f
000003e0: 7233 8bc0 436d 0740 4886 8f3f 55c1 afbf
000003f0: 0d6d f8bf 5c48 8540 a8e8 50c0 373b 1941

bias f4 [128]
-1.657981 -1.799621 -1.8784317 -1.7242277 -1.6580383 1.7334706 -0.28390986 -1.3980945
-0.9360207 -1.2714595 -1.0217631 1.6638635 -0.5107537 -1.7871525 -1.6872342 -1.5728503
1.0940311 -1.9311949 -2.7053137 -0.34060973 -1.9990265 -0.4720745 -2.4194994 0.79373354
3.4124954 -1.8662068 -1.7451974 -1.6937491 -1.7913706 -1.7847226 -1.9329772 -1.7820426
-1.8502591 -1.7211075 -1.5212245 -0.0854488 -1.8962055 -2.2152128 -1.8608365 -1.7198024
-2.049729 -1.564847 -1.9542824 2.3103693 -1.418617 4.3144884 -1.6868501 -2.8755805
0.14244941 -0.80499023 -1.7367042 -0.3636004 0.1058248 -1.3085016 -1.7648984 -2.1683109
-0.5590994 -1.3790722 -1.5819621 -2.7356613 -5.56349 -1.3526485 -1.845867 -1.762653
-2.1583512 4.648505 -1.8463837 -1.6814644 -1.8097713 0.67354083 1.304312 -1.8578241
-1.7441962 1.5490125 -1.4275149 4.2128444 -2.046984 0.09975655 -1.7567701 -2.5784671
-1.8482064 -1.4787679 -1.7487991 -1.6440946 -1.5036197 -1.896617 -1.9379529 -1.5946593
-0.8196516 -1.703351 -0.15863116 -1.8293717 -1.6449254 -1.5478005 -1.3103031 -1.6547937
-1.3084583 -4.853785 -2.767346 -2.2024617 -0.6656918 -1.844661 -1.6798003 -1.4790806
-2.6925888 -1.4222869 0.37751055 -1.6922817 -2.1743438 -1.6615243 -1.7396854 -1.6665053
0.18105912 2.665738 -2.260848 -2.3089843 -1.5820992 -6.0351887 -1.7907184 -1.1033373
-1.2877702 -2.8404307 6.6274657 -1.6420207 -1.9680576 -1.7063121 -0.41063634 -1.8341328
00000000: b938 d4bf fb59 e6bf 7370 f0bf 7eb3 dcbf
00000010: 993a d4bf 5de2 dd3f a25c 91be c3f4 b2bf
00000020: 0d9f 6fbf 2fbf a2bf 22c9 82bf 7bf9 d43f
00000030: c1c0 02bf 6ac1 e4bf 4af7 d7bf 2953 c9bf
00000040: 3609 8c3f 6531 f7bf dc23 2dc0 6664 aebe
00000050: 1ae0 ffbf c0b3 f1be 14d9 1ac0 1f32 4b3f
00000060: 5366 5a40 dddf eebf a162 dfbf c5cc d8bf
00000070: a24b e5bf ca71 e4bf cc6b f7bf f919 e4bf
00000080: 4ad5 ecbf 404d dcbf 7cb7 c2bf c8ff aebd
00000090: ddb6 f2bf 0cc6 0dc0 e42f eebf 7c22 dcbf
000000a0: c32e 03c0 e84c c8bf ed25 fabf 17dd 1340
000000b0: 3e95 b5bf 4a10 8a40 b4ea d7bf 8309 38c0
000000c0: 42de 113e d713 4ebf 534c debf d529 babe
000000d0: acba d83d fb7c a7bf 31e8 e1bf 9bc5 0ac0
000000e0: 2321 0fbf 7085 b0bf bc7d cabf 1315 2fc0
000000f0: 1c08 b2c0 9623 adbf 5f45 ecbf 9d9e e1bf
00000100: 6d22 0ac0 8ec0 9440 4d56 ecbf 3a3a d7bf
00000110: 96a6 e7bf 2c6d 2c3f b2f3 a63f 2ecd edbf
00000120: d241 dfbf 0b46 c63f cfb8 b6bf 9fcf 8640
00000130: c901 03c0 294d cc3d d8dd e0bf 9b05 25c0
00000140: 0792 ecbf 4448 bdbf a6d8 dfbf b171 d2bf
00000150: 9c76 c0bf 59c4 f2bf d70e f8bf cc1d ccbf
00000160: b0d4 51bf 6807 dabf 3570 22be da28 eabf
00000170: ea8c d2bf 541e c6bf 03b8 a7bf 48d0 d3bf
00000180: 907b a7bf 3552 9bc0 321c 31c0 22f5 0cc0
00000190: c76a 2abf da1d ecbf b203 d7bf 8352 bdbf
000001a0: 6053 2cc0 7f0d b6bf 1049 c13e b09c d8bf
000001b0: 7328 0bc0 d4ac d4bf 03ae debf 0c50 d5bf
000001c0: 9067 393e 749b 2a40 bcb1 10c0 66c6 13c0
000001d0: 3a82 cabf 4420 c1c0 4336 e5bf 283a 8dbf
000001e0: a7d5 a4bf 9ec9 35c0 3314 d440 bc2d d2bf
000001f0: 50e9 fbbf 6f68 dabf ed3e d2be ddc4 eabf

weight f4 [128]
0.017083095 -0.01529946 0.028658591 -0.038496193 0.020565981 2.1484196 5.708566 -0.0035573451
8.249636 -0.010632805 0.023789419 10.481915 0.01854695 0.009359042 -0.035018183 -0.0050915983
6.1469536 0.060046922 -0.022261083 -0.0150838075 0.009390674 -0.01450004 -0.013413707 9.875571
3.7607899 0.03187545 0.042268854 0.022607781 0.043344256 0.023210946 -0.034645144 -0.0023412006
-0.048467215 0.0068197027 0.0072761676 13.335569 0.01926619 -0.012879395 0.03885624 5.4624443
0.030717282 0.0020912022 -0.03394779 2.975931 -0.00023289604 5.0491333 -0.0024447388 -0.028728176
9.129053 -0.0113877 0.009771846 -0.015038638 9.06298 2.320822e-05 -0.04523702 -0.00562978
-0.019660586 -0.040958535 0.041788924 -0.01621876 6.341359 0.00340003 0.011994701 -0.02035838
7.1944227 7.5380616 0.016607324 -0.0023288843 -0.024390085 7.916369 6.7761474 -0.015641421
-0.028610898 5.9724207 0.003700254 5.413328 0.032996077 9.176065 0.016874455 2.2006927
0.0173833 0.020700254 0.021765176 -0.019511158 -0.0033398946 -0.008666191 10.2459 0.011505441
0.0071581183 -0.021246541 1.149819 -0.045268454 -0.0057471734 0.058204275 -0.0326218 0.00080937456
0.017465048 5.3209457 0.021799637 -0.02795656 6.1638145 -0.019540235 -0.026803691 0.019201778
0.015270509 -0.015709963 9.337025 -0.03186492 -0.014298409 -0.022372436 -0.031209845 -0.013754573
6.649289 6.1277313 -0.015874537 0.017213246 0.012334657 6.0669866 -0.026551371 0.0066132923
0.012559522 10.370101 4.692752 0.00020139624 -0.05626188 0.037739232 6.7965784 0.015698599
00000000: d9f1 8b3c 96aa 7abc 6cc5 ea3c 2fae 1dbd
00000010: fd79 a83c b57f 0940 93ac b640 5922 69bb
00000020: 82fe 0341 3735 2ebc 07e2 c23c edb5 2741
00000030: c6ef 973c ab56 193c 3a6f 0fbd 6cd7 a6bb
00000040: d8b3 c440 c3f3 753d e05c b6bc 1322 77bc
00000050: 57db 193c 9391 6dbc 2ac5 5bbc 5702 1e41
00000060: c8b0 7040 d58f 023d 1b22 2d3d f433 b93c
00000070: bf89 313d e224 be3c 11e8 0dbd d46e 19bb
00000080: 8f85 46bd d077 df3b eb6c ee3b 7e5e 5541
00000090: 21d4 9d3c 1904 53bc b927 1f3d 58cc ae40
000000a0: cfa2 fb3c 8d0c 093b d60c 0bbd a775 3e40
000000b0: 8e35 74b9 8092 a140 e937 20bb 5a57 ebbc
000000c0: 9a10 1241 7a93 3abc 181a 203c 9f64 76bc
000000d0: f701 1141 46af c237 744a 39bd 047a b8bb
000000e0: 3d0f a1bc 23c4 27bd dd2a 2b3d 34dd 84bc
000000f0: 6aec ca40 0ad3 5e3b 6c85 443c 9ec6 a6bc
00000100: b638 e640 cd37 f140 150c 883c 32a0 18bb
00000110: b7cd c7bc e552 fd40 33d6 d840 7022 80bc
00000120: 6761 eabc 121e bf40 f67f 723b fc39 ad40
00000130: e526 073d 2ad1 1241 4c3c 8a3c 26d8 0c40
00000140: 6c67 8e3c 9493 a93c e24c b23c ddd5 9fbc
00000150: 22e2 5abb a4fc 0dbc 35ef 2341 5181 3c3c
00000160: a68e ea3b 3a0d aebc 452d 933f 6a6b 39bd
00000170: c952 bcbb 9b67 6e3d 709e 05bd 352c 543a
00000180: dc12 8f3c 3045 aa40 2795 b23c 2805 e5bc
00000190: f83d c540 d812 a0bc 6a93 dbbc 0c4d 9d3c
000001a0: 2831 7a3c 2eb2 80bc 7464 1541 ca84 02bd
000001b0: e043 6abc 6646 b7bc caab ffbc dc5a 61bc
000001c0: fac6 d440 6016 c440 510b 82bc cb02 8d3c
000001d0: 4d17 4a3c c124 c240 4382 d9bc 51b4 d83b
000001e0: 74c6 4d3c efeb 2541 062b 9640 e42d 5339
000001f0: db72 66bd 7494 1a3d 927d d940 599a 803c

bias f4 [128]
0.0010467392 0.00068930996 0.0022806942 0.0007464279 0.0021904684 4.2919703 0.2843591 -0.00095955055
-0.6270637 -6.288572e-05 -0.0065167528 3.2757688 -0.008761441 -0.00020564273 0.0012082075 0.0003063847
0.9786153 0.0010723476 -0.0034449773 0.0077115684 0.0026928668 0.0067400634 -0.001204989 0.60761994
3.6345043 0.0026401028 0.0028668444 -0.005845921 0.0076516904 -0.000119385695 -0.011671746 -0.00091123726
-0.0006119822 0.0010868142 0.00054418884 0.3576443 0.0012888641 -0.000118425975 0.00078057195 -1.0653046
0.007767075 0.00056143483 -0.0030823937 2.4064345 0.00074223813 1.9198729 -0.00018679452 -0.007010515
-0.36840263 0.0013304639 -0.00091358885 0.008203508 -0.65821797 0.0016139842 0.00052853016 -0.0008198455
0.008798882 -0.0011497961 -0.0018483743 -0.0019670455 -2.0830486 -0.00021740833 0.0018769945 -0.0015029586
-1.4034759 3.265415 7.7887686e-05 -0.004260941 -0.0004901043 0.4797819 0.8432958 -0.0014957973
0.0012807382 0.019508883 0.0010589507 4.18049 0.0032525666 -0.17845762 0.0011047454 -3.607967
0.00260109 0.0011032241 0.0004448717 0.0041032843 -0.0005500072 6.908178e-05 -0.9559942 5.3183612e-05
-0.00096612476 0.000120645134 0.43840414 -0.0010081583 -0.00031592633 0.0021210667 -0.002643149 0.00075324194
0.0031620597 -2.694215 0.006723097 -0.002611197 -0.30552027 -0.002253406 -0.0023477639 0.0004206776
0.003363638 0.00076338 0.28664964 0.0016544851 -0.0008379024 -0.0014212744 0.000800415 -0.0006565051
0.49359575 2.2733223 -0.00041996685 0.004874835 -0.00067071617 -4.7300572 -0.0006461703 0.0010076909
-0.0025279245 -2.5014238 2.3618965 -0.0010897692 0.0005206333 -0.00060986227 -0.019130297 0.0017811843
00000000: bd32 893a cfb2 343a b377 153b eeab 433a
00000010: f68d 0f3b d257 8940 8497 913e 598a 7bba
00000020: 3f87 20bf 84e1 83b8 7c8a d5bb 32a6 5140
00000030: 268c 0fbc cda1 57b9 b75c 9e3a 42a2 a039
00000040: 8886 7a3f 048e 8c3a 21c5 61bb 53b1 fc3b
00000050: cf7a 303b c0db dc3b b9f0 9dba fb8c 1b3f
00000060: b89b 6840 9305 2d3b abe1 3b3b 248f bfbb
00000070: 08bb fa3b b55e fab8 da3a 3fbc 19e0 6eba
00000080: 6e6d 20ba 6f73 8e3a e5a7 0e3a 271d b73e
00000090: 1aef a83a 765b f8b8 4c9f 4c3a e75b 88bf
000000a0: f382 fe3b 412d 133a fc01 4abb 0603 1a40
000000b0: c292 423a 65be f53f 46de 43b9 76b8 e5bb
000000c0: 459f bcbe f662 ae3a e97d 6fba 0268 063c
000000d0: f980 28bf 538c d33a 0f8d 0a3a e6ea 56ba
000000e0: 3029 103c c1b4 96ba 2645 f2ba 8ce9 00bb
000000f0: ab50 05c0 1bf8 63b9 7c05 f63a ecfe c4ba
00000100: 19a5 b3bf 8ffc 5040 a257 a338 5d9f 8bbb
00000110: 587a 00ba f9a5 f53e 3ce2 573f a10e c4ba
00000120: 71de a73a 18d1 9f3c 7dcc 8a3a 93c6 8540
00000130: 0329 553b 98bd 36be 1bcd 903a eee8 66c0
00000140: 0c77 2a3b 0f9a 903a ab3d e939 d874 863b
00000150: 5c2e 10ba 00e0 9038 09bc 74bf 7811 5f38
00000160: 8943 7dba dd02 fd38 8276 e03e 2e24 84ba
00000170: eaa2 a5b9 9801 0b3b af38 2dbb 3675 453a
00000180: 8f3a 4f3b 056e 2cc0 6d4d dc3b 9e20 2bbb
00000190: 276d 9cbe e1ad 13bb f1dc 19bb 648e dc39
000001a0: 7b70 5c3b 911d 483a bec3 923e 4fdb d83a
000001b0: aea6 5bba 0e4a baba f1d2 513a 5019 2cba
000001c0: 95b8 fc3e 1d7e 1140 ff2e dcb9 14bd 9f3b
000001d0: 00d3 2fba a15c 97c0 c163 29ba 7f14 843a
000001e0: 89ab 25bb 5417 20c0 5029 1740 96d6 8eba
000001f0: 1c7b 083a 2adf 1fba 24b7 9cbc a176 e93a

weight f4 [128, 128]
-0.17748468 0.14166827 -0.088819034 0.49657688 0.315842 2.470689 3.881905 0.4834722
-1.5895275 0.2436648 -0.2965909 2.777795 0.7159095 -0.24524371 0.0018741698 0.36721203
0.09317892 -0.042036775 -0.3608898 -0.21390721 -0.45202222 -0.32063693 -0.0118493885 -3.5918171
-3.394894 0.03001316 -0.29022276 -0.10083032 -0.08146883 -0.015142545 0.038693916 0.14608222
-0.3731698 -0.2554501 0.15504245 -2.5420601 -0.0435523 0.19947864 0.4922719 1.1888427
-0.50465184 0.008996444 -0.3010922 0.5387418 -0.22863102 1.5367428 0.053453207 0.3423538
-2.9302144 0.2857432 -0.043731194 -0.81909996 5.4943533 -0.6043917 -0.016907781 -0.14227603
-0.55199134 -0.020939361 0.12570095 0.03957441 -1.8123077 -0.26812273 -0.39099863 0.80190235
-2.481968 -1.5774808 0.11510316 0.35784003 -0.15603472 -0.45852315 -0.76083374 0.47491676
0.41821706 3.344523 -0.22584662 -1.333854 -0.46026048 0.03325869 0.18235005 -1.700073
0.12195389 0.08487293 0.06652263 -0.14891319 -0.16605906 0.04578897 1.1385424 -0.22480217
-0.374889 -0.09852497 -2.050645 -0.08242314 -0.4686748 -0.008083129 -0.6204455 -0.055296585
-0.37317494 0.92414033 -0.29857382 -0.012725752 0.39304405 0.10664495 -0.04683955 0.17542784
0.29437855 0.04734962 -0.36664584 -0.19597806 -0.09655132 0.021952078 0.5008296 -0.24628992
0.6671603 3.5439844 -0.19911608 0.07933291 -0.076528005 2.6520987 -0.16689226 -0.25105426
-0.4271909 -3.1206408 2.7552352 0.10038838 -0.04461557 0.6442676 1.2227348 -0.5142025
-0.24252553 0.19741365 0.093349405 0.15698999 0.20504403 1.768617 5.654909 0.20458394
-1.3002207 0.10192276 -0.21367615 1.6049167 0.2896693 0.032080516 0.105863765 0.28909436
1.4112622 0.015478442 -0.0786481 -0.35730234 -0.14010829 -0.33782586 -0.16610524 -2.6312885
-1.5245749 -0.044367034 -0.2419588 -0.14190361 -0.108943775 0.0064852913 0.025120752 0.20003657
-0.22357515 -0.20247819 0.09681888 -1.2975864 0.068032436 0.05154503 0.40329862 -0.13930517
-0.25463837 0.031316172 -0.17322245 -0.49641943 -0.023229573 -0.16261375 -0.054027002 0.05896118
-3.8748631 0.024880573 -0.16768219 -0.47442642 2.4675803 0.02786455 0.018446434 0.23394057
-0.32690617 -0.055282764 -0.072235174 -0.03574938 -1.7844017 -0.18460806 -0.15947513 0.41639903
-0.95410645 -1.5850204 0.12582697 0.45652348 -0.099272534 0.09835322 -0.08527709 0.29921964
0.42522335 1.1905415 -0.19525917 -1.4326813 -0.24278063 -0.004317805 0.23218927 -0.84708524
0.0690964 0.11710335 -0.20667708 -0.05501152 -0.061806876 -0.08571068 1.7800748 -0.05038201
-0.1255928 -0.11109963 -0.9310366 -0.1131712 -0.35327443 -0.013507447 -0.4443121 -0.05349829
-0.12630203 1.7174746 -0.121390596 0.048644345 -0.2635911 -0.27939165 -0.013173233 -0.005193971
-0.075298764 0.17840658 -0.81219167 -0.055835575 -0.18556026 0.06226001 0.44202363 -0.014438649
1.3682697 1.9424729 -0.017073719 0.087853484 -0.16124466 2.4996839 0.06615079 -0.26805094
-0.22942953 -2.068383 1.805111 0.15885927 0.015262696 0.43182537 1.0232217 -0.39907113
00000000: 8bbe 35be 7d11 113e c1e6 b5bd 533f fe3e
00000010: 0bb6 a13e c51f 1e40 2271 7840 ab89 f73e
00000020: a375 cbbf 4483 793e c3da 97be 65c7 3140
00000030: d845 373f 2b21 7bbe b4a6 f53a 3703 bc3e
00000040: 97d4 be3d c12e 2cbd 8cc6 b8be 7e0a 5bbe
00000050: 756f e7be 862a a4be f023 42bc 55e0 65c0
00000060: f145 59c0 29de f53c 1498 94be 2080 cebd
00000070: 21d9 a6bd 7018 78bc 837d 1e3d 9496 153e
00000080: 1d10 bfbe 5bca 82be 73c3 1e3e 1db1 22c0
00000090: e663 32bd 2144 4c3e 100b fc3e ff2b 983f
000000a0: dd30 01bf d265 133c c228 9abe fcea 093f
000000b0: 401e 6abe fdb3 c43f c0f1 5a3d ff48 af3e
000000c0: a288 3bc0 ef4c 923e 7b1f 33bd 89b0 51bf
000000d0: bed1 af40 6ab9 1abf 3082 8abc cfb0 11be
000000e0: 4e4f 0dbf 0689 abbc c0b7 003e c718 223d
000000f0: b3f9 e7bf 6247 89be f930 c8be 7949 4d3f
00000100: 90d8 1ec0 e4ea c9bf 35bb eb3d cf36 b73e
00000110: 91c7 1fbe 8cc3 eabe 00c6 42bf 4a28 f33e
00000120: 8c20 d63e aa0c 5640 5644 67be babb aabf
00000130: 43a7 ebbe 443a 083d f9b9 3a3e fe9b d9bf
00000140: f6c2 f93d dcd1 ad3d 043d 883d b37c 18be
00000150: 630b 2abe 378d 3b3d c2bb 913f 8a32 66be
00000160: 73f1 bfbe 76c7 c9bd c53d 03c0 77cd a8bd
00000170: 25f6 efbe 1a6f 04bc 84d5 1ebf ac7e 62bd
00000180: c910 bfbe 7694 6c3f abde 98be ac7f 50bc
00000190: 123d c93e ab68 da3d d4da 3fbd 5ba3 333e
000001a0: c9b8 963e adf1 413d 01b9 bbbe 79ae 48be
000001b0: b3bc c5bd d8d4 b33c 5e36 003f 6d33 7cbe
000001c0: 04cb 2a3f a4d0 6240 16e5 4bbe 4b79 a23d
000001d0: b7ba 9cbd fcbb 2940 cee5 2abe 2f8a 80be
000001e0: c4b8 dabe 94b8 47c0 c655 3040 6c98 cd3d
000001f0: d1be 36bd b9ee 243f 9382 9c3f c6a2 03bf
00000200: 9d58 78be ce26 4a3e f92d bf3d fcc1 203e
00000210: 10f7 513e 0b62 e23f 04f5 b440 747e 513e
00000220: a26d a6bf e1bc d03d eccd 5abe e96d cd3f
00000230: 894f 943e dc66 033d 1acf d83d 2d04 943e
00000240: 3da4 b43f 4b99 7d3c 4112 a1bd 55f0 b6be
00000250: 8c78 0fbe 83f7 acbe 7e17 2abe 0867 28c0
00000260: 4525 c3bf 35ba 35bd 0cc4 77be 2e4f 11be
00000270: ea1d dfbd 9182 d43b 09ca cd3c 63d6 4c3e
00000280: e2f0 64be 7156 4fbe fa48 c63d 5017 a6bf
00000290: 9754 8b3d e220 533d 287d ce3e 04a6 0ebe
000002a0: f65f 82be 6345 003d 3a61 31be b02a febe
000002b0: f24b bebc 3884 26be 6b4b 5dbd 4781 713d
000002c0: c2fd 77c0 58d2 cb3c e1b4 2bbe 05e8 f2be
000002d0: d6ec 1d40 3244 e43c fa1c 973c 1e8e 6f3e
000002e0: 3f60 a7be 2e70 62bd 09f0 93bd f16d 12bd
000002f0: 4667 e4bf e509 3dbe 734d 23be 4132 d53e
00000300: 5240 74bf f3e1 cabf c9d8 003e 72bd e93e
00000310: 664f cbbd 6a6d c93d c1a5 aebd 5133 993e
00000320: e0b6 d93e aa63 983f 05f2 47be 1a62 b7bf
00000330: 7c9b 78be 607c 8dbb 06c3 6d3e 94da 58bf
00000340: 6a82 8d3d e2d3 ef3d 28a3 53be c253 61bd
00000350: 3529 7dbd 1589 afbd 7ed9 e33f 5e5d 4ebd
00000360: 669b 00be 3488 e3bd 6a58 6ebf 4dc6 e7bd
00000370: 63e0 b4be 574e 5dbc e07c e3be 0621 5bbd
00000380: 5255 01be 35d6 db3f a29b f8bd 4b3f 473d
00000390: 6af5 86be 6c0c 8fbe 8bd4 57bc 3032 aabb
000003a0: 3d36 9abd 37b0 363e cbeb 4fbf d8b3 64bd
000003b0: 8203 3ebe 5a04 7f3d ec50 e23e 1590 6cbc
000003c0: 7623 af3f f4a2 f83f 2fde 8bbc 87ec b33d
000003d0: 521d 25be d2fa 1f40 117a 873d f93d 89be
000003e0: 93ef 6abe 6360 04c0 e10d e73f 01ac 223e
000003f0: 6310 7a3c 3718 dd3e eef8 823f 0d53 ccbe

bias f4 [128]
1.5620931 0.81493515 0.99566007 0.9414075 1.0314296 1.2872516 1.5289448 0.77446383
1.1383765 0.88426524 1.116535 0.8997048 1.2636265 1.0494112 1.4299508 0.88235843
-11.925155 0.68681145 4.6350994 0.9661563 1.045981 0.979888 0.021197041 0.9590989
0.42741373 1.6938806 0.9113273 1.0120374 0.99909234 1.0575643 -6.0698295 1.2859764
0.9055376 1.1759655 0.7873542 1.2111894 0.9165145 0.9009172 0.94999826 1.3872219
1.1375002 1.8163041 0.837877 0.658931 1.1183497 4.510725 1.2275002 -9.753397
1.145672 0.73067975 1.0294522 0.9251843 1.2743059 0.88403404 1.407893 1.0377603
1.1343262 1.5460855 1.0077924 2.031799 1.0261456 1.0818037 0.32454437 1.3117439
1.4075814 1.1591628 0.9068077 1.2556872 1.3961698 1.0061233 0.9472517 1.1884899
0.9413438 1.0044694 0.85310996 -10.8616 0.86475617 -1.5522555 2.0538757 1.5088426
0.7889778 0.90467435 0.8794223 0.84101737 1.2918506 0.95582265 1.0314027 1.091623
-0.14649075 0.98481005 0.8535067 1.3542695 0.8042859 1.1202242 0.91646945 0.89937705
0.99760914 -1.1294588 1.4103271 1.281473 1.3355091 0.91519344 1.0956191 0.82453734
1.197886 0.8343192 1.1730093 1.0147711 0.8152357 0.60288185 1.1423433 0.98047197
1.4292169 0.97653306 1.1511114 0.8996249 1.0233717 1.1876748 0.46745774 0.84852153
3.985979 0.8357694 0.96970564 1.6991591 0.17632416 -2.3699236 1.1278492 0.86697024
00000000: abf2 c73f 979f 503f 94e3 7e3f 1500 713f
00000010: e305 843f a9c4 a43f 77b4 c33f 4343 463f
00000020: 52b6 913f 355f 623f 9eea 8e3f 0e53 663f
00000030: 83be a13f 1b53 863f a108 b73f 3ee2 613f
00000040: 6fcd 3ec1 e0d2 2f3f bc52 9440 0556 773f
00000050: b5e2 853f f1d9 7a3f 6ba5 ad3c 8187 753f
00000060: f9d5 da3e 14d1 d83f bf4c 693f 718a 813f
00000070: 84c4 7f3f 445e 873f 0b3c c2c0 e09a a43f
00000080: 50d1 673f 0a86 963f 0b90 493f 4108 9b3f
00000090: b2a0 6a3f 82a2 663f 1633 733f 7d90 b13f
000000a0: 9b99 913f a77c e83f 1b7f 563f b4af 283f
000000b0: 1526 8f3f dc57 9040 ba1e 9d3f ea0d 1cc1
000000c0: 61a5 923f d40d 3b3f 17c5 833f e1d8 6c3f
000000d0: 751c a33f 0e50 623f d635 b43f 54d5 843f
000000e0: 9a31 913f 21e6 c53f 57ff 803f ff08 0240
000000f0: bd58 833f 8b78 8a3f ae2a a63e 39e7 a73f
00000100: a12b b43f 725f 943f 8d24 683f 5cba a03f
00000110: b1b5 b23f a6c8 803f 167f 723f 7020 983f
00000120: e8fb 703f 7492 803f 6a65 5a3f 1dc9 2dc1
00000130: a960 5d3f 4fb0 c6bf b372 0340 c121 c13f
00000140: 73fa 493f bd98 673f d221 613f ea4c 573f
00000150: 5c5b a53f cbb0 743f 0105 843f 4dba 8b3f
00000160: ac01 16be 831c 7c3f 6a7f 5a3f b458 ad3f
00000170: aee5 4d3f 8263 8f3f be9d 6a3f 933d 663f
00000180: 5063 7f3f 1b92 90bf 9985 b43f 4f07 a43f
00000190: f6f1 aa3f 1e4a 6a3f 3f3d 8c3f e114 533f
000001a0: 5454 993f f195 553f 2b25 963f 05e4 813f
000001b0: 49b3 503f 7756 1a3f 4e38 923f 3600 7b3f
000001c0: 94f0 b63f 12fe 793f 9e57 933f d14d 663f
000001d0: d8fd 823f ba05 983f 9f56 ef3e b538 593f
000001e0: 481a 7f40 fcf4 553f a13e 783f 0c7e d93f
000001f0: 528e 343e d4ac 17c0 5d5d 903f c3f1 5d3f

weight f4 [128]
-0.004191986 -0.011917117 0.010951287 0.02437167 0.0010273152 0.00039746938 0.0005342413 -0.08407795
-0.0068500163 -0.008941515 -0.00085759297 0.031520024 -0.00032955565 0.007320497 -0.003249511 0.04298416
-0.00020385796 -0.0023068087 0.00022729926 -0.010433372 -0.0016087729 0.0076378873 0.006130262 0.016476842
-0.0022213561 -0.00075461133 -0.026579462 -0.00039424424 0.001935505 -0.0023935987 0.29211104 0.0087261405
0.055574324 0.0006921018 0.032169197 0.00034356734 -0.046610866 -0.02225153 -0.06580101 5.933589e-07
0.00046286485 -0.00074817706 0.0032868842 0.055909224 0.0027092027 1.3361981 -9.956926e-05 -0.00020459344
-0.0071266275 0.00019078622 0.0067170016 0.015448255 -0.00013740208 -0.00021460351 -0.0041059633 -0.0020053054
-0.002235172 0.00073880045 0.099115156 -0.00079489284 0.013728907 0.0020700318 -0.0055952547 -0.00057023816
0.0011613454 0.00043848812 0.08774018 8.0605845e-05 -0.0013161524 -0.0012302612 -0.07038406 0.006876628
0.0030625362 -3.2301083e-05 0.17284477 -0.00026180706 0.05156741 1.4148816 0.00020445387 -3.4882392e-05
0.0074116574 -0.08751112 0.09196802 0.054823484 0.000113246126 -0.02488267 -0.020641793 0.00084622647
-0.17439753 0.0037851082 -0.024884757 -0.00011475591 0.045467895 0.00045108376 0.027592652 0.018653257
0.05784315 -0.10861442 -0.00055984675 -0.009829046 -0.009437234 0.024011856 0.0066865757 0.010237912
-0.00097338064 0.06572001 -0.0015336297 -0.0012853036 0.0020290234 6.77942e-05 0.00032247847 0.003870904
0.00024516994 0.01737148 0.00080677203 0.0008629467 -0.25644216 7.958746e-05 -0.0001713238 -0.011289183
0.26826897 0.103493355 0.0036240874 -0.00032869738 0.7224165 0.98638743 -0.0003763078 0.012191476
00000000: ed5c 89bb 0340 43bc 076d 333c 19a7 c73c
00000010: faa6 863a 7063 d039 540c 0c3a 0f31 acbd
00000020: 1a76 e0bb 6f7f 12bc 17d0 60ba 241b 013d
00000030: 36c8 acb9 c8e0 ef3b bff5 54bb 2910 303d
00000040: b4c2 55b9 d42d 17bb 2e57 6e39 bcf0 2abc
00000050: 76dd d2ba 3e47 fa3b 5de0 c83b 71fa 863c
00000060: 2c94 11bb 1cd1 45ba 2cbd d9bc 91b2 ceb9
00000070: c5b0 fd3a ecdd 1cbb 948f 953e 16f8 0e3c
00000080: e7a1 633d 2a6e 353a d9c3 033d d420 b439
00000090: 09eb 3ebd d748 b6bc aec2 86bd 5047 1f35
000000a0: abac f239 5021 44ba c468 573b 1201 653d
000000b0: e18c 313b 8a08 ab3f d7cf d0b8 2288 56b9
000000c0: 7c86 e9bb c90d 4839 4b1a dc3b ae1a 7d3c
000000d0: 9713 10b9 3107 61b9 518b 86bb 716b 03bb
000000e0: f77b 12bb 0fac 413a e3fc ca3d 5b60 50ba
000000f0: 36ef 603c 5fa9 073b 6658 b7bb 097c 15ba
00000100: 4938 983a e1e4 e539 20b1 b33d ef0a a938
00000110: bf82 acba b740 a1ba 8525 90bd 5655 e13b
00000120: d5b4 483b 067b 07b8 38fe 303e 2643 89b9
00000130: 5938 533d d71a b53f ab62 5639 af4e 12b8
00000140: 7ddd f23b 0839 b3bd bb59 bc3d 978e 603d
00000150: 8d7e ed38 bed6 cbbc fa18 a9bc 4cd5 5d3a
00000160: 4495 32be 940f 783b 1edb cbbc 1ca9 f0b8
00000170: 8b3c 3a3d 707f ec39 fc09 e23c b7ce 983c
00000180: f0ec 6c3d 3d71 debd aec2 12ba 020a 21bc
00000190: a19e 1abc 83b4 c43c 101b db3b eabc 273c
000001a0: 782a 7fba 3698 863d 1304 c9ba a277 a8ba
000001b0: 5df9 043b bc2c 8e38 5412 a939 feae 7d3b
000001c0: 278a 8039 a24e 8e3c 8e7d 533a 5f37 623a
000001d0: 634c 83be 31e8 a638 62a5 33b9 44f6 38bc
000001e0: 8d5a 893e 53f4 d33d 1982 6d3b 0455 acb9
000001f0: 4af0 383f e383 7c3f 2e4b c5b9 c2be 473c

bias f4 [128]
-0.0021200767 0.00012889587 -0.0011360035 -0.0002797007 0.0008133667 -0.00030920035 0.00023822315 0.0009880273
-0.00042163208 0.0014866941 0.00016226673 -0.00055683777 -9.749606e-05 0.0011540618 -0.0017109318 -0.00013193746
-0.00092434225 0.003170363 -0.00037030954 -0.0026697558 0.00022814354 -0.00054384326 -0.0009902172 -0.00021367903
0.0021513836 0.00017884943 0.00030249698 3.7450147e-05 -0.00019296184 0.0003280111 -0.011401053 -0.0001735918
-0.0017612526 -0.00017862469 -0.00040264617 -0.00038931496 0.0008283497 0.00030490573 0.0028639196 0.0001520093
3.3098288e-05 0.0002473811 0.0030893544 0.0010615623 -0.00046445135 0.48706114 -0.00011291423 -0.00052201084
-0.002765381 -0.00016406212 -0.0002043043 0.0024299845 0.00024307465 0.00048659786 -0.0016150142 0.00024240356
0.00018673991 -0.00046943236 -0.0030516726 0.0007973491 0.0021575005 -0.00016089401 0.0034028902 -3.3406614e-05
0.0005609332 9.03608e-06 -0.00070040935 0.00032018014 0.00019859013 0.00012622742 0.0018163467 0.00222585
-8.455776e-05 -8.138556e-05 -0.0022248283 -0.00094775116 0.0005363492 0.038746092 0.0026358499 -2.3525572e-05
0.0036060156 -0.0015173405 -0.0023035293 -0.00035161755 6.160446e-05 0.0021950363 0.0005194717 -0.00021837433
0.010416866 -6.396399e-05 -6.837455e-05 -0.00031269816 -0.0004880788 -7.0791466e-05 -0.00025251025 -0.00036984668
-1.7128095e-05 -0.0010190983 0.0011112648 -9.604064e-06 -0.002169834 -0.0008880338 0.0023857448 0.00011186432
7.7497236e-05 -0.0011041645 0.00012036316 -1.0761815e-05 -0.002684074 1.0208169e-06 0.0004970256 -0.00042473787
0.00019547495 -0.00039080693 -9.843596e-06 -7.219457e-05 -0.0041860985 5.099695e-05 0.001706809 8.1535196e-05
-0.0036921226 -0.002445545 -1.6692095e-05 -0.00016208207 0.5872093 -0.015659614 -0.00059889036 0.0025291245
00000000: fcf0 0abb 3928 0739 f4e5 94ba cba4 92b9
00000010: 1e38 553a 2b1c a2b9 8acb 7939 b280 813a
00000020: 800e ddb9 2ddd c23a 2526 2a39 c0f8 11ba
00000030: cc76 ccb8 e343 973a 5841 e0ba b158 0ab9
00000040: 8f4f 72ba ddc5 4f3b 1b26 c2b9 12f7 2ebb
00000050: d139 6f39 b490 0eba 2dca 81ba 070f 60b9
00000060: 3afe 0c3b 8789 3b39 7598 9e39 ca13 1d38
00000070: cd55 4ab9 e8f8 ab39 7bcb 3abc 3206 36b9
00000080: d5d9 e6ba 334d 3bb9 411a d3b9 f81c ccb9
00000090: 9b25 593a c1db 9f39 99b0 3b3b b064 1f39
000000a0: 04d3 0a38 eeb2 8139 c476 4a3b 1f24 8b3a
000000b0: 9b81 f3b9 1460 f93e 5ecc ecb8 8ed7 08ba
000000c0: 653b 35bb 1708 2cb9 853a 56b9 6040 1f3b
000000d0: dbe1 7e39 0f1e ff39 e2ae d3ba b62d 7e39
000000e0: 9dcf 4339 251e f6b9 92fe 47bb 3105 513a
000000f0: da64 0d3b a8b5 28b9 0603 5f3b 141e 0cb8
00000100: 970b 133a ab99 1737 ad9b 37ba dadd a739
00000110: a23c 5039 ea5b 0439 7b12 ee3a 91df 113b
00000120: 9a54 b1b8 8aad aab8 6dce 11bb 8172 78ba
00000130: c999 0c3a 39b4 1e3d 39be 2c3b c858 c5b7
00000140: e752 6c3b 80e1 c6ba cff6 16bb 4f59 b8b9
00000150: a531 8138 99da 0f3b 282d 083a 6afb 64b9
00000160: 81ab 2a3c 6824 86b8 4f64 8fb8 a3f1 a3b9
00000170: d4e4 ffb9 e175 94b8 5a63 84b9 fbe7 c1b9
00000180: 4eae 8fb7 4493 85ba dca7 913a 2421 21b7
00000190: c633 0ebb f1ca 68ba 285a 1c3b b398 ea38
000001a0: 0386 a238 9db9 90ba 7b6b fc38 a58d 34b7
000001b0: 4ae7 2fbb 0003 8935 d34a 023a 5aaf deb9
000001c0: 68f8 4c39 38e5 ccb9 ec25 25b7 2a67 97b8
000001d0: 8a2b 89bb 8fe5 5538 02b7 df3a e0fd aa38
000001e0: 8af7 71bb 7045 20bb 0006 8cb7 93f4 29b9
000001f0: 5953 163f 9748 80bc dafe 1cba abbf 253b

weight f4 [1, 128]
0.008593642 0.00011118488 0.0041569504 0.0005024107 -0.0048300037 0.0014280307 -0.001182636 -0.0021741153
0.0025614894 -0.006775815 -0.0007506716 0.0011888763 0.0005514103 -0.01404116 0.0071849027 -0.0018986885
-0.0001595631 -0.000673619 -0.0002419718 0.013181767 -0.0009780054 0.0024718225 0.0059035635 0.0003960577
0.0009644668 -0.0005464851 -0.0005617559 -0.00015820711 0.0009536367 -0.0017703064 -0.050941247 -0.00655298
0.0063230274 0.00077574933 0.0015564251 -5.8437636e-05 -0.0022214751 -0.0007139401 -0.011742954 -0.000735027
-0.00023800429 0.0009573211 -0.012619156 -0.0060640033 0.0028481584 -2.0839212 0.0005567653 -0.00035392382
0.012888733 0.000304927 0.0006605592 -0.013684609 -0.0011532456 -0.0013559371 0.008265417 -0.0009216946
-0.00089618965 -0.00044540825 0.011215907 0.0007249915 -0.010102002 0.00068669143 -0.005323217 0.00025299814
-0.0027398204 -8.6592765e-05 -0.00043183428 -0.0014961028 -0.00057261443 -0.0007106684 -0.0033831294 -0.0119775655
0.00036965162 0.00047011385 0.006713047 -0.00034505053 -0.00524712 -0.25918716 -0.0028195467 0.00011998319
-0.0132277245 0.008687402 0.008407928 -0.0013728059 -0.0003120297 -0.008989155 -0.00070250104 0.0009914878
-0.009745336 0.00015027766 0.0027796335 0.0015201576 0.000102794744 0.00034245598 0.00037899247 0.0011585832
-0.003484253 -0.008474943 -0.0046471995 0.015088704 0.012213749 0.004016186 -0.010250136 -0.0010564061
-0.00031549597 0.0026643823 -0.00056890864 0.00015228902 0.008410787 -3.2204087e-05 -0.0023953258 0.0027658872
-0.00093636307 0.0013590432 -1.8038421e-05 0.0003794823 0.018479971 -0.00025155817 -0.0012206512 1.799514e-05
-0.022119913 0.011406528 -3.6951256e-05 0.0007955319 2.0051692 1.2299505 0.002952039 -0.011160034
00000000: 59cc 0c3c ee2b e938 0737 883b 36b4 033a
00000010: 0245 9ebb c22c bb3a ae02 9bba 9a7b 0ebb
00000020: a9de 273b a807 debb b8c8 44ba 12d4 9b3a
00000030: 858c 103a e50c 66bc 556f eb3b 6add f8ba
00000040: 6550 27b9 ce95 30ba cfb9 7db9 57f8 573c
00000050: 6a30 80ba 4dfe 213b ae72 c13b f7a5 cf39
00000060: 45d4 7c3a ff41 0fba cd42 13ba 66e4 25b9
00000070: 7afd 793a a009 e8ba c5a7 50bd 61ba d6bb
00000080: 6631 cf3b a85b 4b3a f600 cc3a ef1a 75b8
00000090: 2b96 11bb b627 3bba 8565 40bc d4ae 40ba
000000a0: ca90 79b9 bbf4 7a3a 94c0 4ebc 8cb4 c6bb
000000b0: 2ba8 3a3b f75e 05c0 e3f3 113a da8e b9b9
000000c0: 442b 533c 9cde 9f39 6129 2d3a 6935 60bc
000000d0: 8028 97ba b3b9 b1ba ac6b 073c e19d 71ba
000000e0: 45ee 6aba af85 e9b9 ecc2 373c 5b0d 3e3a
000000f0: de82 25bc 1503 343a 616e aebb d6a4 8439
00000100: 8f8e 33bb 2399 b5b8 d167 e2b9 e118 c4ba
00000110: 811b 16ba 264c 3aba 7eb7 5dbb 8d3d 44bc
00000120: cdcd c139 9d79 f639 1ff9 db3b e6e7 b4b9
00000130: 08f0 abbb 2eb4 84be 25c8 38bb 7c9f fb38
00000140: 19b9 58bc 9b55 0e3c 68c1 093c b9ef b3ba
00000150: eb97 a3b9 4047 13bc 0c28 38ba cff4 813a
00000160: e7aa 1fbc da93 1d39 832a 363b 0640 c73a
00000170: 8293 d738 aa8b b339 82b3 c639 9adb 973a
00000180: 1158 64bb 7dda 0abc 8947 98bb 9d36 773c
00000190: 2d1c 483c 369a 833b 30f0 27bc 1b77 8aba
000001a0: 2769 a5b9 eb9c 2e3b d022 15ba c6af 1f39
000001b0: 66cd 093c e012 07b8 e6fa 1cbb e343 353b
000001c0: 4376 75ba ec21 b23a 3751 97b7 41f5 c639
000001d0: 4f63 973c 91e3 83b9 42fe 9fba 45f4 9637
000001e0: d234 b5bc 72e2 3a3c 1cfc 1ab8 3e8b 503a
000001f0: b154 0040 056f 9d3f ff76 413b 93d8 36bc

weight f4 [1, 128]
0.00040598822 -4.444104e-05 5.821943e-05 6.8326306e-05 -0.00044947653 0.00014388705 -0.00015979633 -0.00036445263
0.00018301565 -0.0001819535 -6.794648e-05 0.00033879248 0.00010657965 -0.0029139319 0.00046360883 -7.7425255e-05
-5.500256e-06 5.5713455e-05 -1.1233207e-05 0.00097497046 -7.603659e-05 0.00016772562 0.0008669509 -4.99603e-05
0.000104912295 1.6950635e-05 -2.08226e-06 -6.586629e-06 0.0001037387 -0.00022068595 -0.018325225 -0.0013787325
0.0006634895 4.2746433e-05 0.00016601468 0.00010306234 -0.0002240286 -9.145452e-05 -0.00085777155 -8.49434e-05
-7.277625e-05 -9.061185e-05 -0.0004682778 -0.0002278375 0.00022904806 0.0020384705 7.241283e-05 -4.0254065e-05
0.00038717117 2.3381232e-05 -4.3684908e-05 -0.0013774643 -0.00012091201 -0.000138588 0.00092665333 -5.2391275e-05
-4.985204e-05 0.00014263121 0.0022801 -0.00016144311 -0.00039107885 1.640918e-05 -0.0008763054 6.219287e-05
-0.00037240353 -2.5331117e-05 0.00058182 -0.00018394715 2.4435478e-05 -0.00011915391 -0.00085661025 -0.0012270821
-9.599302e-06 6.6458495e-05 0.00027585166 -3.4675708e-05 -1.5908518e-05 0.0015093952 0.00010645105 1.9853938e-05
-6.372393e-07 0.00049605046 0.00093240774 0.0001109031 -4.0515624e-05 -0.00030379093 0.00037469892 9.7381904e-05
-0.0025960493 -2.7743261e-05 9.6413874e-05 0.0001846293 9.323603e-05 4.9035873e-05 7.47731e-05 0.0004364444
0.00025368642 -0.003286166 -0.00020428639 0.0043637073 0.0014826438 0.00028514935 -0.00019985669 -7.176683e-05
-2.6303248e-06 0.00039869986 -1.010175e-05 4.123453e-05 0.0008541773 1.653463e-06 -0.00028648335 0.00013507904
-0.000107788335 3.556101e-05 -2.759352e-05 4.728523e-05 -0.00095154095 -3.354989e-05 0.0007644474 3.6574802e-05
-0.023749668 0.0009056221 -5.865788e-05 9.913888e-05 0.0036693057 -5.603226e-05 0.00035351742 -0.00044409453
00000000: d1da d439 3466 3ab8 a330 7438 684a 8f38
00000010: b8a7 ebb9 63e0 1639 008f 27b9 0114 bfb9
00000020: e4e7 3f39 c5ca 3eb9 7d7e 8eb8 f59f b139
00000030: 8483 df38 aaf7 3ebb 8610 f339 5e5f a2b8
00000040: d78e b8b6 dead 6938 4276 3cb7 2995 7f3a
00000050: d575 9fb8 81df 2f39 1744 633a 778c 51b8
00000060: 5c04 dc38 3631 8e37 f4bc 0bb6 b602 ddb6
00000070: 4a8e d938 ef67 67b9 c81e 96bc 96b6 b4ba
00000080: 07ee 2d3a a24a 3338 3a14 2e39 2c23 d838
00000090: 38e9 6ab9 46cb bfb8 13dc 60ba a423 b2b8
000000a0: 749f 98b8 de06 beb8 2f83 f5b9 aae7 6eb9
000000b0: 9f2c 7039 dc97 053b 58dc 9738 79d6 28b8
000000c0: 3cfd ca39 d022 c437 503a 37b8 088c b4ba
000000d0: 2492 fdb8 ef51 11b9 a7ea 723a b4be 5bb8
000000e0: 3818 51b8 468f 1539 bb6d 153b 0e49 29b9
000000f0: b709 cdb9 72a6 8937 dcb7 65ba 8b6d 8238
00000100: 283f c3b9 297e d4b7 4785 183a f0e1 40b9
00000110: cafa cc37 45e2 f9b8 248e 60ba 0bd6 a0ba
00000120: b00c 21b7 a25f 8b38 2fa0 9039 c270 11b8
00000130: 4873 85b7 e6d6 c53a 793e df38 028c a637
00000140: c00e 2bb5 6209 023a d36c 743a a694 e838
00000150: 52ef 29b8 2146 9fb9 3d73 c439 8339 cc38
00000160: 7b22 2abb 33ba e8b7 ce31 ca38 0d99 4139
00000170: b687 c338 deab 4d38 81cf 9c38 93d2 e439
00000180: 3701 8539 b75c 57bb b635 56b9 6efd 8e3b
00000190: 4555 c23a 1980 9539 9f90 51b9 8681 96b8
000001a0: a384 30b6 9708 d139 b07a 29b7 3df3 2c38
000001b0: deea 5f3a 8eec dd35 2533 96b9 01a4 0d39
000001c0: 6c0c e2b8 5827 1538 a278 e7b7 2154 4638
000001d0: d570 79ba ecb7 0cb8 3265 483a e567 1938
000001e0: aa8e c2bc 4567 6d3a 6b07 76b8 c8e8 cf38
000001f0: bc78 703b 2e04 6bb8 4e58 b939 5cd5 e8b9
