ppo_algorithm/data/6/checkpoint/ppo_network_state_dict.pt (torch_old, 21707 bytes, 10 tensors)

net.0.weight f4 [64, 5]
000000 de 25 8c 3d 2f dd 5e 3f 3d c7 d2 be 45 1a 03 3f
       0.0684316 0.8705625 -0.41167632 0.5121196
000010 2e 6f 71 be 77 bb 88 3e 31 c6 c1 3e 01 f1 11 3f
       -0.23577568 0.26705524 0.3784652 0.5700837
000020 cd 8c 1b bf 5c 0e ac 3c 3b 6c 27 be 7b 4e 4b be
       -0.6076172 0.02100294 -0.1634988 -0.19854157
000030 68 e6 c8 3e 34 13 a9 be 69 3c df bc 90 b1 4c 3f
       0.39238286 -0.33022463 -0.027250485 0.7995844
000040 4e 5e 82 3d 67 70 38 3f 9c de d9 3e 27 97 65 be
       0.063656434 0.7204651 0.4255265 -0.22420941
000050 cd d9 3b 3f 56 57 18 3f 37 33 93 bd 8a b4 03 bf
       0.7337921 0.59508264 -0.07187503 -0.51447356
000060 fa b9 a8 3e 9c 72 0a 3e 27 7c a7 3e a9 6f 8e be
       0.3295439 0.13520283 0.32711908 -0.27819565
000070 76 11 51 be 64 b0 cf 3d 7a f5 07 be 21 66 0b 3e
       -0.20416817 0.10141066 -0.13277236 0.13613178
000080 4c c6 e2 3e 66 1a 7d be 59 67 fa 3d 0d 8b 8c be
       0.44291914 -0.24717101 0.12226743 -0.27449837
000090 c4 65 53 bf a8 eb 76 be 9e bb 3e 3f ff 2d 3c bf
       -0.8257716 -0.24113333 0.7450503 -0.73507684
0000a0 2d 7e fa be 40 10 03 bf 9e e2 32 3e e5 be 23 3f
       -0.4892439 -0.5119667 0.1746926 0.63963157
0000b0 62 5f 3a 3e 77 08 b3 be ca 3a 36 bf 4f 20 3f 3c
       0.18200448 -0.34967396 -0.71183455 0.011665418
0000c0 7b 3e 09 3f ba 56 3e bf 5e ad 03 3f 11 9f 63 3e
       0.5361096 -0.74351084 0.5143641 0.22228648
0000d0 d8 62 1e 3f 0a 62 3d bf b3 21 9c 3d 8a df 09 3e
       0.61869574 -0.7397772 0.07623615 0.1346418
0000e0 3c 3f 7b 3e 32 89 97 3e f9 23 b4 3d 84 03 94 3e
       0.24535841 0.2959686 0.08795924 0.28908932
0000f0 ec 7c 82 3e 65 3c 6e 3f c6 c5 89 3e e2 37 0e bf
       0.25485933 0.93060905 0.26908702 -0.5555402
000100 9f 72 cf 3e 80 ba 96 be 59 6c 61 bf ec fb 34 be
       0.40517136 -0.29439163 -0.8805595 -0.17674226
000110 2b 68 33 3f e9 e4 8c be 8c cc 86 bf 08 ba 0c bf
       0.7008082 -0.27518395 -1.0531173 -0.5497136
000120 16 d1 46 bf 9c 89 5f 3c 3d 68 8b 3d 5d c9 fc 3e
       -0.7766279 0.0136436485 0.06806991 0.49372378
000130 54 78 bb 3e 30 f4 08 3e c9 39 91 be 88 bf d1 3e
       0.3661524 0.133744 -0.283644 0.4096644
000140 36 7f a0 bd 38 98 6a 3f 35 1f 10 3e e5 c2 7e bf
       -0.078367636 0.9163852 0.14074405 -0.99516135
000150 7e 27 95 3f 8c a9 67 be 9d 38 01 bf 90 64 a6 be
       1.1652677 -0.22623271 -0.5047701 -0.32498598
000160 90 48 27 3f bf b2 25 bf 28 a9 53 be 68 3d 86 bf
       0.65345097 -0.6472587 -0.20669997 -1.048749
000170 59 69 78 3c b7 e9 39 3f b6 58 83 bf f3 1d 69 be
       0.015161836 0.72622246 -1.0261447 -0.22765331
000180 5c eb fb be 57 50 a0 be 86 05 90 3e ca bb 41 be
       -0.49203002 -0.31311294 0.28129214 -0.18919292
000190 74 32 90 be 6f 51 14 bf e5 bf a3 3e 21 c4 b3 3e
       -0.28163493 -0.5793676 0.3198234 0.35110572
0001a0 bf dc 84 be ff 6d f7 3e de 2f 1b 3f aa 54 8e be
       -0.25949666 0.48326108 0.60619915 -0.2779897
0001b0 33 3f d6 bd 30 f0 91 3d cf cc c5 3e 98 8c 92 3f
       -0.10461273 0.0712589 0.3863282 1.1449156
0001c0 56 ca 3c be 2e 6d 5d bf a9 be 2e 3f c8 08 11 3f
       -0.1843656 -0.8649472 0.68259674 0.56654024
0001d0 8d 1f cd 3e 28 6b 94 3e 3b 00 1a bf 6d 71 40 bc
       0.40063134 0.28988004 -0.601566 -0.011745793
0001e0 8e 74 91 be 88 2f e4 be a1 13 04 3f 98 c7 6d bd
       -0.28409237 -0.44567513 0.5159245 -0.058051676
0001f0 ee d2 56 3e e0 5d 0a 3f b0 a2 1d 3f d9 bd bb 3e
       0.20978901 0.5404949 0.61576366 0.3666828
000200 e2 41 07 be 1c 22 06 be 57 f7 0e 3b b7 ba 25 3f
       -0.13208726 -0.13098949 0.0021814907 0.6473803
000210 e4 7b e8 3d ec 24 09 be 5e 38 2c 3f 7b 7d 9a bd
       0.11351755 -0.13392991 0.6727351 -0.07543465
000220 ef ba 4e 3f 65 5c 89 bd 22 ff 76 bf 6f bf a7 3f
       0.8075399 -0.06707076 -0.9648305 1.3105296
000230 aa 65 19 bf 0d e2 26 3e 43 fa b6 3d 10 bf 35 3c
       -0.5992075 0.16297169 0.089344524 0.011092916
000240 3f ef 89 be 8e 77 d9 3e 8a ab 8d 3e fe c5 65 3e
       -0.26940343 0.42474025 0.27669936 0.2243881
000250 1e e6 93 bf 15 ca 88 bc 4c 1f ae bd b7 19 66 be
       -1.1554601 -0.016697923 -0.08502063 -0.22470747
000260 2c 24 cb be 6b 1b d5 3e c3 a8 fc be 7a 9a 57 3e
       -0.39676034 0.4162248 -0.49347505 0.21055022
000270 79 04 17 3f 15 d4 8e 3d fa fd c3 be 46 7a 0a 3f
       0.589912 0.06974045 -0.38279706 0.54092824
000280 61 11 ca 3d 76 3f 2e 3f 7e 66 70 3e fe 8b ef be
       0.09866596 0.68065584 0.23476598 -0.46786493
000290 cf 96 29 3e dd 60 e9 3e 1a 65 88 3e ad ff e0 3e
       0.16561435 0.45581713 0.26639634 0.43945065
0002a0 59 8e 69 bc 98 37 f4 bd 38 a3 74 be 4b cf 35 bf
       -0.01425513 -0.11924666 -0.23890388 -0.7101943
0002b0 3d af 17 bf 63 d5 12 bd f6 cc b7 3c 2c cf 13 bf
       -0.5925177 -0.035848033 0.0224366 -0.57737994
0002c0 12 c9 be be ec bd 5f bd c6 9f d6 3e 7d 9c 8b be
       -0.3726278 -0.054624483 0.41918772 -0.2726783
0002d0 4c 7d c4 3e c9 d1 28 be 8b e3 e7 bd 67 f8 61 3e
       0.38376844 -0.16486277 -0.11322697 0.22067414
0002e0 34 ca 6a be d8 c9 ae 3d e8 a7 2d bf 0f 55 0f bf
       -0.22928697 0.085345924 -0.6783433 -0.55989164
0002f0 a5 cc fc 3e 57 55 16 bf 7b 2e cb be e2 16 fa be
       0.4937488 -0.5872397 -0.396839 -0.48845583
000300 da cd cd 3e f8 fa 0b 3f 9e 25 c8 be a2 83 c9 3e
       0.40196115 0.5467982 -0.390912 0.3935824
000310 05 a7 87 3c 63 eb c5 3d bf b3 0e 3f 81 3f 84 3e
       0.016559133 0.09664037 0.5574302 0.258297
000320 6d 41 11 3e 94 33 28 3f 23 18 13 bd d4 7e 55 bf
       0.14185114 0.657037 -0.03591169 -0.8339665
000330 45 68 32 3f 9b 90 9e 3e 36 4a 57 3f 00 1c bc 3e
       0.6969035 0.309697 0.8409761 0.36740112
000340 56 e9 02 bf af 21 9f 3e 19 2c 10 bd 21 37 d6 be
       -0.5113729 0.31080386 -0.035198305 -0.41838935
000350 e5 2d 90 be d4 42 b1 3e b7 e2 10 be 6c ca d5 3e
       -0.28160015 0.34621298 -0.14148985 0.41755998
000360 e8 70 28 3f 68 d2 54 bf c3 36 9f be f0 78 04 3c
       0.6579728 -0.83133554 -0.31096467 0.008085474
000370 56 f4 38 bf c5 ae ad be 86 81 14 3f 3a e7 68 be
       -0.7224783 -0.339224 0.5801014 -0.22744456
000380 4a 57 d3 3d 97 05 e7 be da 9f 8e bf ab 94 18 be
       0.103193834 -0.45121452 -1.1142533 -0.14900462
000390 a7 4d 44 3f 03 07 a5 be 50 f6 02 bf 6a b0 bf 3a
       0.7668099 -0.32231912 -0.51157093 0.0014624719
0003a0 d9 7f 16 bf cf 39 38 3f 4a 3f 7a bd 7c a9 45 3d
       -0.5878883 0.7196321 -0.061095513 0.048257336
0003b0 b9 99 e6 3d 62 5a 6a 3e 8e b6 d6 3e 17 34 f2 bc
       0.11259789 0.22886041 0.41936153 -0.029565854
0003c0 78 c0 07 be a3 fd 15 bf 55 2b 91 bd 75 76 59 3e
       -0.13257015 -0.58590144 -0.07088343 0.21236594
0003d0 ee 5f ae be 6b e0 53 bb 8c 45 fb be a8 b5 c1 be
       -0.34057564 -0.0032329808 -0.49076498 -0.37833905
0003e0 6f 87 10 3e 1e 22 2e 3e 9f 6f af 3d e9 e4 2f bf
       0.14114164 0.17005202 0.08566212 -0.68708664
0003f0 4c ae b4 3e 7b 3d 02 3f a6 ab dd be ec 72 31 be
       0.35289228 0.5087506 -0.4329502 -0.17328995

net.0.bias f4 [64]
000000 ca 08 f5 3d cc bb e6 bc 07 0c 4d be d0 1b 2d be
       0.11964567 -0.02816572 -0.2002412 -0.16905141
000010 5a cc 02 3e 38 2c b7 3d e8 7b 62 bc 59 10 55 be
       0.12773266 0.08943981 -0.013823487 -0.20807017
000020 85 2b 99 bc cf 2b 32 be 26 6d c9 bd 51 fb 10 3d
       -0.01869751 -0.17399524 -0.098352715 0.035395924
000030 db 29 07 3e 81 3c ca bd 44 b4 f7 3d bd 72 03 3e
       0.1319956 -0.098748215 0.1209493 0.12836738
000040 b6 6e 0c 3e 58 46 52 be 03 34 3c be 0c 6e 7e bd
       0.13714108 -0.20534647 -0.18379216 -0.062116668
000050 5a eb f7 bd 0f c9 1e 3e ff 5a 13 3e a8 77 5e be
       -0.121054366 0.15506385 0.14390181 -0.21725333
000060 94 d2 37 be 04 fd 7c bc 3d ca 29 3e 69 6b 15 3e
       -0.17951423 -0.015441183 0.16581054 0.14591755
000070 a6 39 43 bd bb 43 65 be 37 f2 07 be 2b c1 12 3e
       -0.0476624 -0.22389118 -0.13275991 0.143315
000080 c6 8d 85 3d 81 1c eb bc 97 77 ed 3d 92 b2 d4 bd
       0.06521182 -0.028700115 0.115950756 -0.10385622
000090 fe be 9a bb fc 1d 55 be ef 4d 8d bd f6 07 23 3d
       -0.004722475 -0.2081222 -0.0689963 0.039802514
0000a0 46 57 29 3e ef 99 ee 3d 7c 34 75 bc e4 fc 69 3e
       0.16537198 0.11650454 -0.0149661265 0.22850376
0000b0 fb b0 73 bd c0 3f e1 bd 85 58 cd 3d 35 0b 24 bd
       -0.059494954 -0.109984875 0.100266494 -0.04004975
0000c0 1f c2 af bd ab 60 9c 3c 18 ae f7 bd d9 f4 15 3e
       -0.085819475 0.019089064 -0.120937526 0.14644183
0000d0 81 91 42 3e e0 56 0a be 77 b2 36 be 89 7a fb bd
       0.19000818 -0.13509703 -0.17841516 -0.12279231
0000e0 c5 96 22 be d1 42 02 3d 5f 22 32 3e 19 41 2c be
       -0.15877827 0.031802002 0.17395924 -0.16821708
0000f0 76 75 e5 3d 61 8f 4b 3e f9 18 15 be b5 50 92 3c
       0.112040445 0.19878913 -0.14560308 0.01786075

net.1.weight f4 [64]
000000 bd b1 97 3f 7b 76 ac 3f d0 61 89 3f df 51 b5 3f
       1.1851116 1.3473657 1.0732975 1.416561
000010 7a e4 9b 3f a0 22 80 3f 1c 35 6e 3f 63 05 c3 3f
       1.21791 1.0010567 0.9304979 1.5236019
000020 7b 63 59 3f a7 d9 ba 3f 7d be b2 3f 90 37 60 3f
       0.8491742 1.4597672 1.3964382 0.8758478
000030 c0 1b ae 3f 3e c2 a4 3f 95 d3 c1 3f 16 6c 96 3f
       1.3602219 1.2871778 1.5142695 1.1751735
000040 a8 81 e2 3f d7 3d b5 3f 84 70 d6 3f 0e 97 67 3f
       1.7695818 1.4159497 1.6753087 0.90464866
000050 3a b3 8e 3f a7 04 88 3f 33 3c b9 3f 60 85 68 3f
       1.1148446 1.062642 1.4471496 0.90828514
000060 15 d9 8b 3f 2e e2 93 3f c0 b5 ab 3f 78 a9 ea 3f
       1.0925623 1.15534 1.3414841 1.8332968
000070 03 47 47 3f 08 34 69 3f 7c 00 89 3f 1c d9 ac 3f
       0.7784273 0.9109502 1.0703273 1.3503757
000080 ce ec 81 3f f8 84 92 3f a5 09 b3 3f b2 6f 8c 3f
       1.0150392 1.1446829 1.3987318 1.0971587
000090 37 d2 48 3f 01 0e b3 3f bc 8c 97 3f a3 ab 53 3f
       0.7844576 1.3988649 1.1839824 0.8268377
0000a0 74 3b b7 3f da 6a a1 3f 19 05 75 3f 7f d6 9f 3f
       1.4315019 1.2610734 0.95710903 1.2487334
0000b0 aa 75 96 3f 12 b7 b2 3f 89 34 a0 3f 0e 3d e9 3e
       1.1754658 1.3962119 1.2516032 0.45554394
0000c0 b7 66 8c 3f 1c d9 82 3f 04 61 92 3f 08 f9 98 3f
       1.0968846 1.0222507 1.1435857 1.1950998
0000d0 31 4c 78 3f df 71 94 3f 0c d6 c7 3f 36 5a 8c 3f
       0.9699126 1.1597251 1.5612197 1.096503
0000e0 77 3a 93 3f 87 67 64 3f ca ba ad 3f af 08 ad 3f
       1.1502217 0.8922047 1.3572628 1.3518275
0000f0 14 c4 90 3f bf f7 b9 3f 95 54 b8 3f 9e 25 82 3f
       1.1309838 1.4528731 1.4400812 1.016773

net.1.bias f4 [64]
000000 99 b7 30 3e b1 d9 8d bd 6a 17 4e be ef 1d 49 be
       0.17257537 -0.06926287 -0.2012612 -0.19640325
000010 46 78 05 3e 0f 97 f2 3d 23 2a 8b bd 10 c5 4c be
       0.13034162 0.118452184 -0.06795146 -0.19997048
000020 43 b8 22 bb 73 bb 2d be 8a b6 01 be 28 a0 fb 3c
       -0.0024829067 -0.16966037 -0.1266729 0.030716017
000030 f5 7b 00 3e 9e c3 b5 bd b1 64 2c 3e 98 4b 0b 3e
       0.12547286 -0.08875202 0.16835286 0.13603055
000040 36 e6 0a 3e 59 38 42 be 7c 94 33 be d7 9e 4d bd
       0.13564381 -0.18966807 -0.17537111 -0.05020031
000050 c1 98 12 be 20 c1 2b 3e b5 dc 0c 3e dc 8b 8a be
       -0.14316083 0.1677289 0.13756068 -0.2705983
000060 a4 83 6d be aa 59 37 bd 46 01 25 3e 43 eb 0e 3e
       -0.23194748 -0.044763245 0.16113767 0.13956933
000070 02 76 6e bd a5 3b 8e be d4 be f0 bd 78 ad 0f 3e
       -0.05821801 -0.2777988 -0.117551476 0.14031017
000080 ee 7a 9c 3d fc a9 82 bd f6 92 23 3e 4a 2f d0 bd
       0.076406345 -0.06380078 0.1597403 -0.1016527
000090 63 41 29 3d 12 b5 33 be 52 af 8c bd 19 3f 97 3d
       0.041322123 -0.17549542 -0.06869377 0.07385082
0000a0 e9 7b 23 3e ff 01 e5 3d 7f bd 15 3c b0 72 7c 3e
       0.15965237 0.11182021 0.009139418 0.24653125
0000b0 f6 95 b3 bd 1b bb cf bd 05 9c 3a 3e 73 bb 1e bc
       -0.08768837 -0.101431094 0.18223579 -0.009688246
0000c0 df ef a6 bd ce 5a 4f 3d 34 8d 0b be d8 cc 10 3e
       -0.081512205 0.050623707 -0.13628083 0.14140642
0000d0 1b b6 59 3e 95 15 39 be 5c 3d 2e be b3 15 0a be
       0.21260874 -0.18074639 -0.17015594 -0.1348484
0000e0 9f 8d 28 be 24 3c 04 3d 10 41 31 3e 90 70 0f be
       -0.16460274 0.032283917 0.17309976 -0.14007783
0000f0 5c 06 c0 3d b1 a8 3b 3e 9f 91 14 be 7f 24 84 3d
       0.09376213 0.1832607 -0.14508675 0.064522736

net.3.weight f4 [64, 64]
000000 2c 41 11 3d 47 7c 86 3e e6 02 84 3e 20 4d d5 bb
       0.035462543 0.2626669 0.2578346 -0.006509438
000010 15 a7 bb 3d bd 83 62 bc a9 3d 81 bd e7 cb 3c be
       0.09162728 -0.013825354 -0.06310589 -0.18437158
000020 71 2f 9b be 17 77 ec 3d c2 6a 9a be 07 94 79 bd
       -0.30309632 0.11546152 -0.30159575 -0.060932186
000030 cf ee a2 bd 71 a5 2f be 21 1f 0b 3e e8 54 e0 bd
       -0.079557054 -0.17152955 0.13586093 -0.109536946
000040 c8 80 ca 3e 29 9c 0a 3e dd b7 43 be 97 ee fc 3d
       0.39551377 0.13536133 -0.19113107 0.12350195
000050 d0 d5 88 bd 59 e3 b3 bd 21 ce 9f 3d 95 b6 4c 3d
       -0.066814065 -0.087835975 0.07802988 0.04997881
000060 6f 3d 99 be 17 f8 75 3e 60 e3 c3 3d 23 c1 f7 3d
       -0.29929683 0.2402042 0.09564853 0.12097385
000070 17 7a 7b 3d 78 0c 8e bd 9a 1c 38 bd 43 f4 7e 3d
       0.06139573 -0.06935972 -0.04494915 0.062244665
000080 00 14 92 3d 0f f6 fd 3d 01 f5 22 be 63 50 ba bc
       0.07132721 0.124004476 -0.15913774 -0.02274341
000090 b8 96 82 bc 83 60 81 3d f4 02 48 be 90 66 ae bd
       -0.015941009 0.06317236 -0.19532377 -0.08515656
0000a0 5d 93 00 3d b1 d4 fd bc 23 dd 0e bd 5e cc 78 3d
       0.031390537 -0.030985208 -0.03487886 0.060741775
0000b0 e7 f3 69 be 6c b4 01 be 37 f9 ce 3d b8 22 c3 3b
       -0.22846948 -0.12666482 0.10106128 0.0059550665
0000c0 fa 5b aa 3d 45 21 3b be 26 b5 9e bd c9 6f 73 3e
       0.083183244 -0.1827441 -0.07749395 0.23773111
0000d0 6d 32 2e 3d 61 0f d2 bd 84 1c bc bc 80 b4 b4 bd
       0.04252856 -0.102568395 -0.022962816 -0.0882349
0000e0 98 e8 17 be 48 63 07 bd 98 b4 16 3e b8 ed c6 bd
       -0.14834821 -0.033053666 0.14717329 -0.0971331
0000f0 c3 29 90 be 7d f7 a2 bd e5 e1 04 3d 2a 11 56 bd
       -0.28156862 -0.07957361 0.032441992 -0.052262463
000100 b3 fd eb 3d 2f 40 58 3d 30 6e 45 3e f1 d8 1c 3f
       0.11522999 0.052795585 0.19280314 0.61268526
000110 1d 22 f0 be bc b5 49 be 94 6a 9a bc 7e e8 31 3f
       -0.46901026 -0.19698232 -0.018849649 0.6949538
000120 8a 46 28 be 02 b1 81 3f 77 16 c3 be d6 b6 23 be
       -0.16433159 1.0132143 -0.38103077 -0.15987715
000130 87 1d 32 bf 04 dd d4 3e d6 b1 c2 bd 47 e0 05 bf
       -0.69576305 0.41574872 -0.09506576 -0.52295345
000140 de 08 87 bf 50 d7 0c 3f aa dd 69 3f ce ad 4f 3e
       -1.0549581 0.5501604 0.9135386 0.20281145
000150 3f 05 27 3f a7 45 ea bd c4 79 45 bf 3d 3d d0 3c
       0.6524238 -0.114390664 -0.77138925 0.025419826
000160 de ba 25 bd 81 ee 19 3d 91 80 2d bf ac e6 69 bf
       -0.040461414 0.03758097 -0.677743 -0.913676
000170 1c ab fb 3d 0d 48 47 bb c5 00 c4 3e 66 52 18 bf
       0.12288496 -0.0030407936 0.38281837 -0.5950073
000180 a5 56 af be e2 79 0a 3e 6d 13 a3 3d e7 f9 d8 3e
       -0.34245792 0.13523057 0.079626895 0.4237816
000190 dc f9 8a 3d 90 89 0e 3f 5f 6f c8 3e 17 1e ec be
       0.06785938 0.55678654 0.3914747 -0.46116707
0001a0 31 bf 43 bf 54 4a 0e bf 38 6b 16 3e a3 28 fc be
       -0.7646361 -0.55582166 0.14689338 -0.49249753
0001b0 3f b6 be 3d 64 9a 28 3f c4 f0 99 3e 35 2f 97 3d
       0.093121044 0.6586058 0.30066502 0.07382051
0001c0 28 f3 07 3f b8 9e 74 be 57 04 2f 3f a5 71 25 bf
       0.531054 -0.23888671 0.68366 -0.6462653
0001d0 2f d3 b2 be 1f a3 c0 be ce 13 26 3f eb f0 1a 3f
       -0.34926745 -0.37624452 0.6487397 0.6052386
0001e0 64 2e e8 3e 12 f7 f4 bd 42 99 1c bf 4f 96 1b 3f
       0.45347893 -0.119611874 -0.6117135 0.6077623
0001f0 41 17 a2 be 96 79 03 bf 60 ed 50 3f 22 0e a9 be
       -0.31658366 -0.513574 0.81612206 -0.33018595
000200 31 1c 12 3e 49 bb 1a bd 0f 9f 9c 3a 35 a9 86 be
       0.14268567 -0.037776265 0.0011949259 -0.2630097
000210 5b 84 51 bd fc 52 2e ba 4e ca 96 ba 1f c7 25 3e
       -0.051151615 -0.0006649939 -0.0011504383 0.1618924
000220 ed c2 9b be 4a c5 08 be d0 84 01 3e 4f b5 78 be
       -0.30422154 -0.1335651 0.1264832 -0.24287914
000230 51 bb 09 3e 73 3c a2 3d 51 a1 e4 3e ac 57 fc bd
       0.13450362 0.07921686 0.44654325 -0.123214096
000240 ce 4f 71 be b7 e8 3f 3d 17 fc 84 bc c8 46 95 3d
       -0.235656 0.046852794 -0.016233487 0.07288891
000250 a7 96 d7 bc 9c 71 c8 bc 9c f8 c1 3d 97 13 d2 3e
       -0.026316954 -0.024468236 0.094712466 0.4103057
000260 da fb 1d be b6 b0 60 be 7f 97 21 bd 2a d2 66 3e
       -0.15428105 -0.2194241 -0.03945112 0.22541109
000270 73 e7 f1 bc 61 08 2c 3e 52 9d c7 3d 82 6d 36 3d
       -0.029529309 0.16800071 0.09746803 0.04453803
000280 1b 65 b3 be eb 08 86 be 1f 09 2c be 4c 23 62 3e
       -0.35038075 -0.2617868 -0.16800354 0.22083777
000290 9b a0 c1 be 41 43 dd 3d 55 06 16 be 69 30 62 be
       -0.37817845 0.10803843 -0.14650853 -0.2208878
0002a0 07 40 5c 3e b0 32 30 be 59 3d ba bd 55 0a a3 3d
       0.215088 -0.17206836 -0.090937324 0.07960955
0002b0 40 cb b9 bd 6a d9 ef 3d 5b 5d 50 3e 7e 90 7c be
       -0.0907197 0.1171139 0.20348112 -0.24664494
0002c0 8c 40 e9 3d 40 e2 18 be 0e 08 a2 3d a6 e2 7f be
       0.113892645 -0.14930058 0.079116926 -0.24988803
0002d0 65 ec 9e bd 47 f6 d9 3d 14 e9 93 bd 7e 3c 70 bd
       -0.077599324 0.10642677 -0.072221905 -0.05865144
0002e0 bb 0d b3 3e e2 2a c1 bd 19 be 94 be 66 00 4f 3e
       0.34971413 -0.09432007 -0.29051283 0.20214996
0002f0 98 a6 16 be b8 23 be be 8e 71 a4 be c6 0a e1 bc
       -0.14711988 -0.37136626 -0.32117885 -0.027470957
000300 8f 8e 34 3e 92 47 84 be 52 1b 21 be f1 6a 99 bd
       0.17632507 -0.25835854 -0.15733078 -0.074911006
000310 78 3e c0 bd 54 6d 9d 3e 98 b5 ec bd b8 5b 10 3e
       -0.09386915 0.30747473 -0.11558074 0.14097488
000320 c8 4d 4f 3d b4 3d 81 bd 8c 4e 72 be 7d 2e 63 be
       0.050611287 -0.06310597 -0.23662776 -0.22185703
000330 eb 62 a4 bb 11 59 44 3d d4 c4 e4 3e fd 7a f6 3d
       -0.0050166748 0.047936503 0.44681418 0.12035177
000340 c2 b3 1a 3c 4b c6 c5 3a 03 47 1f 3e 56 d1 da bd
       0.009442272 0.0015089003 0.15554433 -0.10684459
000350 ce b7 7a bd 33 86 d8 3d 9b 25 c6 3d 63 87 bc be
       -0.061210446 0.105724715 0.096751414 -0.36822042
000360 b0 3d 0c bf 04 97 c8 bd 6a ad 8d 3d c3 41 ee 3c
       -0.5478163 -0.09794429 0.06917842 0.029084092
000370 04 c8 2e be 87 e1 ad be d7 58 fa bc 73 64 99 bd
       -0.17068487 -0.33961126 -0.03055994 -0.07489862
000380 7f 9d 24 3e 5b ef 42 bc 7c cd 9a 3e c2 a3 63 be
       0.16075705 -0.011897887 0.30234897 -0.22230437
000390 41 e4 8a 3e 81 96 f1 3d e0 71 8b be 5c 74 99 3e
       0.2712727 0.117962845 -0.27235317 0.29971588
0003a0 0d 2e 4e 3d 97 18 3a 3e 2d 2d ef bc a0 21 d7 3e
       0.050336886 0.18173443 -0.029196346 0.4201784
0003b0 86 c9 6d bc 5c 6d 26 3e f9 0c e8 3e 53 ae 3a 3e
       -0.014513379 0.16252655 0.45322397 0.18230562
0003c0 e9 63 be be 0b ba a1 3d 80 70 9b bd d4 aa 05 3d
       -0.371856 0.07896813 -0.07589817 0.032633618
0003d0 0d 4a 0a 3e 24 83 8b be 3f 6a 3d 3e b6 c1 dc 3d
       0.1350481 -0.2724849 0.18497561 0.10779135
0003e0 fd c0 ac bd 53 3c 32 3e 0a 27 96 3d 29 f5 f3 3d
       -0.08435247 0.17405824 0.07331665 0.11911995
0003f0 69 5f 26 bd ca 70 10 3e 1f c0 f0 3c 0d 7d 29 3d
       -0.040618334 0.14105526 0.029388485 0.041379023

net.3.bias f4 [64]
000000 77 88 9a 3d 5e 96 d8 3c ee eb b2 bc f8 c2 fb 3e
       0.0754556 0.026438888 -0.021841016 0.49172187
000010 4f ee a3 3d ac 2b 48 3d 05 82 b2 3d 2a 27 be bd
       0.08004438 0.048869774 0.087162055 -0.09284814
000020 00 ce 99 bc 0e c1 7b be 86 d2 cd 3e e2 eb f0 3d
       -0.018774986 -0.24585363 0.4019968 0.11763741
000030 00 07 a7 bd a7 80 c0 3e 72 93 8d 3d bc 9e 2f be
       -0.08155632 0.37598154 0.069128886 -0.17150396
000040 d2 1f 8f be 15 0b 31 3b ad bb aa 3d b3 8b a1 3e
       -0.27953964 0.0027014662 0.083365776 0.31551895
000050 7b 69 9d bd e9 09 13 be 0d 27 17 bd f7 11 1b be
       -0.076861344 -0.14359249 -0.036902476 -0.15143572
000060 c1 86 88 bd 95 55 99 3d 5b fb e8 be af 5a 81 be
       -0.06666327 0.074870266 -0.4550427 -0.252645
000070 45 00 14 3f ed c1 a0 be 4e 18 13 be b6 b7 5e bd
       0.5781291 -0.31397954 -0.1436474 -0.05437442
000080 0d 8b 0d 3e e1 2f 5f 3e fb 29 d5 be 07 65 90 bd
       0.13822575 0.21795608 -0.4163359 -0.070505194
000090 f8 d2 93 3e 8e b4 dd bd 1d 3a 2b be 88 83 d8 3c
       0.28871894 -0.10825454 -0.16721387 0.026429906
0000a0 7a 00 9c be f7 93 9e bc bc 0f 6f bd b6 88 cc bd
       -0.30469114 -0.019357665 -0.058364615 -0.09987013
0000b0 e3 a0 75 bd c2 1b c3 3c a6 39 c1 bd 61 ac 03 be
       -0.059967887 0.023816947 -0.09434824 -0.12858726
0000c0 c0 f1 81 3d c5 4f cc 3e 3d 0b a3 3d 5e aa d1 bd
       0.06344938 0.3990461 0.07961128 -0.10237573
0000d0 1c 0c 31 bd a5 cb 83 be 2e 3e eb be 65 27 61 be
       -0.04322444 -0.25741306 -0.45945877 -0.21987684
0000e0 2a b5 28 3c bb a8 5f be ec 28 cb bd 1e 71 88 bd
       0.010297099 -0.2184171 -0.099199146 -0.066622004
0000f0 dc 0b 93 3d bb 05 c4 bd 70 84 8b 3e fc 8b a1 3e
       0.07179996 -0.095714055 0.2724948 0.31552112

net.4.weight f4 [64]
000000 c6 a2 5a 3f 65 78 c6 3f 6c 8d 09 3f 01 1f 50 3f
       0.8540462 1.5505491 0.5373142 0.8129731
000010 eb 1f 55 3f 24 89 ae 3f fd 55 b6 3d db 9e 40 3c
       0.8325183 1.3635602 0.0890312 0.011756624
000020 38 d0 a8 3f 24 77 e7 3e 50 23 22 3f 0a 30 37 3e
       1.3188543 0.45208085 0.6333513 0.17889419
000030 41 9d a9 bc e8 be 50 3f 67 d6 60 3e d2 76 3f 3f
       -0.020704867 0.815413 0.21956788 0.7479068
000040 6d c4 4a 3f 97 20 3f 3e 95 b7 ef 3e 88 6a db 3e
       0.7920597 0.18664776 0.4681975 0.42854714
000050 e2 b5 8b 3f 71 9a 45 3f dd af 01 3e c4 d3 60 3f
       1.0914881 0.77188784 0.12664743 0.8782313
000060 6c 1f 8c 3f 9c 12 22 3f ac 46 60 3f 53 2e 55 3f
       1.0947089 0.63309646 0.87607837 0.8327381
000070 7c 55 8a 3f 3d dc 22 3f 4b 7b 37 3f 4b fc 18 3f
       1.0807338 0.63617307 0.71672505 0.5975997
000080 e9 f2 dc 3d a0 06 5a 3f b9 c2 f0 3e 83 e6 8a 3f
       0.10788519 0.8516636 0.47023562 1.0851597
000090 24 d9 38 3f b4 a5 32 3f 58 5d 3d bd d4 70 e7 3e
       0.7220633 0.6978409 -0.046231598 0.4520327
0000a0 4b 88 07 3f 6c e3 b2 3f 20 86 cc 3e 69 7a 57 3f
       0.5294234 1.3975654 0.3994608 0.8417116
0000b0 2f ed 99 3f b8 35 2d 3e da 20 33 3f fd df 36 3f
       1.2025508 0.16915023 0.69972 0.7143553
0000c0 30 19 a5 3e de d2 12 3f 09 56 56 3f 26 d6 d4 3f
       0.3224578 0.5735301 0.8372503 1.6627853
0000d0 60 53 68 3e 13 b9 4d 3f 87 cc 57 3f ac 42 21 3f
       0.22688055 0.80360526 0.8429646 0.6299236
0000e0 e2 ca 1a 3f a2 e4 e5 3e a0 ab 86 3f 7c ad 58 3f
       0.60465825 0.44900995 1.0521126 0.84639716
0000f0 e2 d0 0f 3e 08 9e 2f 3f bc b5 70 3f 83 a2 98 3e
       0.14044526 0.6860051 0.94027305 0.29811487

net.4.bias f4 [64]
000000 74 64 1d 3e 53 e2 49 3c 17 9c 47 3e 97 43 1b 3f
       0.15370351 0.012322026 0.19493137 0.6065001
000010 c8 e4 20 3e 4d 7a 9b 3d 0c 52 0c 3f 8f 01 87 3e
       0.15712273 0.075916864 0.54812694 0.26368377
000020 1f 67 9d bb 6d 42 86 be 87 68 02 3f 42 9e d1 3e
       -0.0048035528 -0.26222554 0.50940746 0.40941054
000030 e2 6a 0d 3d 34 49 e5 3e 99 c1 86 3e 7c 28 a1 3d
       0.03452576 0.44782412 0.26319578 0.0786905
000040 da 1f 89 be 83 41 4b 3e db 18 7c 3e 89 00 eb 3e
       -0.26782113 0.1984921 0.24618857 0.45898846
000050 a3 f8 81 bd ff 88 c0 bd f7 03 a1 3e d6 e3 d6 3c
       -0.06346252 -0.0940113 0.31448337 0.026231688
000060 82 e3 53 bd d0 fc 35 3e 4b 6a f8 be c3 0c b0 3d
       -0.05173064 0.17772222 -0.48518595 0.08596184
000070 a5 96 25 3f c4 c6 ab be aa 88 77 bd 76 7d ed 3d
       0.6468299 -0.33550084 -0.060433067 0.115961954
000080 26 05 cd 3e 42 a5 9b 3e c1 c4 b0 3d d8 e7 69 bd
       0.4004299 0.3039952 0.08631278 -0.05710587
000090 44 48 ba 3e 7d 2d 4f bd 22 32 cb bd d4 19 49 3e
       0.3638326 -0.05058049 -0.099216715 0.19638759
0000a0 b7 49 ca be 41 4c 75 3c 2a 4c 03 3e 4b e9 af 3c
       -0.39509365 0.014971794 0.12822023 0.021473547
0000b0 09 f6 40 bd a4 4a 55 3e db c7 f7 3d 2b 20 9b bd
       -0.047109637 0.20829254 0.12098666 -0.07574495
0000c0 f5 f3 44 3e ef b3 08 3f 3b 3d 26 3e 55 b3 c6 bd
       0.19233687 0.53399557 0.16234295 -0.097021736
0000d0 22 90 61 3e fb 05 75 be 3c f7 fa be 43 fe c7 3c
       0.22027639 -0.23928063 -0.4901675 0.024413234
0000e0 71 6a 01 3e 42 84 5e 3d ac 94 a5 bd 94 b8 0c 3e
       0.1263826 0.05432535 -0.080849975 0.13742286
0000f0 bd 1e 8b 3e 6c 29 83 bb b6 d8 cb 3e e9 79 0e 3f
       0.2717189 -0.0040027406 0.39813775 0.5565477

out_mean.weight f4 [1, 64]
000000 1e da 22 be aa 59 05 3f b3 4d 0a 3d 6f b5 29 3e
       -0.15903518 0.5208994 0.033765506 0.16573118
000010 b5 cb 1d be 4f 0c b4 be fe 69 32 3e bd cb 89 3d
       -0.1540974 -0.3516564 0.17423245 0.06728313
000020 57 ea ca be 5d dc 76 3d b5 a3 9e 3d 4e 6f dc 3d
       -0.39631912 0.06026875 0.077460684 0.10763417
000030 dc 26 ba bc 55 40 ac bd 00 70 e8 3b 81 de cf 3c
       -0.022723608 -0.08410708 0.0070934296 0.025374653
000040 25 f5 88 3e d7 40 19 3d 13 69 67 bd f6 0b 41 3e
       0.2674953 0.03741535 -0.05649669 0.18852219
000050 c4 24 9a 3e c0 8b c7 3d dc bf ea 3c 41 58 56 3d
       0.30106175 0.09743452 0.028655939 0.05233026
000060 3c 86 94 3e 09 ef ff bd b7 08 f5 3d 5f d7 54 3d
       0.29008663 -0.12496764 0.11964553 0.051963206
000070 f5 67 c0 3e 80 50 a0 3d 39 08 86 3d 29 8c 33 bc
       0.37579313 0.07827854 0.06544537 -0.01095871
000080 81 55 16 3e df bb ed bd 68 3d 64 3d 6c f1 92 3e
       0.14681055 -0.11608099 0.055722624 0.28699815
000090 64 4e 6c 3e 14 dc d3 3d 71 3c 7a 3c b1 98 82 bc
       0.23076779 0.10344711 0.015273199 -0.01594195
0000a0 cd 05 a6 be e5 3f 36 3f 0c 3b 49 bc 54 4b 58 3d
       -0.324263 0.71191245 -0.012282144 0.052806213
0000b0 88 b0 a9 3e be 4c 33 3d 5b a5 8a 39 3f 19 0e 3e
       0.33142495 0.04377436 0.0002644461 0.13876818
0000c0 c1 d8 a7 bd 4c 6c 11 3e 08 44 1a be 7f 0d 37 bf
       -0.081956394 0.14201468 -0.15065014 -0.7150497
0000d0 00 84 3b 3d 0c 45 7f 3e 9d 20 13 3e 55 66 be 3c
       0.045780182 0.24928683 0.1436791 0.023242155
0000e0 94 0a a7 bd 3d 41 f8 3c 73 bb 89 3e 65 ae ee 3c
       -0.081563145 0.030304546 0.26900825 0.029135892
0000f0 62 07 46 bc 24 47 4e 3d 63 4a 95 3d c2 d3 3b 3e
       -0.012086721 0.050360814 0.07289579 0.18342498

out_value.weight f4 [1, 64]
000000 a7 47 16 3e e0 b2 0b 3a 29 0d 2f 3e 4e 00 19 3f
       0.1467577 0.00053290837 0.17094864 0.5976609
000010 10 63 13 3e 50 77 9e bd 12 33 08 3f 2c f9 85 3e
       0.14393258 -0.07737601 0.5320293 0.26166666
000020 be 11 23 3d 8a 35 8e be 27 09 00 3f 75 de c6 3e
       0.039811842 -0.27775222 0.50013965 0.38841596
000030 3d 4c 26 3d 3c 23 ed 3e fc cf 7f 3e a8 0f 26 3d
       0.04060005 0.46315944 0.24981683 0.040542275
000040 07 20 a1 be 67 a7 44 3e 5e 3d 5e 3e f2 47 f4 3e
       -0.31469747 0.19204484 0.21703097 0.4771114
000050 b2 77 7a bd 61 8a e1 bd 54 ba 95 3e b1 f1 07 3d
       -0.061149307 -0.11012722 0.2924372 0.03318948
000060 8b 39 6c bd 53 69 26 3e 77 9e 11 bf 39 71 37 3d
       -0.057672065 0.16251116 -0.56882423 0.044785712
000070 43 d8 3b 3f fc 9d b8 be 42 ff 8d bd 57 26 d8 3d
       0.73376864 -0.36058033 -0.06933452 0.10554188
000080 07 79 ca 3e 34 71 9f 3e 10 9a 65 3d 44 ab 66 bd
       0.39545462 0.31141055 0.05605513 -0.056315675
000090 4a 59 c5 3e 88 01 33 bd 7a 78 e1 bd ab 68 33 3e
       0.38544685 -0.043702632 -0.11009307 0.17520396
0000a0 33 06 ed be d4 ab 06 3e a4 43 f9 3d 75 c1 ba 3c
       -0.46293792 0.13151485 0.121711046 0.022797326
0000b0 01 32 26 bd 82 b0 53 3e 85 7d b4 3d bc ca ab bd
       -0.04057503 0.20672801 0.088130035 -0.08388278
0000c0 42 fe 32 3e 6a 83 02 3f 9e f7 20 3e 79 d3 36 3d
       0.17479804 0.5098177 0.15719458 0.04463527
0000d0 06 91 4a 3e 5d 36 8a be a7 53 1a bf 23 a2 98 3c
       0.19781885 -0.269946 -0.60283893 0.018632
0000e0 57 e6 05 3e 34 94 d5 3c d5 2e a0 bd a3 a0 20 3e
       0.13076149 0.026071645 -0.078214325 0.15686278
0000f0 d7 8b 7f 3e 9b ef fd 3b 03 d7 c4 3e 6d 84 07 3f
       0.24955688 0.0077495105 0.3844529 0.5293644
