ppo_algorithm/data/Qube-v0_2019-03-15_16-23-17/checkpoint/save_file.pt (torch_old, 22772 bytes, 10 tensors)

net.0.weight f4 [64, 6]
000000 a7 90 e6 3d 22 98 e3 3a 57 88 f5 3b 0d cd 4d be
       0.11258059 0.0017364065 0.0074930596 -0.20097752
000010 f5 ba 15 3e e8 06 29 be b5 d9 f7 bd f0 8c 78 3b
       0.146221 -0.16506541 -0.12102071 0.0037925802
000020 ad 5e c1 be a7 b8 8d bd e0 58 95 be 59 65 de 3d
       -0.37767544 -0.06919985 -0.2916937 0.10859174
000030 1f ab a4 be 67 ba 59 3e d7 48 4b 3a 12 93 a5 3d
       -0.32161805 0.21262513 0.00077546894 0.08084692
000040 1e 68 b5 be d8 51 37 be 57 df ae bd fd 34 b2 3e
       -0.35430998 -0.17902315 -0.085386924 0.34806052
000050 13 df 56 3e 22 3e d3 3d c6 90 e8 3c 58 66 14 3b
       0.20983534 0.10314585 0.028389346 0.002264401
000060 9b d5 60 bd 77 52 23 be c3 19 4f bd 21 6f ef 3d
       -0.05489121 -0.15949427 -0.050561678 0.11691118
000070 6b b7 37 3e 10 10 44 3d e6 e5 96 3c 46 e8 13 3e
       0.17941062 0.04786688 0.018420171 0.14444074
000080 f6 ed 31 bd 87 20 af 3e 88 da dd bd bc 7e 3f 3d
       -0.043439828 0.34204504 -0.10832697 0.046751723
000090 e4 19 26 3d c5 65 0b 3e 76 30 34 be 78 56 90 bd
       0.040552035 0.13613041 -0.17596611 -0.070477426
0000a0 af b8 24 be bd f4 ab be d8 09 83 3e e0 90 ea 3d
       -0.16086076 -0.33585158 0.25593448 0.11453414
0000b0 18 08 58 be 2a 76 be bc 81 cf b3 3c cc 77 c1 bd
       -0.21096838 -0.023249704 0.021949532 -0.094466776
0000c0 74 fe d5 3d 9f 06 63 3d 49 ed ac 3b 71 2d 31 3a
       0.10448924 0.055426236 0.00527731 0.00067587855
0000d0 84 ce 83 3e ad c6 15 3e 99 0e bf 3c a6 cd b2 bd
       0.25743496 0.1462657 0.02332239 -0.087306306
0000e0 7e 92 c3 3d 92 f7 2c bd db 66 c1 bd 79 a6 a5 be
       0.095494255 -0.04222829 -0.09443446 -0.3235357
0000f0 ff 3d 34 be 05 7f 85 bc 7c 2b 98 bc 47 ce 93 3d
       -0.17601775 -0.01629592 -0.018575422 0.07217079
000100 df 7f bc 3d cc 64 b9 3d 57 e2 ff 3c 62 ca 82 3e
       0.09204077 0.090524286 0.031235857 0.2554503
000110 13 7e d9 3d 90 fe 49 3e bd 7d 7e 3d 8c 2b 97 bd
       0.1061975 0.19726014 0.062131632 -0.07381353
000120 86 8d c5 3d 3c 0d 59 bc c1 27 19 be eb bb 1f bd
       0.09646134 -0.013247784 -0.14956571 -0.038997572
000130 cb 9e 25 3d 94 c4 d2 bc 11 98 b5 be 6e da ae bc
       0.04043464 -0.025728501 -0.3546758 -0.02134439
000140 7d 6c 81 bc 86 37 23 3d 77 f1 0e 3e 33 5f d0 bc
       -0.015798802 0.039847873 0.13959299 -0.02543602
000150 1d e2 12 3d 68 cc a3 bd b7 9c 9c bd b8 c9 df bc
       0.03586017 -0.07997972 -0.076470785 -0.027317867
000160 2c 91 cb 3d 26 02 66 3c 38 8f 87 be 9c 30 a2 be
       0.09939799 0.014038598 -0.26476455 -0.3167771
000170 6a 76 12 3e 71 e1 39 be bd 3b 5c 3d bd 7d 2e bc
       0.14302984 -0.18152405 0.05376791 -0.0106500955
000180 e1 b0 93 3e 99 1b 97 be 39 75 3e 3d 2c dc f7 3e
       0.28845885 -0.29513243 0.04649851 0.48410165
000190 24 d7 02 be 0c 4c e6 3d 5a 23 fb 3c 28 1f e8 3d
       -0.12777382 0.112449735 0.030656505 0.113340676
0001a0 35 22 58 3e 76 84 bc bc 6b 20 94 3d 79 7b 32 3d
       0.21106799 -0.023012381 0.07232746 0.043574784
0001b0 59 d7 68 3e 73 b7 53 bc ee 3f 21 bd 73 c5 b1 bc
       0.22738399 -0.012922156 -0.03936761 -0.021700596
0001c0 d7 96 43 be 67 45 79 bd 36 cc e9 bd 2e 0f 38 be
       -0.1910051 -0.060857203 -0.11415903 -0.1797454
0001d0 e2 66 19 3e 52 0e e1 3d 44 63 90 3d 16 c4 cb bd
       0.14980653 0.109890595 0.070501834 -0.0994951
0001e0 35 a6 98 3d b7 59 c3 bd 9e 02 2a be 69 1d 58 bd
       0.074535765 -0.09538596 -0.16602561 -0.052762423
0001f0 4c a7 92 3d 4e 6f bc bd a6 1e 38 3e a1 60 a5 3d
       0.071608156 -0.09200917 0.17980441 0.08075071
000200 f5 0b 1c 3e 42 96 ef bd 8c e6 d5 bd aa 16 42 3d
       0.15238936 -0.11698581 -0.10444364 0.047384895
000210 9e d7 48 3e 3e e0 7d 3e 9b 93 ca 3d bd 96 d2 3d
       0.19613501 0.24792573 0.09891435 0.10282657
000220 5f ea db bd be 8b 3c 3c ca 52 95 bd ec b3 1a be
       -0.10738062 0.0115079265 -0.072911814 -0.15107697
000230 42 a3 26 bd 63 6c 4c 3c 41 cd 9f bc de 99 03 bd
       -0.04068304 0.012477013 -0.019507052 -0.03212916
000240 00 c4 b3 3c de 7e 07 3a bc f7 c6 bd f0 8c b5 bc
       0.021944046 0.0005168746 -0.0971522 -0.02216193
000250 71 e3 d8 3d 27 0b 34 3d 67 45 1c 3e a9 38 ae 3d
       0.10590256 0.04395595 0.1526085 0.08506901
000260 bb b0 f9 bc c9 5e 2b bd 10 4d 87 3b 6f 3e 28 bd
       -0.03047978 -0.04183844 0.0041290596 -0.041075166
000270 16 09 3d 3e 5a 24 c8 bd f9 82 71 3c f3 bc e4 bd
       0.18460497 -0.097725585 0.014740699 -0.11168852
000280 11 a1 16 bd f8 3f 93 bc f6 72 45 3d 85 7c ed 39
       -0.0367747 -0.017974839 0.04820534 0.00045296937
000290 b0 4d c3 be 2f e9 ae 3d e3 b7 8e 3e b9 21 11 be
       -0.38145208 0.0854057 0.2787467 -0.1417302
0002a0 9a 76 57 bd 56 2e a9 3c 54 d3 27 3e 4d d4 11 3e
       -0.05260334 0.020651978 0.16389209 0.14241143
0002b0 f1 fa 05 be c5 5b a4 3e 9f 54 a8 bd da 99 61 3c
       -0.13084008 0.32101265 -0.08219265 0.013769591
0002c0 a3 f3 d1 be e3 17 07 3d 08 6c 05 be 6a a7 20 be
       -0.41006193 0.032981765 -0.13029492 -0.15688863
0002d0 e4 88 41 be 41 6a 0a 3e d7 d8 4f 3e 50 f0 c8 3e
       -0.18899876 0.13517095 0.20297562 0.39245844
0002e0 74 06 aa 3e 41 77 f0 bd 9a 11 4c bd b6 d8 d6 3e
       0.33208048 -0.11741496 -0.049821474 0.41962212
0002f0 d7 01 4e 3e 5f 40 24 be f7 13 9b 3d b6 08 e9 bd
       0.2011789 -0.1604018 0.07572167 -0.113786146
000300 99 c5 28 bc ac fb 6f 3d 11 e8 2d be 53 08 71 3d
       -0.010301017 0.058589622 -0.16983058 0.05884583
000310 1f b2 be be fe 54 4a be d5 db 40 3e 1d 80 0c be
       -0.3724527 -0.19758984 0.1883386 -0.13720746
000320 a9 56 e3 be 64 06 e9 bd 75 b5 92 bd 51 3f 84 3d
       -0.44402054 -0.11378172 -0.071635164 0.06457389
000330 79 dc a8 3d d5 ba bd be 1b f4 22 3e a8 dd 93 be
       0.08245177 -0.37056604 0.15913431 -0.28880048
000340 e7 5d 09 bd ca 8c 0f be d6 e6 96 bd 21 90 04 be
       -0.033536818 -0.1401855 -0.07368247 -0.12945606
000350 77 d7 d0 3c 5c 2b 5d 3e a9 ec 4d be 93 b8 5d bc
       0.025493367 0.21598572 -0.2010981 -0.013532775
000360 20 85 06 be f3 5d 32 3e b6 5b 02 bd 87 91 d1 bc
       -0.1313672 0.17418651 -0.031825744 -0.025582088
000370 b6 96 eb 3d 05 2f 7d be 71 c4 fa 3d 44 5d 04 3e
       0.11503355 -0.24724968 0.122444995 0.12926203
000380 9e f0 57 be 1b 84 33 bd 2e 9d 36 bc 7d 82 b5 3c
       -0.21087882 -0.043827157 -0.011145873 0.022156948
000390 00 73 4e bd 5d a2 7b 3e 8f 59 a7 be 82 1b 44 3e
       -0.05040264 0.24573655 -0.32685515 0.19151118
0003a0 de f5 85 be a8 95 99 bd d2 a0 77 be 6c 25 ec bd
       -0.26164144 -0.07499248 -0.24182442 -0.11530575
0003b0 d2 dc ab bb 2f 8e e1 bd ce 75 12 3d 7a fd 69 bc
       -0.0052448297 -0.110134475 0.03575688 -0.014281625
0003c0 88 9e 56 be df 7f ab be aa 4d ab be 42 7d 87 bd
       -0.20958912 -0.33495995 -0.3345769 -0.06615688
0003d0 f0 64 b3 3d 7e cf 87 bd 57 52 bb bd 66 25 12 be
       0.08759487 -0.06631373 -0.091465645 -0.14272079
0003e0 34 ee c4 bd 76 15 5c 3e cd 59 8a be 08 70 29 bd
       -0.09615746 0.21492562 -0.27021638 -0.041366607
0003f0 15 b3 c0 3e fe 9f ad 3e f0 5b 72 3c 3d 6e 23 3e
       0.3763663 0.33911127 0.014792427 0.15960021

net.0.bias f4 [64]
000000 00 00 00 00 00 00 00 00 00 00 00 00 00 00 00 00
       0.0 0.0 0.0 0.0
000010 00 00 00 00 00 00 00 00 00 00 00 00 00 00 00 00
       0.0 0.0 0.0 0.0
000020 00 00 00 00 00 00 00 00 00 00 00 00 00 00 00 00
       0.0 0.0 0.0 0.0
000030 00 00 00 00 00 00 00 00 00 00 00 00 00 00 00 00
       0.0 0.0 0.0 0.0
000040 00 00 00 00 00 00 00 00 00 00 00 00 00 00 00 00
       0.0 0.0 0.0 0.0
000050 00 00 00 00 00 00 00 00 00 00 00 00 00 00 00 00
       0.0 0.0 0.0 0.0
000060 00 00 00 00 00 00 00 00 00 00 00 00 00 00 00 00
       0.0 0.0 0.0 0.0
000070 00 00 00 00 00 00 00 00 00 00 00 00 00 00 00 00
       0.0 0.0 0.0 0.0
000080 00 00 00 00 00 00 00 00 00 00 00 00 00 00 00 00
       0.0 0.0 0.0 0.0
000090 00 00 00 00 00 00 00 00 00 00 00 00 00 00 00 00
       0.0 0.0 0.0 0.0
0000a0 00 00 00 00 00 00 00 00 00 00 00 00 00 00 00 00
       0.0 0.0 0.0 0.0
0000b0 00 00 00 00 00 00 00 00 00 00 00 00 00 00 00 00
       0.0 0.0 0.0 0.0
0000c0 00 00 00 00 00 00 00 00 00 00 00 00 00 00 00 00
       0.0 0.0 0.0 0.0
0000d0 00 00 00 00 00 00 00 00 00 00 00 00 00 00 00 00
       0.0 0.0 0.0 0.0
0000e0 00 00 00 00 00 00 00 00 00 00 00 00 00 00 00 00
       0.0 0.0 0.0 0.0
0000f0 00 00 00 00 00 00 00 00 00 00 00 00 00 00 00 00
       0.0 0.0 0.0 0.0

net.1.weight f4 [64]
000000 00 00 80 3f 00 00 80 3f 00 00 80 3f 00 00 80 3f
       1.0 1.0 1.0 1.0
000010 00 00 80 3f 00 00 80 3f 00 00 80 3f 00 00 80 3f
       1.0 1.0 1.0 1.0
000020 00 00 80 3f 00 00 80 3f 00 00 80 3f 00 00 80 3f
       1.0 1.0 1.0 1.0
000030 00 00 80 3f 00 00 80 3f 00 00 80 3f 00 00 80 3f
       1.0 1.0 1.0 1.0
000040 00 00 80 3f 00 00 80 3f 00 00 80 3f 00 00 80 3f
       1.0 1.0 1.0 1.0
000050 00 00 80 3f 00 00 80 3f 00 00 80 3f 00 00 80 3f
       1.0 1.0 1.0 1.0
000060 00 00 80 3f 00 00 80 3f 00 00 80 3f 00 00 80 3f
       1.0 1.0 1.0 1.0
000070 00 00 80 3f 00 00 80 3f 00 00 80 3f 00 00 80 3f
       1.0 1.0 1.0 1.0
000080 00 00 80 3f 00 00 80 3f 00 00 80 3f 00 00 80 3f
       1.0 1.0 1.0 1.0
000090 00 00 80 3f 00 00 80 3f 00 00 80 3f 00 00 80 3f
       1.0 1.0 1.0 1.0
0000a0 00 00 80 3f 00 00 80 3f 00 00 80 3f 00 00 80 3f
       1.0 1.0 1.0 1.0
0000b0 00 00 80 3f 00 00 80 3f 00 00 80 3f 00 00 80 3f
       1.0 1.0 1.0 1.0
0000c0 00 00 80 3f 00 00 80 3f 00 00 80 3f 00 00 80 3f
       1.0 1.0 1.0 1.0
0000d0 00 00 80 3f 00 00 80 3f 00 00 80 3f 00 00 80 3f
       1.0 1.0 1.0 1.0
0000e0 00 00 80 3f 00 00 80 3f 00 00 80 3f 00 00 80 3f
       1.0 1.0 1.0 1.0
0000f0 00 00 80 3f 00 00 80 3f 00 00 80 3f 00 00 80 3f
       1.0 1.0 1.0 1.0

net.1.bias f4 [64]
000000 00 00 00 00 00 00 00 00 00 00 00 00 00 00 00 00
       0.0 0.0 0.0 0.0
000010 00 00 00 00 00 00 00 00 00 00 00 00 00 00 00 00
       0.0 0.0 0.0 0.0
000020 00 00 00 00 00 00 00 00 00 00 00 00 00 00 00 00
       0.0 0.0 0.0 0.0
000030 00 00 00 00 00 00 00 00 00 00 00 00 00 00 00 00
       0.0 0.0 0.0 0.0
000040 00 00 00 00 00 00 00 00 00 00 00 00 00 00 00 00
       0.0 0.0 0.0 0.0
000050 00 00 00 00 00 00 00 00 00 00 00 00 00 00 00 00
       0.0 0.0 0.0 0.0
000060 00 00 00 00 00 00 00 00 00 00 00 00 00 00 00 00
       0.0 0.0 0.0 0.0
000070 00 00 00 00 00 00 00 00 00 00 00 00 00 00 00 00
       0.0 0.0 0.0 0.0
000080 00 00 00 00 00 00 00 00 00 00 00 00 00 00 00 00
       0.0 0.0 0.0 0.0
000090 00 00 00 00 00 00 00 00 00 00 00 00 00 00 00 00
       0.0 0.0 0.0 0.0
0000a0 00 00 00 00 00 00 00 00 00 00 00 00 00 00 00 00
       0.0 0.0 0.0 0.0
0000b0 00 00 00 00 00 00 00 00 00 00 00 00 00 00 00 00
       0.0 0.0 0.0 0.0
0000c0 00 00 00 00 00 00 00 00 00 00 00 00 00 00 00 00
       0.0 0.0 0.0 0.0
0000d0 00 00 00 00 00 00 00 00 00 00 00 00 00 00 00 00
       0.0 0.0 0.0 0.0
0000e0 00 00 00 00 00 00 00 00 00 00 00 00 00 00 00 00
       0.0 0.0 0.0 0.0
0000f0 00 00 00 00 00 00 00 00 00 00 00 00 00 00 00 00
       0.0 0.0 0.0 0.0

net.3.weight f4 [64, 64]
000000 cc 4b b9 3d 62 44 a9 be a1 ce 73 3d 86 0e b9 3d
       0.0904766 -0.33059984 0.05952323 0.09035973
000010 f8 c7 3d be 0a 58 a0 3b 6f 27 02 3e 13 79 1c 3e
       -0.18533313 0.0048933076 0.12710355 0.15280561
000020 ee c5 d2 bd 0b fa 37 3c 25 8a 0c 3d 6f cb 60 be
       -0.10291658 0.0112290485 0.034311432 -0.21952604
000030 a8 33 04 3d 1a 7c 22 be 9d 00 00 be 94 ed b2 3c
       0.032275826 -0.15867653 -0.12500234 0.021841802
000040 85 77 3c be 93 44 d9 3d ed 0b a1 3e 67 3d 51 3e
       -0.18404968 0.106087826 0.3145441 0.2043358
000050 66 d9 f1 3b 3c a4 66 bd 3b 65 cb 3c 25 9f 5b b9
       0.0073806522 -0.05630897 0.024828544 -0.00020944753
000060 8a 3e 38 3e de ed 7c 3d 18 f7 55 bc 49 a5 9d bd
       0.17992607 0.061750285 -0.0130594 -0.07697541
000070 a6 5a 93 3d 46 42 87 bd 85 c8 65 3d aa 47 7d 3e
       0.07195024 -0.066044375 0.056099433 0.24734369
000080 2d eb b9 3d 50 f8 1e bd 4a d7 b5 bd 00 82 8b 3d
       0.09078059 -0.038811028 -0.08878954 0.06811905
000090 70 28 a9 bd 5c 93 95 bd aa d1 c1 bd 1b 2c 4e 3e
       -0.08259666 -0.07303497 -0.09463818 0.20134012
0000a0 21 17 4e 3e c1 dc de bd 38 b2 03 3e ba 10 1d be
       0.2012601 -0.10881949 0.12860954 -0.15338412
0000b0 86 27 1b be 78 da 3a bd 7a f6 6a 3c 92 70 9c 3d
       -0.15151796 -0.045618504 0.014340991 0.076386586
0000c0 43 1c fa bd 19 83 83 bc a2 a6 24 be 46 29 37 bd
       -0.12212422 -0.016053723 -0.1607919 -0.044717096
0000d0 f1 22 8a 3d d4 71 03 be 01 ec 5f 3d 58 d0 3f be
       0.06744946 -0.1283639 0.05466843 -0.1873182
0000e0 19 64 5e 3e 74 3a 94 3d 76 4a 97 be 44 34 a3 bd
       0.21717872 0.072377115 -0.29548997 -0.07968953
0000f0 19 56 3c be 89 67 88 3d 13 6f 0c 3e 6e 54 8c 3d
       -0.18392219 0.06660373 0.13714246 0.06852041
000100 c0 d9 73 bd 7b b1 b7 3d 0a f3 8b 3d d6 07 e4 bc
       -0.059533834 0.089693986 0.068334654 -0.027835768
000110 30 82 0d 3d ef 7e 19 3c 99 8b cb 3d 11 29 8b 3d
       0.034547985 0.009368642 0.099387355 0.06794942
000120 e2 68 c4 3e 70 29 90 be 97 cd 36 3e 92 cc 19 be
       0.3836127 -0.28156614 0.17851864 -0.15019444
000130 6c 7e d0 3c 9e c6 ab bc 0a b3 50 3d 66 cb 61 3d
       0.025450908 -0.020968731 0.050951995 0.055125616
000140 81 04 54 be 03 8d 72 3d 7a 61 c0 3c 68 db 61 3e
       -0.20704843 0.05921651 0.02348398 0.22056353
000150 74 9a a6 bd 61 88 92 3d 9b 66 64 3d bc 91 c9 3d
       -0.08134928 0.071549185 0.055761915 0.0984225
000160 28 29 95 3e 73 c3 c4 bd 23 5f cd bd e6 a6 a3 3d
       0.29132962 -0.096075915 -0.100279115 0.07990818
000170 b5 aa 87 bc 3e 5f 61 3d a5 13 92 3d e4 09 9d 3b
       -0.016560892 0.05502247 0.07132653 0.004792439
000180 ac 57 68 bc 63 24 98 3d 7d f0 44 bd 19 f3 6b bd
       -0.014181059 0.07428815 -0.04808091 -0.057604883
000190 31 92 08 be ea 3e 2f 3e c2 da 92 3b 61 2c 90 3d
       -0.13337018 0.17113844 0.0044816444 0.070397146
0001a0 20 70 55 bd f1 a7 b8 3c 2a c0 85 3c 7d 55 59 3e
       -0.052108884 0.022541018 0.016326983 0.21224017
0001b0 05 d0 24 3e d0 7e 12 3d 07 88 7f 3e d0 e6 31 3d
       0.16094978 0.03576547 0.24954234 0.04343301
0001c0 74 f7 15 3e d7 2c 5c be b7 4e 42 3e 10 1c ba bd
       0.14645177 -0.2150148 0.1897534 -0.09087384
0001d0 17 04 0b be c7 da 86 3e 01 a1 dc 3d a1 9e 74 bd
       -0.13575779 0.2633879 0.107728966 -0.059721593
0001e0 6f 85 da bd 50 44 79 bd d9 28 89 bc 90 6b f9 3d
       -0.10669982 -0.060856164 -0.01674311 0.12178719
0001f0 78 46 92 bd 59 8c 93 bd 23 82 42 be 2c 53 86 3d
       -0.07142347 -0.072045036 -0.18994956 0.065588325
000200 3f fa f0 bc 86 11 32 3d 08 1f b6 3d f6 98 b4 bd
       -0.029416202 0.043473743 0.088926375 -0.088182375
000210 a6 83 10 3e ad 06 c2 3d 30 a9 05 3e bf bf 87 3d
       0.1411272 0.094739296 0.13052821 0.066283695
000220 37 51 c8 bd 10 f7 91 3d 79 eb af 3b d0 ee 9e bd
       -0.097811155 0.071272016 0.0053686467 -0.077603936
000230 96 9e dd 3b 4a b2 13 be 9d 0c 0b 3e 71 35 5a be
       0.0067632897 -0.1442348 0.1357903 -0.21309449
000240 4b 09 a8 bb 4d 3d 47 be ba 95 7b 3e 94 72 84 3d
       -0.005128061 -0.19456978 0.24568835 0.064671665
000250 05 5a 23 be ed 2c ba bc 1a 28 06 3e ec c5 c3 3d
       -0.15952308 -0.0227265 0.13101235 0.09559235
000260 b3 72 5d 3d 74 7a e6 bd 3d a0 87 bd 33 fe c6 3c
       0.054064464 -0.11253825 -0.0662236 0.024291134
000270 df 1e 8b bd 62 ba 4c bc a5 11 07 be df e4 54 bc
       -0.067929976 -0.012495609 -0.13190325 -0.01299402
000280 53 c0 be bd 74 02 1e 3e 26 ee 0b be ad 7d be 3d
       -0.09314027 0.15430623 -0.13665065 0.093013145
000290 44 59 4d 3d 56 f8 a9 be 52 c9 9b be 48 59 46 bd
       0.05013396 -0.33197278 -0.30427033 -0.04842499
0002a0 a4 56 0f 3e 63 f2 d9 bb 50 8f 37 3d 95 df cf 3d
       0.13997895 -0.006651209 0.044814408 0.10150067
0002b0 f7 d3 bf 3d d0 a3 1c 3e df 1b 63 3c 3d 40 14 3e
       0.09366601 0.15296865 0.013861625 0.1447763
0002c0 f9 7f e0 3d 05 c6 ba 3c 8d 5f 61 be 6c ca fc 3c
       0.10961909 0.022799501 -0.22009106 0.030858241
0002d0 cc 7a ea 3d 69 ea 86 3d ad b4 5a 3d 83 34 52 bc
       0.11449203 0.06587679 0.053394962 -0.012829903
0002e0 57 8a 85 3e 27 9a d3 3c f2 8f 8d 3d 51 5d 9f bc
       0.26082107 0.025830342 0.06912221 -0.019453676
0002f0 16 50 a4 3d 12 e4 a1 bd 07 90 ad bc b5 32 0d be
       0.08023088 -0.07904829 -0.021186842 -0.13788874
000300 96 93 f2 3c 21 6c 0e 3c 5c 1d 9f 3d eb 0f 4f 3d
       0.02961139 0.008692772 0.07769272 0.05055229
000310 a8 15 dc 3d 52 8a 17 be dd 25 a0 3c 4c 5f c1 bc
       0.10746318 -0.14798859 0.019549305 -0.023605011
000320 3d 83 11 be 22 f8 69 be 80 f9 ad 3e 50 68 a1 bc
       -0.1421022 -0.22848561 0.33979416 -0.01970306
000330 36 05 b6 bd 62 3f 2b be 52 09 2d 3d 13 94 4c 3e
       -0.08887713 -0.16723397 0.042245217 0.19978361
000340 91 7e 92 3c 29 51 64 be a5 17 20 be 8f a4 2b 3d
       0.017882617 -0.22296585 -0.1563402 0.041904982
000350 37 0d 3b 3e 17 95 fd bb 51 4c 82 3d 90 e9 01 3e
       0.1826676 -0.00773872 0.063622124 0.12686753
000360 16 35 c8 bb 9f b1 8a be f9 7e 9a 3d 5c 91 bf 3d
       -0.006109844 -0.2708864 0.07543749 0.09353897
000370 36 30 ec 3d 21 d4 2a 3d b8 67 17 3e 88 99 23 3e
       0.11532633 0.04170621 0.1478566 0.15976536
000380 65 56 45 3d 01 6f d1 3d c4 e8 d3 3d 4c 8e ff bc
       0.048178095 0.102262504 0.10347131 -0.031195782
000390 a6 f9 cb 3d 53 2d 93 3c 47 fb 4f 3d 2f 8b 89 bc
       0.09959726 0.017965948 0.050776746 -0.01679
0003a0 1d df ca 3d bd 96 01 be 47 53 c7 bd 1a d5 bb bd
       0.09905837 -0.12655158 -0.09732681 -0.09171505
0003b0 75 5d 90 bd 39 64 de bd 05 51 70 3d d7 b6 2f bd
       -0.070490755 -0.1085896 0.058671016 -0.04289898
0003c0 e0 48 6b bd f1 24 2c 3d 4f 62 c4 bc d5 5f 10 3e
       -0.057442546 0.042027418 -0.023972658 0.14099057
0003d0 5e ee 6e bc f7 58 5b bd a9 80 60 3d 75 ba 60 3d
       -0.014583198 -0.05355164 0.0548102 0.05486532
0003e0 cf cd 98 be a1 ee 32 be 68 56 02 be 94 bb e7 3d
       -0.2984452 -0.17473842 -0.12728274 0.113150746
0003f0 08 d2 d8 3d 2c 73 50 3d 0c 8c 87 3b 94 b6 cf bd
       0.10586935 0.050891086 0.004136568 -0.10142246

net.3.bias f4 [64]
000000 00 00 00 00 00 00 00 00 00 00 00 00 00 00 00 00
       0.0 0.0 0.0 0.0
000010 00 00 00 00 00 00 00 00 00 00 00 00 00 00 00 00
       0.0 0.0 0.0 0.0
000020 00 00 00 00 00 00 00 00 00 00 00 00 00 00 00 00
       0.0 0.0 0.0 0.0
000030 00 00 00 00 00 00 00 00 00 00 00 00 00 00 00 00
       0.0 0.0 0.0 0.0
000040 00 00 00 00 00 00 00 00 00 00 00 00 00 00 00 00
       0.0 0.0 0.0 0.0
000050 00 00 00 00 00 00 00 00 00 00 00 00 00 00 00 00
       0.0 0.0 0.0 0.0
000060 00 00 00 00 00 00 00 00 00 00 00 00 00 00 00 00
       0.0 0.0 0.0 0.0
000070 00 00 00 00 00 00 00 00 00 00 00 00 00 00 00 00
       0.0 0.0 0.0 0.0
000080 00 00 00 00 00 00 00 00 00 00 00 00 00 00 00 00
       0.0 0.0 0.0 0.0
000090 00 00 00 00 00 00 00 00 00 00 00 00 00 00 00 00
       0.0 0.0 0.0 0.0
0000a0 00 00 00 00 00 00 00 00 00 00 00 00 00 00 00 00
       0.0 0.0 0.0 0.0
0000b0 00 00 00 00 00 00 00 00 00 00 00 00 00 00 00 00
       0.0 0.0 0.0 0.0
0000c0 00 00 00 00 00 00 00 00 00 00 00 00 00 00 00 00
       0.0 0.0 0.0 0.0
0000d0 00 00 00 00 00 00 00 00 00 00 00 00 00 00 00 00
       0.0 0.0 0.0 0.0
0000e0 00 00 00 00 00 00 00 00 00 00 00 00 00 00 00 00
       0.0 0.0 0.0 0.0
0000f0 00 00 00 00 00 00 00 00 00 00 00 00 00 00 00 00
       0.0 0.0 0.0 0.0

net.4.weight f4 [64]
000000 00 00 80 3f 00 00 80 3f 00 00 80 3f 00 00 80 3f
       1.0 1.0 1.0 1.0
000010 00 00 80 3f 00 00 80 3f 00 00 80 3f 00 00 80 3f
       1.0 1.0 1.0 1.0
000020 00 00 80 3f 00 00 80 3f 00 00 80 3f 00 00 80 3f
       1.0 1.0 1.0 1.0
000030 00 00 80 3f 00 00 80 3f 00 00 80 3f 00 00 80 3f
       1.0 1.0 1.0 1.0
000040 00 00 80 3f 00 00 80 3f 00 00 80 3f 00 00 80 3f
       1.0 1.0 1.0 1.0
000050 00 00 80 3f 00 00 80 3f 00 00 80 3f 00 00 80 3f
       1.0 1.0 1.0 1.0
000060 00 00 80 3f 00 00 80 3f 00 00 80 3f 00 00 80 3f
       1.0 1.0 1.0 1.0
000070 00 00 80 3f 00 00 80 3f 00 00 80 3f 00 00 80 3f
       1.0 1.0 1.0 1.0
000080 00 00 80 3f 00 00 80 3f 00 00 80 3f 00 00 80 3f
       1.0 1.0 1.0 1.0
000090 00 00 80 3f 00 00 80 3f 00 00 80 3f 00 00 80 3f
       1.0 1.0 1.0 1.0
0000a0 00 00 80 3f 00 00 80 3f 00 00 80 3f 00 00 80 3f
       1.0 1.0 1.0 1.0
0000b0 00 00 80 3f 00 00 80 3f 00 00 80 3f 00 00 80 3f
       1.0 1.0 1.0 1.0
0000c0 00 00 80 3f 00 00 80 3f 00 00 80 3f 00 00 80 3f
       1.0 1.0 1.0 1.0
0000d0 00 00 80 3f 00 00 80 3f 00 00 80 3f 00 00 80 3f
       1.0 1.0 1.0 1.0
0000e0 00 00 80 3f 00 00 80 3f 00 00 80 3f 00 00 80 3f
       1.0 1.0 1.0 1.0
0000f0 00 00 80 3f 00 00 80 3f 00 00 80 3f 00 00 80 3f
       1.0 1.0 1.0 1.0

net.4.bias f4 [64]
000000 00 00 00 00 00 00 00 00 00 00 00 00 00 00 00 00
       0.0 0.0 0.0 0.0
000010 00 00 00 00 00 00 00 00 00 00 00 00 00 00 00 00
       0.0 0.0 0.0 0.0
000020 00 00 00 00 00 00 00 00 00 00 00 00 00 00 00 00
       0.0 0.0 0.0 0.0
000030 00 00 00 00 00 00 00 00 00 00 00 00 00 00 00 00
       0.0 0.0 0.0 0.0
000040 00 00 00 00 00 00 00 00 00 00 00 00 00 00 00 00
       0.0 0.0 0.0 0.0
000050 00 00 00 00 00 00 00 00 00 00 00 00 00 00 00 00
       0.0 0.0 0.0 0.0
000060 00 00 00 00 00 00 00 00 00 00 00 00 00 00 00 00
       0.0 0.0 0.0 0.0
000070 00 00 00 00 00 00 00 00 00 00 00 00 00 00 00 00
       0.0 0.0 0.0 0.0
000080 00 00 00 00 00 00 00 00 00 00 00 00 00 00 00 00
       0.0 0.0 0.0 0.0
000090 00 00 00 00 00 00 00 00 00 00 00 00 00 00 00 00
       0.0 0.0 0.0 0.0
0000a0 00 00 00 00 00 00 00 00 00 00 00 00 00 00 00 00
       0.0 0.0 0.0 0.0
0000b0 00 00 00 00 00 00 00 00 00 00 00 00 00 00 00 00
       0.0 0.0 0.0 0.0
0000c0 00 00 00 00 00 00 00 00 00 00 00 00 00 00 00 00
       0.0 0.0 0.0 0.0
0000d0 00 00 00 00 00 00 00 00 00 00 00 00 00 00 00 00
       0.0 0.0 0.0 0.0
0000e0 00 00 00 00 00 00 00 00 00 00 00 00 00 00 00 00
       0.0 0.0 0.0 0.0
0000f0 00 00 00 00 00 00 00 00 00 00 00 00 00 00 00 00
       0.0 0.0 0.0 0.0

out_mean.weight f4 [1, 64]
000000 33 8c 66 be 98 f9 a9 bd 25 3c eb bc 18 b9 9e 3e
       -0.2251442 -0.08299559 -0.028715203 0.3100059
000010 1b b4 54 3e 3a 22 18 3e 33 ac a3 3c ab a9 6e be
       0.2077183 0.14856806 0.019979572 -0.2330691
000020 21 d9 2d 3e 03 07 cb bd f8 00 0c 3e cf fc 74 be
       0.1697736 -0.09913447 0.13672245 -0.23924564
000030 37 66 46 be 3c 49 1b 3d 93 34 a5 3c 54 ca 4c 3a
       -0.1937493 0.03791164 0.02016667 0.00078121317
000040 c0 fa 8f bd 0a b7 d6 3d d4 e4 59 3e ba 79 d4 3c
       -0.07030249 0.10484131 0.21278697 0.02593695
000050 18 bc 76 3e 14 55 ec bd e5 0c 9d bd 18 a8 df 3c
       0.2409519 -0.11539665 -0.07668475 0.027301833
000060 d2 7c 26 3e 58 bf 35 be 90 54 b1 bd 54 25 66 be
       0.16258553 -0.17748773 -0.08658707 -0.22475177
000070 69 87 52 3d f5 30 9c 3c 52 6c 1b 3e 3c fd 8c 3c
       0.05139867 0.019066313 0.1517804 0.017210595
000080 a5 6d 8e bd 41 3c 3b 3e 80 9f 5e be 07 5d 31 bc
       -0.06954507 0.18284704 -0.21740532 -0.010825402
000090 da f3 e2 3d cb 03 05 be 84 8e 52 3d 17 48 d1 3c
       0.11081667 -0.12989728 0.051405445 0.02554707
0000a0 39 f6 bc 3e a7 a5 2f be b1 2e 8f 3e 2b 52 17 bd
       0.36906603 -0.17153035 0.2796531 -0.036943596
0000b0 a7 36 ba 3d 0f ba e9 3e 08 76 49 be 3f 68 97 3d
       0.09092455 0.45649764 -0.19673932 0.0739293
0000c0 0c e8 a9 be 32 a8 cd 3d 2a 24 82 be 79 0e bb bc
       -0.3318485 0.10041846 -0.25418216 -0.02283405
0000d0 8b a1 2c bd e2 58 4a 3e c8 3e e1 bd ea bb 89 be
       -0.042146247 0.19760469 -0.10998303 -0.2690118
0000e0 4e db 45 3e 86 f7 9f be 6a 44 05 3d 83 96 94 3e
       0.1932194 -0.31243533 0.032535948 0.2902108
0000f0 0f 7d a4 3c 5f 13 c6 bd 7a d3 49 3e 14 53 3a bd
       0.020079164 -0.096716635 0.19709578 -0.045489386

out_value.weight f4 [1, 64]
000000 a4 11 7a 3c 4b 44 51 3e 78 aa 29 be f4 cd 34 3e
       0.015262995 0.20436208 -0.16568935 0.1765669
000010 1d 87 11 3e 76 22 9c bd 9f cd a8 bd 61 bf c2 be
       0.14211698 -0.076237604 -0.08242344 -0.38036636
000020 48 a4 de 3e fd 2c 92 3e 31 3b 3f bd a5 7e db 3d
       0.43484712 0.28549948 -0.04668731 0.10717515
000030 dc e5 1e 3d b3 f2 e6 bd ee 12 b9 be fa 0d 4d 3e
       0.03879343 -0.1127676 -0.36147255 0.20024863
000040 ee 1d da 3b 97 bc 8a be 18 a8 a0 3c c6 0b 97 3e
       0.0066564 -0.27097008 0.019611403 0.2950117
000050 29 bb 02 3e 3a a0 13 3e 7e a9 c9 3d 35 db 8d 3c
       0.12766708 0.1441659 0.09846781 0.01731644
000060 81 f8 1e 3d 7b 0a 83 be 43 e9 24 3e 06 e1 f3 bd
       0.03881121 -0.25593933 0.16104607 -0.11908154
000070 ec 37 37 3e e1 b1 f2 3d 4c e3 ab 3b 8d d6 d7 3d
       0.17892426 0.11850334 0.0052456018 0.10538969
000080 f1 65 c1 bd 96 85 3a bd bb e4 9c 3d 7d 09 1a 3e
       -0.09443272 -0.045537554 0.076608144 0.15042682
000090 76 07 ab 3c 89 93 fe bd b7 73 86 bd e7 08 04 bd
       0.020877581 -0.12430484 -0.065650396 -0.032235052
0000a0 90 9c 34 bb a4 f8 50 3e 1a 8e bc be 2d ab 2d be
       -0.0027559139 0.20407349 -0.36827165 -0.1695983
0000b0 8f a5 91 3d 50 e0 6b bd f8 59 14 3d 8d d3 16 bd
       0.07111656 -0.057586968 0.036218613 -0.036822844
0000c0 49 24 37 3d f9 42 79 be 2f 9a f3 bc e6 57 e2 bd
       0.04471234 -0.24341954 -0.029736606 -0.110519215
0000d0 5b 4e 32 3d c3 68 93 3e 29 72 85 be 62 46 2b be
       0.043531757 0.28790864 -0.2606366 -0.16726068
0000e0 52 5e d5 bc 1e 9a 54 bd 0a 5c 1b 3d af 4e 8c bd
       -0.026045952 -0.05190479 0.037929572 -0.06850945
0000f0 77 3c a3 3d 7e b2 bd bb 34 be f4 3d 46 c0 50 be
       0.07970517 -0.0057891 0.11950341 -0.20385846
