ppo_algorithm/data/Qube-v0_2019-03-07_15-23-27/best_policy/ppo_network_state_dict.pt (torch_old, 20451 bytes, 6 tensors)

net.0.weight f4 [64, 6]
-0.13671587 -0.051171377 0.07803327 0.075379185 0.028589595 0.16997759 0.048946913 -0.14544447
-0.024294134 -0.012423301 -0.020976512 0.23664576 0.052343607 -0.087699056 -0.0627898 0.034977548
0.06863717 0.16200311 -0.20195743 -0.12806848 0.34488633 0.23501182 -0.26439777 -0.08845859
-0.07743621 -0.08787131 0.26856172 0.17746955 -0.040659178 -0.08766506 0.1271535 0.28593233
-0.077528566 -0.2766866 0.06770917 0.22106728 0.08471847 -0.019740758 0.028318755 0.21038061
0.1657193 0.08522734 0.12804894 0.14363661 -0.17068365 0.020303259 -0.007971405 -0.2804593
0.11958924 0.0033679495 -0.04158153 -0.07436993 0.16125192 0.31100392 -0.32413927 0.01142117
0.14731368 -0.0075190044 -0.15583163 -0.1710646 -0.01651302 0.35769507 -0.18871602 0.11000561
-0.030161737 -0.10775009 -0.259158 0.31647092 -0.008123941 0.05244469 -0.01169162 -0.10014811
0.058503814 -0.057333633 -0.19030115 -0.2783158 0.059408665 0.08863725 0.1354149 0.07845684
-0.0514953 0.07592225 0.0856668 -0.11454727 -0.108530074 0.0041737757 -0.058031783 -0.14031246
0.035321593 0.33992442 0.011171207 0.10825442 -0.11831498 -0.38914552 -0.012532406 0.11162461
-0.17413455 0.15155743 -0.07660874 -0.15636489 -0.26070282 -0.06273728 0.05535212 -0.22442545
0.010828409 0.09247483 0.0861846 0.16778833 0.19463356 -0.057560705 -0.13344845 0.011927168
-0.1731876 0.10613665 0.24684682 -0.020641591 -0.10109702 -0.12892434 -0.00092880236 0.10351685
-0.2262995 -0.1956607 -0.42110652 -0.053339783 0.0764601 -0.16776341 0.02513332 0.2801064
0.16640973 0.23113346 0.2397225 0.12607339 0.11188127 0.14540817 -0.045471013 -0.16654451
0.033004027 0.28411895 -0.06398938 -0.27270982 0.005235394 -0.18605757 -0.0410798 0.111481145
0.3191487 0.018912733 0.22105262 -0.013834364 -0.04959591 -0.08159574 -0.021639824 0.06766584
-0.22203305 -0.24181734 0.012671975 -0.28462526 0.17297778 0.119614676 -0.018825658 0.17865816
0.039718635 -0.18636839 -0.12383921 0.02876066 0.070908904 0.11257669 -0.08810204 0.065481
0.09961422 0.16596983 0.13849248 -0.1824386 -0.40453288 0.007344487 0.0069767367 0.34241235
-0.018247105 0.020829286 0.045851253 0.16704172 0.12375731 0.3330247 0.086933576 -0.16246863
0.16802567 0.16942684 -0.013088191 -0.142371 0.076313466 -0.020973988 0.04104208 -0.08606702
-0.14332916 0.09469066 -0.17724581 0.023903301 0.18208195 0.19110888 0.12272213 0.08149899
0.072303474 0.19826722 0.038389925 0.009947105 0.10507189 -0.25715894 0.020461919 0.16874237
-0.01825753 0.1341369 -0.11299711 0.12401993 -0.26537684 0.27238253 -0.040445935 -0.20112921
-0.013399319 0.02375855 0.20380628 0.1634849 0.015972303 -0.3551889 -0.02421098 -0.18691286
0.023441039 -0.0801382 0.2110692 0.069474325 -0.10412776 0.052935988 0.23883276 0.037519958
-0.17879692 0.20219105 -0.006168104 -0.0058527407 0.012003325 -0.19114162 0.06985998 0.12662673
-0.20622993 0.05604429 -0.015064208 0.10547445 0.0082897805 -0.04575403 0.1572445 0.042597357
0.037448134 -0.01970585 -0.12287952 0.027282748 -0.04618998 -0.23035476 0.028282207 0.09720358
00000000: 3fff 0bbe 1499 51bd e8cf 9f3d 6760 9a3d
00000010: ba34 ea3c 9b0e 2e3e 8f7c 483d 65ef 14be
00000020: 7e04 c7bc 1a8b 4bbc efd6 abbc 4453 723e
00000030: 4066 563d 909b b3bd f097 80bd 9e44 0f3d
00000040: a591 8c3d 25e4 253e eecd 4ebe 6224 03be
00000050: f194 b03e f0a6 703e 255f 87be c729 b5bd
00000060: e096 9ebd e0f5 b3bd ec80 893e 94ba 353e
00000070: 3d8a 26bd bd89 b3bd 8734 023e b965 923e
00000080: 4cc7 9ebd dea9 8dbe 1bab 8a3d 765f 623e
00000090: e180 ad3d 5fb7 a1bc bcfc e73c 046e 573e
000000a0: 52b2 293e ac8b ae3d 431f 033e 7a15 133e
000000b0: b2c7 2ebe 0553 a63c 7f9a 02bc 5d98 8fbe
000000c0: 34eb f43d d1b8 5c3b 6551 2abd 434f 98bd
000000d0: 391f 253e e83b 9f3e 95f5 a5be dc1f 3b3c
000000e0: 66d9 163e fb61 f6bb 5492 1fbe 8f2b 2fbe
000000f0: 5046 87bc cf23 b73e c63e 41be 9f4a e13d
00000100: bf15 f7bc 14ac dcbd 5bb0 84be 7a08 a23e
00000110: 471a 05bc 3ed0 563d 358e 3fbc 741a cdbd
00000120: b2a1 6f3d acd6 6abd 4ede 42be 697f 8ebe
00000130: 8056 733d 7287 b53d 34aa 0a3e fbad a03d
00000140: bcec 52bd 207d 9b3d 1372 af3d c297 eabd
00000150: 0445 debd 2bc4 883b bcb2 6dbd 12ae 0fbe
00000160: 60ad 103d 930a ae3e 7007 373c 7eb4 dd3d
00000170: 204f f2bd 153e c7be b854 4dbc 729b e43d
00000180: 5450 32be df31 1b3e 0be5 9cbd 1e1e 20be
00000190: d77a 85be 677c 80bd e8b8 623d c9cf 65be
000001a0: a469 313c 7263 bd3d 8d81 b03d b4d0 2b3e
000001b0: 054e 473e c6c4 6bbd b6a6 08be 2b6a 433c
000001c0: 1758 31be 2c5e d93d 6ac5 7c3e 8e18 a9bc
000001d0: f40b cfbd be04 04be df7a 73ba a400 d43d
000001e0: 0ebb 67be 475b 48be 469b d7be d17a 5abd
000001f0: 1d97 9c3d 2cca 2bbe 64e4 cd3c 1b6a 8f3e
00000200: 5067 2a3e 40ae 6c3e d179 753e 6219 013e
00000210: 0222 e53d e1e5 143e d03f 3abd a58a 2abe
00000220: 3b2f 073d 0a78 913e dd0c 83bd 9fa0 8bbe
00000230: ab8d ab3b e085 3ebe 4b43 28bd 3a50 e43d
00000240: 7567 a33e e0ee 9a3c 9e5b 623e 87a9 62bc
00000250: 1525 4bbd ab1b a7bd 0046 b1bc 6394 8a3d
00000260: a25c 63be f79e 77be 1e9e 4f3c 67ba 91be
00000270: 1621 313e 8af8 f43d 4438 9abc 2af2 363e
00000280: 02b0 223d 5bd7 3ebe 699f fdbd 7a9b eb3c
00000290: b038 913d 9c8e e63d d86e b4bd e71a 863d
000002a0: 8a02 cc3d fff3 293e f9d0 0d3e 2fd1 3abe
000002b0: ef1e cfbe 06aa f03b 1c9d e43b ac50 af3e
000002c0: f47a 95bc 2ea2 aa3c 86ce 3b3d fc0c 2b3e
000002d0: 7974 fd3d 3782 aa3e 3b0a b23d 2d5e 26be
000002e0: ec0e 2c3e 3b7e 2d3e da6f 56bc b4c9 11be
000002f0: 3c4a 9c3d a4d1 abbc bd1b 283d e843 b0bd
00000300: e1c4 12be 2ded c13d ed7f 35be dbd0 c33c
00000310: b173 3a3e 0cb2 433e bd55 fb3d f1e8 a63d
00000320: d813 943d 9006 4b3e c13e 1d3d 2ff9 223c
00000330: ee2f d73d 56aa 83be c19f a73c cdca 2c3e
00000340: d190 95bc 2f5b 093e 076b e7bd 29fe fd3d
00000350: 79df 87be b975 8b3e a3aa 25bd d1f4 4dbe
00000360: d188 5bbc 4aa1 c23c 98b2 503e 9668 273e
00000370: 59d8 823c 52db b5be 1b56 c6bc 1666 3fbe
00000380: 6c07 c03c 7f1f a4bd 8622 583e 8e48 8e3d
00000390: ef40 d5bd 68d3 583d 9390 743e 87ae 193d
000003a0: 8a16 37be 2c0b 4f3e ce1d cabb 59c8 bfbb
000003b0: 98a9 443c a1ba 43be c012 8f3d 70aa 013e
000003c0: f02d 53be b38e 653d decf 76bc fd02 d83d
000003d0: dcd1 073c 9468 3bbd b404 213e 917a 2e3d
000003e0: 3763 193d 2a6e a1bc 42a8 fbbd 1280 df3c
000003f0: b431 3dbd 1ee2 6bbe 16b0 e73c ac12 c73d

net.0.bias f4 [64]
-0.008851209 0.028930135 0.002245305 0.004112805 -0.021039749 0.0023802258 -0.0011264106 -0.013109216
0.010438993 0.0074043903 -0.006738109 0.008562743 -0.01652972 -0.022787087 -0.00034321105 0.0031814172
-0.009788409 0.0064564655 0.027274966 -0.0027954737 0.041691676 0.00656676 -0.016998276 -0.00715653
-0.018422239 0.029380074 0.008453617 0.003935017 -0.048411317 -0.0010462529 -0.036513373 -0.01389737
0.0023915258 -0.020200053 -0.007245785 -0.000121299076 -0.01884376 -0.00013455482 -0.016774159 -0.01885327
-0.0031462058 -0.006910009 0.007291996 0.027979732 -0.010765122 0.004554165 -0.02495666 -0.035075538
-0.0007119167 0.014784185 -0.023089025 0.015823279 0.014430739 0.0011824599 0.0018679099 -0.0030635793
0.0056195967 -0.013359425 -0.0038702337 -0.0023566578 2.6405623e-05 0.0007854585 0.009645765 0.016009592
00000000: a904 11bc e4fe ec3c f825 133b b5c4 863b
00000010: 8d5b acbc 90fd 1b3b 11a4 93ba 09c8 56bc
00000020: 4f08 2b3c 87a0 f23b 5bcb dcbb bf4a 0c3c
00000030: 5669 87bc fcab babc 02f1 b3b9 537f 503b
00000040: 905f 20bc c290 d33b c06f df3c 4434 37bb
00000050: e4c4 2a3d fa2d d73b f83f 8bbc 5381 eabb
00000060: 3cea 96bc 7bae f03c 0a81 0a3c 51f1 803b
00000070: f24a 46bd 6c22 89ba 0c8f 15bd cbb1 63bc
00000080: 25bb 1c3b 957a a5bc 0d6e edbb f261 feb8
00000090: 3b5e 9abc 4917 0db9 f669 89bc 2c72 9abc
000000a0: 9330 4ebb 5b6d e2bb b2f1 ee3b c035 e53c
000000b0: 3260 30bc 1b3b 953b e971 ccbc 5eab 0fbd
000000c0: ec9f 3aba 5e39 723c 3225 bdbc d29f 813c
000000d0: e86e 6c3c c5fc 9a3a a8d4 f43a 55c6 48bb
000000e0: 9824 b83b 7de1 5abc bfa3 7dbb 2872 1abb
000000f0: a581 dd37 3ae7 4d3a 4509 1e3c 8c26 833c

net.2.weight f4 [64, 64]
-0.08914182 -0.07617451 0.05722404 -0.19611774 -0.43164298 0.021885628 -0.06187731 -0.32742676
0.031256814 -0.014218189 -0.27168128 0.2667177 -0.033158552 0.004033902 -0.27778327 -0.071845435
0.27465218 0.044706788 0.010979941 -0.20363817 0.025207147 0.17565654 -0.06711982 -0.07562587
-0.013216777 0.05290565 0.13048378 0.0794613 -0.00975424 -0.13838387 -0.15623131 -0.0029795424
-0.06923231 0.1032339 0.07032493 0.20760527 0.0143908765 -0.36265007 -0.05777317 0.17308637
-0.15222652 -0.1860925 -0.12253662 -0.035100527 -0.09389448 -0.048451494 0.028792404 0.13184012
-0.07033918 -0.13015178 0.10254812 -0.06749556 -0.19787636 0.36700276 0.0030808153 0.2658797
-0.06903619 0.17358354 0.14033157 0.017964283 0.028451312 -0.0014948066 0.0064207832 -0.13905247
0.08751479 -0.19380574 0.15946127 -0.087303 -0.15234762 -0.022686705 -0.035952196 0.07493511
0.090508185 0.10563406 0.12502228 -0.012316573 -0.10986759 0.089998886 -0.031099135 0.024717256
-0.02610185 0.091139175 0.16446282 0.17293826 0.0794901 -0.14191192 -0.03262002 -0.060564257
0.08779765 -0.029612934 -0.052384514 0.10279141 0.17260933 0.034627743 -0.1518715 0.15495181
-0.025197037 0.059804566 -0.105285294 0.12233143 0.042460967 0.03275936 -0.058291133 -0.029014071
-0.07682667 0.0235225 0.10834912 -0.05419769 -0.10481518 -0.092367716 0.06855203 -0.06509732
-0.14113264 -0.06907504 -0.072112165 0.10047839 0.077354416 0.16264214 0.23884928 -0.17077863
0.03127815 0.00030189418 -0.15671213 0.18890218 0.10991311 0.09354227 -0.0031223726 -0.053656433
-0.09675956 0.15223089 0.17810488 0.11352534 0.08140655 -0.24457225 0.17511383 0.01766657
0.12793559 0.29608488 0.11894773 0.10775476 -0.04974745 -0.15900055 0.0012200678 0.09697659
0.015542611 0.20541334 -0.012064593 0.0361496 0.19872043 -0.13018583 -0.21737318 0.13349585
0.00091922085 -0.073220514 0.0071923225 0.16019899 -0.095453724 0.22064078 -0.004450221 -0.107357465
0.17533885 -0.019926729 0.2994442 0.16155875 -0.16845787 0.25513762 -0.1418406 -0.00039719863
0.035162825 0.19209857 -0.050187215 0.29262966 0.22750545 0.12164966 -0.19974147 0.08811409
0.059074156 0.07109549 -0.03055291 -0.12671492 -0.22433719 0.10157877 -0.015762947 -0.13545278
-0.12709989 -0.0070033274 -0.0075495844 -0.17373195 0.113552816 0.020213854 -0.22998358 -0.22000654
0.18262564 -0.03875944 0.17617328 -0.036903933 -0.12968214 0.052554253 0.13456856 -0.03134784
-0.032275937 -0.1239862 -0.17176804 -0.080549665 0.051699802 0.019718517 -0.052849803 0.015711257
0.050635923 0.098767556 -0.08872646 0.0051275003 0.08187359 0.07765111 0.026896557 0.013152382
0.036371406 -0.045007117 0.07704625 -0.08784316 0.062910974 -0.3213185 -0.08505053 -0.0045935647
-0.08526342 0.2010673 0.09013522 0.0721091 -0.038885914 0.15205778 -0.043845788 -0.09955386
-0.19628812 -0.11408228 -0.023522792 0.24417715 0.19221008 -0.28237602 0.07757144 -0.2208716
-0.12113426 -0.17119367 0.03983474 0.015349879 -0.077669926 0.079901576 -0.243034 0.24419744
0.15539703 0.14571573 -0.020928027 -0.023392145 0.22598343 -0.22571875 -0.053647064 0.09640107
00000000: fd8f b6bd 6201 9cbd c163 6a3d 17d3 48be
00000010: 4f00 ddbe 7d49 b33c 1073 7dbd 7ba4 a7be
00000020: 2507 003d 68f3 68bc cf19 8bbe 398f 883e
00000030: 43d1 07bd d32e 843b 9c39 8ebe b323 93bd
00000040: 369f 8c3e 771e 373d 36e5 333c 8686 50be
00000050: 387f ce3c 4fdf 333e 1e76 89bd bce1 9abd
00000060: 2e8b 58bc 98b3 583d 8a9d 053e 9bbc a23d
00000070: 3fd0 1fbc 80b4 0dbe 1afb 1fbe 6d44 43bb
00000080: abc9 8dbd 4c6c d33d 8406 903d 7a96 543e
00000090: b6c7 6b3c 45ad b9be 8fa3 6cbd 8e3d 313e
000000a0: 45e1 1bbe 088f 3ebe 7bf4 fabd 92c5 0fbd
000000b0: c04b c0bd 1375 46bd 0cde eb3c 1901 073e
000000c0: fd0d 90bd 8246 05be c004 d23d 1d3b 8abd
000000d0: 1aa0 4abe c9e7 bb3e 81e7 493b 6221 883e
000000e0: d962 8dbd e2bf 313e 14b3 0f3e d529 933c
000000f0: ba12 e93c 63ed c3ba 6f65 d23b c563 0ebe
00000100: f43a b33d 0375 46be d149 233e eacb b2bd
00000110: 0401 1cbe 78d9 b9bc 9c42 13bd 9477 993d
00000120: 5b5c b93d ac56 d83d d705 003e 74cb 49bc
00000130: 4202 e1bd 5651 b83d 9dc3 febc d87b ca3c
00000140: 8cd3 d5bc 2da7 ba3d f168 283e ba16 313e
00000150: b5cb a23d 5c51 11be 929c 05bd 3a12 78bd
00000160: 41cf b33d d396 f2bc 2591 56bd 4e84 d23d
00000170: 80c0 303e d2d5 0d3d 3484 1bbe b0ab 1e3e
00000180: 046a cebc a2f5 743d d19f d7bd e788 fa3d
00000190: 8deb 2d3d ae2e 063d afc2 6ebd ebae edbc
000001a0: 4d57 9dbd 42b2 c03c 25e6 dd3d 66fe 5dbd
000001b0: 57a9 d6bd 492b bdbd 0265 8c3d be51 85bd
000001c0: 1385 10be 3777 8dbd 8baf 93bd 9dc7 cd3d
000001d0: fe6b 9e3d a98b 263e e894 743e 98e0 2ebe
000001e0: 841d 003d 8d47 9e39 2579 20be 936f 413e
000001f0: 201a e13d 1793 bf3d b8a0 4cbb d9c6 5bbd
00000200: e029 c6bd 6ae2 1b3e 2061 363e f97f e83d
00000210: 7ab8 a63d 2671 7abe 0a51 333e 7cb9 903c
00000220: 8c01 033e 7098 973e de9a f33d 87ae dc3d
00000230: fbc3 4bbd 0ad1 22be afea 9f3a aa9b c63d
00000240: 6fa6 7e3c e057 523e 92aa 45bc 9a11 143d
00000250: 5e7d 4b3e 6f4f 05be 1397 5ebe 23b3 083e
00000260: def7 703a a3f4 95bd 93ad eb3b 340b 243e
00000270: 3e7d c3bd a8ef 613e 29d3 91bb 3bde dbbd
00000280: 078c 333e 613d a3bc c050 993e a86f 253e
00000290: 3880 2cbe 66a1 823e aa3e 11be 193f d0b9
000002a0: e506 103d 7db5 443e 1c91 4dbd 8ed3 953e
000002b0: 30f7 683e 7523 f93d 0789 4cbe 2975 b43d
000002c0: bef7 713d 839a 913d 194a fabc 8ec1 01be
000002d0: a6b8 65be 8808 d03d 4c21 81bc 22b4 0abe
000002e0: 7926 02be 2b7c e5bb 8162 f7bb cae6 31be
000002f0: 618e e83d 8697 a53c d180 6bbe 6549 61be
00000300: 3702 3b3e 38c2 1ebd c566 343e 9428 17bd
00000310: 65cb 04be 2143 573d 57cc 093e 9866 00bd
00000320: c633 04bd 7aec fdbd f6e3 2fbe 39f7 a4bd
00000330: 2cc3 533d ba88 a13c 0979 58bd e5b4 803c
00000340: 9d67 4f3d a546 ca3d 38b6 b5bd 9704 a83b
00000350: 57ad a73d 8c07 9f3d 2b56 dc3c 177d 573c
00000360: 2ffa 143d 6259 38bd 6dca 9d3d 1de7 b3bd
00000370: 78d7 803d dc83 a4be f92e aebd 9d85 96bb
00000380: 979e aebd 96e4 4d3e d098 b83d f0ad 933d
00000390: d646 1fbd 09b5 1b3e a497 33bd e5e2 cbbd
000003a0: c1ff 48be f8a3 e9bd dfb2 c0bc 9309 7a3e
000003b0: b8d2 443e 9793 90be c6dd 9e3d 2a2c 62be
000003c0: 3d15 f8bd 654d 2fbe c129 233d 0f7e 7b3c
000003d0: 6911 9fbd 70a3 a33d e8dd 78be e50e 7a3e
000003e0: 6620 1f3e 8136 153e 4171 abbc e2a0 bfbc
000003f0: 3368 673e d122 67be 06bd 5bbd ed6d c53d

net.2.bias f4 [64]
-0.003988515 0.0032045192 0.00046703857 -0.004919004 0.0016836491 -0.0071303803 0.0020839856 -0.0039520734
-0.006700561 0.00039229362 -0.009115784 -0.009091995 0.0015135073 -0.008412123 0.0015382846 -0.0020120647
0.001209144 0.008324294 0.0034231623 0.0028411583 0.005419806 -0.003289332 -0.0008521462 0.003641479
-0.002138369 0.004409996 -0.00046133462 0.0020470384 -0.0005670529 0.0116075035 0.0031815132 -0.0100071225
-0.00015758711 0.0014419841 0.011554011 -0.0011339912 -0.0002239592 -0.0094530955 0.0070747645 -0.0016496668
0.0015269483 -0.005269752 -0.0034215697 0.006554824 0.0032729574 0.015006179 0.0004158614 0.0015420072
0.007892746 -0.008365588 0.0027959347 -0.00017855005 -0.003121314 0.00017745246 -0.018334122 0.0026935802
0.012568068 0.0033944128 -0.0011288857 -4.7341746e-07 -0.0033910093 0.0029084063 -0.007512232 -0.003689923
00000000: 17b2 82bb e902 523b dbdc f439 992f a1bb
00000010: e4ad dc3a f7a5 e9bb 7a93 083b 6580 81bb
00000020: 6190 dbbb c2ac cd39 5f5a 15bc 97f6 14bc
00000030: e160 c63a 00d3 09bc 44a0 c93a d8dc 03bb
00000040: 247c 9e3a 9f62 083c 2257 603b ba32 3a3b
00000050: a198 b13b d591 57bb 9062 5fba e1a5 6e3b
00000060: e123 0cbb ba81 903b 49df f1b9 9b27 063b
00000070: 47a6 14ba 662d 3e3c ef80 503b eaf4 23bc
00000080: f83d 25b9 f500 bd3a 094d 3d3c 6ea2 94ba
00000090: 97d6 6ab9 28e1 1abc 6dd3 e73b a239 d8ba
000000a0: e223 c83a e2ad acbb 6a3c 60bb d9c9 d63b
000000b0: 1d7f 563b 7adc 753c f907 da39 2d1d ca3a
000000c0: 9350 013c d20f 09bc 003c 373b 2a39 3bb9
000000d0: f68e 4cbb 8812 3a39 7131 96bc c786 303b
000000e0: 4cea 4d3c cc74 5e3b 1ef7 93ba 002a feb4
000000f0: b23b 5ebb f69a 3e3b 2b29 f6bb a3d2 71bb

out_mean.weight f4 [1, 64]
-0.014797474 0.090597585 -0.4368469 0.11135986 -0.225003 0.04392716 -0.085478544 -0.011715431
-0.0009854195 -0.22510852 -0.0619766 0.104227275 0.034527786 0.035979178 -0.06445847 0.4684207
-0.057604805 0.147085 -0.0010258998 0.03205244 -0.07118136 -0.13423164 -0.18865731 -0.07283702
0.10456895 -0.07926473 0.10798414 0.15961802 0.13938653 0.039444596 -0.06271248 0.16534562
0.08210589 -0.09790342 -0.06711183 0.0928624 0.28218007 0.27689344 -0.10697069 -0.26456022
-0.17335515 -0.36191624 0.1320427 0.15580064 0.11773068 -0.052843727 -0.30515406 0.22721021
0.033196457 -0.035942364 0.004119468 -0.07340972 0.1308916 -0.21034327 0.07602879 0.19708823
-0.18964814 0.13209869 -0.15262048 0.22752544 0.124621995 -0.20473894 0.14690468 -0.10356761
00000000: 1b71 72bc 3a8b b93d 66aa dfbe a310 e43d
00000010: 3067 66be f7ec 333d 600f afbd 14f2 3fbc
00000020: 3129 81ba d982 66be 2ddb 7dbd 1c75 d53d
00000030: 026d 0d3d e75e 133d cd02 84bd d7d4 ef3e
00000040: 04f3 6bbd 739d 163e 7c77 86ba 6b49 033d
00000050: 88c7 91bd 0574 09be 622f 41be 932b 95bd
00000060: 3f28 d63d 8c55 a2bd ca26 dd3d e872 233e
00000070: 58bb 0e3e a890 213d 676f 80bd 5d50 293e
00000080: 2227 a83d 9781 c8bd ed71 89bd a42e be3d
00000090: e879 903e fac4 8d3e 7313 dbbd 7074 87be
000000a0: 0384 31be 164d b9be 3436 073e 348a 1f3e
000000b0: c81c f13d aa72 58bd 273d 9cbe cba9 683e
000000c0: 02f9 073d 4d38 13bd 9afc 863b d657 96bd
000000d0: 7308 063e 3a64 57be fbb4 9b3d 7fd1 493e
000000e0: 1f33 42be e144 073e 8b48 1cbe 6efc 683e
000000f0: d139 ff3d 16a7 51be 2e6e 163e 411b d4bd

out_value.weight f4 [1, 64]
0.11766491 0.13954909 -0.011522883 -0.07093928 -0.03830726 -0.011081244 -0.006868578 0.2865301
-0.06655733 0.10494884 -0.18675555 0.13334017 0.33486873 0.08752232 0.026310397 -0.27497357
-0.030024363 0.1385869 0.00672698 0.04102105 0.12643535 0.21569951 0.28332737 -0.062857285
0.16087225 -0.31224996 -0.054640472 -0.250014 0.13721433 -0.3381749 0.2438006 -0.073351204
-0.0050944146 0.025249226 0.19782066 0.1969994 0.11372264 -0.27594516 0.0933607 0.022508748
-0.06816946 0.26953617 0.0925091 0.12234156 -0.07631875 0.05896901 0.16822994 0.24229456
0.1480327 -0.1478097 0.099319845 0.049358554 0.19494481 0.18387525 -0.1016706 -0.034048233
0.06037242 0.067523055 -0.34436336 -0.088046975 -0.06438794 0.10751754 -0.052879687 -0.09385248
00000000: 4dfa f03d f5e5 0e3e 79ca 3cbc 9d48 91bd
00000010: 13e8 1cbd 1b8e 35bc cf11 e1bb 13b4 923e
00000020: 364f 88bd 6bef d63d d93c 3fbe 538a 083e
00000030: ea73 ab3e e73e b33d e788 d73c 56c9 8cbe
00000040: a7f5 f5bc b9e9 0d3e 006e dc3b b005 283d
00000050: 4578 013e 55e0 5c3e 4910 913e 52bb 80bd
00000060: b2bb 243e 3adf 9fbe b0ce 5fbd d601 80be
00000070: ea81 0c3e 4325 adbe dda6 793e 2839 96bd
00000080: 0cef a6bb 77d7 ce3c 8091 4a3e 36ba 493e
00000090: 6ae7 e83d af48 8dbe e533 bf3d 4464 b83c
000000a0: 6e9c 8bbd a500 8a3e 6975 bd3d 368e fa3d
000000b0: 014d 9cbd 7d89 713d 7844 2c3e 111c 783e
000000c0: e295 173e 6d5b 17be 3468 cb3d 322c 4a3d
000000d0: 9d9f 473e cb49 3c3e ad38 d0bd 2976 0bbd
000000e0: 1249 773d 8749 8a3d 6550 b0be f951 b4bd
000000f0: d3dd 83bd 2832 dc3d 5f98 58bd bb35 c0bd
