ppo_algorithm/data/Qube-v0_2019-03-14_15-00-28/checkpoint/save_file.pt (torch_old, 76693 bytes, 24 tensors)

net.0.weight f4 [64, 6]
-0.32018542 -0.048215985 -0.29596472 -0.41477606 0.619954 0.019738784 0.19128561 0.31271848
0.23892352 -0.51630735 0.2523413 -0.28984407 -0.14701271 -0.27897644 0.036106925 0.66250247
-0.09169334 -0.23519461 0.2696521 -0.10045559 -0.079716206 0.05179619 0.043127682 0.43022886
0.0580834 -0.0150111625 0.068872504 0.3260722 -0.2845042 -0.1623026 -0.09761368 -0.1303807
0.14642285 0.50197846 0.00764164 0.53011596 0.11888354 -0.32011428 -0.041005872 -0.48079145
-0.13979882 -0.09610049 -0.14288977 -0.094103634 -0.14862868 -0.29829338 0.46861356 -0.13984151
-0.20630497 -0.489996 0.49040082 -0.31715208 0.027724909 0.04457535 -0.12277424 -0.034246303
-0.3478544 0.07329995 0.28213438 0.094699115 0.23972185 -0.06723384 0.04948423 0.32082707
-0.0426155 -0.48447332 -0.2525609 0.05575656 -0.0027018331 -0.7228443 0.31615314 -0.17515162
-0.3515064 -0.25122657 -0.06244645 1.0873141 -0.003691782 0.002992351 0.022688944 0.1581398
0.12151014 -0.4079772 0.02381942 -0.5871981 -0.025537925 -0.1977068 0.059175298 -0.997291
0.09953302 -0.03625839 -0.107721254 0.16178082 0.11484043 0.27338564 0.016383637 0.3923056
0.19314648 -0.040360205 0.33257273 0.006105855 0.30951697 0.26242504 0.13971522 -0.6721855
-0.19079685 0.49273753 -0.18331398 0.2380695 0.06204561 -0.058988996 0.14090167 0.6802823
-0.22947381 -0.30125204 0.016265187 0.06266339 -0.03559303 -0.10303562 0.11380001 -0.047782667
0.27881998 -0.18888284 0.11481222 -0.52548397 0.11971536 -0.09351809 -0.1018191 -0.01451155
0.28026888 -0.4376057 0.013851245 0.1153847 0.026177922 0.28090578 0.19759642 0.8483797
-0.16071786 -0.1385906 -0.16332565 -0.21718383 -0.19539604 -0.07391581 -0.047240984 0.26565862
0.34557068 0.20678666 -0.23890069 -0.020040357 -0.21389638 -0.13736412 0.073993035 -0.48943084
-0.1630446 0.9002585 -0.16370326 0.21186784 -0.111058876 0.32659054 0.21316765 0.21781999
-0.26582456 -0.062677436 -0.12103382 -0.36811173 -0.062452942 0.82823694 -0.2154624 0.28270677
0.03294124 -0.6240656 -0.22146116 -0.07482875 -0.09286799 0.06801475 -0.3079653 -0.34745136
0.11832852 -0.4724094 0.10387763 0.03637998 -0.015156572 0.35811016 -0.47029087 -0.20147634
0.21039355 0.25194296 -0.20457333 0.1791019 -0.22157484 0.32855803 0.34604594 0.07333527
-0.016950963 -0.2583409 -0.4338897 -0.02015838 0.460231 -0.08345562 -0.17705384 -0.016315185
0.21214342 0.027521815 0.036468875 -0.7626185 0.21288492 0.24200685 0.11588104 -0.5167999
0.12813523 0.15196915 0.5638905 -0.2737138 0.35976693 -0.1779839 -0.018579967 -0.05149377
-0.3484262 0.32336676 0.07007709 -0.25916412 -0.26462436 -0.2221287 0.13750488 -0.03266147
0.011017158 0.0009036479 0.07740485 0.5823485 0.22387818 0.1977664 -0.22918065 0.37928396
0.23138382 0.09371357 -0.15042539 -0.48922607 -0.48619807 -0.3724544 0.19737606 0.020412402
0.24676943 0.27789268 0.14763391 -0.050770067 0.1277553 0.22489491 0.20803472 0.09659365
0.2634295 0.1127878 -0.37863365 -0.029544706 0.30259573 0.021142617 -0.12332023 0.44064
00000000: 58ef a3be 207e 45bd b088 97be 875d d4be
00000010: 4eb5 1e3f 3bb3 a13c 60e0 433e a31c a03e
00000020: 5ea8 743e b82c 04bf e132 813e 7166 94be
00000030: 808a 16be 00d6 8ebe dbe4 133d c399 293f
00000040: b8c9 bbbd dbd6 70be d70f 8a3e a9bb cdbd
00000050: 4042 a3bd 3e28 543d a7a6 303d f546 dc3e
00000060: dce8 6d3d 61f1 75bc 070d 8d3d eff2 a63e
00000070: 89aa 91be a732 26be aee9 c7bd 8582 05be
00000080: dfef 153e a981 003f b966 fa3b aeb5 073f
00000090: 3779 f33d 05e6 a3be c6f5 27bd 4c2a f6be
000000a0: 6c27 0fbe 55d0 c4bd b251 12be 68b9 c0bd
000000b0: 1e32 18be e9b9 98be 1eee ef3e 9d32 0fbe
000000c0: 9c41 53be c1e0 fabe d115 fb3e c261 a2be
000000d0: 591f e33c a494 363d 1071 fbbd da45 0cbd
000000e0: f919 b2be 491e 963d eb73 903e 9cf1 c13d
000000f0: a579 753e e5b1 89bd faaf 4a3d 7243 a43e
00000100: 978d 2ebd e30c f8be aa4f 81be fe60 643d
00000110: 3d11 31bb 530c 39bf d3de a13e f25a 33be
00000120: a6f8 b3be c5a0 80be d9c7 7fbd 1c2d 8b3f
00000130: d3f1 71bb 521b 443b 2ade b93c 66ef 213e
00000140: 4fda f83d 63e2 d0be f220 c33c 9d52 16bf
00000150: e934 d1bc a773 4abe cc61 723d 774e 7fbf
00000160: f8d7 cb3d ad83 14bd f69c dcbd dfa9 253e
00000170: 7631 eb3d 34f9 8b3e fa36 863c 48dc c83e
00000180: 31c8 453e be50 25bd f946 aa3e a013 c83b
00000190: 0279 9e3e 935c 863e 8211 0f3e 5914 2cbf
000001a0: 4060 43be 1848 fc3e a9b6 3bbe 7ec8 733e
000001b0: 8a23 7e3d 729e 71bd 8748 103e fb26 2e3f
000001c0: 2ffb 6abe b53d 9abe 923e 853c aa55 803d
000001d0: ffc9 11bd 5704 d3bd fb0f e93d c2b7 43bd
000001e0: 7ec1 8e3e 816a 41be ab22 eb3d 1e86 06bf
000001f0: 542d f53d 6a86 bfbd 8886 d0bd dac1 6dbc
00000200: 677f 8f3e db0d e0be 55f0 623c d04e ec3d
00000210: 1573 d63c e2d2 8f3e b756 4a3e 692f 593f
00000220: 3993 24be b2ea 0dbe d73e 27be 7065 5ebe
00000230: e615 48be 2c61 97bd c37f 41bd 6804 883e
00000240: a4ee b03e e2bf 533e 62a2 74be ad2b a4bc
00000250: a707 5bbe 2ea9 0cbe a989 973d ae96 fabe
00000260: 2af5 26be 5777 663f d4a1 27be e2f3 583e
00000270: d672 e3bd e036 a73e 9f48 5a3e 340c 5f3e
00000280: 281a 88be 075d 80bd 94e0 f7bd 2479 bcbe
00000290: a8ce 7fbd 5607 543f 2da2 5cbe f1be 903e
000002a0: 65ed 063d c3c2 1fbf b7c6 62be d13f 99bd
000002b0: 9331 bebd 514b 8b3d a1ad 9dbe 25e5 b1be
000002c0: 3956 f23d a5df f1be cbbd d43d 2d03 153d
000002d0: 4553 78bc 375a b73e f7c9 f0be d04f 4ebe
000002e0: 6871 573e abfe 803e ac7b 51be 7d66 373e
000002f0: 84e4 62be c238 a83e ef2c b13e cd30 963d
00000300: bfdc 8abc 4245 84be ca26 debe 3023 a5bc
00000310: 66a3 eb3e c8ea aabd 9a4d 35be 6ca7 85bc
00000320: 203c 593e 6e75 e13c 6360 153d f73a 43bf
00000330: 81fe 593e a5d0 773e 0a53 ed3d 004d 04bf
00000340: e235 033e cd9d 1b3e 215b 103f 3724 8cbe
00000350: 5f33 b83e 6941 36be 0435 98bc 22eb 52bd
00000360: eb64 b2be 5490 a53e 9484 8f3d 29b1 84be
00000370: d87c 87be b575 63be 14ce 0c3e 09c8 05bd
00000380: 4f81 343c c9e2 6c3a 6f86 9e3d cb14 153f
00000390: 5240 653e 4683 4a3e 55ae 6abe 8231 c23e
000003a0: e1ef 6c3e e6ec bf3d 1d09 1abe d77b fabe
000003b0: f4ee f8be 58b2 bebe f31c 4a3e e937 a73c
000003c0: 20b1 7c3e f347 8e3e 582d 173e 46f4 4fbd
000003d0: 49d2 023e da4a 663e 0e07 553e e4d2 c53d
000003e0: 3be0 863e 4afd e63d 45dc c1be bd07 f2bc
000003f0: d4ed 9a3e 4833 ad3c 518f fcbd 919b e13e

net.0.bias f4 [64]
-0.14571589 0.03366889 -0.13488996 0.15123256 0.22664489 -0.034683634 0.014223226 -0.09785266
-0.024835411 -0.20991814 -0.099568225 -0.011390537 -0.029663501 -0.008419315 -0.034689937 0.14355166
-0.096210584 0.041320503 -0.11481565 -0.026644258 0.0071868873 -0.057347216 0.047917057 0.18956783
0.11215072 -0.059034992 0.1178592 0.015066502 -0.040277116 -0.22619751 -0.12717398 -0.06492716
-0.21010804 -0.29244307 -0.0029711383 0.14940894 0.0349981 0.25826943 -0.05757109 -0.059874102
0.09976279 0.2473151 -0.3125974 -0.10548809 0.0044666934 0.28257385 -0.017053176 -0.020694718
-0.15603837 0.1520343 -0.26425076 0.036133762 -0.08449495 0.14222842 -0.040260162 -0.041592922
0.35205695 0.08208342 -0.14035909 -0.051635843 -0.113692306 -0.12270708 0.08443663 0.14579324
00000000: 8c36 15be 64e8 093d 9820 0abe b5dc 1a3e
00000010: 9915 683e 6d10 0ebd 8908 693c fa66 c8bd
00000020: a273 cbbc c8f4 56be 6dea cbbd 609f 3abc
00000030: df00 f3bc 2bf1 09bc 0917 0ebd 35ff 123e
00000040: 0e0a c5bd b03f 293d 7824 ebbd 0f45 dabc
00000050: fb7f eb3b eae4 6abd ad44 443d 121e 423e
00000060: 47af e53d adce 71bd 2a60 f13d 7dd9 763c
00000070: 9ef9 24bd 52a0 67be e539 02be 88f8 84bd
00000080: 9026 57be 19bb 95be 6eb7 42bb a8fe 183e
00000090: 2b5a 0f3d e43b 843e aacf 6bbd 8c3e 75bd
000000a0: 6f50 cc3d 2b40 7d3e c40c a0be 240a d8bd
000000b0: 575d 923b 85ad 903e 1ab3 8bbc f887 a9bc
000000c0: 86c8 1fbe e1ae 1b3e e04b 87be ff00 143d
000000d0: b00b adbd 54a4 113e d7e7 24bd 575d 2abd
000000e0: cf40 b43e 5a1b a83d 4bba 0fbe 1b80 53bd
000000f0: 83d7 e8bd d94d fbbd 1ded ac3d d34a 153e

net.2.weight f4 [64, 64]
-0.3117509 -0.08331291 -0.05448902 -0.0863587 -0.055779956 -0.03522268 0.23732696 -0.14496426
-0.051130682 -0.07741344 0.011395712 -0.17572609 -0.10680234 -0.16856836 -0.16615565 -0.10851158
-0.09287933 0.18080337 -0.11607206 -0.30705297 -0.30627623 0.3324627 0.07144972 -0.012010009
-0.10375323 0.09991597 0.2372962 0.12605326 0.21508355 0.10602786 -0.06472076 -0.13936421
-0.30643144 -0.011571435 -0.013212287 -0.2628893 0.1521702 0.07517528 -0.18261763 -0.06906123
-0.016274119 0.25459388 -0.15022083 -0.34902236 0.29850498 0.0025569554 0.060961463 0.047100935
-0.12321672 0.34377557 -0.1816941 0.15042917 0.31145447 -0.014165201 -0.0061925445 0.13708963
0.033567175 0.34760508 -0.033418886 0.14810196 0.031603575 -0.25931853 0.15976655 -0.029672815
-0.09241708 0.10767346 0.0539682 0.0877551 0.022549698 0.2231918 -0.15920451 0.03609987
-0.19457425 0.14208867 0.13646515 0.02864571 0.22905041 -0.119627215 0.091350526 -0.04032803
0.09387957 -0.31456912 -0.12922843 0.25738227 0.052954264 -0.10411576 -0.06669576 -0.048197683
-0.06700349 -0.04504188 -0.1900335 -0.06907856 -0.17776467 0.26649585 0.23824164 0.06625682
-0.08847866 -0.026043896 -0.020678196 -0.19060028 0.016852675 0.069157034 -0.05751521 0.07598818
-0.18434104 0.1386308 0.10546978 0.3344172 0.075309075 0.027049545 -0.22009613 0.15904967
0.09880177 0.09086807 -0.1917395 0.031372804 0.2498655 -0.110176586 -0.08690374 0.05025349
0.078851275 -0.012469497 0.26127842 -0.0699856 -0.19299634 0.22977865 -0.18611018 0.15753095
-0.1431293 -0.25394073 0.06597118 -0.037905198 -0.21418661 0.07781088 0.30756006 -0.033113707
-0.2166698 0.28049746 -0.1468084 0.03307031 0.09709008 -0.09566542 0.08417221 0.12889996
0.19059308 0.24395688 0.028131664 -0.07767911 -0.35248002 0.01428536 -0.17192425 0.40741336
0.02817833 0.30009148 -0.07017027 0.37587744 0.45276934 0.009007808 0.28226495 -0.2503524
-0.13396436 -0.1483001 -0.031014623 -0.07837445 -0.113279335 0.16542843 0.08392872 0.07723087
-0.004830991 0.17463298 -0.06995312 -0.17030063 0.086757526 0.25950107 -0.07340427 -0.15358323
-0.20276867 0.072958924 0.019514902 0.2990909 -0.06938103 0.017942924 -0.11568571 -0.18508539
0.24790208 0.096150994 -0.16056083 0.45281282 0.57903975 0.075272076 0.00037655322 0.24507034
-0.17812033 -0.044213858 -0.11833919 0.4713613 -0.12782821 0.21721435 -0.07549716 -0.14695436
0.16288723 0.1402212 -0.090228096 -0.14488725 0.32036978 -0.44946232 -0.2973262 0.52242166
0.21799083 -0.14844957 0.056154866 -0.101068296 -0.13840754 -0.008613667 0.19542399 0.13685289
0.06146171 0.09918753 -0.019292763 -0.13070062 -0.08184682 0.21196699 0.2567875 -0.13550857
0.08289571 -0.38842624 -0.07992238 0.0713367 -0.26717997 0.4738656 0.042149447 0.19490795
0.1987233 0.013996712 -0.26398423 0.118896864 0.13761197 0.6255874 0.03578334 0.03929181
0.046227284 -0.13583133 -0.16963412 0.03679236 0.060115654 -0.06271194 0.0689575 0.11041713
0.6861962 -0.103859015 0.0876488 -0.007994975 -0.045324214 -0.032532733 0.11250464 0.44261634
00000000: d09d 9fbe f59f aabd e12f 5fbd d5dc b0bd
00000010: 8679 64bd a845 10bd d705 733e 8371 14be
00000020: 686e 51bd f08a 9ebd 15b5 3a3c 8af1 33be
00000030: 2fbb dabd 2f9d 2cbe b524 2abe 523b debd
00000040: 8537 bebd 8524 393e 30b7 edbd 0c36 9dbe
00000050: 3dd0 9cbe 8d38 aa3e 3b54 923d a1c5 44bc
00000060: 937c d4bd bea0 cc3d c6fd 723e 1b14 013e
00000070: dd3e 5c3e 2225 d93d 518c 84bd 7eb5 0ebe
00000080: 95e4 9cbe 1e96 3dbc 5978 58bc 6d99 86be
00000090: 81d2 1b3e 7ff5 993d 1e00 3bbe f96f 8dbd
000000a0: 4d51 85bc 215a 823e 7dd3 19be 0fb3 b2be
000000b0: a5d5 983e 9892 273b bab2 793d e9ec 403d
000000c0: 0c59 fcbd 5a03 b03e 050e 3abe 1b0a 1a3e
000000d0: f676 9f3e 2915 68bc d4ea cabb 3961 0c3e
000000e0: bc7d 093d 4bf9 b13e 3ee2 08bd 0aa8 173e
000000f0: c072 013d 66c5 84be d899 233e 6714 f3bc
00000100: 2b45 bdbd e783 dc3d c20d 5d3d f2b8 b33d
00000110: 25ba b83c 648c 643e 8206 23be 75dd 133d
00000120: 793e 47be b17f 113e 85bd 0b3e 68aa ea3c
00000130: 318c 6a3e 1dff f4bd fc15 bb3d 012f 25bd
00000140: ef43 c03d 340f a1be 7554 04be 9cc7 833e
00000150: 92e6 583d a53a d5bd c997 88bd ef6a 45bd
00000160: 2039 89bd d67d 38bd 2498 42be 0f79 8dbd
00000170: f107 36be 2572 883e 9ef5 733e a8b1 873d
00000180: 4d34 b5bd 025a d5bc 5265 a9bc b82c 43be
00000190: 9f0e 8a3c 34a2 8d3d 1295 6bbd b19f 9b3d
000001a0: e6c3 3cbe 3cf5 0d3e 8a00 d83d bb38 ab3e
000001b0: a53b 9a3d 0297 dd3c e160 61be ebdd 223e
000001c0: 9558 ca3d 0a19 ba3d 5c57 44be c580 003d
000001d0: bedc 7f3e 43a4 e1bd 97fa b1bd 9bd6 4d3d
000001e0: c77c a13d dc4c 4cbc 49c6 853e 9c54 8fbd
000001f0: d5a0 45be 184b 6b3e ab93 3ebe cb4f 213e
00000200: 7d90 12be 8504 82be e61b 873d 7b42 1bbd
00000210: bc53 5bbe 505b 9f3d 8378 9d3e 3da2 07bd
00000220: b0de 5dbe 5d9d 8f3e f154 16be bc74 073d
00000230: 2ad7 c63d 3bec c3bd 7b62 ac3d 5afe 033e
00000240: d52a 433e d5cf 793e 6074 e63c 3a16 9fbd
00000250: 4378 b4be 250d 6a3c e90c 30be 7c98 d03e
00000260: 3ed6 e63c 97a5 993e 6eb5 8fbd 0273 c03e
00000270: 62d1 e73e 7c95 133c 0885 903e 312e 80be
00000280: f42d 09be fbdb 17be 6112 febc c982 a0bd
00000290: fffe e7bd 1266 293e d2e2 ab3d 382b 9e3d
000002a0: 4a4d 9ebb fdd2 323e 9543 8fbd 4a63 2ebe
000002b0: eead b13d 53dd 843e fa54 96bd ec44 1dbe
000002c0: 97a2 4fbe 7d6b 953d b7dd 9f3c 7122 993e
000002d0: a417 8ebd 0afd 923c a1ec ecbd 0687 3dbe
000002e0: 0bda 7d3e d0ea c43d 0f6a 24be 15d7 e73e
000002f0: f33b 143f 3f28 9a3d 1e6c c539 b8f3 7a3e
00000300: 2d65 36be 9719 35bd d15b f2bd 4556 f13e
00000310: 66e5 02be 706d 5e3e 419e 9abd 347b 16be
00000320: e9cb 263e 2596 0f3e 82c9 b8bd 535d 14be
00000330: 8207 a43e ed1f e6be 243b 98be 6dbd 053f
00000340: fd38 5f3e 2a03 18be a502 663d e5fc cebd
00000350: b5ba 0dbe 5720 0dbc 3a1d 483e 2a23 0c3e
00000360: 46bf 7b3d d522 cb3d db0b 9ebc 62d6 05be
00000370: 4e9f a7bd e00d 593e a779 833e c2c2 0abe
00000380: 3ac5 a93d cedf c6be 58ae a3bd fa18 923d
00000390: d0cb 88be 839e f23e e6a4 2c3d f395 473e
000003a0: 1f7e 4b3e 7752 653c f128 87be 3380 f33d
000003b0: 27ea 0c3e 7f26 203f 8d91 123d 73f0 203d
000003c0: d258 3d3d 5e17 0bbe 91b4 2dbe 96b3 163d
000003d0: d53b 763d 1e6f 80bd 9739 8d3d 6022 e23d
000003e0: 8eaa 2f3f 09b4 d4bd 3781 b33d 5bfd 02bc
000003f0: e2a5 39bd 0b41 05bd d568 e63d 9c9e e23e

net.2.bias f4 [64]
0.18174829 -0.0557892 -0.11967135 0.066367015 0.27823237 0.2670932 0.24939284 -0.12390984
-0.05206675 0.3747007 0.06213531 -0.12903292 0.053596433 0.3049112 -0.03466524 -0.06539491
0.006800512 0.13578403 0.1416214 0.16915208 -0.32957143 0.08224431 0.17686743 0.14175895
-0.053185724 0.020821674 0.19371577 -0.43698087 0.07835343 -0.027989252 -0.18536758 0.09165654
0.11044592 0.14614074 -0.32196638 0.040345136 0.05624799 0.07090969 0.13734704 0.038733847
-0.16507286 -0.24667676 -0.07484922 -0.056610156 0.2925622 0.21620308 0.3827678 -0.16028
-0.18670805 0.09500548 -0.06304726 -0.12790245 -0.11502548 0.13939969 0.17670514 0.3751076
-0.024272291 -0.027466724 -0.2727709 -0.23138274 0.279471 -0.07130364 0.048566405 0.181691
00000000: 391c 3a3e 3783 64bd 4116 f5bd 6eeb 873d
00000010: 7974 8e3e 71c0 883e d660 7f3e 71c4 fdbd
00000020: f243 55bd c5d8 bf3e 9881 7e3d 3521 04be
00000030: ef87 5b3d 521d 9c3e 24fd 0dbd c4ed 85bd
00000040: d4d6 de3b f80a 0b3e 3305 113e 3436 2d3e
00000050: 96bd a8be b46f a83d bc1c 353e 4229 113e
00000060: 46d9 59bd 3792 aa3c 6d5d 463e f5bb dfbe
00000070: c377 a03d b749 e5bc 00d1 3dbe 6db6 bb3d
00000080: 7831 e23d eba5 153e c7d8 a4be f140 253d
00000090: 4b64 663d 1939 913d b4a4 0c3e 62a7 1e3d
000000a0: dc08 29be d598 7cbe 8c4a 99bd 0de0 67bd
000000b0: b6ca 953e 5764 5d3e 24fa c33e 7120 24be
000000c0: 6530 3fbe 3c92 c23d ec1e 81bd dcf8 02be
000000d0: 7b92 ebbd cbbe 0e3e 31f2 343e 1a0e c03e
000000e0: afd6 c6bc e501 e1bc a1a8 8bbe 99ef 6cbe
000000f0: d316 8f3e a507 92bd 91ed 463d 350d 3a3e

out_mean.weight f4 [1, 64]
-0.10241829 0.002141658 -0.19253494 0.2192623 -0.028969219 -0.05840813 -0.090677395 0.0013222075
0.052082118 -0.08874458 -0.22599359 -0.004089661 0.14671753 -0.23233688 -0.19844653 -0.120024554
-0.009441972 -0.0014808237 -0.07577781 0.08496714 0.043912023 0.23500884 0.050671965 -0.016436765
0.43223062 0.1301553 0.016834753 0.041530006 0.31014654 -0.0009726692 0.48501387 0.1739027
-0.35038522 -0.0013006654 0.09772565 0.010437369 -0.15100572 0.49189356 0.11618392 -0.13315715
-0.010022579 0.114843085 0.06812233 0.0771989 -0.25893727 0.16785948 -0.03429395 0.026404716
0.1717984 -0.14115243 -0.11981198 -0.007810082 0.22851738 0.1952856 0.32285613 -0.14150059
-0.16329223 0.032974005 -0.0010710742 0.06297972 -0.3901397 0.093119495 -0.34477025 -0.0029437714
00000000: aec0 d1bd 0f5b 0c3b e127 45be 4c86 603e
00000010: db50 edbc 5d3d 6fbd 12b5 b9bd ec4d ad3a
00000020: 0f54 553d b8bf b5bd dd6a 67be 9002 86bb
00000030: 1f3d 163e b8e9 6dbe 9135 4bbe 6fcf f5bd
00000040: 80b2 1abc 3318 c2ba 6531 9bbd 4003 ae3d
00000050: 18dd 333d 28a6 703e 688d 4f3d 65a6 86bc
00000060: 554d dd3e 6e47 053e 09e9 893c 5e1b 2a3d
00000070: 87cb 9e3e bafa 7eba bd53 f83e 8d13 323e
00000080: b165 b3be 177b aaba 6324 c83d 8001 2b3c
00000090: 3ea1 1abe 79d9 fb3e d6f1 ed3d 595a 08be
000000a0: be35 24bc da32 eb3d b883 8b3d 751a 9e3d
000000b0: 6d93 84be 5be3 2b3e d077 0cbd b44e d83c
000000c0: ebeb 2f3e 438a 10be fc5f f5bd b7eb ffbb
000000d0: 7600 6a3e f3f8 473e 664d a53e 88e5 10be
000000e0: 1436 27be c00f 073d 4963 8cba 83fb 803d
000000f0: 64c0 c7be 6fb5 be3d ba85 b0be 4aec 40bb

out_value.weight f4 [1, 64]
-0.00076196593 0.013958719 0.017736156 -0.11921273 0.0003767393 -0.010386326 -0.008065182 -0.009520245
0.008168565 0.10247739 -0.0034428232 0.0093019195 0.0778491 0.039928757 -0.24972323 -0.0013024383
-0.022951445 -0.010731027 0.0057494687 -0.004335892 -0.017660256 -0.00036359776 0.15349612 0.011026002
-0.031042147 -0.16865906 -0.002785382 0.012378166 0.07342032 -0.008442064 -0.0061671534 -0.23011386
0.017500622 -0.16740832 -0.026885353 0.081044964 0.019662559 -0.0016041829 0.008688807 0.0940945
-0.008116151 0.00449063 -0.0011947249 0.00062722946 -0.035816617 0.0017622194 0.010510015 0.0012059833
0.0012017236 0.0017343505 -0.09575996 0.0052381945 -0.0063432297 -0.0007144186 0.00878336 -0.12727568
-0.001898552 0.15128292 -0.008582013 0.002169237 -0.0027032963 -0.0026859036 -0.0018765754 -0.004302044
00000000: abbe 47ba 1cb3 643c 6a4b 913c ce25 f4bd
00000010: 1885 c539 692b 2abc d323 04bc cdfa 1bbc
00000020: 72d5 053c aadf d13d fda0 61bb 1467 183c
00000030: 596f 9f3d 568c 233d 72b7 7fbe 94b6 aaba
00000040: ab04 bcbc 31d1 2fbc 0a66 bc3b 1914 8ebb
00000050: 3eac 90bc 44a1 beb9 162e 1d3e 67a6 343c
00000060: 1a4c febc f6b4 2cbe f58a 36bb cbcd 4a3c
00000070: 655d 963d 9550 0abc d515 cabb f8a2 6bbe
00000080: 775d 8f3c 166d 2bbe ac3e dcbc e7fa a53d
00000090: 6013 a13c 7243 d2ba 7f5b 0e3c 9eb4 c03d
000000a0: 9bf9 04bc 2226 933b 5198 9cba a86c 243a
000000b0: 72b4 12bd 45fa e63a 3332 2c3c 1612 9e3a
000000c0: 2783 9d3a 2553 e33a cc1d c4bd 29a5 ab3b
000000d0: deda cfbb d247 3bba 15e8 0f3c 8e54 02be
000000e0: d5d8 f8ba e9e9 1a3e 929b 0cbc c229 0e3b
000000f0: c929 31bb fc05 30bb 6cf7 f5ba 29f8 8cbb

weight f4 [64, 6]
-0.32018542 -0.048215985 -0.29596472 -0.41477606 0.619954 0.019738784 0.19128561 0.31271848
0.23892352 -0.51630735 0.2523413 -0.28984407 -0.14701271 -0.27897644 0.036106925 0.66250247
-0.09169334 -0.23519461 0.2696521 -0.10045559 -0.079716206 0.05179619 0.043127682 0.43022886
0.0580834 -0.0150111625 0.068872504 0.3260722 -0.2845042 -0.1623026 -0.09761368 -0.1303807
0.14642285 0.50197846 0.00764164 0.53011596 0.11888354 -0.32011428 -0.041005872 -0.48079145
-0.13979882 -0.09610049 -0.14288977 -0.094103634 -0.14862868 -0.29829338 0.46861356 -0.13984151
-0.20630497 -0.489996 0.49040082 -0.31715208 0.027724909 0.04457535 -0.12277424 -0.034246303
-0.3478544 0.07329995 0.28213438 0.094699115 0.23972185 -0.06723384 0.04948423 0.32082707
-0.0426155 -0.48447332 -0.2525609 0.05575656 -0.0027018331 -0.7228443 0.31615314 -0.17515162
-0.3515064 -0.25122657 -0.06244645 1.0873141 -0.003691782 0.002992351 0.022688944 0.1581398
0.12151014 -0.4079772 0.02381942 -0.5871981 -0.025537925 -0.1977068 0.059175298 -0.997291
0.09953302 -0.03625839 -0.107721254 0.16178082 0.11484043 0.27338564 0.016383637 0.3923056
0.19314648 -0.040360205 0.33257273 0.006105855 0.30951697 0.26242504 0.13971522 -0.6721855
-0.19079685 0.49273753 -0.18331398 0.2380695 0.06204561 -0.058988996 0.14090167 0.6802823
-0.22947381 -0.30125204 0.016265187 0.06266339 -0.03559303 -0.10303562 0.11380001 -0.047782667
0.27881998 -0.18888284 0.11481222 -0.52548397 0.11971536 -0.09351809 -0.1018191 -0.01451155
0.28026888 -0.4376057 0.013851245 0.1153847 0.026177922 0.28090578 0.19759642 0.8483797
-0.16071786 -0.1385906 -0.16332565 -0.21718383 -0.19539604 -0.07391581 -0.047240984 0.26565862
0.34557068 0.20678666 -0.23890069 -0.020040357 -0.21389638 -0.13736412 0.073993035 -0.48943084
-0.1630446 0.9002585 -0.16370326 0.21186784 -0.111058876 0.32659054 0.21316765 0.21781999
-0.26582456 -0.062677436 -0.12103382 -0.36811173 -0.062452942 0.82823694 -0.2154624 0.28270677
0.03294124 -0.6240656 -0.22146116 -0.07482875 -0.09286799 0.06801475 -0.3079653 -0.34745136
0.11832852 -0.4724094 0.10387763 0.03637998 -0.015156572 0.35811016 -0.47029087 -0.20147634
0.21039355 0.25194296 -0.20457333 0.1791019 -0.22157484 0.32855803 0.34604594 0.07333527
-0.016950963 -0.2583409 -0.4338897 -0.02015838 0.460231 -0.08345562 -0.17705384 -0.016315185
0.21214342 0.027521815 0.036468875 -0.7626185 0.21288492 0.24200685 0.11588104 -0.5167999
0.12813523 0.15196915 0.5638905 -0.2737138 0.35976693 -0.1779839 -0.018579967 -0.05149377
-0.3484262 0.32336676 0.07007709 -0.25916412 -0.26462436 -0.2221287 0.13750488 -0.03266147
0.011017158 0.0009036479 0.07740485 0.5823485 0.22387818 0.1977664 -0.22918065 0.37928396
0.23138382 0.09371357 -0.15042539 -0.48922607 -0.48619807 -0.3724544 0.19737606 0.020412402
0.24676943 0.27789268 0.14763391 -0.050770067 0.1277553 0.22489491 0.20803472 0.09659365
0.2634295 0.1127878 -0.37863365 -0.029544706 0.30259573 0.021142617 -0.12332023 0.44064
00000000: 58ef a3be 207e 45bd b088 97be 875d d4be
00000010: 4eb5 1e3f 3bb3 a13c 60e0 433e a31c a03e
00000020: 5ea8 743e b82c 04bf e132 813e 7166 94be
00000030: 808a 16be 00d6 8ebe dbe4 133d c399 293f
00000040: b8c9 bbbd dbd6 70be d70f 8a3e a9bb cdbd
00000050: 4042 a3bd 3e28 543d a7a6 303d f546 dc3e
00000060: dce8 6d3d 61f1 75bc 070d 8d3d eff2 a63e
00000070: 89aa 91be a732 26be aee9 c7bd 8582 05be
00000080: dfef 153e a981 003f b966 fa3b aeb5 073f
00000090: 3779 f33d 05e6 a3be c6f5 27bd 4c2a f6be
000000a0: 6c27 0fbe 55d0 c4bd b251 12be 68b9 c0bd
000000b0: 1e32 18be e9b9 98be 1eee ef3e 9d32 0fbe
000000c0: 9c41 53be c1e0 fabe d115 fb3e c261 a2be
000000d0: 591f e33c a494 363d 1071 fbbd da45 0cbd
000000e0: f919 b2be 491e 963d eb73 903e 9cf1 c13d
000000f0: a579 753e e5b1 89bd faaf 4a3d 7243 a43e
00000100: 978d 2ebd e30c f8be aa4f 81be fe60 643d
00000110: 3d11 31bb 530c 39bf d3de a13e f25a 33be
00000120: a6f8 b3be c5a0 80be d9c7 7fbd 1c2d 8b3f
00000130: d3f1 71bb 521b 443b 2ade b93c 66ef 213e
00000140: 4fda f83d 63e2 d0be f220 c33c 9d52 16bf
00000150: e934 d1bc a773 4abe cc61 723d 774e 7fbf
00000160: f8d7 cb3d ad83 14bd f69c dcbd dfa9 253e
00000170: 7631 eb3d 34f9 8b3e fa36 863c 48dc c83e
00000180: 31c8 453e be50 25bd f946 aa3e a013 c83b
00000190: 0279 9e3e 935c 863e 8211 0f3e 5914 2cbf
000001a0: 4060 43be 1848 fc3e a9b6 3bbe 7ec8 733e
000001b0: 8a23 7e3d 729e 71bd 8748 103e fb26 2e3f
000001c0: 2ffb 6abe b53d 9abe 923e 853c aa55 803d
000001d0: ffc9 11bd 5704 d3bd fb0f e93d c2b7 43bd
000001e0: 7ec1 8e3e 816a 41be ab22 eb3d 1e86 06bf
000001f0: 542d f53d 6a86 bfbd 8886 d0bd dac1 6dbc
00000200: 677f 8f3e db0d e0be 55f0 623c d04e ec3d
00000210: 1573 d63c e2d2 8f3e b756 4a3e 692f 593f
00000220: 3993 24be b2ea 0dbe d73e 27be 7065 5ebe
00000230: e615 48be 2c61 97bd c37f 41bd 6804 883e
00000240: a4ee b03e e2bf 533e 62a2 74be ad2b a4bc
00000250: a707 5bbe 2ea9 0cbe a989 973d ae96 fabe
00000260: 2af5 26be 5777 663f d4a1 27be e2f3 583e
00000270: d672 e3bd e036 a73e 9f48 5a3e 340c 5f3e
00000280: 281a 88be 075d 80bd 94e0 f7bd 2479 bcbe
00000290: a8ce 7fbd 5607 543f 2da2 5cbe f1be 903e
000002a0: 65ed 063d c3c2 1fbf b7c6 62be d13f 99bd
000002b0: 9331 bebd 514b 8b3d a1ad 9dbe 25e5 b1be
000002c0: 3956 f23d a5df f1be cbbd d43d 2d03 153d
000002d0: 4553 78bc 375a b73e f7c9 f0be d04f 4ebe
000002e0: 6871 573e abfe 803e ac7b 51be 7d66 373e
000002f0: 84e4 62be c238 a83e ef2c b13e cd30 963d
00000300: bfdc 8abc 4245 84be ca26 debe 3023 a5bc
00000310: 66a3 eb3e c8ea aabd 9a4d 35be 6ca7 85bc
00000320: 203c 593e 6e75 e13c 6360 153d f73a 43bf
00000330: 81fe 593e a5d0 773e 0a53 ed3d 004d 04bf
00000340: e235 033e cd9d 1b3e 215b 103f 3724 8cbe
00000350: 5f33 b83e 6941 36be 0435 98bc 22eb 52bd
00000360: eb64 b2be 5490 a53e 9484 8f3d 29b1 84be
00000370: d87c 87be b575 63be 14ce 0c3e 09c8 05bd
00000380: 4f81 343c c9e2 6c3a 6f86 9e3d cb14 153f
00000390: 5240 653e 4683 4a3e 55ae 6abe 8231 c23e
000003a0: e1ef 6c3e e6ec bf3d 1d09 1abe d77b fabe
000003b0: f4ee f8be 58b2 bebe f31c 4a3e e937 a73c
000003c0: 20b1 7c3e f347 8e3e 582d 173e 46f4 4fbd
000003d0: 49d2 023e da4a 663e 0e07 553e e4d2 c53d
000003e0: 3be0 863e 4afd e63d 45dc c1be bd07 f2bc
000003f0: d4ed 9a3e 4833 ad3c 518f fcbd 919b e13e

bias f4 [64]
-0.14571589 0.03366889 -0.13488996 0.15123256 0.22664489 -0.034683634 0.014223226 -0.09785266
-0.024835411 -0.20991814 -0.099568225 -0.011390537 -0.029663501 -0.008419315 -0.034689937 0.14355166
-0.096210584 0.041320503 -0.11481565 -0.026644258 0.0071868873 -0.057347216 0.047917057 0.18956783
0.11215072 -0.059034992 0.1178592 0.015066502 -0.040277116 -0.22619751 -0.12717398 -0.06492716
-0.21010804 -0.29244307 -0.0029711383 0.14940894 0.0349981 0.25826943 -0.05757109 -0.059874102
0.09976279 0.2473151 -0.3125974 -0.10548809 0.0044666934 0.28257385 -0.017053176 -0.020694718
-0.15603837 0.1520343 -0.26425076 0.036133762 -0.08449495 0.14222842 -0.040260162 -0.041592922
0.35205695 0.08208342 -0.14035909 -0.051635843 -0.113692306 -0.12270708 0.08443663 0.14579324
00000000: 8c36 15be 64e8 093d 9820 0abe b5dc 1a3e
00000010: 9915 683e 6d10 0ebd 8908 693c fa66 c8bd
00000020: a273 cbbc c8f4 56be 6dea cbbd 609f 3abc
00000030: df00 f3bc 2bf1 09bc 0917 0ebd 35ff 123e
00000040: 0e0a c5bd b03f 293d 7824 ebbd 0f45 dabc
00000050: fb7f eb3b eae4 6abd ad44 443d 121e 423e
00000060: 47af e53d adce 71bd 2a60 f13d 7dd9 763c
00000070: 9ef9 24bd 52a0 67be e539 02be 88f8 84bd
00000080: 9026 57be 19bb 95be 6eb7 42bb a8fe 183e
00000090: 2b5a 0f3d e43b 843e aacf 6bbd 8c3e 75bd
000000a0: 6f50 cc3d 2b40 7d3e c40c a0be 240a d8bd
000000b0: 575d 923b 85ad 903e 1ab3 8bbc f887 a9bc
000000c0: 86c8 1fbe e1ae 1b3e e04b 87be ff00 143d
000000d0: b00b adbd 54a4 113e d7e7 24bd 575d 2abd
000000e0: cf40 b43e 5a1b a83d 4bba 0fbe 1b80 53bd
000000f0: 83d7 e8bd d94d fbbd 1ded ac3d d34a 153e

weight f4 [64, 64]
-0.3117509 -0.08331291 -0.05448902 -0.0863587 -0.055779956 -0.03522268 0.23732696 -0.14496426
-0.051130682 -0.07741344 0.011395712 -0.17572609 -0.10680234 -0.16856836 -0.16615565 -0.10851158
-0.09287933 0.18080337 -0.11607206 -0.30705297 -0.30627623 0.3324627 0.07144972 -0.012010009
-0.10375323 0.09991597 0.2372962 0.12605326 0.21508355 0.10602786 -0.06472076 -0.13936421
-0.30643144 -0.011571435 -0.013212287 -0.2628893 0.1521702 0.07517528 -0.18261763 -0.06906123
-0.016274119 0.25459388 -0.15022083 -0.34902236 0.29850498 0.0025569554 0.060961463 0.047100935
-0.12321672 0.34377557 -0.1816941 0.15042917 0.31145447 -0.014165201 -0.0061925445 0.13708963
0.033567175 0.34760508 -0.033418886 0.14810196 0.031603575 -0.25931853 0.15976655 -0.029672815
-0.09241708 0.10767346 0.0539682 0.0877551 0.022549698 0.2231918 -0.15920451 0.03609987
-0.19457425 0.14208867 0.13646515 0.02864571 0.22905041 -0.119627215 0.091350526 -0.04032803
0.09387957 -0.31456912 -0.12922843 0.25738227 0.052954264 -0.10411576 -0.06669576 -0.048197683
-0.06700349 -0.04504188 -0.1900335 -0.06907856 -0.17776467 0.26649585 0.23824164 0.06625682
-0.08847866 -0.026043896 -0.020678196 -0.19060028 0.016852675 0.069157034 -0.05751521 0.07598818
-0.18434104 0.1386308 0.10546978 0.3344172 0.075309075 0.027049545 -0.22009613 0.15904967
0.09880177 0.09086807 -0.1917395 0.031372804 0.2498655 -0.110176586 -0.08690374 0.05025349
0.078851275 -0.012469497 0.26127842 -0.0699856 -0.19299634 0.22977865 -0.18611018 0.15753095
-0.1431293 -0.25394073 0.06597118 -0.037905198 -0.21418661 0.07781088 0.30756006 -0.033113707
-0.2166698 0.28049746 -0.1468084 0.03307031 0.09709008 -0.09566542 0.08417221 0.12889996
0.19059308 0.24395688 0.028131664 -0.07767911 -0.35248002 0.01428536 -0.17192425 0.40741336
0.02817833 0.30009148 -0.07017027 0.37587744 0.45276934 0.009007808 0.28226495 -0.2503524
-0.13396436 -0.1483001 -0.031014623 -0.07837445 -0.113279335 0.16542843 0.08392872 0.07723087
-0.004830991 0.17463298 -0.06995312 -0.17030063 0.086757526 0.25950107 -0.07340427 -0.15358323
-0.20276867 0.072958924 0.019514902 0.2990909 -0.06938103 0.017942924 -0.11568571 -0.18508539
0.24790208 0.096150994 -0.16056083 0.45281282 0.57903975 0.075272076 0.00037655322 0.24507034
-0.17812033 -0.044213858 -0.11833919 0.4713613 -0.12782821 0.21721435 -0.07549716 -0.14695436
0.16288723 0.1402212 -0.090228096 -0.14488725 0.32036978 -0.44946232 -0.2973262 0.52242166
0.21799083 -0.14844957 0.056154866 -0.101068296 -0.13840754 -0.008613667 0.19542399 0.13685289
0.06146171 0.09918753 -0.019292763 -0.13070062 -0.08184682 0.21196699 0.2567875 -0.13550857
0.08289571 -0.38842624 -0.07992238 0.0713367 -0.26717997 0.4738656 0.042149447 0.19490795
0.1987233 0.013996712 -0.26398423 0.118896864 0.13761197 0.6255874 0.03578334 0.03929181
0.046227284 -0.13583133 -0.16963412 0.03679236 0.060115654 -0.06271194 0.0689575 0.11041713
0.6861962 -0.103859015 0.0876488 -0.007994975 -0.045324214 -0.032532733 0.11250464 0.44261634
00000000: d09d 9fbe f59f aabd e12f 5fbd d5dc b0bd
00000010: 8679 64bd a845 10bd d705 733e 8371 14be
00000020: 686e 51bd f08a 9ebd 15b5 3a3c 8af1 33be
00000030: 2fbb dabd 2f9d 2cbe b524 2abe 523b debd
00000040: 8537 bebd 8524 393e 30b7 edbd 0c36 9dbe
00000050: 3dd0 9cbe 8d38 aa3e 3b54 923d a1c5 44bc
00000060: 937c d4bd bea0 cc3d c6fd 723e 1b14 013e
00000070: dd3e 5c3e 2225 d93d 518c 84bd 7eb5 0ebe
00000080: 95e4 9cbe 1e96 3dbc 5978 58bc 6d99 86be
00000090: 81d2 1b3e 7ff5 993d 1e00 3bbe f96f 8dbd
000000a0: 4d51 85bc 215a 823e 7dd3 19be 0fb3 b2be
000000b0: a5d5 983e 9892 273b bab2 793d e9ec 403d
000000c0: 0c59 fcbd 5a03 b03e 050e 3abe 1b0a 1a3e
000000d0: f676 9f3e 2915 68bc d4ea cabb 3961 0c3e
000000e0: bc7d 093d 4bf9 b13e 3ee2 08bd 0aa8 173e
000000f0: c072 013d 66c5 84be d899 233e 6714 f3bc
00000100: 2b45 bdbd e783 dc3d c20d 5d3d f2b8 b33d
00000110: 25ba b83c 648c 643e 8206 23be 75dd 133d
00000120: 793e 47be b17f 113e 85bd 0b3e 68aa ea3c
00000130: 318c 6a3e 1dff f4bd fc15 bb3d 012f 25bd
00000140: ef43 c03d 340f a1be 7554 04be 9cc7 833e
00000150: 92e6 583d a53a d5bd c997 88bd ef6a 45bd
00000160: 2039 89bd d67d 38bd 2498 42be 0f79 8dbd
00000170: f107 36be 2572 883e 9ef5 733e a8b1 873d
00000180: 4d34 b5bd 025a d5bc 5265 a9bc b82c 43be
00000190: 9f0e 8a3c 34a2 8d3d 1295 6bbd b19f 9b3d
000001a0: e6c3 3cbe 3cf5 0d3e 8a00 d83d bb38 ab3e
000001b0: a53b 9a3d 0297 dd3c e160 61be ebdd 223e
000001c0: 9558 ca3d 0a19 ba3d 5c57 44be c580 003d
000001d0: bedc 7f3e 43a4 e1bd 97fa b1bd 9bd6 4d3d
000001e0: c77c a13d dc4c 4cbc 49c6 853e 9c54 8fbd
000001f0: d5a0 45be 184b 6b3e ab93 3ebe cb4f 213e
00000200: 7d90 12be 8504 82be e61b 873d 7b42 1bbd
00000210: bc53 5bbe 505b 9f3d 8378 9d3e 3da2 07bd
00000220: b0de 5dbe 5d9d 8f3e f154 16be bc74 073d
00000230: 2ad7 c63d 3bec c3bd 7b62 ac3d 5afe 033e
00000240: d52a 433e d5cf 793e 6074 e63c 3a16 9fbd
00000250: 4378 b4be 250d 6a3c e90c 30be 7c98 d03e
00000260: 3ed6 e63c 97a5 993e 6eb5 8fbd 0273 c03e
00000270: 62d1 e73e 7c95 133c 0885 903e 312e 80be
00000280: f42d 09be fbdb 17be 6112 febc c982 a0bd
00000290: fffe e7bd 1266 293e d2e2 ab3d 382b 9e3d
000002a0: 4a4d 9ebb fdd2 323e 9543 8fbd 4a63 2ebe
000002b0: eead b13d 53dd 843e fa54 96bd ec44 1dbe
000002c0: 97a2 4fbe 7d6b 953d b7dd 9f3c 7122 993e
000002d0: a417 8ebd 0afd 923c a1ec ecbd 0687 3dbe
000002e0: 0bda 7d3e d0ea c43d 0f6a 24be 15d7 e73e
000002f0: f33b 143f 3f28 9a3d 1e6c c539 b8f3 7a3e
00000300: 2d65 36be 9719 35bd d15b f2bd 4556 f13e
00000310: 66e5 02be 706d 5e3e 419e 9abd 347b 16be
00000320: e9cb 263e 2596 0f3e 82c9 b8bd 535d 14be
00000330: 8207 a43e ed1f e6be 243b 98be 6dbd 053f
00000340: fd38 5f3e 2a03 18be a502 663d e5fc cebd
00000350: b5ba 0dbe 5720 0dbc 3a1d 483e 2a23 0c3e
00000360: 46bf 7b3d d522 cb3d db0b 9ebc 62d6 05be
00000370: 4e9f a7bd e00d 593e a779 833e c2c2 0abe
00000380: 3ac5 a93d cedf c6be 58ae a3bd fa18 923d
00000390: d0cb 88be 839e f23e e6a4 2c3d f395 473e
000003a0: 1f7e 4b3e 7752 653c f128 87be 3380 f33d
000003b0: 27ea 0c3e 7f26 203f 8d91 123d 73f0 203d
000003c0: d258 3d3d 5e17 0bbe 91b4 2dbe 96b3 163d
000003d0: d53b 763d 1e6f 80bd 9739 8d3d 6022 e23d
000003e0: 8eaa 2f3f 09b4 d4bd 3781 b33d 5bfd 02bc
000003f0: e2a5 39bd 0b41 05bd d568 e63d 9c9e e23e

bias f4 [64]
0.18174829 -0.0557892 -0.11967135 0.066367015 0.27823237 0.2670932 0.24939284 -0.12390984
-0.05206675 0.3747007 0.06213531 -0.12903292 0.053596433 0.3049112 -0.03466524 -0.06539491
0.006800512 0.13578403 0.1416214 0.16915208 -0.32957143 0.08224431 0.17686743 0.14175895
-0.053185724 0.020821674 0.19371577 -0.43698087 0.07835343 -0.027989252 -0.18536758 0.09165654
0.11044592 0.14614074 -0.32196638 0.040345136 0.05624799 0.07090969 0.13734704 0.038733847
-0.16507286 -0.24667676 -0.07484922 -0.056610156 0.2925622 0.21620308 0.3827678 -0.16028
-0.18670805 0.09500548 -0.06304726 -0.12790245 -0.11502548 0.13939969 0.17670514 0.3751076
-0.024272291 -0.027466724 -0.2727709 -0.23138274 0.279471 -0.07130364 0.048566405 0.181691
00000000: 391c 3a3e 3783 64bd 4116 f5bd 6eeb 873d
00000010: 7974 8e3e 71c0 883e d660 7f3e 71c4 fdbd
00000020: f243 55bd c5d8 bf3e 9881 7e3d 3521 04be
00000030: ef87 5b3d 521d 9c3e 24fd 0dbd c4ed 85bd
00000040: d4d6 de3b f80a 0b3e 3305 113e 3436 2d3e
00000050: 96bd a8be b46f a83d bc1c 353e 4229 113e
00000060: 46d9 59bd 3792 aa3c 6d5d 463e f5bb dfbe
00000070: c377 a03d b749 e5bc 00d1 3dbe 6db6 bb3d
00000080: 7831 e23d eba5 153e c7d8 a4be f140 253d
00000090: 4b64 663d 1939 913d b4a4 0c3e 62a7 1e3d
000000a0: dc08 29be d598 7cbe 8c4a 99bd 0de0 67bd
000000b0: b6ca 953e 5764 5d3e 24fa c33e 7120 24be
000000c0: 6530 3fbe 3c92 c23d ec1e 81bd dcf8 02be
000000d0: 7b92 ebbd cbbe 0e3e 31f2 343e 1a0e c03e
000000e0: afd6 c6bc e501 e1bc a1a8 8bbe 99ef 6cbe
000000f0: d316 8f3e a507 92bd 91ed 463d 350d 3a3e

weight f4 [1, 64]
-0.10241829 0.002141658 -0.19253494 0.2192623 -0.028969219 -0.05840813 -0.090677395 0.0013222075
0.052082118 -0.08874458 -0.22599359 -0.004089661 0.14671753 -0.23233688 -0.19844653 -0.120024554
-0.009441972 -0.0014808237 -0.07577781 0.08496714 0.043912023 0.23500884 0.050671965 -0.016436765
0.43223062 0.1301553 0.016834753 0.041530006 0.31014654 -0.0009726692 0.48501387 0.1739027
-0.35038522 -0.0013006654 0.09772565 0.010437369 -0.15100572 0.49189356 0.11618392 -0.13315715
-0.010022579 0.114843085 0.06812233 0.0771989 -0.25893727 0.16785948 -0.03429395 0.026404716
0.1717984 -0.14115243 -0.11981198 -0.007810082 0.22851738 0.1952856 0.32285613 -0.14150059
-0.16329223 0.032974005 -0.0010710742 0.06297972 -0.3901397 0.093119495 -0.34477025 -0.0029437714
00000000: aec0 d1bd 0f5b 0c3b e127 45be 4c86 603e
00000010: db50 edbc 5d3d 6fbd 12b5 b9bd ec4d ad3a
00000020: 0f54 553d b8bf b5bd dd6a 67be 9002 86bb
00000030: 1f3d 163e b8e9 6dbe 9135 4bbe 6fcf f5bd
00000040: 80b2 1abc 3318 c2ba 6531 9bbd 4003 ae3d
00000050: 18dd 333d 28a6 703e 688d 4f3d 65a6 86bc
00000060: 554d dd3e 6e47 053e 09e9 893c 5e1b 2a3d
00000070: 87cb 9e3e bafa 7eba bd53 f83e 8d13 323e
00000080: b165 b3be 177b aaba 6324 c83d 8001 2b3c
00000090: 3ea1 1abe 79d9 fb3e d6f1 ed3d 595a 08be
000000a0: be35 24bc da32 eb3d b883 8b3d 751a 9e3d
000000b0: 6d93 84be 5be3 2b3e d077 0cbd b44e d83c
000000c0: ebeb 2f3e 438a 10be fc5f f5bd b7eb ffbb
000000d0: 7600 6a3e f3f8 473e 664d a53e 88e5 10be
000000e0: 1436 27be c00f 073d 4963 8cba 83fb 803d
000000f0: 64c0 c7be 6fb5 be3d ba85 b0be 4aec 40bb

weight f4 [1, 64]
-0.00076196593 0.013958719 0.017736156 -0.11921273 0.0003767393 -0.010386326 -0.008065182 -0.009520245
0.008168565 0.10247739 -0.0034428232 0.0093019195 0.0778491 0.039928757 -0.24972323 -0.0013024383
-0.022951445 -0.010731027 0.0057494687 -0.004335892 -0.017660256 -0.00036359776 0.15349612 0.011026002
-0.031042147 -0.16865906 -0.002785382 0.012378166 0.07342032 -0.008442064 -0.0061671534 -0.23011386
0.017500622 -0.16740832 -0.026885353 0.081044964 0.019662559 -0.0016041829 0.008688807 0.0940945
-0.008116151 0.00449063 -0.0011947249 0.00062722946 -0.035816617 0.0017622194 0.010510015 0.0012059833
0.0012017236 0.0017343505 -0.09575996 0.0052381945 -0.0063432297 -0.0007144186 0.00878336 -0.12727568
-0.001898552 0.15128292 -0.008582013 0.002169237 -0.0027032963 -0.0026859036 -0.0018765754 -0.004302044
00000000: abbe 47ba 1cb3 643c 6a4b 913c ce25 f4bd
00000010: 1885 c539 692b 2abc d323 04bc cdfa 1bbc
00000020: 72d5 053c aadf d13d fda0 61bb 1467 183c
00000030: 596f 9f3d 568c 233d 72b7 7fbe 94b6 aaba
00000040: ab04 bcbc 31d1 2fbc 0a66 bc3b 1914 8ebb
00000050: 3eac 90bc 44a1 beb9 162e 1d3e 67a6 343c
00000060: 1a4c febc f6b4 2cbe f58a 36bb cbcd 4a3c
00000070: 655d 963d 9550 0abc d515 cabb f8a2 6bbe
00000080: 775d 8f3c 166d 2bbe ac3e dcbc e7fa a53d
00000090: 6013 a13c 7243 d2ba 7f5b 0e3c 9eb4 c03d
000000a0: 9bf9 04bc 2226 933b 5198 9cba a86c 243a
000000b0: 72b4 12bd 45fa e63a 3332 2c3c 1612 9e3a
000000c0: 2783 9d3a 2553 e33a cc1d c4bd 29a5 ab3b
000000d0: deda cfbb d247 3bba 15e8 0f3c 8e54 02be
000000e0: d5d8 f8ba e9e9 1a3e 929b 0cbc c229 0e3b
000000f0: c929 31bb fc05 30bb 6cf7 f5ba 29f8 8cbb

exp_avg f4 [64, 6]
0.00056329806 0.00016113893 0.0006088732 6.411717e-05 0.0011289704 -0.00035234727 0.00029244536 -0.00039136832
-0.00025095596 -0.0008975968 -0.004457887 -0.0027618743 0.00068805227 0.0001827895 0.00030941854 -0.0004380064
0.0052562286 -0.0019319691 -0.001417495 -5.1213934e-05 -0.00083809724 0.00040769158 -0.0075068474 0.0013123488
0.0020823658 -0.00018464189 0.0019151651 -0.0007672591 0.0038179043 0.00011553053 -0.0019767312 -0.00047819683
-0.0018077515 9.5912e-05 -0.0048164823 0.00083223195 0.0012901366 0.00022788296 0.0013480685 -0.00024409188
0.0039105047 -0.0008238637 3.918821e-05 0.00018030599 0.00012061452 6.192596e-05 -0.0005072012 0.00023513602
-0.00067987264 4.8805217e-05 -0.00016720402 0.00042400364 -0.0016402677 0.0012934637 -0.0029298204 -0.00050268427
-0.002969482 0.000627291 -0.005402253 -0.003808649 0.0014887126 -9.063975e-05 0.0010027488 -0.0004690294
0.0030874864 -0.0010785492 0.0005140818 0.0004061255 0.0006431885 -0.00023234158 0.0011467286 0.00044281082
-0.0007979223 -0.00051618373 -0.0010955826 0.0003159784 -0.0016491504 -0.00033558998 0.001900849 0.00030999
0.00198309 -0.00028679756 0.0049877297 -0.00019892577 0.00015302008 0.00023214691 0.0005896868 -4.5705688e-06
0.0013140667 0.0020140547 -0.0013256002 -7.4305775e-05 -0.00089465285 0.00032648194 -0.004273617 0.00034468534
-0.0016269112 0.00047585383 -0.0014402437 0.00012513676 0.0023391533 -0.0036352312 -0.0010613678 -0.00061881635
-0.0012473614 0.00061573373 0.0016255345 -0.00014425171 0.0010982461 -0.00040563787 0.00060417835 -0.00046540776
-9.376604e-06 0.00032683514 -0.0013034072 -0.00025078497 -0.0012857327 0.00023646044 -0.0047676587 0.00035424432
-0.00060151354 -0.00011509035 -0.0003332154 -0.00012949885 -0.001798436 0.00039276184 -0.00015814515 0.00033961592
0.00030296057 0.0003639772 -0.00033885945 0.0004680158 0.00094535097 -0.00013580272 0.0004861734 -0.0006356035
0.0013875575 0.00037298375 -0.0009406796 0.00030892095 -0.00059142575 0.0006819801 -0.0008130079 0.0026650268
0.0012494442 0.00029260782 0.0012443762 -0.00018918369 0.0030689489 0.0008243388 -0.00088588253 -0.0011186106
-0.001190529 0.0005908998 0.005116138 0.0010428312 0.0022444443 0.00019915855 0.0018958265 -0.0006259111
0.005243226 -0.00147745 -0.00044775198 -0.00071960164 -0.00042710704 0.000109339366 0.0032191025 0.00047096392
-0.00097447727 -0.00032247472 -0.0009200724 0.00039257205 0.0032984256 0.0031931833 -0.0016023514 -4.923026e-05
-0.0012629024 0.0004970941 -0.001450651 -0.00053812185 -0.0017713524 0.00010861448 -0.001408777 0.0003772676
-0.00176491 0.001001323 -0.0007868547 -0.00017741005 -0.001061964 0.0002027794 -0.0017475378 -0.0032626288
-0.00019929878 0.00011212295 5.677957e-05 3.111576e-05 -0.00059039507 0.002338029 0.0012980734 0.00019786335
0.0013007039 -0.00020640784 0.0036372042 -0.0009919865 -0.0008449819 0.00034423952 -0.0005873699 -5.3944555e-06
0.0008084823 -0.0025396303 0.00037616928 -0.0002693948 0.0005486707 -0.000103149796 -0.00440817 0.003118958
0.002140396 -0.0004544842 0.0020538452 -0.00028394442 0.00013304867 0.0021908286 -0.0011080587 -2.6130514e-05
-0.0006753928 0.00028435313 -0.0051413826 0.000862093 -0.0012703025 -0.0001581744 -0.0015509049 0.00018547445
-0.0031530138 -0.0023197627 -0.0031397743 -0.00057475147 -0.0027015086 0.0005874977 -0.0071815886 0.00209098
0.00013454945 -0.00064476766 0.0003305142 0.0006428154 -0.011482512 0.0034891937 0.00081339665 -0.00016566526
0.000639919 -0.00042280834 0.002252317 -0.0028387818 0.001532893 -3.990419e-05 0.0009101493 -0.0004175522
00000000: 4baa 133a 67f7 2839 ca9c 1f3a a576 8638
00000010: f6f9 933a 40bb b8b9 5a53 9939 9130 cdb9
00000020: bd92 83b9 b44c 6bba 7713 92bb 9000 35bb
00000030: 685e 343a 2fab 3f39 7439 a239 39a4 e5b9
00000040: 713c ac3b 203a fdba 3dcb b9ba 8bce 56b8
00000050: c1b3 5bba 70bf d539 00fc f5bb 1e03 ac3a
00000060: 4d78 083b 6e9c 41b9 4706 fb3a e321 49ba
00000070: ce35 7a3b fb48 f238 0c8c 01bb 7eb6 fab9
00000080: 13f2 ecba 5d24 c938 95d3 9dbb 242a 5a3a
00000090: cd19 a93a def3 6e39 acb1 b03a eaf2 7fb9
000000a0: b123 803b 8ff8 57ba 055e 2438 8510 3d39
000000b0: 6df2 fc38 3fde 8138 b2f5 04ba d88e 7639
000000c0: 7b39 32ba 34b4 4c38 7d53 2fb9 ce4c de39
000000d0: 40fe d6ba 7189 a93a 3b02 40bb 92c6 03ba
000000e0: a49b 42bb c970 243a 6205 b1bb 879a 79bb
000000f0: e820 c33a d815 beb8 ab6e 833a 0fe8 f5b9
00000100: 6d57 4a3b 1b5e 8dba 72c3 063a 3eed d439
00000110: a69b 283a b8a0 73b9 d44d 963a 1029 e839
00000120: a92b 51ba 8150 07ba a799 8fba e7a9 a539
00000130: 4e28 d8ba 20f2 afb9 e925 f93a 2786 a239
00000140: bbf6 013b 515d 96b9 1c70 a33b bb96 50b9
00000150: 0474 2039 766c 7339 3695 1a3a e35c 99b6
00000160: c33c ac3a 3bfe 033b c3bf adba 9cd4 9bb8
00000170: 2387 6aba aa2b ab39 b309 8cbb e2b6 b439
00000180: 153e d5ba 057c f939 8fc6 bcba 2537 0339
00000190: 7b4c 193b 0f3d 6ebb 981d 8bba 1038 22ba
000001a0: 817e a3ba 3169 213a e30f d53a 4642 17b9
000001b0: 06f3 8f3a cbab d4b9 b961 1e3a f901 f4b9
000001c0: 3550 1db7 125b ab39 17d7 aaba ca7b 83b9
000001d0: 0886 a8ba 5ef2 7739 053a 9cbb deb9 b939
000001e0: e4ae 1dba a95c f1b8 6ab3 aeb9 15ca 07b9
000001f0: 80b9 ebba 9aeb cd39 c4d3 25b9 7a0e b239
00000200: aed6 9e39 31d4 be39 f2a8 b1b9 0460 f539
00000210: 6ed1 773a 4466 0eb9 17e5 fe39 a19e 26ba
00000220: b4de b53a 088d c339 f097 76ba abf6 a139
00000230: e909 1bba e9c6 323a 0920 55ba bba7 2e3b
00000240: 64c4 a33a 2869 9939 561a a33a 9c5f 46b9
00000250: 6b20 493b 7118 583a 923a 68ba 589e 92ba
00000260: 860b 9cba 9de6 1a3a 47a5 a73b 9caf 883a
00000270: 8717 133b 37d5 5039 627d f83a 2f14 24ba
00000280: 5ecf ab3b ffa6 c1ba 41c0 eab9 a6a3 3cba
00000290: 56ed dfb9 204d e538 94f7 523b b5eb f639
000002a0: 1074 7fba d311 a9b9 0331 71ba 21d2 cd39
000002b0: 662a 583b ba44 513b fe05 d2ba 977c 4eb8
000002c0: f987 a5ba 6c4f 023a c523 beba bf10 0dba
000002d0: b92c e8ba f4c7 e338 b6a6 b8ba 00cc c539
000002e0: 8d54 e7ba d33e 833a ed44 4eba 2607 3ab9
000002f0: 9931 8bba 2ea1 5439 a30d e5ba d4d1 55bb
00000300: dcfa 50b9 8d23 eb38 9926 6e38 4b82 0238
00000310: bec4 1aba 9e39 193b 1e24 aa3a 8a79 4f39
00000320: 617c aa3a 2f6f 58b9 295e 6e3b 8b05 82ba
00000330: c781 5dba 0c7b b439 baf9 19ba 0502 b5b6
00000340: 54f0 533a ed6f 26bb 9638 c539 8f3d 8db9
00000350: abd4 0f3a 2052 d8b8 6972 90bb 6f67 4c3b
00000360: e345 0c3b d647 eeb9 ce99 063b 60de 94b9
00000370: fb82 0b39 0194 0f3b 483c 91ba da32 dbb7
00000380: d80c 31ba 3b15 9539 0b79 a8bb 15fe 613a
00000390: 4780 a6ba 9edb 25b9 bc47 cbba eb7b 4239
000003a0: cba2 4ebb 2907 18bb acc4 4dbb ebaa 16ba
000003b0: cb0b 31bb 4e02 1a3a 8853 ebbb d308 093b
000003c0: d815 0d39 a005 29ba dd48 ad39 9c82 283a
000003d0: 2521 3cbc f5aa 643b 203a 553a 6eb6 2db9
000003e0: 3dc0 273a 60ac ddb9 9c9b 133b db0a 3abb
000003f0: 5beb c83a cc5e 27b8 1697 6e3a e8ea dab9
